logs/dive_rp_vary_oracle/7/actor.pt (torch, 879410 bytes, 17 tensors)

weight_ih f4 [512, 35]
0	0x3ceaf25e	0.028680023
1	0x3dfc8c29	0.12331421
2	0xbd88b51b	-0.06675168
3	0xbdbfd95f	-0.09367632
4	0x3e44b627	0.1921011
5	0x3d692892	0.056923456
6	0x3d7c99c2	0.061670072
7	0x3d9706ba	0.0737433
8	0xbd5c6873	-0.053810548
9	0x3e16ded4	0.1473344
10	0xbc2b7438	-0.01046472
11	0xbd880449	-0.06641442
12	0xbbf256f3	-0.007395619
13	0xbdd6a0e2	-0.10479905
14	0xbcb7216f	-0.02235481
15	0x3dd5e936	0.10444872
16	0x3dec0d66	0.11525993
17	0x3e19bb5b	0.15012877
18	0x3ce1b1ce	0.027550604
19	0xbe15a45e	-0.14613482
20	0x3e57e78e	0.21084425
21	0x39129772	0.00013980063
22	0x3ba7e82d	0.005124113
23	0x3e0d5059	0.13800181
24	0x3db21e41	0.08697177
25	0x3e2fda07	0.17173015
26	0x3d8b8c79	0.068139024
27	0xbe9b5135	-0.30335394
28	0xbd5e2802	-0.054237373
29	0xbd7f957a	-0.06239841
30	0x3dc05b27	0.09392386
31	0x3e01640f	0.12635826
32	0xbdbc6994	-0.09199825
33	0xbca7ec9a	-0.020498563
34	0xbcc206d1	-0.023684891
35	0xbd878f81	-0.06619168
36	0xbd4ef491	-0.050526205
37	0x3d92ab3b	0.07161566
38	0x3d12aaec	0.035807535
39	0x3df38c23	0.11891963
40	0x3cbbfc60	0.02294749
41	0x3d084437	0.03326818
42	0x3d847dcc	0.06469306
43	0xbe119971	-0.1421869
44	0xbdf3c064	-0.1190193
45	0x3e12bc86	0.14329728
46	0x3df781ff	0.12085342
47	0x3dfd7c9c	0.12377283
48	0xbdb1c110	-0.08679402
49	0xbe12de62	-0.14342645
50	0x3d483d2d	0.048886467
51	0x3e102308	0.14075863
52	0x3dce2a64	0.10066679
53	0xbd5af68d	-0.053457785
54	0x3e6216ed	0.22079058
55	0x3d335a5b	0.04378734
56	0x3e0d55d8	0.13802278
57	0xbdb7bb62	-0.08971287
58	0xbe02dc7d	-0.12779422
59	0xbd10114b	-0.03517274
60	0x3cee3761	0.029079141
61	0x3e379596	0.17928156
62	0x3c677cc4	0.014128868
63	0x3b903a01	0.004401446
64	0xbc885420	-0.016641676
65	0xbdd387bf	-0.10328626
66	0x3dcd6303	0.100286506
67	0xbb479822	-0.0030455668
68	0x3e215e63	0.15758662
69	0x3dcc1540	0.099649906
70	0xbd8df6bd	-0.06931827
71	0xbdd55718	-0.104170024
72	0x3d79ae93	0.060957503
73	0x3d4a6038	0.049408168
74	0x3b1ad7e1	0.002362721
75	0x3d8dfc2f	0.06932866
76	0x3d99abd3	0.07503476
77	0xbcc0c8a2	-0.02353317
78	0x3d05db6b	0.032679956
79	0xbdf6722e	-0.12033497
80	0xbd119271	-0.035540048
81	0xbcda9aaa	-0.026685078
82	0x3e0a5b18	0.13511312
83	0xbd21763d	-0.0394194
84	0xbb10b445	-0.0022080105
85	0x3dbccbe4	0.092185766
86	0x3bc5b3e2	0.0060334066
87	0xbd12c2d7	-0.035830345
88	0x3cc7615d	0.024338419
89	0xbe023cf1	-0.1271856
90	0x3e936f4b	0.28795847
91	0x3cc17930	0.023617357
92	0x3cf9e44d	0.03050437
93	0x3da4e083	0.08050635
94	0xbdf6a17b	-0.12042519
95	0xbdd68e30	-0.10476339
96	0x3d7a5be1	0.06112278
97	0xbd5efb84	-0.054439083
98	0x3dbbf761	0.09178043
99	0xbd653c59	-0.055965755
100	0x3d2164ec	0.039402887
101	0x3d82445b	0.06360694
102	0xbd532720	-0.051550984
103	0xbd0b14cb	-0.033955377
104	0x3ccdd0d1	0.025123985
105	0x3d38d69a	0.045126535
106	0xbd06c59b	-0.032903295
107	0xbc8f2297	-0.017472548
108	0xbd5f1450	-0.05446273
109	0x3dc8d3e9	0.09806044
110	0xbda9196f	-0.08256804
111	0x3e6340c6	0.22192678
112	0xbd97b9d7	-0.07408493
113	0x3e4d04d1	0.20021369
114	0xbc8caef8	-0.017173275
115	0xbe12778e	-0.14303419
116	0xbd000682	-0.031256206
117	0xbd43f156	-0.047837578
118	0x3dc2cb98	0.09511489
119	0xbc37098b	-0.011171709
120	0xbd4d44e1	-0.050114516
121	0xbc851184	-0.016243704
122	0xbc8874ca	-0.016657252
123	0x3d56599c	0.052331552
124	0xbe38be4f	-0.18041347
125	0xbd35ca74	-0.044382527
126	0x3d2b747d	0.04185914
127	0x3e0dd3e3	0.1385036
128	0x3dc9b4c8	0.098489344
129	0xbe132248	-0.14368546
130	0x3cdd3c0c	0.027006172
131	0x3cf837f9	0.030300127
132	0x3cc2d335	0.023782352
133	0x3c5a3613	0.013318556
134	0xbcd2a7f4	-0.025714852
135	0x3bcee015	0.0063133338
136	0xbd8d92fe	-0.06912802
137	0xbd3e4a66	-0.04645767
138	0x3e67f594	0.22652274
139	0x3c0f2fa8	0.0087393895
140	0x3e76f9a3	0.24118666
141	0xbd3c72a0	-0.046007752
142	0x3d7856b5	0.060629565
143	0x3d78102c	0.060562298
144	0xbdba773b	-0.09104773
145	0xbd658450	-0.056034386
146	0x3e583bee	0.21116611
147	0xbd600521	-0.05469239
148	0xbdf663f2	-0.12030782
149	0xbd544da3	-0.051831853
150	0xbcd3da30	-0.025860876
151	0xbd9bd83b	-0.07609602
152	0xbd31dc48	-0.043422967
153	0x3d861a85	0.06548027
154	0xbca17712	-0.019710097
155	0x3c805d78	0.01566957
156	0x3b7c6514	0.0038512396
157	0x3b36f964	0.0027919644
158	0x3cb8b12a	0.022545416
159	0x3befd1cd	0.0073187114
160	0xbd0b9db3	-0.03408594
161	0x3c0dad3e	0.008647261
162	0x3c568186	0.013092404
163	0xbde97e84	-0.11401084
164	0x3d6ad06e	0.05732768
165	0x39aaf30f	0.0003260602
166	0xbce228dd	-0.027607376
167	0xbde38272	-0.11108865
168	0xbdad60bc	-0.08465716
169	0x3d7c8369	0.06164876
170	0x3d4a1d16	0.049344145
171	0xbd4a0bc9	-0.049327645
172	0x3d5c900c	0.05384831
173	0x3db190c3	0.08670189
174	0xbdf57d33	-0.119867705
175	0x3c5d5f1f	0.013511448
176	0x3d066f5f	0.032821056
177	0xbe11efd4	-0.14251643
178	0x3e14c3ae	0.14527771
179	0xbe8ca779	-0.27471521
180	0x3d2196f6	0.03945061
181	0x3e1fdac4	0.15610796
182	0x3dac4016	0.08410661
183	0xbd213719	-0.039359186
184	0x3ddfd0b4	0.10928479
185	0x3d92825a	0.07153769
186	0xbe11a0a3	-0.14221434
187	0xbe377d76	-0.17918953
188	0xbd800684	-0.06251243
189	0x3e4eb8fd	0.20187755
190	0x3e002200	0.1251297
191	0x3dc90d01	0.098169334
192	0xbdee9ef1	-0.116514094
193	0xbd74fb93	-0.059810232
194	0xbefea8cf	-0.49738166
195	0x3dc9c299	0.0985157
196	0x3d833067	0.064057164
197	0x3dc726e7	0.09724217
198	0x3d3cb4ce	0.046070866
199	0x3c800550	0.015627533
200	0x3deb097a	0.11476417
201	0x3d3bfa56	0.045893036
202	0x3d8c2960	0.06843829
203	0x3e39be0a	0.181389
204	0xbd3b003f	-0.04565453
205	0x3dc78fbd	0.09744213
206	0xbd0fe5cd	-0.035131264
207	0x3c947ba6	0.018125366
208	0x3c2b5bc1	0.010458888
209	0x3dd0cbf6	0.101951525
210	0x3cca8baa	0.0247248
211	0xbce898c7	-0.028393162
212	0x3d8cc1b3	0.06872883
213	0xbac78908	-0.0015223334
214	0x3e75ebd3	0.24015741
215	0xbce5ab07	-0.028035654
216	0xbd0155a9	-0.031575833
217	0x3c40b833	0.0117626665
218	0x3e0c6f19	0.13714255
219	0xbdd00551	-0.10157264
220	0x3cf809a8	0.030278042
221	0x3c5d1f06	0.013496166
222	0x3df62379	0.120184846
223	0xbd42a602	-0.0475216
224	0xbda65555	-0.081217445
225	0x3cfb2716	0.030658286
226	0xbe606841	-0.2191477
227	0x3d983de7	0.07433682
228	0x3e6b957a	0.2300624
229	0xbe20cace	-0.15702364
230	0xbe34fb61	-0.17674018
231	0xbda8bc50	-0.08239043
232	0x3cb12ad2	0.021626864
233	0x3dc451bc	0.09585902
234	0x3e0e0b9d	0.13871618
235	0xbe01f0f2	-0.1268957
236	0xbd1c0589	-0.038091216
237	0xbe5aff36	-0.21386418
238	0xbde6034c	-0.112310976
239	0x3d8c10b3	0.068391226
240	0x3d4ad4a3	0.049519192
241	0x3d45b28f	0.04826599
242	0xbe427b2e	-0.18992302
243	0x3d7f72d4	0.062365368
244	0x3dceecbd	0.10103748
245	0xbe1adc92	-0.15123203
246	0x3cbd4dc7	0.023108376
247	0xbe76a98a	-0.24088112
248	0x3e1bb20e	0.15204641
249	0xbe394791	-0.18093707
250	0xbdac6fc8	-0.08419758
251	0xbdd2351a	-0.102640346
252	0x3d39beb2	0.045347877
253	0x3d22bd74	0.039731458
254	0xbdd396b0	-0.10331476
255	0xbc8bb65f	-0.017054735

weight_hh f4 [512, 128]
0	0xbde73e41	-0.11291171
1	0xbe3a86bf	-0.18215464
2	0xbc0df4c2	-0.008664312
3	0xbdb17a1b	-0.08665868
4	0xbd8e17c8	-0.0693813
5	0xba539b92	-0.0008072193
6	0xbc01756a	-0.007901529
7	0xbde92e96	-0.11385839
8	0x3dec8a3b	0.11549803
9	0xbbd1e8ce	-0.0064059263
10	0x3c3bdfed	0.011466962
11	0xbcc28ef0	-0.023749799
12	0xbdfa9ea0	-0.122372866
13	0xbd292f54	-0.0413049
14	0xbb8d7827	-0.004317302
15	0xbd686d5f	-0.05674493
16	0x3d063ca9	0.032772694
17	0x3dac4d68	0.084132016
18	0x3d840f23	0.064481996
19	0xbd8728a2	-0.06599547
20	0xbe1bda08	-0.15219891
21	0xbde005fc	-0.109386414
22	0x3d83f174	0.06442538
23	0x3d4dea54	0.0502723
24	0x3c84b801	0.016201021
25	0x3d5b2ee3	0.05351151
26	0xbdfdbdde	-0.1238973
27	0x3dd66a4b	0.104694925
28	0xbda7e619	-0.081981845
29	0xbdad3119	-0.0845663
30	0x3e058746	0.13039884
31	0xbd578902	-0.052620895
32	0xbdc55d0c	-0.09636888
33	0xbd20d64c	-0.03926687
34	0x3da2a451	0.07941497
35	0xbd469a6d	-0.048487116
36	0x3b9f049b	0.004852844
37	0xbd9b5535	-0.07584611
38	0x3d34f9ed	0.04418366
39	0x3d000757	0.031257
40	0xbd6e587a	-0.058189847
41	0x3c723436	0.014782956
42	0xbdc4cb33	-0.0960907
43	0x3be9cc91	0.007134982
44	0x3d206464	0.03915824
45	0xbe0ad68d	-0.13558407
46	0xbd230a65	-0.039804835
47	0x3dd96ea7	0.106168084
48	0xbdf77b48	-0.12084061
49	0x3ce39a39	0.0277835
50	0x3e05f4b5	0.1308163
51	0xbc9ba205	-0.018998155
52	0xbb3aacd6	-0.0028484366
53	0x3dcb7c46	0.09935813
54	0xbd1e1177	-0.038590875
55	0x3d1d920f	0.03846937
56	0xba29878c	-0.00064670364
57	0xbdc04293	-0.09387698
58	0x3d69b24d	0.057054807
59	0xbd84daef	-0.06487071
60	0xbcabbb74	-0.020963408
61	0x3d42f316	0.047595106
62	0x3d613c26	0.054989003
63	0xbe27643f	-0.16346835
64	0xbdc98a14	-0.098407894
65	0x3c7d6773	0.015466559
66	0x3c8dd80c	0.017314933
67	0x3e0d333d	0.13789077
68	0x3cb156bd	0.021647805
69	0x3bec7e97	0.007217239
70	0xbd05eff4	-0.03269954
71	0xbb54b3a2	-0.0032455702
72	0x3d6d87c5	0.057990808
73	0xbdc128d2	-0.09431614
74	0x3d453562	0.048146613
75	0x3dd2e00b	0.10296639
76	0xbe43d302	-0.19123462
77	0xbc8980ed	-0.01678511
78	0xbc5e77f5	-0.013578405
79	0x3d26e703	0.040747654
80	0x3d35579d	0.044273008
81	0xbbbf09d9	-0.0058300314
82	0x3d50cca3	0.050976407
83	0xbd70f6cb	-0.05882911
84	0xbd6ce458	-0.057834953
85	0x3d667260	0.05626142
86	0x3dcd799a	0.10032959
87	0x3dc07624	0.093975335
88	0xbdc3ef62	-0.09567143
89	0xbc1788bd	-0.00924891
90	0xbc15f003	-0.0091514615
91	0x3caf5d29	0.021406727
92	0x3be06c3d	0.0068488405
93	0xbd1c597e	-0.038171284
94	0xbdb6f6d5	-0.08933798
95	0xbd99c63c	-0.07508513
96	0xbcf39d01	-0.029737951
97	0xbcff69f8	-0.03117846
98	0x3d2de1ab	0.042451542
99	0x3c9375c5	0.018000493
100	0x3d65b97c	0.056085095
101	0x3d382204	0.044954315
102	0x3d9ecdfd	0.07754133
103	0xbe0980e9	-0.13428082
104	0xbd8a2e6a	-0.06747134
105	0xbd824921	-0.063616045
106	0x3d625a29	0.055261765
107	0xbe367098	-0.17816389
108	0x3c53ab09	0.012919196
109	0xbd99b1cf	-0.075046174
110	0x3d763d37	0.060116973
111	0xbdbb452e	-0.09144054
112	0xbc2ca2ee	-0.010536892
113	0xbda63b86	-0.08116822
114	0x3d53c3bf	0.05170035
115	0x3d7df34a	0.061999597
116	0x3d385ab7	0.045008387
117	0xbb15e523	-0.0022872172
118	0x3dd74e56	0.10512988
119	0xbd146411	-0.036228243
120	0xbd221a56	-0.039575897
121	0x3d8d77ab	0.069075905
122	0xbd2844c4	-0.041081205
123	0xbd6f4149	-0.05841187
124	0xbb025d8e	-0.0019892189
125	0x3cf14039	0.029449569
126	0x3d982542	0.07428981
127	0x3d5feb6c	0.054667875
128	0x3bf3c5f6	0.0074393703
129	0xbc7e0652	-0.015504437
130	0x3d8187cd	0.0632473
131	0xbe0f06fa	-0.13967505
132	0x3d53b594	0.05168684
133	0x3d649792	0.05580861
134	0xbd8e932e	-0.06961666
135	0xbe4f2ab7	-0.20231138
136	0x3e16f10c	0.1474039
137	0x3d144c77	0.036205735
138	0x3e058240	0.13037968
139	0xbcc6fe5b	-0.024291208
140	0x3b1ed86b	0.0024237882
141	0xbcf08b9c	-0.029363446
142	0x3dc03d26	0.09386663
143	0x3dba8ebb	0.09109255
144	0xbd554f68	-0.05207768
145	0xbca82e79	-0.020529972
146	0x3db9819f	0.090579264
147	0x3d745360	0.059649825
148	0xbd770109	-0.06030372
149	0x3d1e4f76	0.03865
150	0xbcaa543b	-0.020792117
151	0xbd172c5b	-0.036907535
152	0x3d4ed3cb	0.05049495
153	0x3c5663c2	0.013085308
154	0xbd656076	-0.056000195
155	0x3d0931d8	0.0334948
156	0x3d9e53bf	0.07730817
157	0xbc4aff66	-0.012389993
158	0x3dc8c595	0.09803311
159	0xbd07b527	-0.033131745
160	0xbd5e158e	-0.054219775
161	0xbde9c468	-0.11414415
162	0xbc32a5bb	-0.010903771
163	0xbdfc3a93	-0.1231586
164	0xbd955441	-0.07291461
165	0xbc8b047c	-0.016969912
166	0x3e23ec33	0.16008072
167	0xbe24fb25	-0.16111429
168	0x3d226096	0.039642893
169	0xbd96a6c8	-0.0735603
170	0xbdb1927d	-0.086705185
171	0xbde25d70	-0.11052978
172	0xbd95a3cc	-0.073066324
173	0x3d2b97c8	0.041892797
174	0x3c8fdd4a	0.017561574
175	0x3dcf3c01	0.10118867
176	0xbe116318	-0.14197958
177	0xbd2230ea	-0.03959743
178	0x3d4a6f0a	0.0494223
179	0x3da0e418	0.078560054
180	0xbd452819	-0.048133943
181	0xbd811ef5	-0.06304733
182	0x3c9ae9a5	0.018910239
183	0x3d9b4f81	0.075835235
184	0x3e13f586	0.14449129
185	0xbe1dd222	-0.1541219
186	0x3dcefdc0	0.10106993
187	0x3d4af8ee	0.049553804
188	0xbd600529	-0.05469242
189	0xbd00c7dd	-0.031440604
190	0xbdea8d26	-0.11452703
191	0xbb95dcd5	-0.0045734444
192	0xbe542d69	-0.20720448
193	0x3b382819	0.0028100072
194	0x3db556ff	0.08854484
195	0xbd9d5cbc	-0.07683703
196	0x3d0ad963	0.033898722
197	0x3bf53aed	0.007483831
198	0x3d7ce503	0.06174184
199	0xbc3c104d	-0.011478496
200	0x3d5b77db	0.0535811
201	0xbd8fe4cb	-0.07026061
202	0x3d369355	0.0445741
203	0x3d7d9af7	0.061915364
204	0xbdd8ef27	-0.1059249
205	0x3cbb0b1d	0.022832448
206	0xbd982bb5	-0.074302115
207	0x3c38e616	0.0112853255
208	0xbda9b571	-0.0828656
209	0xbd8fd68f	-0.07023346
210	0xbcee5c3d	-0.029096717
211	0xbcce1823	-0.025157994
212	0xbb59618e	-0.003316972
213	0xbcaebad4	-0.021329321
214	0xbbebae3e	-0.007192402
215	0xbd3eda39	-0.046594832
216	0xbd53770f	-0.051627215
217	0x3d1c5fa1	0.038177136
218	0x3e0c4ccb	0.13701169
219	0x3d75a575	0.059972245
220	0x3d952b77	0.07283681
221	0x3d288f94	0.04115255
222	0x3ce6b160	0.02816075
223	0x3d121db9	0.035672877
224	0xbd77ce4f	-0.060499486
225	0xbd803004	-0.06259158
226	0xbd0a2930	-0.033730686
227	0x3d10b5fd	0.035329808
228	0xbd19154a	-0.03737382
229	0xbc577818	-0.013151191
230	0xbc8532f1	-0.016259642
231	0xbcf019e5	-0.029309222
232	0xbd81897c	-0.06325051
233	0xbdb8bc1b	-0.09020253
234	0x3d7f139c	0.06227456
235	0xbd55d089	-0.052200828
236	0xbb89ed49	-0.004209195
237	0x3cb414d2	0.021982584
238	0xbdb19cfa	-0.08672519
239	0xbda541a0	-0.080691576
240	0x3c0f5a29	0.008749523
241	0xbd9ea666	-0.07746582
242	0x3c2a7acd	0.010405255
243	0xbd91ba82	-0.07115652
244	0xbd0c7bef	-0.03429788
245	0x3c9369d1	0.017994793
246	0x3cbbaeb4	0.022910453
247	0x3cc136f1	0.023585768
248	0xbb91e34f	-0.004452146
249	0xbde056d6	-0.10954063
250	0xba81599a	-0.0009868622
251	0x3d07d431	0.033161346
252	0x3e1595aa	0.14607874
253	0x3dc3e3f7	0.09564965
254	0x3c3317df	0.010930984
255	0x3d64dca5	0.055874486

bias_ih f4 [512]
0	0x3d8f2fe3	0.069915555
1	0x3e18f0be	0.14935586
2	0x3e00953a	0.12556925
3	0x3e91d498	0.2848251
4	0x3c8855c9	0.016642468
5	0x3d85776e	0.0651692
6	0x3dad785c	0.08470222
7	0x3d3cc97a	0.04609058
8	0xbae941ed	-0.0017796137
9	0x3e0fb298	0.14032972
10	0x3c912869	0.017719464
11	0x3d5ab582	0.053395756
12	0x3dce6b68	0.1007908
13	0xbd026265	-0.031832118
14	0x3d9ae57e	0.075633034
15	0x3df79997	0.12089842
16	0x3c84c327	0.016206337
17	0x3d423d40	0.047421694
18	0x3e4af297	0.19819103
19	0x3cfab602	0.030604366
20	0xbcfed362	-0.031106655
21	0x3e7654b3	0.24055748
22	0x3e09041a	0.13380471
23	0x3e823d03	0.25437173
24	0xba84c042	-0.0010128098
25	0x3c183ee1	0.009292335
26	0x3c0ec053	0.008712846
27	0x3d6c7c9f	0.057736035
28	0x3e84c3a8	0.25930524
29	0x3dcb4420	0.09925103
30	0x3e6c2346	0.23060331
31	0x3d8a72f3	0.06760206
32	0x3d1d83fc	0.03845595
33	0x3e15de78	0.14635646
34	0x3dead8d1	0.11467136
35	0xbd531ca5	-0.05154099
36	0x3e5592f8	0.20856845
37	0x3dc3b50b	0.095560156
38	0xbb5238ba	-0.0032077269
39	0x3de0a237	0.1096844
40	0x3d48af45	0.048995275
41	0x3de6e1fd	0.112735726
42	0x3d8b0f3e	0.067900166
43	0x3dd7c903	0.10536387
44	0x3e943b76	0.28951615
45	0x3e1b69b8	0.15177047
46	0x3d3e970c	0.04653077
47	0x3e477f12	0.19482067
48	0x3e3edb8a	0.18638435
49	0xbc9b3b37	-0.018949134
50	0x3d2f1673	0.04274602
51	0x3cbf7034	0.023368932
52	0x3da20bfb	0.07912441
53	0x3e189679	0.14901151
54	0x3e5a94dd	0.2134585
55	0x3e730c46	0.2373515
56	0x3dbbdb10	0.09172642
57	0x3e384d8b	0.1799833
58	0x3d8d4bea	0.06899245
59	0x3e02e006	0.1278077
60	0x3cc72f2d	0.024314487
61	0x3e2841b1	0.1643131
62	0x3ea395d1	0.31950238
63	0x3df437a8	0.11924678
64	0xbc4a4ffc	-0.012348171
65	0x3de83efa	0.11340137
66	0xbc1b7a8d	-0.009489668
67	0x3dc797f3	0.09745779
68	0x3e4b4624	0.19850975
69	0x3e19b7cb	0.15011518
70	0x3e0abdd8	0.13548982
71	0x3c35a546	0.011086768
72	0x3e0a7b2d	0.1352355
73	0x3dac833d	0.08423469
74	0x3d9b7033	0.0758976
75	0x3e377fdc	0.17919868
76	0x3e1ed439	0.15510644
77	0x3d4f125d	0.050554622
78	0x3e6e7d0a	0.23289886
79	0x3d098b58	0.033580154
80	0x3e125031	0.14288403
81	0x3ddf891f	0.10914826
82	0x3df69fd0	0.120422006
83	0x3d82dd02	0.0638981
84	0x3e0fad67	0.14030991
85	0x3de88e20	0.11355233
86	0x3b06f6bd	0.0020593845
87	0x3d2cc926	0.042184018
88	0x3e004a24	0.12528282
89	0x3e212fe7	0.1574093
90	0x3e043724	0.1291166
91	0x3dccb621	0.09995676
92	0x3e29c56a	0.16579214
93	0x3dbf59bf	0.093432896
94	0x3e0245f0	0.12721992
95	0x3e03b377	0.12861429
96	0x3bfdf226	0.0077498136
97	0x3ca3cad4	0.019994177
98	0x3dfc7092	0.123261586
99	0x3d9a78e5	0.0754259
100	0x3dc42876	0.0957803
101	0x3e147548	0.14497864
102	0xbcbbce71	-0.022925587
103	0x3e2bffcf	0.16796802
104	0x3d8030d3	0.062593125
105	0x3d91ef36	0.07125704
106	0x3e030490	0.12794709
107	0x3d8aa549	0.06769807
108	0x3e9597db	0.2921742
109	0x3c37ba45	0.011213844
110	0x3dbd3cd2	0.09240116
111	0x3ce4bd44	0.02792228
112	0x3d8b8400	0.068122864
113	0xbc3770ad	-0.011196298
114	0x3e12020d	0.14258595
115	0xbc27e42b	-0.010247271
116	0xbd25794f	-0.040398892
117	0x3d9afd5b	0.07567855
118	0xbcd0d914	-0.025494136
119	0x3d9bf33a	0.07614751
120	0xbc426129	-0.011863985
121	0x3c494123	0.012283596
122	0x3c4ba097	0.012428424
123	0x3e012b67	0.12614213
124	0x3bbd9efd	0.005786775
125	0xbd7eec31	-0.06223697
126	0x3d89cc1e	0.067283854
127	0x3d9ca28f	0.07648193
128	0xbdb75bea	-0.08953078
129	0x3cd95eae	0.026534405
130	0x3de37d59	0.111078925
131	0xbb8238a4	-0.0039740372
132	0xbd40def0	-0.04708761
133	0xbd29a4a0	-0.041416764
134	0x3dadb123	0.08481052
135	0x3de36546	0.11103301
136	0xbcd0da13	-0.02549461
137	0xbc52907b	-0.01285183
138	0x3d35ec2b	0.04441468
139	0xbca6942c	-0.020334326
140	0x3dd7abad	0.105307914
141	0x3d3f2754	0.046668366
142	0x3d89c736	0.067274496
143	0x3da61235	0.081089415
144	0x3dd4bb30	0.10387266
145	0x3d4dbacc	0.05022697
146	0xbd459681	-0.048239235
147	0x3d4daeba	0.05021546
148	0x3d8efc51	0.06981719
149	0xbbb9f39f	-0.005674794
150	0xbd859d42	-0.06524135
151	0x3cd9ba75	0.026578167
152	0x3c210c9a	0.009829665
153	0x3d373f9e	0.044738404
154	0xbd6c0796	-0.057624422
155	0xbdd0b6c3	-0.10191109
156	0x3cac7ff3	0.021057105
157	0x3d86d383	0.065833114
158	0x3cc18af7	0.023625834
159	0x3d8c8f13	0.06863227
160	0xbdbbf6c6	-0.09177928
161	0xbc2259bb	-0.009909089
162	0xbd16bd39	-0.03680155
163	0xbd20f3f0	-0.039295137
164	0xbdc471f5	-0.09592048
165	0x3cac600e	0.021041896
166	0x3dde34f1	0.108499415
167	0x3d71f9bd	0.05907606
168	0x3cb2ce9c	0.021827035
169	0x3d5b7fed	0.053588796
170	0x3d87694d	0.066118814
171	0xbb2bdf9d	-0.0026225813
172	0xbe44a234	-0.192025
173	0x3db721cf	0.08941995
174	0x3e0ef476	0.13960442
175	0xbcf72d79	-0.03017305
176	0xbd111fb4	-0.035430625
177	0x3c2a7423	0.010403666
178	0x3dd6f3a8	0.104956925
179	0xbb61ee26	-0.0034474223
180	0xbd581181	-0.052751068
181	0x3c644e17	0.013934634
182	0xbc596d4f	-0.01327069
183	0xbcf534d1	-0.029932411
184	0xbd65cd9c	-0.056104288
185	0x3cc457f6	0.023967724
186	0x3c98ec77	0.018667443
187	0xbd10c069	-0.035339747
188	0xbc7a52f4	-0.015278567
189	0xbdbf076d	-0.09327588
190	0xbd9b7a99	-0.07591743
191	0xbd699224	-0.057024136
192	0x3da21c33	0.07915535
193	0x3dea92e9	0.11453802
194	0xbe18dbd5	-0.1492761
195	0xbd68fd76	-0.056882344
196	0x3ba1423c	0.004921226
197	0xbd79459c	-0.0608574
198	0x3d9882a4	0.07446793
199	0xbe144bcb	-0.14482038
200	0xbd983c75	-0.07433406
201	0xbd964103	-0.07336619
202	0x3ce80de2	0.028326932
203	0xbd3cda44	-0.04610659
204	0x3d953be2	0.07286812
205	0x3d1be65a	0.038061477
206	0x3d3aad4f	0.045575436
207	0x3c60824f	0.013702943
208	0x3d245205	0.040117282
209	0x3cdca52a	0.026934225
210	0xbdab9bc9	-0.08379323
211	0x3e0da089	0.1383077
212	0x3d7ff990	0.06249386
213	0xbc6c82ff	-0.014435529
214	0xbcfde3a5	-0.030992338
215	0x3d404fd1	0.04695112
216	0xbd0dea3b	-0.034647208
217	0x3c82081d	0.01587301
218	0x3d9b57ee	0.07585131
219	0xbd4444d1	-0.04791719
220	0xbd7cd0ab	-0.06172244
221	0x3d373415	0.044727404
222	0x3d5df137	0.05418512
223	0x3da4c2eb	0.0804499
224	0x3dd5044b	0.104012094
225	0xbdb2a771	-0.08723343
226	0x3d15ac54	0.036541298
227	0xbddbe99e	-0.10737918
228	0xbe3108f1	-0.17288567
229	0xbbb370aa	-0.005476077
230	0xbd4310d8	-0.047623485
231	0x3d99b450	0.07505095
232	0x3cc5a10d	0.024124647
233	0x3c917646	0.017756592
234	0xbd687c8c	-0.056759402
235	0x3e1462d9	0.14490832
236	0xbc322c8b	-0.010874878
237	0x3cfe7e7f	0.031066177
238	0xbcaa1c10	-0.020765334
239	0xbd58f407	-0.052967098
240	0xbd630f3e	-0.055434458
241	0x3d0c8318	0.03430471
242	0xbc09b624	-0.008405242
243	0x3d804ff4	0.0626525
244	0xbd58139e	-0.052753083
245	0x3caf7791	0.021419318
246	0xbd2192a9	-0.039446507
247	0x3bdd360b	0.006750827
248	0x3d630dbd	0.055433024
249	0xbad9461c	-0.001657668
250	0x3d57f5ad	0.05272453
251	0x3cd26e45	0.025687346
252	0x3d9cde1f	0.07659554
253	0x3da5bb48	0.08092362
254	0x3e056853	0.13028078
255	0xbda7a64a	-0.08186014

bias_hh f4 [512]
0	0x3d64b039	0.05583212
1	0x3e1844ac	0.14869946
2	0x3da259ad	0.079272605
3	0x3ea8e34a	0.32985908
4	0xbcd18c25	-0.025579521
5	0x3e1790de	0.14801356
6	0x3daf5b92	0.085623875
7	0x3d0bb0e4	0.034104243
8	0x3df47889	0.11937053
9	0x3e26f60c	0.16304797
10	0x38246a90	3.919989e-05
11	0x3d77a318	0.060458273
12	0x3e096d6b	0.13420646
13	0xbd9bea3f	-0.07613038
14	0x3dbbe750	0.09174979
15	0xbc6b16b9	-0.014348679
16	0x3d3dabde	0.046306483
17	0x3d51ef6c	0.05125372
18	0x3da60bfa	0.08107753
19	0x3da17d03	0.07885172
20	0x3d2fe2ba	0.042940833
21	0x3e9fd3bf	0.31216237
22	0x3e08bd9a	0.13353577
23	0x3e0d4dc7	0.13799201
24	0x3a20dc51	0.00061363453
25	0x3e0e6583	0.13905911
26	0x3ae49678	0.0017439863
27	0x3d9abab2	0.075551406
28	0x3e1fe902	0.15616229
29	0x3d05d40b	0.032672923
30	0x3e2b5c04	0.1673432
31	0x3db544d5	0.08851019
32	0x3d9e3ed1	0.07726825
33	0x3e292b76	0.16520485
34	0x3de5f267	0.11227875
35	0x3c715550	0.014729813
36	0x3e1897fc	0.14901727
37	0x3e155aef	0.1458547
38	0x3ddcf7cf	0.10789453
39	0x3dcfbc0d	0.1014329
40	0xbd732e59	-0.059370372
41	0x3e046919	0.12930717
42	0x3d258ac3	0.040415537
43	0x3db5a5df	0.08869528
44	0x3e4a2d26	0.19743785
45	0x3d77bf97	0.06048545
46	0x3d2e0bc6	0.042491697
47	0x3e6081fe	0.21924588
48	0x3dbee2cf	0.09320604
49	0x3ddea453	0.10871186
50	0xbd250725	-0.040290017
51	0xbbf8ba94	-0.007590601
52	0xbcc0dadb	-0.023541858
53	0x3e0cbf77	0.13744913
54	0x3e106c97	0.14103924
55	0x3e22977c	0.15878099
56	0x3d21dd16	0.039517485
57	0x3e1c4957	0.15262352
58	0x3d967efe	0.073484406
59	0x3b90db07	0.0044206413
60	0x3c1b64d9	0.009484493
61	0x3db4822c	0.08813891
62	0x3e817681	0.25285724
63	0x3ddfc389	0.10925967
64	0x3dee131f	0.11624741
65	0x3c19a6b0	0.00937812
66	0x3d093ad9	0.033503387
67	0x3a4a631b	0.00077204563
68	0x3e1b981e	0.15194747
69	0x3da5663d	0.08076141
70	0x3d6641ab	0.05621497
71	0x3c344500	0.011002779
72	0x3d969513	0.073526524
73	0x3dc73ab7	0.09727996
74	0x3d850a13	0.06496062
75	0x3e1e48b0	0.15457416
76	0x3ddd5bcc	0.108085245
77	0x3e1b3ef4	0.15160733
78	0x3e3326d2	0.17495278
79	0x3e1ba400	0.1519928
80	0x3e3095fd	0.17244716
81	0x3e003624	0.12520653
82	0x3e44bbc5	0.19212253
83	0x3ce19300	0.027535915
84	0x3dedbc95	0.11608235
85	0x3d9d86f0	0.07691753
86	0x3dcac31f	0.09900498
87	0x3d16ac74	0.036785558
88	0x3d97d25e	0.07413171
89	0x3e35324b	0.17694966
90	0x3dd9c2e6	0.10632877
91	0x3e4bd73a	0.19906321
92	0x3dbbd0b5	0.09170667
93	0x3c120d45	0.0089142965
94	0x3e059416	0.13044772
95	0x3e08dc9f	0.1336541
96	0x3dd9b699	0.10630531
97	0x3cb598da	0.022167612
98	0x3d7e8ff9	0.06214902
99	0x3e5a39bb	0.21311085
100	0x3dea608a	0.114441946
101	0x3e51ba3e	0.20481202
102	0x3d8276ac	0.06370291
103	0x3e03ba3d	0.12864013
104	0x3e1acf91	0.15118243
105	0x3df71cdc	0.12066051
106	0x3d55b9b4	0.052179053
107	0x3e0e73ab	0.13911311
108	0x3e7354ce	0.23762819
109	0x3dc398c2	0.095506206
110	0x3d330a80	0.043711185
111	0x3e095feb	0.13415496
112	0x3d8319cc	0.06401405
113	0x3d25a018	0.04043588
114	0x3d018bfe	0.031627648
115	0x3d1c8218	0.038210005
116	0xbbadf572	-0.0053088004
117	0x3d551ecc	0.052031323
118	0x3de7453c	0.11292502
119	0x3d5003ff	0.05078506
120	0xbc86278f	-0.016376285
121	0x3c5445cb	0.012956093
122	0x3ce4a230	0.027909368
123	0x3dfcb377	0.12338918
124	0x3e1a3a8f	0.15061401
125	0x3cf25efe	0.029586311
126	0x3da8b2ca	0.08237226
127	0xbd7089d0	-0.05872518
128	0xbd741d93	-0.059598517
129	0x3cf76102	0.030197624
130	0xbd6c9367	-0.05775776
131	0x3d548e95	0.05189379
132	0xbd6e107a	-0.058121182
133	0xbc03efec	-0.008052807
134	0x3d87a8a1	0.0662396
135	0x3d8dbc7c	0.06920716
136	0x3cc40d6d	0.023932183
137	0xbd24a042	-0.040191896
138	0x3c17a786	0.009256249
139	0xbd7d7110	-0.061875403
140	0xbcbd0680	-0.023074389
141	0xbce25712	-0.027629409
142	0x3d6d1d09	0.05788902
143	0x3afa423e	0.0019093228
144	0x3d2bb690	0.041922152
145	0xbd6f028c	-0.05835204
146	0xbd0fb0d1	-0.035080735
147	0x3db33eb1	0.08752192
148	0x3c4cb527	0.012494362
149	0xbd7e6829	-0.062111054
150	0xbd9f9260	-0.07791591
151	0xbdacc54b	-0.08436068
152	0x3dd092cf	0.101842515
153	0x3c0a0cc0	0.008425891
154	0x3dc6bc65	0.09703902
155	0xbd5ee6a1	-0.054419164
156	0x3acf9021	0.00158358
157	0x3d1c56f2	0.038168855
158	0xbe0ec675	-0.13942893
159	0xbcf09bbe	-0.029371139
160	0x3d292874	0.041298345
161	0xbd015051	-0.031570736
162	0xbe406cdc	-0.18791527
163	0x3dba453f	0.09095239
164	0x3cac5122	0.02103478
165	0x3da0277f	0.07820033
166	0x3dc30af5	0.09523574
167	0xbca6ba76	-0.020352583
168	0x3dcf0e33	0.1011013
169	0xbd624b6f	-0.05524772
170	0x3d811f21	0.063047655
171	0xbd79d834	-0.060997203
172	0xbced7b07	-0.028989328
173	0xbd7fe2eb	-0.062472265
174	0xbcc0b87c	-0.023525469
175	0x3d728445	0.059208173
176	0x3ddd39fe	0.10802077
177	0xbdb613c8	-0.08890492
178	0x3e0454c2	0.12922958
179	0x3c1dc220	0.009628803
180	0x3d99ffd6	0.075195
181	0x3d06b1c8	0.03288439
182	0xbd8e041d	-0.06934378
183	0x3cbaa2a1	0.022782626
184	0x3dbe3ce6	0.09288959
185	0x3d957074	0.07296839
186	0xbd86bb21	-0.06578661
187	0x3d94d46f	0.07267081
188	0x3d71b15d	0.059007037
189	0x3cb907a6	0.022586655
190	0xbd498253	-0.049196552
191	0x3d605a13	0.0547734
192	0x3c852f1a	0.016257811
193	0x3cdf04b9	0.027223932
194	0xbd54b323	-0.05192865
195	0x3d728928	0.059212834
196	0xbd97ce27	-0.07412367
197	0xbd50fa60	-0.051020026
198	0xbcde6c4c	-0.02715125
199	0x3b982add	0.0046437816
200	0x3daf7f69	0.085692234
201	0x3b8533b6	0.0040650023
202	0xbd661515	-0.05617245
203	0xbe08392c	-0.1330306
204	0x3d82d2f1	0.0638789
205	0xbd01053b	-0.03149913
206	0x3c213988	0.009840377
207	0xbd32308d	-0.043503333
208	0xbd56ea2d	-0.05246942
209	0xbd9aca28	-0.075580895
210	0xbe019e73	-0.126581
211	0x3dec089d	0.1152508
212	0x3d36bfd6	0.044616543
213	0xbc093435	-0.0083742635
214	0x3e09e94f	0.13467906
215	0xbc31d9a0	-0.0108551085
216	0x3c74f5fc	0.014951225
217	0x3d6c54d2	0.05769808
218	0x3d4dc56a	0.050237097
219	0xbd714975	-0.058907945
220	0xbced608d	-0.028976703
221	0xbc6ffb41	-0.014647306
222	0x3cf2e23a	0.029648889
223	0x3cd10cbd	0.02551877
224	0x3dda83bd	0.10669658
225	0xbdc78e65	-0.097439565
226	0x3d789ba0	0.06069529
227	0xbd08dc76	-0.033413373
228	0xbdd6e625	-0.10493115
229	0x3cc25ada	0.023724962
230	0xbd219e14	-0.039457396
231	0x3dd35de0	0.103206396
232	0x3d2d6dfa	0.04234121
233	0x3d74d933	0.05977745
234	0xbd9b24c8	-0.07575375
235	0x3bf928dc	0.007603748
236	0x3b50cd59	0.0031860678
237	0x3dc8879d	0.09791491
238	0xbd25c539	-0.04047129
239	0xbc94b192	-0.018151078
240	0xbd9bd6c5	-0.076093234
241	0xbdd46085	-0.10369972
242	0xbd498d9c	-0.049207315
243	0xbd60687e	-0.05478715
244	0xbcc4de67	-0.024031831
245	0xbca21f6d	-0.019790376
246	0x3b6b6816	0.0035920194
247	0xbcf990a9	-0.030464487
248	0x3d35e61d	0.044408906
249	0x3c88dfbf	0.016708253
250	0xbc9dfe82	-0.019286398
251	0xbd93a5b2	-0.07209338
252	0x3e00302e	0.12518379
253	0x3cb065c4	0.0215329
254	0x3d9ad1d4	0.07559553
255	0x3cd60e1e	0.026129778

weight_ih f4 [512, 128]
0	0xbd67c1af	-0.056581195
1	0xbd7b452a	-0.061345257
2	0x3ca25b6b	0.019818982
3	0xbce63de5	-0.028105685
4	0xbd35f0ce	-0.044419102
5	0xbb78919c	-0.0037928587
6	0xbde8d17f	-0.11368083
7	0x3db48f14	0.088163525
8	0x3e181a7f	0.14853857
9	0xbd121c72	-0.03567166
10	0xbbbd3436	-0.0057740463
11	0xbdd060e7	-0.10174733
12	0xbe145866	-0.14486846
13	0x3bee082b	0.0072641573
14	0x3c86ccb4	0.016455032
15	0x3d7d48a4	0.061836854
16	0xbbb838f0	-0.005622022
17	0x3c5858b7	0.013204745
18	0xbd1d113d	-0.038346518
19	0x3d7c8666	0.06165161
20	0x3d3f53ab	0.04671065
21	0x3d2b3faf	0.04180878
22	0xbda8948f	-0.0823146
23	0x3d3f89ab	0.04676215
24	0xbc3c624c	-0.011498045
25	0x3dea4fcb	0.114410006
26	0xbd4f6f08	-0.050642997
27	0xbd50b54d	-0.050954152
28	0x3d7ad81d	0.061241258
29	0xbc07ef8b	-0.008296858
30	0x3d9c15e6	0.07621364
31	0x3de70c0e	0.11281596
32	0x3cec80bd	0.028869981
33	0xbdbe2cc5	-0.09285883
34	0x3d5c5ed8	0.053801388
35	0x3a63d03f	0.0008690394
36	0xbd36c00f	-0.044616755
37	0x3d146335	0.036227424
38	0xbd850d20	-0.06496644
39	0xbdf55ac8	-0.11980206
40	0x3b4578b0	0.003013175
41	0xbe100e7f	-0.1406803
42	0x3d906331	0.07050169
43	0x3d3e8de5	0.04652204
44	0x3d9e89b8	0.077411115
45	0xbc3e5b4c	-0.011618447
46	0xbdc24c1c	-0.09487173
47	0xbd9a75ed	-0.07542024
48	0x3e1ee684	0.15517622
49	0xbe135395	-0.14387353
50	0xbda31c11	-0.079643376
51	0x3c06eb11	0.008234755
52	0xbd224c8e	-0.03962379
53	0xbe5ec767	-0.21755753
54	0xbd85782c	-0.065170616
55	0xbdd94eb0	-0.106107116
56	0x3d0f643b	0.035007697
57	0xbddc6376	-0.10761158
58	0xbb17e59a	-0.0023177625
59	0xbe162984	-0.14664274
60	0xbde047fc	-0.1095123
61	0xbde79123	-0.113069795
62	0x3e2bc25d	0.16773362
63	0xbd265d0c	-0.04061608
64	0xbddb3b9e	-0.107047305
65	0xbd52806f	-0.051392015
66	0x3c36f9c1	0.011167944
67	0xbcddee8b	-0.027091285
68	0xbe07c5f9	-0.13259114
69	0xbd8f8e12	-0.0700952
70	0x3e6b1ea8	0.22960913
71	0x3c15239e	0.00910273
72	0xbd6abf07	-0.057311084
73	0x3c9be8c1	0.019031884
74	0xbd0d8efe	-0.034560196
75	0xbbec2fc8	-0.0072078444
76	0xbd678bdc	-0.056529865
77	0xbd7d3339	-0.061816428
78	0xbcfbcd3e	-0.030737516
79	0x3d276d9c	0.040876016
80	0xbd982e2b	-0.07430681
81	0x3d84eff2	0.064910784
82	0x3db55c30	0.08855474
83	0xbe133839	-0.14376916
84	0x3e36ddc8	0.1785804
85	0xbd418f12	-0.047255583
86	0x3d5629e3	0.05228604
87	0x3e12d556	0.14339194
88	0xbc803072	-0.0156481
89	0x3df77e03	0.12084582
90	0xbd7a8d4c	-0.061169907
91	0x3d1317ce	0.035911374
92	0xbcfd9e2a	-0.030959208
93	0xbdb34387	-0.08753114
94	0xbda3c06b	-0.07995685
95	0x3d21185f	0.039329883
96	0xbce67dae	-0.0281361
97	0xbd942ee7	-0.072355084
98	0x3d5e6f45	0.054305334
99	0xbd449695	-0.04799517
100	0xbdb81acd	-0.08989487
101	0xbe31c412	-0.17359951
102	0xbd72c41c	-0.059269056
103	0xbd2e7560	-0.042592406
104	0x3d5f3441	0.054493193
105	0xbe184753	-0.14870958
106	0x3ba488d1	0.0050211926
107	0xbdeb4690	-0.11488068
108	0xba5d6e0b	-0.00084468786
109	0x3e02ddd8	0.12779939
110	0xbe0c4e91	-0.13701846
111	0xbe28c0c1	-0.1647978
112	0xbe25b0c0	-0.16180706
113	0xbe1083b3	-0.1411274
114	0xbb867340	-0.0041030943
115	0xbcaed9de	-0.021344122
116	0xbd19f2ef	-0.037585195
117	0x3d432af1	0.047648374
118	0x3cb76512	0.022387061
119	0xbd03e0ed	-0.032196928
120	0x39f29de7	0.00046275483
121	0xb8cec034	-9.858646e-05
122	0x3d686177	0.056733575
123	0xbd8536be	-0.06504582
124	0xbdc7e8b2	-0.0976118
125	0xbe02ad92	-0.12761524
126	0xbd2a0c50	-0.04151565
127	0xbdd57d2e	-0.10424267
128	0x3da1cb26	0.079000756
129	0xba23aa51	-0.00062433357
130	0x3d918ef5	0.07107345
131	0x3c80504a	0.015663285
132	0xbd59ab0e	-0.053141646
133	0x3e1ec36d	0.15504237
134	0xbc92ffb7	-0.0179442
135	0x3dbc68c7	0.09199672
136	0x3d2b2fbb	0.041793566
137	0xbcf3ecfb	-0.029776087
138	0x3c6520c1	0.01398486
139	0x3910aad2	0.00013796546
140	0x3cb7c966	0.022434901
141	0x3d4a942f	0.049457725
142	0xbbcaef7e	-0.0061931005
143	0x3dc6e671	0.09711922
144	0x3db3cb41	0.08779002
145	0x3c902d79	0.017599808
146	0xbddb7c63	-0.10717084
147	0xbd2546cb	-0.040350717
148	0xb96f1473	-0.00022800434
149	0x3dcba8af	0.09944283
150	0xbe195fdb	-0.14977972
151	0xbe0b2f61	-0.13592292
152	0xbe20558f	-0.15657638
153	0xbe0ad04b	-0.1355602
154	0xbc8aa392	-0.0169237
155	0x3de0e200	0.10980606
156	0xbdb88b40	-0.09010935
157	0x3c1eb1a6	0.009685909
158	0x3d8e378d	0.06944189
159	0x3de7f0b0	0.11325204
160	0xbd39145a	-0.045185424
161	0xbcae5987	-0.021282924
162	0xbda44de3	-0.08022668
163	0xbd877c3b	-0.06615492
164	0xbdad8ad6	-0.084737465
165	0xbe177310	-0.14789987
166	0x3d2df9c5	0.042474527
167	0x3dd4057e	0.1035261
168	0xbe0516a4	-0.12996918
169	0x3c6f34a7	0.014599956
170	0x3da86fc2	0.08224441
171	0x3c72e837	0.014825872
172	0x3de6485b	0.112442695
173	0xbe30b784	-0.17257506
174	0x3deb35b8	0.114848554
175	0x3e537650	0.20650601
176	0x3dc3cd8f	0.095606916
177	0xbda6591c	-0.08122465
178	0x3c36fe6d	0.011169058
179	0x3b7013b5	0.003663284
180	0xbd04cfcf	-0.032424744
181	0xbda98303	-0.082769416
182	0xbe03aafe	-0.12858197
183	0x3b9b32bc	0.0047362726
184	0xbd2f9b72	-0.042872854
185	0xbbadd247	-0.005304608
186	0xbbb6b960	-0.0055762976
187	0xbbd75c9f	-0.0065723206
188	0x3c2699f4	0.010168541
189	0x3dd89dbd	0.10576961
190	0xbd178fda	-0.037002422
191	0xbccc344b	-0.024927279
192	0xbd978251	-0.07397903
193	0x3c2c2c1e	0.010508565
194	0x3d2c69dd	0.042093147
195	0x3d9ed4bb	0.07755419
196	0x3d721dd5	0.05911048
197	0xbd03f71d	-0.032218087
198	0xbd3b0638	-0.045660228
199	0xbd5df91c	-0.054192647
200	0x3d1b0b90	0.037852824
201	0xbd3c981a	-0.046043493
202	0x3becf2fd	0.007231115
203	0xbca5df09	-0.020247953
204	0x3cd2217f	0.025650738
205	0x3cc8baa1	0.024503054
206	0xbbb2613b	-0.0054437197
207	0xbb7636a2	-0.0037569185
208	0xbc208eaa	-0.009799639
209	0xbc28c416	-0.010300657
210	0xbc39df48	-0.011344738
211	0xbd85f7a2	-0.06541373
212	0x3e2552a8	0.16144812
213	0xbd96eb82	-0.07369138
214	0x3dbd2a12	0.0923654
215	0xbdf11755	-0.11772028
216	0xbe12e660	-0.14345694
217	0x3db203f5	0.08692161
218	0x3d6b94e5	0.057515044
219	0x3d704e1a	0.058668233
220	0x3d8be042	0.06829883
221	0x3da44d8e	0.08022605
222	0x3d29f424	0.041492596
223	0x3c525c6a	0.012839416
224	0x3c983d47	0.018583907
225	0xbc935eff	-0.017989634
226	0x3d0102d6	0.031496845
227	0x3bdaf691	0.006682225
228	0xbdee0b97	-0.11623304
229	0x3d6fa64c	0.058508202
230	0xbddb476f	-0.10706984
231	0xbd76a821	-0.060218934
232	0x3d85b59f	0.06528782
233	0x3e184c9e	0.14872977
234	0xbe200524	-0.15626961
235	0xbdaac3c0	-0.083381176
236	0xbcb090f8	-0.021553501
237	0x3da8a3d5	0.082343735
238	0xbd8b62fb	-0.068059884
239	0xbe40ff4d	-0.1884739
240	0xbc4fb828	-0.012678184
241	0xbcefe778	-0.029285178
242	0xbd92c00c	-0.07165536
243	0xbd8d7f57	-0.06909054
244	0xbde67bbc	-0.11254069
245	0x3da35af4	0.07976332
246	0x3c98ccab	0.01865228
247	0xbdac672c	-0.08418116
248	0xbcf5627d	-0.02995419
249	0xbdfd4cbd	-0.12368152
250	0xbd980a0e	-0.07423793
251	0xbd081064	-0.033218756
252	0xbdc2dcae	-0.095147476
253	0xbd918de8	-0.071071446
254	0x3c9da8bb	0.019245496
255	0xbddddd13	-0.10833182

weight_hh f4 [512, 128]
0	0xbd216982	-0.03940726
1	0x3cf880f3	0.030334925
2	0xbd12ceca	-0.03584174
3	0xbdf4608e	-0.11932479
4	0xbc3893c0	-0.011265695
5	0xbdb03c3b	-0.08605238
6	0xbd3cb61d	-0.046072114
7	0xbe33f89f	-0.1757531
8	0x3d9c315c	0.07626602
9	0x3d32c8af	0.043648418
10	0xbd99b11a	-0.075044826
11	0xbc9418de	-0.018078264
12	0xbb709328	-0.0036708806
13	0x3e04d5e0	0.12972212
14	0x3dce875a	0.1008441
15	0xbd050e76	-0.032484494
16	0xbd197290	-0.03746277
17	0xbd0dc65f	-0.03461301
18	0x3d71fd46	0.05907943
19	0xbcf8c35d	-0.030366594
20	0x3c97b73a	0.018519986
21	0x3cd233a6	0.025659394
22	0xbd0cee35	-0.03440686
23	0x3c82c666	0.015963744
24	0xbb0dbddc	-0.0021628058
25	0x3c3be37e	0.011467813
26	0x3cc7e4ac	0.024401031
27	0xbdeced8a	-0.115687445
28	0x3d226e6d	0.03965609
29	0x3d8c15eb	0.06840118
30	0x3c2d2809	0.010568627
31	0x3dab9dcd	0.083797075
32	0xbcb351b3	-0.021889543
33	0xbc08cb43	-0.008349243
34	0xbc11405a	-0.00886544
35	0x3e1fb8cd	0.1559784
36	0xbdf3218e	-0.118716344
37	0x3dae0135	0.08496324
38	0xbc41c63d	-0.011827049
39	0x3d88f9fc	0.06688306
40	0xbcd389f1	-0.025822612
41	0x3d96e276	0.07367413
42	0x3d77d68b	0.06050734
43	0x3cbe9a7a	0.02326702
44	0x3d5354bc	0.05159448
45	0x3d7aac11	0.06119925
46	0xbdf40b0e	-0.11916171
47	0x3e3eb59a	0.18623963
48	0x3df62058	0.12017888
49	0xbd485441	-0.048908476
50	0xbd6b417d	-0.0574355
51	0x3dd2d036	0.10293619
52	0xbe0c99ad	-0.13730498
53	0x3d85bb9d	0.06529925
54	0x3d70c95f	0.058785792
55	0xbd62c213	-0.055360865
56	0x3d8af9b8	0.06785911
57	0xbe023097	-0.12713848
58	0xbca9f183	-0.020745045
59	0x3db68ec9	0.08913953
60	0xbd63612f	-0.055512603
61	0x3e2cb06e	0.16864178
62	0x3db7fadb	0.08983394
63	0x3da3e87c	0.08003327
64	0xbd32e416	-0.04367455
65	0xbe4eb792	-0.20187214
66	0xbe1c9629	-0.15291657
67	0xbd71c68e	-0.059027247
68	0xbd9c6c6d	-0.07637868
69	0x3d1291e1	0.035783652
70	0x3d56e94b	0.05246858
71	0x3de30656	0.11085193
72	0xbb916ca9	-0.004438002
73	0x3d6e80b5	0.058228213
74	0x3e0bd552	0.13655594
75	0xbcd12248	-0.025529042
76	0xbc8d9fb5	-0.017288068
77	0xbd5fcc7c	-0.05463837
78	0x3dd0e0dd	0.10199139
79	0xbcd0222b	-0.025406918
80	0x3cefd7bc	0.029277675
81	0x3a7bd297	0.00096062705
82	0x3c3aae25	0.011394058
83	0xbe0d5027	-0.13800107
84	0xbc478d4b	-0.012179683
85	0x3d90865f	0.07056879
86	0xbda4e4c2	-0.080514446
87	0xbd7eb4b0	-0.062184036
88	0xbd87879d	-0.06617663
89	0x3e094dc7	0.13408576
90	0xbe0358b7	-0.12826811
91	0xbd84b73f	-0.06480264
92	0xbd617c6f	-0.05505031
93	0x3c72ddc7	0.014823384
94	0x3ab4273e	0.0013744605
95	0xbd3d63b0	-0.046237648
96	0xbd812dcc	-0.06307563
97	0x3cc1bbbb	0.023649087
98	0x3dd9edea	0.10641082
99	0x3c4fd85f	0.012685864
100	0x3db31f92	0.08746256
101	0x3e306d97	0.17229305
102	0xbe12c6b9	-0.14333619
103	0x3db88f95	0.09011761
104	0xbcb710f1	-0.022346945
105	0xbc8d552b	-0.017252525
106	0xbe18c88a	-0.1492025
107	0x3ba20f78	0.0049456917
108	0xbdee309d	-0.11630366
109	0x3c753a67	0.0149675375
110	0xbdc1ae2e	-0.0945705
111	0xbb88a92f	-0.004170559
112	0x3e0e2063	0.13879542
113	0xbdc767ae	-0.09736572
114	0x3e1b0426	0.15138301
115	0x3e251eac	0.16124982
116	0x3d8d8326	0.0690978
117	0x3e110a42	0.1416407
118	0x3cb44071	0.022003384
119	0x3b38f332	0.0028221128
120	0xbe07a527	-0.13246594
121	0x3b04cd0d	0.0020263821
122	0xbde4f4c8	-0.11179501
123	0x3d84fb18	0.06493205
124	0xbd4c7f3f	-0.04992604
125	0x3cbad337	0.022805793
126	0x3d447081	0.047958855
127	0xbc7c87d7	-0.015413246
128	0x3d944c90	0.07241166
129	0x38d33d64	0.00010072699
130	0x3b626b8e	0.003454897
131	0xbd7a7ffe	-0.06115722
132	0x3c95beef	0.01827952
133	0xbdb807e8	-0.08985883
134	0x3d0c866b	0.03430788
135	0xbe0d99d4	-0.13828212
136	0xbc6056f0	-0.0136926025
137	0xbd1b3147	-0.03788879
138	0xbcbd8032	-0.023132417
139	0x3cc892c9	0.024484055
140	0x3e01f2aa	0.12690225
141	0x3e1318c8	0.14364922
142	0x3e2ee7e1	0.17080642
143	0xbb8214f3	-0.0039697825
144	0x3d72d382	0.05928374
145	0x3d7bc79c	0.06146966
146	0xbba68db5	-0.0050828108
147	0xbc4755e3	-0.012166473
148	0x3d763b12	0.060114928
149	0x3deb81ba	0.11499353
150	0x3d52f39d	0.05150186
151	0xbde1415a	-0.10998793
152	0xbda501ad	-0.0805696
153	0xbe08d43e	-0.13362214
154	0x3d01d47a	0.031696774
155	0x3dcbea7b	0.09956833
156	0xbbfb3a3d	-0.0076668547
157	0x3e1b30f8	0.15155399
158	0x3d82b296	0.06381719
159	0x3d04e08a	0.0324407
160	0xbdf5bd2e	-0.11998974
161	0xbda8ab6d	-0.08235822
162	0xbb484567	-0.0030558945
163	0x3c66764f	0.014066293
164	0x3d1957ca	0.037437238
165	0xbdaea20f	-0.08527004
166	0xbce93762	-0.028468791
167	0xbd06bcc1	-0.032894854
168	0x3c816c6d	0.015798772
169	0xbaeda95b	-0.0018132137
170	0xbdb36050	-0.087586045
171	0x3daba81c	0.08381674
172	0xbcc50261	-0.024048986
173	0xbd10cca6	-0.035351418
174	0xbd0cc116	-0.03436383
175	0x3d6a8fcf	0.057266053
176	0xbd4e4c88	-0.050365955
177	0x3dd9782e	0.106186256
178	0x3d4db5c1	0.050222162
179	0x3de97888	0.11399943
180	0x3bc5fb35	0.006041909
181	0xbb9ea797	-0.0048417556
182	0x3d57d6e1	0.05269516
183	0xbe02acce	-0.12761232
184	0x3df7efc6	0.1210628
185	0xbe003e7b	-0.12523834
186	0x3d434bf4	0.047679856
187	0xbced5602	-0.028971676
188	0xbc220004	-0.009887699
189	0xbd64f8aa	-0.055901207
190	0x3d23e291	0.040010992
191	0x3e0aae06	0.13542947
192	0x3e0de893	0.13858251
193	0xbd10dad7	-0.035364952
194	0xbda637d8	-0.0811612
195	0x3cae6623	0.021288937
196	0xbd2da3fa	-0.04239271
197	0xbcb9d00d	-0.022682214
198	0x3d969d46	0.07354216
199	0x3de4c72b	0.11170801
200	0x3d0070e9	0.03135768
201	0xbd11d93e	-0.03560757
202	0xbcb96b89	-0.022634285
203	0x3cad1360	0.021127403
204	0xbad48cff	-0.0016216337
205	0xbd06aad5	-0.032877762
206	0x3e10aa50	0.14127469
207	0x3ce5d4d2	0.028055582
208	0x3dd7ce73	0.10537424
209	0x3c0bb1eb	0.008526306
210	0xbae9b663	-0.0017830845
211	0xbdb4a5b8	-0.08820671
212	0xbd4afbc4	-0.04955651
213	0xbdd43d35	-0.10363237
214	0xbc9499f8	-0.018139824
215	0xbdad46f3	-0.08460798
216	0xbdb6c9fb	-0.089252435
217	0x3d9b7030	0.075897574
218	0xbdc4d330	-0.09610593
219	0x3da6c9af	0.08143937
220	0x3d9eba57	0.07750385
221	0x3c64a297	0.01395478
222	0xbcc5efbc	-0.024162166
223	0xbc1e3c53	-0.009657937
224	0xbd4fd649	-0.050741468
225	0x3d6c6c4c	0.057720467
226	0xbcb4f213	-0.022088086
227	0x3d6f1312	0.058367796
228	0x3ce7a603	0.028277403
229	0x3d59e6aa	0.053198494
230	0x3d9edcaa	0.07756932
231	0xbd8d1fc3	-0.06890824
232	0xbd24269b	-0.04007588
233	0xbd8e1130	-0.06936872
234	0x3d59cc4f	0.05317336
235	0x3db81de4	0.08990076
236	0xbd88961c	-0.06669256
237	0xbbf58433	-0.007492566
238	0xbd7f4aa9	-0.06232706
239	0xbd97e9e1	-0.07417656
240	0x3dd5dd15	0.10442559
241	0xbde8624c	-0.11346874
242	0x3da71f31	0.08160246
243	0x3d163c59	0.036678646
244	0xbdb47468	-0.08811265
245	0x3dfc6b94	0.123252064
246	0x3d78986d	0.06069224
247	0x3d6f0232	0.058351703
248	0xbc3cd8b4	-0.011526275
249	0xbd4eb7bb	-0.050468188
250	0xbc8ad0c3	-0.016945248
251	0x3db77c77	0.08959287
252	0x3c126327	0.008934773
253	0xbd065490	-0.03279549
254	0xbc62d288	-0.01384414
255	0xbd0e12b2	-0.034685798

bias_ih f4 [512]
0	0x3d833d7f	0.06408214
1	0x3e07f4eb	0.13277023
2	0x3dbc9b39	0.09209294
3	0x3e68257d	0.2267055
4	0x3d460141	0.04834104
5	0x3d5d765b	0.05406795
6	0x3dc56e6b	0.09640201
7	0x3dd11517	0.10209101
8	0x3d8f7fa2	0.07006766
9	0x3e2e718f	0.17035507
10	0x3e287c16	0.16453585
11	0x3e86ef3f	0.26354405
12	0x3d3fd567	0.046834376
13	0x3deae5e0	0.114696264
14	0x3e24ffdd	0.16113229
15	0x3db3da87	0.08781915
16	0x3e2765ac	0.16347378
17	0x3dae5196	0.08511655
18	0x3d33dc86	0.04391148
19	0x3e40dd3a	0.18834391
20	0x3eb6205c	0.35571563
21	0x3e282ab1	0.16422535
22	0x3df6d7ad	0.12052856
23	0x3df8cc58	0.121483505
24	0x3e485925	0.19565256
25	0x3e0af6b9	0.1357068
26	0x3cf3d5fd	0.029765124
27	0x3d40d5da	0.047078945
28	0x3db63df3	0.088985346
29	0x3e38ea9a	0.18058243
30	0x3e1f9b78	0.1558665
31	0x3ca44d92	0.02005652
32	0x3e08e5db	0.13368933
33	0x3e2e61cb	0.17029493
34	0x3d8c431a	0.06848736
35	0x3e0c2671	0.13686539
36	0x3ddbf0d6	0.10739295
37	0x3e5a013e	0.21289536
38	0x3dd9e9f7	0.106403284
39	0x3e07f881	0.1327839
40	0x3ea44d7d	0.3209037
41	0x3dc3f3b0	0.09567964
42	0x3e0da06b	0.13830726
43	0x3dfed444	0.1244283
44	0x3e1dcbe8	0.15409815
45	0x3e40e14e	0.18835947
46	0x3e2f7e9b	0.1713814
47	0x3e310400	0.17286682
48	0x3e4479d7	0.19187103
49	0x3e085d6c	0.13316888
50	0x3e0b57b0	0.13607669
51	0x3dc09f8a	0.0940543
52	0x3e252bd1	0.16129996
53	0x3e15b73d	0.14620681
54	0x3d364321	0.044497613
55	0xbd13263a	-0.035925128
56	0xbb838a97	-0.004014324
57	0x3e6671ae	0.22504303
58	0x3dea0215	0.11426178
59	0x3e2d0a30	0.16898417
60	0x3dfb717d	0.122775055
61	0x3dc0c815	0.094131626
62	0x3dfd69c1	0.123736866
63	0x3e736834	0.23770219
64	0x3dd1c6d7	0.10243004
65	0x3dc27437	0.094948225
66	0x3d1965d8	0.03745064
67	0x3e349528	0.17635024
68	0x3e0786f9	0.13235082
69	0x3e863578	0.26212668
70	0x3dbf464c	0.0933958
71	0x3dfb8b19	0.1228239
72	0x3d84eb07	0.064901404
73	0x3e812ed2	0.25231034
74	0xbc090e92	-0.00836529
75	0x3d830c8b	0.06398877
76	0x3e8865f2	0.26640278
77	0x3de4a486	0.11164193
78	0x3e560525	0.209004
79	0x3e3bb4ec	0.18330735
80	0x3e630077	0.22168146
81	0x3dc74306	0.097295806
82	0x3e002254	0.12513095
83	0x3e18c3bc	0.14918417
84	0x3da4e62b	0.080517136
85	0x3dfc9353	0.12332787
86	0x3ddffc33	0.10936775
87	0x3c9dc8b8	0.01926075
88	0x3e2a4e5b	0.16631453
89	0x3e540917	0.20706593
90	0x3da135c3	0.07871582
91	0x3dc70639	0.09717984
92	0x3e0118f5	0.12607177
93	0x3e8e9b43	0.2785283
94	0x3dbcb3b0	0.0921396
95	0x3e5d762d	0.21627112
96	0x3dd1f5c8	0.10251957
97	0x3cfbf41d	0.03075605
98	0x3e0a3703	0.13497548
99	0x3dcc1f7a	0.09966941
100	0x3e9cb5f3	0.30607566
101	0x3d8bdde3	0.06829431
102	0x3d875156	0.066073105
103	0x3d171cec	0.036892816
104	0x3e845da1	0.25852683
105	0x3d9dfca3	0.07714202
106	0x3e80b230	0.25135946
107	0x3ddfba4c	0.10924205
108	0x3e500ddb	0.20317785
109	0x3e506638	0.20351493
110	0x3e126955	0.14297993
111	0x3e33234f	0.17493938
112	0x3e6ecf16	0.23321185
113	0x3dd2b959	0.102892585
114	0x3daf734c	0.08566913
115	0x3dce0c1b	0.10060903
116	0x3e1d45d7	0.15358673
117	0x3e289a94	0.16465217
118	0x3e432258	0.1905607
119	0x3eb950dd	0.36194506
120	0x3d8968b1	0.067094214
121	0x3bec22e5	0.007206308
122	0x3d0ab0d5	0.033860046
123	0x3e7d6f6c	0.24749535
124	0x3d508816	0.05091103
125	0x3db52620	0.088451624
126	0x3e2844d7	0.1643251
127	0x3dd48fd3	0.10378995
128	0x3c2c593f	0.010519325
129	0x3d3232ba	0.043505408
130	0x3d20faec	0.039301798
131	0xbcb08082	-0.021545652
132	0xbc1665bc	-0.009179529
133	0xbaca4033	-0.001543051
134	0xbcc2ad9e	-0.023764428
135	0x3d244cf4	0.04011245
136	0xbd049a16	-0.03237351
137	0xbdbeab2d	-0.09309993
138	0xbdd31588	-0.10306841
139	0xbe33ce29	-0.17559113
140	0xbcb64cb8	-0.02225338
141	0xbdd17932	-0.10228194
142	0xbe006a3c	-0.12540525
143	0xbe0d2f1f	-0.13787507
144	0x3c6f3cb7	0.014601878
145	0xb988f504	-0.00026122492
146	0xbd626574	-0.055272534
147	0x3ccd87ee	0.02508923
148	0xbddc534c	-0.10758075
149	0x3d260750	0.040534317
150	0xbca5d447	-0.020242823
151	0xbde8acb9	-0.11361069
152	0x3d8a3aa1	0.06749464
153	0xbd1ee10f	-0.03878885
154	0x3bf5e9f2	0.007504695
155	0xbcbae7e6	-0.022815656
156	0xbcd70a57	-0.026250048
157	0xbca6e23a	-0.020371545
158	0xbdff5328	-0.12467033
159	0x3c8f6adf	0.017507015
160	0xbd5238be	-0.051323645
161	0xbd5e9f9f	-0.054351445
162	0xbd8fda9d	-0.07024119
163	0xbc5b83ad	-0.013398093
164	0xbd1b90b0	-0.03797978
165	0x3cc31a9d	0.023816401
166	0x3d2806c4	0.041022077
167	0xbe290002	-0.16503909
168	0xbdc9b73c	-0.09849402
169	0xbbcba087	-0.0062142047
170	0xbce797f4	-0.0282707
171	0x3d0947d3	0.033515763
172	0xbd2e651f	-0.042576905
173	0xbdc72465	-0.097237386
174	0x3d3bf2c0	0.0458858
175	0xbd6e2db1	-0.058149043
176	0xbbf36478	-0.0074277483
177	0xbe12423d	-0.1428308
178	0xbdac6199	-0.08417053
179	0x3d2d5f7c	0.04232739
180	0x3b220363	0.0024721257
181	0xbda6933e	-0.08133553
182	0x3d95a302	0.07306482
183	0xbd05916d	-0.032609392
184	0x3d07b328	0.03312984
185	0xbc322e25	-0.0108752595
186	0xbd8b0e2f	-0.06789815
187	0x3d180b6f	0.03712028
188	0x3b9a7dce	0.004714704
189	0xbd7ecf1b	-0.06220923
190	0xbc2ec57b	-0.0106672
191	0x3c94734a	0.01812138
192	0xbdad1b4b	-0.08452471
193	0xbc2cdd21	-0.010550768
194	0xbdcc27db	-0.09968539
195	0xbdb51da4	-0.08843544
196	0x3d43d83a	0.04781363
197	0xbe1b9e59	-0.15197124
198	0x3cf81453	0.030283129
199	0x3d2b6722	0.041846402
200	0x3cdabd0a	0.026701469
201	0xbd85ff9c	-0.06542894
202	0x3cc8d9b6	0.024517875
203	0xbdbab7d7	-0.09117096
204	0xbd8f8cfe	-0.07009314
205	0x3d2ee4c6	0.042698644
206	0xbdddce5d	-0.10830376
207	0xbd6e52e9	-0.058184538
208	0x3ca93973	0.020657277
209	0xbd243a49	-0.040094648
210	0x3dba933b	0.09110113
211	0xbd8437f1	-0.064559825
212	0xbd92bcd9	-0.07164926
213	0x37a78331	1.9969042e-05
214	0xbe0ea8f0	-0.13931632
215	0xbb61573a	-0.0034384266
216	0xbda69a29	-0.081348725
217	0x3b17946a	0.0023129233
218	0xbdff7908	-0.12474257
219	0xbd586b63	-0.052836787
220	0xbdafd167	-0.08584862
221	0xbd06c283	-0.032900345
222	0x3d873635	0.06602136
223	0xbd20bb02	-0.039240845
224	0xbc9e44e3	-0.019319957
225	0x3d01ea79	0.03171775
226	0xbdb6345f	-0.08896708
227	0xbddf7e97	-0.10912817
228	0xbc1f3470	-0.009717092
229	0xbd518005	-0.05114748
230	0xbd85299c	-0.06502077
231	0x3c513cf4	0.01277088
232	0xbe1931c3	-0.14960389
233	0x3d0e6a7d	0.034769524
234	0x3b2b9563	0.002618157
235	0xbdaaadf4	-0.0833396
236	0xbe201b0c	-0.15635318
237	0xbdedf30c	-0.11618623
238	0xbdaa5cd3	-0.08318486
239	0xbc1e58bc	-0.009664711
240	0xbdce32de	-0.10068296
241	0x3d42ab94	0.04752691
242	0xbd2c7274	-0.04210134
243	0xbda569c6	-0.08076815
244	0xbdad5f19	-0.08465404
245	0x3d38a28e	0.0450769
246	0xbdbebdbe	-0.09313534
247	0xbdd28654	-0.10279527
248	0x3cb20bce	0.021734145
249	0x3c83e989	0.01610257
250	0x3ba8a4bc	0.005146591
251	0xbc4015f4	-0.011723984
252	0xbe10c213	-0.14136533
253	0x3d2b5b21	0.041834954
254	0xbddada93	-0.10686221
255	0x3d8df3f9	0.069313
