logs/fgb_vary_rho/2/actor.pt (torch, 906162 bytes, 17 tensors)

weight_ih f4 [512, 48]
0	0x3cb3affb	0.0219345
1	0x3e18dd30	0.14928126
2	0xbdd8fee5	-0.10595492
3	0xbe0bd21f	-0.13654374
4	0xbd99ac91	-0.075036176
5	0x3c12c228	0.008957423
6	0xbc6e6516	-0.014550468
7	0xbcf046d9	-0.029330658
8	0x3c9aeb03	0.01891089
9	0x3dbb4d65	0.09145621
10	0xbdcc92da	-0.09988947
11	0xbd2d1968	-0.042260557
12	0xbe1aa584	-0.15102202
13	0xbd25a7b2	-0.04044313
14	0x3c6dbfad	0.014511031
15	0xbcb3d799	-0.02195339
16	0x3d7bf729	0.061515007
17	0x3e115c77	0.14195429
18	0xbe144060	-0.14477682
19	0xbe09012d	-0.13379355
20	0x3d750740	0.059821367
21	0x3d827e18	0.06371707
22	0xbcdc6e79	-0.026908146
23	0xbd9b9b69	-0.075980015
24	0xbc066b11	-0.008204238
25	0x3df71542	0.120646015
26	0xbbab1875	-0.0052214214
27	0xbd5c0a9a	-0.053721048
28	0xbdc89e67	-0.09795838
29	0xbd173bd2	-0.036922283
30	0x3c7724c0	0.0150844455
31	0x3e02911f	0.12750672
32	0xbd9a482e	-0.075332984
33	0xbd810494	-0.06299701
34	0xbd22bd97	-0.03973159
35	0xbd80027d	-0.062504746
36	0xbd26db81	-0.04073668
37	0x3db3e19f	0.08783268
38	0x3c5758e2	0.01314375
39	0x3d34e218	0.044160932
40	0xba4337c6	-0.00074469706
41	0xbd694c4e	-0.056957535
42	0x3d328487	0.04358342
43	0xbd3f9342	-0.046771295
44	0xbd93f0e2	-0.07223679
45	0xbdf38f36	-0.1189255
46	0x3da7548f	0.08170425
47	0x3d432c68	0.04764977
48	0xbc7697f0	-0.015050873
49	0x3d6998d5	0.057030518
50	0x3e8ab99f	0.27094743
51	0x3e4a4b7e	0.1975536
52	0xbc8b5442	-0.01700795
53	0x3d78fef7	0.06079003
54	0x3da115fe	0.07865523
55	0x3d22340c	0.039600417
56	0x3e2f1384	0.17097288
57	0xbe4a0475	-0.19728263
58	0x3c3e93e6	0.011631941
59	0xbdd058c1	-0.101731785
60	0x3d8cacca	0.068688944
61	0x3e4138bd	0.188693
62	0xbe13e8db	-0.14444296
63	0xbba71403	-0.005098821
64	0xbc3ff575	-0.011716236
65	0xbe38f027	-0.18060361
66	0x3c846496	0.016161244
67	0x3d7e1258	0.062029213
68	0xbd19fe3f	-0.037595984
69	0x3e017457	0.12642036
70	0x3d5d3d9e	0.05401384
71	0x3d410887	0.047127273
72	0xbc6ab3f5	-0.014325132
73	0x3da1d3bc	0.07901713
74	0x3dd1255c	0.10212204
75	0x3c70a13f	0.014686882
76	0x3ddcddcd	0.10784493
77	0xbdc15be5	-0.094413556
78	0x3de8556e	0.113444194
79	0xbdbd28b2	-0.09236278
80	0xbd8cf2c1	-0.06882239
81	0x3e213d1c	0.15745968
82	0x3decda4b	0.115650736
83	0xbca7dfd9	-0.020492481
84	0xbb2a2b30	-0.0025965683
85	0xbac31566	-0.0014883697
86	0xbd272ebe	-0.04081606
87	0xbd037000	-0.032089233
88	0x3d8edf35	0.06976167
89	0xbd0caeed	-0.03434651
90	0x3d514289	0.051088843
91	0x3d2f9aa2	0.04287208
92	0x3d8d419f	0.06897282
93	0x3d20d457	0.039265003
94	0xbd34edc7	-0.044172075
95	0xbdb6636e	-0.089056835
96	0x3cee7a83	0.029111153
97	0x3d82b4d2	0.06382145
98	0x3e07f6d3	0.1327775
99	0xbe54c7d6	-0.20779356
100	0x3d8571f8	0.065158784
101	0x3d88e3db	0.06684085
102	0xbd50d87c	-0.050987706
103	0x3c8ef652	0.017451439
104	0xbc1692eb	-0.009190301
105	0xbdc0168c	-0.093793005
106	0x3da05d62	0.07830311
107	0xbe61222d	-0.21985693
108	0x3d206e17	0.03916749
109	0x3d938b6a	0.072043255
110	0x3c415c76	0.01180183
111	0xbb3033fd	-0.0026886456
112	0xbd05c8fd	-0.03266238
113	0x3e0e5fbb	0.13903706
114	0x3ddf7ddc	0.10912678
115	0xbe5fc64e	-0.21852991
116	0xbcab62ee	-0.020921197
117	0x3c4baf24	0.0124318935
118	0xbd0f66f8	-0.035010308
119	0x3e087517	0.13325916
120	0x3e029df5	0.12755568
121	0x3d56d3d0	0.052448094
122	0xbd909d29	-0.07061226
123	0x3c9877d5	0.018611828
124	0xbcd1a9de	-0.025593694
125	0xbd9b9327	-0.075964265
126	0xbd8eee14	-0.069790035
127	0xbd76fccf	-0.06029969
128	0xbacf8423	-0.0015832226
129	0xbd8f480d	-0.069961645
130	0xbdcffbb3	-0.1015543
131	0x3d085092	0.033279963
132	0xbd3dba20	-0.04632008
133	0x3ca0c398	0.019624516
134	0x3d1ca0ed	0.03823941
135	0xbcb3530c	-0.021890186
136	0xbd1ab8cf	-0.037773903
137	0xbd4de84b	-0.05027036
138	0x3c03f4d7	0.00805398
139	0x3d873239	0.06601376
140	0x3dae034d	0.08496723
141	0x3d73d90c	0.059533164
142	0x3d417a9b	0.047236066
143	0xbd67be6a	-0.056578077
144	0xbd58f6ff	-0.05296993
145	0xbc990648	-0.018679753
146	0x3e34f707	0.17672358
147	0xbd6ab041	-0.057296995
148	0xbe006ddc	-0.12541908
149	0xbe0f23e2	-0.13978532
150	0xbe01738a	-0.12641731
151	0xbd9e2c79	-0.07723326
152	0x3b1b3a91	0.0023686031
153	0x3d012128	0.03152576
154	0xbcdf7bed	-0.027280772
155	0xbe29d23d	-0.16584106
156	0x3d23384b	0.039848607
157	0xbd483308	-0.048876792
158	0xbcb3ecac	-0.02196344
159	0xbd7ff232	-0.062486835
160	0xbda9a7c1	-0.0828395
161	0xbc6b838e	-0.014374627
162	0x3c8154fa	0.01578759
163	0xbd24db12	-0.040247984
164	0xbd8d8a83	-0.06911185
165	0xbcb966d8	-0.022632048
166	0xbd52f188	-0.051499873
167	0xbd87c3d5	-0.06629149
168	0xbd230487	-0.03979924
169	0x3c8eaa75	0.017415265
170	0x3dc396e1	0.09550262
171	0xbc9a38ee	-0.018825974
172	0x3d8545cd	0.06507454
173	0xbc906baa	-0.017629463
174	0xbda6c250	-0.08142531
175	0x3bbb0842	0.0057077715
176	0x3b15c08c	0.0022850363
177	0xbddc3c9d	-0.107537486
178	0x3e3f2596	0.18666682
179	0xbde2704d	-0.11056576
180	0xbc69c02a	-0.014267007
181	0xbd16aad2	-0.036784
182	0x3d4919b2	0.04909677
183	0x3d15a97e	0.036538593
184	0x3d3e5b44	0.046473756
185	0x3da70abf	0.081563465
186	0x3c882b8b	0.016622325
187	0x3d210474	0.039310887
188	0xbbed32a8	-0.0072387047
189	0x3df86d5b	0.12130233
190	0x3e3614b2	0.17781332
191	0x3e297cbb	0.16551487
192	0xbe1ac184	-0.15112883
193	0xbd69c22a	-0.057069935
194	0xbc84ee03	-0.016226774
195	0xbea3b877	-0.31976673
196	0x3d475160	0.04866159
197	0xbd80a85e	-0.062821135
198	0xbd729a0a	-0.059228934
199	0xbd3b1f20	-0.04568398
200	0x3d3b12f9	0.04567239
201	0x3e306a8f	0.17228149
202	0x3dc296b3	0.095014
203	0xbdac54fc	-0.08414647
204	0xbd181cbd	-0.037136782
205	0x3db2cc77	0.08730405
206	0x3d200873	0.039070558
207	0x3e2b8ad0	0.16752172
208	0x3e5ea4d6	0.21742567
209	0xbd3f7b38	-0.04674837
210	0x3da19906	0.07890515
211	0xbe0da2f2	-0.1383169
212	0x3d5fa015	0.054596025
213	0x3c7a63f3	0.015282619
214	0xbdb47188	-0.08810717
215	0x3dadddcc	0.0848957
216	0xbe1b2a84	-0.15152937
217	0x3d0d7496	0.034535013
218	0x3d8fd7d2	0.07023586
219	0xbdb18c7b	-0.08669373
220	0x3dd0e4d9	0.10199899
221	0xbd5f8090	-0.054565966
222	0x3dfd8bd7	0.12380188
223	0x3d649032	0.055801578
224	0xbdd20c1f	-0.10256218
225	0xbc65069a	-0.013978625
226	0x3b94ec48	0.0045447685
227	0x3c8074b6	0.015680652
228	0xbcde78c7	-0.0271572
229	0xbc686b54	-0.014185745
230	0xbb38a845	-0.0028176468
231	0x3de4219b	0.11139222
232	0x3caf8f3d	0.021430606
233	0x3da57f39	0.080809064
234	0x3d361e90	0.04446274
235	0xbd8ade5a	-0.067806914
236	0xbc149da0	-0.009070784
237	0xbdc7b325	-0.09750966
238	0xbc585b18	-0.013205312
239	0x3dbb98b9	0.09159989
240	0x3cc0109c	0.02344542
241	0x3de91824	0.113815576
242	0x3cc8bec8	0.024505034
243	0xbc3b4857	-0.011430821
244	0x3e155772	0.14584139
245	0xbdb533ec	-0.08847794
246	0x3e1a41d4	0.15064174
247	0xbd1ffffb	-0.03906248
248	0x3cbe1d49	0.023207324
249	0xbd35e899	-0.044411276
250	0x3cc8ffda	0.024536062
251	0xbcf6b843	-0.03011716
252	0x3d8f93c1	0.07010604
253	0xba8e2b20	-0.0010846592
254	0xbd4536ed	-0.048148084
255	0xbd3ccb4f	-0.046092328

weight_hh f4 [512, 128]
0	0xbcad3c46	-0.021146905
1	0x3d01f5a8	0.031728417
2	0xbc0e0d17	-0.008670113
3	0xbbd31341	-0.006441504
4	0xbd7cf915	-0.06176098
5	0x3c2377ff	0.00997734
6	0x3da6def3	0.08147993
7	0xbd2ae4ee	-0.04172223
8	0x3d5a8056	0.053345047
9	0x3dd83a79	0.10558028
10	0xbc26266a	-0.010140995
11	0x3dadc90b	0.084856115
12	0x3d0b6e86	0.03404095
13	0x3d31c330	0.043399036
14	0x3d23ec89	0.0400205
15	0x3e0c1e69	0.13683476
16	0x3db1b809	0.0867768
17	0xbc9c4907	-0.01907779
18	0x3cda151f	0.0266214
19	0xbc29181a	-0.010320688
20	0x3d92afa1	0.07162405
21	0x3cb7a9fd	0.022419924
22	0x3d8c8ad1	0.06862415
23	0x3d5697a8	0.052390724
24	0xbc4a21af	-0.012337132
25	0x3d386132	0.045014568
26	0xbd4c979c	-0.049949273
27	0x3cd04b2d	0.025426472
28	0xbdc916ba	-0.09818788
29	0x3dc19f44	0.09454206
30	0x3d220393	0.03955419
31	0xbcc1ae78	-0.023642763
32	0xbc89ad92	-0.016806398
33	0xbe3a0d10	-0.18169045
34	0xbd9d3c1c	-0.076774806
35	0xbdeb6a0a	-0.11494835
36	0xbc0a0514	-0.008424062
37	0xbcbc724f	-0.023003725
38	0xbc479609	-0.012181767
39	0xbcaebe9f	-0.02133113
40	0x3e04bbd8	0.12962282
41	0x3bde9af2	0.0067933733
42	0xbc848d2f	-0.016180603
43	0x3d2e6c6f	0.04258388
44	0x3d84305b	0.064545356
45	0x3ccdf69c	0.025142007
46	0x3cfd8cbb	0.030950895
47	0x3cf06870	0.029346675
48	0x3c9bc734	0.019015886
49	0x3d588bc5	0.05286767
50	0x3d174969	0.036935244
51	0xbbfbdef2	-0.0076864893
52	0xbdbef2df	-0.09323668
53	0x3dbf8786	0.09352021
54	0xbd5c1300	-0.053729057
55	0xbcbaf7c6	-0.022823226
56	0x3ba92ab0	0.0051625594
57	0xbd25e8b6	-0.040505134
58	0xbd04ca85	-0.0324197
59	0xbd93dc04	-0.07219699
60	0xbd99b2de	-0.07504819
61	0xbcf9dcbe	-0.030500766
62	0xbc849bf7	-0.016187651
63	0x3cd7a787	0.026325
64	0xbd7a75b3	-0.061147403
65	0x3d2b764c	0.041860864
66	0x3c8e877e	0.017398592
67	0x3db58a14	0.08864227
68	0xbdf16806	-0.11787419
69	0xbd1541cd	-0.036439706
70	0x3cc47f82	0.023986582
71	0xbd2e901f	-0.042617913
72	0xbdffd151	-0.12491096
73	0xbda60477	-0.0810632
74	0x3d116013	0.035492014
75	0x3d20c285	0.03924801
76	0xbc0b2898	-0.008493565
77	0x3bed703f	0.007246047
78	0xbdfa0885	-0.12208656
79	0x3ba4aa25	0.0050251656
80	0x3d8f9c44	0.07012227
81	0x3d29c839	0.041450713
82	0x3d5c280b	0.053749125
83	0x3d219004	0.039443985
84	0x3cd7d7fb	0.026348105
85	0x3da767e1	0.0817411
86	0xbdcf765e	-0.101299986
87	0xbd829e12	-0.06377806
88	0x3cda7ebd	0.026671762
89	0x3d79044f	0.060795125
90	0xbd844751	-0.06458915
91	0x3d6a003b	0.057129126
92	0x3df1894c	0.117937654
93	0xbd6fc07d	-0.05853318
94	0xbd11bf1b	-0.035582643
95	0x3d21e651	0.039526287
96	0xbdd19c9c	-0.10234949
97	0xbd1e6842	-0.038673647
98	0xbdea21a0	-0.11432195
99	0xbd028d8f	-0.031873282
100	0x3dc099cf	0.09404337
101	0x3d2240ba	0.03961251
102	0x3d224fbe	0.03962683
103	0xbc490619	-0.01226952
104	0xbce38d36	-0.027777296
105	0xbddeabf7	-0.108726434
106	0x3b014c5a	0.0019729347
107	0x3d059d5a	0.032620765
108	0x3dc03709	0.09385497
109	0xbd74cda2	-0.05976642
110	0xbda056a4	-0.078290254
111	0x3bd175a3	0.006392197
112	0xbd1bfaf5	-0.03808113
113	0x3d84e713	0.064893864
114	0xbcfcbda5	-0.030852148
115	0x3d33c568	0.043889433
116	0xbcc610d6	-0.02417795
117	0xbd49cd10	-0.04926783
118	0x3bb8b953	0.0056373267
119	0xbd2f7826	-0.04283919
120	0xbc28f2a2	-0.010311754
121	0xbcefe019	-0.029281663
122	0x3b07fa82	0.002074868
123	0xbccc447a	-0.024934996
124	0xbdd65b91	-0.10466684
125	0x3d9ee9f4	0.07759467
126	0xbd078fa2	-0.033095963
127	0x3de89983	0.11357405
128	0xbd9e619e	-0.07733463
129	0x3d3eaaa6	0.04654946
130	0xbd24f7d5	-0.040275414
131	0x3d99c917	0.07509058
132	0xbc500aba	-0.01269787
133	0x3c10c811	0.008836762
134	0xbc4f73a3	-0.012661847
135	0x3d44430d	0.047915507
136	0x3e11c0b7	0.14233671
137	0x3ca20fc2	0.019782905
138	0xbd9778a5	-0.07396058
139	0x3dcc915d	0.09988663
140	0x3d0bf9dc	0.03417383
141	0xbd8d6a77	-0.06905072
142	0x3d88fc40	0.06688738
143	0x3d82e640	0.06391573
144	0xbc4c044c	-0.012452196
145	0x3d5ba760	0.053626418
146	0x3d5db964	0.05413188
147	0xbd2fc0bf	-0.042908426
148	0xbd10c4d1	-0.03534395
149	0xbc36a9a4	-0.011148844
150	0xbba8a86a	-0.0051470296
151	0xbdcc0e1d	-0.099636294
152	0x3e154e18	0.14580572
153	0x3ce1cc7b	0.027563324
154	0x3d0f28d6	0.034951054
155	0xbdb1f3a8	-0.08689052
156	0xbd3849d3	-0.04499228
157	0x3ca020f2	0.01954696
158	0xbe1220bc	-0.142703
159	0xbdf0bb8b	-0.11754521
160	0xbd1b00ed	-0.03784268
161	0xbd0f5b46	-0.034999155
162	0x3d00cb54	0.03144391
163	0xbdc5f3f3	-0.0966567
164	0xbd7c15b1	-0.061544124
165	0x3d6edb07	0.05831435
166	0xbd89967f	-0.06718158
167	0x3dc3fdf2	0.095699206
168	0xbd92f1cb	-0.071750246
169	0x3c5e4d0d	0.013568175
170	0xbd77b06f	-0.060470995
171	0xbd83c968	-0.064348996
172	0x3d36c276	0.044619046
173	0xbdc5f4a8	-0.09665805
174	0x3d84143a	0.064491704
175	0x3e2ad266	0.16681823
176	0xbc568ce8	-0.013095118
177	0x3d22cc64	0.039745703
178	0x3becbcd3	0.007224658
179	0xbdb50b8c	-0.08840093
180	0x3c46a813	0.012125033
181	0x3dfeee3f	0.124477856
182	0xbd15649b	-0.036472898
183	0x3ca3922e	0.019967165
184	0xbcca8188	-0.024719968
185	0x3d01cb24	0.03168787
186	0xbcbc4f56	-0.02298705
187	0xbd939e50	-0.0720793
188	0xbce22c5c	-0.027609043
189	0xbddf681c	-0.10908529
190	0x3bd3d7b6	0.0064649237
191	0x3b9a0018	0.004699718
192	0x3deb2305	0.11481289
193	0xbd8e86ca	-0.06959303
194	0x3dc06844	0.09394887
195	0xbd76f4df	-0.06029212
196	0xbdd39fef	-0.10333239
197	0x3df3bf0c	0.11901674
198	0xbcf3153c	-0.029673211
199	0x3c348845	0.011018817
200	0xbc33f92b	-0.010984699
201	0xbc105d23	-0.008811268
202	0x3dd26985	0.102740325
203	0xbbd670cb	-0.0065442077
204	0x3d215f75	0.039397676
205	0x3d15cd3c	0.03657268
206	0xbd5ee21f	-0.054414865
207	0x3cf6ad56	0.03011195
208	0xbc6880e4	-0.014190886
209	0x3dbc9b00	0.092092514
210	0xbbbdf315	-0.0057968
211	0xbd65be2f	-0.056089576
212	0x3b88dff4	0.004177088
213	0x3dd84b7b	0.10561272
214	0x3d651aac	0.05593364
215	0xbc89e4f9	-0.016832815
216	0xbd7bebfa	-0.06150434
217	0x3d81de99	0.06341285
218	0xbda4b00c	-0.08041391
219	0x3d7ae50e	0.0612536
220	0x3d9e43f1	0.077278025
221	0x3c87a542	0.016558293
222	0x3d08abc2	0.033366926
223	0xbdb34d87	-0.087550215
224	0xbb346a65	-0.0027529236
225	0xbd300625	-0.04297461
226	0xbdc95585	-0.09830765
227	0xbb7499f4	-0.0037323209
228	0x3b862912	0.0040942514
229	0xbd3281d2	-0.043580838
230	0xbc9f3ac8	-0.019437209
231	0xbdfd82a3	-0.123784326
232	0xbca462f2	-0.020066712
233	0x3d449eeb	0.04800312
234	0x3a3d4cb1	0.0007221206
235	0x3b3463ed	0.002752538
236	0xbd01dd0b	-0.031704944
237	0x3d868b81	0.06569577
238	0xbc883f15	-0.016631642
239	0xbcff72e5	-0.031182716
240	0x3d63598a	0.055505313
241	0x3dcc9f2e	0.099912986
242	0xbdc9e986	-0.09858994
243	0x3d7cbee8	0.0617055
244	0xbd490ca6	-0.049084328
245	0xbdce00e3	-0.10058763
246	0x3d62f9aa	0.05541388
247	0x3d231b25	0.03982081
248	0xbd558f17	-0.052138414
249	0x3d64784e	0.055778794
250	0xbd079b94	-0.033107355
251	0xbd8e652e	-0.06952892
252	0x3ca18d8e	0.019720819
253	0xbc1104cf	-0.008851244
254	0xbd9f5f0f	-0.07781803
255	0xbd2a67eb	-0.04160301

bias_ih f4 [512]
0	0x3e0f813b	0.14014141
1	0x3e0522d3	0.13001566
2	0x3d316871	0.043312494
3	0xbd1dbadd	-0.038508285
4	0x3dcd4baf	0.10024201
5	0x3db908e0	0.09034896
6	0x3da99f03	0.08282282
7	0x3e1879a1	0.14890148
8	0x3caab245	0.020836959
9	0x3d1dd12b	0.038529556
10	0xbccc4fd0	-0.024940401
11	0x3ddb72d1	0.10715259
12	0x3df02044	0.11724904
13	0x3d80fbe1	0.06298042
14	0xbd2c0cf6	-0.042004548
15	0x3dde670e	0.108595
16	0x3d06e472	0.032932706
17	0x3d8def4f	0.0693041
18	0x3ddabe55	0.10680834
19	0xbc35f520	-0.011105806
20	0x3df210b4	0.11819592
21	0x3dd50e22	0.10403086
22	0x3e1bd8cc	0.1521942
23	0x3dd77543	0.10520413
24	0xbc18b005	-0.00931931
25	0x3e1ba702	0.15200427
26	0xbc8c9c42	-0.017164353
27	0x3d8075a7	0.062724404
28	0x3e09c120	0.13452578
29	0x3d8d9719	0.06913585
30	0x3b9542a3	0.004555063
31	0xbc87cfed	-0.016578639
32	0x3b88f887	0.0041800174
33	0x3ced8a82	0.02899671
34	0x3d448b24	0.047984257
35	0x3d2172e9	0.039416227
36	0x3df85055	0.12124697
37	0x3e44b30b	0.19208924
38	0x3df2ad06	0.11849408
39	0x3d977ade	0.07396482
40	0xb9a4b55d	-0.00031415644
41	0xbd4fa2bd	-0.05069231
42	0x3c73a971	0.014871941
43	0x3d518c54	0.051159218
44	0x3e16ceb9	0.14727296
45	0x3e4e0db7	0.2012242
46	0x3d885451	0.06656707
47	0x3de2eecf	0.110807054
48	0xbd70c43e	-0.0587809
49	0x3e04501a	0.12921181
50	0xb9f4ebdc	-0.00046715036
51	0x3d649441	0.05580545
52	0x3d56e271	0.052462045
53	0x3d602813	0.054725718
54	0x3c543d66	0.012954092
55	0x3deb8a65	0.11501006
56	0x3d93163c	0.07181975
57	0x3e6b2a47	0.22965346
58	0x3e015545	0.12630184
59	0x3e11f2de	0.14252803
60	0x3e1d654e	0.15370676
61	0x3d168c3e	0.03675484
62	0x3da4abfa	0.080406144
63	0x3d430ae3	0.047617804
64	0xbc649a75	-0.013952841
65	0x3e78f2b6	0.24311337
66	0x3d981899	0.07426567
67	0x3acf3ae6	0.00158104
68	0x3e248ef5	0.16070159
69	0x3d87103e	0.06594895
70	0x3c22967c	0.009923574
71	0x3dc70c73	0.097191714
72	0x3e11243f	0.14173983
73	0x3e281edd	0.16418023
74	0x3e1c8148	0.15283692
75	0x3d91f4eb	0.071267925
76	0x3df26565	0.11835746
77	0x3db5383c	0.088486165
78	0xbbf61c8b	-0.007510727
79	0x3d96689b	0.07344171
80	0x3d6df733	0.058097076
81	0x3e026df6	0.1273726
82	0x3cbcb6b3	0.023036337
83	0xbce53b36	-0.027982336
84	0x3d662473	0.056187104
85	0x3bcf6303	0.006328942
86	0x3d0f3f9f	0.034972783
87	0x3e02fcc4	0.12791735
88	0x3d4ab96d	0.049493242
89	0x3e2810b0	0.16412616
90	0x3d3868a2	0.04502166
91	0x3bff9119	0.0077992794
92	0xbcf78ef6	-0.030219536
93	0x3c842b3e	0.0161339
94	0x3c98727d	0.01860928
95	0x3dac8d01	0.08425332
96	0x3bc413ec	0.00598382
97	0x3d8d0c8b	0.06887158
98	0x3debd17a	0.11514564
99	0x3b9b2440	0.004734546
100	0x3d6f178e	0.058372073
101	0xbce0b9c7	-0.027432336
102	0x3d890e11	0.06692136
103	0x3c80383d	0.015651817
104	0x3e272e66	0.16326293
105	0x3c4ba9ce	0.012430621
106	0x3e1f277b	0.15542404
107	0x3e0ee451	0.13954283
108	0xbc50672f	-0.012719913
109	0x3c632735	0.013864328
110	0x3daa76d1	0.08323444
111	0x3dbc96d3	0.09208455
112	0x3e04761d	0.12935682
113	0x3ccf3886	0.025295507
114	0x3df01374	0.117224604
115	0x3ccfbfa6	0.02535994
116	0x3e323eaa	0.17406717
117	0x3e0f7c5c	0.14012283
118	0x3dd2bf30	0.10290372
119	0x3cb7f27f	0.022454498
120	0x3db8ba32	0.09019889
121	0x3dd3c95c	0.10341141
122	0xbbf0016f	-0.0073243896
123	0x3de51231	0.1118511
124	0x3e086e4b	0.13323323
125	0x3df76880	0.12080479
126	0x3d4a3031	0.049362365
127	0x3b9e0db6	0.004823412
128	0x3dea3ed0	0.11437762
129	0x3d6f4066	0.058411025
130	0xbd74df26	-0.059783123
131	0x3c98686b	0.018604478
132	0x3b4e2cd1	0.0031459818
133	0x3d37c85b	0.04486881
134	0xbd8c39a1	-0.06846929
135	0x3d804151	0.06262458
136	0x3d6cd100	0.057816505
137	0xbcd7bdce	-0.026335623
138	0x3cfce1cb	0.030869385
139	0x3da5c1ca	0.08093603
140	0xbd96ca66	-0.07362823
141	0xbd66fa4a	-0.056391038
142	0x3d1ade16	0.037809454
143	0xbd148f9d	-0.036269773
144	0xbd2275a2	-0.039662965
145	0x3c62c279	0.013840311
146	0xbc2479df	-0.010038822
147	0x3b9b2245	0.00473431
148	0xbd090c35	-0.033458907
149	0x3c4e2fb7	0.012584618
150	0x3d735a95	0.059412558
151	0x3c4548d6	0.012041291
152	0xbd24daf3	-0.04024787
153	0xbc540b4b	-0.012942146
154	0x3bc3967a	0.005968866
155	0x3d9e407e	0.07727145
156	0x3d3c1cbd	0.045925844
157	0xbca8ae8e	-0.020591047
158	0xbd17d51b	-0.037068468
159	0x3cf0b710	0.029384166
160	0xbc92dcfb	-0.017927637
161	0x3db5d38a	0.088782385
162	0xbcaac4c3	-0.020845776
163	0x3d964d6e	0.07338987
164	0x3cec3911	0.028835805
165	0xbe0d9cee	-0.13829395
166	0xbc8a578b	-0.016887447
167	0xbc1a67bd	-0.009424147
168	0x3d800eca	0.06252821
169	0xbd70be9e	-0.058775537
170	0x3d63a5d4	0.055578068
171	0xbd46127d	-0.048357476
172	0x3cc386f3	0.02386806
173	0x3d28f563	0.041249644
174	0x3c176a51	0.009241656
175	0x3b3e3b64	0.0029027099
176	0xbcce67de	-0.025196012
177	0x3cebd0cd	0.028786087
178	0x3cca4cff	0.024694918
179	0x3c09241b	0.008370425
180	0xbd042de5	-0.03227033
181	0x3da5ebad	0.08101592
182	0xbd330683	-0.043707382
183	0x3c584b64	0.013201568
184	0xbc8d8063	-0.017273134
185	0x3d2bc2ea	0.04193393
186	0xbc0178bc	-0.0079023205
187	0x3c3868ac	0.0112554245
188	0x3e030aaa	0.12797037
189	0x3d6ec66e	0.058294706
190	0x3d8b4138	0.06799549
191	0xbd8b9844	-0.06816152
192	0x3deacb03	0.11464503
193	0x3aef8fc9	0.0018277104
194	0x3cbc34e1	0.022974433
195	0x3ddc0b37	0.107443266
196	0xbd61e13e	-0.05514645
197	0xbbbe7ed5	-0.0058134594
198	0xbcb75976	-0.022381525
199	0x3d2a91b4	0.04164286
200	0xbd28a378	-0.04117152
201	0xbccaf920	-0.024776995
202	0xbd5762c5	-0.05258443
203	0xbd857839	-0.06517071
204	0xbc94e585	-0.01817585
205	0xbd3e477c	-0.04645489
206	0x3c8a15df	0.016856132
207	0x3d35b862	0.044365294
208	0x3d674df0	0.05647081
209	0xbc9c63b7	-0.019090516
210	0xbd41b9c8	-0.047296315
211	0xbcc08b98	-0.023504063
212	0x3c93da26	0.018048357
213	0x3cd59ffd	0.026077265
214	0xbd22a008	-0.0397034
215	0x3d6dcfec	0.058059618
216	0xbd2bd5ae	-0.041951828
217	0x3ca6e8e9	0.020374732
218	0x3d7f20ec	0.062287256
219	0x3d76805d	0.06018101
220	0xbc44c18a	-0.012009034
221	0x3d8d2cfa	0.06893344
222	0xbd66eec7	-0.05638006
223	0x3db6add3	0.08919873
224	0xbdb992d0	-0.090612054
225	0xbd927422	-0.07151057
226	0x3c5da5d5	0.013528307
227	0xbb94dce2	-0.004542933
228	0xbbd1fa19	-0.006407988
229	0x3c985f34	0.018600084
230	0x3d54fc0f	0.051998194
231	0xbce719a5	-0.02821047
232	0xbdb06ffc	-0.08615109
233	0x3dfa1097	0.122101955
234	0xbc6a26a7	-0.014291442
235	0xbbcbc5c6	-0.006218645
236	0x3d60537a	0.05476711
237	0x3d309837	0.043113913
238	0xbd722f3e	-0.059127085
239	0x3b83f17a	0.004026589
240	0x3da4e364	0.08051184
241	0x3c9774b7	0.018488271
242	0x3d042b4c	0.032267854
243	0xbd83267d	-0.064038254
244	0x3d035727	0.032065537
245	0x39ccf7f7	0.0003909466
246	0xbb36733f	-0.0027839688
247	0xbbb4574e	-0.0055035716
248	0x3d491ece	0.049101643
249	0xbd7d0b05	-0.061778087
250	0xbd322f6e	-0.043502264
251	0xbce2eda6	-0.02770121
252	0x3d21cc82	0.039501674
253	0xbcc00866	-0.023441505
254	0xbd2a5df0	-0.041593492
255	0x3b4a5764	0.0030874843

bias_hh f4 [512]
0	0x3d8f4a0b	0.069965445
1	0x3d28d4f8	0.041218728
2	0x3e0f816e	0.14014217
3	0xbc46c86f	-0.012132748
4	0x3da7bba1	0.08190084
5	0x3d966868	0.07344133
6	0x3ddcdd11	0.107843526
7	0x3e14112d	0.14459677
8	0x3b65310e	0.0034971866
9	0x3dbe362f	0.092876785
10	0x3d7bdba8	0.061488777
11	0x3e2af7b8	0.1669606
12	0x3d2ccb45	0.04218604
13	0x3b122814	0.002230172
14	0x3d798df4	0.060926393
15	0x3e0326ae	0.12807724
16	0x39b682e5	0.0003481127
17	0x3e014e23	0.12627463
18	0xbc7c9b97	-0.015417955
19	0x3e081b47	0.13291655
20	0x3e139920	0.14413881
21	0x3e14b86c	0.14523476
22	0x3e04ffb8	0.12988174
23	0x3dd6ffc3	0.104980014
24	0x3ca816d9	0.020518707
25	0x3e546d26	0.20744762
26	0xbcee263a	-0.029070962
27	0x3c806651	0.015673788
28	0x3d9e6c1c	0.07735464
29	0x3e2332d5	0.1593736
30	0x3d5d0dbd	0.05396818
31	0x3b1d5f99	0.002401328
32	0x3e010f83	0.12603574
33	0x3da10cdc	0.07863781
34	0xbd71a90e	-0.058999114
35	0x3d9bb131	0.07602156
36	0xbd386346	-0.04501655
37	0x3e0e2319	0.13880576
38	0x3e442119	0.19153251
39	0xbd53d465	-0.051716227
40	0x3db7824b	0.08960398
41	0xbd9e7cfa	-0.07738681
42	0x3df39eaa	0.11895497
43	0x3d4eb2f6	0.05046364
44	0x3ddc1e53	0.107479714
45	0x3e1e2d9f	0.1544709
46	0x3de4e42c	0.11176333
47	0x3c2a8cda	0.010409558
48	0x3c2d010b	0.010559331
49	0x3e21eb6f	0.15812467
50	0x3d958672	0.07301034
51	0xbd1725cf	-0.03690129
52	0x3e0e6ef2	0.1390951
53	0xbcebdc19	-0.028791474
54	0x3db3d292	0.087803975
55	0x3e21c2ce	0.15796968
56	0x3dee681e	0.116409525
57	0x3e2e19ab	0.17001979
58	0x3dbfbf36	0.093626425
59	0x3d922ac7	0.071370654
60	0x3e23e5ba	0.16005602
61	0x3dbb2f3a	0.09139867
62	0x3c5e0e46	0.013553208
63	0x3da9b43c	0.0828633
64	0xbc30e8d9	-0.010797703
65	0x3e258393	0.16163473
66	0xbc98d73d	-0.018657321
67	0x3ce1644e	0.02751365
68	0x3e44c751	0.19216658
69	0x3de7a125	0.11310033
70	0x3d9d3bbf	0.07677411
71	0x3ddaf671	0.10691536
72	0x3da8debb	0.082456075
73	0x3e3105fb	0.17287438
74	0x3d9de5bb	0.07709833
75	0x3d2348e5	0.03986444
76	0x3daa553c	0.083170384
77	0x3e044ba9	0.12919487
78	0x3e142827	0.14468442
79	0x3d3a8e9d	0.045546163
80	0x3e1143a6	0.14185962
81	0x3d4c2b2b	0.049845856
82	0x3e07d2b5	0.13263972
83	0x3da96256	0.08270709
84	0x3e328b67	0.1743599
85	0x3df6b4ae	0.12046181
86	0x3d53b0fe	0.051682465
87	0x3d92baa3	0.071645044
88	0x3be5dd8c	0.007014936
89	0x3e0672e4	0.13129765
90	0x3dce227f	0.10065173
91	0x3e03991f	0.1285138
92	0xbcb4733d	-0.022027606
93	0x3c68c794	0.014207739
94	0x3d81a871	0.06330956
95	0x3cbfc84c	0.023410939
96	0x3de94c16	0.11391465
97	0xbc1fd356	-0.009754976
98	0x3e2b7b7f	0.16746329
99	0x3e121bcf	0.1426842
100	0x3ba85b95	0.0051378706
101	0x3d88719e	0.06662296
102	0x3d0db6d6	0.034598194
103	0x3d80d9df	0.062915556
104	0x3e5b1464	0.21394497
105	0x3d0c27ae	0.03421753
106	0x3d28d55f	0.04121911
107	0xbc1ff544	-0.009763066
108	0xbd488df2	-0.048963495
109	0x3e007093	0.12542944
110	0x3da88733	0.08228912
111	0x3c812b57	0.015767736
112	0x3da6c43a	0.08142896
113	0xbd058561	-0.032597903
114	0xbcc47a96	-0.023984235
115	0x3db1f7d3	0.08689847
116	0x3c60ad9e	0.013713269
117	0x3dabb94c	0.08384952
118	0x3e1a1fc2	0.15051177
119	0x3cf8dbc8	0.030378237
120	0x3d9fed00	0.07808876
121	0x3c7721e4	0.015083764
122	0x3e1c311a	0.15253106
123	0x3c10b890	0.008833066
124	0x3e33d3a7	0.17561208
125	0x3cdd8def	0.027045218
126	0x3dd932e3	0.10605409
127	0x3c8800e3	0.016601985
128	0xbd1bdfa1	-0.038055066
129	0xbd11d97c	-0.0356078
130	0xbc97026f	-0.018433778
131	0xbd5e93f8	-0.054340333
132	0x3cdfe25f	0.027329622
133	0x3da61d0d	0.0811101
134	0x3d104297	0.035219755
135	0x3d592ae7	0.05301943
136	0x3dbd85c7	0.09254032
137	0xbcc8de12	-0.024519954
138	0x3cf7837b	0.030214062
139	0x3d82311c	0.06357023
140	0x3c0bd108	0.008533724
141	0x3cb52b81	0.02211547
142	0xbc35992a	-0.01108388
143	0xbd216c27	-0.039409783
144	0x3d82ff81	0.0639639
145	0x3d92c390	0.07166207
146	0x3ddf77b0	0.109115005
147	0x3ddd93fc	0.108192414
148	0x3cd61ab2	0.026135776
149	0xbd038b8c	-0.032115504
150	0xbae19d1b	-0.0017212959
151	0xbd494925	-0.04914202
152	0x3dc67026	0.09689359
153	0xbc263b65	-0.010145997
154	0xbc0e2acc	-0.008677196
155	0x3cc5d871	0.024151059
156	0xbcf9f8c2	-0.030514125
157	0x3de5d0fe	0.11221503
158	0xbce471ea	-0.02788635
159	0xbc15a54b	-0.009133647
160	0x3ba8a8ce	0.005147076
161	0x3da371d8	0.07980698
162	0x3d2735e8	0.040822893
163	0xbbc002da	-0.005859715
164	0x3d4ffe80	0.05077982
165	0xbe23cc92	-0.15996006
166	0xbd451efd	-0.048125256
167	0x3dcaa368	0.098944485
168	0x3d9afa5a	0.07567282
169	0x3d8c3603	0.068462394
170	0xbda741a9	-0.081668206
171	0x3d374975	0.04474779
172	0x3de91c03	0.11382296
173	0xbd8124a9	-0.063058205
174	0x3d2ecbfb	0.042675
175	0x3d3cab3a	0.046061732
176	0xbcb631b6	-0.0222405
177	0x3cdb94e4	0.026804395
178	0xbdab512d	-0.083650924
179	0xbbaa4b52	-0.005196967
180	0x3bd731ca	0.0065672146
181	0x3d84afdd	0.06478856
182	0xbe002dcd	-0.12517472
183	0xbabc0e17	-0.0014347461
184	0xbd199bca	-0.037502088
185	0x3d9a73b7	0.07541602
186	0x3d011532	0.031514354
187	0xbce3e8c3	-0.02782095
188	0x3db5b478	0.08872312
189	0xbd2e2f90	-0.042525828
190	0xbc9f8110	-0.019470721
191	0x3d1384a9	0.036015186
192	0x3d5b8cbe	0.05360102
193	0x3d62119a	0.055192567
194	0x3bf21a83	0.0073884143
195	0x3dc7efe7	0.097625546
196	0xbd14a6a0	-0.03629172
197	0x3d829adf	0.063771956
198	0xbcf88360	-0.030336082
199	0x3d4f6498	0.050633043
200	0xbd7dde56	-0.061979614
201	0xbd60d347	-0.05488899
202	0xbd848a3c	-0.064716786
203	0xbd5bbbd5	-0.053645927
204	0x3c3cfc2e	0.011534734
205	0x3d1bf9e0	0.038080096
206	0xbdb8d5b2	-0.09025134
207	0xbcb70a17	-0.022343678
208	0xbcc6f492	-0.024286542
209	0x3ae6cf0f	0.0017609316
210	0x3d996550	0.07490027
211	0x3c8733f8	0.016504273
212	0x3cf58064	0.029968448
213	0x3d656b68	0.056010634
214	0xbd318164	-0.043336287
215	0xbd002a7e	-0.031290524
216	0xbbb4565a	-0.005503458
217	0x3d0b9d45	0.03408553
218	0x3cd6adb5	0.026205877
219	0x3dd6b58d	0.10483847
220	0x3de1b52e	0.110208854
221	0x3dd171e6	0.102268025
222	0x3dd95ef7	0.10613816
223	0x3d9060db	0.07049724
224	0xb8a32c87	-7.7807395e-05
225	0x3d25c759	0.040473316
226	0xbcc01595	-0.023447791
227	0x3da1d32b	0.07901605
228	0xbb9f17f9	-0.0048551527
229	0x3b5faf5d	0.0034131624
230	0x3d643fe5	0.055724997
231	0xbd14f56a	-0.036366858
232	0x3bb06a51	0.0053837677
233	0x3dd9463d	0.106091
234	0x3dafeea6	0.085904405
235	0xbd49a007	-0.04922488
236	0x3d96f618	0.073711574
237	0xbd21cb03	-0.039500248
238	0xbaf33666	-0.0018555641
239	0xbd1b8247	-0.03796604
240	0xbcf14af5	-0.029454688
241	0xbb9f74f5	-0.0048662373
242	0xbdd8d537	-0.105875425
243	0x3d5bd249	0.05366734
244	0x3de9e71e	0.11421035
245	0xbd2dc478	-0.042423695
246	0xbcb34162	-0.021881763
247	0xbc415f11	-0.011802451
248	0x3cd47107	0.025932802
249	0x3d7357e6	0.05941
250	0xbc5b7198	-0.013393782
251	0xbcd849bc	-0.026402347
252	0x3c13d00e	0.009021772
253	0x3cb6e6a8	0.022326782
254	0x3df2db9e	0.11858295
255	0xbd8fdf0b	-0.07024964

weight_ih f4 [512, 128]
0	0x3c1b583b	0.009481485
1	0xbd748586	-0.05969765
2	0xbdd2ccde	-0.102929816
3	0xbdf84f3e	-0.12124489
4	0xbd76a91c	-0.06021987
5	0x3c624cd1	0.01381226
6	0x3dbace08	0.091213286
7	0x3db1b368	0.08676797
8	0x3d4e81bc	0.050416693
9	0xbd1ea0b1	-0.038727466
10	0xbd392f29	-0.04521099
11	0x3cdb9421	0.026804032
12	0x3dd851e9	0.10562498
13	0x3e038910	0.12845254
14	0xbd5ab6f3	-0.05339713
15	0x3db6ade9	0.089198895
16	0x3de82462	0.113350645
17	0x3dd483a8	0.10376674
18	0x3d876f02	0.0661297
19	0xbdf1f58b	-0.11814412
20	0x3cb4c648	0.022067204
21	0xbc7079c3	-0.014677468
22	0xbd8ce9c8	-0.06880528
23	0x3c4e0446	0.012574261
24	0x3df23dbd	0.11828182
25	0xbc862ee1	-0.016379775
26	0x3aad8b53	0.0013240374
27	0x3dae8831	0.0852207
28	0xbd3ba2e3	-0.045809638
29	0x3c69951e	0.014256744
30	0xbd6d264c	-0.05789785
31	0x3dbdd5a0	0.09269261
32	0xbc93bec0	-0.018035293
33	0x3d1fd06e	0.039017133
34	0x3caa1ca4	0.02076561
35	0xbd90c99c	-0.07069704
36	0x3d80d49b	0.06290551
37	0xbd81614c	-0.06317386
38	0x3d526c88	0.051373035
39	0x3d3654a9	0.044514332
40	0x3ce87f81	0.028381111
41	0x3e285301	0.16437913
42	0x3daa5265	0.08316497
43	0x3e300dc5	0.17192753
44	0x3d302e1e	0.04301273
45	0x3c85616c	0.016281806
46	0xbdeea5f9	-0.116527505
47	0x3d0a1c80	0.033718586
48	0xbd9fb6b2	-0.07798518
49	0x3b398149	0.002830582
50	0x3c822b5a	0.015889812
51	0xbdfba646	-0.122875735
52	0xbd8f7f15	-0.07006661
53	0xbd173966	-0.036919974
54	0x3d6cec12	0.05784232
55	0x3d282350	0.0410493
56	0x3d5b1d63	0.053494822
57	0xbd41c6b8	-0.047308654
58	0x3cc60a7f	0.024174927
59	0xbd5d1dc3	-0.05398346
60	0x3d9cd056	0.076569244
61	0xbdc96cce	-0.09835206
62	0xbc8eb2f1	-0.01741931
63	0x3dbad411	0.0912248
64	0xbd06ee62	-0.032942183
65	0xbd17c0ba	-0.037049033
66	0x3c057efa	0.008147949
67	0x3d360f9d	0.044448484
68	0x3b97cfa8	0.004632909
69	0xbca77526	-0.020441603
70	0x3ccbb59c	0.024866872
71	0x3d6bc25a	0.057558395
72	0x3c3e14e4	0.01160166
73	0xbbc576b5	-0.006026114
74	0x3d98e781	0.07466031
75	0x3daa0a72	0.083027735
76	0xbc9d946c	-0.019235812
77	0x3c00c2d2	0.007858949
78	0xbd4d5845	-0.05013301
79	0x3e06befa	0.1315879
80	0x39c3b8a1	0.00037330858
81	0x3e031487	0.128008
82	0xbd56fbae	-0.052486114
83	0xbc2ccb8c	-0.010546576
84	0xbca52dec	-0.020163499
85	0x3d6a317d	0.057176102
86	0xbdf5c430	-0.120003104
87	0xbdf57c89	-0.11986644
88	0x3bccd54e	0.006251014
89	0xbd7c0953	-0.06153233
90	0xbe374412	-0.1789706
91	0x3da7e06a	0.081971005
92	0x3d90cf2b	0.07070764
93	0xbe1c45e6	-0.15261039
94	0xbd7bd095	-0.061478216
95	0x3c702060	0.014656156
96	0xbd6c81e3	-0.057741057
97	0xbc06b3b8	-0.008221559
98	0x3d3aebb6	0.045634948
99	0x3c37d91a	0.011221195
100	0x3dafdf11	0.085874684
101	0xbd1aa177	-0.03775164
102	0x3d7fdaf6	0.062464677
103	0xbd35be44	-0.044370905
104	0xbd8315ed	-0.064006664
105	0xbde399a6	-0.111132905
106	0x3c5fe83d	0.01366621
107	0xbc929392	-0.017892633
108	0x3d08a08c	0.033356234
109	0x3e1e06a6	0.15432224
110	0x3cb2c4a8	0.021822289
111	0x3d76f087	0.06028798
112	0xbddd4063	-0.108032964
113	0xbd85e29d	-0.06537364
114	0xbd912cea	-0.07088645
115	0x3df69819	0.12040729
116	0x3e26b090	0.16278291
117	0xbdc1904a	-0.09451349
118	0x3e1f08fc	0.15530771
119	0x3d4e46fd	0.05036067
120	0xbda931c5	-0.08261446
121	0x3d092ec6	0.033491872
122	0xbe2f6b90	-0.17130876
123	0x3d51678d	0.051124144
124	0x3c848395	0.016176024
125	0x3d37054b	0.044682782
126	0xbcd9bcf4	-0.026579358
127	0x3d17bce1	0.037045363
128	0x3db5ef0d	0.08883486
129	0x3ddd067c	0.107922524
130	0x3a918179	0.0011101208
131	0xbdcdc70b	-0.1004773
132	0xbc8fb525	-0.017542431
133	0x3dc862c2	0.097844616
134	0x3b4337c2	0.0029787873
135	0xbdcd6e36	-0.10030787
136	0x3df17004	0.117889434
137	0x3d1fc898	0.03900966
138	0xbd26bd53	-0.040707897
139	0x3d47ae22	0.04875005
140	0xbc0ba625	-0.008523499
141	0x3d0fb047	0.03508022
142	0x3d028165	0.03186168
143	0xbbafe47b	-0.005367813
144	0x3c1052bb	0.008808787
145	0xbd84b46c	-0.06479725
146	0xbd2eef83	-0.042708885
147	0xbd823c5f	-0.06359171
148	0x3d61c3fe	0.055118553
149	0xbd7ee1b9	-0.062226985
150	0xbd1ed7c8	-0.038780004
151	0x3d89ca81	0.06728078
152	0xbe1b3ed1	-0.15160681
153	0xbb363316	-0.0027801446
154	0xbd09278f	-0.03348499
155	0x3d081210	0.03322035
156	0x3bdacdcf	0.0066773663
157	0xbd929455	-0.07157198
158	0x3c86c650	0.016451985
159	0x3ca7f190	0.020500928
160	0x3d3e6e93	0.04649217
161	0x3dc56e6d	0.09640203
162	0x3d4abfda	0.04949937
163	0x3c9550c9	0.018226998
164	0xbd610d57	-0.054944362
165	0xbd8792da	-0.066198066
166	0xbbad5593	-0.0052897423
167	0xbd3494cb	-0.044087213
168	0x3da4ed4c	0.08053073
169	0xbde92227	-0.11383467
170	0x3d831149	0.06399781
171	0x3c512cb0	0.012767002
172	0x3e40f409	0.18843092
173	0x3ca0b62e	0.01961812
174	0xbb052e44	-0.0020321766
175	0xbd175974	-0.036950544
176	0x3c734a52	0.014849262
177	0x3d003019	0.03129587
178	0xbd202460	-0.03909719
179	0xbcd960bd	-0.026535386
180	0x3d0a03f4	0.033695176
181	0x3dcbcd46	0.09951262
182	0x3ca21c4a	0.01978888
183	0xbc97d7b4	-0.018535472
184	0x3dbad1ea	0.09122069
185	0xbceee16b	-0.029160222
186	0x3d43d040	0.047806025
187	0x3dea9765	0.114546575
188	0xbdb13822	-0.086532846
189	0xbdf79864	-0.12089613
190	0x3d947e24	0.07250622
191	0xbd06f9aa	-0.032952942
192	0xbdbb804b	-0.09155329
193	0x3e05a27e	0.13050267
194	0xbe0a3c0c	-0.13499469
195	0x3d7eece7	0.062237646
196	0x3d956235	0.07294122
197	0xbdc059f0	-0.09392154
198	0x3c1c736c	0.009549003
199	0x3d85e8ce	0.065385446
200	0xbddb4650	-0.107067704
201	0x3d6255da	0.055257656
202	0xbdb0fa6f	-0.086415164
203	0x3d18b3e0	0.037280917
204	0x3d96e1db	0.07367297
205	0x3dd2f81b	0.103012286
206	0xbe1009fe	-0.14066312
207	0xbb9a2af1	-0.004704826
208	0xbd39d195	-0.04536589
209	0x3c8a6f3b	0.016898742
210	0xbd3ca69d	-0.046057332
211	0x3ddb7f69	0.10717661
212	0xbacfd44c	-0.0015856116
213	0x3da0adfa	0.078456834
214	0x3ac0235c	0.0014658975
215	0xbdd8c932	-0.1058525
216	0x3c369ca1	0.011145742
217	0xbd4fd43b	-0.050739508
218	0xbc0d9df1	-0.008643613
219	0xbdebb1b3	-0.11508503
220	0x3d88905d	0.0666816
221	0x3d3a2116	0.04544171
222	0x3d89a80e	0.06721507
223	0xbd4c7e06	-0.049924873
224	0xbe15ae2a	-0.1461722
225	0x3d96068c	0.073254675
226	0xbb43d898	-0.0029883739
227	0xbca4940a	-0.020090122
228	0x3ce80d75	0.02832673
229	0xbde2ced4	-0.110746056
230	0x3de45228	0.111484826
231	0xbd201205	-0.039079685
232	0xbacb0320	-0.0015488602
233	0xbd96df5f	-0.073668234
234	0x3d815998	0.06315917
235	0xbd25b01b	-0.04045115
236	0x3d754af7	0.059885945
237	0xbd38cb33	-0.04511566
238	0x3d462c34	0.048382
239	0xbc3d766b	-0.011563878
240	0x3d60cf08	0.05488494
241	0xbdf8f9a9	-0.12156994
242	0xbda09a76	-0.07841961
243	0x3df3c7a0	0.1190331
244	0x3d65a0c4	0.05606152
245	0x3d955abc	0.07292697
246	0x3dddf183	0.1083708
247	0xbd02e9d1	-0.031961266
248	0x3dfdad94	0.12386623
249	0xbe011ae5	-0.12607916
250	0x3d52dbd3	0.051479172
251	0x3dab8218	0.08374423
252	0xbd67a712	-0.056555815
253	0xbbaa69c2	-0.0052005956
254	0x3b10dc82	0.002210409
255	0x3dcd7c26	0.10033445

weight_hh f4 [512, 128]
0	0x3cf5403e	0.02993786
1	0xbd697912	-0.057000227
2	0xbd9807f3	-0.07423391
3	0xbc8df2d2	-0.0173277
4	0x3d9da89f	0.076981775
5	0xbd7c891a	-0.061654188
6	0x3d399317	0.04530629
7	0x3d815dda	0.06316729
8	0xbcb2fb51	-0.021848353
9	0x3c12f3c0	0.008969247
10	0x3bf93810	0.00760556
11	0x3c85514b	0.016274115
12	0xbd852b59	-0.065024085
13	0xbdffabcd	-0.1248394
14	0x3c40c6b3	0.011766124
15	0xbd0837b6	-0.033256255
16	0x3cd7a6c0	0.02632463
17	0x3df270fd	0.11837957
18	0xbdd1d3c6	-0.10245471
19	0xbd5edf67	-0.05441227
20	0xbd877b63	-0.06615331
21	0xbc830f13	-0.015998399
22	0xbc8e4428	-0.017366484
23	0xbd88316a	-0.0665005
24	0xbdc129f7	-0.09431832
25	0x3d73b21a	0.059496023
26	0x3db5132d	0.08841548
27	0xba9f49df	-0.0012152753
28	0xbd66164d	-0.05617361
29	0x3de7a859	0.11311407
30	0xbc830d62	-0.015997592
31	0x3d505d9b	0.05087052
32	0xbb1c83a0	-0.0023882166
33	0xbdb51b8a	-0.08843143
34	0x3c2e6675	0.010644545
35	0xbe2d3f93	-0.16918783
36	0xbd28facb	-0.0412548
37	0x3bde12b4	0.006777132
38	0xbdb71d93	-0.08941188
39	0x3d0325c2	0.03201843
40	0xbdb1ecf6	-0.08687775
41	0x3db34029	0.08752472
42	0x3e0b6116	0.13611254
43	0x3c909845	0.017650733
44	0xbb2b0927	-0.0026097985
45	0x3d05fb7a	0.03271053
46	0x3dad3067	0.08456498
47	0x3d216e8a	0.03941206
48	0x3e056718	0.13027608
49	0xbdbc414f	-0.09192144
50	0xbc4bb3c2	-0.012432994
51	0xbc8dadca	-0.017294783
52	0xbd07a48f	-0.03311592
53	0xbd2c2c0b	-0.04203419
54	0xbd67c2ff	-0.056582447
55	0x3dd2324e	0.10263501
56	0xbcdc266a	-0.026873786
57	0xbd2096a8	-0.039206177
58	0x3d8e6d2c	0.06954417
59	0x3da2f3be	0.079566464
60	0x3da062bb	0.07831331
61	0xbd06f6fc	-0.032950386
62	0x3da7860b	0.081798635
63	0x3e03cfd1	0.12872244
64	0x3cd0d1ba	0.02549063
65	0xbe02ac7e	-0.12761113
66	0x3d968d7b	0.07351204
67	0xbddda53a	-0.1082253
68	0x3d5a7825	0.053337235
69	0x3cda5c77	0.026655419
70	0x3c09c8bf	0.008409678
71	0xbcc6bc4e	-0.024259713
72	0x3e02deae	0.12780258
73	0x3d85808c	0.06518659
74	0x3ce98a31	0.028508278
75	0xbdaad8d7	-0.0834214
76	0xbda4a4b6	-0.080392286
77	0xbc9ff409	-0.019525545
78	0x3d48d87b	0.049034577
79	0x3d961f35	0.07330171
80	0xbd923cbd	-0.07140491
81	0xbbb1767c	-0.0054157358
82	0x3e0d4ebf	0.1379957
83	0xbda98916	-0.082781
84	0x3d5a8857	0.05335268
85	0x3d0c9969	0.03432599
86	0x3cfa7894	0.030575074
87	0xbd8989b8	-0.06715721
88	0x3de27797	0.11057966
89	0xbb16a757	-0.0022987926
90	0x3db60938	0.08888477
91	0x3ca99de4	0.02070517
92	0xbdd7bd2b	-0.10534128
93	0xbd2f7e37	-0.042844977
94	0xbd52e8e1	-0.051491622
95	0xbd3a8f1a	-0.04554663
96	0xbdc65293	-0.096837185
97	0x3d8206ca	0.06348951
98	0x3c239a63	0.009985539
99	0x3de8d312	0.113683835
100	0x3cc31aa6	0.023816418
101	0xbd248063	-0.0401615
102	0xbcb381ff	-0.021912573
103	0xbd237415	-0.039905626
104	0x3d912975	0.070879854
105	0xbdae2352	-0.085028306
106	0x3d258b29	0.040415917
107	0xbddad63b	-0.106853925
108	0x3da35a28	0.0797618
109	0x3cdcdd0e	0.026960876
110	0xbdcbc6b7	-0.09950011
111	0xbd1a749f	-0.037708875
112	0x3d9e637f	0.07733821
113	0x3d58e06e	0.052948408
114	0x3dac6ea0	0.084195375
115	0xbb988eac	-0.0046556797
116	0xbd73d705	-0.05953123
117	0xbd09b597	-0.033620443
118	0xbd7ebb9e	-0.062190644
119	0x3d9a1fc8	0.07525593
120	0xbcc48a69	-0.02399178
121	0xbcbedc0f	-0.023298291
122	0xbb8502b0	-0.0040591583
123	0x3db2a563	0.08722951
124	0xbd2db5d5	-0.042409737
125	0x3c2b0bbb	0.0104398085
126	0x3caccc9c	0.02109366
127	0x3bccc193	0.006248662
128	0xbc751925	-0.014959608
129	0x3ce3be3d	0.027800674
130	0xbe1be0e1	-0.15222503
131	0x3b7794c5	0.0037777883
132	0x3d237aa9	0.0399119
133	0x3d8a8f48	0.0676561
134	0xbc91caf4	-0.01779697
135	0x3d543361	0.05180681
136	0xbd7d163e	-0.06178879
137	0xbd457f04	-0.048216835
138	0x3dac0657	0.08399647
139	0xbe1f0bfd	-0.15531917
140	0xbd769451	-0.06020004
141	0x3d90bfd9	0.07067842
142	0x3ca6bf47	0.02035488
143	0x3d96b21b	0.0735819
144	0x3d9c3f8c	0.07629308
145	0x3e062074	0.13098317
146	0x3db78eb9	0.08962769
147	0x3e0b563e	0.13607118
148	0x3d8fefec	0.07028183
149	0xbd5582a9	-0.05212656
150	0x3c307e51	0.010772304
151	0xbd395130	-0.045243442
152	0x3c63536d	0.013874871
153	0x3de6d567	0.11271172
154	0xbd661331	-0.056170646
155	0x3dc32b9c	0.09529802
156	0x3de77f6a	0.11303599
157	0x3d85125e	0.06497644
158	0x3d04f51b	0.032460313
159	0x3c5aaf35	0.013347437
160	0x3d0b47e1	0.034004096
161	0x3ca830c8	0.020531073
162	0x3da3d622	0.07999827
163	0xbdf11397	-0.117713146
164	0xbd1dab6e	-0.038493566
165	0x3dc37966	0.09544639
166	0xbd19c7c5	-0.03754403
167	0xbd3ba4be	-0.045811407
168	0xbc7dd7e4	-0.015493367
169	0x3d9d6d03	0.07686808
170	0xbd81e748	-0.063429415
171	0x3d7a8ef1	0.061171476
172	0x3dac4a20	0.08412576
173	0xbdada90b	-0.08479508
174	0x3daf5e7e	0.08562945
175	0xbdabe1ec	-0.083927006
176	0xbda3ff8d	-0.08007727
177	0x3d951df2	0.07281102
178	0xbd7c503c	-0.061599955
179	0xbd16110e	-0.03663736
180	0xba03cc48	-0.00050276937
181	0xbdfd1e12	-0.12359251
182	0xbddffd12	-0.10936941
183	0x3d62f7df	0.05541217
184	0x3dcea75b	0.10090514
185	0xbd2fc9ef	-0.04291719
186	0xbd8886a4	-0.06666306
187	0x3b95cfff	0.004571914
188	0xbb5e18a7	-0.0033889206
189	0x3d4b053e	0.049565546
190	0x3e26cc76	0.16288933
191	0x3cce61e2	0.025193159
192	0xbc51fe13	-0.012816924
193	0x3d3e5e6d	0.04647677
194	0x3dd6a79f	0.1048119
195	0xbdd79386	-0.10526185
196	0xbc5bde83	-0.01341975
197	0x3d668c6e	0.056286268
198	0x3cc69a19	0.024243401
199	0xbdc950b7	-0.09829848
200	0x3da7ef51	0.08199943
201	0xbd88498e	-0.066546544
202	0xbbab34f9	-0.0052248207
203	0x3d58bdd5	0.052915413
204	0x3c430818	0.011903785
205	0xbe2d801e	-0.16943404
206	0xbdc327f5	-0.095291056
207	0xbdb825be	-0.08991574
208	0x3d274b46	0.04084327
209	0xbe0d9cad	-0.13829298
210	0x3cf38601	0.029726984
211	0x3a54b351	0.00081138784
212	0x3db90e5f	0.09035944
213	0x3e348e67	0.17632447
214	0x3d9f8697	0.07789343
215	0xbd988e15	-0.07448975
216	0x3dc01a60	0.09380031
217	0xbc93b8e3	-0.018032497
218	0x3dafbccb	0.08580931
219	0xbd67dff2	-0.056610055
220	0xbdb76251	-0.08954299
221	0xbdd27418	-0.102760494
222	0xbd45bc8e	-0.048275523
223	0xbcc286c6	-0.023745906
224	0xbd916e42	-0.07101108
225	0xbcae5063	-0.021278566
226	0x3cc4def4	0.024032094
227	0x3d9b431b	0.07581159
228	0xbdea0aca	-0.11427839
229	0x3bd902e2	0.006622658
230	0x3d0ff129	0.035142098
231	0xbe196afe	-0.1498222
232	0xbcd97e11	-0.026549371
233	0xbdc265f5	-0.09492103
234	0xbd8ac69f	-0.06776165
235	0xbe0883ec	-0.13331574
236	0xbd0b0a22	-0.03394521
237	0xbcd2cbdf	-0.025731979
238	0x3d3f7eeb	0.046751898
239	0xbd8d2372	-0.06891526
240	0x3dd829e8	0.10554868
241	0x3d6e4f72	0.058181234
242	0xbd497a26	-0.049188755
243	0x3b3cd764	0.0028814906
244	0xbc8cc4f0	-0.01718375
245	0x3d79d589	0.06099466
246	0x3de9a43d	0.11408279
247	0x3c1a410e	0.009414924
248	0x3c2adac3	0.010428133
249	0xbde8ff61	-0.11376835
250	0x3d0ac414	0.0338784
251	0x3d8061e7	0.062686734
252	0x3e46c10f	0.19409584
253	0xbd8f6e65	-0.07003478
254	0x3b2ee1fe	0.0026684995
255	0x3cabd591	0.02097586

bias_ih f4 [512]
0	0x3dc2e714	0.09516731
1	0x3df455c5	0.11930422
2	0x3d7f9cd6	0.06240543
3	0x3dc523e5	0.09625987
4	0x3d7ee02e	0.062225513
5	0x3d147aab	0.036249798
6	0x3de52547	0.11188751
7	0x3e069949	0.13144411
8	0x3e3eb0f4	0.1862219
9	0x3dd5e751	0.10444511
10	0xb7f1d606	-2.8829101e-05
11	0x3e11c821	0.142365
12	0x3e3c4a13	0.18387632
13	0x3de60a29	0.11232407
14	0x3d23bdfc	0.039976105
15	0x3e0ab188	0.13544285
16	0xbc04c1db	-0.008102859
17	0x3db6e240	0.089298725
18	0x3e1b922c	0.15192479
19	0x3e241b5c	0.16026062
20	0x3e3237ac	0.1740405
21	0xbcbaf402	-0.02282143
22	0x3d8c2dcc	0.068446726
23	0x3dc031fb	0.09384533
24	0x3c70e89e	0.014703898
25	0x3b322c21	0.0027186947
26	0x3da7a267	0.08185273
27	0x3e023ad8	0.1271776
28	0x3d3580ff	0.044312473
29	0x3d595b19	0.053065393
30	0x3e080c42	0.13285926
31	0x3d97cacd	0.07411728
32	0x3e44322a	0.19159761
33	0x3d19b6a4	0.037527695
34	0x3b06b0f0	0.002055224
35	0x3e187201	0.14887239
36	0x3dea190e	0.1143056
37	0x3dda3126	0.106539056
38	0x3cc402a7	0.023927046
39	0x3dadd67f	0.084881775
40	0x3d95cc83	0.07314398
41	0x3dcb01cb	0.09912451
42	0x3e5a2c5f	0.21305989
43	0x3e417f80	0.18896294
44	0x3e1a8da0	0.15093088
45	0xbc871fe5	-0.0164947
46	0x3e3f6ce4	0.18693882
47	0x3e19e3e0	0.15028334
48	0x3dc2726e	0.09494482
49	0x3d8de4fe	0.069284424
50	0x3da0cac4	0.078511745
51	0x3d48affb	0.048995953
52	0x3d08fe32	0.033445545
53	0x3ddb0ab5	0.106954016
54	0x3bfd91f1	0.007738345
55	0x3dd35e97	0.10320776
56	0x3dc9a344	0.098455936
57	0x3af7bc07	0.0018900641
58	0x3d93269f	0.07185101
59	0x3cfe2179	0.03102182
60	0x3d104702	0.03522397
61	0x3d32fc33	0.043697547
62	0x3e0d169e	0.13778159
63	0x3e098a98	0.13431776
64	0x3d261351	0.040545765
65	0xbcc875c5	-0.02447022
66	0x3e16adf1	0.14714791
67	0x3d21844f	0.03943282
68	0x3dd05454	0.10172334
69	0xbca295f8	-0.019846901
70	0x3b98150d	0.0046411813
71	0xbbca5986	-0.006175223
72	0x3a1dbe01	0.00060173875
73	0x3c2c31a7	0.010509885
74	0x3d6a3163	0.057176005
75	0x3e3619d3	0.17783289
76	0xbcbe5e9a	-0.023238469
77	0x3d5d8f0a	0.05409149
78	0xbcab9a80	-0.020947695
79	0x3da45094	0.080231816
80	0xbca3e57e	-0.020006891
81	0x3e2ac132	0.1667526
82	0x3d9b796d	0.075915195
83	0x3d255570	0.040364683
84	0x3d9e8db4	0.077418715
85	0x3d294027	0.041320946
86	0x3e01defa	0.12682715
87	0x3d9ec387	0.07752138
88	0x3dd58743	0.1042619
89	0x3da42a8a	0.08015926
90	0x3e8bf40a	0.27334625
91	0x3e338f62	0.17535165
92	0x3e0ea222	0.13929036
93	0x3e0a0f4d	0.134824
94	0x3e0d0cdd	0.13774438
95	0x3e3110a9	0.17291512
96	0x3e2eadfa	0.17058554
97	0x3d820429	0.0634845
98	0xbce56e50	-0.028006703
99	0x3e567f14	0.20946914
100	0x3def3d12	0.1168157
101	0xbd65dcdd	-0.056118835
102	0x3b104dc5	0.002201901
103	0x3df60d4e	0.120142564
104	0x3d95d713	0.07316413
105	0x3ddfabfd	0.10921476
106	0x3cf35960	0.029705703
107	0x3e0da662	0.13833001
108	0x3d254985	0.040353317
109	0x3e40e924	0.18838936
110	0x3df2e9c2	0.11860992
111	0x3cca9d0b	0.024733087
112	0x3b964304	0.0045856256
113	0x3deebbdd	0.11656926
114	0x3e028ad0	0.12748265
115	0x3dd7cf8e	0.10537635
116	0x3d23a004	0.039947525
117	0x3e1730e8	0.1476475
118	0x3def14c0	0.116738796
119	0xbc82cfc2	-0.015968207
120	0x3d307c0c	0.04308705
121	0x3d1b6a39	0.0379431
122	0x3e34e5d4	0.17665797
123	0x3d70108a	0.058609523
124	0x3d706cc8	0.058697492
125	0x3e087aa6	0.13328037
126	0x3e00d0c7	0.12579642
127	0x3e1ad4f2	0.15120295
128	0x3c87c94d	0.01657548
129	0x3cd42ae7	0.025899364
130	0x3d20e754	0.03928311
131	0xbddc63da	-0.10761233
132	0x3b310973	0.0027013689
133	0xbd3fd6e7	-0.046835806
134	0x3ccaa580	0.02473712
135	0x3b819fa9	0.0039558006
136	0x3c3bade3	0.011455032
137	0xbdc079a7	-0.09398203
138	0x3cb1dd0d	0.02171185
139	0x3c907ed7	0.017638607
140	0x3da2fb30	0.079580665
141	0xba90d09a	-0.0011048496
142	0xbc0be0f6	-0.008537522
143	0xbd3c0fff	-0.045913693
144	0x3c6cf927	0.014463699
145	0x3c77d4c1	0.015126408
146	0xbd8e9d92	-0.06963648
147	0xbde99468	-0.11405259
148	0xbb84a057	-0.0040474343
149	0xbdb3124c	-0.08743724
150	0x3cd0b5b5	0.02547727
151	0x3b9c317b	0.0047666407
152	0xbc3e98d7	-0.01163312
153	0xbd89bcc2	-0.06725456
154	0xbd8a7c4d	-0.0676199
155	0xbd9fe1da	-0.0780675
156	0xbd925b9f	-0.071463816
157	0xbd2c38ec	-0.042046472
158	0x3af63c65	0.001878631
159	0xbd782313	-0.060580324
160	0xbd907261	-0.07053066
161	0xbc054951	-0.008135156
162	0x3c35bcd0	0.01109238
163	0xbd1c4130	-0.038148105
164	0xbd4681a3	-0.048463475
165	0xbcfdc88a	-0.030979414
166	0xbd88bd9e	-0.066767916
167	0xbde8fbe6	-0.11376171
168	0x3d99766d	0.07493291
169	0xbdef7572	-0.11692323
170	0xbdff5941	-0.12468196
171	0x3d025cc4	0.03182675
172	0xbdad5bcc	-0.084647745
173	0xbdd3fdef	-0.10351168
174	0x3bb0374d	0.005377686
175	0xbd4d1835	-0.050071914
176	0xbe15b42c	-0.14619511
177	0xbe05574e	-0.13021585
178	0x3d222db1	0.039594356
179	0x3cf89a57	0.030347032
180	0x3d8510b8	0.064973295
181	0xbdb8ca89	-0.090230055
182	0xbc14a58b	-0.009072672
183	0x3d57304e	0.0525363
184	0x3b3687d8	0.0027851965
185	0xbd86c8b0	-0.06581247
186	0x3cf2f48e	0.029657628
187	0xbdcfc78b	-0.10145482
188	0xbdce124b	-0.10062083
189	0xbcaa91c8	-0.020821467
190	0xbda050c7	-0.07827907
191	0xbd404831	-0.046943847
192	0x3d3510c5	0.044205446
193	0xbd0d3fd8	-0.034484714
194	0xbd1c54fe	-0.038166992
195	0xbd9444f6	-0.07239716
196	0x3cd967e4	0.026538797
197	0xbdb75fe6	-0.08953838
198	0x3c9137b9	0.017726766
199	0xbcc5e8c2	-0.02415884
200	0xbc854572	-0.016268466
201	0xbdf9be83	-0.1219454
202	0xbc12109e	-0.008915095
203	0xbccee126	-0.025253844
204	0x3caf49a1	0.021397414
205	0x3c8f251f	0.017473755
206	0xbd2e6916	-0.042580687
207	0x3d8f580a	0.06999214
208	0x3d919889	0.07109172
209	0xbdfa98db	-0.12236186
210	0x3d88b62d	0.06675372
211	0x3cc2b087	0.023765815
212	0xbd6ff2a9	-0.058581028
213	0x3d24f59d	0.040273298
214	0xbc88eada	-0.016713548
215	0xbdacce81	-0.08437825
216	0x3c54fcd7	0.012999735
217	0xbd5af0f4	-0.053452447
218	0xbd8b37bc	-0.0679774
219	0x3c059514	0.008153219
220	0x3c5ccbb2	0.013476299
221	0xbd55ef7f	-0.052230354
222	0xba31732a	-0.0006769175
223	0xbc1bd45b	-0.009511079
224	0xbd297aa7	-0.041376736
225	0x3dbc949f	0.09208035
226	0xbcbe5ed1	-0.023238571
227	0xbd44da88	-0.04805997
228	0xbdc1585b	-0.094406806
229	0xbd039be6	-0.0321311
230	0x3cf0f17e	0.029412027
231	0x3d50f8a7	0.051018383
232	0xbd651865	-0.055931468
233	0xbca01a4d	-0.019543791
234	0x3cd3e697	0.02586679
235	0xbc1d2eef	-0.009593709
236	0xbda9f131	-0.08297957
237	0xbe046cb9	-0.129321
238	0xbdb98ad5	-0.09059683
239	0x3d92a349	0.071600504
240	0x3d17f069	0.037094507
241	0xbc58b006	-0.013225561
242	0xbe017e50	-0.1264584
243	0x3d86205f	0.06549143
244	0x3a07e265	0.0005183577
245	0x3ccff360	0.025384605
246	0xbb9269b1	-0.004468166
247	0xbbf181a8	-0.0073701926
248	0xbde0bb44	-0.10973218
249	0x3ca12533	0.019671058
250	0xbd12cece	-0.035841756
251	0xbd212ead	-0.039351154
252	0x3d4c592f	0.04988974
253	0xbd89b9cb	-0.0672489
254	0x3cd605be	0.026125785
255	0xbd8a3ec5	-0.067502536
