logs/fgb_vary_oracle/2/actor.pt (torch, 906162 bytes, 17 tensors)

weight_ih f4 [512, 48]
000000 17 ec 64 bd 48 af 2a 3e b4 3e 9d be 31 4d b2 bd
       -0.055889215 0.16668427 -0.307119 -0.08706129
000010 a5 0e 88 3e 51 20 ef 3d 8b 22 06 3e fe b0 85 3e
       0.26573673 0.11676086 0.13099115 0.26111597
000020 f7 30 48 bc 5d 8c 8a bd e9 a2 d6 3d 30 c2 55 bc
       -0.012218705 -0.067650534 0.104802914 -0.013046786
000030 c4 b0 f5 bd 80 5c 27 3d 74 87 ca bd 11 e6 b6 3d
       -0.11996606 0.0408597 -0.09889117 0.089306004
000040 ea f9 52 3e 7c 2b 76 3d 7f 72 23 3d 29 99 16 3e
       0.20603147 0.060100064 0.039904114 0.14706863
000050 9b 80 8b 3e 77 2a 0e 3e f9 63 b0 39 02 2d c3 bd
       0.27246556 0.13883387 0.0003364382 -0.09530069
000060 55 71 a0 bd 6c f1 9b bd e7 23 10 3e 2f 54 06 be
       -0.07834116 -0.07614407 0.14076196 -0.13118051
000070 d0 fd 00 be 2b 6f ae bd de 96 39 bd 04 62 06 3e
       -0.12596822 -0.08517297 -0.045309894 0.13123327
000080 f6 01 05 be 0f 51 88 3d 7a 4f 6e bd ff 08 a5 bc
       -0.1298903 0.06656086 -0.058181264 -0.020145891
000090 e2 20 2d bd 4b eb 6a 3d 81 c2 aa 3c 1e ff 1e 3d
       -0.042267688 0.0573533 0.0208447 0.038817517
0000a0 1d f6 40 bc d7 a3 ed bd 86 a2 bb bc f6 df 11 be
       -0.011777428 -0.116035156 -0.022904646 -0.1424559
0000b0 ae 65 1c bd e0 5f 56 bd de 74 04 3d 0b 8d 63 3c
       -0.038182907 -0.052337527 0.032338016 0.013888608
0000c0 5b 31 79 bd 8d e2 2f 3d ed 58 0c 3e ef 48 02 3e
       -0.060838085 0.042940665 0.13705797 0.12723134
0000d0 50 93 05 be 67 36 31 3d 8c ab f0 3d 45 9f 85 3d
       -0.13044477 0.043264773 0.1175147 0.06524519
0000e0 58 0b 06 3e 75 eb 9c 3b b3 78 fc bd 3b 36 07 be
       0.13090265 0.004788811 -0.12327709 -0.13204281
0000f0 16 06 0e 3d cd 34 56 3c a4 11 19 bd 6e a0 fa 3d
       0.034673773 0.013074112 -0.03737034 0.12237631
000100 42 c1 cf 3d 8c 11 cc bd 49 08 bb bd ed b4 62 3e
       0.10144283 -0.09964284 -0.0913244 0.2213933
000110 d4 87 42 bd 98 f6 d6 3d 83 3c 9f bd 7c 69 1d 3d
       -0.047492817 0.10496253 -0.077752136 0.038430676
000120 47 bf 88 3d 27 89 9c 3d e7 9a d5 3d 14 69 48 3e
       0.06677108 0.07643347 0.10429936 0.19571334
000130 0f 1a 33 be 45 d4 12 be 87 fe 48 3e 95 ff 52 bd
       -0.1749041 -0.14338787 0.19628344 -0.051513273
000140 2c dd 0b be da 90 11 3e f0 b5 09 3d 9f 2c b1 bd
       -0.13658589 0.14215413 0.033620775 -0.08651089
000150 62 e9 88 3b 46 8e 87 bc 76 11 f4 3c a0 ad 8d 3c
       0.004178212 -0.016547333 0.029793482 0.017294705
000160 a4 bf cb ba 5a 34 60 bd ca a9 28 bd 98 8a 45 bd
       -0.0015544784 -0.054737426 -0.04117755 -0.048227876
000170 9c 8d 52 3d d8 cc 88 3c cf f8 be bd c1 5d a3 3c
       0.05140458 0.01669924 -0.093248 0.019942166
000180 a6 ed 1d 3e 5c 95 16 3e f3 9d 1a bc 48 07 b6 bc
       0.15422687 0.14705414 -0.009437072 -0.022220269
000190 80 cd 55 3d bd 7b 08 bc 69 99 3a be ea b9 21 be
       0.052197933 -0.008330283 -0.18222584 -0.15793577
0001a0 51 04 22 bc b8 39 8b ba 58 c4 a8 bd 59 76 66 be
       -0.009888724 -0.001062206 -0.082405746 -0.22506084
0001b0 6f 60 00 3e 5a e6 e3 3d 29 93 c0 be ba de de bd
       0.12536786 0.111279204 -0.37612274 -0.108823255
0001c0 22 3f 07 3e f8 14 08 bd 7e 96 3a 3e 8a 20 ef bd
       0.13207677 -0.033223122 0.1822147 -0.11676128
0001d0 7a 21 af bd 45 52 99 3d 21 18 ca bd 71 d3 1f 3d
       -0.08551307 0.07486395 -0.098678835 0.039020006
0001e0 98 36 c4 bd 0c 83 c6 3d 77 22 3b be 66 89 c8 bd
       -0.095807254 0.09692964 -0.18274866 -0.09791832
0001f0 70 19 0e be 0b 18 9c 3c 68 ad f4 3c 42 3a ef bd
       -0.13876891 0.019054433 0.029867843 -0.11681034
000200 b9 ea 5f 3c de 34 18 be bf ef 4d bd 04 8d 3b bc
       0.013666802 -0.14863917 -0.050277468 -0.011447195
000210 ac 84 93 bd d2 c9 a2 bc f2 c4 74 3d 40 88 00 3c
       -0.072030395 -0.019871626 0.059758134 0.0078449845
000220 32 be 80 3d 82 5d 31 bd 90 25 29 3c e8 69 1e 3e
       0.06286277 -0.043302067 0.010323897 0.15470088
000230 62 0b d9 3d a9 4a df 3d 74 ff 03 3e 44 fa e3 3c
       0.10597874 0.10902912 0.12890416 0.027829297
000240 40 66 a5 bd 38 79 94 3d 1a fd 74 3d 03 a3 46 be
       -0.08076143 0.07249683 0.05981169 -0.19398122
000250 3b 7b 00 be 38 d1 24 3d 1f 70 40 3c b5 86 06 be
       -0.12547009 0.04023859 0.011745482 -0.13137324
000260 6d 4a 8f 3d c0 7d ab bd e3 ac 4c 3d 7d 14 00 be
       0.069966175 -0.08373594 0.049969565 -0.12507816
000270 c7 5d 15 3e 4f 9d bd bb 72 35 ed bd 72 43 fe 3c
       0.14586554 -0.005786575 -0.115824595 0.03103802
000280 64 cb ef 3d ad c3 56 3d 82 7e 6e be d8 59 a7 be
       0.117087156 0.052432705 -0.23290446 -0.32685733
000290 4f 97 0d be af f5 9c 3d 1f d0 1c 3e de aa 5b 3e
       -0.13827251 0.07664048 0.15313767 0.214519
0002a0 97 bb 03 be 31 c3 a2 bd 22 e0 94 3d d8 03 81 bd
       -0.12864529 -0.07947386 0.072693124 -0.06299561
0002b0 5d af aa 3e 2a 70 8d bd 87 84 7c be e7 e4 3e bd
       0.33336917 -0.06906159 -0.2465993 -0.046605017
0002c0 77 f2 b5 3b 84 f2 1d 3d af c4 42 3d 33 14 98 bd
       0.0055525857 0.03856136 0.047550853 -0.07425728
0002d0 b4 52 15 bd 4f df 57 bd f8 cf eb 3c c5 bf 9a 3b
       -0.036455825 -0.052703198 0.02878569 0.0047225677
0002e0 5e 41 f5 3c 90 36 b3 3d 15 95 21 3d d1 1b 32 bc
       0.029938396 0.08750641 0.039448816 -0.01087089
0002f0 39 31 4a bd 55 af e1 3d bf 03 2f 3e cb 4c 2d 3e
       -0.04936335 0.1101977 0.17091273 0.16923825
000300 c8 e5 ee bc bc d9 d3 3d 40 2a 72 3d 0b eb e7 bd
       -0.029162303 0.10344264 0.059122324 -0.11324128
000310 58 f8 60 3d 58 ba 14 3e 14 bf 29 3d 17 a9 4c 3e
       0.05492434 0.1452421 0.041441992 0.19986378
000320 5c 8b 28 3e c4 40 f3 3d 49 96 e2 3c 18 f3 4e be
       0.16459411 0.118775874 0.027659552 -0.2020992
000330 67 3a 0f 3d c6 4a 80 3e 55 ea 15 bc aa c1 20 3e
       0.034967806 0.25057048 -0.009150107 0.15698877
000340 05 81 9c 3d 3d f7 c9 3d 83 49 e4 3d 3b e9 6b bd
       0.07641796 0.0986161 0.11146834 -0.057595473
000350 1a 29 f6 bc 1c f1 03 bd 8c 45 82 3d 01 1a 9b 3e
       -0.030048896 -0.03221236 0.06360921 0.30293277
000360 46 97 32 bc 1a 70 8e 3d c1 2e c6 3d 07 fa 10 be
       -0.010900324 0.069549754 0.09676886 -0.14157878
000370 4a b9 0b 3e f6 26 c4 3d 11 3d 23 bd cb f1 1a bd
       0.13644901 0.09577744 -0.03985316 -0.037828248
000380 fd 0a ac bd 77 e3 8d 3c f9 a3 52 3c 7e 06 f6 bd
       -0.08400533 0.017320378 0.012856477 -0.12012957
000390 53 da ee bd 57 d8 f2 bc 32 a2 2c bd cf 7a 68 3d
       -0.11662736 -0.029644175 -0.04214687 0.056757744
0003a0 1e fa f5 3c d1 82 27 3d 25 34 e8 3c 90 84 e8 bd
       0.030026492 0.04089624 0.028345177 -0.11353409
0003b0 e7 6b 00 bc 61 b8 4f bc 18 fa a9 bd 44 9f 76 3c
       -0.007838226 -0.012678237 -0.08299655 0.01505262
0003c0 ef 2c 27 3c 75 97 0e 3e 71 8e 2b be b4 2a 97 be
       0.010203584 0.13924964 -0.16753556 -0.29524767
0003d0 2b 22 cb 3d 8e b5 92 be 5b 97 67 3c 18 d1 aa bd
       0.099186264 -0.2865414 0.014135207 -0.08340663
0003e0 12 12 f9 3d f1 6c 4b 3d d2 fa 2b bd b1 e9 8f 3d
       0.1216165 0.04966444 -0.041987248 0.07026995
0003f0 5f c0 01 be 39 a6 19 be a2 17 1a be 0f 8d cc bd
       -0.1267104 -0.15004815 -0.15048078 -0.09987842

weight_hh f4 [512, 128]
000000 15 b1 9b bd 5f 4e b9 bd 24 a7 2a 39 3a f7 b7 bd
       -0.07602135 -0.09048151 0.00016274728 -0.089827016
000010 0f bb 90 bd 88 ea 89 bd 9f a9 06 3d e8 d9 6f bb
       -0.070669286 -0.067341864 0.032876607 -0.0036598388
000020 62 48 db 3d c0 ba 55 3d 57 4e c0 bd 35 09 c3 3c
       0.10707165 0.05218005 -0.09389942 0.023808101
000030 16 69 71 3d 14 01 93 3d b8 fa 92 3d e8 84 09 3e
       0.05893811 0.0717794 0.07176727 0.13429606
000040 8f 45 20 3e 53 55 31 3d 5d 93 50 3d 4e 40 3d bc
       0.15651534 0.043294262 0.050921787 -0.011550976
000050 4f 87 67 3d ce 35 bf 3d c4 b6 0b 3e 82 49 b8 3d
       0.056525525 0.09336434 0.13643938 0.089983955
000060 43 4e d6 3c 70 1c f4 3c 4c d5 4f bd 4f 46 90 3c
       0.026160365 0.029798716 -0.050740525 0.01761165
000070 d4 3e 03 be 0a 06 fa 3d 38 ab 67 3b e5 81 79 bd
       -0.12816936 0.12208183 0.0035349857 -0.060914893
000080 12 a8 59 bd 63 12 f3 bd df 07 9e bd c9 c1 da bd
       -0.0531388 -0.11868741 -0.07716345 -0.10681493
000090 5b 4a 8c bc 1b c7 fc bb 42 e7 28 bd 81 b8 03 bd
       -0.0171253 -0.007714165 -0.04123617 -0.03215838
0000a0 c7 9e 13 bc ed 7a 81 bc ec 7a 08 3d 59 50 36 3b
       -0.009010023 -0.015805686 0.033320352 0.0027818887
0000b0 5f 77 fc 3d 9e 90 ea bc 2d 8f 96 3d 05 f1 24 3d
       0.12327456 -0.028633412 0.07351527 0.040268917
0000c0 79 3a c2 bd fb f7 ae 3c 7f 71 14 3b 78 86 e6 bc
       -0.09483809 0.02135848 0.0022650657 -0.028140292
0000d0 99 3c c0 bd 72 f4 91 3d 22 f3 db bd 8c 4b 84 3c
       -0.09386558 0.07126702 -0.10739733 0.016149305
0000e0 2b 1c 84 bb da d0 01 bd bf cf 07 3d 1c 4c d1 bd
       -0.004031678 -0.031693317 0.033157106 -0.10219595
0000f0 ea 49 7a bd 8e 3d 75 3d 46 7e c8 bd 6f ea 48 bc
       -0.061105646 0.059873156 -0.0978971 -0.012262925
000100 09 de 49 bd 8a f4 74 3d 0e 71 35 3d cb 31 81 3d
       -0.049284015 0.059803523 0.04429727 0.063083254
000110 6b 72 f7 bd 3f 0e 90 bd e0 ce 4f bd 57 e2 a2 3c
       -0.1208237 -0.07033967 -0.0507344 0.019883318
000120 00 43 72 3c 15 92 ae bd 95 a9 04 3d 70 ef 9e bc
       0.014786482 -0.08523957 0.03238829 -0.019401282
000130 b3 12 1b bd 92 4b ae bc 46 b1 ab bc c3 a6 3b 3d
       -0.03785963 -0.02127627 -0.020958554 0.045813333
000140 0f d6 c1 3d fd 49 47 3c 20 49 e7 b9 82 a0 24 3d
       0.094646566 0.012163636 -0.00044114236 0.040192135
000150 8e ee 67 3d 29 8e bf 3d 87 ca ce bd a6 79 32 bd
       0.056623988 0.09353287 -0.10097223 -0.043573044
000160 6c c8 4b 3d 69 21 ba 3d 5c 74 bd bd 6d 95 d2 ba
       0.049751684 0.09088404 -0.092507094 -0.0016066261
000170 31 b1 68 3d 95 de f0 bc d1 d0 99 bd 13 65 f5 3c
       0.056809608 -0.02940301 -0.07510532 0.029955423
000180 38 4d 9f bd 23 12 88 3c e2 96 a1 bd 99 ac 81 bd
       -0.077784 0.01661021 -0.07890107 -0.063317485
000190 24 52 9f 3d 7b 10 45 bd 02 2b 69 3d 76 f7 cf 38
       0.07779339 -0.04811142 0.05692578 9.9166224e-05
0001a0 2c cf 1d 3d 09 e1 8b bd bf b0 b4 3c b3 ed dd 3d
       0.038527653 -0.068300314 0.022056935 0.10836353
0001b0 7d 68 90 3d 00 ba 10 be 96 a1 a3 bc 67 80 29 3d
       0.070511796 -0.14133453 -0.019974511 0.04138222
0001c0 da f2 0e 3c fe 6a 15 3c f9 b6 78 3b 66 fd 60 3d
       0.0087248925 0.009119747 0.0037950857 0.05492916
0001d0 ac 28 ef bc c7 b0 c8 bd 6d 90 fe bb 2c 49 e1 3c
       -0.029194199 -0.097993426 -0.0077686817 0.027500711
0001e0 aa 82 25 be c0 64 c4 bd 6e ff 51 3d f7 e9 8b bd
       -0.16163126 -0.09589529 0.051268987 -0.06831735
0001f0 69 6c 09 bd 70 42 75 bb 07 7c b1 bd 2e d2 8d 3d
       -0.033550654 -0.0037423633 -0.086662345 0.06924854
000200 89 e5 6f bd 91 23 97 bc 75 22 6b bc e9 1e af 3b
       -0.05856851 -0.018449577 -0.014351477 0.005344261
000210 61 c1 47 3d 3f a5 d8 bb 0b 12 fb 3c d3 d4 c8 3d
       0.048768405 -0.0066114957 0.030648252 0.09806218
000220 a6 07 a9 3d e8 25 ae bc 8a 45 04 be 2c 6e 21 3e
       0.08253412 -0.02125831 -0.12917152 0.15764683
000230 ca ec 8c bc d9 d1 d0 bc b1 a0 00 3d a4 60 90 3d
       -0.017202754 -0.025490688 0.031403247 0.07049683
000240 1e 7b 3b bd 4a a5 08 bc 2d b6 a6 3d 15 ef 9e bd
       -0.04577171 -0.008340189 0.08140216 -0.07760445
000250 af 7f 14 bd 71 3a 79 bd e1 e7 46 bd 23 fb 00 be
       -0.03625458 -0.06084675 -0.04856098 -0.12595801
000260 06 ee 0c 3d 70 cb 6f 3d 3d b6 6c 3c 1a 36 e2 bc
       0.034406684 0.058543622 0.014447746 -0.027613688
000270 ee d3 c9 bd 1a b9 82 3d 6f 54 84 bd ee 67 ad bd
       -0.098548755 0.063829616 -0.06461417 -0.08467089
000280 92 e9 ba bc e9 33 d8 3c 21 ae 25 3d 58 7e a9 bd
       -0.022816453 0.02639194 0.040449265 -0.08276051
000290 bb 74 a2 bd 17 88 36 bd db 54 3e bd 84 cb e6 3b
       -0.07932421 -0.04456338 -0.046467643 0.007043304
0002a0 56 17 5d bd 1e f0 26 3d 69 37 dd 3c 4e 91 49 bd
       -0.053977333 0.040756337 0.02700396 -0.04921084
0002b0 03 8f 0a 3c 30 9e 43 bd 32 c8 10 3e c3 b9 bf bc
       0.008456948 -0.04775828 0.14138868 -0.023404008
0002c0 5c c3 8d 3c 34 44 4f 3d 1f cf 0f bd c0 a8 c4 bd
       0.017305069 0.050602153 -0.035109635 -0.09602499
0002d0 5f 05 9e bc 06 23 b7 3d fa 79 20 bb 16 4a c4 3c
       -0.01928967 0.08942227 -0.0024486766 0.023961108
0002e0 33 68 e1 bd 48 3f 47 3d 40 21 31 bd 5d a3 62 bd
       -0.110062025 0.048644334 -0.0432446 -0.055331577
0002f0 d5 0b 6f bd db 06 b1 bd 94 73 a4 bc f0 3a 4b bd
       -0.058360893 -0.08643886 -0.020074643 -0.049616754
000300 60 de df 3d c1 a2 b5 bd ca 06 6e bb 5a 5f 42 bb
       0.109310865 -0.088689335 -0.0036319965 -0.0029658885
000310 2b 04 92 bd 49 f8 05 3e 6a 21 03 3d 5c 98 23 bd
       -0.07129701 0.13082995 0.032014288 -0.039940223
000320 9a a4 04 3c 93 54 c6 39 60 e3 9e 3d d3 ed 2b bd
       0.008095885 0.00037828516 0.07758212 -0.041974854
000330 01 93 fa 3d d8 e2 09 3d bb fc 17 3d 63 64 9f 3d
       0.1223507 0.0336636 0.037106257 0.07782819
000340 30 7e 34 bd 8e a1 0d 3c 9b 65 03 3d 2e 16 41 bd
       -0.044065654 0.008644475 0.03207932 -0.047140293
000350 87 1f 10 bd 49 be 17 3e 62 c6 c2 3d 09 78 94 3d
       -0.035186317 0.14818682 0.09510495 0.072494574
000360 43 36 0f bd d6 3b a6 3d 9d 27 d2 bc c9 99 d7 3d
       -0.034963857 0.081168815 -0.025653655 0.10527379
000370 7a 44 08 3d dd 2a da 3c 25 76 83 3d e3 f6 ec bd
       0.03326843 0.026631767 0.06419019 -0.115705274
000380 af 9d 57 3d 7c ce cc 3c 30 1b ce bd fc 58 35 3d
       0.052640613 0.025000803 -0.10063779 0.044274315
000390 ed d0 c9 3c 28 2f 97 bc e1 9b a7 bb e4 e0 20 be
       0.024635756 -0.018455103 -0.0051150178 -0.15710789
0003a0 fa e1 ea 3c f0 35 81 bd 57 e1 25 bd cf 63 4d b9
       0.028672207 -0.06309116 -0.040498104 -0.00019587505
0003b0 6c 6c 92 bd 8f 92 2f bc a8 1b 71 bc eb 8c a7 bd
       -0.07149586 -0.010716095 -0.014716066 -0.08181175
0003c0 92 51 41 bd 11 24 65 3d 8e e8 e2 bd 6f 3b b3 bc
       -0.047196932 0.0559426 -0.110795125 -0.021878926
0003d0 36 25 b3 3c ac ca 06 be b6 cf db bb 64 9d a7 3d
       0.02186833 -0.1316325 -0.0067081107 0.08184317
0003e0 0e 63 a3 bd 51 52 e8 3c df 96 cd 3c 61 f8 9a 3c
       -0.079778776 0.028359564 0.025096355 0.018917264
0003f0 61 4b d9 bd 93 f0 9b 3d e3 af 05 be 95 ab 84 3b
       -0.106100805 0.07614245 -0.13055377 0.0040487745

bias_ih f4 [512]
000000 b4 84 04 3e 52 21 26 3e c4 2f a4 3d 83 74 62 3d
       0.12941247 0.16223648 0.08016923 0.055286895
000010 d6 f5 cc 3d ce e3 61 3d 88 d9 21 3e cf 50 eb 3d
       0.10007827 0.055148892 0.15805638 0.114900224
000020 71 10 07 3d f4 67 28 3d 6c c4 38 3d 66 25 92 3d
       0.032974664 0.041114762 0.045109197 0.071360394
000030 4e d5 1e 3e 50 cc 17 3e 4b 0a 97 3c e4 60 3c 3e
       0.15511057 0.14824033 0.018437525 0.18396336
000040 76 46 c0 3d 0a dc e2 3d d4 05 c1 3d db 0c 61 bc
       0.09388439 0.11077125 0.0942494 -0.013735975
000050 33 41 fd 3d 1a 40 ad 3d 93 1c 57 3e 79 e5 db 3d
       0.123659514 0.08459492 0.21006994 0.10737128
000060 4c bf 7e 3d dc 6d dc 3d 04 cd 81 3c 6c 5a 8e 3d
       0.062194154 0.107631415 0.01584483 0.0695084
000070 e4 6d 34 3e 75 9d ba 3d 5d 87 46 3d 23 e8 5b 3d
       0.17620045 0.09112064 0.048468936 0.05368818
000080 51 e5 d4 39 b4 39 af 3d 41 6b c7 3d 94 d5 30 3d
       0.00040606645 0.08555928 0.09737254 0.043172434
000090 42 9d 42 3e 83 b3 57 3e d1 78 05 3e b0 2d d7 3d
       0.19005302 0.21064572 0.13034369 0.10506761
0000a0 dc 54 ff bb bc 1a 3a 3d 31 da d4 3c 56 c3 1e 3e
       -0.0077920984 0.045435652 0.025982948 0.15504202
0000b0 87 d4 2a 3e 9f 2d 0e 3e 59 c0 b7 3c 58 62 2b 3e
       0.16682635 0.1388459 0.022430586 0.16736734
0000c0 a6 24 d1 bc ec ee 30 3e 0f 95 aa 3d fd ad ff 3d
       -0.02553017 0.17278641 0.08329212 0.124843575
0000d0 ed d2 66 3d 02 23 02 3e f2 30 0b 3e a1 61 17 3e
       0.0563535 0.12708667 0.1359289 0.14783336
0000e0 c8 30 25 3e 19 81 27 3e 15 14 15 3e 07 ca 5d 3e
       0.1613189 0.1635784 0.14558442 0.21659099
0000f0 02 9d 57 3e 8e d0 36 3d 55 58 0f 3e 7c 49 2e 3e
       0.21055987 0.044632487 0.1399854 0.1702022
000100 ed f7 c5 3c 11 37 0b 3e c2 12 a8 3d 58 76 1c bc
       0.024166072 0.13595225 0.08206703 -0.0095497
000110 10 60 25 3e cf a3 88 3d c9 a1 2d 3e fa e3 66 3e
       0.16149926 0.06671869 0.16956247 0.22547904
000120 62 a3 2e 3e 31 c3 1a 3e 9c a8 0e 3e b6 9c 3b 3e
       0.17054513 0.15113522 0.13931507 0.18321499
000130 9a 7e 02 3e 82 07 d4 3d db 35 d2 3c 53 1e 5b 3c
       0.12743607 0.103529945 0.025660446 0.013373929
000140 c6 5e 87 3d c0 66 21 3e 6c 1d cc 3d 5e 28 e7 bb
       0.066098735 0.15761852 0.09966549 -0.0070543727
000150 f3 6e 1f 3d 7b 6b 60 3d c0 a5 04 3d c0 43 93 3d
       0.03892417 0.05479 0.032384634 0.07190657
000160 05 06 95 3d ff de 11 3e c5 09 4d 3d 96 e4 95 3d
       0.07276539 0.14245223 0.050058145 0.0731899
000170 94 ce f1 3c 1b e6 a3 3d 36 f9 17 3d 87 ff db 3d
       0.02951745 0.080028735 0.0371029 0.10742097
000180 83 04 06 3d 47 c2 a3 3d 8b df 3a 3d ad 77 df bc
       0.032719146 0.0799604 0.045623343 -0.027278746
000190 9b e0 ce 3d a4 1e eb bc f6 82 d7 3d f4 45 e8 3c
       0.10101434 -0.028701134 0.10523026 0.028353669
0001a0 92 49 2b 3e 55 3c a6 3c fa f0 1d 3e f8 a3 44 3e
       0.16727284 0.02029244 0.15423957 0.19203174
0001b0 65 ba ff 3d 16 df 04 3b 3b 93 fb 3d 11 51 1e 3e
       0.12486724 0.002027457 0.12283941 0.15460612
0001c0 d9 8f 0d 3e 35 85 20 3d bb b5 13 3e ab ce 0c 3d
       0.13824405 0.039189536 0.14424793 0.03437678
0001d0 04 f9 15 3e 6a cd 08 3e 20 8e 06 3e ea 32 57 3d
       0.14645773 0.13359609 0.13140154 0.05253879
0001e0 22 28 1a 3e 3c 6f ed 3d 18 7e 19 bc 8e 22 17 3e
       0.15054372 0.11593482 -0.009368442 0.14759275
0001f0 68 c5 09 3e 0e d4 4e 3d 29 b1 ec 3d eb b2 a5 3d
       0.13454211 0.0504952 0.11557228 0.080907665
000200 8b f6 dc 3c d7 2b fe 3c 5d 57 82 bd 04 43 4a 3c
       0.02697303 0.031026764 -0.063643195 0.012345079
000210 7b 91 1e bd 3a 69 e9 3c 72 25 88 bd 47 24 75 bc
       -0.03871296 0.028492559 -0.06647767 -0.0149622625
000220 f9 c5 80 3d b7 2c 3f bd d5 30 28 3d 5c 23 96 3d
       0.0628776 -0.046673503 0.041062195 0.07330963
000230 ab ea af bd 74 b9 20 bd 87 76 53 3c fc d6 a9 bd
       -0.08589681 -0.039239362 0.012906677 -0.08292958
000240 fd e0 1a 3b 40 b0 2d 3d ac 9c 23 bd 67 6b 08 bd
       0.0023632639 0.042404413 -0.039944336 -0.03330555
000250 d4 07 aa bc 61 de bd 3a 99 30 45 bc 33 7d bb 3c
       -0.020755686 0.001448583 -0.012035512 0.022886848
000260 f5 d8 9a bd 99 d6 0f 3d a7 52 b9 b9 00 6d 3c 3d
       -0.075609125 0.035116766 -0.0003534753 0.046002388
000270 c1 96 8c 3d 0f d6 98 3b 3c fc c4 3a cc ee 50 3b
       0.068646915 0.0046641896 0.0015028785 0.0031880615
000280 05 b1 e9 bc af ca 89 3d c9 57 5d bd c2 a3 d1 3d
       -0.028526792 0.06728112 -0.054038797 0.102363124
000290 37 cf 81 3d 72 e1 ff bd 3a 8c 5c bb 73 04 1b 3c
       0.06338351 -0.12494172 -0.0033652917 0.00946151
0002a0 2f e9 14 3d 67 eb c0 bd fe 58 45 3d 6d 4c 90 bd
       0.036355194 -0.094198994 0.048180573 -0.07045827
0002b0 f7 af 5e bd 6d f5 e9 3c 09 00 b9 3c c1 05 e3 3b
       -0.054367032 0.028559411 0.022583025 0.006928176
0002c0 c1 a1 92 bd 45 11 5a 3c 36 d4 b5 3d 7b a2 96 bd
       -0.07159758 0.013309781 0.08878367 -0.073552094
0002d0 4a 1c 8b bd 74 2d 85 3d 9b 82 1a bd f3 f2 db bc
       -0.06792505 0.0650281 -0.03772221 -0.026849246
0002e0 72 5a 5c bd 83 1a b3 3c 8e a4 9c 3c 06 87 df 3b
       -0.053797193 0.021863228 0.019121435 0.006821516
0002f0 b1 a0 01 3d 35 4e 65 3d fc 63 e7 3c 04 6c 0a bd
       0.031647388 0.055982787 0.028245918 -0.033794418
000300 62 32 a9 3d ec d7 2d 3d 7e aa eb bb 39 45 18 3e
       0.08261563 0.042442247 -0.007191955 0.14870156
000310 72 e6 97 bd c9 f6 73 3c c5 72 c5 bd 13 8a ae bd
       -0.07417001 0.014890381 -0.09641031 -0.08522429
000320 0b 60 9b bc 7d 9c 24 bb ae 19 46 bd 33 4e 99 bd
       -0.018966695 -0.0025117688 -0.048364334 -0.074856184
000330 79 af ee bc ca fa ca bc 20 6d 04 3d 04 91 f0 3b
       -0.029136406 -0.024777789 0.032330632 0.007341506
000340 5d 0b 99 3b 8d 9c 7b 3b 28 a3 91 bd 80 68 a7 bb
       0.004670544 0.0038392872 -0.07111198 -0.005108893
000350 e8 a2 e2 3c de ff 31 bd e7 ec 3b bd f6 98 fa 3d
       0.02766557 -0.043456905 -0.045880225 0.12236206
000360 f8 df ac bd f4 3d 7f 3d f1 f7 89 3c 85 a4 c7 3c
       -0.08441156 0.062314942 0.01684186 0.024370441
000370 89 3b 23 bd 92 23 67 3d f5 15 ba bd 65 f7 5d 3d
       -0.0398517 0.056430407 -0.09086219 0.054191012
000380 6c c7 b8 bd 2a 3a 13 3d 47 38 a7 3d af ef b3 3b
       -0.09022412 0.03594414 0.08165031 0.005491219
000390 63 0e 85 bc f2 2e 6c 3d 3e 7b 05 bd 5f 46 23 bd
       -0.016242212 0.057661958 -0.032588236 -0.039862033
0003a0 9a 62 af bd d8 f2 f6 3d 82 1a 66 bc db 66 39 3d
       -0.08563729 0.120580375 -0.014044406 0.045264106
0003b0 f8 03 ca bc 58 bf 03 3d 44 ec b2 bd cc df 29 bc
       -0.024660096 0.0321649 -0.0873647 -0.010368299
0003c0 b9 67 12 3d 70 c1 dc bc f5 b3 b7 3d 6c 45 84 bd
       0.03574345 -0.026947707 0.08969871 -0.06458554
0003d0 70 e8 e2 3c 76 d5 00 3d 5d 12 91 bc e7 b4 97 bc
       0.027698725 0.031453572 -0.017708952 -0.018518878
0003e0 24 24 f3 3c 35 75 c9 bd ed 4e 25 bd f8 eb 42 bd
       0.02968032 -0.098368086 -0.040358473 -0.04758832
0003f0 a9 60 eb 3a a5 be ea bb ce f4 c7 bd fc bb 9d bd
       0.0017957884 -0.00716384 -0.0976349 -0.07701871

bias_hh f4 [512]
000000 b0 a0 72 3d 8a 68 96 3d e3 3f 35 3e 47 3f a7 3d
       0.059235275 0.07344158 0.17700152 0.08166366
000010 bc 65 a7 3d a2 a1 1c 3d 64 78 3b 3e 8b 7f e2 3d
       0.08173701 0.038240083 0.18307644 0.11059483
000020 ed 13 80 3c 54 81 c3 3d a2 b1 06 3e 67 50 06 3e
       0.015634501 0.09546152 0.13153699 0.13116609
000030 e3 ef a3 3d 99 2e b3 3d 25 90 f8 3d b8 53 50 3e
       0.08004739 0.08749122 0.121368684 0.20344436
000040 d2 15 7b 3d 98 c4 2b 3e 6e 2f e5 bc 4e 6a 05 3e
       0.061300106 0.16774213 -0.027976718 0.13028833
000050 3c 31 19 3e a3 d0 00 3e c7 43 40 3e fd 6f db 3d
       0.14960188 0.12579589 0.18775855 0.107147194
000060 95 7b bc 3d 04 fe 26 3e 0e 0d 81 3b 86 fb b7 3c
       0.09203259 0.16307837 0.003938324 0.022458803
000070 e5 c6 f3 3d 40 b7 39 3e 38 76 c8 3d 6c d2 94 3d
       0.119031705 0.1813631 0.097881734 0.07266697
000080 52 64 fa 3d 30 72 0a 3e 82 73 1d bc 4a 62 a3 3d
       0.12226166 0.13520122 -0.009610059 0.079777315
000090 f9 e5 c2 3c 25 24 21 3e da 42 50 3e 97 e2 a8 bc
       0.0237913 0.15736444 0.20338002 -0.020615859
0000a0 58 31 a8 3d 47 8a 99 3c 35 30 05 3e 00 0d 1e 3e
       0.082125366 0.018742694 0.13006671 0.15434647
0000b0 a1 14 02 3e 2d 9b bc 3d c5 80 8a 3d 0c 26 89 3d
       0.12703182 0.09209285 0.06762842 0.0669671
0000c0 cf 72 33 3d 34 8a 4e 3e 9d 87 20 3e 4c a3 03 3d
       0.043810662 0.20169908 0.15676732 0.032138154
0000d0 61 6a 12 3e 24 77 32 3d b7 d6 57 3e 99 5f 43 3e
       0.14298393 0.043570653 0.21078001 0.19079436
0000e0 c4 d9 52 3e be e0 d4 3d f0 3d e7 3d dd ec 14 3e
       0.20590883 0.10394429 0.112911105 0.14543481
0000f0 54 1d 5e 3e 89 51 cb 3d f8 c5 95 3d c4 60 52 3e
       0.21690875 0.09927661 0.0731315 0.20544726
000100 45 d0 df 3c 59 20 5f 3d 94 d8 31 bc 36 35 86 3c
       0.02732099 0.05447421 -0.010854859 0.016382795
000110 7c 98 45 3e 6b 34 e9 3d ff 15 72 3e 22 d9 70 3e
       0.1929645 0.11386951 0.23641203 0.2352033
000120 eb dc e3 3d a5 aa 23 3e e1 34 82 3d 82 74 1b 3e
       0.11126121 0.15983064 0.06357742 0.15181163
000130 11 ed bc 3d 92 b3 13 3e a8 1f 36 3e e7 eb 6d bc
       0.09224904 0.1442397 0.17785513 -0.0145215755
000140 3d 75 19 3e 07 08 a4 3d 82 4b 56 3e 37 40 d4 3d
       0.14986129 0.080093436 0.20927241 0.103638105
000150 c5 dd 20 3e 74 f9 2c 3e 49 16 49 3d cb 17 80 3c
       0.15709598 0.16892034 0.04909352 0.015636345
000160 e7 1b f8 3c fa 81 e0 3d cf 71 d8 3d 27 8f 46 3e
       0.030286742 0.10962291 0.10568582 0.19390546
000170 cc 74 1a 3d 3f f4 9f 3d 4a 89 a7 3d 3f ca 3e 3d
       0.037709042 0.07810258 0.08180483 0.046579596
000180 81 06 10 3e b0 91 ae 3a 2f 96 c8 3d 20 a7 e2 3d
       0.14064981 0.0013318565 0.0979427 0.11067033
000190 4f b6 43 3d f2 d7 85 3d 90 50 95 3d b7 dd 9a 3d
       0.047781285 0.06535329 0.07290757 0.0756182
0001a0 a6 2f 5f 3e fd 5a 2c 3d 3a f9 23 3d 03 01 2f 3d
       0.2179552 0.04207896 0.040032603 0.042725574
0001b0 59 80 b5 3d d7 a2 e8 3d 5d a3 f9 3d 9e 55 a0 3d
       0.08862371 0.11359184 0.12189362 0.0782883
0001c0 08 f6 b8 3d 7d 36 99 bc db 17 47 3b c3 6e c4 3d
       0.09031302 -0.01870274 0.003037921 0.095914386
0001d0 c5 a2 63 bc 55 5d 9e 3d 9a 4e 37 3e 5f a7 77 3d
       -0.013893788 0.077326454 0.17901078 0.060462352
0001e0 dc c1 0d 3e 51 2a e2 3c bd 18 1a 3e 03 94 36 3d
       0.13843483 0.027608069 0.150485 0.04457475
0001f0 56 2a 35 3e f0 35 31 bd 53 65 30 3e 1b d2 bd 3d
       0.17691931 -0.04326433 0.17226152 0.0926859
000200 1c 78 00 be 33 02 81 bd 9a a1 b6 bc b0 38 78 bd
       -0.12545818 -0.062992476 -0.022293855 -0.060600936
000210 7d 08 6e bc f6 94 84 3d 9d 6a 18 3d 60 40 c9 bc
       -0.014528391 0.064737245 0.03721105 -0.02456683
000220 b5 e3 c7 3d d9 bc 37 bd c5 81 25 3d 12 26 65 3d
       0.097602285 -0.044857834 0.04040696 0.05594451
000230 5a bc 74 bb f0 d4 20 3d 7b 67 13 bd 54 45 b0 bd
       -0.0037343712 0.039265573 -0.03598736 -0.08606973
000240 79 11 d9 3d a8 43 cd 3d 29 39 a2 3d 91 ab 8f 3d
       0.10599036 0.1002267 0.07921059 0.070151456
000250 0a 15 1f 3d d7 27 31 bd 40 d9 95 bd 40 dc 1c bd
       0.038838424 -0.043250885 -0.07316828 -0.038295984
000260 7e 09 7c 3d 4d 4a 1b 3d a1 c0 75 bc fa 2f e9 bb
       0.06153249 0.037912656 -0.01499954 -0.007116315
000270 7e 50 ff bb c9 c5 0c 3e 76 10 2f 3c 13 b6 10 bd
       -0.007791578 0.13747324 0.010685077 -0.03532989
000280 9e a7 b2 bb 45 d2 6e 3d 56 ff f9 3b a1 57 bd 3c
       -0.0054521104 0.058305997 0.0076293154 0.023113074
000290 23 c0 ae 3d b2 20 16 be 4a bc 0d bd a8 51 f1 3d
       0.08532741 -0.1466091 -0.034603395 0.11783153
0002a0 61 bf 4a 3d b6 51 07 3d 14 67 b6 bd 01 86 b9 3c
       0.04949892 0.03303691 -0.08906379 0.022646906
0002b0 d1 c4 11 3d 29 22 9b bd 38 70 65 3d 45 28 4d 3d
       0.03558809 -0.07574875 0.056015223 0.050087232
0002c0 15 94 8c bd bf 98 39 3c f0 3a a0 bc b1 6b b2 bd
       -0.06864182 0.011327921 -0.019559354 -0.08711947
0002d0 0b 45 ee bc ac e3 47 3d 19 19 f4 bd aa ec 29 bd
       -0.029085657 0.04880111 -0.119188495 -0.041485466
0002e0 9a 99 97 bd d3 ae 62 3d 1b c6 6f 3d c1 1d 04 bd
       -0.07402344 0.055342507 0.058538537 -0.032254938
0002f0 c1 06 f9 bb 8b a7 37 bd a8 91 72 bd f8 24 90 3d
       -0.007599682 -0.044837516 -0.05922094 0.07038301
000300 a1 b4 b0 3c c2 36 c4 3d fd 99 ba bc 05 37 0e 3e
       0.021570506 0.09580757 -0.022778505 0.13888176
000310 58 91 62 bd 75 01 ad 3d 43 bd d5 bd fb 20 9c bd
       -0.05531439 0.084475435 -0.104364894 -0.07623478
000320 40 eb 22 bd 1b 9f 05 bd 47 ca 77 bd d9 b3 81 bd
       -0.039775133 -0.032622438 -0.06049564 -0.06333131
000330 50 84 16 3a 27 c4 74 3d cc 24 99 bd fc 2a 73 bd
       0.0005741762 0.059757378 -0.074777216 -0.059367165
000340 05 d4 9b bd 37 44 ca 3c a2 40 51 3d 75 f3 0e 3d
       -0.07608799 0.02469073 0.05108703 0.034900147
000350 1a 25 22 3d 42 93 5d bc 9b ce 4a bd e1 37 07 3d
       0.039586164 -0.0135238785 -0.04951344 0.033012275
000360 80 75 44 bd 1d b3 9b 3d 04 9c 9d bc 86 5d 8d 3d
       -0.04796362 0.076025225 -0.019239433 0.06902604
000370 66 af a8 3d 52 d6 b7 3d 37 c0 92 3d c5 5c 11 3d
       0.082365796 0.08976425 0.07165568 0.035488863
000380 4a fd a2 39 c1 7a 17 3e ce fb 36 3d 98 5f b6 3d
       0.00031087763 0.1479292 0.044673733 0.08904952
000390 19 ac 70 bc 56 fa 2d 3d 45 6f ec bc 03 af 44 bd
       -0.014689469 0.042475067 -0.028861651 -0.048018467
0003a0 a6 44 c1 3b 2a 27 d6 3d 8c 70 b0 3d 01 f4 13 3b
       0.005898076 0.10456689 0.086152166 0.0022575858
0003b0 f0 4a bb bb 8f a3 4e bd cb 85 f6 bc 68 79 56 bd
       -0.0057157204 -0.05044895 -0.030093094 -0.052361876
0003c0 7f 01 98 bd 93 09 4e bd 1e 6d 46 bd 08 93 59 3d
       -0.0742216 -0.0503021 -0.048443906 0.053118736
0003d0 7c f4 e0 3d eb 23 3a bc 03 c3 16 bd 7b 4e cb bc
       0.10984132 -0.011361103 -0.03680707 -0.024817696
0003e0 99 5a d5 3b 86 f3 ba 3c f7 f0 27 bc 16 9a 3d bd
       0.006511044 0.0228212 -0.010250322 -0.046289526
0003f0 fe fa ea bc 6d 1f 1e 3d d8 15 80 3d 8e f7 19 be
       -0.028684136 0.03860419 0.06254166 -0.15035841

weight_ih f4 [512, 128]
000000 c4 02 9d bd 00 a9 12 bb 95 c6 12 bd 2d e6 7d bc
       -0.07666543 -0.0022378564 -0.035833914 -0.015496773
000010 d6 5f a6 ba 44 95 61 3d f5 2b a3 bd 21 33 00 3d
       -0.0012693356 0.05507399 -0.079673685 0.03129876
000020 61 1b 96 3d 4c 3c 45 bd 4d 7d 92 bd 63 db 9b 3b
       0.07329441 -0.048153207 -0.071528055 0.0047563775
000030 f7 0d 88 3d 73 d0 d2 3d 96 9d aa 3d e3 25 15 3e
       0.066432886 0.10293665 0.083308384 0.14565234
000040 3b aa 9e 3d f3 bb 9a 3d eb 7b f9 3c bb 3c df bd
       0.07747313 0.0755538 0.030454597 -0.10900255
000050 f1 c4 eb 3d a8 a5 08 be 64 e2 b7 bd 5f de b7 3d
       0.11512173 -0.13344443 -0.089787275 0.08977961
000060 3f f0 f8 3c 96 d9 01 be b5 b0 96 bc c9 d5 11 bc
       0.030387996 -0.12680659 -0.018394807 -0.008901068
000070 8f 27 35 bd 4d d0 40 3c 4f c8 cd bd c6 94 da 3c
       -0.04422718 0.011768413 -0.100479715 0.026682269
000080 c7 5d 35 bd eb 2d 0f bc ce 3b aa bc 44 f3 e1 bd
       -0.044278886 -0.008738975 -0.02078047 -0.11032727
000090 31 02 9d 3b ac a0 6e 3d 31 35 5d 3c 69 62 41 bd
       0.004791521 0.058258697 0.013501451 -0.047212992
0000a0 19 36 c2 bd 04 50 fd 3d c3 6f a9 3d 56 c6 6d 3e
       -0.094829746 0.123687774 0.0827327 0.2322019
0000b0 44 4d 3d 3d 26 ac 94 3d f0 ab 13 bd fc aa a1 3c
       0.046216264 0.07259397 -0.036052644 0.019734852
0000c0 f2 48 d0 bc bd 57 24 37 63 40 e8 3c ce 0c 3a be
       -0.025425408 9.79559e-06 0.028351014 -0.18168947
0000d0 85 01 98 3c 27 de 92 3c fb 02 99 bd 5f a5 58 3d
       0.018555412 0.017928196 -0.074712716 0.052892085
0000e0 8b f3 9a 3c b9 83 d9 bd 30 d0 88 bd 5d bd 9f bd
       0.018914958 -0.10620827 -0.066803336 -0.0779979
0000f0 46 56 01 3e e7 71 9e 3d c1 d2 52 bd 96 e5 cc 3d
       0.12630567 0.07736569 -0.05147052 0.100047275
000100 67 cd 54 bd 6e 46 6f be cf 07 89 bd 02 a2 66 bc
       -0.0519537 -0.2336671 -0.066909425 -0.014076712
000110 64 27 12 be 8c 95 8f bb f2 9d 52 3c bb a7 c2 3d
       -0.14272839 -0.004381841 0.01285504 0.09504648
000120 00 ac 59 3d 0a 04 32 be d8 0c 95 3d 52 71 51 bb
       0.053142548 -0.17384353 0.072778404 -0.0031958413
000130 53 43 10 3d 6a 33 cd bd ba a5 db bb c1 cc 0a 3e
       0.035220455 -0.10019572 -0.0067031058 0.1355467
000140 64 81 05 be 83 26 88 bd a6 23 06 be 4a 7a 40 bd
       -0.1303764 -0.066479705 -0.13099536 -0.046991624
000150 ca 35 2b bd 60 19 3d bd c9 b7 61 bd f7 3c 41 bd
       -0.041799344 -0.046166778 -0.05510691 -0.04717728
000160 c2 a0 a7 3c 05 75 e2 bd 2f 4f 59 bd 02 52 ca 3d
       0.020462397 -0.11057476 -0.05305403 0.09878923
000170 be dd 80 3d 77 4f bd bd ae 28 0b 3d c1 91 a1 3b
       0.06292294 -0.09243672 0.033974342 0.0049307053
000180 04 6b 90 bd c5 9d 02 bd 0a 26 2b bd 6d 87 42 bd
       -0.070516616 -0.031888742 -0.041784324 -0.047492433
000190 56 d9 a6 3d 8e 67 70 bd 4f 0e 41 3e 17 ae 10 be
       0.08146922 -0.058692507 0.18853115 -0.1412891
0001a0 99 01 0d 3d ab d5 3f be db 5b 60 3d 78 55 1c bd
       0.03442535 -0.18733852 0.0547751 -0.038167447
0001b0 b6 b2 8a bd 29 40 fe 3d 99 07 67 bd 80 c3 8d bd
       -0.06772368 0.12414581 -0.05640373 -0.06922054
0001c0 ae 3a 6a 3d 73 93 54 bd 80 aa cc bd f5 57 b6 3c
       0.057184868 -0.05189843 -0.09993458 0.022258738
0001d0 1c 7a ea 3d b2 1d 89 bd 74 e1 9d bc bd 09 88 bd
       0.11449072 -0.06695117 -0.019272543 -0.066424824
0001e0 ba f1 c0 bd 00 05 2b 3d 58 64 e1 bd e1 31 8a 3d
       -0.09421106 0.041752815 -0.11005467 0.06747795
0001f0 c8 53 67 bb 84 df c9 3c 36 cf f0 bd a8 64 d1 3d
       -0.003529774 0.024642713 -0.11758272 0.10224277
000200 cf 89 25 3e 65 61 f1 bc 99 4b e3 bc c8 5f 96 3c
       0.16165851 -0.029465387 -0.027746009 0.018356219
000210 3d 3d 9f bd 69 e7 a9 3d 21 df 2e be 1e e2 e1 bd
       -0.07775352 0.08296091 -0.17077304 -0.110294566
000220 7d d2 bd 3d 73 9d 90 3d e1 57 6a bd 39 7d 94 bd
       0.09268663 0.07061281 -0.057212714 -0.07250447
000230 b4 ef ba 3c bc dd c5 3d b9 64 64 bb d6 24 a5 3b
       0.022819377 0.09661433 -0.0034850074 0.0050397916
000240 a7 4c ca 3c 88 21 85 bc a1 68 0e 3c 06 f0 81 3d
       0.024694754 -0.01625134 0.008691938 0.06344609
000250 f0 c0 89 bd fe ca a0 bb 59 44 f2 bd f3 ac 66 3d
       -0.06726253 -0.004907011 -0.118294425 0.05631728
000260 31 a4 1c be 6c c7 3c bd 41 92 3c bc d0 9e 7a bd
       -0.15297009 -0.04608862 -0.011509479 -0.06118661
000270 5a 67 f0 bb e8 eb 10 bd 47 50 2c 3d f1 9c 84 3d
       -0.007336539 -0.035381228 0.042068746 0.06475247
000280 54 47 8f bc 65 93 b3 3d 1e 49 d2 3d a0 26 1c 3d
       -0.017490067 0.08768348 0.10267852 0.038122773
000290 7d 2d 7a bd 71 03 9c bd 27 a6 62 bd 5f ac 77 bc
       -0.061078537 -0.07617844 -0.055334236 -0.01511678
0002a0 22 64 10 3e 43 43 09 be ce 8e 3e 3c ec 20 e4 3d
       0.14100698 -0.13404565 0.011630727 0.11139092
0002b0 ed 69 23 3d 03 4b c6 bd 2d 71 81 3d af 92 f8 bc
       0.03989594 -0.09682276 0.06320415 -0.030343382
0002c0 25 73 40 3d ce 1b 6a bd d4 4f 07 3e 71 d3 38 3d
       0.04698481 -0.057155423 0.13214046 0.04512352
0002d0 89 48 c6 3d 7e 45 9e 3d c2 83 e6 3c 9d e5 20 bd
       0.09681804 0.07728098 0.028138999 -0.039281476
0002e0 62 a5 9e 3d 05 80 26 bd c9 66 48 3d 41 0b 30 3d
       0.07746388 -0.040649433 0.04892615 0.042979483
0002f0 4a a7 a5 bc a2 0b 55 bd fc 55 a9 3d 2a 5b 2f bd
       -0.020221371 -0.052013047 0.08268353 -0.04281155
000300 9e 15 85 bb 7a b0 0f 3d e5 16 e5 3c 55 e7 48 3c
       -0.004061415 0.03508041 0.027965019 0.012262185
000310 3f 22 11 3e 84 49 84 bd 48 83 36 3c 25 9c 08 bb
       0.1417322 -0.064593345 0.011139698 -0.0020845023
000320 68 2b f2 bd 12 99 59 bd 94 35 ad bd cf af e4 bd
       -0.11824685 -0.053124495 -0.08457485 -0.11166345
000330 25 81 e4 3d d7 3b 40 3e 93 53 39 bc 43 07 d1 bd
       0.11157445 0.18772827 -0.01131143 -0.10206463
000340 17 01 29 bd 1e de fa bc c8 4d c9 bd 19 aa 17 3d
       -0.041260805 -0.030623492 -0.09829289 0.037027452
000350 96 6f ad bc 22 e1 3e 3e 1f b1 b4 3d 52 96 5a bd
       -0.021171372 0.18640569 0.08822846 -0.053366013
000360 28 4f 20 3c 48 ec 09 be 1d c9 5a 3b 98 a9 e7 bc
       0.009784497 -0.1346904 0.0033384033 -0.02827911
000370 56 46 0f 3e 0a 77 ae bb f3 4f e3 bc 60 80 ff bc
       0.13991675 -0.005324249 -0.027748084 -0.031189144
000380 7e 24 f2 bd f0 22 56 3d d0 1d b0 bc 60 ca 7c bd
       -0.118233666 0.052279413 -0.02149859 -0.061716437
000390 e5 a2 a4 3d 5b 38 90 bc 25 6a 33 3e 5f 70 45 bd
       0.08038882 -0.017604997 0.1752096 -0.04820287
0003a0 78 cf 38 3a 67 6c 94 bc 23 c3 e5 3d a3 99 33 be
       0.0007049958 -0.018118097 0.1121886 -0.17539077
0003b0 6b fe 35 bc e7 34 ed bd b0 06 a6 3d 02 01 90 3b
       -0.011108021 -0.11582356 0.08106744 0.0043946514
0003c0 c8 ab 5d 3d 6b c7 b4 bd f3 bb 74 bd 97 59 04 3e
       0.0541189 -0.088270985 -0.059749555 0.12924801
0003d0 8e a9 2f 3d 75 8b b4 3d cb 25 0c 3e 9c 9a 60 bd
       0.04288631 0.08815662 0.13686292 -0.054834947
0003e0 ea fa 8e 3d 67 f8 33 be 93 8c 30 3d 86 54 db 3d
       0.06981452 -0.17575227 0.043102812 0.10709481
0003f0 e0 bc dd bd 9f 8c 18 bd 54 c0 af 3c 3f 38 c4 3d
       -0.10827041 -0.03724348 0.021454014 0.095810406

weight_hh f4 [512, 128]
000000 8d cd 43 3d e3 ca 31 bd 5d aa 09 be 1d 4c d2 bc
       0.04780345 -0.04340638 -0.13443895 -0.02567106
000010 cc ed 71 bc 2c 58 82 bc 7e c2 f5 3d c7 4b 8a bd
       -0.014766168 -0.015911184 0.11999987 -0.06752735
000020 a2 1b 0e 3d 37 84 74 3d 28 58 84 bd 5f 40 1d 3c
       0.03469432 0.059696402 -0.06462127 0.009597867
000030 6b 19 c0 bc 8f 60 d4 bd 81 94 88 3d 56 c8 3a be
       -0.02344962 -0.103699796 0.0666895 -0.18240485
000040 88 2d 00 bd a5 39 0c 3e 9d 5d a9 bc 4a db 14 be
       -0.031293422 0.13693865 -0.020674521 -0.14536777
000050 8b 92 24 bc 46 ef 95 bd 6f 09 a0 3d 8a 1c 8a bd
       -0.010044704 -0.073210284 0.07814299 -0.06743725
000060 9e e9 bb bc e3 7a d5 3d f6 ce 58 3d 5d ba 1b 3d
       -0.022938546 0.104238294 0.05293175 0.038019527
000070 ae ef ab bc d9 60 fa 3d 1c ec ce bd 2f 0b be 3d
       -0.020988312 0.122255035 -0.10103628 0.09279477
000080 fa 1c b4 3d d9 0c 51 bd e7 64 6c 3c c8 37 7c 3d
       0.08794589 -0.051037643 0.014428354 0.061576635
000090 ca 6f cd bd 96 23 8c 3c 40 a0 51 be 7b d2 18 bd
       -0.10031088 0.017106812 -0.20471287 -0.037310105
0000a0 76 fd c9 bc 11 72 c1 bc 72 af fc 3d 56 79 45 3d
       -0.024656992 -0.023613961 0.12338151 0.048211418
0000b0 e3 17 68 3d 1e 07 a8 3c 68 0f 13 3d 6c 8c c0 bb
       0.056663405 0.020511206 0.035903364 -0.0058761146
0000c0 84 c3 99 3d de 7c d5 bc ee 69 d6 3a f2 7a b7 bd
       0.07507995 -0.026060518 0.0016358474 -0.08958997
0000d0 42 26 83 3d c3 77 5d bd 13 58 d9 bc 77 5e e3 3d
       0.064037815 -0.05406929 -0.026531255 0.11102002
0000e0 8a 39 76 3d cc 4c cb bc b7 e1 ca 3d 45 32 10 3e
       0.060113467 -0.024816893 0.09906333 0.14081676
0000f0 67 65 76 3d 63 9b 46 3b 11 d4 0f 3d 36 98 77 3d
       0.0601553 0.003030502 0.03511435 0.060447894
000100 ee c5 33 3e ca b1 f6 bd 39 f7 d9 3d 9f 28 09 be
       0.17555973 -0.12045629 0.10642857 -0.13394402
000110 af 34 90 3d 63 a0 0c bd 23 16 c1 3c a7 af b0 bc
       0.070412986 -0.034332644 0.023570126 -0.021568133
000120 93 86 d6 3d 56 7e 4d 3d 33 d6 a0 bc c4 8b 49 bd
       0.10474887 0.05016931 -0.019633388 -0.049205557
000130 dd 35 98 bd 6b b7 9d bb 81 68 8e 3d 79 cd e9 3d
       -0.074321486 -0.004813125 0.06953526 0.11416144
000140 1c 74 a0 3b ff ab fb bb 73 7f b1 3d 0c e8 93 bd
       0.004896654 -0.0076804156 0.08666887 -0.07221994
000150 f2 d0 61 3d 72 4b f4 3c 6e 12 bf 3c 1d f7 28 bd
       0.055130906 0.029821131 0.023324218 -0.04125129
000160 ee 96 f3 3d 49 cf 9d 3c b6 fd a6 3d 95 c7 cf 3d
       0.11894022 0.01926388 0.0815386 0.10145489
000170 b4 d2 15 be d1 8e fe bd a6 3d e6 bd 50 65 55 bd
       -0.14631158 -0.12429584 -0.11242227 -0.052098572
000180 76 18 9c 3d b0 60 80 3d 6c 4a 06 3e 7a 41 bf 3c
       0.07621853 0.06268442 0.13114327 0.023346651
000190 38 5c 25 bd 2c 6d e8 bd 5d 0b 96 3c 13 84 18 3d
       -0.04037115 -0.11348948 0.018315965 0.03723533
0001a0 bb 89 53 3d fc e2 c9 bd 95 16 1c 3e fd a0 10 be
       0.051645022 -0.09857747 0.1524299 -0.14123912
0001b0 02 ae 05 3e 76 5b 9d 3d 83 65 5a bd dc 04 c6 3d
       0.1305466 0.076834604 -0.053319465 0.096688956
0001c0 28 8c 12 bd e8 b8 d4 3c 5b 0c 62 3c 96 51 81 3c
       -0.035778195 0.025967076 0.013796891 0.015785974
0001d0 08 61 e0 bc 77 b7 da bd 42 e9 ff ba 70 ff f5 3c
       -0.027390018 -0.106795244 -0.0019524472 0.030029029
0001e0 38 62 8d bd d5 3f 14 bc d0 e1 1e bc dc 86 63 bb
       -0.06903499 -0.009048422 -0.009697393 -0.0034717834
0001f0 43 59 9f bd 11 f2 15 3d 59 90 4d bd 03 ab 59 3c
       -0.07780697 0.036607806 -0.05018649 0.013285401
000200 d9 db 9b 3d ed 7e 03 3e 03 0b e9 bd 35 c1 85 bd
       0.07610292 0.12841387 -0.113790534 -0.06530992
000210 90 c1 dd 3d 90 65 30 3e d9 57 b7 bd 82 66 1b 3e
       0.10827935 0.17226243 -0.089523025 0.15175822
000220 ab 31 a6 bd fe 93 bc bd 97 9a 76 3d 9e 65 5e bd
       -0.08114942 -0.09207915 0.060206022 -0.05429613
000230 31 de 15 be 96 72 fa 3c 6d cd 24 bd a3 69 29 3c
       -0.1463554 0.030572217 -0.04023497 0.010340127
000240 f5 ee 3e bd eb b3 f5 3d 34 83 a9 3b 1e 93 b9 3d
       -0.046614606 0.11997207 0.0051731113 0.090612635
000250 fb be a1 3d d4 a0 27 bd 30 9f d5 bd e9 7f f1 bd
       0.07897755 -0.040924862 -0.10430753 -0.11791975
000260 fb e0 06 3c e1 1a e9 3d 5c fc 4d 3d c7 cf 0e 3e
       0.00823235 0.1138208 0.050289497 0.13946448
000270 4b f4 e1 3d 0e 4e ac 3d 43 41 b6 3b f7 f8 0b 3c
       0.11032923 0.08413325 0.005561979 0.008543245
000280 77 51 8f 3d ef a4 84 3c 9e ff 36 3d de 51 55 bd
       0.0699796 0.016191928 0.04467737 -0.052080028
000290 f1 89 4f 3d 45 f9 8e 3d db 16 6a 3c 0f e6 4a bd
       0.05066866 0.06981138 0.014287676 -0.049535807
0002a0 ce 4a e5 3b f8 32 07 3e b9 c3 22 be 96 58 48 3d
       0.006997443 0.13203037 -0.15894975 0.048912607
0002b0 60 12 f3 3c 41 fa e5 bd dc 87 d4 3d 40 05 0a be
       0.029671848 -0.11229373 0.103774756 -0.13478565
0002c0 99 b8 f7 3c a6 bf 43 3d 7b 2b 6b bb 14 a8 73 bb
       0.03023939 0.047790192 -0.003588407 -0.003717904
0002d0 1b b3 eb bc 8e 16 e3 bd 42 5b 55 bd 97 87 f3 bd
       -0.028771928 -0.11088286 -0.052088983 -0.11891096
0002e0 43 15 5a 3d ea 39 13 bd 21 3b 89 bd 94 2f 6c bd
       0.053242933 -0.035943903 -0.06700731 -0.05766256
0002f0 de 2e 92 bc 13 46 87 bb 83 cc f6 3d 6a ef 10 3d
       -0.017844614 -0.0041282265 0.12050726 0.035384573
000300 2a aa 0a bd 17 6d a0 3d e5 4e 8c 3d bf 6d f2 bd
       -0.033853687 0.07833307 0.068509854 -0.11837339
000310 28 a9 5b bd 19 1e b7 3d e6 ea 25 3d fa cc 77 bc
       -0.053628117 0.089412875 0.04050722 -0.015124554
000320 a0 74 17 3d 57 3f 59 3d 2b 5d c7 3c 4d 92 4f 3c
       0.036976457 0.05303892 0.024336418 0.012669158
000330 2e a4 6a bc e8 19 e3 bd 1a 14 84 bd e4 4e 38 3d
       -0.01432137 -0.110889256 -0.064491466 0.04499711
000340 68 cb 99 3b f4 63 e7 bd ab 3c f6 3c 7d 16 0f 3c
       0.0046934374 -0.112983614 0.030058226 0.008733389
000350 f5 b8 8e bc 8a d5 1a 3e 40 13 38 3d 31 5f 13 be
       -0.017422179 0.15120521 0.044940233 -0.14391781
000360 f5 10 b6 3d fc d2 33 3c 21 29 18 bd e5 f1 b7 3c
       0.08889953 0.010975596 -0.0371486 0.022454211
000370 e8 42 86 bd 83 4a bc bd 34 14 f7 bc 7e 3d 8a bb
       -0.0655573 -0.091938995 -0.030161 -0.004218756
000380 bd 74 31 be fd 5e 35 3c 66 d3 23 bc ad 27 84 3d
       -0.17329688 0.01107001 -0.009999132 0.0645288
000390 a4 01 90 bd 16 23 f0 ba b6 72 05 3d fd 9d ad bd
       -0.07031563 -0.0018321003 0.0325801 -0.084773995
0003a0 66 1a 15 bd cd 93 c5 bd a6 48 be bd 55 11 41 be
       -0.03640213 -0.096473314 -0.092912 -0.18854268
0003b0 a5 45 74 bd 89 9e 1b be bb 37 ff bc e5 71 f1 bd
       -0.05963673 -0.15197195 -0.031154504 -0.11789302
0003c0 34 f7 47 3e a2 cd ea 3b 0c 8b b8 bc 16 a0 d9 bb
       0.19527894 0.0071656266 -0.02252724 -0.006641398
0003d0 67 e9 5b bd cd 1e 23 3e 99 6f be 3b f2 98 9e 3d
       -0.053689387 0.15929718 0.0058116433 0.07744016
0003e0 df 04 85 bd 23 31 56 be 9a 3d 79 3c 9f e5 a6 3d
       -0.0649507 -0.20917182 0.015212441 0.081492655
0003f0 02 f7 20 bd 93 b7 22 bd 67 85 c6 bc 9e 24 16 3d
       -0.039298065 -0.03972585 -0.024233533 0.036656015

bias_ih f4 [512]
000000 80 d4 e1 3d 2e b3 2c 3e 43 e1 59 3d 8a 5c 52 3e
       0.11026859 0.16865227 0.053193342 0.20543113
000010 ef 6f 96 bb 14 49 07 3e 81 58 0d 3e 92 3c 7f 3e
       -0.0045909802 0.13211471 0.13803293 0.2492545
000020 a1 ec 9f 3e 20 a3 d7 3d f0 be b6 ba 8b 4c f5 3d
       0.3123522 0.105291605 -0.0013942402 0.1197749
000030 9d 68 94 3d db 7d 47 3e ab 2e 19 3e c1 e1 b8 3d
       0.07246516 0.19481604 0.14959209 0.09027434
000040 5a b3 8d 3c 5a d5 8d 3d df b8 7d 3e 32 1a e6 3d
       0.017297436 0.06925459 0.24777554 0.11235465
000050 15 f2 93 3d 07 c6 3b 3d 97 ba 08 3e 47 f4 bc 3d
       0.07223908 0.04584315 0.13352428 0.0922628
000060 55 82 a0 3d db 95 2d 3d 66 7f 24 3d 58 2d 66 3e
       0.07837359 0.04237924 0.04016056 0.22478235
000070 d1 19 b5 3d f1 e2 e1 3d 77 5e 7d 3d 84 c3 1e 3e
       0.08842815 0.11029614 0.061857667 0.15504271
000080 0e 6a 4c 3e 01 3d 9a 3d 2a 64 d5 3a 83 08 28 3d
       0.19962332 0.07531167 0.0016280462 0.041023742
000090 ef aa 52 3e e1 fd c1 3c 41 aa b3 3d 0b 06 30 3e
       0.20573018 0.02368063 0.08772708 0.17189805
0000a0 78 75 4c 3e 5b bd 49 3d 30 09 e7 3d aa af 99 3e
       0.19966686 0.04925285 0.11281049 0.30016834
0000b0 b1 16 cf 3d bb 1b fc 3d c1 a8 4b 3e 0f c4 67 3e
       0.1011175 0.12309977 0.19888593 0.22633384
0000c0 73 dd 1e 3e 28 0b 44 3e 62 9f ad 3d 91 fb af 3d
       0.15514164 0.19144881 0.084776655 0.08592904
0000d0 9b 12 e1 3c dd 2a 4f 3e 43 bc 1f bc 00 09 3f 3e
       0.027474692 0.20231195 -0.009749475 0.18655777
0000e0 df ef 4a 3d b1 ca d7 3c 59 ad a7 3d 46 a2 cf 3d
       0.049545165 0.026341768 0.0818736 0.10138373
0000f0 26 d1 44 3e 9e 82 71 3d e7 9c 92 3e 30 69 d9 3d
       0.19220409 0.058962457 0.28635332 0.10615766
000100 08 ab 05 3e 5e 8c 9e 3c 69 6c 29 3e 7c e9 eb 3d
       0.13053524 0.019354042 0.16545261 0.11519143
000110 07 b8 fc 3d 8e 10 0d bc 3c 23 08 3e 28 97 d7 3c
       0.12339788 -0.008609904 0.13294691 0.026317194
000120 fb 0b 36 3d b6 c2 ef bc 2c 38 b6 3d cc 22 7c 3e
       0.04444502 -0.02926765 0.08897433 0.24622649
000130 1d 2a 8b 3d 43 a7 b5 3d 76 7a aa 3d b5 4e 2c 3e
       0.06795142 0.08869793 0.08324139 0.168269
000140 b4 a4 dd bc 76 57 8d 3e 96 cd d2 3d af 20 f5 3d
       -0.027056076 0.2760579 0.10293119 0.119691245
000150 36 c8 0c 3e ee 84 2a 3d 70 15 11 3e c5 c0 a1 3d
       0.1374825 0.041630678 0.14168334 0.07898096
000160 6b a6 32 3e 63 5d d9 3c eb 43 91 3e c2 65 65 3e
       0.17446296 0.026533788 0.2837213 0.22402099
000170 48 be 57 3e a2 54 44 3d 16 5a 8b 3e 00 4a 8f 3e
       0.2106868 0.047932275 0.27217168 0.27986145
000180 77 7c 27 3e 2c 6a eb 3d 6d e4 96 bb 09 90 79 3e
       0.16356073 0.1149486 -0.004604867 0.24371351
000190 e5 e4 3f 3e ad 0a 8d 3a 61 47 d3 3b 7f 5b f8 3d
       0.1873966 0.0010760628 0.006447718 0.121268265
0001a0 3e 94 7b bc 31 0b 60 3e 9a 1a 98 3d 6e 91 1e 3e
       -0.015355168 0.21879269 0.07426949 0.15485165
0001b0 4a 24 06 3d b2 95 59 3e 9e 01 38 3e 2e 48 e5 3d
       0.03274945 0.2124851 0.17969367 0.11195408
0001c0 f9 2c c4 bc bb 34 e7 3d 72 6c 18 3e 06 2f 61 3e
       -0.023947226 0.112893544 0.14885119 0.21990594
0001d0 44 fc 45 3d ed 4f 48 3e 84 25 3c 3e d5 22 51 3d
       0.048336282 0.1956174 0.18373686 0.05105861
0001e0 a2 85 e4 3d 27 ef f4 3d 32 0d 1d 3e cb 29 5f 3d
       0.11158301 0.11959677 0.15337065 0.054483216
0001f0 48 4b 19 3d 02 1f 35 3e 0c be 2a 3e dc 44 f7 3d
       0.03742531 0.1768761 0.1667406 0.12073681
000200 8c 14 32 3c c0 c7 e1 bb eb 9f 54 3d 86 2f 18 be
       0.010869157 -0.006890267 0.051910322 -0.14861879
000210 e1 09 23 bd 9c d4 fa bd d9 1d ea 3c 18 89 c5 bd
       -0.039804343 -0.12247583 0.028578686 -0.09645289
000220 0b 63 cd bc e2 9d ff bd 0b fe b2 bc 15 0d a4 bb
       -0.025071641 -0.12481286 -0.021849653 -0.0050064423
000230 a1 48 cc 3d 5e 22 8c bd 84 41 5b bd 33 c4 9a bd
       0.0997479 -0.068424925 -0.053529277 -0.07556953
000240 e9 f8 d8 3a 36 2f 37 bc 31 d0 f1 bd 36 0c d2 bd
       0.0016553673 -0.01118069 -0.118072875 -0.10256235
000250 fd 0e d7 3b 0c 95 03 be 3d 7a 64 bd 3b 0d 33 bc
       0.006563066 -0.12849826 -0.055780638 -0.010928447
000260 9a 5c b4 bd 2d 49 dd bd b5 b6 ce bd c6 35 ec bd
       -0.08806725 -0.10804973 -0.10093442 -0.11533694
000270 0d e4 f2 bd a8 68 e4 bd 5b 94 81 3c 09 ea 02 bd
       -0.118599035 -0.11152774 0.015817812 -0.031961475
000280 a5 52 06 be ae 9b 08 bd 1f e1 bf 3a 85 67 25 bd
       -0.13117464 -0.033351593 0.0014639235 -0.040381927
000290 25 3a a1 bd 7e 9b d0 bc 09 01 a5 bd 41 27 e5 bd
       -0.07872418 -0.02546477 -0.08056838 -0.11189128
0002a0 64 38 5c 3c a5 bb 1a be be f9 c4 bd bb eb 7f bc
       0.013441179 -0.15110643 -0.09617947 -0.015620167
0002b0 1c 71 d8 bd 7a 20 22 be 78 bc 23 bc 55 13 da bd
       -0.10568449 -0.15832701 -0.009993665 -0.106482185
0002c0 3b df c2 bd 06 f5 5a be 48 1e 3a 3c 21 77 0e 3d
       -0.09515234 -0.21382532 0.011359759 0.03478158
0002d0 13 dd c2 3d 14 ae fa bd 0f 5d c5 3c 8d b5 e5 3c
       0.09514823 -0.12240234 0.024092225 0.028040672
0002e0 a7 8e dc bc ac f7 ab bd 31 9b c3 bb c5 90 26 be
       -0.02692349 -0.08396849 -0.005969428 -0.16266163
0002f0 7b 40 02 be 11 02 0f bd 70 66 3b be 2e e3 08 bd
       -0.1271991 -0.03491408 -0.18300796 -0.03341978
000300 44 61 03 bd fc 2a 1c bd fd d2 8c bd 09 b8 dd bd
       -0.03207518 -0.03812693 -0.0687618 -0.108261175
000310 5e 1d eb 3b b4 a0 a8 bd fd 6c a8 3b de 53 b9 bd
       0.0071751317 -0.08233777 0.0051399455 -0.090491995
000320 f0 8b 02 3c 96 93 cb bd ad 43 50 bd 13 2a d3 bd
       0.007967934 -0.09940259 -0.05084579 -0.103107594
000330 e8 d6 02 3d 47 b9 70 3c cd 9b dc bd 76 b9 f2 3c
       0.03194323 0.014692611 -0.10771904 0.02962945
000340 15 e0 74 3d d5 97 05 be 8a fd c8 3d 77 ff 9e bd
       0.059784014 -0.130462 0.09813984 -0.0776357
000350 97 88 81 bd 33 f5 c9 3d f5 1a 0c 3c 75 6b 99 bd
       -0.063248806 0.09861221 0.008551349 -0.07491199
000360 ed 84 1c bc db f4 a9 bc 99 b3 97 bd dc d2 96 bc
       -0.009553176 -0.020746639 -0.074073024 -0.018411092
000370 ae 14 64 bc 4b 3f 2b bd fb b2 3b bd 26 05 b0 bd
       -0.013920946 -0.041808408 -0.045824986 -0.08594732
000380 48 44 0d bc b4 3b 9f 3d a3 fb 01 bd e8 a6 ef bd
       -0.008622237 0.07775059 -0.03173412 -0.11701757
000390 d0 a3 12 be 40 26 f2 bc 9c c0 cb 3c ca 81 b2 3b
       -0.14320302 -0.029559255 0.024872117 0.005447601
0003a0 8c 52 fd bd 80 ae 3b bd f6 3b 99 bd cb e9 d4 bb
       -0.1236926 -0.045820713 -0.0748214 -0.006497597
0003b0 51 02 17 be 2f e4 26 be 39 4b 8f bd c1 0d 7d 3d
       -0.14746977 -0.16297983 -0.069967695 0.061780695
0003c0 48 53 6f 3c 6c 31 5a 3c b8 9a e8 bd fe 24 72 3d
       0.014607258 0.013317447 -0.11357635 0.05911731
0003d0 da 69 94 3d de aa 7e 3c 0b 50 6c bd 6f 3b 01 bd
       0.07246752 0.015543668 -0.057693522 -0.03155082
0003e0 0f a6 20 be e3 17 86 bd 46 ac d4 bd 10 2f 92 bd
       -0.15688346 -0.06547525 -0.10384421 -0.07137883
0003f0 df b2 ea 3b ba 8e 87 bd c9 9b a3 3c 96 4a 5c bd
       0.0071624364 -0.0661902 0.019971745 -0.05378207
