logs/fgb_vary_oracle/0/actor.pt (torch, 906162 bytes, 17 tensors)

weight_ih f4 [512, 48]
0.063200936 0.063533716 -0.13819431 -0.17855817 -0.11843055 0.0900145 -0.014647036 0.09215426
0.025033897 -0.03022118 -0.07870566 -0.08331613 -0.07711057 0.016429406 -0.15791342 0.060340732
0.0025895091 0.17795376 0.00239871 -0.114732996 0.03005398 0.009699229 -0.021546293 -0.040655218
-0.013101822 -0.06235837 0.029249875 -0.09525024 -0.025813995 -0.009853043 -0.15061915 0.1381667
-0.061028734 -0.10125236 -0.043349735 -0.09335326 -0.083953254 0.045236185 0.013464758 0.06276304
0.010580834 -0.041745774 0.04234929 -0.03961207 -0.026720738 -0.08679755 0.020283578 0.019120052
-0.003348481 0.050557394 0.167831 0.1435296 0.110823125 0.10560666 0.17874576 0.061086837
0.14226985 -0.1666228 -0.08663921 0.016267708 0.09075363 0.05776648 -0.06424935 -0.010035044
0.061568916 0.036146503 0.08459883 -0.06289784 0.020934528 0.15027346 -0.021656482 0.094022155
0.05256951 0.10579688 0.054011263 0.022293476 0.18009605 -0.15585388 0.107783474 -0.019456387
-0.112085514 0.07234771 0.16585003 -0.087124765 -0.012464425 0.03897228 -0.06297134 -0.075104125
0.023384692 -0.053674284 0.059473075 0.10333295 0.11082964 0.08846688 -0.073016584 -0.06319351
0.12461407 0.1506682 -0.16051203 -0.25000957 -0.027616428 -0.032591067 0.07708379 -0.025024306
-0.0697323 -0.019758182 -0.079917654 -0.1271597 0.074090555 0.07979785 -0.14522058 0.059475336
-0.08636254 0.03199858 -0.05494613 -0.12898085 -0.048482902 -0.035069063 0.098216124 0.025905542
-0.049798053 -0.008705077 -0.05884243 0.06313845 -0.043032825 -0.20597003 0.028879585 -0.16388385
-0.02474741 -0.02359806 -0.028746713 -0.0051056123 -0.03654056 -0.016250385 0.07470522 0.023653042
0.0485998 0.05277183 0.032845423 0.06788058 0.06432536 0.009234907 0.056085836 -0.021895915
-0.06912605 0.02682871 0.1416244 0.024373638 -0.06234575 -0.029222373 -0.09714695 -0.16796537
0.011946176 -0.14830783 0.058592666 -0.12304636 -0.15018854 -0.091699466 -0.019542659 -0.07364021
-0.0973507 -0.0039858236 -0.17477691 -0.10046007 0.15078333 -0.049066335 0.06468387 -0.04123479
-0.12069197 0.06414919 -0.040938113 0.0031840801 0.09167 0.023527915 -0.16568317 0.047651757
0.011313749 -0.0345629 0.0893042 -0.071414515 0.01121445 -0.014193629 0.10308636 0.0362009
0.008898118 -0.0018255075 0.02313535 0.033391718 0.02458782 0.18720433 0.18506724 0.14184022
-0.08687306 0.1296271 0.22804165 0.0004596279 -0.15819573 0.007554002 -0.019250626 0.086057745
0.2802125 0.02118908 -0.029403633 -0.029764688 -0.054852854 0.21890123 -0.090043835 0.27442658
-0.07352991 -0.119357884 0.082641415 0.049211953 -0.061824083 0.0128804585 -0.040178727 0.11857589
0.08686253 0.07115064 0.0014626074 -0.0727786 -0.017543921 -0.12457759 0.24661253 0.11175577
-0.11188985 0.008823342 -0.057213843 -0.01694374 -0.0053963563 -0.045975212 -0.031881023 0.04375599
-0.04132606 0.0479259 0.021554206 -0.04488879 0.009898577 -0.1097431 0.037515514 0.17136681
0.061079107 0.15803666 -0.06998626 -0.11428523 0.09244415 -0.1608 0.02465005 -0.0444632
0.12484983 -0.06584642 -0.0019219309 -0.069776595 -0.045288276 -0.024056748 -0.11781595 -0.081808485
00000000: 7e6f 813d f71d 823d cf82 0dbe f4d7 36be
00000010: b78b f2bd 8659 b83d 1ffa 6fbc 5fbb bc3d
00000020: e313 cd3c 6892 f7bc 6f30 a1bd a6a1 aabd
00000030: 26ec 9dbd f696 863c 0eb4 21be d827 773d
00000040: c1b4 293b 8339 363e ad33 1d3b 22f9 eabd
00000050: c433 f63c 84e9 1e3c da81 b0bc 1686 26bd
00000060: 06a9 56bc 7d6b 7fbd 6f9d ef3c 8f12 c3bd
00000070: df77 d3bc a86e 21bc e83b 1abe 927b 0d3e
00000080: 44f9 79bd 665d cfbd 7e8f 31bd fe2f bfbd
00000090: afef abbd 9449 393d 4a9b 5c3c e989 803d
000000a0: 3c5b 2d3c 9efd 2abd 7376 2d3d 4440 22bd
000000b0: 73e5 dabc eac2 b1bd bf29 a63c a8a1 9c3c
000000c0: 3072 5bbb 4515 4f3d e4db 2b3e 6cf9 123e
000000d0: 3cf7 e23d 4e48 d83d 2109 373e 3136 7a3d
000000e0: 30af 113e 2b9f 2abe e66f b1bd db43 853c
000000f0: 0add b93d 8b9c 6c3d 2a95 83bd 066a 24bc
00000100: b02f 7c3d 5b0e 143d 2742 ad3d 95d0 80bd
00000110: e37e ab3c 49e1 193e ef68 b1bc b08e c03d
00000120: 2053 573d 09ac d83d ea3a 5d3d cfa0 b63c
00000130: 196b 383e 2998 1fbe 95bd dc3d 0063 9fbc
00000140: 178d e5bd 092b 943d 97d4 293e 786e b2bd
00000150: 9637 4cbc 66a1 1f3d 1ef7 80bd 31d0 99bd
00000160: 4191 bf3c 91d9 5bbd 0a9a 733d 3aa0 d33d
00000170: a6fa e23d 202e b53d b889 95bd 996b 81bd
00000180: a935 ff3d c448 1a3e 445d 24be 4101 80be
00000190: d93b e2bc 367e 05bd 1bde 9d3d c6ff ccbc
000001a0: cfcf 8ebd e9db a1bc deab a3bd 2736 02be
000001b0: cabc 973d 0e6d a33d b4b4 14be 699c 733d
000001c0: d8de b0bd f110 033d 310f 61bd 8e13 04be
000001d0: 0296 46bd 94a4 0fbd 8925 c93d dc37 d43c
000001e0: 0bf9 4bbd bd9f 0ebc c304 71bd bb4e 813d
000001f0: 3043 30bd cfe9 52be e194 ec3c 2bd1 27be
00000200: 15bb cabc b850 c1bc 3a7e ebbc fb4c a7bb
00000210: 8eab 15bd 871f 85bc 0dff 983d 06c4 c13c
00000220: 9510 473d 4627 583d ec88 063d f904 8b3d
00000230: 04bd 833d 024e 173c 43ba 653d 105f b3bc
00000240: f591 8dbd e2c7 db3c fd05 113e 39ab c73c
00000250: 425e 7fbd c263 efbc fbf4 c6bd 1dff 2bbe
00000260: e5b9 433c 02de 17be ddfe 6f3d bbff fbbd
00000270: 06cb 19be eecc bbbd ed17 a0bc aed0 96bd
00000280: ce5f c7bd 839b 82bb b8f8 32be 02be cdbd
00000290: f266 1a3e c8f9 48bd fa78 843d d0e5 28bd
000002a0: 5a2d f7bd a760 833d b9ae 27bd 00ac 503b
000002b0: 7bbd bb3d 9dbd c03c d9a8 29be 7d2e 433d
000002c0: 4d5d 393c d491 0dbd 1fe5 b63d c641 92bd
000002d0: d0bc 373c 658c 68bc f11e d33d 6547 143d
000002e0: 69c9 113c de45 efba 5886 bd3c c1c5 083d
000002f0: 656c c93c 7eb2 3f3e 4482 3d3e 903e 113e
00000300: 81ea b1bd f7bc 043e c083 693e 36fa f039
00000310: 10fe 21be 9087 f73b 7db3 9dbc 0b3f b03d
00000320: 0378 8f3e b994 ad3c e3df f0bc 13d5 f3bc
00000330: 63ad 60bd a527 603e e768 b8bd a481 8c3e
00000340: d996 96bd e871 f4bd e73f a93d 7992 493d
00000350: 403b 7dbd 8f08 533c 7392 24bd ebd7 f23d
00000360: fbe4 b13d 6db7 913d f6b4 bf3a f20c 95bd
00000370: 45b8 8fbc 8922 ffbd ff87 7c3e 36e0 e43d
00000380: 8126 e5bd c78f 103c 1059 6abd 99cd 8abc
00000390: ebd3 b0bb 8150 3cbd ad95 02bd 7b39 333d
000003a0: 8445 29bd f34d 443d 7292 b03c 4fdd 37bd
000003b0: a42d 223c fec0 e0bd dea9 193d c87a 2f3e
000003c0: 162e 7a3d 5dd4 213e f554 8fbd 600e eabd
000003d0: 5c53 bd3d c1a8 24be e7ee c93c 0b1f 36bd
000003e0: 45b1 ff3d 7dda 86bd 4de9 fbba 08e7 8ebd
000003f0: 3380 39bd a812 c5bc 7d49 f1bd 358b a7bd

weight_hh f4 [512, 128]
-0.0476582 -0.017098766 -0.010810873 -0.010995399 -0.019927066 -0.07221237 0.033388447 0.06230833
0.08433992 0.072573535 -0.05877688 0.034190714 -0.009335299 0.061833616 0.050475195 0.12550542
-0.0053355345 0.007232317 0.016530195 0.003621384 0.049025804 0.0011523846 0.008237397 -0.008634926
-0.00018325163 0.020265836 -0.05311522 -0.018648056 -0.13251686 0.07949047 0.07978248 -0.011554736
-0.065390825 -0.15729454 -0.07488208 -0.15362243 -0.029729918 -0.094285294 -0.053170655 -0.03495722
0.08372417 0.020032665 0.028218463 0.06921964 0.0615294 -0.011666643 0.0986411 0.08640572
-0.07072734 -0.03200527 0.10126303 -0.0262446 -0.025358055 0.050753474 -0.11860978 0.030502409
0.052653525 -0.11056497 -0.01047224 -0.018562045 -0.036683526 0.017505517 -0.07530456 -0.027845759
-0.017014762 0.033377763 0.0589659 0.036675125 -0.071142405 -0.019509371 -0.06470368 -0.016418707
-0.051495567 -0.10089047 0.043308787 0.033494502 -0.023880556 0.016051926 -0.064406306 0.028330963
0.071593225 0.06930503 -0.0004821409 -0.0024829158 -0.029463824 0.09030637 -0.0991186 -0.036088534
0.026151504 0.03761323 -0.10016542 0.057939988 0.06177944 -0.009116249 -0.06793843 0.0039110957
-0.0924584 -0.041467234 -0.13574848 -0.12624043 0.060348313 -0.013108882 0.0482249 -0.04693249
-0.011039037 -0.11463426 -0.0074449233 0.048429225 -0.003405512 -0.031741716 -0.12625223 0.08507809
0.011715266 0.02530435 0.047560673 0.016038366 -0.11278629 -0.065664366 -0.023325723 -0.028620426
-0.052972212 -0.1002666 0.10245605 -0.016803548 -0.020974705 -0.016391393 -0.061632358 0.11315987
-0.027335068 0.027378013 -0.045594305 0.088748805 0.052114356 -0.023086661 -0.047895093 0.08156359
0.12864621 0.02729227 -0.021728273 0.08095715 -0.03268386 -0.081934296 0.018450415 0.06298631
-0.006830711 0.023333492 0.028381273 -0.040729724 -0.08350284 0.050683685 -0.052673467 0.009525084
0.05962314 0.01931393 -0.023282314 -0.009832929 -0.07087547 0.08261562 -0.085469484 -0.10944023
-0.062353007 0.024829453 0.031036584 -0.11980016 -0.06574134 -0.06956025 -0.06443714 0.08094626
-0.024645854 -0.033881906 -0.014142616 -0.09912152 0.06035089 -0.06297952 -0.038697943 0.0665201
0.02399564 0.060208473 -0.016791213 -0.12504354 -0.0025733758 0.05824939 0.017778408 -0.028211534
-0.07443922 0.087667085 -0.034538712 -0.120033205 -0.07076249 -0.083184004 0.005436779 0.05171358
0.07688012 -0.11377079 -0.008681318 -0.005433224 -0.10615591 0.060337044 0.033689756 -0.0716921
-0.0145922685 -0.02517124 0.05816423 -0.069094025 0.07721509 -0.009669687 0.12888357 0.11543371
-0.026430989 -0.020322565 0.04717585 -0.074969746 -0.015690042 0.054023698 0.051532455 0.11396813
-0.0755819 0.032346167 -0.031955533 0.08955279 0.012191072 -0.033169165 0.04178543 0.055530112
0.020432053 0.03593938 -0.09484716 0.051778212 -0.041885536 -0.04764155 0.008093062 -0.10613602
-0.015187365 0.020766351 -0.011386295 -0.010241601 -0.04270296 0.021275878 -0.0017613427 -0.099787205
-0.045378458 0.03498676 -0.13018243 0.032627605 0.0095015345 -0.1391595 -0.041470435 0.041585907
-0.0028257263 0.0729814 -0.004313338 0.031627122 -0.07432341 0.057361513 -0.08476945 -0.010181017
00000000: 3f35 43bd b612 8cbc 1620 31bc 0c26 34bc
00000010: 163e a3bc 14e4 93bd 53c2 083d 0537 7f3d
00000020: 68ba ac3d 6fa1 943d 07c0 70bd 900b 0c3d
00000030: 15f3 18bc 3f45 7d3d 14bf 4e3d 7e84 003e
00000040: b5d5 aebb 12fd ec3b 556a 873c be54 6d3b
00000050: 48cf 483d 9c0b 973a 26f6 063c 8179 0dbc
00000060: 3c27 40b9 8a04 a63c 588f 59bd cfc3 98bc
00000070: 80b2 07be e6cb a23d ff64 a33d 1350 3dbc
00000080: a0eb 85bd d211 21be c75b 99bd 334f 1dbe
00000090: 288c f3bc a618 c1bd 79c9 59bd 4d2f 0fbd
000000a0: 9477 ab3d 8b1b a43c 682a e73c 07c3 8d3d
000000b0: 4106 7c3d 7325 3fbc 5804 ca3d 7bf5 b03d
000000c0: 7fd9 90bd f517 03bd fe62 cf3d eafe d6bc
000000d0: b2bb cfbc e0e2 4f3d afe9 f2bd 30e0 f93c
000000e0: 39ab 573d e36f e2bd c293 2bbc 6e0f 98bc
000000f0: 7741 16bd bb67 8f3c 4739 9abd ca1c e4bc
00000100: 8b62 8bbc 1fb7 083d 3a86 713d a838 163d
00000110: 1cb3 91bd 1ed2 9fbc 5d83 84bd 8680 86bc
00000120: 04ed 52bd aa9f cebd 8e64 313d 8831 093d
00000130: 28a1 c3bc 547f 833c 74e7 83bd 5616 e83c
00000140: 789f 923d ccef 8d3d dbc7 fcb9 6ab8 22bb
00000150: 1e5e f1bc 8cf2 b83d b1fe cabd 92d1 13bd
00000160: ae3b d63c 5510 1a3d 8723 cdbd 7b52 6d3d
00000170: 700c 7d3d 525c 15bc 4e23 8bbd a628 803b
00000180: d45a bdbd 8cd9 29bd a601 0bbe 2c45 01be
00000190: cb2f 773d a3c6 56bc 7987 453d 483c 40bd
000001a0: 14dd 34bc 5ec5 eabd 8bf4 f3bb b95d 463d
000001b0: 032f 5fbb 9a03 02bd 4448 01be 6c3d ae3d
000001c0: 63f1 3f3c 114b cf3c fbce 423d e462 833c
000001d0: 80fc e6bd 0a7b 86bd 9615 bfbc 6275 eabc
000001e0: 64f9 58bd 9358 cdbd 7ad4 d13d 98a7 89bc
000001f0: 25d3 abbc 3e47 86bc 3672 7cbd 5dc0 e73d
00000200: cbed dfbc db47 e03c 18c1 3abd efc1 b53d
00000210: dd75 553d 3d20 bdbc a52d 44bd d00a a73d
00000220: d5bb 033e 0a94 df3c 7eff b1bc ddcc a53d
00000230: 83df 05bd 2bcd a7bd 5325 973c f7fe 803d
00000240: 28d4 dfbb e125 bf3c d87f e83c 36d4 26bd
00000250: 8903 abbd b299 4f3d 22c0 57bd 190f 1c3c
00000260: 6537 743d 3f38 9e3c 8dba bebc 4b1a 21bc
00000270: 2927 91bd 6132 a93d a00a afbd 3322 e0bd
00000280: de65 7fbd 2367 cb3c 6f40 fe3c c959 f5bd
00000290: 65a3 86bd 9b75 8ebd 9ff7 83bd 27c7 a53d
000002a0: 1ae6 c9bc c1c7 0abd 6eb6 67bc 3900 cbbd
000002b0: 7f32 773d 68fb 80bd bc81 1ebd b13b 883d
000002c0: 8192 c43c 299d 763d ba8d 89bc 6a0b 00be
000002d0: 15a6 28bb ea96 6e3d 06a4 913c e01b e7bc
000002e0: 9773 98bd cd8a b33d 7778 0dbd f8d3 f5bd
000002f0: edeb 90bd 605c aabd 0227 b23b 9ed1 533d
00000300: 5373 9d3d a900 e9bd 163c 0ebc 3009 b2bb
00000310: 4568 d9bd fa23 773d 45fe 093d 4fd3 92bd
00000320: 6914 6fbc eb33 cebc 9e3d 6e3d 2b81 8dbd
00000330: f222 9e3d 9b6d 1ebc 0efa 033e 8268 ec3d
00000340: cd85 d8bc 827b a6bc 773b 413d bd89 99bd
00000350: 6788 80bc f447 5d3d b213 533d 1f68 e93d
00000360: afca 9abd 6a7d 043d cee3 02bd 7467 b73d
00000370: 10bd 473c 64dc 07bd 3327 2b3d 8b73 633d
00000380: 1f61 a73c 2c35 133d 3a3f c2bd 6415 543d
00000390: 2b90 2bbd c923 43bd c398 043c d75d d9bd
000003a0: 6dd4 78bc 321e aa3c 958d 3abc 63cc 27bc
000003b0: 4de9 2ebd c04a ae3c dbdc e6ba 3c5d ccbd
000003c0: c3de 39bd 474e 0f3d 8b4e 05be 86a4 053d
000003d0: 53ac 1b3c d47f 0ebe e7dc 29bd fc55 2a3d
000003e0: d22f 39bb 4677 953d e756 8dbb 718b 013d
000003f0: df36 98bd e8f3 6a3d 9b9b adbd 48ce 26bc

bias_ih f4 [512]
0.10501331 0.15651552 0.11022678 -0.023272669 0.09341296 0.09242401 0.17560291 0.19301385
0.06730096 0.042198014 0.024740724 0.0949641 0.18460254 0.098836094 0.0021627208 0.11707773
0.09478987 0.059268624 0.121921726 -0.0012229694 0.11725921 0.06542148 0.18172082 0.13336225
0.0076954234 0.070255265 -0.0140115535 0.018975817 0.20170714 0.081091225 0.07052941 0.021501588
0.004062316 0.018372567 0.09985524 0.019797819 0.12081699 0.2745391 0.059636053 0.074443065
-0.033284996 -0.012046048 0.019339703 0.14595386 0.1394741 0.102847755 0.06217073 0.10589085
-0.06459556 0.13737667 0.07245555 0.1484052 0.025803363 0.07364444 0.09932146 0.059777383
0.1875044 0.17007911 0.14842007 0.21374567 0.17299049 0.08896939 0.12904464 0.13784626
0.00066783064 0.1938019 0.035715334 -0.0165494 0.25436962 0.04533391 0.16072404 0.2360501
0.15970607 0.17783779 0.15048328 0.13306461 0.098246716 0.060876835 -0.03804431 0.042108547
-0.016651263 0.09123429 -0.022917435 -0.011373401 0.06773963 -0.0092613045 0.052373484 0.07306522
-0.0031944592 0.27336746 0.054944977 0.0074350266 0.06519935 0.022364153 0.04477319 0.07493571
-0.013296886 0.08456079 0.01608642 -0.03542636 0.032978836 -0.021727921 0.06550204 0.031164726
0.19509505 0.02130424 0.14495966 0.15816431 0.046832662 -0.038102765 0.05297706 0.08534616
0.13595633 0.029176282 0.12213898 0.029431531 0.12916066 0.09776792 0.13340339 0.07338582
0.08815873 0.099597536 0.06396753 0.18694866 0.18116884 0.062155236 0.10902208 0.13939887
0.09178871 0.065169714 -0.044134893 -0.022001507 -0.046379816 0.017086307 -0.1167912 0.03614661
0.029870901 -0.07846762 0.033091765 0.06951962 -0.10228355 -0.08752762 -0.010997369 -0.04568415
0.012792769 0.0066530793 -0.041677624 -0.0230157 0.0055539636 0.033361673 0.0016657672 0.04795409
-0.050088815 0.05310644 0.007205605 0.022850985 0.0413266 0.00041392408 -0.06619507 0.020755198
-0.013806262 0.09078763 -0.030500961 0.09351213 0.038907677 -0.15861621 -5.6735776e-06 -0.017813647
0.07104999 -0.058535118 0.04458734 -0.017662771 -0.063137606 0.014052889 0.023210276 -0.0287915
-0.0349045 0.031117667 0.08553038 0.0027094132 -0.05094396 0.078924686 -0.026745917 0.034821477
-0.013119191 0.04241345 -0.035194814 -0.0006983157 0.09136443 0.07038943 0.06991945 -0.10930637
0.09620599 0.007514605 -0.012154131 0.13095312 -0.05718647 0.013600863 -0.051970813 -0.019348321
-0.08953303 -0.0508126 -0.065543965 -0.05647888 -0.05527543 -0.0079565905 0.021241663 0.05036289
-0.0017185619 -0.022355761 -0.089180596 -0.04677677 -0.026663855 0.0021346943 -0.032882825 0.08249711
-0.078509994 0.018508913 0.040612154 0.009753875 -0.04761023 0.040913295 -0.081104465 0.07588525
-0.10218997 -0.044568434 0.021845082 -0.004242854 -0.02306589 0.01579093 0.024583342 -0.008353029
-0.100158356 0.10189796 -0.0064128446 0.015070001 0.040919863 0.0010330568 -0.09258455 -0.016718684
0.038272016 -0.010988376 0.04107472 -0.09376754 -0.0040052393 0.0143823875 -0.016719006 0.021247234
0.046113603 -0.06598005 -0.062379837 -0.036819365 0.02018951 -0.05109413 -0.08995319 -0.056647114
00000000: 3811 d73d 9b45 203e 94be e13d 53a6 bebc
00000010: 4b4f bf3d cd48 bd3d 40d1 333e 6ca5 453e
00000020: 16d5 893d d3d7 2c3d 0fad ca3c 8a7c c23d
00000030: 7308 3d3e 946a ca3d 6fbc 0d3b 73c6 ef3d
00000040: 3121 c23d a8c3 723d 19b2 f93d 0b4c a0ba
00000050: 9925 f03d b2fb 853d 0615 3a3e 1d90 083e
00000060: e429 fc3b fee1 8f3d b790 65bc 2c73 9b3c
00000070: 518c 4e3e 2813 a63d b971 903d 1924 b03c
00000080: 2d1d 853b 1182 963c e780 cc3d 092f a23c
00000090: e66e f73d 6490 8c3e ef44 743d 9b75 983d
000000a0: d955 08bd ca5c 45bc 4c6e 9e3c ee74 153e
000000b0: 4cd2 0e3e d8a1 d23d bca6 7e3d 4ddd d83d
000000c0: ad4a 84bd 78ac 0c3e 9363 943d 88f7 173e
000000d0: 9361 d33c e5d2 963d 0d69 cb3d 21d9 743d
000000e0: 2701 403e 3829 2e3e 6efb 173e 25e0 5a3e
000000f0: 6b24 313e 9535 b63d 4724 043e 9227 0d3e
00000100: 5b11 2f3a 0174 463e 3e4a 123d 9b92 87bc
00000110: bc3c 823e 0db0 393d d894 243e 1eb7 713e
00000120: fd89 233e 1c1b 363e 4a18 1a3e 1742 083e
00000130: 9335 c93d fd59 793d 5ad4 1bbd 037a 2c3d
00000140: 3b68 88bc 0bd9 ba3d 58bd bbbc 8057 3abc
00000150: 13bb 8a3d babc 17bc 9485 563d 38a3 953d
00000160: 225a 51bb d2f6 8b3e fc0d 613d 86a1 f33b
00000170: 3d87 853d 0735 b73c 1864 373d e577 993d
00000180: 2fdb 59bc 352e ad3d abc7 833c 3b1b 11bd
00000190: d114 073d c1fe b1bc ef25 863d 2b4d ff3c
000001a0: ffc6 473e 3b86 ae3c 4e70 143e d3f5 213e
000001b0: 9bd3 3f3d a511 1cbd 79fe 583d f8c9 ae3d
000001c0: 2338 0b3e 1903 ef3c 0024 fa3d 651a f13c
000001d0: b142 043e 8c3a c83d e69a 083e 4e4b 963d
000001e0: 908c b43d cbf9 cb3d 6901 833d 786f 3f3e
000001f0: 5384 393e 7d96 7e3d f846 df3d 94be 0e3e
00000200: b8fb bb3d b377 853d cac6 34bd 813c b4bc
00000210: c3f8 3dbd 95f8 8b3c 3a30 efbd 780e 143d
00000220: d2b3 f43c a2b3 a0bd 3b8b 073d 4d60 8e3d
00000230: 0a7a d1bd ae41 b3bd 4f2e 34bc 4e1f 3bbd
00000240: c398 513c 1302 da3b 28b6 2abd 6c8b bcbc
00000250: 06fe b53b 40a6 083d df55 da3a 826b 443d
00000260: ee29 4dbd 2386 593d ff1c ec3b fd31 bb3c
00000270: 1546 293d f303 d939 4891 87bd ce06 aa3c
00000280: a933 62bc ddee b93d 27dd f9bc 4a83 bf3d
00000290: a85d 1f3d 4a6c 22be a95f beb6 eded 91bc
000002a0: a882 913d 85c2 6fbd 37a1 363d 84b1 90bc
000002b0: 4a4e 81bd 173e 663c 7a23 be3c 27dc ebbc
000002c0: 05f8 0ebd 7aea fe3c 8d2a af3d 6990 313b
000002d0: 9daa 50bd 44a3 a13d 411a dbbc f7a0 0e3d
000002e0: e0f1 56bc bab9 2d3d 7028 10bd 2c0f 37ba
000002f0: 461d bb3d 5528 903d ee31 8f3d 05dc dfbd
00000300: a507 c53d 133d f63b 1f22 47bc 9318 063e
00000310: 5c3c 6abd 27d6 5e3c 59df 54bd 5f80 9ebc
00000320: 185d b7bd df20 50bd ea3b 86bd 6656 67bd
00000330: 7d68 62bd 5c5c 02bc ff02 ae3c 5149 4e3d
00000340: 5e41 e1ba 6e23 b7bc 51a4 b6bd 0099 3fbd
00000350: 286e dabc 3ae6 0b3b 24b0 06bd 3ff4 a83d
00000360: d9c9 a0bd 01a0 973c ee58 263d b8ce 1f3c
00000370: f202 43bd b394 273d 191a a6bd ba69 9b3d
00000380: fa48 d1bd 648d 36bd 75f4 b23c a407 8bbb
00000390: adf4 bcbc fb5b 813c 0163 c93c 25db 08bc
000003a0: d31f cdbd e1af d03d d722 d2bb 2ae8 763c
000003b0: 969b 273d a267 873a f89c bdbd 9ff5 88bc
000003c0: 1ec3 1c3d 9708 34bc f73d 283d 3209 c0bd
000003d0: 623e 83bb 1ba4 6b3c 4cf6 88bc ae0e ae3c
000003e0: 9ee1 3c3d 8c20 87bd 0082 7fbd e7cf 16bd
000003f0: 7964 a53c 1448 51bd 6139 b8bd ce06 68bd

bias_hh f4 [512]
0.034837253 0.06772121 0.20706056 0.0031032502 0.075071804 0.07551589 0.20062387 0.18870834
0.049961474 0.09654574 0.11116999 0.15477127 0.109538674 0.038085748 0.105093285 0.1365596
0.0622043 0.11623775 -0.0003020984 0.14280064 0.14320217 0.10662396 0.1594094 0.1331381
0.037533924 0.12570012 -0.02591875 -0.028073601 0.14453696 0.17132838 0.11994151 0.04048143
0.12591775 0.068014175 -0.007127212 0.056402877 -0.045445662 0.22125666 0.13267455 -0.051240794
0.056633137 -0.038739637 0.12342229 0.14525834 0.0996803 0.056093186 0.107367575 0.005492483
0.0047453535 0.16628754 0.14593215 0.055698797 0.11243417 -0.009873815 0.17417294 0.10273711
0.23209406 0.11044953 0.11574303 0.14258884 0.17933954 0.1436149 0.062193673 0.17309117
0.0038228561 0.11231902 -0.057207756 0.009383011 0.28583768 0.092485026 0.22757569 0.24577138
0.100426234 0.1865317 0.07474448 0.10166209 0.06305749 0.101586245 0.11415091 0.0142141245
0.06710848 0.013708721 0.08668648 0.09931921 0.18591152 0.104869254 0.06908299 0.016793013
-0.04567234 0.24053875 0.11057279 0.1281505 0.07339159 0.020437984 0.0894756 0.014093158
0.09463294 0.005934551 0.06840506 0.10252253 -0.020255286 0.07232757 0.033179175 0.07843115
0.24577872 0.04309156 0.030754024 0.008858878 0.010588325 0.07346124 0.052031044 0.0090289945
0.08802916 -0.028716292 -0.019069308 0.09096702 -0.031194896 0.041495096 0.18101351 0.08130926
0.076049 0.011270551 0.22382505 0.08393134 0.22354527 -0.031605046 0.16571452 0.15117571
-0.060642797 -0.028850049 -0.0027849886 -0.0949471 -0.022195522 0.053330567 -0.013101397 0.026542544
0.0645925 -0.07665202 0.03243645 0.05215337 -0.020119438 -0.009021795 -0.059891302 -0.04882399
0.1164201 0.06447517 0.07747692 0.080441274 0.06514864 -0.0113389185 -0.05946891 -0.013228639
0.0870544 0.05590256 -0.007440236 -0.03026782 -0.035112407 0.13322188 -0.057013053 -0.017762873
0.009269028 0.08181221 0.031166295 0.014263232 0.06085194 -0.18028405 -0.031243403 0.090557165
0.08419348 0.06870351 -0.09265935 0.07544287 0.026817529 -0.090255514 0.05664348 0.014367432
-0.03194887 0.029135853 -0.022813829 -0.01085821 -0.012105687 0.06269644 -0.10821376 0.020185212
-0.0333478 0.075893044 0.004222664 -0.039774355 0.052116197 -0.030430757 -0.017547471 -0.00512829
0.03516382 0.060878802 -0.027740039 0.12113612 -0.03833136 0.08318637 -0.059925176 -0.010358282
-0.110342026 -0.08092486 -0.077677384 -0.04495523 -0.02556372 0.076578006 -0.085865244 -0.016346836
-0.08247589 -0.0015039451 0.033015814 -0.0067677684 -0.014743257 0.03206819 -0.036515832 -0.006855797
-0.04206189 0.032219816 0.004531025 0.054409724 0.07460759 0.07424669 0.08141387 0.057183057
-0.011655598 0.0674129 -0.01513178 0.07931584 -0.021513281 0.000603973 0.028309865 -0.016509244
-0.008622944 0.085886635 0.09378413 -0.027936438 0.059863962 -0.08158226 -0.035311576 -0.058710612
-0.07169284 -0.03434316 -0.09706966 0.023935407 0.078138456 -0.028432304 -0.035816498 0.014948772
0.022944782 0.055209137 -0.032271888 -0.035520423 -0.010290651 -0.005324327 0.07022265 -0.12998615
00000000: 82b1 0e3d 6bb1 8a3d af07 543e e65f 4b3b
00000010: 3fbf 993d 13a8 9a3d 5870 4d3e c23c 413e
00000020: 67a4 4c3d c6b9 c53d 17ad e33d 5c7c 1e3e
00000030: d055 e03d cdff 1b3d 263b d73d 48d6 0b3e
00000040: f0c9 7e3d 0f0e ee3d f662 9eb9 553a 123e
00000050: 97a3 123e aa5d da3d 383c 233e 5b55 083e
00000060: 2cbd 193d 88b7 003e 8f53 d4bc 9cfa e5bc
00000070: 7f01 143e b570 2f3e e5a3 f53d dbcf 253d
00000080: 95f0 003e 044b 8b3d 638b e9bb b406 673d
00000090: 3b25 3abd 1b91 623e d6db 073e dee1 51bd
000000a0: 26f8 673d 74ad 1ebd d3c4 fc3d 9abe 143e
000000b0: 2f25 cc3d f8c1 653d 88e3 db3d 49fa b33b
000000c0: e97e 9b3b 4847 2a3e 3d6f 153e 6c24 643d
000000d0: e343 e63d c8c5 21bc 645a 323e d567 d23d
000000e0: 11aa 6d3e 5d33 e23d af0a ed3d cf02 123e
000000f0: c9a4 373e c90f 133e cbbe 7e3d d03e 313e
00000100: e288 7a3b 8407 e63d ae52 6abd 33bb 193c
00000110: 5159 923e ca68 bd3d 9a09 693e 7eab 7b3e
00000120: 45ac cd3d 2a02 3f3e a213 993d 3734 d03d
00000130: 4924 813d 730c d03d f4c7 e93d 5ce2 683c
00000140: 2c70 893d 8b9a 603c ae88 b13d df67 cb3d
00000150: 975f 3e3e b1c5 d63d 627b 8d3d 8091 893c
00000160: eb12 3bbd ca4f 763e fd73 e23d e239 033e
00000170: 544e 963d 8f6d a73c fc3e b73d fde6 663c
00000180: eace c13d 9f76 c23b f417 8c3d 55f7 d13d
00000190: 6aee a5bc 7a20 943d e3e6 073d 83a0 a03d
000001a0: 6bad 7b3e c780 303d ddef fb3c d424 113c
000001b0: a77a 2d3c d972 963d 811e 553d 59ee 133c
000001c0: a248 b43d 6e3e ebbc 3d37 9cbc eb4c ba3d
000001d0: 708c ffbc c3f6 293d 9b5b 393e 7885 a63d
000001e0: 94bf 9b3d 1ea8 383c 6532 653e 32e4 ab3d
000001f0: 0de9 643e 4b74 01bd 11b1 293e cecd 1a3e
00000200: 9564 78bd f056 ecbc 5b84 36bb a073 c2bd
00000210: 62d3 b5bc 2771 5a3d 3ea7 56bc c06f d93c
00000220: 1349 843d bcfb 9cbd 15dc 043d c69e 553d
00000230: 85d1 a4bc 27d0 13bc 9550 75bd aafb 47bd
00000240: a96d ee3d 8f0b 843d 38ac 9e3d 65be a43d
00000250: a66c 853d dfc6 39bc ac95 73bd efbc 58bc
00000260: 9449 b23d 15fa 643d 39cd f3bb 38f4 f7bc
00000270: 07d2 0fbd 516b 083e 8586 69bd 7283 91bc
00000280: 1fdd 173c 298d a73d 7550 ff3c 55b0 693c
00000290: e23f 793d 629c 38be 2af2 ffbc 0976 b93d
000002a0: a26d ac3d 6db4 8c3d 2fc4 bdbd cb81 9a3d
000002b0: 6fb0 db3c e2d7 b8bd fe02 683d 6165 6b3c
000002c0: d1dc 02bd 50ae ee3c 11e4 babc a2e6 31bc
000002d0: ee56 46bc fe66 803d 2d9f ddbd 755b a53c
000002e0: b497 08bd d06d 9b3d 465e 8a3b 6fea 22bd
000002f0: cb77 553d ec49 f9bc b7bf 8fbc 370b a8bb
00000300: f007 103d 0d5c 793d 143f e3bc 3716 f83d
00000310: 5801 1dbd 9e5d aa3d 1a74 75bd c9b5 29bc
00000320: 00fb e1bd efbb a5bd 5215 9fbd fa22 38bd
00000330: 026b d1bc eed4 9c3d 1eda afbd cde9 85bc
00000340: 1fe9 a8bd 0620 c5ba 973b 073d 28c4 ddbb
00000350: b48d 71bc ef59 033d a091 15bd 98a6 e0bb
00000360: 1749 2cbd edf8 033d fe78 943b bbdc 5e3d
00000370: ddcb 983d a60e 983d 51bc a63d c838 6a3d
00000380: 1ff7 3ebc c60f 8a3d 49eb 77bc 5870 a23d
00000390: 9f3c b0bc f153 1e3a 17ea e73c 653e 87bc
000003a0: 4047 0dbc 55e5 af3d e511 c03d f5da e4bc
000003b0: ea33 753d 9a14 a7bd dfa2 10bd 8a7a 70bd
000003c0: b2d3 92bd 6aab 0cbd 75cc c6bd 3014 c43c
000003d0: 0e07 a03d ddea e8bc 52b4 12bd b2eb 743c
000003e0: b2f6 bb3c fa22 623d 872f 04bd dd7d 11bd
000003f0: 1e9a 28bc b177 aebb e5d0 8f3d 171b 05be

weight_ih f4 [512, 128]
-0.08555084 -0.07788341 -0.05507565 -0.061122917 -0.010521765 -0.02579461 -0.065864 0.0826768
-0.0022209245 -0.08326498 -0.005176448 0.022448504 0.114105284 0.049063005 0.028916055 0.21151954
0.08479138 0.042262934 -0.021286078 -0.1514265 0.05683677 -0.09042033 -0.0331372 0.038911153
0.13928764 -0.16146052 0.031311166 0.08888011 -0.0029930745 -0.009879541 -0.16243716 0.07776089
-0.017064922 0.104287535 -0.021931142 -0.038977522 0.08648502 -0.003765972 0.13533948 -0.05114042
-0.07031847 0.06402899 0.10950576 0.11097349 0.056150675 0.18029016 -0.14946693 0.02227362
0.02644817 0.10434425 -0.014180262 -0.13015841 0.033433367 -0.017959926 -0.081563294 0.04574753
-0.018890476 -0.010573109 -0.00020084904 -0.089484856 0.071098864 -0.07187477 -0.06571817 0.15851808
-0.020554308 -0.13840711 -0.056287162 0.002306446 -0.08121316 -0.072941795 0.1332605 0.036404543
0.072729096 -0.052266315 0.07504692 -0.072981715 0.06167859 -0.06778704 -0.025653405 0.073412016
-0.07362529 0.009497392 -0.102613434 -0.09126617 -0.10049988 0.08724712 -0.11653699 -0.07102951
0.007916122 -0.1433009 -0.06644583 0.09470467 0.06569107 -0.02918582 0.003277479 -0.030078823
-0.09539612 -0.11676151 -0.020192223 -0.02066655 0.030858207 -0.009065212 0.045085814 -0.12533315
0.20171815 -0.0627762 0.069075875 0.120251656 0.008427002 -0.00034005975 -0.020616287 0.05156755
-0.04470603 0.0028440636 -0.050801028 0.092007935 0.06483805 -0.051057037 0.109403804 -0.07830894
-0.07866747 0.06541747 -0.09804819 0.09734343 -0.029480984 0.027976925 -0.070848435 0.13414527
0.023718316 0.0274352 0.0017757828 -0.03581149 -0.11449663 0.022922339 -0.03639843 -0.15045576
0.0985016 0.044900343 -0.12393871 0.05728684 0.01784975 -0.008612296 0.03510779 -0.08622751
0.043312453 0.037418064 0.012221148 0.029877342 0.04114792 0.014748798 -0.011482808 0.11867814
-0.16859375 -0.07744822 -0.033556174 0.01176902 0.06522956 -0.06721741 0.045711886 0.04563583
0.02350313 -0.014599145 0.040000584 -0.023208205 -0.0089138355 -0.017388636 -0.019575147 -0.014747079
0.053649336 -0.13344273 0.020689253 0.00021433654 0.070820436 -0.021861488 -0.080679804 -0.051766068
0.06546358 0.027276335 -0.10541356 -0.015680192 0.09413268 0.12613282 0.10453769 -0.042745534
0.06221074 -0.007740231 0.07936889 0.0051135323 -0.10411667 -0.05188828 0.05243697 0.04431613
-0.07724872 0.11374925 -0.026978849 0.036779087 0.11222245 -0.007142627 -0.026484659 0.0016594551
-0.0614477 -0.07567744 -0.078205004 -0.02899494 0.16454412 0.012761731 -0.0810161 -0.101260394
-0.12065913 -0.0023658748 -0.07937367 0.076349325 0.0350667 0.06837258 0.041780084 -0.14778781
-0.033055387 -0.060126618 0.0032025322 -0.049252607 0.12700741 0.15684056 -0.012185667 -0.11564522
-0.14954355 -0.03937177 -0.0024430023 -0.008788224 0.015609183 -0.0056229527 0.17771535 -0.038818616
-0.07871471 -0.018859781 0.08319436 -0.0068238364 0.07427828 -0.09388845 0.036025014 -0.036208805
0.048209086 -0.08826697 -0.052414127 0.101186074 0.13155784 0.0316584 0.04947803 -0.061582047
0.12997404 -0.15791535 0.013980363 0.038234137 -0.15929992 -0.044841733 0.02833633 0.033932786
00000000: 4735 afbd 5681 9fbd 0197 61bd 065c 7abd
00000010: 7b63 2cbc 384f d3bc b4e3 86bd 7452 a93d
00000020: ee8c 11bb d486 aabd 319f a9bb ede5 b73c
00000030: 08b0 e93d 4af6 483d 5de1 ec3c 9498 583e
00000040: 1aa7 ad3d e61b 2d3d 2460 aebc 8c0f 1bbe
00000050: accd 683d 4b2e b9bd dfba 07bd 4d61 1f3d
00000060: 6ba1 0e3e e855 25be 2340 003d c606 b63d
00000070: 7527 44bb ccdd 21bc ed55 26be 1a41 9f3d
00000080: bccb 8bbc b494 d53d f0a8 b3bc e5a6 1fbd
00000090: 0f1f b13d 87ce 76bb 6f96 0a3e 9e78 51bd
000000a0: 2103 90bd a221 833d 8e44 e03d 1246 e33d
000000b0: 40fe 653d fc9d 383e dc0d 19be 2b77 b63c
000000c0: d5a9 d83c 70b2 d53d 5454 68bc 3f48 05be
000000d0: 6df1 083d b220 93bc a80a a7bd c361 3b3d
000000e0: 33c0 9abc d53a 2dbc 019b 52b9 d643 b7bd
000000f0: 489c 913d 1433 93bd 3f97 86bd 9052 223e
00000100: 8261 a8bc 98ba 0dbe 5e8d 66bd be27 173b
00000110: 1653 a6bd 8262 95bd 7175 083e ee1c 153d
00000120: fef2 943d 3415 56bd 33b2 993d 7077 95bd
00000130: b0a2 7c3d eed3 8abd 1727 d2bc 0a59 963d
00000140: dbc8 96bd f39a 1b3c fe26 d2bd c2e9 babd
00000150: e2d2 cdbd 9eae b23d f2aa eebd eb77 91bd
00000160: 9fb2 013c 79bd 12be c014 88bd 86f4 c13d
00000170: 0a89 863d 1a17 efbc f9ca 563b dd67 f6bc
00000180: 0a5f c3bd a920 efbd 296a a5bc e64c a9bc
00000190: 5aca fc3c 4186 14bc e7ab 383d 5557 00be
000001a0: 348f 4e3e cf90 80bd a777 8d3d 8046 f63d
000001b0: 6811 0a3c 0c4a b2b9 7de3 a8bc 7f38 533d
000001c0: ac1d 37bd 7863 3a3b bd14 50bd a86e bc3d
000001d0: d0c9 843d 2f21 51bd 1a0f e03d 7060 a0bd
000001e0: 691c a1bd 98f9 853d 7dcd c8bd fe5b c73d
000001f0: 1b82 f1bc dd2f e53c fc18 91bd 615d 093e
00000200: ea4c c23c c9bf e03c 62c1 e83a 12af 12bd
00000210: 367d eabd a1c7 bb3c 8516 15bd 1311 1abe
00000220: 35bb c93d 6ce9 373d 94d3 fdbd 9ba5 6a3d
00000230: a439 923c 961a 0dbc 30cd 0f3d 0c98 b0bd
00000240: 6668 313d af43 193d 363b 483c 54c1 f43c
00000250: b98a 283d f1a4 713c 6322 3cbc 860d f33d
00000260: d7a3 2cbe 2c9d 9ebd 3372 09bd d9d2 403c
00000270: 1397 853d 48a9 89bd 633c 3b3d a3ec 3a3d
00000280: a389 c03c 4131 6fbc a7d7 233d 221f bebc
00000290: 560b 12bc 9d72 8ebc 0f5c a0bc bc9d 71bc
000002a0: 68bf 5b3d 36a5 08be 827c a93c 87bf 6039
000002b0: 4e0a 913d dd16 b3bc 743b a5bd a808 54bd
000002c0: c511 863d 9f72 df3c 11e3 d7bd bf73 80bc
000002d0: a2c8 c03d f628 013e db17 d63d f115 2fbd
000002e0: b0d0 7e3d c4a1 fdbb 288c a23d 6b8f a73b
000002f0: 1f3b d5bd ce88 54bd 26c8 563d d584 353d
00000300: 9434 9ebd 5ef5 e83d bf02 ddbc aba5 163d
00000310: e2d4 e53d b30c eabb 5bf6 d8bc 1382 d93a
00000320: 95b0 7bbd c6fc 9abd f229 a0bd cc86 edbc
00000330: 417e 283e 9416 513c c5eb a5bd 9c61 cfbd
00000340: 221c f7bd cb0c 1bbb aa8e a2bd 095d 9c3d
00000350: 1aa2 0f3d ec06 8c3d 9821 2b3d b055 17be
00000360: 1665 07bd 5447 76bd 93e1 513b 1abd 49bd
00000370: 3b0e 023e d09a 203e 64a6 47bc 67d7 ecbd
00000380: f221 19be 4b44 21bd c71a 20bb 7cfc 0fbc
00000390: a9bd 7f3c bf40 b8bb 03fb 353e 4500 1fbd
000003a0: 2e35 a1bd d47f 9abc ce61 aa3d 7d9a dfbb
000003b0: 361f 983d 9648 c0bd f78e 133d af4f 14bd
000003c0: e476 453d 50c5 b4bd 32b0 56bd a53a cf3d
000003d0: 19b7 063e 3dac 013d 7aa9 4a3d 753d 7cbd
000003e0: ea17 053e 90b4 21be e40d 653c 669b 1c3d
000003f0: 851f 23be f7ab 37bd 9721 e83c 1bfd 0a3d

weight_hh f4 [512, 128]
0.008258525 -0.058085617 -0.02208955 -0.0107581 0.031782206 -0.025856666 0.111953035 -0.11414621
0.0916 -0.020762123 -0.06946437 0.04704734 0.0029302363 -0.08677923 0.05119537 -0.12874718
-0.016666954 0.10463525 -0.027077647 -0.16257785 0.06051704 -0.11030078 0.0059885154 -0.11285571
-0.15859438 0.07996741 0.052999176 -0.0012104338 -0.04759627 0.1034292 -0.10698745 0.010603116
0.0056468663 -0.04631305 -0.023900239 0.05049802 -0.19951084 -0.05036315 -0.16306119 -0.02090751
-0.08284372 0.03108266 0.091879085 0.08457959 0.09241141 0.03555552 0.029194104 0.09626651
0.049845412 -0.12111087 -0.026019767 -0.08451823 0.094379805 -0.04927023 -0.008353428 0.0202659
-0.0020301545 -0.091176905 0.10591454 0.05495921 0.060935237 0.03434183 0.045637608 0.11501389
0.07783324 -0.17161345 0.13760167 -0.039388992 0.113194495 0.017028706 0.011928285 0.011332397
0.12544453 0.074487425 0.052550063 -0.08800587 -0.029411143 0.14187357 0.064838685 0.081541575
-0.050879046 0.08292156 0.11519344 -0.08987667 0.11071774 0.03526338 0.06673068 -0.086792916
0.11511487 0.028696012 0.0062058563 0.10149422 -0.18429273 -0.03707146 -0.049877744 -0.12373626
0.020641457 0.072100006 0.043592807 0.07201616 -0.04979448 -0.106690876 -0.07378381 -0.0054497314
0.03607582 -0.09763705 0.051712047 -0.15090853 0.101408534 -0.031695466 -0.06174835 0.0014650428
0.06389045 0.11289954 0.16631222 -0.052717496 -0.07516424 -0.08313055 -0.03879838 -0.010823669
-0.07158228 -0.07362663 -0.067113966 0.06520475 -0.048776325 0.003201012 -0.038866986 0.022214372
-0.0007213915 0.014764524 -0.10780727 0.027291993 0.07246492 0.02333036 0.010773067 0.07378566
-0.03854822 -0.026103402 -0.0148858 -0.16736378 -0.12340752 0.08247527 0.11303642 0.020278454
-0.04496542 0.10003451 -0.0023729766 0.10142598 0.05436689 -0.07196021 -0.0036681585 -0.05970004
0.02604528 0.06255465 -0.10204867 0.17629887 0.08356767 0.08760669 -0.0072235083 0.060855705
0.104053885 -0.03378705 0.042242505 -0.043189462 -0.011274218 0.11855332 0.003976671 -0.072126485
0.03510201 0.17350292 -0.09702758 0.03406893 0.030699624 -0.08330985 0.09719287 -0.075889006
0.003403195 -0.028800469 0.037621036 -0.097358845 0.082986265 -0.10193593 -0.09680183 -0.043992903
0.04876027 -0.021596432 -0.09672931 -0.07009705 0.0043680556 0.027926637 0.07311071 0.084883325
-0.017720541 0.026159389 0.059246287 -0.0022537292 0.022598408 0.031927988 -0.027427563 -0.03228261
0.013362155 -0.048956297 -0.0052425577 0.011770763 -0.12967399 -0.13290924 -0.01299351 0.013679193
-0.04131943 -0.07145699 -0.009628742 0.018475255 0.08311107 0.13231482 0.025157688 0.020918861
0.068154454 -0.075290844 -0.13576128 0.012031333 -0.066089906 -0.015829526 -0.03977026 -0.099542275
-0.038443934 -0.029933682 0.008093283 0.13676605 -0.087132305 -0.0010320226 0.0449875 -0.15200861
0.03826138 -0.07216999 -0.19838667 -0.11688789 -0.041002374 -0.06786444 0.017245442 -0.036594544
0.15063629 0.07664674 -0.08317062 0.0036692861 0.0859114 -0.0038404618 0.076568894 0.013140333
-0.017614532 -0.066332564 0.018664874 0.0871446 0.16650565 -0.024380738 0.000931055 0.08757616
00000000: c44e 073c 2feb 6dbd 25f5 b4bc be42 30bc
00000010: 0f2e 023d 5cd1 d3bc a247 e53d 7dc5 e9bd
00000020: c898 bb3d 5415 aabc 5643 8ebd b6b4 403d
00000030: 3509 403b 4fb9 b1bd 3cb2 513d 4dd6 03be
00000040: 2389 88bc 024b d63d f1d1 ddbc cf7a 26be
00000050: b7e0 773d 60e5 e1bd 4f3b c43b e520 e7bd
00000060: 9166 22be f4c5 a33d aa15 593d 6ba7 9eba
00000070: 4ef4 42bd b0d2 d33d 3c1c dbbd b1b8 2d3c
00000080: 5909 b93b c1b2 3dbd 6fca c3bc 03d7 4e3d
00000090: 924c 4cbe 9749 4ebd 83f9 26be 3a46 abbc
000000a0: f8a9 a9bd 10a1 fe3c 1a2b bc3d 1038 ad3d
000000b0: 3142 bd3d aaa2 113d 7928 ef3c 6027 c53d
000000c0: b42a 4c3d fa08 f8bd 6827 d5bc e517 adbd
000000d0: 334a c13d 95cf 49bd d1dc 08bc ac04 a63c
000000e0: 570c 05bb f5ba babd b9e9 d83d e91c 613d
000000f0: 3a97 793d 05aa 0c3d 80ee 3a3d 678c eb3d
00000100: 0967 9f3d 70bb 2fbe 74e7 0c3e 5a56 21bd
00000110: 84d2 e73d c97f 8b3c da6e 433c 85ab 393c
00000120: 8874 003e dd8c 983d bc3e 573d 6c3c b4bd
00000130: a3ef f0bc 4e47 113e 25ca 843d 45ff a63d
00000140: 8c66 50bd c7d2 a93d 8aea eb3d 4211 b8bd
00000150: fcbf e23d 5570 103d 18aa 883d 7cc0 b1bd
00000160: 58c1 eb3d e613 eb3c 7f5a cb3b 34dc cf3d
00000170: 3cb7 3cbe 3ed8 17bd 9b4c 4cbd 7069 fdbd
00000180: 4618 a93c 2ba9 933d 5f8e 323d 357d 933d
00000190: 4cf5 4bbd bf80 dabd f71b 97bd a993 b2bb
000001a0: 3dc4 133d eff5 c7bd 03d0 533d c487 1abe
000001b0: 47af cf3d 1bd3 01bd d6eb 7cbd ae06 c03a
000001c0: ffd8 823d e037 e73d c04d 2a3e 4dee 57bd
000001d0: b6ef 99bd 5a40 aabd 0deb 1ebd c255 31bc
000001e0: bb99 92bd 8fc9 96bd 0c73 89bd 118a 853d
000001f0: afc9 47bd 12c8 513b fd32 1fbd eafa b53c
00000200: c41b 3dba e7e6 713c 0fca dcbd 7593 df3c
00000210: 7d68 943d 501f bf3c 8581 303c f01c 973d
00000220: bde4 1dbd cdd6 d5bc 92e3 73bc 6961 2bbe
00000230: 15bd fcbd cbe8 a83d a37f e73d 001f a63c
00000240: a92d 38bd e5de cc3d f183 1bbb 6db8 cf3d
00000250: d1af 5e3d e05f 93bd 7d65 70bb 0788 74bd
00000260: e95c d53c a71c 803d e5fe d0bd b187 343e
00000270: 8725 ab3d 236b b33d 2eb3 ecbb d543 793d
00000280: 341a d53d 4a64 0abd 7a06 2d3d 6fe7 30bd
00000290: 7fb7 38bc 15cc f23d bc4e 823b 0db7 93bd
000002a0: 20c7 0f3d c0aa 313e 65b6 c6bd dd8b 0b3d
000002b0: c77d fb3c 5b9e aabd 0e0d c73d b26b 9bbd
000002c0: 2308 5f3b f6ee ebbc 8418 1a3d 1364 c7bd
000002d0: b4f4 a93d c9c3 d0bd 0a40 c6bd e731 34bd
000002e0: d9b8 473d 00eb b0bc 041a c6bd 0b8f 8fbd
000002f0: e821 8f3b 67c6 e43c 11bb 953d 4fd7 ad3d
00000300: ab2a 91bc 374c d63c 3cac 723d 4db3 13bb
00000310: 4c20 b93c ecc6 023d c5af e0bc c53a 04bd
00000320: f1ec 5a3c 6686 48bd c3c9 abbb 29da 403c
00000330: 42c9 04be 5c19 08be bbe2 54bc b21e 603c
00000340: 903e 29bd 0b58 92bd dfc1 1dbc 6b59 973c
00000350: 2336 aa3d 897d 073e 7f17 ce3c 085e ab3c
00000360: 9094 8b3d 1632 9abd 0105 0bbe 111f 453c
00000370: 255a 87bd ecac 81bc 24e6 22bd d2dc cbbd
00000380: 6377 1dbd 7b37 f5bc b099 043c 660c 0c3e
00000390: 6c72 b2bd ef44 87ba d044 383d 25a8 1bbe
000003a0: f7b7 1c3d dccd 93bd e025 4bbe eb62 efbd
000003b0: 1bf2 27bd 83fc 8abd 5046 8d3c 29e4 15bd
000003c0: 6640 1a3e f7f8 9c3d 5c55 aabd 6878 703b
000003d0: 51f2 af3d 42b0 7bbb 27d0 9c3d 8d4a 573c
000003e0: 5a4c 90bc 5ed9 87bd 14e7 983c de78 b23d
000003f0: 7580 2a3e 1dba c7bc 0b12 743a 215b b33d

bias_ih f4 [512]
0.08235675 0.123900205 0.010021496 0.24719699 -0.03483591 0.14665468 0.13009764 0.30043212
0.26007915 0.12045206 0.014505074 0.12531129 0.055102676 0.24045582 0.028450157 0.13195258
0.08232523 0.05954284 0.15884604 0.09719382 0.13884784 -0.004453507 0.06905465 0.09023068
0.076488756 0.056432292 0.08063419 0.112875074 0.024210796 0.02827243 0.13445204 0.094059095
0.18345727 0.08479227 0.0094942385 0.05195809 0.17937985 0.09959398 0.034755282 0.1555226
0.108773805 0.037875317 0.14615367 0.25975668 0.20564662 0.0700669 0.1808 0.20373783
0.0952017 0.1761418 0.053339407 0.08996555 0.008363604 0.10058202 0.081090145 0.21254557
0.20727314 0.013489744 0.120817825 0.010956111 0.060602766 0.031402443 0.16885428 0.08682404
0.072485596 0.03213276 0.1291875 0.11375239 0.12800178 0.00651246 0.05988701 0.05433408
0.04552902 -0.02284 0.062928654 0.28805616 0.023212196 0.15744165 0.07279425 0.08207992
-0.015572172 0.15893978 0.13214323 0.06606592 0.13506484 0.0023697321 0.05610401 0.09557928
0.10910864 0.032251894 0.31682515 0.14656933 0.13929527 0.1474793 0.15534833 0.20710947
0.14563374 0.033857476 0.005571903 0.32443064 0.107143916 -0.009432934 0.012243412 0.12315067
0.049315076 0.07702932 0.115953475 0.13912894 0.08525476 0.18558317 0.13479668 0.024545172
0.0003803325 0.17398815 0.2088621 0.15086068 0.08586106 0.18323502 0.19014494 0.040145442
0.10096714 0.10147133 0.21629348 0.04977853 0.15800796 0.16546881 0.1652497 0.17767304
0.01784052 0.008596723 0.036584485 -0.1380822 0.00016495842 -0.10197829 -0.014867612 -0.08512581
-0.036247186 -0.109668076 -0.00049917033 0.011263769 0.115209945 -0.027694276 -0.023295749 -0.04582852
0.026940623 0.0003169773 -0.0420322 -0.115085125 0.06497565 -0.117121436 0.0017715993 0.0055818763
-0.010650115 -0.09776169 -0.09095258 -0.0890383 -0.08567949 -0.036209214 0.02881253 -0.071183786
-0.086275496 -0.03363045 0.017996864 0.0040355297 -0.060983486 -0.03450203 -0.07401593 -0.07031844
0.089046545 -0.13002864 -0.097400256 -0.027679544 -0.09041028 -0.124556355 -0.0068966122 -0.060642876
-0.11817712 -0.19912972 0.02547207 0.013028831 0.036227353 -0.122892514 0.0033208 0.019717684
-0.016652469 -0.04868986 -0.017310604 -0.14546604 -0.11075305 -0.027603913 -0.15470077 -0.033710107
0.00538083 -0.03312319 -0.037311446 -0.12190414 -0.0027774558 -0.08836998 -0.03692462 -0.08630358
-0.04106639 -0.13197197 -0.014549654 -0.106918626 0.03813481 0.03230888 -0.11498378 0.07850693
0.08784043 -0.1533054 0.066589914 -0.0028194715 -0.088101596 0.06423242 0.028891249 -0.09405586
0.0026344939 -0.027214272 -0.107316986 0.030627945 -0.04107414 -0.0723565 -0.08663965 -0.03033198
-0.030530378 0.07473345 0.009152513 -0.13516492 -0.058182806 -0.009929201 0.012938591 0.047279347
-0.07510842 -0.026243579 -0.03688237 0.008786239 -0.09374944 -0.14256185 -0.078296475 0.07346081
0.03529038 -0.00071958377 -0.15024199 0.032380737 0.056295026 0.039837282 -0.023226155 -0.055344988
-0.1093202 0.01347296 -0.09047465 -0.06716263 -0.0043341583 -0.13884224 0.03763384 -0.075887315
00000000: a8aa a83d 64bf fd3d 3331 243c 3521 7d3e
00000010: 19b0 0ebd a52c 163e 5138 053e 3dd2 993e
00000020: 1829 853e 92af f63d b1a6 6d3c 9a51 003e
00000030: 58b3 613d 0d3a 763e 4e10 e93c 941e 073e
00000040: 219a a83d 31e3 733d 89a8 223e 8e0d c73d
00000050: 212e 0e3e b9ee 91bb 866c 8d3d ddca b83d
00000060: 23a6 9c3d 8c25 673d 8a23 a53d 0c2b e73d
00000070: b855 c63c 959b e73c ccad 093e 0ea2 c03d
00000080: 39dc 3b3e 92a7 ad3d b98d 1b3c 02d2 543d
00000090: 5aaf 373e eef7 cb3d 8e5b 0e3d 5141 1f3e
000000a0: cdc4 de3d 2623 1b3d 4fa9 153e d4fe 843e
000000b0: 0795 523e 3c7f 8f3d a323 393e a6a0 503e
000000c0: 1cf9 c23d 845e 343e 6c7a 5a3d dc3f b83d
000000d0: 7f07 093c f2fd cd3d 9712 a63d 8ca5 593e
000000e0: 693f 543e 1604 5d3c 566f f73d 4381 333c
000000f0: 9b3a 783d d99f 003d 23e8 2c3e cdd0 b13d
00000100: 5473 943d a49d 033d ba49 043e 03f7 e83d
00000110: e612 033e 7966 d53b 154c 753d 6a8d 5e3d
00000120: a37c 3a3d f41a bbbc bde0 803d 197c 933e
00000130: 8127 be3c 6238 213e 2715 953d 8419 a83d
00000140: 6c22 7fbc 1cc1 223e 8e50 073e 924d 873d
00000150: 704e 0a3e 824d 1b3b 52cd 653d 12bf c33d
00000160: 5a74 df3d 901a 043d e836 a23e 4516 163e
00000170: 6ba3 0e3e d004 173e a213 1f3e 8114 543e
00000180: 0321 153e 23ae 0a3d 8394 b63b c61b a63e
00000190: 456e db3d 988c 1abc 9898 483c 6b36 fc3d
000001a0: 9bfe 493d 8cc1 9d3d 0479 ed3d d177 0e3e
000001b0: 0c9a ae3d 8409 3e3e 2408 0a3e f512 c93c
000001c0: 5d67 c739 f329 323e f2df 553e 397b 1a3e
000001d0: ecd7 af3d f6a1 3b3e 5bb5 423e 8c6f 243d
000001e0: dcc7 ce3d 33d0 cf3d 0a7c 5d3e 92e4 4b3d
000001f0: d7cc 213e a870 293e 3837 293e ecef 353e
00000200: 4826 923c 45d9 0c3c 9dd9 153d 6c65 0dbe
00000210: b0f8 2c39 fed9 d0bd 4997 73bc 7156 aebd
00000220: ee77 14bd a899 e0bd c1da 02ba ac8b 383c
00000230: 31f3 eb3d 1bdf e2bc bad6 bebc b0b6 3bbd
00000240: 95b2 dc3c f92f a639 f529 2cbd c0b1 ebbd
00000250: f411 853d 5ddd efbd 0235 e83a 2ce8 b63b
00000260: d27d 2ebc 4837 c8bd 5945 babd b659 b6bd
00000270: ba78 afbd 1d50 14bd 4108 ec3c cec8 91bd
00000280: 35b1 b0bd 15c0 09bd 296e 933c 7a3c 843b
00000290: d2c9 79bd 0052 0dbd aa95 97bd 1d03 90bd
000002a0: 095e b63d 3a26 05be c979 c7bd 36c0 e2bc
000002b0: 0629 b9bd 6717 ffbd fafc e1bb aa64 78bd
000002c0: d906 f2bd a9e8 4bbe cdaa d03c e176 553c
000002d0: 2263 143d 12af fbbd c7a1 593b fb86 a13c
000002e0: c26a 88bc 056f 47bd f8ce 8dbc 0df5 14be
000002f0: 7fd2 e2bd 9a21 e2bc e169 1ebe 9c13 0abd
00000300: ac51 b03b 2fac 07bd e3d3 18bd e1a8 f9bd
00000310: fa05 36bb 52fb b4bd 453e 17bd eebf b0bd
00000320: 3b35 28bd a923 07be ac61 6ebc 27f8 dabd
00000330: 3f33 1c3d 5156 043d 9e7c ebbd 3ec8 a03d
00000340: afe5 b33d 17fc 1cbe 4b60 883d e2c6 38bb
00000350: 9c6e b4bd 498c 833d 57ad ec3c 5ca0 c0bd
00000360: 79a7 2c3b 77f0 debc 02c9 dbbd 75e7 fa3c
00000370: 5c3d 28bd a52f 94bd 2170 b1bd c67a f8bc
00000380: d81a fabc da0d 993d 6cf4 153c ac68 0abe
00000390: 1851 6ebd 16ae 22bc 62fc 533c fda7 413d
000003a0: 71d2 99bd c6fc d6bc f811 17bd 28f4 0f3c
000003b0: b5ff bfbd bcfb 11be e759 a0bd 9f72 963d
000003c0: a58c 103d 73a2 3cba 09d9 19be aaa1 043d
000003d0: 9d95 663d 6b2c 233d c744 bebc 6db1 62bd
000003e0: 45e3 dfbd b1bd 5c3c c64a b9bd 908c 89bd
000003f0: 8e05 8ebb a92c 0ebe f125 1a3d cf6a 9bbd

bias_hh f4 [512]
0.16858071 0.12424187 0.095828265 0.3432977 0.046230193 0.22697122 0.1128678 0.20620011
0.25473893 0.098476276 0.114029974 0.038470257 -0.037023537 0.17222379 -0.014211539 0.115624264
0.08668963 0.06644038 0.07120118 0.19029269 0.08031082 0.12390675 0.0906339 -0.036985163
0.12586077 0.20824756 0.12950088 0.082585245 0.07139373 0.055924132 0.20101711 0.14666662
0.13964811 0.12923035 -0.027893111 0.17951792 0.10939387 0.13755667 -0.003360825 0.22299995
0.056484517 -0.008901449 0.13787617 0.22854775 0.1611257 0.14570118 0.17600806 0.17156452
0.008329873 0.19993034 0.026067728 0.024375457 -0.027939508 0.13216037 0.040857032 0.13360602
0.16875993 -0.006182279 0.10215199 0.16435464 0.14481007 0.04760502 0.22757454 0.049005203
0.1843298 0.118866734 -0.020307986 0.21290165 0.095034376 0.055135727 0.11461448 0.105753
0.09397982 0.047948223 0.032819144 0.18461561 0.041759882 0.123277046 0.14814661 0.08394566
0.07634596 0.20695654 0.03413897 0.06400687 0.19081382 0.0981943 0.1569957 0.049199946
0.011405233 0.075510524 0.1866686 0.109863475 -0.0069997692 0.20090684 0.08330572 0.19924097
0.1034974 0.0388318 0.047531527 0.32808053 -0.011219705 0.14997585 0.080993704 0.108652055
0.17082545 0.0641682 0.17530523 0.16818766 0.22638752 0.18360966 0.16730034 0.08689444
0.15055585 0.14894281 0.29492217 0.12597878 0.16616482 0.09986273 0.12666412 0.025504012
0.16116314 0.23670305 0.2098977 0.2139357 0.13210857 0.17885295 0.058252502 0.1884217
-0.029518701 -0.09097981 0.039475698 -0.00063263107 -0.031598713 -0.07906386 -0.14321966 -0.11798089
-0.07428219 -0.026868036 -0.09434806 -0.058653213 0.025799781 -0.08678188 0.017122857 -0.0049099997
-0.06543065 -0.061136764 0.01963649 -0.09028658 0.022350414 -0.017176634 -0.05497406 0.038627114
-0.01432003 -0.113716945 0.031582784 -0.08365069 -0.0061474196 -0.07999942 0.0016095097 0.034286015
0.019148253 -0.12454049 0.037135214 -0.047314994 -0.06132279 0.055597518 -0.08547765 0.055488713
0.0923791 -0.13624367 0.019613927 -0.10585957 -0.09333779 -0.10844258 -0.11244888 -0.03340418
-0.07895402 -0.14769147 -0.10610371 -0.11483687 0.029540908 0.008323728 -0.055327393 -0.037174918
-0.0790183 0.08304712 -0.030089008 -0.022122813 -0.048752137 -0.037261903 -0.03954049 -0.01999487
-0.009924561 0.039385192 -0.060456883 -0.08210123 -0.096314274 -0.007281322 0.023272455 -0.014005411
-0.03475726 -0.08476025 -0.038826574 -0.1072601 -0.037245106 -0.08096431 -0.06697048 -0.024071543
0.045634583 -0.16525786 0.0026938117 -0.100985825 -0.041502763 0.03474659 0.06018989 -0.10402942
-0.053478256 -0.07014994 -0.005492969 -0.06576038 -3.9445895e-05 -0.098721616 -0.040466823 0.042405095
0.013459565 0.04932118 0.07316581 -0.16220278 0.08098717 -0.007387807 -0.053519346 -0.08634105
-0.08435551 -0.03418081 -0.07983543 0.03925309 0.023013175 -0.027320938 0.06903163 -0.061363168
0.06688174 -0.08403515 -0.0075278673 0.035644565 0.031565834 0.0365371 0.011783563 -0.09556149
-0.07258702 -0.007005876 -0.049530044 -0.03891602 -0.11587081 -0.18771629 0.05442829 -0.11298432
00000000: 6ca0 2c3e 8672 fe3d 9c41 c43d b7c4 af3e
00000010: df5b 3d3d 256b 683e 3c27 e73d 1f26 533e
00000020: 246d 823e eead c93d 8c88 e93d fd92 1d3d
00000030: fea5 17bd 6f5b 303e 84d7 68bc 6acc ec3d
00000040: 558a b13d e511 883d edd1 913d 16dc 423e
00000050: 007a a43d d2c2 fd3d 449e b93d c17d 17bd
00000060: a5e1 003e d93e 553e e19b 043e 7422 a93d
00000070: e036 923d b410 653d 6ed7 4d3e c62f 163e
00000080: eaff 0e3e f654 043e 1880 e4bc 8cd3 373e
00000090: e509 e03d a8db 0c3e 4941 5cbb 195a 643e
000000a0: 4f5c 673d 62d7 11bc 692f 0d3e 6c08 6a3e
000000b0: 23fe 243e b132 153e 753b 343e 9cae 2f3e
000000c0: 057a 083c 8aba 4c3e fd8b d53c 0aaf c73c
000000d0: 65e1 e4bc 0c55 073e b459 273d 04d0 083e
000000e0: 67cf 2c3e b794 cabb 1035 d13d 954c 283e
000000f0: 1749 143e 7bfd 423d 4d09 693e aeb9 483d
00000100: f3c0 3c3e 6770 f33d ef5c a6bc e402 5a3e
00000110: 62a1 c23d 00d6 613d ffba ea3d 0795 d83d
00000120: 7e78 c03d 5b65 443d 5e6d 063d e00b 3d3e
00000130: 690c 2b3d ad78 fc3d bfb3 173e b4eb ab3d
00000140: 455b 9c3d 6aec 533e 4ed5 0b3d 0916 833d
00000150: b364 433e 181a c93d 7bc3 203e e285 493d
00000160: 04dd 3a3c 43a5 9a3d 0e26 3f3e 1a00 e13d
00000170: 525e e5bb 86ba 4d3e 309c aa3d d305 4c3e
00000180: 72f6 d33d 180e 1f3d 6bb0 423d 2cfa a73e
00000190: dbd2 37bc 4593 193e 07e0 a53d f884 de3d
000001a0: deec 2e3e 9e6a 833d 3783 333e 6339 2c3e
000001b0: 21d2 673e 2c04 3c3e c850 2b3e b6f5 b13d
000001c0: 502b 1a3e 7784 183e 0a00 973e 9500 013e
000001d0: 1c27 2a3e d584 cc3d 3db4 013e caed d03c
000001e0: f307 253e 4962 723e 6cef 563e f611 5b3e
000001f0: 7847 073e 3a25 373e 2d9a 6e3d 9ef1 403e
00000200: 34d1 f1bc 9f53 babd 45b1 213d 27d7 25ba
00000210: a76d 01bd 3cec a1bd 2da8 12be f79f f1bd
00000220: 4321 98bd 5b1a dcbc 8e39 c1bd 5a3e 70bd
00000230: 105a d33c b3ba b1bd 3c45 8c3c 10e4 a0bb
00000240: 8100 86bd 8b6a 7abd b4dc a03c 2ce8 b8bd
00000250: 3718 b73c 03b6 8cbc 7b2c 61bd 7737 1e3d
00000260: 8f9e 6abc 6ee4 e8bd f35c 013d 0e51 abbd
00000270: 4b70 c9bb bcd6 a3bd 2ff6 d23a 7e6f 0c3d
00000280: ccdc 9c3c 160f ffbd 181b 183d 5ecd 41bd
00000290: 9b2d 7bbd 39ba 633d e80e afbd 2248 633d
000002a0: 4131 bd3d 7683 0bbe 63ad a03c e7cc d8bd
000002b0: e227 bfbd 2517 debd 994b e6bd d2d2 08bd
000002c0: a5b2 a1bd 6f3c 17be e74c d9bd 982f ebbd
000002d0: c6ff f13c 3f60 083c fa9e 62bd ba44 18bd
000002e0: 59d4 a1bd 9c14 aa3d 397d f6bc e73a b5bc
000002f0: 52b0 47bd f09f 18bd 35f5 21bd 48cc a3bc
00000300: a09a 22bc 5e52 213d a3a1 77bd b124 a8bd
00000310: 6b40 c5bd 2898 eebb e0a5 be3c f476 65bc
00000320: a15d 0ebd c896 adbd 9d08 1fbd 2fab dbbd
00000330: 538e 18bd 9ed0 a5bd d227 89bd af31 c5bc
00000340: 54eb 3a3d 5b39 29be a98a 303b a8d1 cebd
00000350: cdfe 29bd 7152 0e3d ad89 763d 600d d5bd
00000360: 040c 5bbd c6aa 8fbd 5dfe b3bb 61ad 86bd
00000370: b572 25b8 8f2e cabd 8ac0 25bd f7b0 2d3d
00000380: 8285 5c3c 0105 4a3d f5d7 953d 7c18 26be
00000390: 9adc a53d 6b15 f2bb 1a37 5bbd 94d3 b0bd
000003a0: 95c2 acbd 2d01 0cbd c280 a3bd d9c7 203d
000003b0: 2086 bc3c 29d0 dfbc 7560 8d3d f257 7bbd
000003c0: 4bf9 883d 9f1a acbd 54ac f6bb 0900 123d
000003d0: 2d4b 013d eda7 153d d80f 413c beb5 c3bd
000003e0: 81a8 94bd 8c91 e5bb 04e0 4abd 6866 1fbd
000003f0: ad4d edbd b338 40be 33f0 5e3d 5364 e7bd
