logs/fgb_vary_horizon/2/actor.pt (torch, 906162 bytes, 17 tensors)

weight_ih f4 [512, 48]
000000 23 55 99 39 81 3a 8b 3d 5f c9 b7 bd 96 d4 15 be
       0.00029245866 0.06798268 -0.08973955 -0.14631876
000010 bf 9d 37 bd 78 45 0a 3a 08 25 30 3d ad cb e6 3d
       -0.044828173 0.0005274634 0.043004066 0.11269317
000020 26 29 59 3b 23 41 b1 3c 61 da 80 3d c6 0c 67 bd
       0.0033136099 0.021637505 0.062916525 -0.056408666
000030 52 cc f3 bc bf e8 19 bd 75 ab ef bd f0 ec 6f bc
       -0.029760513 -0.03757548 -0.11702625 -0.014643893
000040 31 78 7c 3d c3 30 43 3d ae 0b 3c bd 07 8f ce bd
       0.06163806 0.047653925 -0.045909576 -0.10085874
000050 b9 75 ab 3c c8 99 b8 3d 2d 5e ef bc 68 ed d5 3d
       0.020930158 0.090137064 -0.029219711 0.10445672
000060 d3 12 ba bb 12 60 49 bd 7e d8 ac 3d 7f 04 18 be
       -0.0056785136 -0.049163885 0.0843973 -0.14845465
000070 e1 dd e0 bc 99 5f 31 bd 98 cb a4 bd 46 75 ee 3d
       -0.02744955 -0.04330406 -0.08046645 0.11643462
000080 65 3d d3 bd 51 86 59 bd 4b ff 40 bd 99 1d be bd
       -0.103144445 -0.05310661 -0.047118466 -0.09282989
000090 42 14 95 bd 6a e2 50 3d 01 a2 07 3d 91 f4 95 3c
       -0.072792545 0.050997175 0.033113483 0.018305095
0000a0 ba fa 08 bd d9 e1 17 bd 73 72 e7 3c 34 19 5b bd
       -0.033442236 -0.03708062 0.028252816 -0.053490832
0000b0 47 ff 41 bd d5 e9 9a bc 1e 0a 87 3d bd 4a 98 3d
       -0.047362592 -0.018910328 0.065937266 0.0743613
0000c0 62 ca 37 bd 36 d6 2f 3d d7 ae 1a 3d b6 38 eb 3d
       -0.04487074 0.042928897 0.037764397 0.11485426
0000d0 1c 41 9a 3d 3e 18 8c 3d 9f fb 9d 3d 79 26 37 bd
       0.0753195 0.06840561 0.077140085 -0.044714425
0000e0 cd 88 e6 3c d3 9e df bd 9f 7b 09 bd c8 a5 a7 bd
       0.028141404 -0.10918965 -0.03356516 -0.08185917
0000f0 c3 62 0a 3d db fb 30 3d c5 a9 9f bd f9 2f 5f 3d
       0.033785593 0.043208938 -0.07796053 0.05448911
000100 6a 8b 29 3e 37 8c 15 bd 98 9a e8 bd ef 00 ba 3d
       0.16557088 -0.036510672 -0.113576114 0.09082209
000110 16 aa 85 3d 9c 76 d0 3d a3 bf 37 bd 44 84 c7 bd
       0.06526582 0.10178873 -0.044860493 -0.097420245
000120 41 1e a7 bd b1 76 a7 3d 90 fb 09 3c 9d e7 39 3d
       -0.08160067 0.081769355 0.008421794 0.0453869
000130 eb 1f 8a bd 9d 4e cb bd 1b b9 02 3d 7a 60 cb bd
       -0.06744369 -0.09927104 0.03191481 -0.09930511
000140 5c 00 5e bd 64 ee c7 3d b8 0e 92 3d 01 c6 ba bd
       -0.05419956 0.09762266 0.07131714 -0.091197975
000150 23 af 19 3a 0f 59 2c 3c e7 18 d1 bb 13 ae 1b bd
       0.0005862584 0.01051928 -0.0063811424 -0.038007807
000160 91 43 27 3d ad 8b fd bc c0 46 2e 3d c2 09 5c 3d
       0.04083592 -0.030950392 0.04254794 0.053720243
000170 64 5a 8d 3d a6 78 ab 3c a6 89 e0 bd 8b f8 8e bd
       0.06902006 0.020931553 -0.10963754 -0.069809996
000180 98 8e a8 3c 36 74 8d 3d 2c 7e d5 3b 8d 61 93 bd
       0.020575806 0.06906931 0.006515285 -0.07196341
000190 46 f9 27 3d 03 fd 8a 3d 65 b0 90 bc dc 2b 61 bd
       0.04100921 0.067865394 -0.017662236 -0.05497347
0001a0 2a 19 37 bd 5f e2 94 3c 21 33 8d bd c2 24 b3 bd
       -0.044701733 0.018174348 -0.06894518 -0.08747245
0001b0 32 e4 1f 3d 69 03 83 3b 3f 74 46 bd 1d 85 0e 3c
       0.039035983 0.0039982093 -0.048450705 0.008698729
0001c0 09 b0 09 be f7 05 d8 3d f1 73 0b 3e 85 b9 c7 bd
       -0.13446058 0.10548013 0.13618447 -0.09752182
0001d0 ef 8c 09 bd ce fa a9 3c 8d 2b c8 bb 81 0a 5a 3c
       -0.03358167 0.020749476 -0.0061087073 0.013308168
0001e0 1a b0 61 3d 26 5a 32 3d a2 4c ae bd fe 25 9f bc
       0.055099584 0.043543003 -0.0851071 -0.019427296
0001f0 21 90 eb bd 6d 54 62 bd 3e 94 7a 3b 08 00 ce bc
       -0.115021 -0.055256296 0.0038235332 -0.0251465
000200 87 56 16 bd e3 90 18 bd 83 11 49 bc 2b f9 2b 3c
       -0.036703613 -0.03724755 -0.0122722415 0.010496418
000210 a2 38 8a bd 90 b7 62 bc da d0 89 3d d2 31 00 bc
       -0.06749083 -0.01383771 0.067292884 -0.007824378
000220 4b 32 dc 3a 21 6e e2 bc 09 be 34 3c 35 fb 7e 3d
       0.0016799656 -0.027640404 0.011031636 0.06225129
000230 5d b6 ef 3d 1c a1 a9 3d 84 bd d3 3d f0 f8 7d 3b
       0.11704705 0.08282682 0.103388816 0.0038753115
000240 17 a5 90 bd b2 b5 16 bd 2f 78 4a 3d 83 ac 40 bb
       -0.070627384 -0.036794372 0.049431022 -0.00293997
000250 95 63 c9 bc 6b 58 84 bd 33 d8 b0 bd 11 f8 06 be
       -0.024583617 -0.06462177 -0.08634987 -0.13180567
000260 b7 14 60 ba 84 df 83 3d 9e 1f fd 3c d7 b0 9f bd
       -0.00085480086 0.064391166 0.030898865 -0.077974014
000270 fb 99 9a 3d 36 a0 76 bd 0a 1e 4a bd 8c e5 bd bd
       0.07548901 -0.060211383 -0.049345054 -0.09272298
000280 48 50 50 bd e7 ab e1 bc 16 4b ef bc 75 30 d3 bd
       -0.050857812 -0.02754779 -0.029210608 -0.10311977
000290 cd 9c 41 3c cb e3 a3 bc b1 32 8f bd 03 76 81 3d
       0.011817169 -0.020006081 -0.069920905 0.06321337
0002a0 9c 4b 8e bd 5f 20 bd bc 35 4c 8c 3c 8e f7 8d bd
       -0.06948015 -0.023086725 0.017126182 -0.06931983
0002b0 28 55 b1 3d b9 33 17 3d b7 16 a9 bd 01 51 a2 3d
       0.086588204 0.03691456 -0.08256286 0.079256065
0002c0 48 ab cb bb dd e4 6f bd e1 0d 8b 3d 4e dd 6b bd
       -0.0062154867 -0.05856787 0.067897566 -0.0575841
0002d0 aa 41 bc 3c 8b 66 0f bb 17 5f 9d 3d b9 32 1b 3d
       0.02298053 -0.0021881189 0.076841526 0.03789017
0002e0 2f 2d 6c 3d fa 5b 9a 3d a4 a1 16 3c 00 bd b4 3c
       0.057660278 0.075370744 0.009193812 0.022062778
0002f0 b2 a0 32 bd 3b 68 9a 3d a5 b8 b7 3d c5 15 94 3d
       -0.043610282 0.07539412 0.08970765 0.07230715
000300 31 74 c4 bd cb 30 15 3e 3b fd 03 be 9d d8 fa bd
       -0.09592474 0.14569394 -0.12889569 -0.12248347
000310 f8 33 e4 bc 49 23 01 3d 00 ae a2 bc 94 1d bd bd
       -0.027856812 0.03152779 -0.01985836 -0.09234157
000320 28 f4 29 3c cf 16 12 3e 6c 00 ea 3c eb bf 03 be
       0.010373153 0.14266513 0.028564654 -0.1286618
000330 3f 06 73 bd 16 fe 12 3d 32 ba a8 3d 27 bc c7 3b
       -0.05933213 0.035886846 0.08238639 0.0060954276
000340 23 52 e3 3d 11 e7 f9 3d 89 b1 f7 bc f0 0f e9 bd
       0.11099651 0.122022755 -0.030236023 -0.11379993
000350 22 6c 20 bd e9 43 67 bd b5 32 8c 3d 48 4b 64 3c
       -0.039165623 -0.05646125 0.06845609 0.013933964
000360 4a 91 89 bd de f3 64 ba 1f 80 8b 3d 38 da 1e be
       -0.06717165 -0.0008733849 0.068115465 -0.15512931
000370 2e 49 0c 3d bb 78 e8 3d 96 fa 3f 39 99 9f 65 3d
       0.034249477 0.113511525 0.0001830853 0.056060407
000380 54 0d 0d be c8 13 9f 3d ed 11 96 bc 67 7e c2 bc
       -0.13774616 0.07767445 -0.018319095 -0.023741914
000390 d1 3c f2 bc be c0 62 bc 95 da 02 3b fb b2 a2 3d
       -0.029570015 -0.013839899 0.001996671 0.07944294
0003a0 cf 46 ef 3c 47 79 c1 3d 57 c4 8e 3d 59 ab 71 bd
       0.029208569 0.0944696 0.069710426 -0.0590013
0003b0 2a 0b 03 3d 6a 78 92 bd 38 86 13 bd c4 a8 ba 3a
       0.03199307 -0.071518734 -0.036016673 0.001424097
0003c0 1a 98 cc 3c 4a 82 ef 3d 30 c2 e6 bb ba 1c 0e bc
       0.024974871 0.116947725 -0.007042192 -0.008673841
0003d0 66 7d 3e 3d 9e cc 49 bd 10 86 fd 3d 1c e8 c4 bd
       0.046506308 -0.049267404 0.12379086 -0.09614584
0003e0 c9 54 15 3d a3 7f ab bc de a1 81 bc 75 42 a7 3b
       0.03645781 -0.020934885 -0.015824255 0.005104358
0003f0 3c 4a 31 3d 1a a1 ef bc ed da 19 bd 11 be 83 3b
       0.043283686 -0.029251624 -0.0375623 0.0040204604

weight_hh f4 [512, 128]
000000 8e c0 b7 bd 2c c4 ee bc 83 84 01 bd a6 65 39 3c
       -0.08972274 -0.029146276 -0.031620514 0.011315739
000010 dd 8a 98 bc 32 4b fa bc bf 1a 19 3d 29 1a e5 bc
       -0.018620903 -0.030553434 0.037379023 -0.027966576
000020 10 2c ce 3d 57 95 b8 3d 3a 7c be bc 7d ee ad bc
       0.10066998 0.09012859 -0.023252595 -0.021231884
000030 a7 17 16 3d 6f 7b 25 3c 3f 87 a0 3c ca 7f af 3d
       0.03664365 0.01010023 0.01959574 0.08569296
000040 e7 cc d9 3d 7a 3c 50 3c 37 93 f3 3c d8 4f d9 bb
       0.10634785 0.012709731 0.029733283 -0.0066318326
000050 c0 38 ab ba af 5e 47 3d a4 3c ee 3d f3 a2 bb 3c
       -0.0013063177 0.04867428 0.1163266 0.022904849
000060 90 fd 00 bd a7 58 e0 bc e8 d5 41 bd 15 82 55 3d
       -0.031491816 -0.027386023 -0.047323138 0.05212601
000070 85 f4 03 bd f6 c9 15 3d 51 19 1f 3d db 27 a8 bd
       -0.032215614 0.036569558 0.038842503 -0.08210727
000080 99 33 80 3b d9 c9 da bd f3 44 8c bd 5b 9d f6 bd
       0.003912401 -0.10683031 -0.068490885 -0.12041732
000090 f3 5e 8e 3d e6 5f 43 bd 25 da b0 3b d9 e3 13 bd
       0.06951704 -0.047698878 0.0053970986 -0.036105964
0000a0 d4 35 4a 3d 5b d6 c0 bc 9f 2e 24 3d a4 88 97 3c
       0.04936774 -0.023539713 0.040083524 0.018497773
0000b0 99 df c3 3d 50 70 4f 3d 90 bc b1 3c e5 7c bb 3d
       0.09564132 0.05064422 0.021696359 0.09154681
0000c0 d3 9a 18 3d c3 5f 44 3d f9 e3 5f 3d fa 6d 9b 3c
       0.037257027 0.047942888 0.05466077 0.01897334
0000d0 79 4e 9c bd c5 43 36 3d 27 ca 2b bd 11 1d 24 3d
       -0.07632155 0.044498224 -0.041940834 0.040066782
0000e0 8d 94 60 3c 33 f2 72 bd 99 44 e6 3c 05 f5 91 bd
       0.013707292 -0.05931301 0.028108882 -0.07126812
0000f0 91 fc 97 bd a1 b4 5d bc fc 91 0c 3c 9b 3c b0 3c
       -0.0742122 -0.013531835 0.008579727 0.021513274
000100 ac bd fd bc 11 df a9 3d ad 28 ab 3c 72 03 a6 3d
       -0.030974232 0.082945 0.02089342 0.08106126
000110 3b d2 02 bd 10 cb a3 bd 9a f0 8a b9 0e 8a d0 bc
       -0.031938773 -0.079977155 -0.00026500673 -0.025456455
000120 6b c2 ab bd d1 bc b3 bd 88 38 04 3d 49 0a 8a 3c
       -0.08386692 -0.08776248 0.032280475 0.016850607
000130 d1 7f 42 bd 72 4c a0 bc 98 e5 c1 bc 87 43 73 3d
       -0.047485176 -0.019567702 -0.02366905 0.05939057
000140 61 a9 8f 3d 55 5c 8b bc ff d9 87 3b 95 e3 6a 3d
       0.07014728 -0.0170118 0.00414586 0.057345945
000150 08 5a 0d bc 68 66 ba 3d 2e c9 b8 bd 9d b1 15 bd
       -0.008627422 0.09101564 -0.09022747 -0.03654634
000160 aa 25 a3 3c 8c a2 c2 3d 3e d5 b9 bd eb 1b 84 3d
       0.01991542 0.095036596 -0.09073876 0.064506374
000170 31 37 4b 3d d7 49 85 bc 5d be 02 bd 7b 32 d7 3c
       0.04961318 -0.016270561 -0.031919826 0.026269188
000180 84 ce be bd 67 e9 93 bd 18 c9 be bd 09 b2 af bd
       -0.093167335 -0.07222252 -0.09315699 -0.085788794
000190 e3 ff cd 3d bc ff a9 3c cd 5c ac 3d ed 6d 03 bd
       0.10058572 0.020751826 0.08416138 -0.032087255
0001a0 e6 43 85 3c 47 82 86 bd 19 b6 ad bc ab 5c 05 3e
       0.016267728 -0.06567817 -0.021204995 0.13023631
0001b0 a9 6c 99 3d 0e bb b1 bd 67 4d 9a bd ab 38 97 3d
       0.074914284 -0.08678256 -0.075342946 0.073838554
0001c0 8b 37 cb bc f0 c5 61 3d 94 44 45 bd db 57 9c 3c
       -0.024806758 0.05512041 -0.048161104 0.019084862
0001d0 a0 8a 2b 3c 69 1e 99 bd 16 cc e2 3c 07 8e 6c bc
       0.0104700625 -0.074765034 0.027685206 -0.014438159
0001e0 87 c8 9b bd cb 53 45 bd 49 6b 1e 3d 9e d5 54 bd
       -0.07606607 -0.048175614 0.038676534 -0.051961534
0001f0 d1 24 a9 bd 9d f6 87 3d 3e e9 63 bd d7 f8 38 3d
       -0.08258975 0.066388346 -0.05564236 0.045159187
000200 72 1b 85 bd 8e 1f d4 3c a0 8b 45 bd 27 e5 70 3d
       -0.064993754 0.025893953 -0.04822886 0.058812287
000210 2d a4 03 3d 7b b9 d8 3c 81 d6 44 bc f3 4f d1 3d
       0.032138992 0.026455631 -0.012014032 0.10220327
000220 16 1c f6 3d 63 a3 d0 3c 22 0b 77 bd 4b 20 cb 3d
       0.12017076 0.025468534 -0.06031335 0.09918269
000230 cc 3d 4e bd 69 60 16 bd 9d 7c 74 3c 41 33 1e 3d
       -0.050351903 -0.036713038 0.014922288 0.0386231
000240 75 4d 9b bc 73 9f 17 3c 27 f3 33 3d ff ee dc bc
       -0.018957833 0.009254324 0.04393306 -0.026969431
000250 db cb 8f bd 42 0a d0 3c fa dc 12 bd 69 e1 69 bd
       -0.07021304 0.025395516 -0.03585527 -0.057099734
000260 e2 b6 fb 3c c1 12 43 3d 0b 64 7a bc b9 82 4a bc
       0.030726854 0.047625307 -0.015282641 -0.012360268
000270 b7 d0 2b bd 5a 81 8c 37 40 63 a1 bd f4 81 df bd
       -0.041947093 1.6749535e-05 -0.078802586 -0.109134585
000280 29 4e 51 bd f5 7e 6e bc 1b 69 1c 3d 21 d2 9e bd
       -0.05109993 -0.014556636 0.038186174 -0.07754923
000290 77 10 d5 bc bc db 98 3b 50 f9 e2 bc 03 0d 48 3c
       -0.026008828 0.0046648663 -0.027706772 0.0122101335
0002a0 f0 c9 8a bd 3e c6 36 bc 13 ed 27 3a 0a 30 95 bc
       -0.06776798 -0.011155663 0.0006405871 -0.018211383
0002b0 33 73 77 3d 24 9a 95 bd 1d ff 9a 3d 84 07 a2 3d
       0.060412597 -0.073047906 0.0756819 0.0791159
0002c0 f9 53 2f 3d e7 ab 45 3d 96 41 74 3c 7e 76 cb bd
       0.042804692 0.048259642 0.014908215 -0.0993471
0002d0 e0 4f 34 bd 9b 1f 56 3d ea 7a 97 bb dc 8e be bb
       -0.044021487 0.052276235 -0.004622807 -0.00581537
0002e0 11 e0 3c bd d6 89 f4 3c 0a 1a 58 bc 6d 2d 90 bd
       -0.046112124 0.029850882 -0.013189802 -0.07039914
0002f0 9c f5 0f bc 18 88 ee bd 0e 6f d7 3c 70 1f 89 bc
       -0.008786585 -0.116470516 0.026298072 -0.016738623
000300 97 6b c8 3b 15 c1 b1 bc 44 a9 a6 3d 6e 0d 7a bb
       0.0061163413 -0.021698514 0.081377536 -0.0038154977
000310 a0 c3 b4 bd ef 00 48 3d af 25 18 bd 76 11 4a bd
       -0.08826375 0.048829015 -0.037145313 -0.04933306
000320 56 c8 f1 bc 92 84 f1 39 15 04 97 3d 73 bc de bc
       -0.029514473 0.00046065875 0.073738255 -0.027189469
000330 23 66 34 3d 89 81 ef 3b c8 ed 90 3d cc 2b aa 3d
       0.044042718 0.007309143 0.07076603 0.08309135
000340 21 bd 0f 3b f4 0c d5 bc 1d 55 67 3d 9e 62 ae bd
       0.0021932798 -0.026007153 0.056477655 -0.085149035
000350 12 8e 2e bb 1e 27 cb 3d 13 53 1a 3d 0d 86 3b 3d
       -0.0026634973 0.099195704 0.037676882 0.045782138
000360 d8 34 cf bd ac 2e ad 3d 89 fa f2 bc 89 3f e4 3d
       -0.10117501 0.084561676 -0.02966048 0.11144931
000370 4e 56 1c 3c fe 09 aa bc 23 45 cf 3c 9f 59 cf bb
       0.009542061 -0.020756718 0.025301522 -0.0063278223
000380 f0 bb 16 3d 0c b2 b3 3b 9a a4 a1 bd 07 82 5d 3a
       0.036800325 0.0054838713 -0.078927234 0.00084498565
000390 59 d5 4d bb 79 a9 7d bd 6a 1b 10 bb f9 62 d5 bd
       -0.0031407683 -0.0619292 -0.0021988996 -0.10419268
0003a0 d0 87 a4 3b da 50 24 3b 91 a5 e8 bc 67 dc b5 bc
       0.005021073 0.0025072605 -0.02839926 -0.022199823
0003b0 af b9 e4 3c 85 a4 b5 3c 42 6a 85 bd ae e8 38 3c
       0.027920572 0.022173176 -0.06514408 0.011285944
0003c0 71 a5 6a bd c8 b3 8a 3d e2 64 c2 bd 51 80 38 bc
       -0.057286683 0.06772572 -0.09491898 -0.011261062
0003d0 c0 f4 ca 3c 7c 8d e9 bd be 4e 29 bb 3e f8 2e 3d
       0.024774909 -0.11403939 -0.0025834288 0.04271721
0003e0 e4 f0 c6 bc 9d 35 fd 3c a9 32 8e 3b 8d 37 8c 3b
       -0.024284787 0.030909354 0.0043395353 0.004279083
0003f0 01 83 8b bd e2 32 d9 3d e1 80 b3 bd 43 b4 81 bc
       -0.068120964 0.10605408 -0.08764816 -0.015833026

bias_ih f4 [512]
000000 64 39 c8 3d cc 36 0a 3e 84 07 b0 3b 7a 0d 7e bd
       0.097765714 0.13497466 0.0053719897 -0.06202457
000010 41 0d d3 3d c1 42 8e 3d b9 72 49 3d d2 9c bb 3d
       0.10305262 0.06946326 0.049181674 0.091607705
000020 51 d1 3a 3d 1a 39 db 3b 5f 5e 01 bd eb 16 b4 3c
       0.045609776 0.0066901566 -0.03158414 0.021983584
000030 4d cf 64 3d ea 50 61 3d 9f 1a cd bc cf 5e cd 3c
       0.05586176 0.055008806 -0.025037108 0.025069622
000040 a7 6c 26 3d 7f 15 8d 3c 51 4e 9f 3d cd 6d e7 bb
       0.040630963 0.017222164 0.077786095 -0.00706265
000050 2c ce 74 3d b9 fd 11 bc a6 1f 19 3e a9 fe b6 3d
       0.059766933 -0.00891059 0.14953479 0.08935291
000060 e2 d0 90 bc f5 c8 bb 3d 14 2b 00 bd 20 8d 1a 3d
       -0.017677728 0.09169189 -0.031291083 0.037732244
000070 5b 77 de 3d b5 25 a6 3d a6 c1 98 ba ff 7b 05 3d
       0.10862609 0.08112661 -0.0011654391 0.032588955
000080 b0 0b 6d 3c 50 27 92 bc cf 6e f1 3d 3f f6 99 3c
       0.014468119 -0.017841011 0.11788713 0.018794177
000090 44 16 ff 3d 08 2a 0a 3e 21 51 42 3d 0f 30 c5 3d
       0.12455419 0.13492596 0.04744065 0.09628307
0000a0 f9 c3 d4 bc 91 28 55 bd f0 72 88 bc a7 b8 a1 3c
       -0.025972353 -0.05204064 -0.016656369 0.01974137
0000b0 e8 37 ff 3d 54 9b e2 3d 53 8c cf 3c 03 de 54 3d
       0.12461835 0.11064783 0.025335466 0.05196954
0000c0 21 69 b5 bd ef 57 01 3e 57 29 c6 3d ea f9 9f 3d
       -0.088579424 0.126312 0.09675854 0.07811339
0000d0 71 e5 52 3d e9 10 8b 3c e3 7b cc 3c 51 a0 ec 3d
       0.051488344 0.016975837 0.024961418 0.115540154
0000e0 15 fd 9a 3d fc 83 0b 3e 8a 48 df 3d 6e 24 b6 3d
       0.07567803 0.13624567 0.109025076 0.08893667
0000f0 15 9f c6 3d 95 69 83 3d 19 2a 77 3d 75 88 82 3d
       0.09698311 0.064166225 0.06034288 0.06373683
000100 86 ec 6d bc d4 17 10 3e c6 64 26 3d 08 b0 97 bd
       -0.014521724 0.1407159 0.04062345 -0.07406622
000110 47 c7 bc 3d d1 7a 02 3d db 9f 91 3d cf 8a 8d 3d
       0.09217697 0.031855408 0.07110568 0.06911241
000120 89 66 03 3e f0 5b 98 3d 2b 1e e6 3d d3 0e 1c 3d
       0.12832083 0.07439411 0.11236223 0.038100075
000130 7d 61 13 3e c8 3e 9a ba 6d 71 47 bd 3e 22 c0 bc
       0.14392658 -0.0011767978 -0.048692156 -0.023453828
000140 e1 c0 d2 3c 95 c6 d0 3d 99 bd 05 bc 9a 2d 78 bd
       0.025726737 0.101941265 -0.008162879 -0.060590364
000150 be 11 89 3a f5 e3 3b 3c 9c fd 41 3c 99 a4 57 3d
       0.0010457558 0.011467923 0.01184025 0.052647207
000160 92 13 20 bc 00 9d f7 3d fb 83 08 3d c3 3d fa bc
       -0.009770291 0.12090492 0.03332899 -0.030547028
000170 e3 7a 4e bc 91 53 93 3c 6c 55 ea ba 8f e2 dd 3c
       -0.012602541 0.017984184 -0.0017878241 0.02708557
000180 f2 27 f0 bc 70 36 1c 3e ef 74 f0 3b 9d 06 d4 bc
       -0.029315922 0.15255141 0.0073381583 -0.02588206
000190 f7 41 9b 3d 3b 6f 2d bd 37 1d 1d 3d 7c 8f 92 3c
       0.07580941 -0.042342406 0.03835794 0.017890684
0001a0 f8 9f 0e 3e 5a b6 d8 bb 01 fe d1 3d 12 e2 ef 3d
       0.1392821 -0.006613535 0.102535255 0.11713041
0001b0 30 b1 71 bb 5d af 1a 3c 32 a8 6d 3d e1 c0 bc 3d
       -0.0036879294 0.009441224 0.05802173 0.09216476
0001c0 8f 15 00 3e ff fd 39 3d 41 67 43 3e af e6 6c 3d
       0.12508224 0.045408245 0.19082357 0.057837185
0001d0 fe 72 2b 3e 9a 5d d0 3d ca eb 8b 3d 16 a2 ac bc
       0.16743085 0.10174103 0.068320826 -0.021073382
0001e0 06 e1 7d 3d 8c 89 88 3d ef 50 cb bc d8 c5 da 3d
       0.061982177 0.0666686 -0.024818866 0.10682267
0001f0 68 97 6f 3d 8a 2b 81 3d 1f 9b b4 3a df 00 69 3d
       0.058494 0.063071325 0.001377914 0.056885596
000200 ec f4 a8 3d bf ed b9 3d eb 7f 4d bd 6f 8a 23 3b
       0.0824984 0.090785496 -0.05017082 0.002495434
000210 4c 9e 20 bd ac 44 82 3c a3 ad f4 bd 1f 68 02 3d
       -0.039213464 0.015901886 -0.11947181 0.03183758
000220 e0 63 46 3d 21 a3 74 bd 84 43 86 3b ec c8 14 3d
       0.048435092 -0.059725884 0.004097404 0.036324427
000230 85 28 9f bd 75 57 f4 bd 42 8f 79 bc 76 bf f0 bc
       -0.077714 -0.119307436 -0.015231909 -0.02938817
000240 4e 33 05 bd 1e 12 cf bc 28 13 9c bd 4c c3 ea bc
       -0.03251963 -0.025277194 -0.07620841 -0.028657578
000250 e3 80 23 bc 0f 32 19 3d cf 80 14 bc 1a 5f 48 3c
       -0.009979459 0.037401255 -0.0090639135 0.012229705
000260 2f 66 60 bd 40 4b 6b 3b 81 84 b8 3c f9 8b a4 3c
       -0.05478495 0.0035903007 0.02252412 0.020086275
000270 be 7f 01 3d bf f2 44 bd 83 81 40 bd 71 05 9b 3b
       0.031615965 -0.048083063 -0.046998512 0.0047308733
000280 cf 38 a3 bd 0c 2c c4 3d 4d 8b 67 bd 8c fa 8c 3d
       -0.0796982 0.09578714 -0.056529332 0.068837255
000290 38 c3 92 3b a1 65 6d bd f2 21 9e bb 6e 76 c1 bc
       0.0044788383 -0.05795825 -0.004825824 -0.023616042
0002a0 1c 61 1b 3d 1c 50 b7 bd 7f f9 52 3d 54 18 dc bc
       0.037934408 -0.089508265 0.05150747 -0.02686707
0002b0 5e 70 56 bd 70 92 5a 3d 1c e1 cd bb bd 31 bf bc
       -0.052353255 0.05336231 -0.0062829386 -0.023339147
0002c0 1a 42 54 bd 4b 73 5d 3d 21 26 63 3d 27 92 4a bc
       -0.05182085 0.05406503 0.055456284 -0.012363947
0002d0 66 2d 7d bd 54 ae 90 3d a5 38 ca 3c e4 32 47 bd
       -0.061810873 0.070645005 0.024685213 -0.048632517
0002e0 c5 d5 99 bd 79 a6 4b 3d ea a1 88 bd d5 89 04 bc
       -0.075114764 0.049719308 -0.06671508 -0.008089502
0002f0 64 d8 a5 3d c2 18 66 3d bf c6 96 3d 6a e5 8c bd
       0.08097914 0.056175955 0.073621266 -0.06879695
000300 30 8c aa 3d 0f ca 16 3c b3 5a e5 bc a7 b1 a6 3d
       0.0832752 0.009203448 -0.02799735 0.08139353
000310 c3 a2 6b bd 9b a6 c2 bc 7f 5c 6f bd bd 71 e6 bb
       -0.05752827 -0.023761084 -0.05843782 -0.0070326016
000320 e0 84 50 bd b2 43 92 3c 89 8b d7 bc 05 2b 54 bd
       -0.05090797 0.017854545 -0.026311653 -0.05179884
000330 62 95 47 bd 40 4e 17 bc f2 e9 a5 3c 01 e6 e2 3c
       -0.048726447 -0.009234965 0.020253155 0.027697565
000340 38 07 fd 3c 07 1d 1c bd 03 32 e0 bd 7b 61 1d bd
       0.030887231 -0.03811362 -0.10947039 -0.038423043
000350 2b 5b 91 3c 6a b0 3b 3a f2 eb 33 bd 7c bc 58 3d
       0.017743668 0.00071597716 -0.043926187 0.052914128
000360 9c 68 83 bd e2 56 8e 3d 38 c6 99 3c f1 26 fd 3c
       -0.06416437 0.06950165 0.018771276 0.030902358
000370 69 c2 0e bd ee 36 22 3d b6 04 db bd a6 74 76 3d
       -0.034853373 0.039603166 -0.10694258 0.06016984
000380 ae 4d a0 bd 17 12 ac bd 08 d3 24 3c a5 fe df ba
       -0.07827316 -0.08401888 0.010060079 -0.001708944
000390 23 7a 4b bd 39 f7 2e 3d 6f 02 b7 ba da 66 8d 3c
       -0.049677026 0.04271624 -0.0013962517 0.017260958
0003a0 b3 12 86 bc 9e d2 88 3d f1 27 e6 bc ec ff 4e 3c
       -0.016366338 0.06680797 -0.028095217 0.012634259
0003b0 1a dd aa 3c 17 d7 aa 3b 9b 8b 93 bd 28 48 c6 3b
       0.020857383 0.005213629 -0.07204362 0.006051082
0003c0 c7 1b bd 3d fd 9a b4 bb 27 97 30 3d e7 9a a5 bd
       0.09233814 -0.00551164 0.0431129 -0.08086186
0003d0 a4 29 04 bd 47 ca 45 3d 3b 45 3c 3c 00 a9 20 bc
       -0.032266274 0.04828861 0.011491115 -0.009805918
0003e0 36 7a fd 3c 24 3e 95 bd c7 e9 7a bc dd b8 5d bd
       0.030942064 -0.07287243 -0.015314526 -0.054131377
0003f0 21 66 c1 3c 98 bf 4f bd 2f fd a4 bd af 7c 4f bc
       0.02360827 -0.050719827 -0.080561034 -0.012664004

bias_hh f4 [512]
000000 ae 00 e2 3c ed 24 3d 3d 3b 4f d1 3d 4d 04 12 bd
       0.027588215 0.046177793 0.1022019 -0.035648633
000010 17 7d ad 3d 27 44 57 3d cc f7 97 3d ea cb b2 3d
       0.084711246 0.05255523 0.074203104 0.087303
000020 6b 94 e7 3c 4b 02 7a 3d ea a4 60 3d 67 81 a7 3d
       0.028269013 0.061037343 0.054844774 0.081789784
000030 69 4c 9d bc b2 1f bc bb 8d 86 9f 3d f4 7a 36 3d
       -0.019201474 -0.005741083 0.077893354 0.04455085
000040 f3 d3 03 3c 74 f2 97 3d 19 06 36 bd 6a 3f 0c 3e
       0.008046138 0.07419291 -0.04443941 0.13696066
000050 72 88 af 3d 57 44 04 3d 2e 47 02 3e 2b 89 b6 3d
       0.08570947 0.032291736 0.12722465 0.089128815
000060 f8 3b 47 3c 16 ab 16 3e d6 f0 30 bd 77 a6 18 bc
       0.012160294 0.14713702 -0.04319843 -0.009317032
000070 92 c2 52 3d 2e 7a 2f 3e 9a 9f 45 3d 42 3a 53 3d
       0.051455088 0.17136452 0.04824791 0.05156923
000080 78 98 0b 3e 50 41 02 3d 0f a6 32 3c a8 ea 62 3d
       0.13632381 0.031800568 0.010903849 0.055399567
000090 9b d6 2a bd 2f 35 a7 3d 5c be f6 3d f9 d5 f0 bc
       -0.04170857 0.08164441 0.12048027 -0.029398905
0000a0 c8 f5 82 3d 2f 3f a1 bd 1d 0d b3 3d ef 05 9c 3c
       0.06394535 -0.078733794 0.087427355 0.019045798
0000b0 2d b9 ad 3d c7 da 82 3d 13 73 90 3d 37 5d 46 bd
       0.08482585 0.06389385 0.07053199 -0.04842874
0000c0 8b 9b 9d bc 6b f3 1e 3e 59 52 2e 3e 46 1b 6f bc
       -0.019239208 0.15522544 0.170236 -0.014593905
0000d0 53 6f 0d 3e f9 46 88 bd d7 69 cc 3d f0 4d 22 3e
       0.13811998 -0.06654162 0.09981125 0.15850043
0000e0 0d 4f f6 3d 0d e8 9c 3d 2e 5d 9c 3d 95 a4 91 3c
       0.120267965 0.07661448 0.0763496 0.017778674
0000f0 c9 9f d3 3d c0 52 f3 3d 1a 52 d5 bb 4b b7 ca 3d
       0.10333211 0.11881018 -0.0065100314 0.098982416
000100 00 3b 3a bc 19 a1 72 3d fc 37 56 bd 94 28 45 bd
       -0.011366606 0.059235666 -0.052299485 -0.0481344
000110 c3 37 fd 3d 72 ce a1 3d 5d 44 0d 3e c5 74 a1 3d
       0.12364151 0.079007044 0.1379561 0.078836
000120 4a 64 8d 3d 32 2a aa 3d 07 04 16 3d c0 6d db 3b
       0.06903894 0.08308829 0.036624935 0.006696433
000130 d4 b2 de 3d b6 ec 21 3d 49 fa d3 3d 3e 53 52 bd
       0.108739525 0.039532386 0.103504725 -0.051348917
000140 ae 3b e0 3d 3d 01 c8 3c 87 c0 cf 3d ba 36 4d 3d
       0.10948883 0.024414653 0.101441436 0.05010102
000150 27 29 f4 3d 16 9d 00 3e 9f e1 e9 3c 7a 6f 6d bb
       0.11921912 0.12559924 0.028549967 -0.0036229775
000160 e3 01 56 bd 14 61 b4 3d bc 2f b6 3d d2 a9 b8 3d
       -0.052247893 0.08807579 0.08895823 0.09016766
000170 4a 85 90 bb f9 8b 83 3c 74 c6 2f 3d e7 44 0a bd
       -0.0044104205 0.016057955 0.04291387 -0.033757117
000180 df 00 a1 3d 32 65 97 3d 88 5a 74 3d 7e 83 e5 3d
       0.07861494 0.07392348 0.05965665 0.11206721
000190 ef ef b8 3c d3 d0 53 3d b8 c7 c5 3b 68 70 85 3d
       0.022575347 0.051712822 0.006035771 0.065155804
0001a0 23 86 42 3e 14 98 78 3c 3d 36 3f bc 75 ca 03 bd
       0.18996482 0.015172977 -0.011670646 -0.0321755
0001b0 d4 8f 23 bd ef d1 f7 3d b2 c8 69 3d 41 d2 81 3c
       -0.039932087 0.121005885 0.057076164 0.015847327
0001c0 40 03 9e 3d 57 8d 4c bc 2c 38 4b 3d 49 7a f4 3d
       0.07715464 -0.01248487 0.049614117 0.119373865
0001d0 ec e8 e7 3b 30 3d 3a 3d d8 6b ed 3d 91 71 57 bc
       0.007077327 0.04546851 0.11592835 -0.013149635
0001e0 b2 46 4c 3d f8 6d b1 bc 30 47 0a 3e a8 53 79 3b
       0.049872108 -0.021658882 0.13503718 0.0038044248
0001f0 9f 95 ce 3d ea 65 fb bc ef d9 6d 3d 93 9f 8c 3d
       0.10087132 -0.030688245 0.058069166 0.06866374
000200 f2 38 8f bd d7 e2 53 bb 95 86 10 bc 7b 47 90 bd
       -0.06993283 -0.0032331252 -0.008821149 -0.07044884
000210 30 40 76 bc bc 96 55 3d d9 4b 81 bc b1 21 b6 3c
       -0.015029952 0.052145705 -0.015783237 0.022232862
000220 08 4f aa 3d 63 33 6d bd b0 93 61 3b 42 4f 9b 3c
       0.08315855 -0.057910334 0.0034420304 0.018958692
000230 ff c6 91 3b d9 1d 27 bd 74 54 83 bd 2e 3c 05 bd
       0.004448771 -0.04079995 -0.064125925 -0.032528095
000240 cd a0 91 3d 4c 4e 05 3d fd e7 2f 3d 03 31 99 3d
       0.071107484 0.032545373 0.04294585 0.07480051
000250 c5 38 4b 3d 5b 2a ef bb fb c3 8f bd c3 82 48 bd
       0.049614687 -0.0072987503 -0.07019802 -0.04895283
000260 c2 aa a8 3d 37 44 d1 3b 51 13 01 3c d2 4d 07 bd
       0.082356945 0.0063863057 0.007878141 -0.0330332
000270 dc 98 37 bd 43 83 ad 3d 49 e5 1a bd f7 63 0a bd
       -0.044823512 0.08472302 -0.03781632 -0.03378674
000280 92 ed 67 bd 4e ca b1 3d f6 61 a8 3b df 99 2a bc
       -0.05662305 0.08681165 0.005138631 -0.010412662
000290 a0 75 d8 3c 5c 13 a3 bd 48 b7 13 bd 45 93 ad 3d
       0.026423275 -0.07962677 -0.036063462 0.08475355
0002a0 60 37 51 3d 0f 8a 1a 3d 2e 98 af bd 04 a8 87 3d
       0.0510782 0.03772932 -0.08573948 0.06623843
0002b0 6c 04 1a 3d 56 ad 50 bd ab 69 de 3c cb 5c a2 3c
       0.037601873 -0.050946556 0.027149996 0.019819638
0002c0 ce 26 48 bd 3b 55 55 3d b7 a1 58 bd 20 6e d4 bc
       -0.048865132 0.052083235 -0.0528886 -0.025931418
0002d0 e2 31 bc bc a4 e4 5e 3d 30 94 68 bd 12 93 81 bd
       -0.022973005 0.054417267 -0.056781948 -0.063268796
0002e0 45 43 c3 bd 81 64 aa 3d a4 9f df bc 53 31 41 bd
       -0.09534315 0.08319951 -0.027297802 -0.04716618
0002f0 b7 ef 2a 3d c2 dd 36 bd 16 da 62 bc 29 eb 10 3d
       0.041732516 -0.04464508 -0.013845941 0.035380516
000300 f7 21 b6 3c 98 23 80 3d bb 84 32 bd 57 96 92 3d
       0.022232993 0.06256789 -0.043583613 0.07157581
000310 ef 67 1e bd c8 b1 3b 3d 88 f8 87 bd 4b 4b 00 3b
       -0.038673338 0.045823842 -0.066392004 0.0019576128
000320 66 e0 92 bd b0 d2 48 bc 8a 77 1d bd ed f6 24 bd
       -0.07171707 -0.012257263 -0.03844408 -0.04027455
000330 c1 c8 9b bc 29 37 9a 3d 2a e1 b1 bd 85 ca 1f bd
       -0.019016625 0.07530052 -0.08685525 -0.039011497
000340 de 44 4c bd 27 69 8d bc 6b 83 50 3c f8 d4 cf 3a
       -0.049870364 -0.017262055 0.012726645 0.0015856316
000350 3d 01 f3 3c 6b 14 fb 3c 9c cd 42 bd a8 3e 15 bd
       0.029663676 0.030649384 -0.047559366 -0.036436707
000360 48 0d e3 bc 3a 6b aa 3d 08 ce 8d bc be be 9a 3d
       -0.027716294 0.08321233 -0.017310157 0.075559124
000370 cc eb b2 3d ba 60 95 3d 1b a3 63 3d da d9 29 3d
       0.08736381 0.0729384 0.05557547 0.041467525
000380 b3 e6 48 3c c0 13 e5 3c a5 7f dc bc 1e a1 a7 3d
       0.012262034 0.02796352 -0.026916334 0.081850275
000390 f9 1d 45 bd 3b 85 e1 3c d8 b2 18 3b db 2a 15 3c
       -0.048124287 0.02752935 0.0023299959 0.009104456
0003a0 f2 f1 99 3d 8f 10 50 3d 4f a9 93 3d 7d ce f8 bc
       0.075168505 0.05079704 0.072100274 -0.030371899
0003b0 ea 06 23 3d 66 84 9e bd 56 0b 72 bc 29 37 13 bd
       0.039801516 -0.07740097 -0.0147732105 -0.035941277
0003c0 03 68 90 bc f5 78 ec bc e5 9f c2 bd bd e9 16 3d
       -0.017627722 -0.02886627 -0.09503154 0.036844004
0003d0 24 4b 4c 3d 24 5e b3 3b 84 40 f9 bb 6a ee 83 bc
       0.049876347 0.005473869 -0.007606568 -0.016104896
0003e0 22 b7 fe 3b f4 e6 45 3d 05 60 72 3c 11 67 58 bd
       0.007773296 0.048315957 0.014793401 -0.052832667
0003f0 a9 30 e1 bb fc 3f a2 bb 17 0d a3 3d bc 21 b0 bd
       -0.006872256 -0.004951475 0.07961481 -0.08600184

weight_ih f4 [512, 128]
000000 c6 71 d2 bc 8b 0d e2 bc cc 34 16 bd 73 d4 a4 bd
       -0.025689017 -0.027594348 -0.036671445 -0.08048334
000010 d5 e4 db bc 62 de 49 3d 47 38 6d 3d de 7d c8 3d
       -0.026842514 0.049284346 0.057915 0.09789632
000020 4a d9 08 bc 57 95 a1 bd a0 94 99 bd 8a 0b 36 3d
       -0.008352587 -0.078898124 -0.07499051 0.0444446
000030 ca ad ce 3c d1 1e e3 3d 1d c1 03 bd 99 58 7a 3d
       0.025229353 0.11089862 -0.03216659 0.06111965
000040 fc 16 f3 3c 7a 3d b8 3d 86 2a e3 3b 6e c7 97 bd
       0.029674046 0.08996101 0.0069325594 -0.07411085
000050 ae 99 38 3d 68 f3 8f bd 08 03 1c bd 42 4e 8a 3d
       0.045068435 -0.07028848 -0.03808883 0.06753208
000060 79 57 77 3c f9 2b 99 bd db da 19 bd 78 4e a5 3d
       0.015096539 -0.0747909 -0.037562232 0.08071607
000070 4e 21 5e bd 80 66 98 3b 05 f3 57 bd f8 76 68 3d
       -0.05423098 0.004650891 -0.052721996 0.056754082
000080 8a df 50 bd 1e de 83 bc ff 4b 4c 3c ba 6d 54 3d
       -0.050994433 -0.016097125 0.012469291 0.051862456
000090 c6 33 6a 3d ec 9b 42 3d 98 5a 8a 3d 72 71 20 bb
       0.05717828 0.04751198 0.06755561 -0.0024481681
0000a0 07 ad 02 bd 36 49 7e 3d ef b6 70 3d 25 56 b8 3d
       -0.031903293 0.06208154 0.05876821 0.09000806
0000b0 b4 12 62 3d bc e4 41 3d d4 de 94 bd f7 49 2c 3d
       0.055193618 0.04733728 -0.072690636 0.042062726
0000c0 29 4d 26 bd 63 3c c6 3d 64 72 8f 3d c9 db 9e bd
       -0.04060093 0.096794866 0.0700424 -0.077567644
0000d0 e2 17 96 bd 04 2a 6e 3d a3 9a a8 bb e7 22 9e 3b
       -0.07328774 0.058145538 -0.0051453873 0.004825938
0000e0 32 db 7a 3c a0 56 a6 bd 42 96 92 bd 05 20 bd bb
       0.015311049 -0.08121991 -0.07157566 -0.0057716393
0000f0 f1 82 04 3d 0e 02 6b bd d8 9a 1a bd de 3a b9 3d
       0.032351438 -0.057375006 -0.037745327 0.09044431
000100 b2 0e 89 bd 57 9e 3a 3c 53 99 00 bd 4b 8a e3 3a
       -0.06692256 0.01139029 -0.03139622 0.001735994
000110 1f 4e 6b bd 94 58 10 bd 15 33 dc b9 44 07 a0 3d
       -0.05744755 -0.035240725 -0.0004199973 0.07813886
000120 1a 4b bd 3d ac 93 6d 3d 09 17 35 3c 9f e6 92 3d
       0.0924284 0.05800216 0.011052855 0.07172894
000130 51 ad 23 b9 7b 9f 38 bd 95 cd 8f bd a2 0f c6 3d
       -0.00015609457 -0.045073967 -0.070216335 0.096709505
000140 70 8d 70 bd f2 fd c7 3b 5b 94 84 bd 82 c3 dd bc
       -0.058728635 0.0061032707 -0.06473609 -0.027070764
000150 b7 49 99 bd bf 48 86 3d b6 88 97 bd 2f 57 82 bd
       -0.07484763 0.06556844 -0.073991224 -0.06364285
000160 2e 7e 81 3c 18 f6 8f bd c1 de a9 bd 69 63 9d 3d
       0.015807237 -0.070293605 -0.0829444 0.076849766
000170 da c8 07 3d 29 5e 74 bd 63 85 08 3c bc 26 a5 bd
       0.03315053 -0.05966011 0.008332583 -0.080640286
000180 9e bc 6c bc 2a 8d c4 bc eb 0f 23 bc ab 59 20 bd
       -0.014449267 -0.023993094 -0.009952526 -0.039148014
000190 d2 9c 9f 3d f1 25 b7 bb cb d1 2c 3d d1 76 84 bc
       0.07793583 -0.0055892398 0.04219226 -0.016169937
0001a0 20 0e 9d 3c cf 53 a4 bd ec 9c 08 bd b0 3a 69 3d
       0.019171774 -0.08023798 -0.033352777 0.056940734
0001b0 1b d5 ae 3c fc 0c 05 3d f7 0f 56 bd 0b 65 35 3d
       0.021341851 0.032483086 -0.05226132 0.044285815
0001c0 fa af c4 bd 90 b5 87 bd 5c 57 3b bd ce 50 b1 3d
       -0.09603877 -0.06626427 -0.04573761 0.086579904
0001d0 58 44 c2 3d 8e b8 5c bd f7 15 bc 3a 4d f5 98 bc
       0.09485692 -0.053886943 0.0014349808 -0.018671656
0001e0 8c 05 b8 bd 67 5d 95 3d 6b 11 b4 bd b3 08 91 3d
       -0.08985433 0.07293206 -0.08792385 0.07081737
0001f0 44 bf c1 bc f3 84 d2 3c 25 aa 5e bc 89 d0 06 bc
       -0.023650773 0.02569816 -0.01359037 -0.00822843
000200 03 09 05 3d d8 c3 d4 3d 59 86 70 3c 73 84 a0 3c
       0.032479297 0.10388917 0.0146804685 0.019594407
000210 b2 f7 1c bd b5 f2 af 3c 11 6f 0a bd a4 f5 c9 bc
       -0.03832216 0.021478036 -0.033797327 -0.024653263
000220 4b 3e 7f 3d ba d6 f0 3d 3c 43 24 bd 75 45 99 3d
       0.062315267 0.11759706 -0.040103182 0.07483951
000230 75 27 73 bb 0b 53 cc 3b 0a 77 5b bd d3 99 31 bc
       -0.0037102376 0.0062354854 -0.05358032 -0.010839897
000240 e5 00 fb 3c ce f0 af bd 24 c7 63 bd 10 b0 68 3b
       0.030640075 -0.08590852 -0.055609837 0.0035505332
000250 18 aa 7f 3d 91 20 30 bc 51 97 b5 3b d7 ef e9 3c
       0.062418073 -0.010749952 0.00554172 0.028556747
000260 28 b0 b5 bd 4f 83 38 3d 0e 4f 22 3d cd bd be bc
       -0.0887149 0.0450471 0.039626174 -0.023283863
000270 34 0a c2 3c 84 bb 38 3c 3b cc f2 3b a5 7f 2a 3d
       0.023686506 0.011275176 0.0074096 0.041625638
000280 14 b8 98 3c 81 0d ec 3c 59 ca dc 3d ee cc a9 3c
       0.018642463 0.028815033 0.10780782 0.0207276
000290 45 61 8d bd 6e 7f 06 bd 8f 05 03 bd bf fb 47 bd
       -0.06903318 -0.03283637 -0.031987723 -0.04882407
0002a0 ce c6 9b 3d d6 9a dc bc 1f b2 ab 3c 36 0f 83 3c
       0.07606278 -0.0269293 0.020958958 0.015998464
0002b0 af 3e 10 3e 1e 3a 24 bd 09 2e 30 bd b5 3c 88 3c
       0.14086412 -0.040094487 -0.043012653 0.01663051
0002c0 99 17 5d 3d c6 09 e4 3c f9 62 32 bd df f3 b8 3d
       0.053977583 0.027836692 -0.04355142 0.0903089
0002d0 f8 ca 96 3d 14 ea d2 3d 67 57 3a 3d e4 c3 66 3d
       0.07362932 0.10298553 0.04549351 0.05633916
0002e0 98 c2 d8 3d 3b 00 3e bd 2a 60 06 3c 83 6e 40 3c
       0.10583991 -0.04638694 0.008201638 0.011745098
0002f0 28 3e 60 bd 7e 54 cc bd 1a 78 98 3d 7e 08 2c bd
       -0.054746777 -0.09977053 0.074447826 -0.042000286
000300 44 03 9c bd 8c 6f b8 3d 8c cb 5e 3c b9 f5 66 bd
       -0.0761781 0.09005651 0.013598334 -0.056386683
000310 66 6f 05 3e 02 3f 1d bd d2 fb 3f bc 97 97 3e bc
       0.13030776 -0.038390167 -0.0117177535 -0.0116328215
000320 fb 41 39 be 81 ad 3e bd 9d 83 d7 ba 0e 4f 7d bd
       -0.18091576 -0.046552185 -0.0016442422 -0.06184297
000330 37 e6 3c 3d 68 c9 80 3d 54 70 e8 bc 54 2c 72 bd
       0.046117987 0.06288415 -0.028373875 -0.059124306
000340 91 fd 19 bd eb 6a 0a 3d ff 0e 9a bd 6d bf 75 bc
       -0.037595335 0.03379337 -0.075223915 -0.014999253
000350 f5 e9 6e 3c 65 04 c4 3d bb 3a 80 3c 56 70 f1 bd
       0.014582147 0.09571151 0.015653005 -0.117890045
000360 c8 a0 ed 3c 92 b0 63 bd 3e 18 30 3c d5 a3 04 bd
       0.02900733 -0.055588312 0.010747967 -0.032382805
000370 d7 30 0c 3d 91 ad f1 3c f5 eb 91 bc 7c 4f d3 bc
       0.034226265 0.029501708 -0.017812708 -0.025794737
000380 af 1c fc bd c8 3c 9c bc a8 02 9f 3d 97 01 dd bd
       -0.123101585 -0.019071952 0.077641785 -0.10791319
000390 7e b3 79 3d fc ea c4 bd bf a4 d3 3d 8f 17 4c bc
       0.060962193 -0.09615132 0.10334157 -0.012456789
0003a0 63 cf 8b bb 2a fe 13 3d 9c 24 3f 3d 9d 99 83 bd
       -0.004266666 0.03613106 0.046665773 -0.06425784
0003b0 9c 50 c4 3d 50 c1 3e 3d 80 a7 76 bd 9a fb 7c 3c
       0.095856875 0.046571076 -0.060218334 0.015440846
0003c0 47 5a cf 3d 98 b6 b4 bd 70 96 47 bc 8b f4 e9 3c
       0.10124641 -0.088238895 -0.012181863 0.02855899
0003d0 60 37 51 3d 4c 07 20 bc 32 0f d1 3d b2 f7 db bd
       0.0510782 -0.009767365 0.102079764 -0.107406035
0003e0 df f3 43 3d 57 bc cd bd 65 03 49 3d 41 34 e8 3d
       0.047839995 -0.100456886 0.049075503 0.11338092
0003f0 9e 31 ee bd 26 e5 e9 bc 98 08 12 3d 44 0e c6 3d
       -0.116305575 -0.02855165 0.035652727 0.0967069

weight_hh f4 [512, 128]
000000 55 39 fe 3b be 6f 94 bd 53 57 2f bd 30 17 0c bd
       0.0077582994 -0.07247876 -0.04280789 -0.0342018
000010 b2 91 ae 3c 43 bd 95 bd 6e f2 d9 3c 26 f2 08 bd
       0.021309707 -0.073114894 0.026604857 -0.033434056
000020 a4 21 9c 3c e4 db 9b 3d 47 26 27 bc 89 59 3c 3d
       0.01905901 0.076103 -0.010201997 0.045983825
000030 dd fa 13 bd 4f ec 81 bd c8 19 59 3c fa 0c 72 bd
       -0.036127914 -0.063439004 0.013250776 -0.059094407
000040 3d 2a 17 bd 51 6e 98 3d 85 ba 82 bd 6f 85 04 bd
       -0.036905516 0.07442916 -0.06383232 -0.032353815
000050 d9 98 9c bd 2f 6d db bc f9 58 bb 3c f6 8d 73 bd
       -0.07646341 -0.026785461 0.022869574 -0.059461556
000060 ff b7 56 bd 68 8c ae 3d 2a 4e 44 3d ea 52 34 bd
       -0.052421566 0.08522874 0.047926106 -0.044024386
000070 96 23 7c bd 7a 2e 59 3d 05 26 28 bd 93 7c 55 3d
       -0.061557375 0.05302284 -0.041051883 0.052120756
000080 46 d0 85 3d e8 24 99 bd a1 f3 2e bd 5d ab a0 bd
       0.06533866 -0.074777424 -0.04271281 -0.07845185
000090 91 3e ad bd 3b b3 8a 3b de f0 8f bd dd ac 9c 3c
       -0.08459199 0.0042327917 -0.07028364 0.019125396
0000a0 6e e1 26 bd 48 09 19 3d 79 c3 e9 3c df 0f 4e bb
       -0.04074233 0.037362367 0.028535591 -0.0031442565
0000b0 71 22 04 bb 29 fa ac 3c a4 c3 6d 3d d2 79 aa 3c
       -0.002016213 0.02111538 0.058047906 0.020810042
0000c0 64 86 bf 3d 87 b0 87 bd 47 c1 8c bc 0d bc 13 bd
       0.09351805 -0.06625467 -0.017182006 -0.03606801
0000d0 01 63 92 3d 04 a0 64 bc 96 6b 7e bd 78 53 4b 3d
       0.0714779 -0.013954166 -0.06211432 0.04964015
0000e0 b0 b7 48 bd fe f9 a0 bd 33 67 78 3d 09 36 fb 3c
       -0.049003303 -0.07860182 0.060645293 0.030665414
0000f0 10 cc 92 3d 23 c6 f4 bc 18 95 75 3d c5 aa 8c 3d
       0.07167828 -0.029879635 0.05995664 0.06868509
000100 be 9c 49 3d 89 2f 9f bd c0 24 93 3d 32 c2 bb bd
       0.049221747 -0.077727385 0.07184744 -0.09167899
000110 ca af 00 3d 8f 1c 18 3d c3 e9 3b bd e4 b8 d5 3c
       0.031417646 0.03713661 -0.04587723 0.02608914
000120 da db ad 3d 1b 38 94 3d 1c e4 df 3a c0 e7 19 bd
       0.08489199 0.07237264 0.0017081532 -0.03757453
000130 1c 9b a9 bd 4b 6e 6a 3d 9a 7e 6f 3d f7 39 86 3d
       -0.08281538 0.05723409 0.058470346 0.06554025
000140 97 48 d0 bc 8c 33 33 bd 9b 34 86 3d a0 62 74 bd
       -0.025425239 -0.04375033 0.065530024 -0.05966437
000150 fc 1b b2 3b 45 62 e7 bc a4 f7 6e bc 47 85 3a bc
       0.005435465 -0.0282451 -0.014585409 -0.011384315
000160 75 c7 a5 3d 66 9f a0 bb 5a 10 f9 3c 40 26 1d 3d
       0.08094684 -0.0049018143 0.030403305 0.038366556
000170 92 b2 90 bd 4e 56 30 bd 61 58 7a bd 64 88 ae bd
       -0.070653096 -0.043051057 -0.06111944 -0.08522108
000180 2f 4c ea bb 0e a0 f7 3c 91 4f a2 3d 35 21 15 3d
       -0.007150195 0.030227687 0.07925332 0.03640862
000190 b3 4e c8 3c 63 7c 06 bd 18 b2 4a 3b a8 be d2 bc
       0.02445159 -0.03283347 0.0030928906 -0.025725678
0001a0 7e 09 ad 3c bc 69 eb bc 4d 9e b5 3d 3f 60 aa bd
       0.02112269 -0.028736942 0.08868084 -0.08319139
0001b0 2c 89 83 3d 1e 20 b9 3d 1b c1 94 bd c7 c7 f3 3c
       0.06422648 0.09039329 -0.072633944 0.029758347
0001c0 ff b7 b9 3c 6f 5e da bc 02 8c a2 3d 65 b1 36 3c
       0.022670744 -0.026656358 0.079368606 0.011150693
0001d0 c1 21 df bc 31 ba 53 bd 7e a7 03 bc ea ba ae 3d
       -0.027237775 -0.051691238 -0.008035539 0.08531745
0001e0 b0 f0 3d 3d 11 58 46 bb 1c 84 40 bd 84 80 00 3c
       0.046372116 -0.0030264894 -0.04700099 0.0078431405
0001f0 cd 27 17 bd 1a 78 ca 3c 10 2d 41 3c 18 ce 3b 3d
       -0.03690319 0.024715472 0.011790529 0.045850843
000200 7c af d8 3d 84 3e 82 3d 06 37 2b be 5a ca ac bc
       0.10580346 0.0635958 -0.16720209 -0.021092582
000210 14 2a c4 3d 8a 47 84 3d 13 9f ba 3d 39 e8 96 3d
       0.09578338 0.064589575 0.09112372 0.07368512
000220 eb df 06 be a8 3c f0 bd 79 b0 aa 3b 65 14 cd bd
       -0.13171355 -0.11730319 0.0052090255 -0.100136556
000230 95 89 4c bd 79 91 f1 3d 5a 72 ab bc 9a f5 15 bd
       -0.049935896 0.11795325 -0.02092855 -0.036611177
000240 8d 88 13 bd cb b1 01 3e 8c bd 88 3a 7c 2c c4 bb
       -0.036018897 0.12665479 0.0010432466 -0.0059867483
000250 0a c7 21 3e e3 1a ac bd a8 c7 80 bd da ae 99 bd
       0.15798584 -0.08403566 -0.062880814 -0.075040534
000260 7a fe be bc df e1 02 3e 92 7c 0d 3d f0 9b d5 3d
       -0.023314703 0.12781475 0.034542628 0.10430133
000270 9b a6 c1 bc f3 74 a8 3d d4 b1 0f 3d 8e f2 58 bd
       -0.023639014 0.08225431 0.0350817 -0.052965693
000280 e5 a7 91 3d 31 d8 c2 bb 08 1e b9 3d db ff 73 bd
       0.071121015 -0.005946182 0.09038931 -0.059570175
000290 61 11 c8 bd ee 77 1d 3d b0 f2 27 bd e6 b6 b9 bd
       -0.0976894 0.038444452 -0.04100293 -0.09068088
0002a0 6f 28 42 bd d0 33 6d 3d 18 78 af 3b 50 81 9f 3a
       -0.04740184 0.05791074 0.0053548925 0.0012169275
0002b0 e1 40 02 3e 52 fd 24 bd f3 7a 1b 3d 3c f3 3d bd
       0.12720062 -0.040280648 0.03795905 -0.046374545
0002c0 d7 5d 0a bc 04 34 db bb 55 83 53 b9 2e 3e da bd
       -0.008445225 -0.0066895504 -0.00020171453 -0.10656391
0002d0 b5 7c 31 3c d1 0f ca ba 44 8d 92 bd 50 08 21 bd
       0.010832955 -0.0015416091 -0.071558505 -0.039314568
0002e0 29 a0 de 3d a8 72 27 3c 63 4f ef bc 74 b7 b5 3c
       0.10870392 0.010220207 -0.02921266 0.022182204
0002f0 e4 5a 8b bd e8 a1 89 3c 05 05 5c 3d 53 2c 32 3c
       -0.068044454 0.016800836 0.053715724 0.0108748255
000300 14 2f 39 3d fc ee 44 bd 57 ff d7 3d 78 3f 1b bd
       0.045210913 -0.048079476 0.10546749 -0.037902325
000310 71 0e 3b bd 59 6d 8e 3d 2f 97 39 3d 74 71 d6 bc
       -0.04566807 0.0695445 0.045310196 -0.026177146
000320 bb 67 14 3d 36 42 58 3d 73 9b 68 3c fd 3c c2 bb
       0.036231738 0.05279752 0.014197218 -0.0059276805
000330 89 53 2d bd f8 e7 3f bd 96 ba b4 bb 06 8c 9b bd
       -0.042315993 -0.046852082 -0.005515407 -0.07595067
000340 61 99 51 bd 80 e6 1d be ed e7 aa 3d 56 04 95 bc
       -0.051171664 -0.1541996 0.083450176 -0.018190544
000350 71 31 c3 3d 9e 6a e6 3d 18 93 d2 3d 15 b8 f3 bd
       0.095309146 0.11250804 0.10281962 -0.11900345
000360 72 fd 0c 3d 16 e1 43 bd 6b 83 33 3c e1 02 e7 bc
       0.03442139 -0.04782208 0.010956625 -0.028199615
000370 52 2d d3 bd e2 e9 b8 bd fd 46 81 bc 01 64 1b bd
       -0.103113785 -0.090289846 -0.01578092 -0.037937168
000380 bd c7 81 bd 04 d4 87 3c 28 1c b3 3c 29 c6 f0 3c
       -0.06336925 0.01658059 0.021864012 0.029391365
000390 05 60 cc bd bd 07 c3 ba 4b 07 a7 3c 2b d3 d7 bd
       -0.09979252 -0.0014879626 0.02038922 -0.10538324
0003a0 bc 18 3c bd a0 b1 d9 bd c4 ce ce bc b3 f6 ee bd
       -0.045922026 -0.106295824 -0.025245078 -0.11668148
0003b0 43 12 5a 3d 8d e2 a0 bc 6b f8 4f 3d 51 01 53 bd
       0.053240072 -0.019639278 0.05077402 -0.051514927
0003c0 c2 18 c1 3d 56 10 76 3d 2b 2b ab bd f0 97 ee bc
       0.0942855 0.060074173 -0.08357843 -0.029125184
0003d0 fc b8 40 bd c8 84 85 3d 81 1a c2 3d b4 f3 27 3d
       -0.047051415 0.06519467 0.094777115 0.041003898
0003e0 2c 63 a9 3c 81 b2 2e be 39 8c 77 3c 49 a6 02 3e
       0.020677172 -0.17060281 0.015109115 0.12758745
0003f0 6b 5b 93 3d fb a8 0d bd f3 d3 e0 3c a9 e2 d0 3d
       0.07195171 -0.03458498 0.027444815 0.10199482

bias_ih f4 [512]
000000 3b fa 74 3b b3 fd 72 3d 6c dc 1e 3d ab 8a 29 3d
       0.0037380594 0.059323978 0.03878443 0.04139201
000010 db 9e b8 3c 49 93 cd 3b c1 7b d4 3d ff 95 44 3d
       0.022536686 0.0062736613 0.10375167 0.04799461
000020 d6 82 12 3e 1d c5 b3 3d b5 10 c5 bc c0 ce d0 3d
       0.14307722 0.08777831 -0.024055818 0.101956844
000030 96 39 4e 3d d3 4f a7 3d 26 0a 84 3a 72 e0 af 3d
       0.050347887 0.08169522 0.0010073825 0.085877314
000040 6f a6 92 bb a2 45 22 3c e5 56 19 3e fe f6 2f 3d
       -0.004475407 0.009904297 0.14974554 0.04296016
000050 ae e6 a8 3d 82 1b 3b bd 12 df 4f 3d 94 d0 58 3d
       0.08247124 -0.04568053 0.050749846 0.05293329
000060 53 8d 8d bc 2b ad 4c bd 50 f0 78 3b e8 0a 85 3d
       -0.017279303 -0.049969833 0.0037985034 0.06496221
000070 8d 95 5f 3c 71 3d 00 bd ff 84 9d 3d 29 9f b4 3d
       0.0136464955 -0.031308595 0.076913826 0.0881942
000080 82 83 30 3e 7a 4e 70 3d d4 9b 56 3d 8e 6c 4a 3d
       0.17237666 0.05866859 0.052394703 0.049419932
000090 1e 00 c2 3d 13 db 98 3d 63 d3 a7 3c e2 00 8b 3d
       0.094726786 0.0746366 0.02048654 0.06787278
0000a0 6b b6 d3 3c ea 83 11 3c c3 b6 5c 3e d0 33 12 3e
       0.02584382 0.008881548 0.21554093 0.14277577
0000b0 bc 09 5f 3d 48 97 63 bd 0b e4 99 3d c2 28 20 3e
       0.054452643 -0.055564195 0.07514199 0.15640548
0000c0 62 e7 1f 3d 0e 70 d6 3c bb 30 33 3c 1a ca 35 3d
       0.039039023 0.026176479 0.010936911 0.044382192
0000d0 35 57 b6 bc 44 75 34 3d 5a dc 24 3c c4 84 05 3e
       -0.02225838 0.044057146 0.0100623015 0.13038927
0000e0 49 a3 a8 3c 5d 26 0e 3d 94 08 14 bc b9 3c 6a bd
       0.020585673 0.034704555 -0.009035248 -0.057186816
0000f0 45 c0 06 3d a4 dd e8 3a e7 4f d8 3c 34 4a a3 3d
       0.032898206 0.0017766249 0.026405288 0.079731375
000100 d7 58 ea bc fc c0 db bb e6 4c 01 3e 78 2e e7 bc
       -0.028606815 -0.006706355 0.1262699 -0.0282204
000110 3f df 9e 3d d2 1a 00 bc 99 99 5c 3a 82 41 1e bd
       0.077574246 -0.007818894 0.0008415222 -0.038636692
000120 ae 94 1b bd 6c b2 84 bd b8 a8 0a 3d f8 05 ee 3d
       -0.03798359 -0.06479344 0.03385231 0.11622232
000130 f4 dc 3a bd 46 0b bf 3c ee c3 c3 bc 0a aa 5f 3d
       -0.045620874 0.023320805 -0.023897137 0.05460552
000140 19 9a 1d bd 4c a4 c9 3d 89 2b 78 3d eb 33 9c 3b
       -0.038477037 0.0984579 0.060588393 0.0047669313
000150 40 e9 68 3d 78 a5 91 3c 5a e9 09 3d 41 25 48 3d
       0.05686307 0.017779097 0.033669807 0.048863653
000160 42 86 bd 3d 28 fa 9e 3c b1 f8 1f 3e 02 fd b8 3d
       0.09254123 0.019406393 0.15622212 0.090326324
000170 0e a7 c9 3d 2c e5 04 3d 04 61 89 3d 55 2f 22 3e
       0.09846316 0.032445118 0.067079574 0.15838368
000180 1d 66 7a 3d d7 9f 14 3c 04 85 89 bc 82 cf 9c 3d
       0.06113254 0.009071312 -0.01678706 0.076567665
000190 38 97 0d 3e c2 ff 4a bd 03 8b f4 3b 7f 76 98 3d
       0.13827217 -0.049560316 0.0074628606 0.07444476
0001a0 f6 66 e8 bc ae 15 35 3d c4 d7 fe bb ec 7b 9e 3d
       -0.028369408 0.04421013 -0.007777186 0.0773848
0001b0 57 87 25 bd 18 03 03 3e 1e 87 51 3d ed 40 d1 3c
       -0.040412273 0.12794149 0.05115425 0.025543654
0001c0 c4 6e d5 bc 7e 83 3e 3e c6 e8 a4 3d 98 8a 6b 3d
       -0.026053794 0.18604848 0.080522105 0.05750522
0001d0 28 c8 6e 3d 62 2b a8 3d c7 cb 85 3d 7c 0e 0e bd
       0.058296353 0.082113996 0.06533008 -0.034681782
0001e0 1e 9d 44 3c 91 34 6d 3a 17 75 ec 3d c5 f1 80 bc
       0.01200035 0.00090486655 0.115457706 -0.015740285
0001f0 10 7e 82 3c bc 01 e0 3b 87 6e d1 3d 94 0a c7 3d
       0.015929252 0.0068361443 0.102261595 0.097188145
000200 9b 38 53 3d 8d e6 95 3c fc f7 3c 3d 00 5b 69 bd
       0.051567655 0.018298412 0.046134934 -0.05697155
000210 ad 06 ed bc 1a b6 2f bd c8 d3 4f 3d 11 3f c9 bb
       -0.028933847 -0.042898275 0.05073908 -0.0061415513
000220 2a a8 31 3d f2 7e d4 bd da 7e f9 3c 37 1b 85 3c
       0.043373264 -0.103757754 0.030455995 0.016248329
000230 64 ff 09 3d ce b7 83 3c 8d ea 03 3d f5 b3 04 bd
       0.033690825 0.016078856 0.032206107 -0.032398183
000240 b4 b8 ec 3b 3a 1f 83 3c 28 90 8c bd 45 13 9e bd
       0.0072241668 0.0160061 -0.06863433 -0.07718519
000250 6e e8 eb 3c 4d 35 c6 bd 72 5b 6e 3c 39 16 c0 3c
       0.028797355 -0.09678135 0.014548169 0.023448097
000260 ec 57 10 b8 47 ae 34 bd 59 f0 2c bd 61 4e 93 bd
       -3.441416e-05 -0.044111516 -0.0422214 -0.07192684
000270 63 22 5f bd b5 72 7d 3a 55 8a 5b 3d 8a 80 56 bd
       -0.054476153 0.0009668277 0.05359872 -0.05236868
000280 4a 35 ef bc 9f 3b 17 bc 91 f7 32 bb e3 0f e9 bb
       -0.029200215 -0.009230523 -0.0027308206 -0.0071124895
000290 63 3d 6e bc 18 cf 07 bd 71 cc 7d bd 18 e1 e0 bd
       -0.014541003 -0.033156484 -0.06196255 -0.10980433
0002a0 ac 75 b7 3d 11 85 d3 bd 19 ca d1 bc 16 c8 e4 3c
       0.08957991 -0.10328115 -0.025609063 0.02792744
0002b0 c4 d2 b4 bd d6 1b 70 bd 74 a1 4d 3d 3b 3b 3b bd
       -0.08829263 -0.058620296 0.0502028 -0.045710783
0002c0 70 06 b5 bd 33 d4 fb bd 81 22 00 3d aa fe 17 3d
       -0.088391185 -0.12296333 0.031282905 0.0371081
0002d0 66 25 b0 3d 96 da 93 bd 31 22 89 3c dd 07 8c 3c
       0.08600883 -0.07219426 0.016739937 0.017093593
0002e0 3e 61 33 bb 08 38 d2 bd f6 fb 81 3d f3 2c ad bd
       -0.0027371193 -0.10264593 0.06346886 -0.08455839
0002f0 ea 64 9c bd ff 5f 1d 3c 3c 39 ca bd cb d8 03 bd
       -0.07636435 0.009605407 -0.09874198 -0.03218917
000300 47 a2 4a 3d 4c 32 e0 bc d0 31 72 bd f7 11 26 bd
       0.049471166 -0.027367733 -0.059129536 -0.040544476
000310 61 b3 c2 3c 64 53 d4 bd 5d a7 01 3d 55 ca 31 bd
       0.023767175 -0.10367468 0.03165375 -0.04340585
000320 5e 73 c4 bc ba ee db bd 0f 79 9a bb eb 02 3c bd
       -0.023980793 -0.10738893 -0.0047141383 -0.04590122
000330 2e d3 b4 3c 5a bb 7a 3d ca b0 27 bd eb 3e 5a 3d
       0.022073355 0.06121383 -0.040940084 0.05328266
000340 91 78 8d 3d d2 d8 99 bd d4 48 92 3d 79 c1 2d 3d
       0.06907762 -0.07512058 0.07142797 0.042420838
000350 b5 68 55 bd e9 8b 9b 3d ad f8 8d 3c 56 43 89 bd
       -0.05210181 0.07595045 0.017330492 -0.067022964
000360 b1 94 3d 3c 08 e7 90 bd d1 e3 06 bd 50 7c 97 3d
       0.011571095 -0.07075316 -0.032932106 0.073967576
000370 10 53 ce 3c b7 3d 12 bd 46 59 a1 bc 7e 68 c4 bc
       0.025186092 -0.035703387 -0.01969589 -0.023975607
000380 76 4c ca 3c dc ef b2 3d 41 0d 8f bc ad 8f 3d bc
       0.024694663 0.08737156 -0.017462375 -0.0115698995
000390 f7 0d da bd f2 69 c3 bc 47 0c 96 3c 6b d2 2d 3d
       -0.10647195 -0.02385423 0.018316401 0.042437
0003a0 87 a5 99 bd 46 bc a8 bc c2 c1 03 3d 9f 65 19 3c
       -0.07502275 -0.020597588 0.032167204 0.009362607
0003b0 65 f9 a8 bd 6c 2e bc bd e9 09 9e bd 4e 4c a5 3d
       -0.08250693 -0.09188542 -0.07716734 0.080711946
0003c0 cb c2 48 3d ba dd 13 3d e6 45 c8 bd 33 0d 88 3d
       0.049013894 0.036100127 -0.09778957 0.066431426
0003d0 a3 e6 ae 3c 6c 17 8f 3c 5d 7b 55 bc 3d bb a2 bb
       0.02135021 0.017467223 -0.0130299 -0.004966168
0003e0 6c b7 86 bd a2 01 35 3d bd 11 f5 bc f1 6e 06 bd
       -0.06577954 0.04419101 -0.029915685 -0.032820646
0003f0 70 1d 15 3d 97 1d 20 bd ff 7e 83 3d 46 2b a5 bd
       0.036405027 -0.03909072 0.06420707 -0.080648944
