logs/fgb_vary_oracle/10/actor.pt (torch, 906162 bytes, 17 tensors)

weight_ih f4 [512, 48]
-0.052658 0.072611 -0.01940613 -0.05022668 -0.04310633 -0.006432204 0.03696179 -0.035461113
0.0733104 0.09560736 -0.032002438 -0.060367763 -0.04744901 -0.07182834 -0.08198793 0.026291676
-0.057294097 0.07320367 -0.02009286 -0.20592953 0.011277545 0.054064926 0.016400298 0.17662703
0.10819147 0.06147689 0.08231815 -0.09722333 0.045149267 -0.034618054 0.0019524888 0.13438368
-0.08279641 -0.0681891 -0.11350026 -0.17665553 -0.069246076 0.09072129 0.015271355 0.045687642
-0.003572963 -0.018883206 0.060650136 0.015934063 0.056011535 0.00548246 0.080368936 0.055336732
0.003457953 0.029293539 0.23309925 0.2108046 0.07282302 0.0012055194 0.051739093 -0.029960755
0.101387054 -0.08966837 -0.043965872 -0.048709042 -0.024573265 0.05934318 -0.13636863 -0.03143095
0.046825554 0.031268805 0.07243443 0.12264508 0.12613618 0.082782805 -0.098194316 -0.094904825
-0.041897066 0.1776523 0.14974433 0.10374957 -0.054220133 -0.09175133 0.02825081 -0.031450666
-0.049994536 0.14571366 0.09967313 -0.12531923 0.008227358 -0.025656939 0.007954062 -0.043050773
0.035683226 -0.045599714 0.055107795 0.058026735 0.09201385 0.06371785 -0.14927474 -0.12066361
0.014858018 0.043539308 -0.1872767 -0.1346054 0.037886035 0.12574348 -0.045274552 0.019117396
-0.00694503 -0.032649327 -0.12441485 -0.13200033 -0.04728936 0.04225991 -0.022001734 0.08390538
-0.10492251 0.11957199 0.10957789 -0.22094463 -0.0392635 -0.005035411 -0.022099728 0.029043678
0.15373884 0.0071238573 -0.0791019 -0.018007046 -0.013157684 -0.055236835 0.013886162 -0.06282079
-0.05647332 -0.0029644102 0.11465166 0.07955315 0.03217511 0.035241045 0.10401721 0.0069011403
0.09216776 -0.03601957 -0.0032700147 0.050967783 0.056954607 0.042450458 0.09132187 -0.0029291383
-0.10385471 -0.06573943 0.02731058 -0.16954374 -0.11901266 -0.11387811 -0.12977883 -0.10420945
-0.03419766 0.09349006 0.110616826 -0.11413056 0.0068353703 -0.080457464 0.06731766 -0.036573853
-0.045698166 -0.050388288 -0.03429878 -0.1906427 0.029208994 -0.08215865 -0.032749746 0.14714275
-0.08496003 -0.05134562 0.11897151 -0.022205215 0.21230659 -0.021921255 -0.04088391 0.009513426
-0.041805733 -0.10630039 0.0817758 -0.09573907 -0.030074798 -0.041661706 0.047750857 0.030303188
0.07714504 0.07162487 -0.013632523 0.00018813249 -0.055437528 0.084341265 0.14669527 0.15915674
-0.19319695 0.012826535 0.20125711 -0.28401518 0.0131989205 0.041409813 0.08759046 -0.1478137
-0.03759149 0.081616424 0.10972662 -0.13927288 -0.16556083 0.046238028 0.032199763 0.16878456
0.22330014 0.02484452 0.030990506 -0.11631802 -0.121580414 0.044570696 -0.07515996 0.112899475
-0.075937524 -0.041671935 0.11851371 -0.10802964 0.05930776 -0.15784526 0.06253961 0.14365269
-0.09893592 0.006756327 -0.00049083016 -0.012907723 -0.02106904 -0.0056667635 -0.0502684 0.06532318
0.041564245 0.055770542 0.0074217143 -0.075051494 0.028318007 -0.0895199 -0.03998873 -0.023249496
0.10836005 0.13931693 -0.07719737 0.01145254 -0.00013664651 -0.12010948 0.08000133 -0.06911928
0.12611516 -0.03714916 0.016342422 0.031112855 0.049690958 0.14948097 -0.042760514 0.021079857
00000000: eaaf 57bd 13b5 943d 9bf9 9ebc 7eba 4dbd
00000010: 4390 30bd 3dc5 d2bb 3f65 173d ac3f 11bd
00000020: c323 963d cbcd c33d fd14 03bd 3044 77bd
00000030: e559 42bd bd1a 93bd 4ae9 a7bd a461 d73c
00000040: 37ad 6abd ceeb 953d c899 a4bc 31df 52be
00000050: 74c5 383c 2f73 5d3d eb59 863c b7dd 343e
00000060: 7d93 dd3d 31cf 7b3d 6b96 a83d 061d c7bd
00000070: 70ee 383d a9cb 0dbd a7ea ff3a e09b 093e
00000080: 2a91 a9bd baa6 8bbd d372 e8bd 30e5 34be
00000090: e3d0 8dbd 15cc b93d b534 7a3c f722 3b3d
000000a0: 5f28 6abb f4b0 9abc 476c 783d 2788 823c
000000b0: 5a6c 653d 35a6 b33b 7898 a43d c5a8 623d
000000c0: d39e 623b 01f9 ef3c 92b1 6e3e 29dd 573e
000000d0: 3c24 953d 8502 9e3a 5fec 533d 4270 f5bc
000000e0: 04a4 cf3d 0da4 b7bd 8f15 34bd 2283 47bd
000000f0: df4d c9bc d611 733d 38a4 0bbe bdbd 00bd
00000100: 27cc 3f3d b813 003d 8158 943d 582d fb3d
00000110: d829 013e 088a a93d 1a1a c9bd 765d c2bd
00000120: 429c 2bbd 7cea 353e 9456 193e a87a d43d
00000130: ee15 5ebd 1fe8 bbbd 3e6e e73c 6ad2 00bd
00000140: 12c7 4cbd f635 153e 6d21 cc3d af53 00be
00000150: 0acc 063c 802e d2bc c151 023c 0256 30bd
00000160: 9328 123d c4c6 3abd b6b8 613d 71ad 6d3d
00000170: c271 bc3d 817e 823d 7adb 18be 7c1e f7bd
00000180: 0b6f 733c 4656 323d 77c5 3fbe ffd5 09be
00000190: 632e 1b3d e6c2 003e cf71 39bd 169c 9c3c
000001a0: 2293 e3bb 4dbb 05bd 36cd febd 182b 07be
000001b0: 7db2 41bd ba18 2d3d fb3c b4bc 95d6 ab3d
000001c0: 9de1 d6bd 29e2 f43d 5f6a e03d 4f3f 62be
000001d0: c4d2 20bd 1700 a5bb 7d0a b5bc 02ed ed3c
000001e0: b76d 1d3e 3f6f e93b 2d00 a2bd 8383 93bc
000001f0: 5493 57bc 0540 62bd c982 633c 30a8 80bd
00000200: 9150 67bd 8d46 42bb 7dce ea3d c3ec a23d
00000210: 0cca 033d ea58 103d fa06 d53d f622 e23b
00000220: 73c2 bc3d 4289 13bd be4d 56bb 98c3 503d
00000230: 3c49 693d 88e0 2d3d f606 bb3d c9f6 3fbb
00000240: c7b1 d4bd 65a2 86bd 70ba df3c e09c 2dbe
00000250: e9bc f3bd ed38 e9bd bee4 04be c46b d5bd
00000260: d812 0cbd b777 bf3d 138b e23d 48bd e9bd
00000270: 3efb df3b e2c6 a4bd d7dd 893d 77ce 15bd
00000280: 002e 3bbd f363 4ebd e17c 0cbd d737 43be
00000290: b347 ef3c cb42 a8bd 9924 06bd 97ac 163e
000002a0: 86ff adbd c94f 52bd 56a7 f33d b6e7 b5bc
000002b0: e666 593e 3494 b3bc e375 27bd 33de 1b3c
000002c0: 7d3c 2bbd 05b4 d9bd 127a a73d d812 c4bd
000002d0: 6c5f f6bc 77a5 2abd 6796 433d 643e f83c
000002e0: 38fe 9d3d 0fb0 923d f25a 5fbc 6e45 4539
000002f0: 7612 63bd 1dbb ac3d 4937 163e fcf9 223e
00000300: 6cd5 45be 6326 523c 5816 4e3e 706a 91be
00000310: 4940 583c 569d 293d a162 b33d 795c 17be
00000320: 89f9 19bd 8326 a73d 5ab8 e03d 8d9d 0ebe
00000330: c788 29be 1664 3d3d e6e3 033d dcd5 2c3e
00000340: cba8 643e bc86 cb3c cddf fd3c 2438 eebd
00000350: 27ff f8bd c38f 363d 77ed 99bd d737 e73d
00000360: 2285 9bbd 31b0 2abd 51b7 f23d a53e ddbd
00000370: b2ec 723d 30a2 21be c414 803d b119 133e
00000380: ea9e cabd 2e64 dd3b 0eab 00ba ea7a 53bc
00000390: fb98 acbc 42b0 b9bb 3de6 4dbd 29c8 853d
000003a0: 453f 2a3d a76f 643d da31 f33b 99b4 99bd
000003b0: 2afb e73c 3656 b7bd 39cb 23bd ba75 bebc
000003c0: e0eb dd3d 19a9 0e3e a819 9ebd 6fa3 3b3c
000003d0: c548 0fb9 f6fb f5bd bdd7 a33d 698e 8dbd
000003e0: 5524 013e b829 18bd 8be0 853c 63e0 fe3c
000003f0: bf88 4b3d 8a11 193e a625 2fbd aaaf ac3c

weight_hh f4 [512, 128]
0.0051374407 -0.04220472 -0.016726837 0.0543217 -0.13162619 -0.15102896 0.07884956 -0.06559783
0.06655295 0.0531572 0.018062524 -0.047383685 -0.034631215 -0.032357406 0.034028623 0.10535067
0.09109522 -0.015171659 0.029152585 -0.037928145 -0.046388622 0.11579467 0.11121027 -0.010982012
-0.00918857 -0.058270257 -0.07601323 -0.002954321 -0.14546774 0.011512794 0.06118641 0.0059308214
-0.012572105 -0.18574448 -0.077371605 -0.14910315 0.11357201 -0.112716205 -0.007764753 0.0065233153
0.0021846043 0.015848842 0.033561435 0.052381124 0.15072493 -0.011783072 -0.027020374 0.01511404
-0.03427905 0.07355356 -0.014454579 -0.045052648 -0.02919125 0.04248657 -0.078873314 0.043957606
0.05466223 -0.05046911 0.008772691 -0.06934191 -0.09492881 -0.0005969293 -0.03395313 0.032511305
-0.13738458 0.098367386 0.05192576 0.052944914 -0.075987324 -0.08881297 0.058914702 0.028870752
-0.07453381 -0.069157794 -0.029476378 0.036415856 0.004864999 0.0070426706 -0.11368067 0.012669769
0.07193424 -0.043482866 0.021450253 0.13571274 -0.053639226 0.16435018 -0.079180725 -0.05310369
-0.0044933003 0.11720345 -0.07248183 0.067548394 0.10125214 -0.0003334621 0.04342846 0.021248894
-0.042782158 -0.08491615 -0.093810655 -0.103996664 0.14749213 0.0047777863 0.16021611 -0.05219693
-0.032410625 -0.09410065 0.016703947 0.10415334 0.070472226 -0.06815547 0.001966881 0.06327491
0.013553273 0.03296067 -0.023960302 0.055563174 -0.063283674 -0.019053832 0.010780242 -0.086330496
-0.015002903 -0.08082812 0.026121613 -0.07405643 -0.06241614 0.118713856 -0.13404319 0.12670909
-0.11249213 0.07152127 -0.008609396 0.03793666 0.0112251425 0.03536954 0.018670157 0.10912892
0.05591895 -0.01694477 -0.054206707 0.046786916 0.03165667 -0.06969807 -0.028344087 0.04275276
-0.04360987 -0.030760547 0.09331317 -0.06422641 -0.0917786 -0.02407702 -0.02458132 -0.06180132
0.104837246 0.13011016 -0.054122064 -0.06625701 -0.1283048 0.013575518 -0.073602594 0.005805428
0.00989249 -0.044395257 0.08446625 -0.0150959175 -0.035721857 0.035497468 -0.08037606 0.060256474
-0.07038926 -0.0053185704 -0.038942046 -0.03702034 -0.005576116 -0.094437584 0.08390437 0.010130662
-0.049578946 0.043764204 -0.0072687156 -0.09267251 0.019749051 0.12524691 -0.09241872 0.0023743599
-0.09027638 0.035161525 -0.07606295 -0.036311336 -0.07580888 -0.11537637 0.022783462 0.06222369
0.011567545 0.017888987 0.10783781 -0.025163732 -0.09189444 0.11392036 -0.049054556 -0.0901607
0.008847344 0.051415782 -0.005607838 -0.04273102 0.051357403 0.047689576 0.085810125 0.029719185
-0.053411916 -0.011407358 0.0135242175 -0.03303461 -0.07268947 0.05603576 0.06401648 0.051334318
-0.050800715 0.025747884 0.04292047 0.10432309 0.037506912 0.054436784 0.12265799 -0.04506093
0.08060768 0.042148326 -0.07348446 -0.008960281 0.03967189 -0.08464783 -0.06036703 -0.09520372
0.04002409 0.0129177505 -0.052109472 -0.03579856 -0.020110196 0.050331723 -0.03664913 -0.013881859
-0.03264999 0.069651075 -0.14220853 -7.140591e-05 -0.006795358 -0.11850222 -0.045599606 0.064735256
-0.051060036 0.0730372 -0.0017881341 -0.034161273 -0.031413678 0.03787826 -0.14560696 -0.017000856
00000000: fa57 a83b dbde 2cbd b806 89bc 6e80 5e3d
00000010: 04c9 06be 56a7 1abe e17b a13d 2858 86bd
00000020: ea4c 883d 5dbb 593d dcf7 933c 6515 42bd
00000030: 76d9 0dbd 3389 04bd 9961 0b3d 18c2 d73d
00000040: 2190 ba3d 8d92 78bc 67d1 ee3c 8b5a 1bbd
00000050: ff01 3ebd c225 ed3d 36c2 e33d e6ed 33bc
00000060: a88b 16bc cbac 6ebd d3ac 9bbd 489d 41bb
00000070: 7ff5 14be 28a0 3c3c 9a9e 7a3d 5657 c23b
00000080: 3bfb 4dbc cd33 3ebe 0175 9ebd 7fae 18be
00000090: 7198 e83d c1d7 e6bd 786f febb 89c1 d53b
000000a0: 942b 0f3b 6ed5 813c b777 093d 978d 563d
000000b0: a357 1a3e c90d 41bc d559 ddbc e1a0 773c
000000c0: 3068 0cbd 40a3 963d e6d2 6cbc 2089 38bd
000000d0: 7d22 efbc 6606 2e3d 5588 a1bd e40c 343d
000000e0: 81e5 5f3d b3b8 4ebd 55bb 0f3c 2203 8ebd
000000f0: 096a c2bd 3f7b 1cba 7012 0bbd 932a 053d
00000100: 8bae 0cbe d774 c93d 1bb0 543d c4dc 583d
00000110: 3e9f 9bbd 93e3 b5bd 8b50 713d 5b82 ec3c
00000120: 2fa5 98bd 9aa2 8dbd 7278 f1bc cb28 153d
00000130: 926a 9f3b 34c6 e63b 69d1 e8bd dd94 4f3c
00000140: 4252 933d 171b 32bd 71b8 af3c 48f8 0a3e
00000150: ceb4 5bbd 6a4b 283e 8129 a2bd 4183 59bd
00000160: 893c 93bb 5d08 f03d 5b71 94bd d056 8a3d
00000170: 485d cf3d 87d4 aeb9 0ae2 313d 2912 ae3c
00000180: 583c 2fbd 85e8 adbd cd1f c0bd 34fc d4bd
00000190: 2d08 173e fa8e 9c3b b10f 243e 73cc 55bd
000001a0: 01c1 04bd d7b7 c0bd b7d6 883c 594e d53d
000001b0: be53 903d 1895 8bbd cae6 003b 4796 813d
000001c0: 8c0e 5e3c c401 073d 6548 c4bc 3696 633d
000001d0: df9a 81bd c816 9cbc 9d9f 303c 0bce b0bd
000001e0: bcce 75bc 3789 a5bd fefc d53c e6aa 97bd
000001f0: 11a8 7fbd 4020 f33d 9e42 09be 07c0 013e
00000200: 4662 e6bd be79 923d 6d0e 0dbc 7963 1b3d
00000210: a9e9 373c a7df 103d 28f2 983c fc7e df3d
00000220: 450b 653d c2cf 8abc da07 5ebd a3a3 3f3d
00000230: 6daa 013d ddbd 8ebd dc31 e8bc 851d 2f3d
00000240: 43a0 32bd 8bfd fbbc fa1a bf3d 2389 83bd
00000250: 6bf6 bbbd 2c3d c5bc c45e c9bc 6223 7dbd
00000260: e9b4 d63d 993b 053e 19af 5dbd c1b1 87bd
00000270: 5562 03be d96b 5e3c f5bc 96bd 763b be3b
00000280: 1c14 223c cdd7 35bd a4fc ac3d de54 77bc
00000290: 1551 12bd cb65 113d 349c a4bd 7ecf 763d
000002a0: 3f28 90bd 6747 aebb b281 1fbd a4a2 17bd
000002b0: dab7 b6bb 7e68 c1bd 0ed6 ab3d 13fb 253c
000002c0: 4b13 4bbd 1842 333d 682e eebb 16cb bdbd
000002d0: c3c8 a13c ba40 003e 0746 bdbd 269b 1b3b
000002e0: d3e2 b8bd 8805 103d e4c6 9bbd 32bb 14bd
000002f0: b041 9bbd 724a ecbd 62a4 ba3c 45de 7e3d
00000300: cd85 3d3c ed8b 923c 12da dc3d 2c24 cebc
00000310: 2733 bcbd 144f e93d 6eed 48bd 2ca6 b8bd
00000320: 73f4 103c 5b99 523d f4c1 b7bb b906 2fbd
00000330: 245c 523d 2556 433d 38bd af3d a675 f33c
00000340: 74c6 5abd ede5 3abc ae94 5d3c 4d4f 07bd
00000350: 38de 94bd c185 653d 131b 833d ef43 523d
00000360: 6914 50bd 3aed d23c 60cd 2f3d 58a7 d53d
00000370: d9a0 193d 1bf9 5e3d 1d34 fb3d cf91 38bd
00000380: a415 a53d b9a3 2c3d 057f 96bd 24ce 12bc
00000390: fe7e 223d d75b adbd 6b43 77bd 2bfa c2bd
000003a0: 4df0 233d f9a4 533c be70 55bd 83a1 12bd
000003b0: 23be a4bc a328 4e3d 661d 16bd bd70 63bc
000003c0: ffbb 05bd 39a5 8e3d 1d9f 11be c2bf 95b8
000003d0: 98ab debb 4bb1 f2bd a7c6 3abd eb93 843d
000003e0: 5424 51bd 8794 953d d35f eaba b1ec 0bbd
000003f0: a1ab 00bd 3c26 1b3d fe19 15be 6145 8bbc

bias_ih f4 [512]
0.12266665 0.11823622 0.04582447 -0.04689686 0.15139267 0.06445292 0.091642916 0.13304047
-0.0041652196 0.063887104 0.0062932437 0.048387595 0.10031332 0.07395848 -0.017483536 0.05427811
0.020400057 0.07721169 0.094150044 0.006169706 0.07982231 0.10604793 0.14718908 0.07706198
0.0045162337 0.11131278 -0.00067834556 0.05385705 0.13159698 0.026960755 0.044300627 0.104813896
-0.007473626 0.022339674 0.1459371 0.0066089863 0.1871487 0.17758165 0.079592824 0.08730335
0.14466763 -0.033589568 0.04343385 0.086278655 0.17118166 0.14362915 0.03178746 0.10369869
-0.025295516 0.084838636 0.0710441 0.11011962 0.020102419 0.03772733 0.117820196 0.1695163
0.11526682 0.1768959 0.107333526 0.1597372 0.18443431 0.07064884 0.08223374 0.08634932
0.004158505 0.22966254 0.058724374 0.062560074 0.17220698 0.035755713 0.038855076 0.15552735
0.16384314 0.11536839 0.14962764 0.027818007 0.17532462 0.07338245 -0.0015762784 0.08167514
0.036310747 0.14720865 0.07916505 0.0017163627 0.06527506 0.0121164825 0.04170406 0.13817322
0.08133334 0.16043496 0.023719065 -0.03632321 -0.021733046 0.06853389 0.03858765 0.03482517
-0.033364806 0.09604136 0.091117755 0.004337212 0.06907963 -0.003923685 0.11451857 0.034050293
0.22606039 0.07220312 0.18587574 0.16918293 0.06642696 0.056515004 0.09252836 0.060461182
0.13282919 0.084519535 0.15006204 0.07355415 0.17328678 0.16825503 0.09938773 0.030458776
0.08778474 0.13217741 -0.009954038 0.15693355 0.10102216 0.08613973 0.04305202 0.08007694
0.11280224 0.09586551 -0.06694381 0.01172721 -0.025068115 0.043432504 -0.0817024 0.10582921
0.028960446 -0.11167299 0.03893953 0.054378357 -0.05068358 -0.067478895 0.025043475 -0.011852739
-0.04369491 -0.0100693265 -0.031944245 0.0051295273 0.0027913742 0.039989505 -0.006569699 0.06176297
-0.008708192 -0.010461315 -0.013703647 0.051745493 0.059611224 -0.04527579 -0.061462056 0.058614038
-0.03282697 0.10214617 -0.04268954 0.08766991 -0.0021312726 -0.09392109 0.002769731 -0.02903105
0.014697175 -0.04264061 0.070533074 -0.016065506 -0.05247688 0.046109878 -0.009182791 -0.0071380273
-0.052444033 0.054061934 0.027448906 0.029200247 -0.0849097 0.08060822 -0.02305572 0.010479351
-0.10523334 0.013448355 -0.030794771 -0.019557891 0.08051447 0.04032916 0.07537382 -0.08134391
0.10117113 0.012000076 0.01151281 0.1513922 -0.082109615 0.060805295 -0.05980368 0.03949948
-0.031628568 0.024328474 -0.062401447 -0.059252605 -0.0539003 -0.010819318 0.021074137 0.031744927
0.059247836 -0.0029869997 -0.0778876 -0.03271721 -0.05845012 -0.019120798 -0.049192473 0.08382641
-0.036180735 0.06711853 0.06309589 0.05904751 -0.019868087 0.041279834 -0.07434404 0.04248961
-0.07754089 -0.11846975 0.0145473275 0.02607335 -0.04263115 0.04601244 0.056037672 0.008548863
-0.097876444 0.13947919 -0.045807388 0.032423615 -0.012610116 0.054473847 -0.08132609 -0.008102068
0.0708424 0.03902007 -0.0105537465 -0.09426917 -0.0059274086 0.06182037 -0.01910641 -0.020482954
0.07661137 -0.057534095 -0.045780074 -0.015455068 0.044000167 -0.03982599 -0.088063985 -0.020957556
00000000: a738 fb3d d525 f23d 71b2 3b3d ec16 40bd
00000010: ae06 1b3e e4ff 833d 48af bb3d c33b 083e
00000020: 657c 88bb 3ed7 823d 8e37 ce3b 1232 463d
00000030: 1271 cd3d 8b77 973d a239 8fbc b952 5e3d
00000040: 051e a73c 2a21 9e3d bdd1 c03d 3f2b ca3b
00000050: e179 a33d a82f d93d bcb8 163e acd2 9d3d
00000060: eafc 933b f4f7 e33d 00d3 31ba 3699 5c3d
00000070: 5cc1 063e cddc dc3c 9374 353d aba8 d63d
00000080: 52e5 f4bb b101 b73c 8970 153e 3290 d83b
00000090: e9a3 3f3e f7d7 353e 9001 a33d 19cc b23d
000000a0: c023 143e 3795 09bd b1e7 313d ddb2 b03d
000000b0: 3f4a 2f3e 8513 133e 9133 023d fb5f d43d
000000c0: 8b38 cfbc e1bf ad3d 927f 913d 6586 e13d
000000d0: d4ad a43c f987 1a3d b74b f13d ae95 2d3e
000000e0: 0311 ec3d 3324 353e aed1 db3d 2692 233e
000000f0: 59dc 3c3e 57b0 903d 2a6a a83d ead7 b03d
00000100: 1144 883b a82c 6b3e f888 703d 7f1f 803d
00000110: 0757 303e 9574 123d 8026 1f3d 9042 1f3e
00000120: 7fc6 273e 4346 ec3d fd37 193e 97e2 e33c
00000130: 4c88 333e 8a49 963d 209b ceba 4c45 a73d
00000140: 94ba 143d ddbd 163e 4921 a23d 93f7 e03a
00000150: eeae 853d 3684 463c e0d1 2a3d 487d 0d3e
00000160: 1892 a63d 1049 243e 7c4e c23c a5c7 14bd
00000170: 8009 b2bc 7f5b 8c3d 150e 1e3d d6a4 0e3d
00000180: 89a9 08bd 55b1 c43d f29b ba3d 2c1f 8e3b
00000190: 9f79 8d3d 4192 80bb b688 ea3d 5278 0b3d
000001a0: 607c 673e 3bdf 933d 3656 3e3e 4a3e 2d3e
000001b0: dc0a 883d 477c 673d 827f bd3d 25a6 773d
000001c0: 6004 083e 9418 ad3d dda9 193e 8fa3 963d
000001d0: 1772 313e 0c4b 2c3e cb8b cb3d af84 f93c
000001e0: 7cc8 b33d 8459 073e 4316 23bc 30b3 203e
000001f0: b5e4 ce3d 076a b03d 5157 303d 61ff a33d
00000200: dc04 e73d 2355 c43d d619 89bd 7c23 403c
00000210: a65b cdbc 48e6 313d 9753 a7bd fcbc d83d
00000220: 753e ed3c cfb4 e4bd 0e7f 1f3d d7bb 5e3d
00000230: 9699 4fbd 6032 8abd f927 cd3c fe31 42bc
00000240: 6ff9 32bd d1f9 24bc f8d7 02bd 9815 a83b
00000250: 7def 363b 09cc 233d a146 d7bb 2bfb 7c3d
00000260: ceac 0ebc ef65 2bbc 4385 60bc 15f3 533d
00000270: e62a 743d 1b73 39bd a3bf 7bbd 4615 703d
00000280: 9375 06bd 0332 d13d 3adb 2ebd 488c b33d
00000290: d2ac 0bbb b359 c0bd 6084 353b 86d2 edbc
000002a0: 6bcc 703c eca7 2ebd a573 903d cf9b 83bc
000002b0: fff1 56bd b6dd 3c3d 6b73 16bc 1de6 e9bb
000002c0: 8ecf 56bd 0c70 5d3d 87dc e03c 5b35 ef3c
000002d0: 23e5 adbd ec15 a53d 59df bcbc 95b1 2b3c
000002e0: 9484 d7bd 7d56 5c3c 5145 fcbc df37 a0bc
000002f0: c5e4 a43d 3030 253d 975d 9a3d a397 a6bd
00000300: cf32 cf3d f79b 443c 3aa0 3c3c 8f06 1b3e
00000310: 1629 a8bd f90e 793d b4f4 74bd 35ca 213d
00000320: f58c 01bd 824c c73c a998 7fbd dcb2 72bd
00000330: 90c6 5cbd 8243 31bc aba3 ac3c f806 023d
00000340: dcad 723d 8ac1 43bb 8983 9fbd 7b02 06bd
00000350: 6569 6fbd 38a3 9cbc 0c7e 49bd 2ead ab3d
00000360: 4032 14bd 7175 893d 6b38 813d cddb 713d
00000370: 66c2 a2bc 0b15 293d b041 98bd 9609 2e3d
00000380: c2cd 9ebd 45a0 f2bd ea57 6e3c c797 d53c
00000390: 009e 2ebd 8a77 3c3d c287 653d 8810 0c3c
000003a0: 7273 c8bd a2d3 0e3e 87a0 3bbd a0ce 043d
000003b0: a99a 4ebc f81f 5f3d 4b8e a6bd 89be 04bc
000003c0: d215 913d 82d3 1f3d 9fe9 2cbc 3210 c1bd
000003d0: b53a c2bb 5b37 7d3d 0c85 9cbc decb a7bc
000003e0: 6ce6 9c3d dfa8 6bbd e383 3bbd 4137 7dbc
000003f0: 8539 343d 9420 23bd e45a b4bd 2eaf abbc

bias_hh f4 [512]
0.052487224 0.029437993 0.14265494 -0.020521108 0.13305196 0.047544036 0.11666441 0.12873632
-0.021505538 0.11823413 0.0927227 0.10819399 0.02525003 0.01320937 0.08544851 0.07375924
-0.012185007 0.13418207 -0.02807365 0.15019262 0.10576462 0.14725046 0.12487764 0.07683788
0.034354616 0.16675855 -0.012585545 0.006807553 0.0744227 0.117199756 0.09371302 0.12379405
0.11437935 0.07198201 0.03895156 0.043214433 0.020886498 0.124298915 0.15263091 -0.038378734
0.23458469 -0.06028408 0.14751698 0.08558307 0.13138963 0.09687731 0.07698394 0.003299896
0.044045676 0.11375102 0.1445231 0.017413072 0.10673376 -0.045790043 0.19267035 0.21247664
0.15985426 0.11726372 0.0746575 0.08857886 0.19078319 0.12529214 0.015380356 0.121595904
0.007313544 0.14818183 -0.03419897 0.088492416 0.20367317 0.08290704 0.1057073 0.16525027
0.10455923 0.12406235 0.073890984 -0.0035850238 0.14013532 0.114091024 0.15062192 0.05377997
0.12007255 0.06968031 0.18876848 0.11240727 0.18344992 0.12624767 0.05841369 0.081901565
0.038855154 0.12760946 0.079348736 0.08439101 -0.013540804 0.06660793 0.08328855 -0.026017878
0.07456495 0.01741412 0.1434354 0.14228511 0.015845072 0.09013054 0.082196295 0.08131509
0.27674246 0.09398965 0.071673915 0.019877633 0.030182332 0.16808 0.091582716 -0.015855437
0.08490143 0.026625484 0.008853231 0.13509017 0.0129352 0.11198204 0.14699075 0.03838273
0.075674176 0.043848727 0.1499019 0.05391655 0.14340025 -0.007619332 0.09974468 0.09185495
-0.039629992 0.0018458746 -0.025594037 -0.0612172 -0.0008845039 0.07967577 0.0219869 0.096224874
0.063684665 -0.10985754 0.038284287 0.037012916 0.031478252 0.011027619 -0.023849828 -0.014992878
0.059932027 0.047753055 0.08721127 0.108587176 0.06238599 -0.0047109555 -0.06770301 0.0005801811
0.12843058 -0.007665299 -0.028349383 -0.0013738159 -0.016827751 0.087530404 -0.052280188 0.02009688
-0.009752102 0.09317068 0.018978842 0.00842183 0.019812943 -0.11559016 -0.028468307 0.07933844
0.02784051 0.08459551 -0.06671298 0.077039324 0.037478384 -0.058198474 0.024250237 0.036020905
-0.04948832 0.052080125 -0.08089509 0.015632525 -0.046071205 0.064380705 -0.10452367 -0.0041565755
-0.12546292 0.04693003 0.008622655 -0.05863444 0.041266806 -0.060491443 -0.012094188 0.022833753
0.040129475 0.06536511 -0.004073244 0.14157353 -0.06325427 0.13039203 -0.06775786 0.04848988
-0.052437704 -0.00578357 -0.074533455 -0.04772822 -0.024189992 0.073716626 -0.08603403 -0.03496405
-0.021509588 0.01786446 0.044308215 0.0072913603 -0.046529714 0.010811852 -0.052825592 -0.005526116
0.0002680862 0.08082982 0.02701401 0.1037026 0.10234881 0.07461484 0.088173784 0.023786696
0.0129937185 -0.0064866184 -0.022429192 0.10963127 -0.041078523 0.030825298 0.059763744 0.00039224926
-0.0063413465 0.12346929 0.054388802 -0.010582647 0.0063334494 -0.02814213 -0.024055671 -0.05009458
-0.039122507 0.015665406 -0.1486983 0.023435144 0.076216176 0.01900559 -0.03820457 -0.026781868
0.053442527 0.063653335 -0.0156722 -0.014156051 0.013519563 0.005942065 0.07211183 -0.09429478
00000000: d8fc 563d f227 f13c 2314 123e e21b a8bc
00000010: c63e 083e 89bd 423d c0ed ee3d 74d3 033e
00000020: 622c b0bc bc24 f23d 66e5 bd3d d094 dd3d
00000030: 27d9 ce3c 1d6c 583c a1ff ae3d 160f 973d
00000040: a0a3 47bc 0667 093e b6fa e5bc 18cc 193e
00000050: 1f9b d83d d3c8 163e d9bf ff3d 2e5d 9d3d
00000060: 6db7 0c3d c1c2 2a3e 9a33 4ebc e511 df3b
00000070: ee6a 983d 6d06 f03d 9dec bf3d bc87 fd3d
00000080: b83f ea3d 4e6b 933d ac8b 1f3d 9e01 313d
00000090: 291a ab3c 6e90 fe3d 474b 1c3e 0533 1dbd
000000a0: f836 703e 71ec 76bd b10e 173e 2d46 af3d
000000b0: 018b 063e 9c67 c63d c2a9 9d3d 1143 583b
000000c0: 3d69 343d 4bf6 e83d ddfd 133e dca5 8e3c
000000d0: 3b97 da3d 578e 3bbd 604b 453e 7a93 593e
000000e0: d6b0 233e f627 f03d 08e6 983d d568 b53d
000000f0: ab5c 433e 954c 003e e4fd 7b3c 4607 f93d
00000100: 74a6 ef3b fabc 173e 3814 0cbd 833b b53d
00000110: b38f 503e 2bcb a93d 127d d83d 5e37 293e
00000120: 2623 d63d 6714 fe3d 2854 973d b8f2 6abb
00000130: a27f 0f3e 8ea8 e93d a23c 1a3e 6348 5c3d
00000140: 99e8 f53d 8db4 8e3d 864c 413e c835 e63d
00000150: 4cda 3b3e 1247 013e 3243 6f3d 02bc a73d
00000160: 9526 1f3d 0eac 023e 9781 a23d 32d5 ac3d
00000170: 40da 5dbc bd69 883d 3093 aa3d 7223 d5bc
00000180: 82b5 983d 0ea8 8e3c bbe0 123e 30b3 113e
00000190: 86cd 813c 5c96 b83d 8856 a83d 8788 a63d
000001a0: 30b1 8d3e a57d c03d c6c9 923d 6bd6 a23c
000001b0: f040 f73c 2a1d 2c3e b88f bb3d 43e3 81bc
000001c0: cde0 ad3d b01d da3c 240d 113c 1455 0a3e
000001d0: 29ee 533c d756 e53d be84 163e 3637 1d3d
000001e0: 10fb 9a3d b99a 333d e27f 193e 9ad7 5c3d
000001f0: 84d7 123e 97ab f9bb f046 cc3d 731e bc3d
00000200: 0f53 22bd 46f1 f13a 96aa d1bc e3be 7abd
00000210: 0dde 67ba 0d2d a33d df1d b43c 8c11 c53d
00000220: 1b6d 823d fdfc e0bd fccf 1c3d db9a 173d
00000230: 57ef 003d 30ad 343c b760 c3bc b0a4 75bc
00000240: 497b 753d b598 433d d39b b23d f462 de3d
00000250: 7488 7f3d 5c5e 9abb e0a7 8abd 4b17 183a
00000260: 4e83 033e 302d fbbb f73c e8bc 9d11 b4ba
00000270: 5ada 89bc 2443 b33d c023 56bd 36a2 a43c
00000280: 48c7 1fbc 45d0 be3d 8479 9b3c b7fb 093c
00000290: c14e a23c 89ba ecbd 5e36 e9bc 317c a23d
000002a0: c811 e43c 6940 ad3d d1a0 88bd cbc6 9d3d
000002b0: ef82 193d 8661 6ebd 6fa8 c63c a88a 133d
000002c0: 44b4 4abd f851 553d 53ac a5bd c80f 803c
000002d0: 29b5 3cbd 08da 833d 8210 d6bd e233 88bb
000002e0: 5a79 00be b439 403d 0946 0d3c ab2a 70bd
000002f0: 6207 293d e0c5 77bd b326 46bc da0d bb3c
00000300: ce5e 243d 25de 853d d978 85bb a7f8 103e
00000310: 748b 81bd 7d85 053e a2c4 8abd 539d 463d
00000320: ebc8 56bd 1a84 bdbb ffa4 98bd aa7e 43bd
00000330: 172a c6bc bef8 963d 9c32 b0bd 7736 0fbd
00000340: e034 b0bc 7d58 923c 887c 353d 5dec ee3b
00000350: f195 3ebd 3224 313c a65f 58bd 6c14 b5bb
00000360: ec8d 8c39 1b8a a53d 7c4c dd3c 0762 d43d
00000370: 419c d13d aacf 983d 7594 b43d 51dc c23c
00000380: 9be3 543c b38d d4bb 6dbd b7bc 5c86 e03d
00000390: f441 28bd 5685 fc3c d4ca 743d cea6 cd39
000003a0: 12cb cfbb 78dd fc3d cbc6 5e3d d762 2dbc
000003b0: d388 cf3b 538a e6bc 6610 c5bc f92f 4dbd
000003c0: ec3e 20bd bd54 803c 5e44 18be 0ffb bf3c
000003d0: 3a17 9c3d 9cb1 9b3c 657c 1cbd a665 dbbc
000003e0: 8de6 5a3d ae5c 823d fc62 80bc c8ee 67bc
000003f0: 2881 5d3c a7b5 c23b 5eaf 933d 9f1d c1bd

weight_ih f4 [512, 128]
-0.021107966 -0.079407856 -0.10521855 -0.05343407 -0.06254885 0.022579927 0.03417548 0.032267954
-0.03647179 -0.06558076 -0.07370529 0.03190172 0.104924165 0.09094369 0.00010581426 0.07712768
0.056589022 0.098829105 -0.007751961 -0.09321035 0.00583361 -0.038449477 -0.02976834 -0.05662468
0.045385145 -0.09328842 -0.015626386 0.12009435 -0.07369153 0.04894317 -0.08886106 0.062130082
-0.0030500058 0.082502484 0.0071980376 -0.0030404096 -0.0295381 -0.018570134 0.03721095 0.018164428
-0.14662872 0.07004619 0.11484328 0.16401187 0.050996944 0.030038387 -0.19235265 0.043880723
-0.062365543 0.07769414 0.035888378 -0.09691038 -0.050295252 0.045169346 -0.0072265537 0.061421026
-0.005425283 0.021180118 -0.03952438 -0.07635246 0.056183264 -0.0761339 -0.04811758 0.09209853
-0.08376475 -0.096655965 -0.048519183 0.0060415696 0.004485256 -0.014375941 0.06476149 0.10614507
0.11373242 0.05926802 0.029748444 0.046909787 0.023688877 0.020275867 -0.045621358 0.041154172
-0.0450294 0.09605397 -0.013459166 -0.07101206 -0.057101402 0.028087303 -0.06365553 -0.023607904
0.04237518 -0.068500355 -0.1816644 0.025267377 0.07970895 -0.14324968 0.02483238 -0.009796923
-0.08565102 -0.13050307 -0.022368366 -0.051491998 0.035312966 -0.03506864 0.114860095 -0.034776747
-0.006205208 -0.13400568 -0.0010740268 0.111322254 0.027198173 -0.013568162 -0.08933461 0.007757056
-0.037094273 -0.03849066 -0.040666033 0.1004879 0.08131529 -0.07874632 0.028163727 -0.03274145
-0.01360876 0.122197844 -0.112961784 0.061964113 -0.013026897 0.05409356 -0.042757403 -0.04659987
0.027261188 0.10761218 0.0028556616 -0.055215612 -0.05238547 0.07353466 0.054630928 -0.060157873
0.12983194 0.016102916 -0.13520092 0.08961876 0.0032614702 0.014570952 -0.008207107 -0.0424205
0.023174284 0.03698677 -0.041929875 -0.04347626 0.059637476 -0.005263313 -0.053244747 0.10768568
-0.12098673 0.045946974 0.034782536 -0.054956924 0.045182493 -0.0011030815 0.036734678 0.073423326
0.10587349 0.04447199 0.10562528 -0.009989172 -0.058901887 -0.012506773 0.057944667 -0.023118103
0.037294813 -0.04282426 0.09788023 0.051846117 0.17834716 0.016661076 0.016333131 -0.06301468
0.0449398 0.012150444 -0.09681416 0.08219779 0.07421918 0.06383122 -0.044127025 0.03220381
0.15762839 -0.008775342 0.0734978 0.032904524 -0.016530953 -0.17068738 0.03170723 -0.04024475
-0.1354478 0.026300149 -0.03709042 0.014928729 0.14899337 0.053818155 0.038112596 -0.036004446
-0.07042328 0.04626217 -0.06423166 -0.0015632625 0.09427497 0.035019707 -0.1206463 -0.010934171
-0.07259371 0.08090005 -0.07596717 0.04571195 -0.04872972 0.05348896 0.0433953 -0.12568115
-0.002057277 -0.044848867 0.03923236 -0.034131035 0.021186514 -0.010060794 -0.033386152 -0.040855423
-0.07320902 -0.04243556 0.030128837 -0.06066263 0.0078081675 -0.1553947 0.07113313 -0.02505431
-0.018439338 -0.08145656 0.13483949 -0.009711843 0.07435376 -0.029153764 3.410788e-05 0.031160347
0.15479386 -0.028463578 0.01921726 0.07884054 -0.024145644 0.0057684365 0.10600023 -0.04106948
0.073829204 -0.22400273 0.06885214 0.18520509 -0.10566642 -0.026345009 0.0108817 0.009018521
00000000: 9dea acbc 96a0 a2bd d37c d7bd afdd 5abd
00000010: 9d19 80bd 8af9 b83c 97fb 0b3d 672b 043d
00000020: 7263 15bd 354f 86bd cdf2 96bd 61ab 023d
00000030: 7be2 d63d af40 ba3d 99e8 dd38 1ef5 9d3d
00000040: e4c9 673d ea66 ca3d 2904 febb 11e5 bebd
00000050: de27 bf3b 337d 1dbd bcdc f3bc 48ef 67bd
00000060: c6e5 393d 000e bfbd e802 80bc 07f4 f53d
00000070: 96eb 96bd a278 483d cafc b5bd 1d7c 7e3d
00000080: 9be2 47bb 10f7 a83d 84dd eb3b 9c41 47bb
00000090: e3f9 f1bc 6520 98bc 826a 183d 91cd 943c
000000a0: d725 16be 6074 8f3d f432 eb3d baf2 273e
000000b0: 2ce2 503d 1013 f63c 18f8 44be 46bc 333d
000000c0: 0373 7fbd 1b1e 9f3d b1ff 123d f378 c6bd
000000d0: 6502 4ebd 7e03 393d bacc ecbb 9d94 7b3d
000000e0: 93c6 b1bb ed81 ad3c 51e4 21bd ae5e 9cbd
000000f0: 6c20 663d 17ec 9bbd f116 45bd 279e bc3d
00000100: da8c abbd 90f3 c5bd 0dbc 46bd 5cf8 c53b
00000110: 0ef9 923b 1189 6bbc aca1 843d 9662 d93d
00000120: 8bec e83d 06c3 723d 02b3 f33c 7a24 403d
00000130: 2d0f c23c 9319 a63c 76dd 3abd 4791 283d
00000140: c070 38bd f2b7 c43d d583 5cbc c56e 91bd
00000150: 29e3 69bd 5817 e63c d55d 82bd 5d65 c1bc
00000160: 9991 2d3d ea49 8cbd 3c06 3abe 88fd ce3c
00000170: 723e a33d 0bb0 12be 466d cb3c 4683 20bc
00000180: cd69 afbd 99a2 05be dd3d b7bc 46e9 52bd
00000190: 54a4 103d 22a4 0fbd c53b eb3d 1072 0ebd
000001a0: 0f55 cbbb c938 09be 5cc6 8cba ecfc e33d
000001b0: b4ce de3c ff4c 5ebc 10f5 b6bd e72e fe3b
000001c0: 2af0 17bd 62a8 1dbd 6d91 26bd 9acc cd3d
000001d0: a188 a63d c045 a1bd 9eb7 e63c e61b 06bd
000001e0: 47f7 5ebc dd42 fa3d 8258 e7bd 15ce 7d3d
000001f0: c46e 55bc 3591 5d3d 6322 2fbd 81df 3ebd
00000200: db52 df3c c663 dc3d 0d26 3b3b c429 62bd
00000210: 2692 56bd 5799 963d aec4 5f3d 1a68 76bd
00000220: aaf2 043e 43ea 833c 1c72 0abe 0a8a b73d
00000230: 64be 553b 01bb 6e3c 1a77 06bc 1ec1 2dbd
00000240: ffd7 bd3c 707f 173d a9be 2bbd 2a14 32bd
00000250: 6d46 743d df77 acbb 2a17 5abd 4f8a dc3d
00000260: e4c7 f7bd e532 3c3d 2278 0e3d 831a 61bd
00000270: 4711 393d 4695 90ba 1a77 163d f85e 963d
00000280: 33d4 d83d 4328 363d 1152 d83d a0a9 23bc
00000290: 1b43 71bd 35e9 4cbc 6357 6d3d 2d62 bdbc
000002a0: 72c2 183d 7e68 2fbd 6e75 c83d 985c 543d
000002b0: a3a0 363e cf7c 883c 0fcd 853c d70d 81bd
000002c0: cc12 383d a812 473c 8146 c6bd 5157 a83d
000002d0: 3a00 983d f1b9 823d 8abe 34bd 24e8 033d
000002e0: 5669 213e 74c6 0fbc 0486 963d e5c6 063d
000002f0: ec6b 87bc acc8 2ebe 71df 013d aed7 24bd
00000300: d4b2 0abe 6973 d73c 20ec 17bd a197 743c
00000310: b891 183e 6d70 5c3d f41b 1c3d 6679 13bd
00000320: 153a 90bd 677d 3d3d e38b 83bd 63e6 ccba
00000330: 3c13 c13d d370 0f3d 6815 f7bd 3d25 33bc
00000340: 03ac 94bd edae a53d ad94 9bbd 743c 3b3d
00000350: d198 47bd 3d17 5b3d 45bf 313d 8fb2 00be
00000360: 61d3 06bb 72b3 37bd 1cb2 203d fccc 0bbd
00000370: 578f ad3c 07d6 24bc ebbf 08bd 0458 27bd
00000380: 9cee 95bd e9d0 2dbd c0d0 f63c 6179 78bd
00000390: a8db ff3b ca1f 1fbe 3fae 913d b23e cdbc
000003a0: 180e 97bc b2d2 a6bd 5d13 0a3e 6c1e 1fbc
000003b0: c946 983d e0d3 eebc 0f0f 0f38 fc43 ff3c
000003c0: 4882 1e3e 732c e9bc 846d 9d3c 2677 a13d
000003d0: 16cd c5bc 2705 bd3b a616 d93d 7938 28bd
000003e0: c433 973d f960 65be 5a02 8d3d 67a6 3d3e
000003f0: a367 d8bd 7dd1 d7bc 2849 323c 6bc2 133c

weight_hh f4 [512, 128]
-0.011087129 -0.08161702 -0.02346131 -0.075100556 0.045597438 -0.020169053 0.01613626 0.08817995
0.015767688 0.04375398 -0.040739346 -0.012474722 -0.05700003 -0.044869553 0.012555221 -0.119539194
0.008498182 0.11174041 -0.103099264 -0.06884097 -0.0031171183 -0.052446175 -0.010183153 -0.07728358
-0.042038556 0.123473465 0.036276348 0.010525138 -0.10083039 0.08310776 -0.12081648 0.043122686
0.048004773 -0.09176465 -0.0746208 -0.14627278 -0.07330364 2.5891448e-05 -0.064932585 -0.034643292
-0.060657825 0.022147538 0.0402231 -0.01964365 0.047214277 0.02807043 0.023324963 0.029278334
0.12654664 -0.07680621 0.02189253 -0.019040767 -0.008396908 -0.016975643 -0.085320786 0.022341788
-0.057543438 -0.07150628 0.11615175 0.11478821 0.067966715 -0.026014255 0.042443696 0.07762152
-0.0025835913 -0.09650299 0.1058054 -0.096850455 0.006637277 0.0396528 -0.011222844 0.05454362
0.14208695 0.029292813 0.030879637 -0.015306083 -0.032189984 0.025309999 0.07333524 0.027058698
-0.0814391 -0.06693516 0.1130316 -0.05095374 0.043527793 0.041909765 -0.0023572706 -0.01904121
0.09352362 0.030775158 -0.017380416 0.042374212 -0.11705834 -0.057832435 -0.045475874 -0.07384679
-0.09885449 0.042048983 0.02662906 0.102740705 0.012901861 -0.048197985 -0.009818178 -0.032014698
0.029929934 -0.07263082 0.058427345 -0.086186536 0.08810705 0.08574261 -0.08437258 0.008727526
0.042781908 0.04370617 0.06476186 0.062947765 -0.071571015 -0.062497776 -0.014328669 0.06426354
0.0043209894 -0.05884674 0.017314741 0.09368005 -0.016374908 -0.01440408 -0.03256832 0.07066159
0.05867599 -0.012927959 -0.17367822 -0.03882898 0.07245503 0.11105866 0.034537613 -0.03347281
-0.10676217 -0.12585817 0.0867856 -0.18021376 -0.11165291 0.06794593 -0.017629238 -0.025990792
0.055902123 0.13540545 0.00040165876 0.13794945 0.16502897 -0.045898907 -0.0750856 -0.073090255
-0.04493491 0.17335567 0.09671157 0.1589354 0.11257698 0.15457489 0.016714677 0.056781203
-0.013263334 0.02595491 0.037838165 -0.08560458 -0.067029305 0.20145187 -0.04501803 -0.09120346
-0.01974246 0.09301353 -0.07731159 0.051336378 0.09444799 -0.094559 -0.030586042 -0.051547986
-0.017513385 0.0020444838 0.018143155 -0.10182806 -0.024585467 -0.07252932 -0.21780309 -0.010187261
0.111579984 -0.029592684 0.0068445834 -0.03412042 -0.06301856 0.069722906 0.07979638 0.14169343
0.0025060417 -0.0028272567 0.16245198 -0.14947768 0.0010421526 0.038570233 0.055293284 -0.03426149
0.0901425 -0.008139364 -0.057539172 -0.013728532 -0.049619082 -0.20580484 -0.07514662 -0.08797165
-0.04753286 -0.12990111 -0.03825602 0.02395561 0.120265566 0.15605609 0.12490059 -0.14493813
0.034456108 -0.04449033 0.015674375 -0.10181281 -0.10563635 -0.123482965 -0.015469542 -0.11832839
-0.021147646 -0.029470194 0.06898571 0.091487676 -0.07273513 -0.031116914 0.070281215 -0.1767679
-0.06643753 -0.06612915 -0.08658016 -0.10850997 0.061594475 0.011341414 0.07323332 -0.027560078
0.04686617 0.051099326 -0.09245618 -0.038669117 0.08085439 0.09679173 0.16479918 0.03192394
0.0027638657 -0.20375082 0.02022973 0.067360625 0.18704607 -0.04564946 0.022774268 0.04967366
00000000: caa6 35bc d326 a7bd ef31 c0bc 52ce 99bd
00000010: 61c4 3a3d 9239 a5bc 3130 843c b197 b43d
00000020: 3d2b 813c 6037 333d 4dde 26bd c762 4cbc
00000030: dd78 69bd 23c9 37bd 6ab4 4d3c f7d0 f4bd
00000040: f53b 0b3c 28d8 e43d b525 d3bd 7ffc 8cbd
00000050: 9148 4cbb cdd1 56bd 3dd7 26bc db46 9ebd
00000060: 9f30 2cbd a8df fc3d 8296 143d a171 2c3c
00000070: 2a80 cebd 6734 aa3d a16e f7bd 6aa1 303d
00000080: a7a0 443d 1bef bbbd cad2 98bd 88c8 15be
00000090: 3820 96bd 7631 d937 60fb 84bd 20e6 0dbd
000000a0: 5774 78bd c16e b53c fac0 243d b8eb a0bc
000000b0: c263 413d f5f3 e53c fe13 bf3c 1ed9 ef3c
000000c0: 7195 013e 934c 9dbd f757 b33c 62fb 9bbc
000000d0: 2f93 09bc 8110 8bbc aabc aebd 2006 b73c
000000e0: abb2 6bbd e271 92bd f8e0 ed3d 1516 eb3d
000000f0: 2232 8b3d d91b d5bc 71d9 2d3d 08f8 9e3d
00000100: 7851 29bb 5ca3 c5bd 80b0 d83d 8859 c6bd
00000110: 847d d93b f96a 223d 05e0 37bc 2269 5f3d
00000120: 3e7f 113e 7bf7 ef3c 4bf7 fc3c 5dc6 7abc
00000130: a5d9 03bd ea56 cf3c c930 963d 34aa dd3c
00000140: 8bc9 a6bd 4d15 89bd 1d7d e73d deb4 50bd
00000150: 334a 323d 93a9 2b3d 707c 1abb 50fc 9bbc
00000160: 5089 bf3d 2f1c fc3c 6061 8ebc 9590 2d3d
00000170: 48bc efbd b4e1 6cbd e944 3abd fc3c 97bd
00000180: 3974 cabd 8e3b 2c3d 3025 da3c b869 d23d
00000190: 5462 533c 406b 45bd 6cdc 20bc d821 03bd
000001a0: 9f2f f53c 78bf 94bd 8351 6f3d 9182 b0bd
000001b0: 7871 b43d d299 af3d 88cb acbd e6fd 0e3c
000001c0: 153c 2f3d 3e05 333d dea1 843d c2ea 803d
000001d0: d393 92bd abfd 7fbd cbc2 6abc 9a9c 833d
000001e0: 1697 8d3b 4709 71bd a5d7 8d3c 53db bf3d
000001f0: ac24 86bc 17ff 6bbc 5c66 05bd 06b7 903d
00000200: 3c56 703d cacf 53bc b4d8 31be 230b 1fbd
00000210: 4e63 943d b972 e33d 5077 0d3d c91a 09bd
00000220: 20a6 dabd f7e0 00be a6bc b13d f589 38be
00000230: 48aa e4bd 3c27 8b3d 316b 90bc a4ea d4bc
00000240: a0f9 643d baa7 0a3e ba95 d239 9f42 0d3e
00000250: 5bfd 283e 7e00 3cbd 7bc6 99bd 58b0 95bd
00000260: ab0d 38bd 2684 313e b710 c63d f6bf 223e
00000270: c28e e63d e148 1e3e 38ed 883c 6893 683d
00000280: 744e 59bc 649f d43c 31fc 1a3d 7451 afbd
00000290: a946 89bd 6649 4e3e d364 38bd e1c8 babd
000002a0: f1ba a1bc e17d be3d 8a55 9ebd 1846 523d
000002b0: f36d c13d 26a8 c1bd 948f fabc fb23 53bd
000002c0: 3b78 8fbc bffc 053b f4a0 943c 3b8b d0bd
000002d0: 7667 c9bc 418a 94bd c607 5fbe 78e8 26bc
000002e0: 0c84 e43d 5b6c f2bc 8748 e03b dbc1 0bbd
000002f0: e00f 81bd e2ca 8e3d 496c a33d 1518 113e
00000300: 673c 243b 7f49 39bb d059 263e ad10 19be
00000310: d798 883a d2fb 1d3d 367b 623d c755 0cbd
00000320: a29c b83d f85a 05bc 32ae 6bbd a3ed 60bc
00000330: 613d 4bbd 81be 52be 79e6 99bd 7b2a b4bd
00000340: d1b1 42bd cc04 05be 58b2 1cbd 8e3e c43c
00000350: cb4d f63d 2bcd 1f3e e1cb ff3d a96a 14be
00000360: d921 0d3d 7e3b 36bd 8c67 803c 3c83 d0bd
00000370: df57 d8bd a3e4 fcbd f673 7dbc 2856 f2bd
00000380: d43d adbc 7a6b f1bc 6148 8d3d e45d bb3d
00000390: 28f6 94bd e6e8 febc 99ef 8f3d a502 35be
000003a0: 6610 88bd b86e 87bd f050 b1bd 7a3a debd
000003b0: 7d4a 7c3d 57d1 393c 5afb 953d acc5 e1bc
000003c0: bef6 3f3d 874d 513d aa59 bdbd 8263 1ebd
000003d0: fd96 a53d be3a c63d 1ec1 283e adc2 023d
000003e0: f921 353b 0ea4 50be d2b8 a53c 5ef4 893d
000003f0: 0189 3f3e eefa 3abd 1a91 ba3c 9c76 4b3d

bias_ih f4 [512]
0.03437995 0.12812918 0.07306842 0.08896666 -0.021053141 0.052467715 0.17066813 0.077292316
0.26810542 0.10615192 -0.032763984 0.18290086 0.12825325 0.08759326 0.060689814 0.23004532
-0.002663334 0.06371647 0.18430792 0.15663524 0.17615755 -0.05005609 0.0685518 0.11691696
0.009752317 -0.042915538 0.032900292 0.110296525 0.014753208 -0.011759968 0.12841955 0.09131317
0.25662607 0.061013386 0.04833747 0.025331767 0.13703537 0.1462764 0.020571165 0.103048064
0.040332276 0.08202408 0.17804524 0.12551719 0.08150663 0.019447664 0.17539693 0.25851223
0.09509875 0.04965911 0.073280126 0.0053094267 0.02374878 0.10861491 0.03451286 0.10800408
0.10908672 0.106570415 0.0594066 0.0064546955 0.048288528 0.020595107 0.15736076 0.1217745
0.013909042 0.013928248 0.18377131 -0.0061775027 0.10597768 0.08967882 0.016885089 -0.028541943
-0.005038075 0.001453308 0.07323236 0.1966445 -0.006434145 0.080180325 0.016616423 0.069994256
0.017845802 0.14127019 0.07930766 0.04115145 0.06497416 0.072617166 0.04597861 0.09196491
0.13128673 0.1141321 0.24919531 0.18235692 0.14394201 0.10404891 0.15156026 0.18064965
0.08479575 0.025730506 -0.0031569 0.14463957 0.23803511 -0.057083935 0.037179016 0.09345048
0.059482094 0.08383346 -0.022798823 0.14032534 0.074399136 0.22425716 0.116044626 0.010366947
-0.0023840405 0.13865872 0.14570838 0.09788411 0.08611338 0.17411976 0.119923 -0.010424039
-0.008854701 0.111570224 0.13774092 0.01943984 0.067280434 0.10727859 0.107811734 0.13235918
0.064192 -0.019670445 0.043675583 -0.1175805 -0.0649117 -0.071846664 -0.011495019 0.021125995
-0.0023773902 -0.090298936 0.009454264 0.0055782907 0.09082972 0.064077795 -0.017358957 -0.052825082
0.015598077 0.03811633 -0.08834865 -0.098547734 0.013312604 -0.100893 0.0070808395 -0.0041555306
-0.010728256 -0.0812976 -0.053607028 -0.10506272 -0.10143666 -0.013556446 -0.00937852 -0.08380319
-0.123176225 0.0070413393 -0.025621181 0.0230506 -0.046930254 -0.054258943 -0.049312897 -0.11541398
0.05333025 -0.11708855 -0.11185772 -0.0065774997 -0.074993916 -0.104305826 0.017185664 -0.12698129
-0.082178794 -0.08391086 0.037351523 0.02521056 0.09391852 -0.086066306 0.014381519 0.058913197
-0.003673545 -0.093224384 0.06763161 -0.09905486 -0.11407627 -0.059608612 -0.1333926 -0.0434117
0.041526064 -0.010974655 -0.09988522 -0.089130245 0.0380126 -0.10877095 0.012632151 -0.053241648
-0.041000012 -0.12609431 -0.026754353 -0.05529213 -0.013897116 0.026385834 -0.046627574 0.046214323
0.093026936 -0.107704334 0.1235973 0.030591313 -0.071652114 0.08411757 -0.030931417 -0.08326159
-0.015769852 -0.08060679 -0.061723154 -0.01360403 0.029899806 -0.05277511 -0.039966542 -0.0128834145
-0.003599451 0.06497045 -0.017891876 -0.008194579 -0.11640603 -0.024561245 0.014835815 0.06862659
-0.08298652 -0.03240871 0.0008757675 -0.0241026 -0.09800706 -0.08980925 -0.08390866 0.073262624
0.03904921 -0.0072324756 -0.14573622 0.087283194 -0.0013243494 0.037261955 -0.018963303 0.014011727
-0.09291795 0.030477356 -0.044320613 -0.08983755 0.03986536 -0.07393441 0.022050275 -0.077648625
00000000: fed1 0c3d 4c34 033e e5a4 953d 2734 b63d
00000010: a377 acbc 63e8 563d a0c3 2e3e 6f4b 9e3d
00000020: 1d45 893e 2e66 d93d 8733 06bd 5d4a 3b3e
00000030: d254 033e 1864 b33d e295 783d 0091 6b3e
00000040: 548b 2ebb c87d 823d 37bb 3c3e fd64 203e
00000050: a562 343e 9d07 4dbd e364 8c3d 2972 ef3d
00000060: 2fc8 1f3c 34c8 2fbd 75c2 063d 25e3 e13d
00000070: 70b7 713c e1ac 40bc 6a80 033e 6602 bb3d
00000080: 7e64 833e 2ce9 793d 83fd 453d 9184 cf3c
00000090: 0053 0c3e 7bc9 153e dc84 a83c dd0a d33d
000000a0: 7533 253d 3efc a73d 7e51 363e 9487 003e
000000b0: f3ec a63d b550 9f3c 419b 333e b75b 843e
000000c0: 22c3 c23d 5a67 4b3d e413 963d b3fa ad3b
000000d0: cd8c c23c 7e71 de3d 5b5d 0d3d 3e31 dd3d
000000e0: dc68 df3d 9741 da3d 5654 733d e981 d33b
000000f0: 31ca 453d 12b7 a83c 2e23 213e e964 f93d
00000100: c0e2 633c 4e33 643c 8c2e 3c3e a66c cabb
00000110: d30a d93d 87a9 b73d 9952 8a3c cbd0 e9bc
00000120: 7016 a5bb ed7c be3a d9fa 953d 2d5d 493e
00000130: 85d5 d2bb 9535 a43d 2a1f 883c 2659 8f3d
00000140: 5c31 923c 22a9 103e 0e6c a23d 6c8e 283d
00000150: 2c11 853d 4fb8 943d 1154 3c3d 1958 bc3d
00000160: 0770 063e 17be e93d 0e2d 7f3e c6bb 3a3e
00000170: 8965 133e 9817 d53d 9d32 1b3e 39fc 383e
00000180: 65a9 ad3d c8c8 d23c fee3 4ebb 651c 143e
00000190: 7abf 733e d8d0 69bd 0649 183d f762 bf3d
000001a0: 7fa3 733d e1b0 ab3d 99c4 babc 72b1 0f3e
000001b0: 935e 983d aba3 653e cea8 ed3d 21da 293c
000001c0: 903d 1cbb 8dfc 0d3e 9434 153e 7777 c83d
000001d0: 365c b03d 734c 323e 319a f53d 97c9 2abc
000001e0: 4f13 11bc ee7e e43d f50b 0d3e 4d40 9f3c
000001f0: 53ca 893d e1b4 db3d 66cc dc3d 2a89 073e
00000200: 1877 833d ea23 a1bc 2be5 323d 0cce f0bd
00000210: 6df0 84bd 5824 93bd 9b55 3cbc 6c10 ad3c
00000220: fdcd 1bbb a6ee b8bd 0fe6 1a3c 18ca b63b
00000230: ef04 ba3d 383b 833d 5f34 8ebc 1d5f 58bd
00000240: 148f 7f3c de1f 1c3d 23f0 b4bd 65d3 c9bd
00000250: 1c1d 5a3c fda0 cebd 6306 e83b 1e2b 88bb
00000260: 91c5 2fbc 5b7f a6bd 0b93 5bbd 202b d7bd
00000270: 06be cfbd db1b 5ebc 5da8 19bc 02a1 abbd
00000280: d143 fcbd 09bb e63b 83e3 d1bc 9dd4 bc3c
00000290: f039 40bd a03e 5ebd 52fc 49bd 2a5e ecbd
000002a0: d270 5a3d 1fcc efbd a915 e5bd 1188 d7bb
000002b0: 6996 99bd 4b9e d5bd f3c8 8c3c 6207 02be
000002c0: 5b4d a8bd 75d9 abbd e9fd 183d 6086 ce3c
000002d0: 5a58 c03d 8843 b0bd 76a0 6b3c f74e 713d
000002e0: dcbf 70bb 6dec bebd 7182 8a3d 46dd cabd
000002f0: d2a0 e9bd 2928 74bd 1298 08be 77d0 31bd
00000300: 3c17 2a3d 0acf 33bc 9f90 ccbd eb89 b6bd
00000310: 1ab3 1b3d 4ec3 debd 15f7 4e3c ea13 5abd
00000320: a1ef 27bd de1e 01be f22b dbbc 007a 62bd
00000330: bbb0 63bc 1b27 d83c 8efc 3ebd 3b4b 3d3d
00000340: e884 be3d 1794 dcbd 9520 fd3d a29a fa3c
00000350: 58be 92bd d545 ac3d e263 fdbc 0d85 aabd
00000360: c72f 81bc 2c15 a5bd 6bd1 7cbd 70e3 5ebc
00000370: 70f0 f43c b72a 58bd f5b3 23bd f514 53bc
00000380: c4e4 6bbb 3a0f 853d fc91 92bc 8e42 06bc
00000390: 4966 eebd aa34 c9bc eb11 733c 198c 8c3d
000003a0: d6f4 a9bd ffbe 04bd c393 653a d172 c5bc
000003b0: edb7 c8bd e9ed b7bd 4ed8 abbd b70a 963d
000003c0: 10f2 1f3d 67fe ecbb e03b 15be 88c1 b23d
000003d0: cb95 adba fe9f 183d ee58 9bbc 7191 653c
000003e0: c44b bebd a6ab f93c 8889 35bd c0fc b7bd
000003f0: dc49 233d ed6a 97bd c7a2 b43c 3e06 9fbd

bias_hh f4 [512]
0.1206042 0.12847091 0.15887502 0.1850701 0.06001333 0.13278157 0.15343842 -0.016938029
0.26276585 0.08417562 0.06676139 0.09605793 0.036127277 0.019360326 0.018028239 0.21371892
0.0017011361 0.07061372 0.09666459 0.24973382 0.11762204 0.07830348 0.09013078 -0.010299315
0.059124377 0.10889591 0.081767105 0.08000655 0.061934896 0.015892074 0.19498271 0.14392382
0.2128194 0.10545396 0.010951577 0.15289082 0.0670476 0.1842366 -0.017545417 0.17052744
-0.011956674 0.035248045 0.16976717 0.09431356 0.03698783 0.095082 0.17060564 0.22633944
0.008227631 0.07344832 0.046007533 -0.060279496 -0.012554158 0.14019501 -0.005721318 0.029065715
0.07057218 0.086898275 0.04074037 0.15985146 0.1324961 0.036797892 0.21607903 0.083956935
0.12575416 0.10066118 0.03427521 0.0929754 0.07300917 0.13830273 0.07161251 0.022876712
0.043411843 0.07224126 0.043122083 0.093203604 0.012113773 0.046014562 0.091967314 0.07186015
0.10976348 0.18928748 -0.018694935 0.039092027 0.120719224 0.1684429 0.14686924 0.04558244
0.033585463 0.15738937 0.1190407 0.14565024 -0.002354318 0.15747723 0.079521224 0.17278083
0.042660996 0.030704971 0.0388016 0.14828984 0.11966518 0.102322295 0.10593075 0.07895129
0.18099162 0.07097293 0.03655203 0.16938272 0.21552698 0.222284 0.14854817 0.072714455
0.14779109 0.11361641 0.23176894 0.073001914 0.1664193 0.090747125 0.056442987 -0.025066016
0.051341694 0.24679737 0.13134469 0.18359922 0.04138062 0.12066146 0.000815271 0.1431075
0.016832415 -0.11924699 0.04656672 0.019868303 -0.096675344 -0.048932076 -0.13984741 -0.011728783
-0.04041441 -0.007498976 -0.08439506 -0.06433849 0.0014192729 0.0049891104 0.023059571 -0.011905424
-0.07677251 -0.023337075 -0.026679391 -0.0737507 -0.029311772 -0.00094746606 -0.04966525 0.02888947
-0.014398202 -0.0972529 0.06892944 -0.09967512 -0.021905819 -0.057348426 -0.03658242 0.021666802
-0.017752882 -0.08386808 -0.0064824587 -0.028300373 -0.047269516 0.035840534 -0.06077434 0.010392674
0.056662597 -0.12330374 0.005156565 -0.0847577 -0.07792144 -0.08819135 -0.088366516 -0.09974101
-0.0429558 -0.032474957 -0.09422326 -0.10265357 0.08723205 0.045149017 -0.044266824 0.0020203055
-0.06603827 0.03851539 0.05485192 0.02428898 -0.0520753 -0.06926714 -0.018232407 -0.02969742
0.026220765 0.061531305 -0.12302939 -0.04932602 -0.05552447 -0.027679589 0.07282841 0.01905561
-0.034691136 -0.07888372 -0.05103105 -0.05563364 -0.08927668 -0.0868874 0.0013869457 -0.05636451
0.050821293 -0.11965833 0.05969833 -0.067573935 -0.025053388 0.05463224 0.00036712395 -0.09323513
-0.07188297 -0.12354304 0.04010048 -0.10999209 0.070933774 -0.079140775 0.0062051876 0.05985432
0.040391102 0.03956017 0.04612176 -0.035233393 0.02276381 -0.022020224 -0.05162304 -0.06499438
-0.09223363 -0.04034571 -0.042076316 0.00636488 0.018758234 0.025431775 0.06342092 -0.061561953
0.07064242 -0.09054934 -0.0030194235 0.090546235 -0.026054041 0.03396166 0.01604627 -0.026205933
-0.05618668 0.009998513 -0.0033769375 -0.061590683 -0.071670786 -0.12280797 0.038844764 -0.11474636
00000000: 56ff f63d e18d 033e 22b0 223e 0483 3d3e
00000010: 8ad0 753d e4f7 073e f61e 1d3e 9fc1 8abc
00000020: 3f89 863e 4464 ac3d 32ba 883d 05ba c43d
00000030: 32fa 133d 8c99 9e3c f5af 933c 22d9 5a3e
00000040: a8f8 de3a ed9d 903d 16f8 c53d 39ba 7f3e
00000050: d3e3 f03d 935d a03d 7d96 b83d 75be 28bc
00000060: 672c 723d d204 df3d 8375 a73d 79da a33d
00000070: 72af 7d3d 1830 823c 8ca9 473e c460 133e
00000080: 54ed 593e 3ff8 d73d 3e6e 333c 698f 1c3e
00000090: 4150 893d 85a8 3c3e 68bb 8fbc bf9e 2e3e
000000a0: ede5 43bc 4160 103d 72d7 2d3e 7827 c13d
000000b0: 8d80 173d 5aba c23d 3fb3 2e3e 87c5 673e
000000c0: 30cd 063c 136c 963d 6572 3c3d a2e7 76bd
000000d0: f5af 4dbc 488f 0f3e e579 bbbb 391b ee3c
000000e0: 2688 903d b9f7 b13d 60df 263d 1ab0 233e
000000f0: 0fad 073e 63b9 163d d243 5d3e 9df1 ab3d
00000100: b3c5 003e 7327 ce3d 2a64 0c3d e369 be3d
00000110: d585 953d 3b9f 0d3e 94a9 923d f167 bb3c
00000120: 9ed0 313d 3af3 933d c8a0 303d 88e1 be3d
00000130: d978 463c c479 3c3d 5c59 bc3d 6a2b 933d
00000140: adcb e03d 94d4 413e 1f26 99bc f61e 203d
00000150: a43b f73d 4c7c 2c3e e464 163e a7b4 3a3d
00000160: e990 093d ae2a 213e 9ccb f33d 5625 153e
00000170: e74a 1abb b641 213e 06dc a23d 75ed 303e
00000180: 4cbd 2e3d fe88 fb3c 6dee 1e3d 4bd9 173e
00000190: 0513 f53d 5a8e d13d 39f2 d83d 37b1 a13d
000001a0: de55 393e 415a 913d 95b7 153d aa72 2d3e
000001b0: 1bb3 5c3e 6b9e 633e 031d 183e 51eb 943d
000001c0: 8c56 173e b8af e83d d654 6d3e 0782 953d
000001d0: d269 2a3e a1d9 b93d c330 673d 3f57 cdbc
000001e0: ab4b 523d 73b8 7c3e 397f 063e 6f01 3c3e
000001f0: ba7e 293d 5b1d f73d e9b7 553a c68a 123e
00000200: 22e4 893c c437 f4bd bfbc 3e3d dac2 a23c
00000210: b9fd c5bd 006d 48bd 2934 0fbe 152a 40bc
00000220: 9589 25bd f8b9 f5bb 51d7 acbd e6c3 83bd
00000230: e506 ba3a b17b a33b 6de7 bc3c f80e 43bc
00000240: e83a 9dbd 652d bfbc bd8e dabc 9b0a 97bd
00000250: 3e1f f0bc 5f5f 78ba ca6d 4bbd 9ca9 ec3c
00000260: 70e6 6bbc 872c c7bd e12a 8d3d 7822 ccbd
00000270: d573 b3bc 2fe6 6abd 73d7 15bd 947e b13c
00000280: 7e6e 91bc 07c3 abbd ce6a d4bb 2fd6 e7bc
00000290: ae9d 41bd 86cd 123d 84ee 78bd 0946 2a3c
000002a0: 0a17 683d ac86 fcbd 67f8 a83b 7295 adbd
000002b0: 4795 9fbd ab9d b4bd 81f9 b4bd 0445 ccbd
000002c0: 6cf2 2fbd 7604 05bd 20f8 c0bd 093c d2bd
000002d0: b8a6 b23d 2dee 383d 2151 35bd 1a67 043b
000002e0: 133f 87bd 50c2 1d3d 68ac 603d aff9 c63c
000002f0: e94c 55bd eedb 8dbd 215c 95bc 0148 f3bc
00000300: eecc d63c 4008 7c3d d5f6 fbbd 150a 4abd
00000310: a06d 63bd 4ec0 e2bc 1027 953d 831a 9c3c
00000320: 4b18 0ebd ca8d a1bd ef05 51bd 1ae0 63bd
00000330: b1d6 b6bd 05f2 b1bd 2dca b53a 79de 66bd
00000340: fd29 503d 6d0f f5bd 3c86 743d 3464 8abd
00000350: c33c cdbc 0ec6 5f3d 8b7a c039 0ff2 bebd
00000360: 6137 93bd 2204 fdbd 6740 243d 8843 e1bd
00000370: ba45 913d 8f14 a2bd e354 cb3b ce29 753d
00000380: 2471 253d d809 223d 2cea 3c3d e450 10bd
00000390: 2b7b ba3c c263 b4bc ae72 53bd c61b 85bd
000003a0: fce4 bcbd 8b41 25bd 3758 2cbd 7c90 d03b
000003b0: deaa 993c 4c56 d03c d4e2 813d 6328 7cbd
000003c0: f9ac 903d ef71 b9bd 85e1 45bb 4e70 b93d
000003d0: 496f d5bc 621b 0b3d 7873 833c d3ad d6bc
000003e0: 0124 66bd ced0 233c 9c4f 5dbb 8346 7cbd
000003f0: 22c8 92bd bf82 fbbd b01b 1f3d 2400 ebbd
