logs/dive_rp_vary_oracle/8/actor.pt (torch, 879410 bytes, 17 tensors)

weight_ih f4 [512, 35]
0.0051213796 0.06959361 -0.1027298 -0.1144735 -0.010791087 0.05235983 0.021227324 0.052018818
0.14312796 0.1632943 -0.023435691 -0.11543271 -0.06106491 0.0810102 -0.05480821 0.03162697
0.14644822 0.053594843 0.06971914 -0.14119837 0.36847097 0.060761355 -0.12078047 0.06927798
0.10068031 0.1672487 0.02049522 -0.23456372 -0.035569567 -0.062884055 -0.029288506 0.15707728
-0.055323966 -0.11693493 0.053573787 -0.06921584 -0.0559075 0.07492909 0.056625754 0.14459206
0.06966341 0.016326888 0.017572096 -0.1310008 -0.03878815 0.03594767 -0.0020722973 0.10559419
-0.1359029 -0.10392385 0.13209298 0.0701876 0.10375021 0.021294903 0.17673035 0.14707147
0.08473972 -0.20131421 -0.14751825 -0.13830602 0.09294083 0.12279948 -0.1649052 0.02109854
-0.006281408 -0.0463544 0.095733106 -0.040192932 0.07552283 0.10281714 -0.07661791 0.0012287382
0.0029498716 0.087193616 0.08361368 0.15403606 -0.028567728 -0.017624334 -0.07263553 -0.08748692
-0.021051379 0.0410461 0.09135254 -0.09730853 -0.010620991 -0.05813974 0.10242929 0.091036856
-0.02078442 -0.027903073 0.1006088 0.21060808 0.020630185 0.118042134 -0.20918033 -0.06310784
0.053397473 -0.014312833 0.003579596 -0.17148514 0.15485342 -0.04186083 -0.007907343 -0.16141334
-0.015854675 -0.024063963 -0.064805314 -0.012462728 -0.04261613 -0.009240934 -0.0560509 0.21662253
-0.038487215 0.09303002 -0.058434147 -0.04870964 0.004923702 -0.09130446 0.19190277 -0.027742246
-0.015189191 -0.058780026 -0.13499643 0.07859967 -0.2771793 -0.07868944 -0.0013141178 0.10546392
0.15801387 -0.17702158 -0.16360389 0.01918892 0.0057073915 0.06870866 0.11222796 0.0032328335
-0.18669742 -0.0037629225 -0.00030937768 -0.0414008 0.079512715 0.09926646 0.10034346 0.045171004
-0.054325387 -0.10700787 0.09637593 -0.08317668 0.019410895 -0.04109076 -0.124398276 -0.1045879
-0.13861676 0.033347365 0.021667102 -0.03683451 -0.0600847 -0.01798437 0.01985231 0.032649714
0.124857694 -0.14501467 -0.1143366 -0.13058707 0.06333724 0.026221534 -0.006448004 -0.04120259
-0.18305299 -0.0015706394 0.073945716 -0.051046908 0.061134636 0.13732202 -0.13360935 0.031072374
0.0736399 -0.074882634 0.1014339 -0.09217772 0.04061667 0.14588223 0.053988077 0.07599135
0.05740005 0.05351769 -0.1062271 -0.09817786 -0.05201891 0.028830947 0.20165233 0.20851962
-0.059303865 -0.008146419 -0.1728943 0.018219257 0.09877503 0.18773328 0.07935061 0.014019737
0.18592618 0.058867805 -0.07128614 0.009403729 -0.08507873 0.12418284 -0.13156797 0.13226205
0.05568014 0.16240212 0.060634978 -0.09797575 0.07526664 -0.062063683 0.102088295 -0.061343994
-0.08913289 -0.032402016 0.14575449 -0.028382352 -0.033710647 0.13552792 0.09977954 0.09659347
-0.040542677 0.07200068 -0.15712862 0.05205934 0.081813425 -0.14053108 -0.16484413 -0.030675475
0.075425416 0.19547066 0.15503258 -0.049173128 0.024124974 -0.2108772 0.0012692114 0.03719858
-0.06172211 0.085569516 -0.08974611 -0.028021691 0.12432429 -0.11629496 0.021877723 -0.008980155
0.19838877 -0.252674 0.022012597 0.024847725 -0.002527527 -0.06901375 -0.14522718 -0.00641026
00000000: 3fd1 a73b 1887 8e3d 0064 d2bd 1571 eabd
00000010: 19cd 30bc 4377 563d ede4 ad3c af11 553d
00000020: 2390 123e 9f36 273e 35fc bfbc fc67 ecbd
00000030: 331f 7abd ade8 a53d 937e 60bd 488b 013d
00000040: 86f6 153e 4486 5b3d e9c8 8e3d 4e96 10be
00000050: 3aa8 bc3e e6e0 783d c05b f7bd 9de1 8d3d
00000060: 7a31 ce3d 3e43 2b3e 97e5 a73c 7931 70be
00000070: 65b1 11bd 5bc9 80bd 73ee efbc ded8 203e
00000080: 629b 62bd 957b efbd 3070 5b3d 09c1 8dbd
00000090: 43ff 64bd 6c74 993d 68f0 673d f10f 143e
000000a0: b1ab 8e3d f7bf 853c 5bf3 8f3c 1325 06be
000000b0: 53e0 1ebd dd3d 133d 61cf 07bb c441 d83d
000000c0: 212a 0bbe 07d6 d4bd 6243 073e 84be 8f3d
000000d0: fd7a d43d a672 ae3c cdf8 343e e799 163e
000000e0: 058c ad3d 5025 4ebe 060f 17be 18a0 0dbe
000000f0: c357 be3d 4b7e fb3d e9dc 28be d8d6 ac3c
00000100: 45d4 cdbb 1dde 3dbd b80f c43d 58a1 24bd
00000110: b7ab 9a3d cb91 d23d dae9 9cbd 9d0d a13a
00000120: a252 413b 9192 b23d a63d ab3d a1bb 1d3e
00000130: de06 eabc e860 90bc f0c1 94bd 582c b3bd
00000140: f173 acbc f51f 283d 0a17 bb3d b249 c7bd
00000150: aa03 2ebc f023 6ebd 73c6 d13d 8871 ba3d
00000160: 1744 aabc fc94 e4bc fd0b ce3d a5a9 573e
00000170: a200 a93c 13c0 f13d 5e33 56be af3e 81bd
00000180: 4fb7 5a3d 5f80 6abc a897 6a3b cd99 2fbe
00000190: e591 1e3e 4376 2bbd cd8d 01bc 8a49 25be
000001a0: aae1 81bc ca21 c5bc a6b8 84bd 7830 4cbc
000001b0: 408e 2ebd 4967 17bc a195 65bd 4cd2 5d3e
000001c0: c5a4 1dbd 8686 be3d a558 6fbd c283 47bd
000001d0: 0257 a13b d5fd babd 2982 443e b543 e3bc
000001e0: 16dc 78bc 53c3 70bd 813c 0abe ddf8 a03d
000001f0: 72ea 8dbe ee27 a1bd 7a3e acba 78fd d73d
00000200: 63ce 213e 2545 35be c787 27be 1532 9d3c
00000210: 1205 bb3b 20b7 8c3d c6d7 e53d f2dd 533b
00000220: 9c2d 3fbe 5d9b 76bb f833 a2b9 e393 29bd
00000230: 90d7 a23d 374c cb3d df80 cd3d 3b05 393d
00000240: 4c84 5ebd f126 dbbd be60 c53d 8958 aabd
00000250: 9903 9f3c c94e 28bd 86c4 febd 2e32 d6bd
00000260: 8df1 0dbe 3f97 083d 357f b13c c8df 16bd
00000270: 601b 76bd f553 93bc 50a1 a23c b5bb 053d
00000280: 64b5 ff3d ba7e 14be 4f29 eabd 9eb8 05be
00000290: f4b6 813d 8bce d63c c749 d3bb 0cc4 28bd
000002a0: 3e72 3bbe eadd cdba da70 973d 9016 51bd
000002b0: 5068 7a3d 259e 0c3e e4d0 08be 7e8b fe3c
000002c0: 84d0 963d 115c 99bd 94bc cf3d acc7 bcbd
000002d0: aa5d 263d 2762 153e 9a22 5d3d 5aa1 9b3d
000002e0: 511c 6b3d 5e35 5b3d 988d d9bd 7911 c9bd
000002f0: c811 55bd e12e ec3c f37d 4e3e 2b86 553e
00000300: 9ce8 72bd 8f78 05bc 340b 31be 8d40 953c
00000310: 904a ca3d 273d 403e 9382 a23d 0ab3 653c
00000320: 6f63 3e3e 5e1f 713d 78fe 91bd 1912 1a3c
00000330: c23d aebd 9353 fe3d c1b9 06be b46f 073e
00000340: dc10 643d be4c 263e 625c 783d 83a7 c8bd
00000350: 6525 9a3d 7d36 7ebd ab13 d13d d743 7bbd
00000360: 4e8b b6bd fab7 04bd aa40 153e 1b82 e8bc
00000370: 2d14 0abd d5c7 0a3e 3759 cc3d ccd2 c53d
00000380: 1410 26bd 1875 933d 53e6 20be 2d3c 553d
00000390: cc8d a73d 61e7 0fbe e6cc 28be 224b fbbc
000003a0: a478 9a3d 7629 483e dcc0 1e3e c369 49bd
000003b0: bda1 c53c 31f0 57be ab5b a63a 8a5d 183d
000003c0: 53d0 7cbd 123f af3d cfcc b7bd bf8d e5bc
000003d0: bc9d fe3d 0d2c eebd e938 b33c 8021 13bc
000003e0: 6d26 4b3e 7d5e 81be c353 b43c 758d cb3c
000003f0: dea4 25bb 1557 8dbd 6fb6 14be 290d d2bb

weight_hh f4 [512, 128]
-0.123794556 -0.0529636 -0.0425296 -0.088273175 -0.111730576 -0.008983342 0.061492447 -0.05376057
0.07783641 -0.027440771 -0.044364467 -0.016393408 -0.11025721 -0.065940216 -0.00935732 -0.086694546
0.058768805 -0.006683069 0.061777923 -0.06284152 -0.07797603 -0.07056247 0.062297076 -0.042158652
0.06702859 0.05888342 -0.034695216 0.074715495 -0.05089262 -0.019589858 0.06739054 -0.081803575
-0.031130793 -0.060943358 0.023185914 -0.02354741 0.051746957 -0.049471147 -0.037985954 0.013164312
0.0049561784 0.0151479 -0.14795133 0.019206466 0.0415344 -0.049310658 -0.088031076 0.070871286
-0.12775242 0.031806298 0.13588537 -0.029146515 -0.0011069666 0.05337261 0.019126711 -0.038158208
-0.035654593 -0.01290781 0.028133221 -0.071820326 -0.034397844 0.054293264 0.06005903 -0.09351712
-0.034747805 0.050012268 0.06368615 0.17386743 -0.042807087 0.059154075 -0.038122576 -0.005682226
0.06047936 -0.058366895 0.051741473 0.002035528 -0.11908473 0.037666712 -0.08894888 0.07578074
0.098310366 0.016186396 0.03089208 -0.034863867 -0.065667875 0.032094255 0.112276874 0.15224314
-0.09929298 -0.07505793 -0.0463046 0.06007791 0.000109236236 -0.10302561 -0.06265409 -0.078961246
0.040536202 -0.0391212 0.043643884 0.027146174 0.06296631 0.03502403 0.079099365 -0.11357183
-0.02716969 0.008685138 0.090078056 -0.12674583 0.004954566 -0.064441614 0.039996844 -0.077310026
-0.018162984 -0.07902214 0.015768666 0.11815828 0.04828208 0.036712386 0.08950688 -0.018589612
-0.00598811 0.05486646 -0.052250635 -0.037827045 -0.0040549072 0.02236715 0.035538413 0.029686011
0.024510333 -0.008715375 0.07442211 -0.08728092 -0.0059064147 0.054572165 0.027492994 -0.18751357
0.14533702 0.029317752 0.13681857 -0.0015147725 0.024730606 -0.069117405 0.09299656 0.031958453
-0.037299294 -0.01782315 0.082378834 0.031580657 0.0055524167 0.09993481 0.004719345 -0.064291455
0.008499906 0.06262461 -0.00065944064 0.061951097 0.053159785 -0.045429137 0.10199731 0.0009120399
-0.03127541 -0.09700095 0.025232518 -0.097704664 -0.07126825 -0.010780002 0.17170806 -0.10378005
0.0030816284 -0.057549547 -0.04447233 -0.12275627 -0.05972618 0.07737242 0.01591407 0.114915535
-0.13260993 -0.043691162 0.058184307 0.06620601 -0.02121461 -0.041582864 -0.047601197 0.09476658
0.11473032 -0.18050168 -0.02557419 0.023030331 -0.032268226 -0.065359555 -0.09711798 -0.009257642
-0.13135466 -0.03415501 0.055762395 -0.09402917 0.094832756 0.003189383 -0.045006584 -0.07627616
0.008477523 -0.09871994 0.023958018 0.017999388 -0.13050242 0.0053596795 9.003456e-06 -0.031801067
-0.132623 -0.042664267 -0.043165226 0.018520355 0.024303174 -0.011370044 -0.08038937 -0.097496875
-0.073663905 0.10066141 0.17079863 0.02044241 0.12718163 -0.00025279445 0.03996377 0.029512078
-0.021600075 -0.07597562 -0.025547763 0.037679713 -0.06955729 -0.06333352 -0.054494668 -0.025564915
-0.057648506 -0.09254898 -0.007115082 -0.0761127 -0.008837069 -0.026244745 -0.14648405 -0.017368373
-0.009095546 -0.08898199 -0.0036866644 -0.05419553 -0.03459945 0.024772318 0.0133121945 0.0007983383
-0.007103208 -0.14000829 -0.08122176 0.039331708 0.07513081 -0.0036431735 -0.053619914 0.14446406
00000000: 0088 fdbd 5cf0 58bd 8533 2ebd 91c8 b4bd
00000010: 00d3 e4bd de2e 13bc 81df 7b3d 0b34 5cbd
00000020: b268 9f3d 78cb e0bc 84b7 35bd 784b 86bc
00000030: 88ce e1bd aa0b 87bd 724f 19bc e98c b1bd
00000040: 8fb7 703d a5fd dabb d90a 7d3d 0eb3 80bd
00000050: e6b1 9fbd 0e83 90bd 382b 7f3d 8dae 2cbd
00000060: 4946 893d be2f 713d 921c 0ebd 7004 993d
00000070: c874 50bd e97a a0bc 0d04 8a3d a288 a7bd
00000080: 0106 ffbc be9f 79bd 63f0 bd3c 7fe6 c0bc
00000090: 9ef4 533d 42a2 4abd 2997 1bbd 20af 573c
000000a0: 7067 a23b e62e 783c 8e80 17be e156 9d3c
000000b0: fa1f 2a3d f9f9 49bd a349 b4bd f724 913d
000000c0: 88d1 02be 5247 023d 8925 0b3e acc4 eebc
000000d0: a317 91ba 3d9d 5a3d 9faf 9c3c c84b 1cbd
000000e0: 8d0a 12bd 477b 53bc a477 e63c 8916 93bd
000000f0: c1e4 0cbd 9d62 5e3d 7500 763d e785 bfbd
00000100: b753 0ebd aad9 4c3d e26d 823d 4e0a 323e
00000110: 7c56 2fbd 8b4b 723d 6b26 1cbd f731 babb
00000120: 35b9 773d 2012 6fbd deee 533d 7e66 053b
00000130: b2e2 f3bd 6948 1a3d d52a b6bd ef32 9b3d
00000140: f256 c93d 5599 843c 6311 fd3c 6acd 0ebd
00000150: e17c 86bd 4475 033d 6bf1 e53d a0e5 1b3e
00000160: 1e5a cbbd f9b7 99bd e4a9 3dbd 4114 763d
00000170: c215 e538 17ff d2bd ca50 80bd 6fb6 a1bd
00000180: 4a09 263d 8d3d 20bd eec3 323d a761 de3c
00000190: 7bf4 803d 5b75 0f3d d9fe a13d 5998 e8bd
000001a0: f892 debc 1c4c 0e3c d87a b83d a9c9 01be
000001b0: e959 a23b f7f9 83bd bbd3 233d b854 9ebd
000001c0: 8aca 94bc 5cd6 a1bd 4a2d 813c f8fc f13d
000001d0: 6ec3 453d ba5f 163d 624f b73d 3e49 98bc
000001e0: e837 c4bb a7bb 603d c304 56bd 88f0 1abd
000001f0: 07df 84bb 503b b73c ba90 113d 1430 f33c
00000200: e5c9 c83c efca 0ebc 9f6a 983d 57c0 b2bd
00000210: 998a c1bb 1087 5f3d fd38 e13c 8f03 40be
00000220: 3ad3 143e c82b f03c 2b1a 0c3e 558b c6ba
00000230: d797 ca3c 6d8d 8dbd fb74 be3d dee6 023d
00000240: 25c7 18bd db01 92bc 3cb6 a83d b85a 013d
00000250: 0cf1 b53b 9faa cc3d bca4 9a3b 3dab 83bd
00000260: 3143 0b3c 5541 803d 50de 2cba 6fc0 7d3d
00000270: 13be 593d e713 3abd f7e3 d03d f615 6f3a
00000280: a51a 00bd 6fa8 c6bd 6db4 ce3c 6219 c8bd
00000290: 17f5 91bd 9b9e 30bc 3dd4 2f3e a38a d4bd
000002a0: 25f5 493b 13b9 6bbd 9e28 36bd a467 fbbd
000002b0: 70a3 74bd 6e75 9e3d 395e 823c d658 eb3d
000002c0: e6ca 07be 81f5 32bd ab52 6e3d 0497 873d
000002d0: 43ca adbc cb52 2abd 79f9 42bd fb14 c23d
000002e0: bbf7 ea3d 6fd5 38be f780 d1bc 1baa bc3c
000002f0: b02b 04bd 3bdb 85bd cbe5 c6bd 5dad 17bc
00000300: d681 06be 20e6 0bbd 1c67 643d 5e92 c0bd
00000310: ad37 c23d f804 513b d358 38bd ad36 9cbd
00000320: 4fe5 0a3c ae2d cabd 9b43 c43c 7473 933c
00000330: 6da2 05be 40a0 af3b 8d0d 1737 d641 02bd
00000340: 53ce 07be bac0 2ebd 05ce 30bd 00b8 973c
00000350: 7317 c73c 6c49 3abc 2fa3 a4bd 71ac c7bd
00000360: 1add 96bd 9227 ce3d d6e5 2e3e d776 a73c
00000370: e73b 023e 7f89 84b9 0db1 233d 50c3 f13c
00000380: a4f2 b0bc 1b99 9bbd 8b49 d1bc 0b56 1a3d
00000390: 0d74 8ebd 01b5 81bd cd35 5fbd 836d d1bc
000003a0: d720 6cbd 528a bdbd a225 e9bb fae0 9bbd
000003b0: 5bc9 10bc 38ff d6bc eaff 15be 1e48 8ebc
000003c0: 7c05 15bc 313c b6bd f79b 71bb 22fc 5dbd
000003d0: 27b8 0dbd 51ef ca3c 641b 5a3c 9447 513a
000003e0: 07c2 e8bb 555e 0fbe 9857 a6bd 491a 213d
000003f0: 2fde 993d 4fc2 6ebb 8ea0 5bbd 63ee 133e

bias_ih f4 [512]
0.030928867 0.14900513 0.10324554 0.12783735 0.015448464 0.112435415 0.0241923 0.0769747
0.052926935 0.12980287 0.05521943 0.028261267 0.098791294 -0.027143503 -0.008537129 0.19755352
0.0699565 0.045644283 0.16974874 0.04868251 -0.008657227 0.18978487 0.12623322 0.17356554
0.01203632 0.04614238 0.067527324 0.07300293 0.16193087 0.11127802 0.2189459 0.07199615
0.04220502 0.13872145 0.08673028 -0.017519686 0.22086622 0.071312316 0.04324141 0.120660104
0.07164592 0.12560283 0.07716555 0.13537967 0.29562017 0.1284738 0.13158123 0.14464991
0.27044955 0.020573316 0.032225024 0.008261366 0.076677345 0.08276253 0.16768046 0.22697312
0.15497062 0.14903581 0.073243156 0.17560072 0.022199547 0.14176698 0.23101577 0.122503325
-0.04368959 0.12794648 -0.020012934 0.104820035 0.27717537 0.13338074 0.15443331 -0.017145505
0.08202446 0.052535728 0.07421993 0.19103472 0.17066388 0.018535882 0.061657604 0.06679464
0.17496724 0.11404694 0.08366706 0.12048503 0.16560952 0.15315853 0.053653095 -0.019587534
0.08281849 0.17275394 0.16012308 0.066529036 0.1733567 0.09993904 0.14912733 0.118810505
-0.035115864 0.10533673 0.078612074 0.12801819 0.05568003 0.13081299 0.03553897 0.10490185
0.11765833 0.078796834 0.10765233 0.067539334 0.19411942 0.023995826 0.031710856 0.0017200832
0.035076395 0.011522095 0.12778594 0.02088322 -0.013423199 0.08992312 -0.030587398 0.090912916
0.022825042 0.027251808 0.056212038 0.1624867 -0.032369554 -0.03918957 0.1054805 0.08586856
-0.07950629 0.056480426 0.0912175 -0.008756574 -0.03306655 -0.0031812175 0.049029514 0.12844448
-0.013856951 -0.067245945 0.055617355 -0.015459574 0.03315557 0.06189019 0.028308177 0.033384934
0.06350155 0.043710258 -0.03996381 0.001425881 0.08956962 0.028696764 -0.047450013 0.06532018
-0.028656688 0.04469013 -0.062542096 -0.08317006 0.025157271 0.07895568 0.028189722 0.050549526
-0.05389995 -0.02195835 -0.0056862095 -0.023645936 -0.0994275 -0.008870238 0.108338565 0.05133448
-0.0070654214 0.05962024 0.05402745 -0.0025078633 -0.085916735 0.06086887 0.13601665 -0.042202756
-0.037935056 0.038998075 0.106148496 0.01000607 -0.048855234 0.021265602 -0.005461057 0.058605257
-0.08778847 0.021293608 0.028340222 -0.087789394 -0.0056341924 -0.12530628 -0.025310991 -0.044799924
0.083233505 0.07211146 -0.08920329 -0.03793446 0.016349714 -0.05162139 0.026857667 -0.05434615
-0.05772495 -0.03564482 0.004743159 -0.113712326 0.12211416 0.04976974 0.082943626 -0.015513219
0.010881742 0.05316611 -0.073277414 0.05727238 0.0762732 -0.058636535 -0.09670093 0.050210074
-0.03773274 0.03861433 0.14175673 -0.025457324 -0.06738257 0.03710089 0.054686494 0.08696377
0.0973132 -0.06636794 0.016846599 -0.07010035 -0.10644402 0.0053021004 -0.10841201 0.060679905
0.09770704 0.04636224 -0.04729425 0.1355691 -0.007629211 0.05471266 -0.07042458 -0.045151684
-0.10133658 0.07613189 -0.019306986 0.07363548 -0.059080325 0.00917791 -0.025736168 0.033637177
0.05460366 -0.0044769025 0.029738674 0.035661094 0.032299146 0.07137667 0.13916561 -0.09587177
00000000: 895e fd3c cd94 183e 6672 d33d cbe7 023e
00000010: 8e1b 7d3c 8a44 e63d ee2e c63c e9a4 9d3d
00000020: eac9 583d 0beb 043e c52d 623d 2c84 e73c
00000030: 1753 ca3d 0d5c debc 50df 0bbc 784b 4a3e
00000040: 5a45 8f3d 80f5 3a3d 9dd2 2d3e 5067 473d
00000050: 0bd7 0dbc f756 423e 4843 013e 2abb 313e
00000060: fc33 453c cbff 3c3d c44b 8a3d 8f82 953d
00000070: 35d1 253e bbe5 e33d 5b33 603e b872 933d
00000080: 2cdf 2c3d ff0c 0e3e a59f b13d 7285 8fbc
00000090: c12a 623e 310c 923d e81d 313d a51c f73d
000000a0: 19bb 923d 079e 003e f908 9e3d f8a0 0a3e
000000b0: 875b 973e a38e 033e 3bbd 063e 1b1f 143e
000000c0: 5d78 8a3e 5f89 a83c 63fe 033d ae5a 073c
000000d0: 0309 9d3d 677f a93d 6db4 2b3e a46b 683e
000000e0: 9eb0 1e3e d89c 183e 8200 963d add0 333e
000000f0: d3db b53c 5d2b 113e 668f 6c3e 06e3 fa3d
00000100: dbf3 32bd 6704 033e 2af2 a3bc e3ab d63d
00000110: eee9 8d3e f694 083e c423 1e3e bb74 8cbc
00000120: 71fc a73d b42f 573d 9e00 983d 9b9e 433e
00000130: 83c2 2e3e 90d8 973c af8c 7c3d a1cb 883d
00000140: 9d2a 333e 7191 e93d a359 ab3d dbc0 f63d
00000150: 8b95 293e 97d5 1c3e 59c3 5b3d 0976 a0bc
00000160: be9c a93d 69e6 303e 4ef7 233e 6040 883d
00000170: 6b84 313e d7ac cc3d d6b4 183e ec52 f33d
00000180: a7d5 0fbd c9ba d73d 5eff a03d 3317 033e
00000190: be10 643d d7f3 053e 5091 113d c8d6 d63d
000001a0: daf6 f03d 3c60 a13d d378 dc3d 1052 8a3d
000001b0: 3ec7 463e e592 c43c 3ee3 013d 6a74 e13a
000001c0: 44ac 0f3d 2bc7 3c3c 51da 023e 4913 ab3c
000001d0: faec 5bbc 9d29 b83d 6c92 fabc 8d30 ba3d
000001e0: 95fb ba3c 2f3f df3c 983e 663d ea62 263e
000001f0: f095 04bd 3e85 20bd 2906 d83d dbdb af3d
00000200: 32d4 a2bd 0558 673d 3ed0 ba3d bc77 0fbc
00000210: ca70 07bd f97b 50bb 2cd3 483d f386 033e
00000220: 4408 63bc 3eb8 89bd 06cf 633d 274a 7dbc
00000230: 23ce 073d 9180 7d3d 8de6 e73c a4be 083d
00000240: 1a0d 823d 8709 333d 18b1 23bd a1e4 ba3a
00000250: 4770 b73d 7a15 eb3c f25a 42bd 96c6 853d
00000260: 6ec1 eabc ff0c 373d 1216 80bd 1055 aabd
00000270: 9f16 ce3c 84b3 a13d 22ee e63c 050d 4f3d
00000280: 32c6 5cbd ffe1 b3bc 6253 babb 1fb5 c1bc
00000290: a5a0 cbbd 7a54 11bc 9ce0 dd3d 1b44 523d
000002a0: 0d85 e7bb 5a34 743d e34b 5d3d f75a 24bb
000002b0: 1df5 afbd a351 793d f347 0b3e ccdc 2cbd
000002c0: ca61 1bbd 72bc 1f3d 6264 d93d 80f0 233c
000002d0: 6d1c 48bd 3335 ae3c abf2 b2bb 110c 703d
000002e0: 71ca b3bd ef6f ae3c c129 e83c edca b3bd
000002f0: 089f b8bb 4a50 00be ff58 cfbc 2080 37bd
00000300: 5476 aa3d 2caf 933d 37b0 b6bd 2a61 1bbd
00000310: d6ef 853c f370 53bd 9c04 dc3c 129a 5ebd
00000320: ff70 6cbd 4e00 12bd 806c 9b3b 02e2 e8bd
00000330: fd16 fa3d 5bdb 4b3d 59de a93d 282b 7ebc
00000340: 5649 323c b5c4 593d 7812 96bd 7196 6a3d
00000350: 2035 9c3d dd2c 70bd 230b c6bd 14a9 4d3d
00000360: a58d 1abd 0f2a 1e3d ad28 113e e18b d0bc
00000370: dfff 89bd 1af7 173d f2fe 5f3d 101a b23d
00000380: 254c c73d eaeb 87bd e101 8a3c c690 8fbd
00000390: 53ff d9bd 3ebd ad3b 1e07 debd 7e8b 783d
000003a0: a11a c83d 55e6 3d3d 9eb7 41bd a0d2 0a3e
000003b0: 76fe f9bb 621a 603d c33a 90bd f9f0 38bd
000003c0: 8e89 cfbd 09eb 9b3d af29 9ebc 33ce 963d
000003d0: 36fe 71bd f25e 163c a8d4 d2bc 23c7 093d
000003e0: 16a8 5f3d fbb2 92bb 859e f33c 5e11 123d
000003f0: 1c4c 043d ee2d 923d 6e81 0e3e 6b58 c4bd

bias_hh f4 [512]
0.016847352 0.1483485 0.056949977 0.17287038 -0.026773645 0.19528069 0.02511375 0.06498858
0.17407669 0.15252163 0.03753988 0.035323504 0.13220552 -0.07144061 0.007579719 0.06230292
0.100055754 0.049476758 0.052633382 0.096931495 0.065390795 0.26139003 0.12596422 0.057179917
0.013662858 0.17590967 0.060558643 0.09081919 0.058791235 0.044696268 0.15568839 0.09290545
0.08101551 0.15756957 0.08433802 0.048749804 0.1613182 0.12161111 0.15434404 0.112408645
-0.036720224 0.1421731 0.049679272 0.118710935 0.20355046 0.037192505 0.12754086 0.16907518
0.17727512 0.14823149 -0.05081175 -0.022697935 -0.02599059 0.071200915 0.09526237 0.14840612
0.10275785 0.12167498 0.077734515 0.052217495 0.007369966 0.06559199 0.16437152 0.11251632
0.08490491 0.02392271 0.022979341 0.00813681 0.23061168 0.06403156 0.07516282 -0.017229492
0.02031737 0.06558152 0.06328474 0.16641088 0.123642296 0.11958881 0.0037099028 0.18520641
0.20452951 0.13010278 0.15536521 0.08412299 0.14138196 0.11652101 0.15059756 -0.024986273
0.03166573 0.19229428 0.137335 0.16563788 0.09927088 0.015420183 0.15235242 0.12385016
0.063440114 0.10751008 0.01749814 0.26570988 0.07434312 0.19064815 0.12216784 0.065574795
0.20624505 0.12819813 0.031884458 0.13895097 0.13957572 0.10828763 -0.016978176 0.10795162
0.030967345 0.06315412 0.01682513 0.06934078 0.021667274 0.06627668 0.10782976 0.065550424
0.018312877 0.027924271 0.07169378 0.15973347 0.11246009 0.052632123 0.12056893 -0.049336474
-0.04957262 0.060143065 -0.07761979 0.047111113 -0.044100575 0.030182803 0.030458527 0.08662219
0.035569105 -0.09458615 0.020459091 -0.057000577 -0.095225565 -0.012407224 0.018921213 -0.045795
0.0015508418 -0.06486764 -0.02680564 0.038732007 0.03224734 -0.027740218 -0.060125366 -0.045617618
0.063356236 0.00837735 0.09212314 -0.035678305 0.0056839907 0.051287938 -0.13486299 -0.047451753
0.07917528 -0.043620527 -0.15679793 0.10660205 0.017528273 0.04828896 0.095074445 -0.028094871
0.072208695 -0.049216703 0.050955955 -0.06088425 0.07712158 -0.09102285 -0.027113443 0.047178827
0.10551744 -0.06031014 0.1304216 0.023083102 0.079092875 0.040215228 -0.06153442 0.111321606
0.061206546 0.07029597 -0.056112636 0.020218983 0.068652295 -0.009441372 0.0014106864 0.06699877
0.020338723 -0.015204625 0.0081455065 0.07816175 -0.0626963 -0.041784156 -0.07476206 0.09511858
0.102301076 0.041787587 -0.07975644 -0.2006371 0.11312499 -0.019790223 0.04720842 -0.07272045
-0.081701696 -0.04934902 -0.116065696 0.034218065 0.058395907 -0.052575182 0.06896942 -0.007594882
0.011866263 0.08043949 0.11614369 -0.036448866 -0.034636546 -0.022274159 0.03015122 0.032032046
0.09999747 -0.07657339 0.04100116 0.0038646113 -0.03848876 0.034502905 -0.10024585 0.08883519
0.11592489 0.08838258 -0.06628515 -0.0017337647 0.0064319354 0.12156319 -0.090131335 -0.010334745
-0.12199475 -0.06186891 -0.060108438 -0.043800887 -0.030358715 -0.03203208 0.01730267 -0.0035783807
0.043578885 0.013889325 -0.04227216 -0.062119603 0.08088504 0.011987246 0.08448273 0.012117291
00000000: 7503 8a3c abe8 173e 6144 693d ef04 313e
00000010: 6754 dbbc a9f7 473e 5abb cd3c bc18 853d
00000020: 2941 323e a12e 1c3e 6bc3 193d 61af 103d
00000030: e260 073e 744f 92bd 4b5f f83b 5931 7f3d
00000040: 08ea cc3d 24a8 4a3d 1a96 573d 0584 c63d
00000050: 9ceb 853d ead4 853e c4fc 003e 7d35 6a3d
00000060: 2eda 5f3c aa21 343e 570c 783d 69ff b93d
00000070: 14cf 703d 6f13 373d c76c 1f3e 3645 be3d
00000080: 76eb a53d eb59 213e 69b9 ac3d e0ad 473d
00000090: 9930 253e 3f0f f93d 5d0c 1e3e 8136 e63d
000000a0: f267 16bd d395 113e 7e7c 4b3d b81e f33d
000000b0: 886f 503e 2b57 183d 129a 023e 0b22 2d3e
000000c0: 9c87 353e ffc9 173e fb1f 50bd 05f1 b9bc
000000d0: 38ea d4bc c9d1 913d eb18 c33d c6f7 173e
000000e0: b572 d23d bb30 f93d 4633 9f3d 03e2 553d
000000f0: c17f f13b 1855 863d 0251 283e f56e e63d
00000100: a0e2 ad3d 8ff9 c33c 2c3f bc3c 4150 053c
00000110: 7825 6c3e fb22 833d f7ee 993d dd24 8dbc
00000120: 9d70 a63c 9b4f 863d 6e9b 813d 9d67 2a3e
00000130: 2c38 fd3d faea f43d d721 733b c0a6 3d3e
00000140: 2f70 513e aa39 053e 0f18 1f3e ad48 ac3d
00000150: 6fc6 103e 91a2 ee3d 3f36 1a3e 03b0 ccbc
00000160: edb3 013d cbe8 443e 8ca1 0c3e fa9c 293e
00000170: 884e cb3d efa4 7c3c 4602 1c3e 27a5 fd3d
00000180: e4ec 813d 3f2e dc3d 4258 8f3c 200b 883e
00000190: 3541 983d 4539 433e 2233 fa3d 144c 863d
000001a0: e731 533e 5f46 033e 4799 023d 2a49 0e3e
000001b0: f0ec 0e3e e8c5 dd3d d115 8bbc bd15 dd3d
000001c0: 3baf fd3c f356 813d dbd4 893c 8a02 8e3d
000001d0: 917f b13c 11bc 873d d9d5 dc3d 4d3f 863d
000001e0: e304 963c 71c1 e43c 30d4 923d 2c91 233e
000001f0: 7a51 e63d c894 573d d8ec f63d 0b15 4abd
00000200: a90c 4bbd 9358 763d 20f7 9ebd 95f7 403d
00000210: cea2 34bd ed41 f73c 2984 f93c fa66 b13d
00000220: e9b0 113d 62b6 c1bd d399 a73c 7079 69bd
00000230: 9f05 c3bd ab47 4bbc a900 9b3c 8a93 3bbd
00000240: 9e45 cb3a 53d9 84bd 8097 dbbc 74a5 1e3d
00000250: c915 043d 743f e3bc 0446 76bd 8ad9 3abd
00000260: eac0 813d 2741 093c 0fab bc3d 6a23 12bd
00000270: c540 ba3b 4d13 523d 8619 0abe c55c 42bd
00000280: a626 a23d 70ab 32bd a38f 20be 2d52 da3d
00000290: 7497 8f3c a5ca 453d 64b6 c23d 3727 e6bc
000002a0: 27e2 933d 7497 49bd 31b7 503d c361 79bd
000002b0: ebf1 9d3d 306a babd 031d debc 963e 413d
000002c0: 8719 d83d c407 77bd 3d8d 053e c618 bd3c
000002d0: 72fb a13d b9b8 243d 840b 7cbd 95fc e33d
000002e0: b7b3 7a3d 55f7 8f3d 5dd6 65bd 48a2 a53c
000002f0: 9399 8c3d fcaf 1abc c8e6 b83a a736 893d
00000300: 659d a63c d21c 79bc bb74 053c 4513 a03d
00000310: eb66 80bd dd25 2bbd da1c 99bd 88cd c23d
00000320: 3a83 d13d 7629 2b3d 5857 a3bd d073 4dbe
00000330: 13ae e73d 1b1f a2bc 9e5d 413d 76ee 94bd
00000340: 3853 a7bd 3322 4abd dab3 edbd 3e28 0c3d
00000350: 8c30 6f3d 1359 57bd d73f 8d3d 7dde f8bb
00000360: b76a 423c 76bd a43d bedc ed3d 684b 15bd
00000370: 0ddf 0dbd 4c78 b6bc b1ff f63c 0934 033d
00000380: 79cb cc3d 82d2 9cbd d5f0 273d 6b45 7d3b
00000390: 64a6 1dbd eb52 0d3d b24d cdbd 39ef b53d
000003a0: 076a ed3d ed01 b53d 82c0 87bd 7d3f e3ba
000003b0: fcc2 d23b 1ff6 f83d c796 b8bd 1053 29bc
000003c0: 62d8 f9bd 416a 7dbd 4434 76bd 8f68 33bd
000003d0: d7b2 f8bc 1234 03bd 54be 8d3c 4483 6abb
000003e0: c67f 323d 0d90 633c 9325 2dbd 2071 7ebd
000003f0: 0ea7 a53d 2766 443c 4805 ad3d 9a87 463c

weight_ih f4 [512, 128]
-0.00041292442 -0.096168645 -0.058140453 -0.024048356 -0.094251014 0.00021335515 -0.24160966 0.060845852
0.12725018 0.02605046 -0.09254861 -0.1405247 -0.16246204 0.016514422 0.038352568 0.08174424
0.06369332 -0.06895428 -0.07461433 -0.0069438396 0.11325726 0.111620486 -0.04038022 0.07410698
0.01589736 0.11536937 0.116769366 -0.0037046731 -0.017454203 -0.029175157 0.06208743 0.11177872
0.07940052 -0.05863473 -0.0042360527 0.015697407 -0.122963935 -0.063441455 -0.04598047 -0.104460955
0.03915177 -0.07536871 -0.024224263 0.0076130824 -0.01453434 -0.0476084 0.025254697 -0.13457766
0.24038628 -0.108225964 -0.024473868 -0.011657717 -0.04217234 -0.14732498 0.027585616 -0.19540724
-0.09825166 -0.069476694 0.019168984 -0.10359915 0.07897974 -0.17973086 0.11170074 -0.016688142
-0.1025946 -0.009278048 -0.019844737 -0.15908112 -0.17225319 -0.004220339 0.11671332 -0.021601705
0.01593747 0.051610798 -0.010669005 -0.060022067 -0.044179596 -0.10348581 -0.021626942 0.057351194
-0.05901679 0.022680735 0.02119678 -0.09558954 0.15318593 -0.007832452 -0.11054907 0.17019376
-0.05448849 0.013302444 -0.08346216 -0.106024064 -0.13150834 0.056538574 -0.062359657 0.08484107
0.04515776 -0.077547394 0.1853218 -0.13620546 -0.085861765 -0.2993249 -0.05637354 -0.05689091
0.09968414 -0.13609524 0.023032416 -0.059123002 0.053005245 0.12057407 -0.17428637 -0.12994333
-0.08896512 -0.16375351 0.11146001 -0.1251211 -0.029249297 0.13932496 -0.04570484 0.082059644
0.111497976 0.06174648 0.06745831 0.029314868 -0.13138737 0.021234548 -0.009438488 0.013362786
0.08116499 0.013628587 0.10628972 0.07626278 -0.014379018 0.13784784 -0.035206925 0.11325766
-0.0012568813 -0.03859973 -0.0061522005 -0.056262437 -0.006277028 0.012112024 0.007585814 0.13649592
0.0836672 0.0078064655 -0.106681265 -0.04055875 0.08732535 0.05643321 -0.06668518 -0.084413126
-0.18608496 -0.16044466 0.19379568 0.10894067 -0.027031414 -0.0035530748 0.029971668 0.098208465
0.03644992 -0.04033211 -0.16360924 -0.024406977 -0.09601664 -0.060063332 0.04400126 0.13851228
-0.18740478 -0.027843762 0.16148989 0.045653123 0.14488989 -0.12973736 0.19158584 0.18772721
0.053562228 -0.09311983 -0.094821416 -0.0045117573 -0.051966958 -0.0627253 -0.06192197 -0.00226289
-0.055904415 0.048653755 -0.016104413 -0.041271467 0.014329432 0.060531545 -0.050691266 0.038327765
-0.05625268 0.10098346 0.10155189 0.117970474 0.031944122 0.02376236 -0.05265552 -0.14227724
0.027967228 -0.042910468 0.051875316 0.04205408 0.013141618 0.04061495 -0.042668108 -0.032226566
-0.0481554 -0.039999712 -0.06532054 -0.11328004 0.07997309 -0.114961945 0.014345443 -0.07261884
-0.12601408 0.048484482 0.048453532 -0.00515784 0.07652397 0.0024076323 0.010659772 0.057788167
0.00018473603 -0.0664511 0.037735224 -0.10914261 -0.17136216 0.025692327 -0.061020024 -0.037375636
-0.06278234 0.10934594 -0.13774125 -0.050264895 -0.03534915 0.04295073 -0.054395575 -0.08890096
-0.08530414 0.021343624 -0.098331414 -0.1157423 -0.15254544 0.05663041 0.0580818 -0.07991042
-0.012369836 -0.05354351 -0.063617565 -0.013185842 -0.081760116 -0.076148376 0.105024576 -0.0793837
00000000: c77d d8b9 11f4 c4bd af24 6ebd 0f01 c5bc
00000010: ad06 c1bd 16b8 5f39 8668 77be 8039 793d
00000020: df4d 023e c667 d53c 208a bdbd b5e5 0fbe
00000030: 735c 26be 4149 873c 9517 1d3d 8669 a73d
00000040: a571 823d e737 8dbd 66cf 98bd 2689 e3bb
00000050: 6cf3 e73d 4899 e43d bb65 25bd 66c5 973d
00000060: 2e3b 823c c746 ec3d c724 ef3d 1aca 72bb
00000070: 1efc 8ebc bd00 efbc 644f 7e3d 3eec e43d
00000080: bd9c a23d f82a 70bd 96ce 8abb d997 803c
00000090: 84d4 fbbd 98ed 81bd 0456 3cbd a0ef d5bd
000000a0: 9b5d 203d e95a 9abd f671 c6bc 2a77 f93b
000000b0: 7121 6ebc 0701 43bd f0e2 ce3c bace 09be
000000c0: d227 763e 93a5 ddbd 6c7d c8bc 0200 3fbc
000000d0: e7bc 2cbd 5cdc 16be 3bfb e13c d618 48be
000000e0: 2b38 c9bd cc49 8ebd 4608 9d3c cb2b d4bd
000000f0: 21c0 a13d 5e0b 38be 5cc3 e43d 92b5 88bc
00000100: 1e1d d2bd f402 18bc 6e91 a2bc 29e6 22be
00000110: 2463 30be c54a 8abb 6507 ef3d 0ff6 b0bc
00000120: 4c8f 823c d865 533d 0dcd 2ebc b3d9 75bd
00000130: aaf5 34bd 5ef0 d3bd fc2a b1bc 16e9 6a3d
00000140: 97bb 71bd f3cc b93c dfa4 ad3c 73c4 c3bd
00000150: c6dc 1c3e af53 00bc 8d67 e2bd 4647 2e3e
00000160: 532f 5fbd 7ef2 593c 35ee aabd 2523 d9bd
00000170: 1faa 06be fe94 673d d76c 7fbd 28c1 ad3d
00000180: 58f7 383d 2bd1 9ebd ffc4 3d3e 7279 0bbe
00000190: 4bd8 afbd 1d41 99be f1e7 66bd 7106 69bd
000001a0: 3327 cc3d 8d5c 0bbe 7aae bc3c f62a 72bd
000001b0: 071c 593d 8aef f63d 2078 32be dd0f 05be
000001c0: 5833 b6bd 00af 27be 2545 e43d bf1f 00be
000001d0: 399c efbc 34ab 0e3e 0035 3bbd e30e a83d
000001e0: 0d59 e43d e1e9 7c3d 9527 8a3d bc25 f03c
000001f0: 698a 06be 13f4 ad3c e3a3 1abc 96ef 5a3c
00000200: d539 a63d 704a 5f3c 6dae d93d a92f 9c3d
00000210: f995 6bbc fc27 0d3e 2335 10bd a2f3 e73d
00000220: f0bd a4ba c01a 1ebd 6698 c9bb 7173 66bd
00000230: 87af cdbb 8371 463c 6c92 f83b 96c5 0b3e
00000240: b559 ab3d 61cd ff3b b57b dabd ef20 26bd
00000250: a2d7 b23d 8226 673d 3d92 88bd cae0 acbd
00000260: 0e8d 3ebe 9b4b 24be 6072 463e 491c df3d
00000270: fc70 ddbc b4da 68bb 2587 f53c 8521 c93d
00000280: 834c 153d 4833 25bd 2e89 27be 24f1 c7bc
00000290: 5fa4 c4bd f804 76bd aa3a 343d 2ad6 0d3e
000002a0: 0ae7 3fbe 9a18 e4bc 9b5d 253e c5fe 3a3d
000002b0: 045e 143e dfd9 04be 142f 443e 903b 403e
000002c0: 1164 5b3d 9cb5 bebd bb31 c2bd 5dd7 93bb
000002d0: 4edb 54bd 1f76 80bd e4a1 7dbd ff4c 14bb
000002e0: 07fc 64bd 2949 473d 67ed 83bc 450c 29bd
000002f0: fec5 6a3c edef 773d a5a1 4fbd 93fd 1c3d
00000300: 3669 66bd 6bd0 ce3d 70fa cf3d 819a f13d
00000310: d7d7 023d 48a9 c23c 51ad 57bd 20b1 11be
00000320: 871b e53c e3c2 2fbd 367b 543d e640 2c3d
00000330: f14f 573c dd5b 263d c1c4 2ebd 0100 04bd
00000340: 993e 45bd bdd6 23bd c6c6 85bd 5eff e7bd
00000350: eec8 a33d 2b71 ebbd 2609 6b3c 30b9 94bd
00000360: d609 01be aa97 463d 3677 463d 1903 a9bb
00000370: 99b8 9c3d 5ec9 1d3b 53a6 2e3c 49b3 6c3d
00000380: b3b5 4139 8417 88bd 4090 1a3d 2986 dfbd
00000390: 9079 2fbe b778 d23c 22f0 79bd 3217 19bd
000003a0: 0794 80bd c4f0 df3d 0b0c 0dbe 90e2 4dbd
000003b0: 45ca 10bd 1bed 2f3d e5cd 5ebd b511 b6bd
000003c0: f0b3 aebd d3d8 ae3c fb61 c9bd 4d0a edbd
000003d0: df34 1cbe 4af5 673d 2ee7 6d3d 13a8 a3bd
000003e0: daaa 4abc 7150 5bbd ed49 82bd 6e09 58bc
000003f0: d971 a7bd aef3 9bbd 2017 d73d ec93 a2bd

weight_hh f4 [512, 128]
-0.07792007 0.06020653 0.035580218 -0.14940488 0.009333115 0.02185883 -0.06965185 -0.15346666
0.09659829 0.06529803 0.0066650235 0.004656867 -0.036474604 0.09196782 0.034377176 -0.026314614
-0.0488237 -0.010416318 0.10048778 0.012198055 0.07861949 -0.05270643 0.014852297 0.0029885815
0.004570143 0.10658602 0.03412956 -0.13860565 0.077070065 0.039721057 0.025699502 0.0054664966
-0.017052202 -0.08141771 0.10163986 0.00890171 -0.0114864465 0.10136895 -0.045078203 0.11571357
-0.026268357 -0.0121735465 0.043633796 0.011820775 -0.01567092 0.014647965 -0.11613857 0.16251606
0.115519285 -0.06391091 -0.16252406 0.10738553 -0.0690401 0.016462259 0.013887453 0.039856445
-0.044604037 -0.007181492 0.04435939 0.057400845 -0.114105776 0.16466816 0.050859753 0.05577119
-0.12145668 -0.13822842 -0.120601565 -0.06443495 -0.076335125 0.13108447 -0.036182396 0.062037196
-0.060271822 0.08968306 0.116418056 -0.035667125 -0.08106187 -0.090801865 0.04548701 -0.09559977
-0.07567641 -0.054867703 0.028438946 -0.09037108 -0.03628509 0.026529392 -0.104940526 -0.07211472
-0.05881495 0.17448325 -0.14380145 0.010964204 0.05068048 -0.082568735 0.11949294 0.030998405
-0.100187704 0.009386487 0.111657605 0.00091444823 0.13759108 0.114512116 -0.11951229 0.053911675
-0.0059572714 -0.039253 -0.09351948 0.023682544 -0.0550469 -0.0325789 -0.058663234 0.037759755
0.008275677 -0.043018162 0.10009404 0.08581135 0.13649619 0.059027426 0.072275415 0.027367033
-0.061738014 0.0492479 -0.080937564 0.01962777 -0.0718999 0.07833488 0.044231385 0.04196089
0.12041047 -0.010404016 -0.06574334 -0.07471916 0.049610663 -0.07162406 0.09125416 -0.11361544
0.016484957 0.03522847 0.022507817 0.1475936 0.0851676 0.09667045 0.15532316 -0.0109816585
0.090350606 0.0049640713 0.07271757 0.04404786 0.027574418 0.091411 0.13733663 -0.11072036
-0.0778271 -0.07589933 0.00039494623 0.10454884 -0.051165584 0.087026015 0.0011128199 -0.004243652
-0.14718018 -0.12621029 0.061135795 -0.029616626 0.055175055 -0.09348491 -0.051933523 -0.06896203
-0.026518757 -0.034335557 -0.11012181 0.1044888 -0.016227925 -0.025321042 0.029225675 0.041799642
0.02782463 0.16774568 0.019027824 0.09817128 -0.050307404 -0.15004481 0.07734247 -0.048554946
0.07298646 -0.19720353 -0.028335467 -0.074167594 0.031082897 0.033363894 0.023018552 0.05951033
0.08450983 -0.07940263 -0.007996714 -0.019553041 -0.0378634 -0.03318151 0.023138752 0.09222718
-0.027046116 -0.07427209 -0.048515238 0.048918687 -0.04850316 -0.0068162354 0.089211695 -0.014760611
0.054913986 0.071345314 -0.015241081 -0.08858691 -0.09232724 -0.078162216 0.007594136 -0.14148003
-0.059516463 0.05209066 -0.11758566 0.16350104 0.041252065 0.06835756 0.040419195 0.027079133
-0.094595715 0.061714247 -0.041555397 0.05853106 0.11269224 0.04724567 0.093087964 0.013042865
0.020058816 -0.0062389653 -0.0022199366 0.054019526 -0.12816197 -0.018830251 -0.024580622 -0.037597522
0.12964809 -0.1198964 0.039661728 -0.014009165 -0.15505643 0.11163462 0.056123637 0.116675615
-0.053194903 -0.0022869569 -0.024777494 0.07718759 0.027471865 -0.011445551 0.01433429 -0.04659393
00000000: 8f94 9fbd 1f9b 763d 90bc 113d 98fd 18be
00000010: ece9 183c 4a11 b33c a1a5 8ebd 5d26 1dbe
00000020: 53d5 c53d f9ba 853d 4566 da3b a298 983b
00000030: 6566 15bd a059 bc3d 15cf 0c3d bf91 d7bc
00000040: 5cfb 47bd 34a9 2abc 8acc cd3d 5ada 473c
00000050: 4103 a13d b3e2 57bd 0c57 733c 14dc 433b
00000060: 23c1 953b c549 da3d 70cb 0b3d a4ee 0dbe
00000070: e9d6 9d3d 8cb2 223d c387 d23c 4c20 b33b
00000080: 0fb1 8bbc 54be a6bd 8f28 d03d 7ad8 113c
00000090: a631 3cbc 869a cf3d eca3 38bd 3cfb ec3d
000000a0: bd30 d7bc 8e73 47bc 5ab9 323d edab 413c
000000b0: 4d60 80bc 05fe 6f3c 0fda edbd 9c6a 263e
000000c0: 6095 ec3d b9e3 82bd b56c 26be f2ec db3d
000000d0: e564 8dbd dcdb 863c 3388 633c 8340 233d
000000e0: b9b2 36bd b952 ebbb 31b2 353d 261d 6b3d
000000f0: 4ab0 e9bd c59e 283e 5152 503d 5570 643d
00000100: 48be f8bd c08b 0dbe f4fd f6bd 79f6 83bd
00000110: 9755 9cbd 023b 063e fe33 14bd b71a 7e3d
00000120: 96df 76bd c1ab b73d 976c ee3d b117 12bd
00000130: c403 a6bd 54f6 b9bd 9650 3a3d d0c9 c3bd
00000140: 3cfc 9abd f5bc 60bd cbf8 e83c 7914 b9bd
00000150: ad9f 14bd 2b54 d93c 0feb d6bd e2b0 93bd
00000160: f2e7 70bd bdab 323e b040 13be 34a3 333c
00000170: 5696 4f3d cc19 a9bd b7b8 f43d 5ef0 fd3c
00000180: 362f cdbd c8c9 193c beac e43d 95b7 6f3a
00000190: ade4 0c3e 5485 ea3d dcc2 f4bd 7dd2 5c3d
000001a0: 3735 c3bb c1c7 20bd 2487 bfbd e501 c23c
000001b0: dc78 61bd 7471 05bd dc48 70bd f9a9 1a3d
000001c0: b596 073c d033 30bd 1bfe cc3d dcbd af3d
000001d0: a8c5 0b3e bec6 713d 2205 943d d430 e03c
000001e0: 00e1 7cbd 2ab8 493d 98c2 a5bd 6bca a03c
000001f0: 4140 93bd 0a6e a03d f82b 353d 2fdf 2b3d
00000200: c499 f63d 9b75 2abc 72a4 86bd 5c06 99bd
00000210: 8d34 4b3d a3af 92bd 76e3 ba3d 36af e8bd
00000220: 760b 873c ba4b 103d 5062 b83c c722 173e
00000230: 5a6c ae3d 28fb c53d 090d 1f3e 6aec 33bc
00000240: bd09 b93d a6a9 a23b f3ec 943d 876b 343d
00000250: bfe3 e13c b135 bb3d f9a1 0c3e 5bc1 e2bd
00000260: d163 9fbd 1c71 9bbd c910 cf39 b41d d63d
00000270: 0193 51bd b23a b23d 0adc 913a 550e 8bbb
00000280: 67b6 16be 453d 01be 8769 7a3d 919e f2bc
00000290: 3dff 613d 0475 bfbd 3fb8 54bd f73b 8dbd
000002a0: dd3d d9bc 71a3 0cbd 8b87 e1bd 39fe d53d
000002b0: 6df0 84bc 136e cfbc af6a ef3c 1a36 2b3d
000002c0: 7af0 e33c 86c5 2b3e 3de0 9b3c 060e c93d
000002d0: 230f 4ebd 59a5 19be bb65 9e3d 8de1 46bd
000002e0: ed79 953d b9ef 49be c81f e8bc 2ee5 97bd
000002f0: 8fa1 fe3c 94a8 083d 6791 bc3c 1bc1 733d
00000300: 7d13 ad3d d99d a2bd a604 03bc b32d a0bc
00000310: a716 1bbd 56e9 07bd 7b8d bd3c 9be1 bc3d
00000320: d18f ddbc f71b 98bd eab7 46bd f65e 483d
00000330: 40ab 46bd ba5a dfbb 9fb4 b63d 7dd6 71bc
00000340: 7ded 603d 7e1d 923d bab5 79bc 0e6d b5bd
00000350: 1016 bdbd 8313 a0bd 3bd8 f83b 24e0 10be
00000360: 89c7 73bd 045d 553d c0d0 f0bd d16c 273e
00000370: edf7 283d 0cff 8b3d 998e 253d 0fd5 dd3c
00000380: 66bb c1bd 14c8 7c3d fe35 2abd 44be 6f3d
00000390: 30cb e63d ad84 413d e7a4 be3d beb1 553c
000003a0: 6352 a43c 3c70 ccbb 5b7c 11bb 9443 5d3d
000003b0: e43c 03be e641 9abc 4d5d c9bc dcff 19bd
000003c0: 78c2 043e 3e8c f5bd 5674 223d b286 65bc
000003d0: 1dc7 1ebe b1a0 e43d e6e1 653d a0f3 ee3d
000003e0: e6e2 59bd c5e0 15bb 2cfa cabc 8714 9e3d
000003f0: ad0c e13c 1f86 3bbc 5fda 6a3c 47d9 3ebd

bias_ih f4 [512]
0.14915565 0.1551304 0.14113541 0.16499348 0.02071082 0.009742145 0.0975544 0.20527743
0.10064117 0.19959575 0.2557214 0.14458911 0.02451237 0.065060005 0.28590444 0.19113013
0.06889132 0.09850092 0.044401757 0.30963254 0.24921289 0.14426114 0.021372708 0.10142143
0.16503641 0.16197754 0.06449097 0.034360327 0.031922687 0.19253324 0.06482345 0.024823138
0.108981825 0.13422503 0.044730928 0.10735275 0.051134236 0.18401234 0.10475729 0.14945516
0.3309102 0.0927064 0.14473204 0.10527709 0.109871104 0.21004595 0.20249403 0.18375741
0.23697822 0.1660228 0.15468946 0.060177993 0.12637195 0.1499142 0.055476166 -0.012109034
0.0392775 0.18212083 0.18302637 0.059045497 0.1138618 0.08687584 0.07422243 0.22357489
0.055457033 0.11250742 0.041332614 0.24626249 0.12141131 0.49022558 0.115205206 0.15511961
0.026140535 0.32376525 0.029448764 0.09356489 0.2783188 0.1138435 0.1425129 0.20055364
0.20060468 0.032779854 0.096420154 0.104860835 0.073612444 0.13917226 0.06993077 0.10711279
0.102799796 0.1379128 0.15166977 0.080116816 0.048630405 0.18343155 0.11505016 0.2376952
0.0863335 -0.010464514 0.15851183 0.13398781 0.24605495 0.02043777 0.02927262 0.046813414
0.21142471 0.09003811 0.19092837 0.17463925 0.22549485 0.26501352 0.1561143 0.22910127
0.4443651 0.13496348 0.09757991 0.1504117 0.18891998 0.14625075 0.31457075 0.33169428
0.15988421 0.103291094 0.08937665 0.19353902 0.13036758 0.15420681 0.07167969 0.05540055
0.015349373 0.031225882 0.02968731 -0.01070629 0.0118161645 -0.02364427 -0.056171447 0.006600836
-0.02600524 -0.11336116 -0.0478813 -0.12636176 -0.02779156 -0.06338217 -0.14350642 -0.15552059
0.06451688 -0.03302394 -0.043144044 0.021101102 -0.11854756 0.049846753 -0.030169828 -0.14637956
-0.013649058 0.021516042 0.0735685 -0.015755618 -0.0059312726 0.012321466 -0.07380874 0.08299103
-0.07560627 -0.06563721 -0.046078596 -0.025640715 -0.0073718103 0.069037475 0.016454877 -0.12979494
-0.09445677 -0.027814759 -0.03937396 0.028308788 -0.05448411 -0.091615126 -0.014197447 -0.040932935
-0.035329934 -0.13762856 -0.08715623 0.072530195 0.013823485 -0.06683156 0.03270726 -0.07960462
0.023026703 -0.00847444 -0.029933961 0.040387493 0.043993566 -0.055099055 -0.022460965 -0.014186879
-0.040556066 0.028171688 -0.08668155 -0.10603105 0.042158645 -0.14886098 0.038893867 0.038033187
0.032775853 -0.021652896 0.04612241 -0.04318252 -0.07662466 0.071561396 -0.108780526 -0.12855303
0.04890704 -0.03080092 0.0706895 -0.098701105 -0.049864616 0.014948338 -0.013930572 -0.037480846
-0.057753693 0.042428955 -0.10877693 -0.028355354 -0.07101507 -0.0012313587 0.04325584 -0.057211056
-0.007179849 -0.012271861 -0.05720309 -0.11456679 -0.018696062 -0.013704932 -0.072703704 -0.0002064332
-0.07098336 0.062051374 -0.027114853 -0.07896617 -0.13882633 -0.1521341 0.024279412 -0.012037625
-0.12399178 0.047226597 -0.010805157 -0.1038947 -0.06626938 0.05142638 -0.056731056 -0.09261417
-0.02455762 0.015223269 -0.027226716 -0.05684503 -0.10073547 0.074277975 -0.07665603 0.07878395
00000000: 42bc 183e 81da 1e3e cd85 103e 0df4 283e
00000010: bda9 a93c 859d 1f3c 9aca c73d 3f34 523e
00000020: f51c ce3d d462 4c3e eaed 823e 2b0f 143e
00000030: 2ace c83c 2e3e 853d 1162 923e 9eb7 433e
00000040: e416 8d3d daba c93d 9ede 353d 2888 9e3e
00000050: aa31 7f3e 31b9 133e d115 af3c 0ab6 cf3d
00000060: 4eff 283e 71dd 253e d713 843d 6abd 0c3d
00000070: 5dc1 023d 6f27 453e 28c2 843d e559 cb3c
00000080: dd31 df3d 4972 093e c737 373d c2db db3d
00000090: 2272 513d bb6d 3c3e fd8a d63d c60a 193e
000000a0: 106d a93e dadc bd3d a334 143e 849b d73d
000000b0: 1a04 e13d 4916 573e 985a 4f3e e72a 3c3e
000000c0: 6baa 723e e201 2a3e ea66 1e3e 337d 763d
000000d0: a667 013e 1c83 193e fa3a 633d f864 46bc
000000e0: 72e1 203d e27d 3a3e 446b 3b3e b1d9 713d
000000f0: 6030 e93d f6eb b13d ee01 983d d1f0 643e
00000100: ea26 633d 4a6a e63d 634c 293d 3c2c 7c3e
00000110: 7ea6 f83d d9fe fa3e b5f0 eb3d add7 1e3e
00000120: ad24 d63c 8fc4 a53e 893e f13c f39e bf3d
00000130: cd7f 8e3e c826 e93d e7ee 113e ef5d 4d3e
00000140: 506b 4d3e 2b44 063d ee77 c53d 47c1 d63d
00000150: 1fc2 963d 2c83 0e3e dd37 8f3d f35d db3d
00000160: b388 d23d 0339 0d3e 524f 1b3e 4914 a43d
00000170: ad30 473d 7bd5 3b3e 6b9f eb3d 5f66 733e
00000180: 9ecf b03d 5a73 2bbc ed50 223e 1a34 093e
00000190: d4f5 7b3e 1c6d a73c 22cd ef3c 6cbf 3f3d
000001a0: b87f 583e e765 b83d ba82 433e a2d4 323e
000001b0: 1fe8 663e daaf 873e 6ddc 1f3e 8699 6a3e
000001c0: d383 e33e de33 0a3e fad7 c73d 8605 1a3e
000001d0: 3d74 413e c2c2 153e 6b0f a13e d5d3 a93e
000001e0: b0b8 233e 488a d33d 1b0b b73d 182f 463e
000001f0: 147f 053e 64e8 1d3e cdcc 923d b0eb 623d
00000200: f07b 7b3c 6ccd ff3c cd32 f33c 6f69 2fbc
00000210: 9698 413c a1b1 c1bc 0814 66bd d34b d83b
00000220: f108 d5bc e529 e8bd 2f1f 44bd fa64 01be
00000230: 20ab e3bc 83ce 81bd 59f3 12be ca40 1fbe
00000240: 6d21 843d 1c44 07bd cfb7 30bd 38dc ac3c
00000250: 10c9 f2bd 1c2c 4c3d b726 f7bc 86e4 15be
00000260: 4ca0 5fbc 6942 b03c 15ab 963d ed11 81bc
00000270: 1f5b c2bb f9df 493c 0929 97bd 33f7 a93d
00000280: 76d7 9abd cd6c 86bd e9bc 3cbd 7a0c d2bc
00000290: 3a8f f1bb 8563 8d3d 61cc 863c f7e8 04be
000002a0: 8d72 c1bd c7db e3bc 9746 21bd d5e7 e73c
000002b0: bb2a 5fbd b6a0 bbbd 699c 68bc 4ba9 27bd
000002c0: 1fb6 10bd 80ee 0cbe f77e b2bd b68a 943d
000002d0: e67b 623c fcde 88bd 0cf8 053d bf07 a3bd
000002e0: 7fa2 bc3c 61d8 0abc 1138 f5bc 5b6d 253d
000002f0: 9932 343d 8caf 61bd 0f00 b8bc 1570 68bc
00000300: 1e1e 26bd 50c8 e63c 1986 b1bd cf26 d9bd
00000310: 8bae 2c3d 036f 18be 2d4f 1f3d b0c8 1b3d
00000320: f93f 063d 6a61 b1bc daea 3c3d 27e0 30bd
00000330: 64ed 9cbd c88e 923d 53c8 debd 68a3 03be
00000340: c052 483d 3652 fcbc a8c5 903d ce23 cabd
00000350: d73e 4cbd e0e9 743c 0e3d 64bc 8485 19bd
00000360: 238f 6cbd fcc9 2d3d 70c6 debd 7d49 e8bc
00000370: 5970 91bd 8b65 a1ba 092d 313d 2456 6abd
00000380: f044 ebbb ea0f 49bc ca4d 6abd fea1 eabd
00000390: 7c28 99bc a78a 60bc aee5 94bd fd75 58b9
000003a0: b95f 91bd 9529 7e3d f81f debc 04b9 a1bd
000003b0: 7d28 0ebe 0bc9 1bbe 9ee5 c63c 7539 45bc
000003c0: 67ef fdbd ad70 413d 1d08 31bc bfc6 d4bd
000003d0: 3eb8 87bd 78a4 523d d35e 68bd 7fac bdbd
000003e0: 102d c9bc 056b 793c 900a dfbc 56d6 68bd
000003f0: 664e cebd 0d1f 983d d6fd 9cbd 7b59 a13d

bias_hh f4 [512]
0.29335612 0.06565574 0.27062264 0.2409458 0.15787202 0.10517383 0.22503868 0.20727898
0.16184202 0.2041142 0.17661579 0.112224415 0.07979183 0.010608424 0.23860258 0.23944318
0.0063501825 0.07246655 0.09519616 0.30682564 0.21778846 0.055622425 0.06352199 0.0022106397
0.1890432 0.14411114 0.06872978 0.02181688 0.03326195 0.10203964 0.1796635 0.026487393
0.17154364 0.10008768 0.052099135 0.02212819 0.09174027 0.13164608 0.024517938 0.094457805
0.18830046 0.06601937 0.030189421 0.11145003 0.18924767 0.31703255 0.15840802 0.19843613
0.11956547 0.13027754 0.23500058 0.1759308 0.022833863 0.06548123 0.059977382 0.10750246
0.048570246 0.23664153 0.2068162 -0.010979592 0.1074792 0.14325307 0.2074808 0.23234357
0.07677311 0.06379461 0.10142808 0.18927202 0.03701552 0.5016338 -0.0203173 0.024312312
0.117544815 0.30783048 0.11651774 0.08175666 0.39557388 0.13255064 0.1849236 0.09523622
0.24712896 0.06975946 -0.055627327 0.03563416 0.21524565 0.15690807 0.16340518 0.11729466
0.13883552 0.12504008 0.1327298 0.12628844 0.046182428 0.1272993 0.08856685 0.16156138
0.046944473 -0.015404734 0.16229577 0.024064967 0.14162585 0.104347214 0.071024075 0.06533658
0.18120262 0.12649886 0.0862785 0.12512039 0.09489734 0.33279154 0.18632935 0.14008096
0.44423202 0.20956787 0.12166889 0.23288152 0.18434553 0.09904077 0.30601272 0.35359088
0.26331484 0.13301334 0.08259841 0.024385076 0.12180114 0.07154721 0.16139764 -0.03692995
0.031302176 0.05813441 0.052922294 -0.05628482 0.033930823 -0.019775568 -0.07984225 -0.11056197
0.014614624 -0.08464552 -0.125429 -0.011040395 0.0018407439 -0.085517995 -0.097223446 -0.07663505
0.017149752 -0.099802285 -0.03970206 -0.013925503 -0.041654225 -0.070910625 -0.051117294 -0.10293748
-0.04177403 0.012454072 0.029231185 -0.03863271 -0.029547358 -0.08637208 -0.073500834 0.06555605
-0.12343572 -0.114389256 0.022472495 -0.0058316262 -0.06575409 0.056941934 0.077505656 -0.015186424
-0.085072406 -0.09413405 -0.12876716 -0.059795085 -0.019238792 -0.098444015 -0.12559472 -0.09812469
0.020529915 -0.090903245 -0.11096112 0.044957425 -0.057446737 0.053893562 0.068559974 0.04063508
0.0953814 -0.012015997 0.10226436 -0.093437925 0.050026055 -0.028346462 -0.06569159 -0.05376022
-0.04148463 -0.08229209 0.019118996 0.00024142933 -0.06066246 -0.060145453 -0.06370825 -0.09873865
0.01996342 -0.12142054 0.048396826 -0.031649634 -0.16773652 0.014954724 -0.007513665 -0.15529025
-0.1088257 0.03393703 0.035653844 -0.17304309 -0.022093983 0.045403663 -0.052446708 -0.13244842
-0.097076826 0.023415469 -0.10431671 0.0002561547 0.021682931 0.058602713 0.05922207 -0.03283903
0.06449016 0.101674095 -0.069850795 -0.049205188 -0.06346558 0.05627546 0.05658605 0.02226939
-0.048974015 -0.11017771 -0.010486038 -0.025974527 -0.018096674 -0.057865962 -0.008207905 -0.047770415
-0.18483895 -0.046007354 0.084775165 -0.026796494 -0.090869084 0.077661894 -0.090071425 0.00053039036
-0.13858901 -0.110517986 0.00076058885 -0.017389357 -0.07749392 -0.03563953 -0.06398463 0.07261618
00000000: c632 963e 8476 863d 0d8f 8a3e 7fba 763e
00000010: 34a9 213e 6165 d73d 8a70 663e f140 543e
00000020: eab9 253e 5003 513e c5da 343e ead5 e53d
00000030: e669 a33d f5ce 2d3c 3c54 743e 9830 753e
00000040: 3115 d03b 5869 943d 34f6 c23d 4018 9d3e
00000050: f003 5f3e 57d4 633d d117 823d 61e0 103b
00000060: 8a94 413e df91 133e 33c2 8c3d 50b9 b23c
00000070: af3d 083d 29fa d03d b5f9 373e 17fc d83c
00000080: 23a9 2f3e c5fa cc3d e765 553d 2e46 b53c
00000090: 53e2 bb3d 3bce 063e d8d9 c83c 1873 c13d
000000a0: d6d1 403e 2a35 873d ce4f f73c ea3f e43d
000000b0: 24ca 413e 1752 a23e b635 223e d732 4b3e
000000c0: bede f43d 7a67 053e fea3 703e 3427 343e
000000d0: 150e bb3c 061b 863d d8aa 753d 402a dc3d
000000e0: 98f1 463d 2852 723e a0c7 533e bfe3 33bc
000000f0: 0e1e dc3d efb0 123e d975 543e 79eb 6d3e
00000100: 383b 9d3d c0a6 823d 86b9 cf3d 86d0 413e
00000110: 969d 173d 136b 003f 7770 a6bc 9d2a c73c
00000120: 56bb f03d f59b 9d3e daa0 ee3d 0970 a73d
00000130: a988 ca3e 5bbb 073e 9d5c 3d3e 350b c33d
00000140: 600f 7d3e 0cde 8e3d 7bd9 63bd 20f5 113d
00000150: 5b69 5c3e 82ac 203e b053 273e 2f38 f03d
00000160: e62a 0e3e 820a 003e 52ea 073e c251 013e
00000170: c929 3d3d bf5a 023e 8962 b53d 5970 253e
00000180: d948 403d 2364 7cbc dd30 263e e523 c53c
00000190: 5e06 113e feb3 d53d 1275 913d 2fcf 853d
000001a0: 2e8d 393e eb88 013e c8b2 b03d 8f1f 003e
000001b0: 8959 c23d a763 aa3e 1fcd 3e3e 6271 0f3e
000001c0: 6172 e33e f698 563e 8a2d f93d 7e78 6e3e
000001d0: 13c5 3c3e e3d5 ca3d b3ad 9c3e dd09 b53e
000001e0: 34d1 863e a634 083e 5b29 a93d 36c3 c73c
000001f0: e072 f93d 5887 923d 6c45 253e dc43 17bd
00000200: b636 003d 591e 6e3d 0cc5 583d e98a 66bd
00000210: 0cfb 0a3d 5f00 a2bc 5584 a3bd 506e e2bd
00000220: 2d72 6f3c a15a adbd 7670 00be c6e2 34bc
00000230: 1e45 f13a 0f24 afbd 161d c7bd d6f2 9cbd
00000240: a37d 8c3c 2465 ccbd a19e 22bd cb27 64bc
00000250: 9f9d 2abd 9739 91bd 5e60 51bd e3d0 d2bd
00000260: 3f1b 2bbd 2a0c 4c3c 3d76 ef3c 553d 1ebd
00000270: 4d0d f2bc d8e3 b0bd 9b87 96bd 4042 863d
00000280: decb fcbd ea44 eabd 3d18 b83c 3a17 bfbb
00000290: 15aa 86bd f23b 693d 49bb 9e3d 7bd0 78bc
000002a0: 713a aebd 5ac9 c0bd 8adb 03be b1eb 74bd
000002b0: ac9a 9dbc 049d c9bd e79b 00be 99f5 c8bd
000002c0: 5a2e a83c 7b2b babd 953f e3bd 4725 383d
000002d0: 454d 6bbd 7fbf 5c3d 2c69 8c3d f870 263d
000002e0: 5357 c33d bfde 44bc fa6f d13d 625c bfbd
000002f0: 1fe8 4c3d d736 e8bc 5089 86bd ad33 5cbd
00000300: caeb 29bd c188 a8bd 719f 9c3c 3128 7d39
00000310: 3379 78bd 145b 76bd 7979 82bd 7d37 cabd
00000320: 548a a33c 55ab f8bd c03b 463d 0ca3 01bd
00000330: 1fc3 2bbe a904 753c 3135 f6bb 6804 1fbe
00000340: 02e0 debd 8e01 0b3d c409 123d 3532 31be
00000350: 71fe b4bc 31f9 393d 5cd2 56bd 8fa0 07be
00000360: 37d0 c6bd ccd1 bf3c 00a4 d5bd 804c 8639
00000370: 67a0 b13c 6609 703d d792 723d 3882 06bd
00000380: 6b13 843d 823a d03d ef0d 8fbd 618b 49bd
00000390: 3efa 81bd 1981 663d c6c6 673d 4c6e b63c
000003a0: fa98 48bd daa4 e1bd a2cd 2bbc 88c8 d4bc
000003b0: 7a3f 94bc dc04 6dbd 737a 06bc e9aa 43bd
000003c0: 6c46 3dbe 3572 3cbd 9a9e ad3d 5284 dbbc
000003d0: 9219 babd 330d 9f3d 5e77 b8bd e509 0b3a
000003e0: 47ea 0dbe 4157 e2bd 4162 473a 2074 8ebc
000003f0: 22b5 9ebd c1fa 11bd 600a 83bd cbb7 943d
