logs/fgb_vary_oracle/4/actor.pt (torch, 906162 bytes, 17 tensors)

weight_ih f4 [512, 48]
000000 c1 12 6d 3d 13 49 0c 3e 94 9c e3 bb f5 1a 6e bd
       0.057879213 0.1369975 -0.006946156 -0.058131177
000010 26 67 38 bd c6 c8 1a bc bf 3e e5 3c 4c 3d 4c 3d
       -0.045020245 -0.009447282 0.027984021 0.049863145
000020 d8 79 68 3d f2 ac 90 bb d2 26 ad 3d 14 d2 c8 bd
       0.056756824 -0.004415148 0.0845467 -0.09805694
000030 b5 e6 da bd d5 c4 d3 bd fe 3e 99 bc cd 21 a2 3d
       -0.10688535 -0.10340277 -0.018706795 0.07916603
000040 a8 26 44 3d 1c ce 5b 3e 8f 20 7f bd b8 e6 36 be
       0.047888428 0.21465343 -0.06228691 -0.1786145
000050 54 78 f3 3c f0 40 94 3d 81 82 8f bc 83 27 39 3d
       0.029720463 0.07238948 -0.017518284 0.045203697
000060 51 d6 f5 3c ef d8 f8 bb ce 6b f3 3d 4b c2 3b bd
       0.03000942 -0.00759422 0.118857965 -0.04583959
000070 b2 4b a5 bc da b6 be 3c 0b 87 f0 3c ce d2 c3 3d
       -0.020177696 0.02328055 0.029361269 0.09561692
000080 62 56 18 be b2 e5 9b bd 03 50 8c bb 5f 84 59 bd
       -0.14876702 -0.0761217 -0.004281999 -0.053104755
000090 af bb 66 bc 07 42 81 3d f1 64 ba 3c bf 6d f2 3c
       -0.014082833 0.06311422 0.02275321 0.029593347
0000a0 d3 5d d8 bc b7 74 76 bd 9d b1 27 bc e0 c9 b8 bc
       -0.026411926 -0.0601699 -0.010235217 -0.022557199
0000b0 72 2d 8c bc 09 0a 6a bd ed f6 3c 3d 75 a8 a7 3d
       -0.017111514 -0.057138477 0.046133924 0.081864275
0000c0 09 ba ed 3c e2 15 1b 3d 59 da d3 3d bb 94 a9 3d
       0.029019373 0.037862666 0.10344381 0.08280321
0000d0 48 f3 04 3e e7 f3 ef 3d 32 64 21 3e c1 0c 5d 3d
       0.1298343 0.117164426 0.15760878 0.05396724
0000e0 09 68 1e 3e 0e 2c 1c be 08 3a 60 3a 94 8f f8 bc
       0.15469374 -0.1525118 0.0008553569 -0.0303419
0000f0 2b 2c 26 bd 50 82 d1 3d 0e 9d 0b bd ea 43 32 bc
       -0.040569466 0.10229933 -0.034085326 -0.01088045
000100 22 71 4e 3d 6b 93 5e bd 3b 47 8a bd 10 99 2d bd
       0.05040086 -0.054339807 -0.067518674 -0.0423823
000110 e9 62 01 3e c2 bd a0 3d 61 b3 b8 3d 0b f5 fb ba
       0.12635387 0.078486934 0.09018589 -0.0019222809
000120 c9 7c c7 3d 84 a9 96 3d a0 aa 28 3e af ba c4 3d
       0.09740598 0.07356551 0.16471338 0.096059196
000130 cd c1 3b bc aa 0d b8 bd af 0d 02 3d 4d 71 e1 bd
       -0.01145978 -0.08986981 0.03175133 -0.110079385
000140 f8 47 c1 bd 04 cb e6 3d 16 1c 12 3d fd 54 55 bd
       -0.09437555 0.11269191 0.035671316 -0.052083004
000150 4f 28 19 3d d3 f5 9d 3c 89 c2 43 3c 61 6d f3 bd
       0.037391957 0.019282257 0.011948236 -0.11886097
000160 0e 5f c5 3c 07 f6 ac bd 59 87 30 3c e8 83 48 3d
       0.024093177 -0.084453635 0.010774457 0.04895392
000170 ff 3d bf 3d b4 51 e7 3d a3 4c a3 3c a1 5d 3e 3d
       0.09337997 0.112948805 0.019934004 0.04647601
000180 e3 a5 15 3e ef 0a 3a 3e 75 04 31 be fd 74 2d 3d
       0.14614062 0.18168233 -0.17286856 0.042347897
000190 ed f0 3e bb 0f 97 0c 3e 69 5f b5 3b 84 33 34 bd
       -0.0029135302 0.137295 0.0055350554 -0.04399444
0001a0 9f 1b 84 bc a7 90 cf bd a8 98 86 bd b5 e4 05 be
       -0.016126452 -0.10135012 -0.065720856 -0.13075526
0001b0 f8 51 8c 3d f8 95 d0 3d e0 2d 60 bc ba 3e c4 3d
       0.06851572 0.10184854 -0.013682812 0.09582277
0001c0 a9 b6 70 bc 99 12 4a bd 4c 61 bf bc ca e0 66 be
       -0.014691987 -0.049334142 -0.023361824 -0.22546688
0001d0 d7 0e 3b be 37 08 de ba 92 33 15 3d b9 7f 20 3d
       -0.1826738 -0.0016939704 0.036426134 0.039184306
0001e0 fc 87 1a 3d b6 65 12 3d 3a 1d 0a be b3 25 0f be
       0.03772734 0.03574153 -0.13487712 -0.13979225
0001f0 99 ec 5c 3c d7 25 4a 3c 29 3e 38 bd 52 8a 95 bb
       0.013484144 0.012338123 -0.044981156 -0.004563608
000200 2c e4 aa bd 0c dc a3 bc 70 9d 44 bc 08 38 82 3a
       -0.083443016 -0.020002387 -0.012000427 0.0009934912
000210 55 7e b1 bd 9d a5 84 bc 21 13 62 3d f1 51 b0 bc
       -0.08666674 -0.016192252 0.055194024 -0.021523448
000220 03 c2 63 3d 53 dd 25 3d 0d 3c 68 3d 66 a1 dd 3d
       0.055604946 0.040494274 0.056697894 0.108218
000230 ef 12 46 3e ce 27 d0 3d 0f 22 16 3e e9 8a 72 3d
       0.1934316 0.10163842 0.1466143 0.059214506
000240 b1 ff 1c bd 0b af 4b 3d 1a 81 29 3e 50 7c 64 3d
       -0.038329784 0.04972748 0.16553155 0.055782616
000250 f9 8c 86 bc 63 dc 09 be 0d bc 88 bd 44 62 1a bd
       -0.016424643 -0.13462977 -0.06676493 -0.03769137
000260 32 83 76 3c 1e 01 b8 3b 12 d2 f7 3d c4 87 c1 bd
       0.015045928 0.0056153676 0.121006146 -0.09449723
000270 06 dd 55 3d 3e 65 20 bd ab 8e 69 3b 41 36 cc 3b
       0.052212738 -0.039159052 0.0035638015 0.0062320535
000280 f1 6d 61 bd 38 a3 73 3c 13 63 cf 3d 3a 35 92 bd
       -0.05503649 0.014870457 0.10126319 -0.071390584
000290 0c aa 0a 3d a4 25 91 bb 92 05 a1 bd 4a d5 b3 bc
       0.033853576 -0.004429536 -0.078623906 -0.02195229
0002a0 35 e1 c9 bc 50 94 6c bc a8 ae fd 3d 1d f7 8c bd
       -0.02464352 -0.014439657 0.12386829 -0.068830706
0002b0 c9 8a 36 3e 1d 8c d1 3c 31 2a 94 bd 0a 13 9a 3d
       0.1782638 0.025579507 -0.0723461 0.07523163
0002c0 cc e2 36 bd 87 27 21 bd 89 b6 e8 3d 04 35 b2 bd
       -0.044649884 -0.039344337 0.11362941 -0.08701518
0002d0 e2 82 31 3c 0f d6 8d bc 3d 7e af 3d 98 8a ad bb
       0.010834428 -0.017313985 0.08569 -0.0052960627
0002e0 a0 22 81 3d f3 c3 81 3d ad 45 57 3c 0a 46 11 3d
       0.06305432 0.063362025 0.013139171 0.035467185
0002f0 42 38 37 3c f0 a0 fd 3d e8 92 46 3e 79 cb 70 3e
       0.0111828465 0.12384212 0.19391978 0.23515119
000300 25 15 1d be ff be e3 3d e3 76 54 3c 34 b3 15 be
       -0.15340097 0.11120414 0.012967798 -0.14619142
000310 a2 69 d5 bc e2 8c 93 3d 98 63 4b 3d 84 38 9e bd
       -0.026051346 0.07204606 0.049655527 -0.07725623
000320 80 fa 80 bd 68 0f b4 3d 11 77 c7 3d 98 cf 6c be
       -0.06297779 0.08792001 0.09739507 -0.23126066
000330 44 18 9f 3d 0e 7c 43 bd 21 14 87 bd fe c9 98 3d
       0.077683 -0.04772573 -0.06595636 0.07460402
000340 68 62 c7 bb 52 93 35 3b f0 44 9e 3d 77 d4 11 be
       -0.006084729 0.0027706218 0.077279925 -0.14241205
000350 e3 04 05 3d 65 c3 bb bd 49 20 6d 3d 8c f2 2c 3e
       0.032475363 -0.09168128 0.057892118 0.168894
000360 e3 76 2d be 46 dd 10 bd cf d0 f1 3c ab 85 ed bd
       -0.16939883 -0.035367273 0.029518513 -0.11597761
000370 0b 24 e3 3d 84 32 bf bc 0e c0 94 3d cc ff bc 3d
       0.11090859 -0.023339517 0.07263194 0.09228477
000380 9e 75 0f be 46 fa c0 bc 1b 09 d6 3c 26 cc 37 bd
       -0.14009711 -0.02355684 0.026127389 -0.044872425
000390 e3 4d 31 bd a8 21 b2 bc b9 34 fc bb 6c b6 88 3d
       -0.04328717 -0.021744564 -0.0076967147 0.06675419
0003a0 95 a9 4a bb af bd 95 3d 95 b7 d4 3c 31 ee 85 bd
       -0.0030923833 0.0731157 0.025966445 -0.06539572
0003b0 58 2f d6 bc 5e a5 da bd a3 ce 8e bd 2a cf 33 3d
       -0.026145622 -0.106760725 -0.069730066 0.04389874
0003c0 16 2d ab 3d e6 54 38 3e e8 a6 73 3d 96 0c f6 bd
       0.08358209 0.18001136 0.059485346 -0.12014119
0003d0 76 48 92 3c 0e bf a3 bd 81 6f 1b 3e aa 56 d5 bd
       0.017856818 -0.07995425 0.15179254 -0.104169205
0003e0 de c6 38 3d d5 cf 7c bd 8f ed 21 3d f6 dc a7 bc
       0.04511153 -0.06172164 0.039533194 -0.020491105
0003f0 e6 0f 25 bb 5d 3e cc 3c bc f2 a6 bd 95 0e 75 bd
       -0.0025186478 0.02493208 -0.08151767 -0.05982836

weight_hh f4 [512, 128]
000000 4a 69 9d bd 8a 5b 11 bd 65 d4 8e bc a9 63 82 bc
       -0.07686098 -0.03548769 -0.017435262 -0.015916662
000010 23 04 0a be 17 28 5b bd 7c c8 cf 3d 70 d8 5e bd
       -0.1347814 -0.05350503 0.10145661 -0.05440563
000020 e9 6c f3 3d 9f 63 ea 3d c1 f5 18 bd 43 c8 fe 3c
       0.11886007 0.114447825 -0.037343744 0.031101352
000030 96 0b 95 3b 9f fa 17 3d 15 a8 d0 3b c5 94 06 3e
       0.0045485003 0.037104245 0.006367693 0.13142689
000040 5c 99 23 3e f5 eb af 3c 1f 17 02 3d eb 67 ac bd
       0.1597647 0.021474818 0.03176033 -0.08418258
000050 26 49 57 3d ca 69 0a 3d d2 56 17 3e 9d f5 b2 3c
       0.052559994 0.033792295 0.14779213 0.021845633
000060 b7 01 42 3d 3d 3e c9 3b 88 08 5e 3a d3 dd 5b ba
       0.047364917 0.0061414526 0.0008469899 -0.00083872414
000070 64 07 75 bd 94 0b 8f 3d 9f 8c a0 3d 4a 7a b7 bb
       -0.0598215 0.0698463 0.07839321 -0.005599295
000080 fb 44 ac bd 11 37 f3 bd db 62 84 bd 72 fe d4 bd
       -0.084115945 -0.118757375 -0.06464168 -0.10400094
000090 f1 1b a9 3d 64 81 5e bd be 8b 5a 3c 67 98 64 3c
       0.082572825 -0.054322615 0.013338981 0.013952351
0000a0 7d a9 64 3d d1 1f d7 3c ed eb 31 3d ee e8 8d 3a
       0.0558257 0.026260288 0.043437887 0.0010826865
0000b0 44 fb a2 3d ab f9 37 3d 3f 32 2b 3c 10 06 03 3e
       0.07958081 0.044915836 0.010448991 0.12795281
0000c0 e5 20 0f bd 95 34 94 3d c8 70 30 bd e5 2c 09 bc
       -0.03494348 0.07236592 -0.043076307 -0.00837252
0000d0 84 d2 73 bd 1b 37 c9 3c 73 4e 94 bd d5 02 d8 3c
       -0.059526935 0.02456241 -0.072415255 0.026368538
0000e0 cc db f5 bc 23 29 16 bd fb 0f 33 3b 73 a6 b8 bd
       -0.030012034 -0.036660325 0.0027322758 -0.09016123
0000f0 c6 bf 9b bd 5d 5b 3a bd 01 0b 4e bd 19 2d dc bc
       -0.07604937 -0.045497287 -0.050303463 -0.026876973
000100 d3 00 04 bd b2 f4 09 3d 61 e2 b2 3c 9d d8 ac 3d
       -0.03222735 0.033680625 0.021836461 0.08439753
000110 10 db 9e bc 0c 76 6d bc 6f c2 f7 3c 43 b1 a2 bc
       -0.019391567 -0.014493477 0.03024408 -0.019859916
000120 3f 02 01 be 56 0e ef bd 21 39 5f 3d 2a 74 35 3d
       -0.12598513 -0.11672656 0.05449784 0.044300236
000130 d0 80 03 bc ce d7 67 3c e3 c5 94 bd 0f d5 82 3d
       -0.008026317 0.014150573 -0.072643064 0.06388294
000140 64 5f 83 3d bf c8 96 3d 98 b4 ad 3d a0 9e 82 3d
       0.06414679 0.07362508 0.08481711 0.063779116
000150 9c 58 65 3c 35 70 fa 3d 83 46 b4 bd a3 8f 81 bd
       0.013998177 0.12228433 -0.088025115 -0.06326225
000160 2a 79 b3 3d 93 57 d2 3d 34 5b 00 be 94 7a c4 3c
       0.087633446 0.1027061 -0.12534791 0.023984231
000170 08 96 13 3e 44 6a cb 3c 8e b9 5b 3c 5f 16 77 3d
       0.14412701 0.024830945 0.013410939 0.06032407
000180 96 62 d4 bd 46 19 bf bc f0 94 62 bd ba 47 b0 bd
       -0.10370366 -0.023327481 -0.05531782 -0.08607431
000190 e7 36 42 3d d6 c9 1a bd 24 2a cb 3d 25 eb 92 bd
       0.04741564 -0.037790142 0.09920147 -0.071737565
0001a0 20 2d 30 3d e3 37 af bd c4 bf dd 3c ea 7e 32 3d
       0.043011785 -0.085555814 0.02706898 0.043578066
0001b0 4b 16 e6 3d 06 5b 93 bb 5c 5c 2b bd 6c b4 6f 3d
       0.11234721 -0.004496935 -0.041836128 0.058521673
0001c0 23 84 65 ba b4 c8 67 3b bb b7 b7 bc 13 63 f4 3b
       -0.00087553466 0.003536743 -0.022426477 0.0074580996
0001d0 fe db df bb 11 e7 f7 bd 86 ed 5e 3d e8 d2 07 3c
       -0.006831645 -0.12104619 0.05442574 0.00829003
0001e0 51 97 56 bd c3 09 d0 bc 9e 05 9e 3d ca 29 7b bc
       -0.0523904 -0.02539528 0.07715915 -0.0153297875
0001f0 7e 72 d5 3c 57 16 db 3c 78 48 eb bd f0 b6 f0 3d
       0.02605557 0.02674405 -0.11488432 0.117536426
000200 ee 68 03 be d4 dc 2b 3c 0a e6 8e bd a4 7b bc 3d
       -0.12832996 0.010489661 -0.0697747 0.0920327
000210 a2 97 29 3d 5c 8f 35 3d 96 40 1e bd 40 13 ba 3d
       0.041404374 0.04432617 -0.038635813 0.09085703
000220 bc 60 3f 3e c4 9e 08 3c f8 0c 74 bd 76 2e a4 3d
       0.18689245 0.008338634 -0.05958268 0.08016674
000230 a5 75 0c bd 94 39 80 bc e3 39 34 3b 09 c6 8e 3d
       -0.034291882 -0.015652455 0.0027500323 0.06971366
000240 8f 5a 13 bd 45 3d a0 3c 95 40 7b 3d 07 e6 01 bd
       -0.035975035 0.019560466 0.061340887 -0.03171351
000250 d6 cf fc bc a0 13 27 3c e7 8b 83 bd 42 06 da bd
       -0.030860823 0.01019755 -0.06423169 -0.10645725
000260 2b 99 34 3d 2a 2e 7c 3d 9f 37 fe 3b 3a cc 08 3d
       0.044091385 0.061567463 0.0077580954 0.03339789
000270 90 ec ec bd 5c 49 1a bb 38 60 04 be 80 09 81 bd
       -0.11568558 -0.002354226 -0.1292733 -0.0630064
000280 74 4c 16 bd 95 6f e1 3c 89 46 c1 3c 75 8b bf bd
       -0.036694005 0.027519027 0.023593204 -0.09352771
000290 17 7f c0 bc 76 03 1a bd 92 1d d9 bd 1d 27 8d 3d
       -0.023498101 -0.037600957 -0.10601343 0.06892226
0002a0 e1 28 bc bd cf 97 1a 3d f6 19 02 bd 80 eb ca bb
       -0.091874845 0.037742432 -0.03176304 -0.0061926246
0002b0 6f d6 de bb 2e e7 e2 bd 65 d5 b2 3d b4 8a 12 3d
       -0.006800465 -0.1107925 0.08732108 0.03577681
0002c0 86 15 25 bd 18 dd 8f 3c c2 ab b4 bb 0c 66 a2 bd
       -0.04030373 0.01756148 -0.005513639 -0.0792962
0002d0 8a ed 00 bc 47 e1 5d 3d 2b f3 1e ba 56 1d 36 bc
       -0.007869134 0.05416992 -0.00060634565 -0.011115393
0002e0 fc 68 c6 bd be 82 63 3d e5 73 07 be 4b 9d 92 bd
       -0.09687993 0.055544607 -0.13227804 -0.071589075
0002f0 70 6a 5c bd 0a 6b 8d bd 7f 49 6b bb b2 aa 6b bc
       -0.053812444 -0.06905182 -0.0035901961 -0.014383959
000300 54 62 6b 3b 83 ee 05 bd 3b 3d c3 3b dc 7f aa bc
       0.0035916762 -0.032698166 0.005958227 -0.020812921
000310 db 87 38 bd f1 67 15 3e 00 a3 84 bd 6e 3a e6 bd
       -0.045051437 0.14590432 -0.06476402 -0.11241613
000320 2d c0 37 3d c5 17 25 3c 34 22 b0 3c da 2f bb bd
       0.044861007 0.010076468 0.021500684 -0.09139986
000330 62 7f e2 3d 20 e8 8b 3d 0f 5c 64 38 fb 40 f0 3d
       0.110594526 0.06831384 5.4445172e-05 0.11731144
000340 c8 89 ee bc f4 54 de 3d 77 bb 75 3d 7d cc 6c bd
       -0.029118434 0.10856047 0.059993234 -0.057812203
000350 9c d2 5f 3b da ac 80 bc 0d 3e e5 3d a4 12 79 3d
       0.0034152633 -0.015707422 0.11193476 0.060808793
000360 14 39 23 bd 1a 15 79 3d ce 42 b1 bd a9 46 31 3d
       -0.039849356 0.06081114 -0.0865532 0.043280277
000370 a8 6e cb 3d f3 32 7a bc 30 c1 90 3d 79 0e e4 bc
       0.099332154 -0.015270936 0.070680976 -0.027838932
000380 fc 84 68 3d 21 fc d4 3c c3 c0 9a bd ae 12 cf bc
       0.05676745 0.02599913 -0.07556298 -0.025277462
000390 fd ff c7 bd e5 ab 78 bd a9 75 87 3a 1e fd e6 bd
       -0.09765623 -0.060710806 0.0010334748 -0.11278747
0003a0 35 3c 0c bd 21 4f 5a bc bf 41 9c 3a 75 8c c5 bd
       -0.034237105 -0.01332453 0.0011921449 -0.09645931
0003b0 42 2f 8a 3c e5 e1 8d 3d 76 f4 f3 bc 4f 86 8e bd
       0.016868237 0.069278516 -0.029779654 -0.06959211
0003c0 e6 cb 07 bd e6 53 d7 3d da 86 01 be be c4 25 3d
       -0.033153437 0.10514049 -0.12649098 0.04047083
0003d0 db 08 9f 3d 14 b5 20 be 72 34 e8 bc 1b a2 ae 3d
       0.07765361 -0.15694076 -0.02834532 0.08527013
0003e0 b5 74 cf 3b 92 89 96 3d fa ac 93 bc 12 50 03 bd
       0.0063310512 0.07350458 -0.018026818 -0.032058783
0003f0 bf 7f d6 3c 4c 5f 93 3c a5 8c 13 be 17 eb 45 bd
       0.026183961 0.017989777 -0.1440912 -0.048319902

bias_ih f4 [512]
000000 28 ca 11 3e 18 62 20 3e 21 80 74 3d cf 39 df bc
       0.14237273 0.1566242 0.059692506 -0.027249245
000010 5b 9d fc 3d c5 30 d5 3d 74 de 94 3d a4 71 e2 3d
       0.12334701 0.10409693 0.07268992 0.110568315
000020 97 af ec 3c 89 cb 26 3d d9 4b 9f bb 68 c3 19 3d
       0.028892322 0.04072145 -0.0048613367 0.03753987
000030 4e 13 c5 3d 72 c8 88 3d 23 68 5e bc b5 f8 c3 3d
       0.09622823 0.06678857 -0.013574633 0.095689215
000040 c3 5d a8 3d bd 38 08 3d 18 ab 82 3d c8 bd 57 bc
       0.08221009 0.033257235 0.0638029 -0.013167806
000050 29 9d ca 3d a0 95 0e 3e b8 4e 96 3d e7 d6 93 3d
       0.09893257 0.13924265 0.07339233 0.07218724
000060 8d bf cd bc c7 a0 f5 3d 88 b0 da 3a 43 de 33 3d
       -0.025115753 0.119935565 0.001668469 0.043913137
000070 4a e1 34 3e 6a 3c 92 3d d0 cb 89 3d 70 8e 67 3d
       0.17664066 0.07140429 0.06728327 0.056532323
000080 3d 9b 01 bd 9a e6 12 bc 13 41 0d 3e b2 dd f9 ba
       -0.031642187 -0.0089661125 0.13794355 -0.0019063263
000090 0f 26 15 3e c4 a8 2f 3e 42 7a 72 3d d1 db bf 3d
       0.145653 0.17154223 0.059198625 0.093680985
0000a0 36 8c ed 3c 71 99 08 bd 2d 15 6e 3c 7f bb 86 3c
       0.028997522 -0.033349458 0.014531416 0.016446827
0000b0 85 7f e6 3d e3 66 33 3e a9 0a 8a 3d bd b0 bc 3d
       0.11254791 0.17519717 0.067403145 0.09213398
0000c0 f5 e0 4a bd 5f d2 2b 3e 8a 5a 4a 3d e2 ac 97 3d
       -0.049530942 0.16779469 0.04940275 0.07406022
0000d0 b4 14 37 3d 8b 7d 23 3d 75 aa 94 3c 99 34 1a 3e
       0.04469748 0.03991465 0.018147686 0.15059127
0000e0 86 77 8a 3d e0 b3 2a 3e ac e6 b3 3d 35 80 e7 3d
       0.067610785 0.1667018 0.087842315 0.113037504
0000f0 0d 7c 0a 3e fe 13 46 3d ac a5 b8 3d aa 7b 7b 3d
       0.13523884 0.04835891 0.090159744 0.061397232
000100 df 26 c2 bc 39 57 63 3e ae 45 97 3d 04 d0 f5 3b
       -0.023700176 0.22201242 0.07386337 0.007501604
000110 33 88 48 3e b6 f5 45 3d 7f b9 d2 3c 2f b7 0e 3e
       0.19583206 0.04833003 0.025723217 0.13937066
000120 b9 56 2a 3e cf 03 19 3e d2 42 ef 3d 24 45 b0 3d
       0.16634645 0.14942859 0.11682667 0.086069375
000130 f6 ce 24 3e cd 38 9c 3d f8 a6 2e 3c be c5 5f 3c
       0.16094574 0.076280214 0.010659926 0.013657985
000140 f5 50 14 3d ef 19 0e 3e 47 fd 4f 3d 65 9e 69 bd
       0.03621002 0.1387708 0.050778653 -0.057035822
000150 12 99 12 3d 34 54 c8 3a 12 77 1f 3d 8a 71 f7 3d
       0.03579051 0.0015283884 0.038931914 0.12082203
000160 83 6a 7e 3d 2e bc 49 3e df 57 d8 3c 43 ac 57 bc
       0.062113296 0.19700691 0.026409088 -0.013163629
000170 2e 98 84 bb 44 f8 1b 3d b0 8c d9 bb 30 7d ab 3d
       -0.0040464615 0.03807856 -0.0066390857 0.08373487
000180 8c f8 03 bd 1e 50 d9 3d 6f 8d 6d 3d 3c c9 fe 3b
       -0.032219455 0.10610984 0.05799621 0.007775454
000190 66 fe 82 3d e8 9b ba bc 46 c9 d7 3d da b8 9f 3b
       0.06396179 -0.02277942 0.10536437 0.004874331
0001a0 c7 42 4c 3e 3a e9 0a 3d a6 3b f9 3d 49 24 55 3e
       0.19947349 0.03391383 0.1216958 0.20814623
0001b0 5e dd 76 bc cd af 68 bc 2b 29 3a 3d 31 fa 9a 3d
       -0.0150674265 -0.01420207 0.045449417 0.075672515
0001c0 b3 c2 23 3e 84 c0 62 3d 4f bf f0 3d 51 10 93 3d
       0.1599224 0.05535938 0.11755239 0.071808465
0001d0 b8 41 22 3e e0 4f 33 3e 2d 4b ff 3d 16 a9 db 3c
       0.15845382 0.17510939 0.124655105 0.026814025
0001e0 90 4a fa 3d d5 1f f4 3d dd a0 4f 3d 74 b6 d8 3d
       0.12221253 0.11920134 0.05069052 0.10581675
0001f0 f5 2a e1 3d f7 74 6f 3d 48 a6 e5 3c 0d 4a 4e 3d
       0.109945215 0.058461156 0.02803339 0.05036359
000200 ec 15 d4 3d 2c fd 73 3d ea 11 dd bc f5 70 a3 bb
       0.10355744 0.059567615 -0.026986081 -0.0049878308
000210 30 71 58 3c f5 1f 17 3d 75 09 9a bd 91 49 5f 3d
       0.01321058 0.03689571 -0.07521335 0.054513518
000220 01 64 60 3b 07 7e 4d bd ef 0e 58 3d 33 fd 9f 3d
       0.0034239294 -0.050169017 0.052748617 0.07811966
000230 c2 d6 af bd 8c 0c 8c bd c1 af f8 bc 34 07 b6 3c
       -0.08585884 -0.068383306 -0.030357243 0.022220232
000240 dd b9 59 bd 82 40 db bc 69 c2 e7 bc 4a e8 d6 bb
       -0.05315577 -0.026764158 -0.028290944 -0.0065584527
000250 c6 08 14 bc 32 af 0a 3d d7 b3 b4 3c 56 a2 44 3d
       -0.009035295 0.033858486 0.02205841 0.048006378
000260 61 21 9a bc b4 c4 bd 3c 89 e7 41 3d 7f 03 9d 3d
       -0.018814744 0.023165084 0.04733995 0.076666825
000270 7a 1c 39 3d af c0 0d bc aa 5d 16 bd 15 7e 5c 3d
       0.045193173 -0.008651896 -0.03671042 0.05383118
000280 a6 0c c5 bc 6f f2 f0 3d 2d 17 5b bd 29 4f a6 3d
       -0.024053883 0.117649905 -0.0534889 0.08120567
000290 d1 c8 47 bb d4 c4 e4 bd 68 00 ec bb 1b 82 d0 bb
       -0.0030484686 -0.111703545 -0.007202197 -0.006363166
0002a0 e5 d7 d7 3c ec 94 30 bd e1 e9 ab 3d d6 b1 b8 3b
       0.026348064 -0.043110773 0.08394218 0.005636434
0002b0 a7 8b 53 bd 11 60 46 3d 74 fd 57 bc 8e d0 a8 3a
       -0.051646855 0.04843146 -0.0131829865 0.0012879537
0002c0 fe 00 45 bd 74 25 08 3d 02 51 fb 3c 37 70 7d 3c
       -0.04809665 0.033238843 0.030678276 0.015468649
0002d0 6e 76 3d bc c2 29 ae 3d 94 f6 e0 3c b1 97 06 3d
       -0.01156388 0.085040584 0.027461328 0.032859508
0002e0 38 39 6a bc a2 71 25 3d 70 0d 53 bd 18 19 0b bc
       -0.014295869 0.04039157 -0.051526487 -0.00848987
0002f0 69 c4 ef 3d cc db 3b 3d 68 3b 81 3d bd c2 91 bd
       0.11707384 0.04586391 0.06310159 -0.071172215
000300 c3 42 d1 3d d4 60 e1 3c e1 d6 9a bc 8b bb c4 3d
       0.10217812 0.027511992 -0.01890129 0.096060835
000310 80 37 d3 bc a5 9f 59 3d 53 b0 af bb 47 c3 43 3d
       -0.0257833 0.053130765 -0.0053615957 0.047793653
000320 b8 e0 b4 bd 75 bc 1c 3c b5 98 8a bd 64 a7 26 bd
       -0.08831924 0.009566416 -0.06767408 -0.04068698
000330 23 f8 3f bc a1 a7 87 bb 17 d2 a8 3c da 79 26 3d
       -0.011716875 -0.004139856 0.020607991 0.04064355
000340 a0 05 1d 3d 33 c6 46 3c 8e e5 a7 bd 9b 3a fd bc
       0.038335443 0.012132215 -0.08198081 -0.030911734
000350 31 01 bd 3c f8 24 90 3a 90 cd 0c bd e5 56 9d 3d
       0.023071857 0.0010997346 -0.034375727 0.076825894
000360 a5 64 2c bd 7e a7 57 3c b7 4c 85 3d c8 e5 5c 3d
       -0.04208817 0.013162492 0.06508773 0.053930074
000370 41 27 9f 3c 09 dc 88 3d 15 55 5b bd 6c a2 9c 3d
       0.019427897 0.066825934 -0.053547937 0.07648167
000380 c1 64 d1 bd fe 89 c0 bd 40 af 89 3c 5d 40 74 bc
       -0.102242954 -0.0940132 0.016807199 -0.0149079235
000390 b7 55 0a 3b d8 f0 50 3d 2c 17 18 3d eb 8a 6e 3b
       0.002110822 0.051010936 0.037131473 0.003639872
0003a0 60 b4 18 bd dc 1a 2a 3e b2 4b 8e bc bc c9 3a bb
       -0.037281394 0.16611809 -0.017370079 -0.002850159
0003b0 a5 96 9c 3d 05 6e 0b 3d b7 2d 5a bd 66 ac 0f 3d
       0.07645921 0.03404047 -0.053266253 0.03507652
0003c0 05 24 99 3d b2 7a 48 3c 12 d0 47 3d 37 3f 9c bd
       0.07477573 0.012236284 0.048782416 -0.07629245
0003d0 23 e9 86 3c c2 fd 13 3d c5 51 dd 3b 65 0f 89 3c
       0.01646859 0.036130674 0.0067541325 0.016730973
0003e0 5b 0d 9b 3d 4b 21 1e bd 6f a4 70 bd 57 4b 91 bd
       0.07570907 -0.03860597 -0.058750566 -0.07094448
0003f0 17 cd 57 3d 6c 3f 0e bd 07 60 72 bd a5 89 31 bc
       0.052685823 -0.034728453 -0.05917361 -0.01083604

bias_hh f4 [512]
000000 b8 db 93 3d 94 e8 8a 3d 56 47 20 3e 26 0c 65 ba
       0.072196424 0.06782642 0.15652213 -0.0008737467
000010 55 0d d7 3d e1 8f b2 3d 8a 1c c8 3d a6 a0 d9 3d
       0.1050059 0.08718849 0.097710684 0.106263444
000020 c7 45 3d 3c 18 b3 c2 3d 3f 0d a7 3d 3f 5d c7 3d
       0.011552281 0.09506816 0.08156823 0.09734582
000030 bb 62 ad 3c af e1 c5 3b 4b 00 b7 3d 7b de eb 3d
       0.021165242 0.0060388665 0.08935603 0.11517044
000040 73 43 4b 3d c3 c8 b8 3d 28 4e 6f bd 7b ff 05 3e
       0.04962487 0.09022667 -0.058424145 0.1308574
000050 b7 be ff 3d ea c6 38 3e 63 39 51 3d 67 61 93 3d
       0.12487548 0.1804463 0.05108012 0.071963124
000060 d3 bd 9a 3b 02 96 33 3e 1b c3 27 bc 3b 83 4d bb
       0.004722336 0.17537692 -0.010239388 -0.0031358737
000070 70 ab f4 3d 41 85 25 3e f4 fe ee 3d 1f a6 9a 3d
       0.119467616 0.16164114 0.11669722 0.07551216
000080 82 c1 b8 3d 91 9b 26 3d 8a a2 fd 3c d2 20 0e 3d
       0.09021284 0.040675703 0.030961294 0.03469927
000090 ee d5 a8 bc 93 32 f2 3d 2e 69 07 3e 6a 12 03 bd
       -0.020609822 0.118260525 0.13223717 -0.031999983
0000a0 8b 89 f3 3d 01 f1 75 bd 6c ec f2 3d c3 08 81 3c
       0.118914686 -0.060044292 0.118615 0.015751248
0000b0 db 00 95 3d 79 86 03 3e c3 9a e6 3d 09 69 07 bc
       0.07275554 0.12844266 0.11259987 -0.008264788
0000c0 18 49 a2 3c 6b 6d 49 3e 43 a8 fb 3d c1 be 98 bc
       0.019810244 0.19670646 0.12287953 -0.018645646
0000d0 38 7b 06 3e f7 99 32 bd f2 74 be 3d cd 32 46 3e
       0.13132942 -0.043603864 0.09299649 0.19355316
0000e0 8c c9 e5 3d 3a 47 db 3d fc f6 61 3d 6f 8a 2b 3d
       0.11220083 0.10706945 0.055167183 0.041880067
0000f0 53 fc 10 3e f9 f2 d2 3d 63 ee be 3c 32 ec c5 3d
       0.14158754 0.103002496 0.023307031 0.09664191
000100 eb 4d a8 bc 0b e8 0f 3e ba 22 9c bc 03 f2 08 3d
       -0.020544967 0.14053361 -0.019059528 0.033433925
000110 77 c0 68 3e e1 8b c3 3d 66 97 bd 3d 51 ac 18 3e
       0.2272967 0.09548164 0.092573926 0.14909483
000120 8b 43 db 3d f7 ea 21 3e 5a 4e 28 3d 3e e9 5f 3d
       0.10706242 0.15812288 0.041090347 0.054665796
000130 24 c7 00 3e 4f 98 ef 3d 63 c4 26 3e 84 43 69 bc
       0.12575966 0.116989724 0.16285853 -0.014237288
000140 d7 b3 f5 3d f2 d9 7a 3d 63 3b 24 3e 15 c7 5b 3d
       0.11997192 0.061243005 0.16038279 0.053656656
000150 62 a9 1d 3e de de ec 3d fc e7 63 3d b0 33 84 3d
       0.15396646 0.11565946 0.05564116 0.06455171
000160 c3 d8 a0 3c 68 1e 28 3e 00 04 a8 3d 5e 44 dc 3d
       0.01963461 0.16417849 0.08203888 0.107552275
000170 0a d8 87 3b 7d 14 14 3d ba e7 1b 3d 75 88 bb 3c
       0.004145627 0.03615235 0.03806279 0.022892216
000180 54 0e 9b 3d 02 23 e1 3c 78 ec e1 3d 3a 39 15 3e
       0.07571092 0.027482513 0.11031431 0.14572611
000190 e8 c2 2f 3c 6d f9 91 3d 60 97 95 3d 6f 90 55 3d
       0.010727622 0.07127652 0.07304263 0.052139696
0001a0 6a 14 80 3e 5a 26 64 3d df 70 f5 3b 23 04 71 3d
       0.25015575 0.055700637 0.007490262 0.058841836
0001b0 de 2b 52 bd 66 66 c7 3d 9f 49 36 3d 14 5b 29 ba
       -0.051311366 0.09736328 0.044503804 -0.000646041
0001c0 a2 5d e5 3d a3 0f 26 bb 7c c8 c1 bc fb 8b 08 3e
       0.111995 -0.002533891 -0.023655169 0.13334648
0001d0 7a e6 f8 ba 45 61 f3 3d 82 65 30 3e 6a 49 0e 3d
       -0.0018989586 0.11883787 0.17226222 0.03473798
0001e0 84 7d e1 3d c5 ea fc 3c cd 99 57 3e 17 63 37 3b
       0.11010268 0.030873666 0.21054764 0.0027982646
0001f0 e1 fa 1b 3e 75 95 10 bd 1d 84 ad 3d 8d 88 7e 3d
       0.15232421 -0.035298783 0.08472464 0.062141944
000200 66 2f 48 bd 08 1e 0d bd c6 55 6b 3c 31 9b 9f bd
       -0.048873328 -0.03445247 0.014363712 -0.07793272
000210 87 2a 19 3d e7 c9 95 3d d7 46 e9 3c a3 f2 37 3d
       0.037394073 0.073139004 0.028476162 0.04490913
000220 72 3f 1c 3d 73 0e 46 bd d1 5f 55 3d ea d7 78 3d
       0.038146444 -0.048353624 0.05209333 0.060752787
000230 e3 44 72 bb 88 dc 25 3c 40 4e a2 bd c6 4d 9c 3c
       -0.003696733 0.0101233795 -0.07925081 0.019080054
000240 69 ba 4e 3d a0 6e fe 3c ca 16 ba 3d 44 73 c6 3d
       0.050470743 0.03105861 0.09086378 0.09689954
000250 0f 18 4f 3d 1c a1 31 bc 71 0d 20 bd b9 e5 57 bc
       0.050560053 -0.010841634 -0.03907532 -0.013177329
000260 04 56 f2 3d c2 ac d4 3c 60 ea 05 3d 93 e4 c0 3c
       0.118328124 0.025961284 0.03269422 0.023546493
000270 1c f8 ff bc de 44 fe 3d 79 82 e1 bc e8 e1 7a 3c
       -0.031246237 0.12415479 -0.027528035 0.015312649
000280 75 4b 80 ba 69 90 de 3d 45 04 06 3c 85 26 00 3b
       -0.0009788113 0.10867388 0.008179729 0.001955421
000290 a5 ca 9a 3c a9 92 08 be 37 73 1d bd f0 e8 d0 3d
       0.018895457 -0.13337196 -0.038439956 0.10200679
0002a0 93 c3 21 3d aa 49 ac 3d 43 57 5a bd ed 39 ca 3d
       0.039493155 0.08412488 -0.053305876 0.0987433
0002b0 71 e9 1c 3d a7 df 64 bd da e3 a5 3c ee 0d 36 3d
       0.038308565 -0.055877354 0.02025025 0.044446878
0002c0 9e e5 38 bd 70 07 00 3d 21 0f 9f bd 02 2e f9 3a
       -0.045140855 0.031257093 -0.077665575 0.0019010904
0002d0 d3 6d df 3c 2a ee 8c 3d 11 35 5d bd a0 47 95 3c
       0.027274048 0.06881364 -0.054005686 0.01822263
0002e0 6f 69 0d bd f6 49 97 3d 68 64 46 bc 74 d5 42 bd
       -0.034524377 0.07387154 -0.0121089 -0.047566846
0002f0 91 63 9f 3d 10 1a 61 bd 1c 98 c7 bc d4 30 07 3d
       0.07782663 -0.054956496 -0.024364524 0.03300555
000300 df 7d 28 3d aa a2 a5 3d f5 42 0d bd 3b a0 b0 3d
       0.041135665 0.08087666 -0.034487683 0.086243115
000310 20 07 e3 bb c3 52 fb 3d d8 2d 5a bc 85 96 68 3d
       -0.0069283396 0.12271645 -0.013316594 0.05678417
000320 c4 7e df bd 78 4e a8 bc f3 71 a3 bd 6f e7 ee bc
       -0.109128505 -0.02054523 -0.079807185 -0.02916309
000330 63 66 93 3c 84 a6 a4 3d d1 26 b1 bd 9a 87 d5 bc
       0.017993158 0.08039573 -0.08649982 -0.026065636
000340 f0 c2 2d bd 6a 1a 07 3d f7 ba 24 3d 23 0a 15 3c
       -0.042422235 0.032984175 0.040217366 0.009096655
000350 d9 53 0f 3d 90 38 fe 3c 3e af 1b bd 0a 33 4d bc
       0.034992073 0.03103283 -0.03800892 -0.012524376
000360 77 d0 b8 bb ae 26 dc 3c c9 a0 ed 3c 10 e8 c9 3d
       -0.0056400853 0.026873913 0.029007332 0.098587155
000370 37 0b 11 3e 05 21 cd 3d 09 2b df 3d c4 a9 6c 3d
       0.14164434 0.100160636 0.1089688 0.05777909
000380 3f d1 3f bc f9 35 93 3c fe 38 a5 bc c1 98 8c 3d
       -0.011707603 0.017970072 -0.020168778 0.06865073
000390 c1 18 70 3b 50 bc 12 3d 40 5a 27 3d 66 00 94 bb
       0.0036635848 0.03582412 0.040857553 -0.004516649
0003a0 36 39 5e 3d 8e b5 19 3e ec a0 a9 3d 23 d4 3b bd
       0.05425378 0.15010664 0.082826465 -0.045856606
0003b0 cf 62 c3 3d a9 f5 46 bd 44 37 83 3b 93 a1 e2 bb
       0.095403306 -0.048574124 0.004004391 -0.006916234
0003c0 62 23 10 bd 82 2a 36 bc b5 02 b7 bd e9 9f 29 3d
       -0.035189994 -0.011118533 -0.08936063 0.041412268
0003d0 c8 f4 c9 3d 65 07 db bb 67 3d 4a bc 8b eb 2a 3c
       0.098611414 -0.006684231 -0.012343741 0.010432134
0003e0 f9 32 57 3d 44 20 a9 3d ad a3 ea bc 5f a2 8e bd
       0.052538846 0.08258107 -0.0286425 -0.069645636
0003f0 4c e7 b5 3c 55 e0 34 3c 6c da ce 3d 87 63 ac bd
       0.022205018 0.011039813 0.101002544 -0.08417421

weight_ih f4 [512, 128]
000000 6e b4 2d 3c 85 0f 67 bd 2e b3 8d bd 2b c1 d3 bd
       0.0106021 -0.056411285 -0.069189414 -0.10339578
000010 3d 63 48 bd 32 b7 d9 ba 72 30 f9 3c f9 c2 9b 3d
       -0.048922766 -0.0016610383 0.030418608 0.076055475
000020 54 9b 45 39 46 ae 13 3d 31 89 48 bd ae 30 39 3c
       0.00018845248 0.036054872 -0.04895896 0.01130311
000030 e2 b1 99 3d f5 c5 b5 3d e6 7d e3 bc 87 91 aa 3d
       0.075046316 0.08875648 -0.027769994 0.083285384
000040 43 45 0d 3d ba 6a e0 3d 44 8b 44 3d 4e 84 d8 bd
       0.03448988 0.109578565 0.047984377 -0.1057211
000050 fa 24 57 3d ff 6c d9 bd fc d3 30 bd 5b cd 7d 3d
       0.052525498 -0.106164925 -0.043170914 0.06196342
000060 a3 94 8a 3c d9 27 2f bd 44 2d 4b bc 61 b2 a4 3d
       0.016916579 -0.04276261 -0.012400929 0.080418356
000070 fb 39 36 bd f0 f0 4a 3a 5c 3b 89 bd 8e e8 a6 3d
       -0.04448889 0.0007741591 -0.06700775 0.08149825
000080 d9 50 90 bc 19 33 90 3d c4 5d 80 bd 1b 62 1d 3d
       -0.017616676 0.07040996 -0.062678844 0.03842364
000090 39 bb d4 3d d2 ae b3 3d 37 54 f0 3c e7 f4 4b 3d
       0.103872724 0.08773579 0.029337032 0.049794104
0000a0 e2 c2 ba bd b5 2a 55 3d 6b 90 58 3d 18 ed b4 3d
       -0.09119202 0.05204268 0.052872103 0.088342845
0000b0 7c da 2f 3d 8d 28 8c 3d eb 16 00 be 25 44 e8 3c
       0.042932972 0.06843672 -0.12508743 0.028352806
0000c0 ea 79 50 bd 2d db 23 3e 8e 23 49 3d 3d 56 c5 bd
       -0.050897516 0.16001578 0.049106173 -0.09635589
0000d0 22 a1 1d bd c5 2c 6d 3d 83 ed 91 bb af 50 29 3d
       -0.038483746 0.057904024 -0.0044533624 0.04133671
0000e0 3c 4d 42 3d e4 35 88 bc ba 24 d9 bc 27 a1 24 bd
       0.047436938 -0.01662726 -0.02650677 -0.04019275
0000f0 c9 d3 6d 3d e0 73 89 bd 7e 1a 1f bd fc 18 02 3d
       0.058063302 -0.067115545 -0.038843624 0.03176211
000100 64 fe 49 bd 43 22 bd bd bf 72 69 bd c3 98 94 3c
       -0.04931487 -0.092350505 -0.056994196 0.018139249
000110 05 6f 20 be 6a ea c8 3c 4f 77 cf 3c a5 60 9e 3d
       -0.1566735 0.02452584 0.025325445 0.07733277
000120 7a 14 bf 3d e8 9e 8e bc 74 b7 5a 3d 55 5c 95 3d
       0.093300775 -0.017409757 0.05339761 0.072930016
000130 ca 8c 38 bd a5 99 89 bd 35 98 94 bd 9e 51 81 3d
       -0.045056142 -0.067187585 -0.07255594 0.06314395
000140 a6 a4 44 bd 89 f2 d4 3c 42 48 89 bd da 34 cb bc
       -0.048008583 0.025994556 -0.06703235 -0.024805475
000150 72 71 3c bc 02 95 de 3d f0 d3 1c bd ff 57 13 bd
       -0.011501657 0.10868265 -0.038288057 -0.03597259
000160 a6 0c 0c bc 8e 44 a3 bd c2 41 cf bd 96 4c 0e 3e
       -0.0085479375 -0.0797206 -0.10119964 0.13896403
000170 17 12 6f 3d ad c2 cc bd 40 96 a0 3b 89 19 be bb
       0.05836686 -0.09998069 0.0049007237 -0.005801384
000180 ea 42 8b bd 15 f4 01 be 80 10 85 3c 8b 98 23 ba
       -0.06799872 -0.12690766 0.01624322 -0.0006240687
000190 4d 07 9d bb 9e e8 0a bd af 3c 86 3d 82 46 2d bd
       -0.00479213 -0.033913247 0.06554543 -0.04230357
0001a0 62 58 77 3d 34 4b 2e be 6b 95 91 3c 80 c5 21 bb
       0.060387023 -0.17020875 0.017771443 -0.002468437
0001b0 d3 dc 54 3d a8 af 21 3d f5 28 58 bd 06 2e b0 3d
       0.051968407 0.03947416 -0.052773435 0.08602528
0001c0 27 2f bc bd 8d 51 98 bd 12 df 43 bd 6f 47 30 3e
       -0.09188681 -0.074374296 -0.04782016 0.1721475
0001d0 10 e3 4b 3e a2 67 10 be af 3c 87 3c 58 8f 24 bc
       0.19910836 -0.14102033 0.016508428 -0.010043941
0001e0 8a 43 9b bc 19 ef c5 3d fe 9f ee bd 8b 3d 88 3d
       -0.018953104 0.09664745 -0.1165161 0.066523634
0001f0 39 ed 54 3c 3b 48 e2 3c d5 15 98 bb f3 d1 f9 3b
       0.012996011 0.027622333 -0.0046412745 0.007623905
000200 72 1d 13 3e 84 1b e2 3d 11 f1 ce 3c 4e ec 4e bd
       0.14366701 0.110404044 0.025261434 -0.050518326
000210 3a ce e3 bc 2e c5 38 3d 29 79 2a 3c 12 e6 7d bd
       -0.027808297 0.04510992 0.010404863 -0.06198699
000220 50 6d 6d 3d bb 97 3b 3d e3 be 95 bd 70 22 7b 3d
       0.057965577 0.045799 -0.073117994 0.06131214
000230 00 81 11 bd cd a0 47 3d 2e 10 60 bc 0e aa b8 bc
       -0.035523415 0.048737336 -0.013675733 -0.022542026
000240 3f 53 ad bc 9a 26 e1 bb 3a 67 3c bd c5 f5 4b 3d
       -0.021157859 -0.0068710567 -0.045996882 0.04979493
000250 d2 95 b6 bc 9a 3c 3e bc e3 cf bc 3c 77 7b fb 3d
       -0.022288237 -0.011611128 0.023048347 0.122794084
000260 8d 81 0a be 39 b7 99 3c d9 62 90 bd 5b cd 7f bd
       -0.13525982 0.018764125 -0.07050104 -0.0624517
000270 ed f5 9b 3c 9a d5 2d 3b 21 ab 9a 3d d7 3b 3e 3c
       0.019038165 0.0026525022 0.075521715 0.011610947
000280 70 44 27 3d 9a 55 d9 3c 5c 19 78 3d 29 87 3d 3d
       0.04083675 0.026530076 0.06057106 0.046271477
000290 a6 29 e5 ba 3e f8 db bc 95 5f 51 b8 f8 3e 73 bd
       -0.0017483726 -0.02685177 -4.99185e-05 -0.059386224
0002a0 1a 30 36 3d 4d 51 a7 bd d6 1d 78 3d ce aa 9b 3d
       0.044479467 -0.08169804 0.06057533 0.07600938
0002b0 98 9c dc 3d bc c8 83 3c 3a 25 af bd ff 9d b1 3b
       0.107720554 0.016086929 -0.08552022 0.005420446
0002c0 f8 44 4a 3c a7 be 72 3d f4 77 af bc c7 a4 63 3b
       0.012345545 0.05926385 -0.021419503 0.0034735666
0002d0 82 f1 40 3c fd ef 4f 3d c2 ce 69 3c 18 56 7c 3d
       0.01177633 0.05076598 0.014270486 0.061605543
0002e0 d6 39 cd 3d 43 9e 83 bc 00 08 e7 3c 82 03 dc 3d
       0.10020797 -0.016066676 0.028202057 0.107428566
0002f0 33 16 90 bd 31 7f e9 bd 3e d4 9e 3d 52 34 e3 bc
       -0.07035484 -0.11401213 0.07755326 -0.02773491
000300 2a 58 0d be 51 87 84 3d 77 01 a5 bd bf 72 7a 3b
       -0.13803163 0.06471122 -0.0805692 0.0038215367
000310 34 74 4c 3d 21 25 24 3d eb d2 48 3c ec 0c ef bc
       0.049915507 0.04007447 0.012257318 -0.029180966
000320 1b 4c 39 b9 44 bf b3 3c 43 9b c1 bd 7a 45 09 bd
       -0.00017671326 0.021941788 -0.09453442 -0.033513524
000330 eb 51 96 3d e7 b9 df 3c c9 7a 33 be 77 e5 86 bd
       0.07339843 0.027310325 -0.17527308 -0.06586736
000340 36 44 07 bd a9 63 8b 3b 28 b8 09 be 67 96 44 3c
       -0.033024035 0.004253824 -0.13449156 0.011998749
000350 0c 2d 5f bd 32 cf bb 3d 37 ed 6a 3d ce 28 13 be
       -0.05448632 0.09170379 0.057355132 -0.14371035
000360 e5 c7 1c bd f1 9d e8 bc e1 08 b2 3d b2 98 e0 bc
       -0.03827657 -0.028395625 0.086931 -0.02741656
000370 8a d2 30 3d af d4 c3 3d d7 67 0a 3d 1e f7 d5 bd
       0.043169536 0.095620506 0.033790436 -0.104475245
000380 e5 96 89 bd ad 42 b8 bb 64 9f 38 3d 74 ca 80 bd
       -0.06718234 -0.0056231827 0.04507388 -0.06288615
000390 b8 fe a1 3b 81 b5 20 be ce 39 11 3e bc 48 11 bd
       0.004943695 -0.15694238 0.14182207 -0.035469756
0003a0 ee 63 eb bc 75 0e 83 bd ba aa b1 3d 98 ab 4c bd
       -0.028734174 -0.06399242 0.08675142 -0.049968332
0003b0 4e a8 f4 3c f6 37 0a bd 18 e6 7a 3a d9 a6 7c 3d
       0.02986541 -0.033744775 0.000957103 0.061682556
0003c0 9a fd e2 3d 59 cb 91 bd 79 33 08 bd 54 f2 94 3d
       0.11083527 -0.071188636 -0.033252213 0.07272783
0003d0 32 60 0c bb ae 85 12 3d e3 e5 a8 3d 60 69 56 bc
       -0.0021419642 0.035772018 0.082469724 -0.013086647
0003e0 db c1 b8 3d 9e af 21 be 58 70 24 3d 1f 1d 27 3e
       0.0902135 -0.15789649 0.0401462 0.16319703
0003f0 bb ff 8c bd 56 da fc bc c6 3b 46 bb 67 11 49 3d
       -0.06884714 -0.03086583 -0.003024803 0.04908886

weight_hh f4 [512, 128]
000000 15 56 f9 bc 56 aa a5 bd 55 3b c3 b8 dc 17 f4 bc
       -0.030436555 -0.080891296 -9.309376e-05 -0.029796533
000010 b6 ef 5f 3c dc 18 e1 bd 15 dd 40 3d 08 49 0f ba
       0.013667991 -0.1099107 0.04708584 -0.00054658996
000020 01 12 c3 3c 6a 01 08 3d 60 c3 58 bd 00 5f ec 3c
       0.023812296 0.033204474 -0.0529207 0.028853893
000030 0b 11 95 bd c3 2b 9a bd 26 2a 0b bb b1 f6 a6 bd
       -0.07278641 -0.07527878 -0.002123484 -0.081525214
000040 bc 18 ad 3c 73 bc f4 3d 70 0f ce bd dc e9 17 bd
       0.021129958 0.11950006 -0.10061538 -0.03708826
000050 0a fa 33 bd 3d f3 37 bd 95 f4 6b 3d de cb 83 bd
       -0.043939628 -0.044909704 0.0576063 -0.06435369
000060 33 4a a7 bd 05 86 b7 3d fd 45 dc 3c 1d f3 ca bc
       -0.08168449 0.08961109 0.026888842 -0.024774129
000070 fa 6b cb bd 4b c3 aa 3d 2b 93 b7 bd 8a b7 90 3d
       -0.09932704 0.083380304 -0.08963617 0.07066257
000080 7d 5a af 3d 59 d5 f0 bd 47 78 cf 3c c5 9d 72 bd
       0.08562181 -0.11759443 0.025325907 -0.059232492
000090 b4 e1 c9 bd c7 57 d3 bc 7e 7e b3 bd e9 f1 01 3d
       -0.098575026 -0.025798691 -0.08764361 0.031724844
0000a0 83 cc af bd cb 6b 9e 3d 99 fd b1 3d f5 66 98 3b
       -0.085839294 0.077354036 0.08690948 0.0046509453
0000b0 1a bf 82 3c a1 36 6f 3d 44 76 ac 3c f1 d9 00 3d
       0.015960265 0.058401708 0.021052487 0.031457845
0000c0 85 59 a2 3d 05 2b bf bd eb 8c cf bc dc e2 3c bc
       0.07927231 -0.09334377 -0.02533575 -0.011528697
0000d0 31 9f 09 3d 3e ad 7c bc a7 06 7f bd 55 34 8a 3d
       0.033599082 -0.0154221635 -0.062262204 0.06748263
0000e0 61 5b 4c bd 5e b0 12 bd 22 4c 90 3d 2f b8 dc 3d
       -0.049891833 -0.035812728 0.07045771 0.10777318
0000f0 5a 44 b8 3d d7 96 93 bb 4a 44 83 3d 8d 12 17 3d
       0.08997412 -0.0045040655 0.064095095 0.036882926
000100 37 a7 f9 3d a0 cc d9 bd aa 0d 57 3d b2 6b 32 bd
       0.12190097 -0.10634732 0.052503265 -0.043559738
000110 16 88 13 3d f7 01 50 3c 69 41 5c bd a4 7a 24 bc
       0.036018454 0.012695781 -0.053773317 -0.010039005
000120 c4 09 b3 3d cf 5a 4c 3d b0 f6 d3 3c 70 bd af bd
       0.08742097 0.04989129 0.025874466 -0.08581054
000130 34 fb ef bd 2c 02 16 3d 28 d7 a4 3c 37 28 c1 3d
       -0.11717835 0.036623165 0.020122126 0.094314985
000140 4b d2 5a bd c5 a5 84 bd 18 5c e7 3d 81 8c b1 bd
       -0.053423207 -0.064769305 0.11296862 -0.08669377
000150 3e 16 91 3d 74 a5 ba bc 75 68 41 bc db 71 c1 bc
       0.070843205 -0.022783972 -0.01180469 -0.02361386
000160 43 ce 07 3e 79 5a ce bb 13 18 00 3d 48 c6 2e 3d
       0.13262276 -0.0062974063 0.03127296 0.042669564
000170 12 78 b3 bd 3a 1b d9 bc 04 34 44 bd 09 3f 8e bd
       -0.08763136 -0.02650224 -0.04790117 -0.06945617
000180 63 b1 0d bc 6b 22 91 3d f0 4b a4 3c a7 a8 82 3d
       -0.008648249 0.07086643 0.020055741 0.06379824
000190 77 47 64 bd 9d 50 b1 bc b4 b8 34 39 30 c5 98 bd
       -0.055732217 -0.021644885 0.00017234945 -0.074594855
0001a0 af cf 93 3c 67 d6 27 bd 81 a7 8f 3d 08 53 58 bd
       0.018043367 -0.040975954 0.07014371 -0.05281356
0001b0 53 0c 36 3c 09 e7 ee 3d b3 64 b0 bd f1 fd c6 3b
       0.011111337 0.1166516 -0.08612957 0.0060727526
0001c0 a3 13 6d 3d e4 2d bf 3d e5 c2 b0 3d 4d cf 50 3d
       0.057880055 0.09334925 0.08630923 0.050978947
0001d0 4c ed 7e bd 56 ab 57 bd e6 c1 68 bc 21 4a 65 3d
       -0.062238023 -0.052653633 -0.014206385 0.055978898
0001e0 63 e3 ff 3c ca ae c5 39 65 e8 fb bc ad 2e e0 3d
       0.031236356 0.00037704996 -0.030750463 0.10946403
0001f0 6d 42 65 3d 30 da 36 3d 35 33 db 3b 70 7f 17 3d
       0.05597155 0.044641674 0.006689454 0.03698677
000200 7d 24 97 3d 6b 48 ea bc db d5 19 be 87 df e5 3c
       0.073800065 -0.028598985 -0.15022986 0.028060688
000210 2d 7b 9a 3d 87 08 57 3d d9 07 db bc 4a 2c bd 3c
       0.07543025 0.052498367 -0.02673714 0.023092408
000220 4d fa 0e be f1 39 dc bc e9 08 d1 3d ee 8c f8 bd
       -0.1396267 -0.026883097 0.102067776 -0.12136255
000230 3b 95 42 bd cc d5 9d 3d 85 97 76 bd f5 f1 9c 3d
       -0.0475056 0.07706794 -0.060203094 0.07663337
000240 f8 6e ee 3d 93 98 1d 3e a5 8a 36 ba 09 ae 0b 3e
       0.11642259 0.15390234 -0.00069634087 0.13640608
000250 b0 32 05 3d 1b cf b2 bd dc 7d 26 bd df ef 5b bd
       0.032519042 -0.087309085 -0.040647373 -0.053695556
000260 39 aa 87 bd c5 f0 b2 3d 6a 68 68 bc 81 c6 cf 3d
       -0.06624264 0.087373294 -0.0141850505 0.101452835
000270 14 6c c6 3d 3c cd bb 3d 46 43 0e 3c a2 52 92 3d
       0.09688583 0.09170005 0.008683031 0.07144667
000280 17 35 ad 38 34 86 7b 3d 79 c0 ef 3d d2 42 f3 bd
       8.2591716e-05 0.061407283 0.11706633 -0.11877979
000290 4c e5 05 3c 40 a1 d3 3d 7c bc b9 bc 23 e7 d8 bc
       0.008172344 0.1033349 -0.022672884 -0.026477402
0002a0 46 9d c7 bc e8 87 c0 3d ab 5b a0 bd 6d 83 04 bc
       -0.024366986 0.09400922 -0.07829984 -0.008087975
0002b0 40 64 ed 3d 0e 40 f0 bd 07 b3 24 bd 5f 85 f1 bd
       0.11591387 -0.117309675 -0.040209796 -0.11793017
0002c0 d4 eb 85 bd b0 10 ea 3d 64 67 5d bc 8b 08 62 bc
       -0.06539121 0.11428964 -0.01351342 -0.013795982
0002d0 dc 80 92 bb 39 1d f7 bd 56 1e 1c be 8b 69 23 3d
       -0.0044709276 -0.12066121 -0.15245947 0.039895575
0002e0 5a d6 ae 3d 90 af 29 bc 6d bd bf 39 e1 51 05 3b
       0.08536978 -0.010356799 0.00036571492 0.0020342993
0002f0 8a ae 21 bd e6 f1 88 3d b5 fe 46 3e dc f6 8c 3d
       -0.039473094 0.066867635 0.194331 0.06883022
000300 63 14 b6 bc c9 72 92 3d 87 04 a4 3d a7 9d 77 bd
       -0.022226518 0.071508 0.08008676 -0.060453083
000310 a7 37 07 bc b6 d0 3f 3c 97 70 e5 3c bb 9d 76 bd
       -0.008253015 0.011707475 0.028007789 -0.060209017
000320 be 30 ed 3d ec 51 25 bd 4c ec eb bd 5e 3e 31 3d
       0.115815625 -0.04036133 -0.115196794 0.04327237
000330 ae be 8e 3c be 6f 21 be 97 86 f2 bd ed 6d 88 bd
       0.017424908 -0.15765283 -0.11842077 -0.06661592
000340 10 78 d8 3c 53 ae a8 bd 9f 57 14 3d 2b 4d 8f bc
       0.026424438 -0.08236375 0.036216374 -0.017492851
000350 0f 6a b8 3d 64 2f 03 3e 05 09 b4 3d 38 e7 05 be
       0.09004604 0.12811047 0.08790783 -0.13076484
000360 73 8e a8 3d ad b8 19 bd bf c9 26 3c 1f e7 39 3d
       0.08230295 -0.037529636 0.010179936 0.04538643
000370 fe 7a ae bd ea 43 6f bd 26 7a 0f bd cc b9 39 bd
       -0.08519553 -0.058414377 -0.0350286 -0.045343205
000380 36 bc e4 bd 1b ad 5f bb 6d 6f 6d 3d f7 97 84 3d
       -0.11168711 -0.0034130279 0.057967592 0.064742975
000390 eb 34 4e bd df e0 61 3d 11 48 c5 3d 65 50 16 be
       -0.050343435 0.055146094 0.09632886 -0.14679106
0003a0 e4 d5 b0 bc 77 2a a9 bd f6 e7 39 bc b3 61 06 be
       -0.021586366 -0.08260053 -0.011346808 -0.13123207
0003b0 8c 80 11 3b e2 89 1c bd 2d 33 b2 3d 8e 5e 8a bd
       0.0022201864 -0.038217433 0.08701167 -0.06756316
0003c0 e1 f9 f9 3d 23 27 45 3d d7 40 65 bd f5 b6 e1 bc
       0.12205864 0.048133027 -0.05597004 -0.027553061
0003d0 78 c1 83 3c 44 fb d0 3d 62 f0 ec 3d 53 a8 04 3c
       0.016083464 0.10204175 0.11569287 0.008096772
0003e0 56 14 f1 3a f0 a0 2a be c2 f8 d4 bb 0d e0 d2 3c
       0.0018392901 -0.16662955 -0.006499381 0.025741601
0003f0 6a ce 74 3e 9e 44 e2 bd d8 33 47 3d dc 87 6f 3b
       0.23906866 -0.11048244 0.048633426 0.0036549484

bias_ih f4 [512]
000000 88 82 50 3d c0 e9 01 3e b8 25 a6 3d 93 8e ee 3d
       0.050905734 0.12686825 0.08112663 0.116482876
000010 ef 15 5e 3d 31 98 be 3d 03 f0 03 3e 73 61 a6 3d
       0.054220136 0.09306372 0.12884526 0.08124056
000020 da 91 1a 3e 0f 05 9a 3d dc 1e 3c bc 35 e3 fb 3d
       0.150947 0.07520496 -0.011481967 0.12299196
000030 31 8b 1c 3e 31 15 0c 3e ec f4 60 3d c0 c0 ee 3d
       0.15287472 0.13679959 0.054921076 0.11657858
000040 f9 6b b1 3b 60 6b 89 3d 28 b2 ce 3d af 1b ac 3d
       0.0054144827 0.06709933 0.10092574 0.08403718
000050 2e 35 36 3e dd 4e 69 3b 6d 93 24 3d 4f af 4e 3d
       0.17793724 0.0035599985 0.04017966 0.050460156
000060 5b d4 a4 bb f3 81 f2 3c 98 51 a9 3d f8 3c 08 3e
       -0.0050301976 0.02960298 0.08267516 0.13304508
000070 bc b6 fd 3b 1f 30 64 bc 7f 75 34 3e 9a 71 14 3e
       0.007742731 -0.013927489 0.17622946 0.1449646
000080 b0 93 88 3e 46 e6 a5 3d 03 a8 71 3d 74 88 e9 3d
       0.26675177 0.08100562 0.05899812 0.114029795
000090 bd fd 29 3e 32 6e b3 3d 2c e0 24 3c ab 88 19 3e
       0.166007 0.087612525 0.010063212 0.14993541
0000a0 c8 ea 01 3e b8 03 e3 3d f2 ae fa 3d be 6e 48 3e
       0.12687218 0.11084694 0.122403994 0.19573495
0000b0 7f 6f dc 3d c1 27 93 3c 82 3b 03 3e c6 10 20 3e
       0.10763454 0.017963292 0.12815669 0.15631399
0000c0 bd ca e8 3d 27 44 1f 3d 53 b6 9a 3d 2a fa 88 3d
       0.11366794 0.038883355 0.07554307 0.0668834
0000d0 09 58 0c 3d bc dc c6 3d 60 e6 3f 3d c2 a6 04 3e
       0.034263644 0.097100705 0.046850562 0.12954238
0000e0 13 0d 8c 3d d6 02 b0 bc 8d b8 cf 3d 09 8a 13 3d
       0.06838431 -0.021485727 0.10142622 0.036020312
0000f0 33 a3 44 3d 6b 21 d5 3c bc b8 9d 3d 0e 14 ca 3d
       0.0480072 0.026016911 0.07701251 0.098671064
000100 b1 bb 80 3d 8e 31 a5 3b ac 57 ec 3d 5a 10 1e 3d
       0.06285799 0.005041308 0.115401596 0.038589813
000110 4e 6e c1 3d 71 54 f7 bb 67 6d 13 3d ea 0f a0 bc
       0.09444867 -0.007547908 0.035993006 -0.019538838
000120 ea 2f 99 3b 48 d5 7e 3b 98 ae a8 3d 73 fa 6a 3e
       0.0046749013 0.003888445 0.08236426 0.22947101
000130 eb db e0 bc 56 f0 17 3d 4e b9 03 3d ba a0 8f 3d
       -0.027448615 0.037094437 0.032159142 0.07013078
000140 d0 28 d0 bc 87 37 43 3e bb 77 81 3d 71 bf 48 3d
       -0.025410086 0.19064151 0.06321665 0.049010698
000150 54 d3 b0 3d a0 e8 15 3d 1f 1f a0 3d 3a af f8 3d
       0.08634058 0.0365988 0.07818436 0.12142797
000160 da ec c5 3d 7a 9c 93 3d cb 41 81 3e 0f 63 33 3e
       0.096643165 0.0720758 0.2524551 0.17518257
000170 29 a5 f1 3d 53 27 10 3e 3b 20 ee 3d a9 73 38 3e
       0.1179908 0.14077501 0.11627241 0.18012871
000180 dc ac 08 3e 46 eb 1a 3d 85 35 ff bc 3e e9 55 3e
       0.1334719 0.03782203 -0.03115345 0.20889756
000190 f8 75 46 3e b7 e1 82 bd f2 4c 4c bb 92 b8 9b 3d
       0.19380939 -0.06390708 -0.0031173793 0.07603563
0001a0 9f 71 e5 3d 5b ef a9 3d 4e 11 f1 3c 54 58 de 3d
       0.11203312 0.082976066 0.029427197 0.10856691
0001b0 05 23 ca 3d 17 27 50 3e bf 4b ae 3d 46 86 2a 3d
       0.09869961 0.20327412 0.08510541 0.04163196
0001c0 e2 06 f2 3c 32 33 2e 3e f2 23 ff 3d a2 f7 e4 3d
       0.029544298 0.17011717 0.12458028 0.11180045
0001d0 24 a9 7d 3d e8 7d f8 3d b5 db 0a 3e 81 0d 88 3b
       0.061928883 0.1213339 0.13560374 0.0041520004
0001e0 22 b9 de 3c 4d 84 2b bc a6 1b 15 3e cc e4 b0 3d
       0.027187888 -0.010468555 0.14561328 0.086373895
0001f0 6b 72 c6 3d 85 5e fc 3d 77 b3 2e 3e eb 71 32 3e
       0.09689792 0.12322716 0.17060648 0.17426269
000200 1c 93 2c 3d 96 33 7b 3c 2c 44 04 3d 18 77 d0 bd
       0.042132482 0.015332123 0.032291576 -0.10178965
000210 f7 ee 89 bc 88 58 50 bd 8b 46 10 3c 96 20 36 bd
       -0.01683758 -0.05086568 0.008805881 -0.04446467
000220 14 e7 1d bd 9b ef b1 bd 81 b2 4c 3c e0 11 fc bb
       -0.03855045 -0.08688279 0.0124937305 -0.0076925606
000230 82 c3 81 3d c6 7e 02 3c 95 9f f6 bc 6e d2 6e bd
       0.06336118 0.007964795 -0.030105392 -0.05830615
000240 c7 b1 f0 3c d8 ee ca 3c b0 60 75 bd 23 e0 bf bd
       0.029381646 0.024772093 -0.05990666 -0.093689226
000250 ee c1 b8 bb a0 81 70 bd 69 05 60 3b d2 56 10 3a
       -0.0056383526 -0.05871737 0.0034182912 0.00055061013
000260 f6 25 e1 bb 4a 08 8d bd a8 a1 04 bd 54 3f 77 bd
       -0.0068709804 -0.06886347 -0.03238073 -0.06036313
000270 e7 c2 85 bd ef 1f 3f bd fd ff 97 bc ea da 89 bd
       -0.06531315 -0.046661314 -0.018554682 -0.06731208
000280 2f 00 cc bd d3 6a a8 bb 8a 4e d6 bb 3d 19 9a bc
       -0.099609725 -0.0051396876 -0.0065401243 -0.018810863
000290 0d c4 60 bd 0b 71 fe bc 3e f5 4f bd 94 76 f5 bd
       -0.05487447 -0.031059762 -0.05077099 -0.119855076
0002a0 d9 c6 aa 3d 27 13 11 be 87 73 b8 bd db 64 93 3b
       0.083387084 -0.14167462 -0.0900641 0.004498107
0002b0 2b 44 ba bd 7e de c2 bd 59 d7 29 3d cf 61 8e bd
       -0.09095033 -0.09515093 0.041465137 -0.06952249
0002c0 23 e3 c5 bd 3d cb d2 bd 16 47 58 3d a3 1e 43 3d
       -0.096624635 -0.10292671 0.052802168 0.04763664
0002d0 14 43 7e 3d 87 6b 61 bd ec c4 1a 3c 8b 90 19 3d
       0.06207569 -0.055034187 0.009446364 0.037491363
0002e0 97 f8 cc 3c 68 79 e9 bd 51 2e 60 3d 81 c4 f8 bd
       0.02502088 -0.114001095 0.05473167 -0.12146855
0002f0 7b cd a9 bd f7 85 19 bd e4 0d 83 bd 9b 3b 44 bd
       -0.082911454 -0.037481274 -0.06399134 -0.047908407
000300 d5 6e 89 3d 8c cc 00 bd 3e 99 95 bd 64 f0 af bd
       0.06710593 -0.03144507 -0.07304619 -0.08590773
000310 56 2b 51 3c 5d 6c de bd 1f cb 89 3b 11 90 a9 bb
       0.01276668 -0.108605124 0.004205122 -0.0051746448
000320 ab 5b ad bc 1a b5 02 be fe 51 7d bc 25 07 99 bd
       -0.021161875 -0.12764397 -0.015461443 -0.07472066
000330 09 d7 1e bb 27 32 e8 3c bc be 70 bd 8e c9 b1 3d
       -0.0024237058 0.028344227 -0.05877565 0.08681022
000340 b5 3a 86 3d c6 89 15 be d9 45 ad 3d 39 4d 8d 3c
       0.06554166 -0.14603338 0.08460588 0.017248737
000350 98 ee b6 bd 24 43 85 3d 55 4c 9e 3c 73 0b b3 bd
       -0.08932227 0.06506947 0.019323507 -0.08742418
000360 e9 c5 48 3c 49 07 9e bd 72 f7 6c bd 56 44 69 3b
       0.012254217 -0.07716233 -0.05785317 0.003559371
000370 a8 c1 ca 3c cc c1 51 bd e7 d0 73 bd 02 47 25 bd
       0.024750546 -0.05121021 -0.059525397 -0.04035092
000380 85 bb 5d bd 6f 5e b0 3d f0 55 b3 bc 83 1d d5 bc
       -0.05413391 0.08611762 -0.021891564 -0.026015049
000390 ed e4 d7 bd f3 6b 59 bb c5 6e b2 bb bb c4 00 3d
       -0.10541711 -0.0033175915 -0.0054453337 0.031437617
0003a0 8e 13 96 bd 4b 52 49 bd 5d a3 61 39 5a 62 95 bc
       -0.073279485 -0.049150746 0.0002151853 -0.018235374
0003b0 ca 94 15 be 91 3d b2 bd 5d 6b b3 bd f5 d9 be 3d
       -0.1460754 -0.08703149 -0.08760712 0.09318916
0003c0 4e 44 37 3b 3c a1 93 3b 74 da 11 be 94 3d a5 3d
       0.0027964297 0.0045053046 -0.1424349 0.08068386
0003d0 a4 af dd 3a b5 29 d4 3c 70 6a 5f bd de 4f 58 bc
       0.0016913307 0.025898794 -0.054544866 -0.013202636
0003e0 d8 50 be bd 53 8f fe 3c c7 c6 fd bc 8c f8 df bc
       -0.092927635 0.031074202 -0.030978573 -0.027340196
0003f0 7f 76 2d 3d 19 40 84 bd f6 17 6c 3d 23 b2 c3 bd
       0.042349335 -0.06457538 0.05764004 -0.09555461
