logs/fgb_vary_oracle/6/actor.pt (torch, 906162 bytes, 17 tensors)

weight_ih f4 [512, 48]
000000 cc cf 91 3c d7 13 9d 3d df 2d 81 bd 3c 79 98 bd
       0.01779928 0.076698 -0.06307577 -0.074449986
000010 e9 07 69 3d c0 0f 0f 3d a1 dc 3b 3b 12 de 4c 3e
       0.05689231 0.03492713 0.002866544 0.20006588
000020 58 20 49 3d 2d ad 8c bc e8 77 d7 3d ed 02 b6 3c
       0.04910311 -0.01717242 0.10520917 0.022218192
000030 86 bc 3c bd e5 61 91 bc 01 e0 15 bd 22 4a c2 bd
       -0.046078227 -0.017746875 -0.03659058 -0.09486796
000040 d7 3e 2b 3e d1 ba 2d 3e c7 c1 98 bd ad 07 4e bd
       0.1672319 0.16965796 -0.07458835 -0.05030029
000050 92 8e d3 3b ca c7 2f 3d 24 71 21 bd bb 1c 21 3d
       0.0064562047 0.042915143 -0.03941454 0.03933404
000060 bc 7b 67 3d ba 03 8c 3d 00 da e0 3d 4f 41 a8 bd
       0.056514487 0.06836648 0.1097908 -0.082155816
000070 f7 1f 5c bd c6 84 12 bb 33 d7 9b bc 37 b3 bd 3d
       -0.05374142 -0.0022356971 -0.019023513 0.09262698
000080 f9 64 88 bd fe 37 0b bd 87 b3 a1 bd 5f 63 09 be
       -0.06659884 -0.033988945 -0.0789557 -0.13416813
000090 1c ab a9 bd 08 85 8f 3d 74 6e f3 3c 41 2e 0f 3d
       -0.0828459 0.070077956 0.029715754 0.03495622
0000a0 d2 3c 01 3c 1d b7 a5 bc 9d b9 b7 3c c3 ff ab bd
       0.007888036 -0.020228917 0.022427374 -0.08398392
0000b0 22 2f 00 bd 01 1e 7a bd e0 8b 33 bd 84 41 a2 ba
       -0.03129495 -0.06106377 -0.043834567 -0.0012379144
0000c0 ab 5e f4 3b f0 8b bb bc 89 17 be 3d 53 e1 92 3d
       0.0074575744 -0.022893876 0.09281833 0.071718834
0000d0 f4 b5 6c 3d 63 c0 51 3d ed 89 5c 3d 0c fd c5 bd
       0.05779071 0.051208865 0.053842474 -0.096674055
0000e0 d7 20 ed 3d e7 fd bf bd d9 6e 18 3c c7 4e 7e bb
       0.11578529 -0.093746 0.009303772 -0.003880428
0000f0 0a ef 98 3b f9 7f 06 3e c9 31 51 be 2f 61 86 3c
       0.0046671676 0.13134755 -0.20429148 0.016403763
000100 e2 17 ec bb 99 2b 8e 3c 02 27 db bd f5 a6 0c bc
       -0.0072049955 0.017354773 -0.107007995 -0.0085847275
000110 5d 37 bf 3d 8a a3 93 3d 34 2f 9b 3c 9e 51 5a bd
       0.093367316 0.07208927 0.018943407 -0.053300492
000120 ee 3f ba bd 4e fb 46 3e 82 6b 12 3e 40 aa f8 3d
       -0.09094225 0.19431803 0.14298823 0.121418476
000130 c8 7c a9 bd d5 aa 1f be 92 e5 ed 3d bb 16 38 3c
       -0.08275753 -0.15592511 0.11616053 0.011235888
000140 9c e1 ff bd cf c8 f2 3d b4 2c 6e 3c 3e 16 cb bc
       -0.124942034 0.118547074 0.014537025 -0.02479088
000150 70 ce e1 bc c5 30 62 bd f4 f6 84 3c 98 8e cc bc
       -0.027564257 -0.05522229 0.016231038 -0.024970338
000160 94 57 05 3c 84 71 cd bd 56 7f da bb 4d c3 6f 3c
       0.008138556 -0.10031417 -0.0066680117 0.014633966
000170 ce 59 5d 3d 25 ff 6f 3d 28 5a 69 bd ed a7 8b 3b
       0.054040723 0.058592934 -0.056970745 0.0042619617
000180 43 10 0e 3e 5c 87 cb 3d 96 3d f7 bd 0e aa 09 be
       0.13873391 0.09937927 -0.120722935 -0.13443777
000190 b2 65 8e 3d c6 eb c1 3d e5 ae 9e bd 6b e5 5f 3c
       0.069529906 0.09468798 -0.07748202 0.013665537
0001a0 21 be 31 bd 00 c4 7a bd 17 d2 91 bd 69 cd c5 bd
       -0.04339421 -0.061222076 -0.071201496 -0.096583195
0001b0 b0 1f cd 3d 4c e6 ba 3d a6 5d 3d bd 01 5b ea 3d
       0.100158095 0.09125957 -0.04623189 0.11443139
0001c0 92 85 40 be 47 9b 35 3e f8 87 f2 3d 1f e7 65 bd
       -0.18800953 0.17735015 0.1184234 -0.056128617
0001d0 ab dc 04 be 26 ee 8c 3d e5 4c d0 bc 64 38 10 be
       -0.12974803 0.06881361 -0.025427291 -0.14084011
0001e0 93 14 93 bd fe 73 72 bc 3b f4 16 3d 82 d9 d1 bc
       -0.071816586 -0.0147981625 0.03685401 -0.025616411
0001f0 7a 62 06 be cc fa b1 bb 28 53 25 bd 16 71 ce bd
       -0.13123503 -0.0054315086 -0.040362507 -0.10080163
000200 f0 7f 5e bd 61 90 27 bd c9 22 25 bc 46 a2 7b bc
       -0.05432123 -0.040909175 -0.010079094 -0.015358513
000210 05 81 41 bd c4 13 b5 bc 4f 19 55 3d 8f 0b d6 3c
       -0.047242183 -0.022104152 0.05202609 0.026128558
000220 54 a3 55 bc 66 a1 c2 ba 56 30 64 3b 50 d4 4c 3d
       -0.013039429 -0.0014849126 0.003481885 0.050007164
000230 79 d7 9b 3d 30 f8 8c 3c 99 25 b1 3c 09 1d b1 bd
       0.076094575 0.017208189 0.021624373 -0.08648116
000240 b6 e2 57 bd d8 b8 f4 3c 3d 76 33 3e 7a f4 32 be
       -0.052706443 0.029873297 0.17525573 -0.17476073
000250 eb cb c6 bd 2a 0b f1 bd f9 8f 53 bd 89 a1 b3 bd
       -0.09706863 -0.117697075 -0.051650975 -0.08771045
000260 03 1f 12 3d 0a 75 90 3d 3b 71 6c 3d 16 a1 1a be
       0.035674106 0.070535734 0.057725172 -0.15100512
000270 c5 12 6b 3d 90 b4 cb bc 79 98 f3 bc 96 05 32 bc
       0.057390947 -0.024866372 -0.02973579 -0.01086559
000280 29 42 ec bd 9b fa 9a bd 90 c9 a1 bd 75 63 3d be
       -0.115360565 -0.075673304 -0.07899773 -0.18494971
000290 e9 b0 ff 3b d6 92 db bc 51 93 8d 3c 72 41 b8 3d
       0.0078030718 -0.026803415 0.01728216 0.08996858
0002a0 1a a5 af bd 09 ab a7 bc a5 b0 86 3d d8 5c 1a 3c
       -0.085764125 -0.020467298 0.06576661 0.00942155
0002b0 73 68 3c 3e 71 da 87 3c 37 ea d0 bd 6a 34 a6 bb
       0.18399219 0.016583653 -0.10200923 -0.005072166
0002c0 e1 05 95 bc 24 42 bf bc b6 fe 11 3d 17 93 0a be
       -0.01819128 -0.023346968 0.035643302 -0.13532673
0002d0 6a 0c 39 bd d1 ff 84 bd b2 25 a2 3c 9a 6d 8d bb
       -0.045177855 -0.064941056 0.019793365 -0.004316044
0002e0 8d 44 f2 3c 90 3b 85 3d c1 91 62 bc d1 78 d2 3c
       0.029573703 0.06505501 -0.013828696 0.025692375
0002f0 38 68 0a bd 0a 1e d9 3d 06 ce 2d 3e 32 50 62 3e
       -0.033790797 0.106014326 0.16973123 0.22100905
000300 bb 9f 33 be 81 3c de bd c6 cb d7 3d 71 a3 05 bf
       -0.17541401 -0.10851384 0.105369136 -0.52202517
000310 62 48 bc 3d 7a 2c eb bc 0f 14 18 3d 55 8c 83 be
       0.091934934 -0.028707732 0.037128504 -0.25693002
000320 de f7 be 37 64 52 ad 3d 5b 40 04 3e 39 6e 0e be
       2.2765187e-05 0.084629804 0.12915175 -0.13909234
000330 ec a0 71 be 53 ba 02 3e 74 c5 88 bc a2 f5 05 3e
       -0.23596543 0.1276639 -0.016695715 0.13081983
000340 d6 92 aa 3d df b2 9b 3d c4 2d 12 be 80 92 47 be
       0.08328788 0.07602476 -0.1427527 -0.19489479
000350 08 6b d1 bd 51 02 37 bb a7 b9 23 3d bf 05 8d bb
       -0.10225493 -0.0027924965 0.039971974 -0.0043036635
000360 21 b1 12 be c7 fa 93 3c fc 00 c5 3d 55 e8 6e bd
       -0.14325382 0.018063916 0.096193284 -0.058327038
000370 e9 11 4f be d6 2f 19 be df 72 0e 3d d7 dd a2 3d
       -0.20221676 -0.14959654 0.03477752 0.07952469
000380 f4 ab a6 bd 3d 20 8e 3d d1 d4 54 bd 88 7e 8e bc
       -0.08138266 0.06939743 -0.05196077 -0.01739432
000390 ff ef c6 bc 09 b8 fc 3b fb 85 db bc a4 f2 69 3d
       -0.02428436 0.0077123684 -0.026797285 0.057116166
0003a0 f2 1b e0 bc 07 51 2c 3d 8f 8f 23 3d 6c e9 93 bd
       -0.027357075 0.04206946 0.03993183 -0.07222256
0003b0 2c 7a 6c bc 66 5f 79 bd 85 85 08 bd 83 0d de 3c
       -0.014433425 -0.060881995 -0.03333046 0.027106052
0003c0 e0 75 20 3d b0 da c7 3d ad f1 b7 bd 8a 32 aa 3d
       0.039174914 0.09758508 -0.08981643 0.08310421
0003d0 ad f1 16 3e a4 9d 0d be ac 0f d4 3d c0 ea af bd
       0.1474063 -0.13829666 0.10354552 -0.08589697
0003e0 ac 56 a3 3d fa a0 2b bd f3 78 4b 3d c6 87 0a 3d
       0.07975516 -0.041901566 0.049675893 0.03382089
0003f0 c6 1c 68 3b b5 d1 17 bc b8 be 1b 3d dd 05 81 bd
       0.003541754 -0.009266307 0.03802368 -0.062999465

weight_hh f4 [512, 128]
000000 24 2b 90 bd 26 ac fb 3c fd 6a ac bc a2 97 d0 3b
       -0.070394784 0.030721735 -0.02104711 0.0063657323
000010 77 03 fc bd 1e 7b 3e bd 3f a9 70 3b 96 5e 13 bd
       -0.12305348 -0.046504132 0.0036721972 -0.035978876
000020 7d f5 d4 3d 1f 40 b9 3c 2f f6 e5 bc d2 34 4a 3d
       0.10398386 0.022613583 -0.028071491 0.04936678
000030 ee 30 a7 3c 03 a6 b3 3c ed 13 96 3d 7a dc ec 3d
       0.020409074 0.021929746 0.07328019 0.1156549
000040 2c 47 ef 3d bb 83 87 3c 58 de 84 bc 56 ec d0 bd
       0.11683497 0.016542306 -0.016219303 -0.102013275
000050 87 cf d3 3d 16 f7 63 3d 1c 56 f9 3d 47 ca 7a 3c
       0.10342317 0.05565556 0.12174627 0.015307016
000060 8e 34 30 3c 6c 29 2d 3c 35 1b 2d bd cd c2 c5 3d
       0.0107547175 0.010568958 -0.042262275 0.09656296
000070 b3 04 68 bd db 01 c0 3c 42 b4 25 3d fa ed 79 3d
       -0.056645107 0.023438385 0.04045511 0.061017968
000080 3b 5b a0 3c e1 bd 7b bd ef 2f da bd 25 8d c8 bd
       0.019574752 -0.06146038 -0.10653674 -0.09792546
000090 bb 40 f7 3b 73 ae ad bd 20 f6 ec bd 5f e7 fa 3c
       0.0075455583 -0.08480539 -0.11570382 0.030627904
0000a0 d4 ae 01 3e 57 5e 14 bd 42 ac 64 3d dd ca 1d bc
       0.12664348 -0.036222782 0.05582834 -0.009630886
0000b0 9c 34 c1 3d 90 02 20 3b 72 d6 85 3d d7 eb 06 3d
       0.094338626 0.002441559 0.06535043 0.03293976
0000c0 0e e5 d9 3b d8 e4 d2 3d 45 d6 29 3d 80 d5 d1 bb
       0.00664962 0.10297555 0.04146411 -0.006403625
0000d0 b9 99 b6 bd 2f 59 56 3d 64 ac ab bd a9 e0 6b 3d
       -0.08916039 0.052331146 -0.0838249 0.0575873
0000e0 0f b8 64 3d 10 6a 87 bd 48 c6 2e 3d 45 a1 c7 bd
       0.055839594 -0.06612027 0.042669564 -0.097475566
0000f0 9f 6d a1 bd 1c 8b cb 3c 72 c5 da 3b 97 82 c2 bd
       -0.07882237 0.024846606 0.0066763693 -0.09497564
000100 7e 69 cf bd 83 ec a4 3d 8c b3 67 3d b2 f0 6b 3c
       -0.10127543 0.080529235 0.056567714 0.014400648
000110 21 9e c2 bd d1 3f c6 bd 07 60 05 3c 9d 28 8e bd
       -0.09502817 -0.09680141 0.0081405705 -0.0694134
000120 5e 07 0d be 3d 48 50 bd 93 34 f2 bb ee 22 8c 3d
       -0.13772342 -0.05085014 -0.0073915212 0.068426
000130 05 c2 ca bc e2 28 a1 bc 77 e4 c5 bc 9b d5 3e 3d
       -0.024750719 -0.019672815 -0.024156792 0.04659043
000140 07 fc da 3d c4 73 0c 3d 71 c1 c3 3c 41 ac a3 bc
       0.10692602 0.03429009 0.023895951 -0.019979598
000150 ed a9 ba 3c 8e 8b ec 3c 2b 60 e3 bd d6 ff bd bd
       0.022786105 0.028875139 -0.11102327 -0.092773125
000160 70 a2 ce 3d de 3f 2d 3d 94 18 1b be 80 0e b0 3d
       0.10089576 0.042297237 -0.15146095 0.08596516
000170 35 b8 e6 3d e4 74 9d bd 78 92 b0 bd 38 86 9e 3d
       0.112656035 -0.07688311 -0.08621687 0.07740444
000180 b1 e6 c9 bd d2 04 ae bd 69 fe f5 bd ba cc bf bd
       -0.09858454 -0.08497013 -0.120114155 -0.0936522
000190 58 37 bc 3d 8f 7e 5e 3d 50 91 c3 3c ef 8f 8a 3c
       0.091902435 0.054319914 0.023873001 0.016914336
0001a0 65 80 c8 bd b1 06 43 bd 94 3a 6d bc 5f d8 75 3d
       -0.09790114 -0.047613803 -0.014479298 0.0600208
0001b0 04 c1 9c 3d cf 67 e5 bd fe e0 30 bd 72 2e 17 3d
       0.07654002 -0.112014405 -0.04318332 0.036909528
0001c0 c1 9d 0a bd 36 5b a3 3d d0 62 bb bc cb e1 14 3d
       -0.033841852 0.079763815 -0.022874266 0.036348145
0001d0 4f 7d 1b bd d1 51 42 bd 1f 46 57 3c 3a 22 72 bd
       -0.0379613 -0.047441307 0.013139277 -0.059114672
0001e0 f7 3d 9b bd 63 e3 e6 3b f7 eb a3 3d 33 3a 07 be
       -0.07580178 0.0070461496 0.08003991 -0.13205795
0001f0 21 91 87 bc e2 38 12 3d 1c 27 3e bc 4a e1 4d 3d
       -0.016548695 0.03569878 -0.011606004 0.05026368
000200 fa 29 36 bd c3 13 89 3b 3b d4 65 bb 10 25 dc 3d
       -0.044473626 0.004183264 -0.0035069126 0.107492566
000210 fc 96 95 3d 62 ec 84 ba 0f 0c a1 bc ba 58 b1 3d
       0.073041886 -0.0010141248 -0.01965907 0.086595014
000220 1f 5f e7 3d c1 54 b8 3c 90 44 b4 bd 01 2a fb 3d
       0.1129744 0.022501351 -0.0880214 0.12263871
000230 e3 0d c0 3c db 90 33 bd b4 8a 48 3d 17 05 49 3d
       0.023444122 -0.043839317 0.048960403 0.04907712
000240 2b d6 91 bd 60 50 8b 3c 50 c0 ae 3c 8c 0e 51 bd
       -0.071209274 0.0170061 0.021331936 -0.051039264
000250 5e 9e e2 bd a5 d9 37 3d 20 33 56 bd 02 a0 80 bd
       -0.110653624 0.044885296 -0.05229485 -0.06280519
000260 f5 f4 d9 3d 9a 46 4c 3c 30 43 a9 3b d0 f4 e3 bc
       0.10642425 0.012468005 0.00516548 -0.027826697
000270 38 8d f8 bd ec 22 7b 3d 96 5e 2c bd fa f2 bc bd
       -0.1213631 0.0613126 -0.04208239 -0.092260316
000280 db 71 44 bd 2d 32 35 bd 68 c8 9b 3d 89 d9 df bd
       -0.047960144 -0.044237304 0.07606584 -0.109301634
000290 75 24 c1 bc 95 9e de 3d 1a e1 a1 bd 8b b2 e8 3d
       -0.023576954 0.10870091 -0.07904263 0.11362179
0002a0 7f 74 f4 bc 20 89 95 3c c8 c7 6d bd 27 c3 db bd
       -0.029840706 0.018253863 -0.058051854 -0.10730582
0002b0 64 8f 6f 3d ff 59 85 bd 24 40 fe 3d 0d e5 c0 3d
       0.058486357 -0.06511306 0.124145776 0.09418688
0002c0 cc 57 de bc 8e 32 0c 3d f7 dc f0 bc 2d ff f1 bd
       -0.027141474 0.0342279 -0.02940224 -0.11816249
0002d0 ea 00 b0 bc 7e bd 04 3d 72 7b ee ba 9b 49 64 3d
       -0.02148481 0.032407276 -0.0018194749 0.05573426
0002e0 69 ef 56 bd 81 04 a0 3d db 2e 90 bd 82 a1 dc bd
       -0.052474413 0.07813359 -0.07040187 -0.10772993
0002f0 24 c0 50 bd 6d 0c 23 be d6 fb 13 3d 8e 8e 42 bc
       -0.05096449 -0.15922709 0.03612884 -0.011874808
000300 8b 54 3e 3d 49 50 43 3d 7c 80 67 3d af 50 2a bd
       0.046467345 0.047683988 0.056519017 -0.041580852
000310 75 8e c0 bd b1 ed cb 3d da a5 64 3d a8 2c 38 bd
       -0.094021715 0.099574454 0.05582223 -0.044964463
000320 47 32 58 bd 3f c4 88 bc 8b ca 10 3d 1a cf d1 bc
       -0.052782323 -0.01669514 0.03534941 -0.025611449
000330 8d a8 b5 3d fd 5f 50 3d 0c 63 b5 3d 0c 06 c6 3d
       0.08870039 0.05087279 0.08856782 0.09669122
000340 27 c6 7e bb ff e6 d0 3c df e9 b9 3d cb 38 a7 bd
       -0.0038875432 0.025500773 0.090778105 -0.08165129
000350 c1 0c 67 3d 7d 41 e0 3d a7 69 d9 bb 43 bc 8c 3c
       0.056408647 0.10949991 -0.006634909 0.017179614
000360 ba 2d 14 bd e4 44 4b 3d 04 d7 8d 3c f6 b7 1c 3e
       -0.03617642 0.049626246 0.017314442 0.1530455
000370 d4 e1 8f 3d 64 b7 b8 3c 4a 50 d2 3b d4 43 84 bc
       0.07025495 0.022548385 0.0064182626 -0.016145624
000380 d6 c2 76 3d fe 05 98 bd 30 e9 37 be b5 e6 13 3c
       0.060244404 -0.07423018 -0.17960048 0.009027173
000390 bf 66 0d 3c f0 16 2d bd bf b7 42 bd 06 e2 ff bd
       0.008630454 -0.042258203 -0.047538515 -0.124942824
0003a0 4e ba 68 bc 05 f5 72 3c 0c ac 9f bc b6 31 8e bd
       -0.014204575 0.014828925 -0.019491218 -0.06943075
0003b0 2f a1 89 3d b4 eb 7a bd ab d5 82 bd 5a f5 68 bd
       0.067201965 -0.06125994 -0.0638841 -0.05687461
0003c0 d4 67 e0 bc 4b d3 2c 3d b0 cd 0c be 8b d9 d8 3c
       -0.02739326 0.042193692 -0.13750339 0.02647092
0003d0 3f 3a 75 3b 6c dd 29 be 5c 79 0e 3c bc 33 36 3d
       0.003741875 -0.16588372 0.0086959265 0.04448293
0003e0 1c 2b ee bc df 45 93 3d 7e b8 14 bd 9d a0 ad 3c
       -0.02907329 0.07191061 -0.036308758 0.02119475
0003f0 ae 11 e5 bc 3d 46 34 3b a6 82 28 bd a4 03 24 3d
       -0.027962532 0.0027507686 -0.04114022 0.040042534

bias_ih f4 [512]
000000 a7 79 2b 3d 8b c7 de 3d 43 7b 7b 3d f9 1f 40 bb
       0.041864064 0.108779036 0.06139685 -0.0029315932
000010 92 45 e9 3d 31 39 44 3d c3 88 f7 3d 1d 3d 24 3e
       0.113902226 0.047906104 0.12086632 0.16038938
000020 4c ee 1d 3c ed 35 99 3c d6 3c 9d 3c d0 eb 79 3d
       0.009639334 0.018702472 0.019194048 0.061015904
000030 b1 8b 10 3e ea 8b 8a 3d 8a 07 83 3b e1 fa ce 3d
       0.14115788 0.06764968 0.0039987015 0.10106445
000040 82 72 01 3c bb 18 dc 3c a4 0f c5 3d 28 3f 64 bc
       0.007900836 0.026867261 0.09622124 -0.013931073
000050 0b 67 06 3e a5 e1 e3 3d 51 5e de 3d 6f 53 c9 3d
       0.13125245 0.11127023 0.10857833 0.09830367
000060 f7 d4 aa 3c f1 32 a4 3d 82 2f c9 bc 96 61 45 3d
       0.020853503 0.08017529 -0.024558786 0.04818877
000070 75 a5 29 3e 46 d9 97 3d 3f d0 98 3c 15 f7 17 3d
       0.16567023 0.074144885 0.018653987 0.03710087
000080 e2 4e d4 3c ca 92 02 bc 8f 82 57 3d 9f b4 8d 3d
       0.02591652 -0.007969568 0.052614745 0.06919216
000090 cc fa 74 3e 2c 44 67 3e 8d 8d 95 3d f0 bf 94 3d
       0.23923796 0.225846 0.07302389 0.07263172
0000a0 94 82 8e 3d 69 37 23 bd b7 21 df bb 3e 35 6c 3d
       0.069584996 -0.039847765 -0.006809439 0.057667963
0000b0 84 84 5d 3e 77 40 46 3e 11 4e 21 3d 9a fe b4 3c
       0.21632582 0.19360529 0.03938109 0.02209406
0000c0 b6 e2 85 bd de df 14 3e 4d e0 4a 3d 9e d4 87 3d
       -0.06537382 0.14538524 0.049530316 0.066323504
0000d0 a6 61 63 39 e9 49 6f 3d 04 07 16 3d 53 12 d4 3d
       0.00021684784 0.058420096 0.036627784 0.103550576
0000e0 70 16 c5 3d 04 70 19 3e 63 17 0c 3e 64 b5 ff 3d
       0.0962342 0.14984137 0.13680796 0.124857694
0000f0 e6 74 2e 3e e0 2d 73 3d 31 07 9d 3d be 91 59 3d
       0.1703678 0.05936992 0.07667387 0.053117506
000100 ef 47 e0 3c 52 c9 69 3e 6c c5 e9 3d 55 e6 8f bd
       0.02737805 0.22830704 0.11414608 -0.07026354
000110 17 a7 56 3e 65 a2 6a 3d 26 cd b8 3d a2 0b 0a 3e
       0.20962177 0.057283778 0.09023504 0.13481
000120 1c 28 11 3e d8 42 30 3e b2 56 16 3e 14 6d 6d 3d
       0.14175457 0.17212999 0.14681509 0.057965353
000130 5d 0c 0e 3e 88 e8 e8 3d 2d c7 57 3d ee 5c 99 3d
       0.13871904 0.11372477 0.052680183 0.07488428
000140 ec 43 c5 3d a7 dc 6a 3d 67 4d bc 3d 4a 13 a7 bc
       0.09632096 0.057339337 0.09194451 -0.02039494
000150 79 f8 88 3c b8 1f 72 3c 93 5a 8c bc 41 75 00 3e
       0.016720043 0.01477807 -0.017133033 0.12544729
000160 03 90 68 3d 88 6f 24 3e e3 07 02 3c 83 7e c6 bc
       0.056777965 0.16058171 0.007936451 -0.024230247
000170 08 9a 37 bc 2e ba 85 3d eb 3b 22 3d 35 ae c2 3d
       -0.0112061575 0.065296516 0.039607923 0.095058836
000180 6b e3 49 3c 95 d3 19 3e 9a dd f9 3d bb 81 e9 3c
       0.012322287 0.15022118 0.1220047 0.028504243
000190 59 ce a8 3d 77 6d 01 bb 17 64 75 3d f4 47 43 3d
       0.08242483 -0.0019749084 0.059909906 0.04767604
0001a0 f7 13 55 3e 12 eb b0 3c 87 9c fb 3d dc ae 5b 3e
       0.20808397 0.021596465 0.122857146 0.21453422
0001b0 66 6d 0d bd eb 07 6e bc a8 cf 26 3d 36 76 b5 3d
       -0.03452816 -0.014528255 0.04072538 0.088604376
0001c0 ab a5 15 3e e3 c4 52 3d 6e 3f 3d 3e fb 3d c3 3d
       0.14613979 0.051457297 0.18481228 0.09533306
0001d0 36 e5 14 3e c1 4d 1b 3e 3d 7e 08 3e ba 50 0d 3d
       0.14540562 0.1516638 0.13329406 0.034500815
0001e0 c0 dc eb 3d 6f b6 9d 3d bb a1 4c 3d 6c 85 0a 3e
       0.11516714 0.07700812 0.049958926 0.13527459
0001f0 96 66 ce 3d a4 f3 a4 3d c9 ee 3b 3c 1e ce 80 3d
       0.100781605 0.08054283 0.011470505 0.06289314
000200 4a 0c 9b 3d 34 3c 8e 3d 14 9c 2f bd b5 7d a2 3d
       0.07570703 0.069450766 -0.042873457 0.07934133
000210 5d 02 5c bb 7e 0e 10 3d 9f 57 9a bd 9e 9e 8e 3d
       -0.0033570745 0.03517007 -0.07536244 0.069638476
000220 cb 6b 59 3d da 21 a8 bd 2b 6d 06 3d 14 70 9a 3d
       0.053081315 -0.08209582 0.032818954 0.075409085
000230 6a be 97 bd 90 99 49 bd eb d9 41 3d b2 12 9e bb
       -0.074093655 -0.049218714 0.047326963 -0.004824006
000240 43 13 8c bd 8b 4b 81 ba 0a 5c 39 bd f5 59 96 bb
       -0.068396114 -0.0009864433 -0.04525379 -0.0045883604
000250 4a 6b 53 3c 3d 59 ee 3c 11 46 cf 3c e0 cd 57 3d
       0.012903998 0.029095287 0.025301965 0.052686572
000260 24 87 01 bd c7 01 6c 3b ea d1 3e 3c 6c 21 19 3d
       -0.03162302 0.0036011802 0.011646727 0.03738539
000270 40 30 c0 3c 3f bb 87 bc 50 58 92 bd 5f a8 25 3d
       0.023460507 -0.016568778 -0.071457505 0.040443774
000280 98 5f 82 bc c6 2f 0c 3e 72 7b 15 bd ad b9 f7 3d
       -0.015914723 0.13690099 -0.03649468 0.12095962
000290 79 fd 7e 3c 25 36 9b bd bb ea a3 3c 9d 5f df bc
       0.015563362 -0.075786866 0.02000939 -0.027267272
0002a0 d0 12 8d 3c fb 3a 75 bd 95 92 aa 3d bd ca 30 bd
       0.017220885 -0.0598707 0.083287396 -0.043162096
0002b0 7c 78 79 bc d1 ad 14 3d 2c 67 90 bc 88 67 6b bc
       -0.01522648 0.036298577 -0.017627321 -0.0143679455
0002c0 8e c8 52 bd b1 87 1c 3d e9 df 36 3c ec a3 c7 3c
       -0.051460795 0.038215343 0.011161783 0.024370156
0002d0 5d a3 b6 bd bd 9e 5e 3d 30 47 0a bd 74 7d 39 bc
       -0.08917878 0.054350603 -0.033759296 -0.011321414
0002e0 6a dd 51 bd 28 ab 5f 3d 1a 58 41 bc 46 0b d6 3b
       -0.051236548 0.054606587 -0.01180079 0.0065321056
0002f0 74 e4 ef 3d df df f6 3c 3c 8e 8e 3d a7 9e dd bd
       0.11713496 0.030136047 0.06960723 -0.10821276
000300 29 a3 f7 3d 2e 6f 4e 3c 89 38 b9 bc 69 53 02 3e
       0.12091667 0.0125997495 -0.022609966 0.12727131
000310 6e 5c 0c bd c1 f6 de 3c d0 62 09 bc be 92 36 3c
       -0.034267835 0.02721727 -0.008385375 0.0111433845
000320 05 4d 95 bd 09 ba 13 bc a6 80 4c bd 7b 78 66 bd
       -0.07290081 -0.009016522 -0.049927376 -0.056267243
000330 87 b1 47 bd 97 56 9a bb e3 66 e0 3b 04 d3 05 3d
       -0.048753288 -0.0047100293 0.0068482026 0.032671943
000340 a9 11 48 3d f8 b4 73 bb 86 c8 de bd 53 fb 8c bc
       0.048844967 -0.0037186723 -0.108780906 -0.017209684
000350 bb 6b 5b 3d 3c 96 38 3d fc 6d 94 bd 93 96 2b 3d
       0.053569537 0.04506515 -0.0724754 0.041891646
000360 e2 b1 55 bd 2b ba 34 3d 71 30 72 3d 79 e0 3c 3c
       -0.052171595 0.044122856 0.05912823 0.011528128
000370 fa 7c b1 3a e2 23 53 3d 74 dc a2 bd 9b 9c a5 3d
       0.0013541274 0.051547892 -0.07952204 0.08086511
000380 7e 3b 97 bd c7 7a ce bd a8 e4 ca bc b3 2a e3 3c
       -0.07384394 -0.10082012 -0.024767235 0.027730322
000390 49 d9 1a bd fb f9 2c 3d 20 f9 59 3d 11 37 0d 3d
       -0.037804876 0.042230587 0.0532161 0.034476344
0003a0 f3 aa af bd 22 34 0e 3e 59 13 3f bd de d6 b6 bc
       -0.08577528 0.13887075 -0.04664931 -0.022319254
0003b0 f5 8f 66 3d 0f 85 45 3d aa 92 98 bd 4b 67 25 3d
       0.056289632 0.048222598 -0.07449849 0.04038171
0003c0 65 a7 a0 3d 95 00 b1 3b e9 b3 68 bc 26 c8 b8 bd
       0.07844428 0.0054016807 -0.01420305 -0.0902255
0003d0 d3 a3 b2 bb 4f cb ba 3c 99 50 71 bc f3 7a 1f 3c
       -0.0054516583 0.022802023 -0.014728689 0.009733903
0003e0 7c 5c a5 3c 19 6f 86 bd a3 22 a8 bd ed d5 c8 bc
       0.020185702 -0.06564159 -0.082097314 -0.02451607
0003f0 95 a7 20 3d 97 ca 7a bc 02 fa 87 bd 20 11 dc 3b
       0.03922232 -0.01530709 -0.06639482 0.0067159086

bias_hh f4 [512]
000000 8b f2 e7 bc ca b5 a3 3c 99 06 22 3e bf 0d c0 3c
       -0.028313896 0.019984145 0.1582283 0.023444055
000010 68 b5 c3 3d 06 ef fd 3c 77 63 15 3e ad d4 1f 3e
       0.09556085 0.030997764 0.14588724 0.15608473
000020 8d 55 fc bb e8 9a 95 3d 0f 51 d8 3d ac 71 f7 3d
       -0.007700628 0.07304937 0.10562336 0.12082228
000030 90 5c 87 3d 2f 08 e2 3b 32 fe da 3d df e0 f6 3d
       0.06609452 0.006897948 0.10693015 0.120546095
000040 4e 36 ca bc d6 b2 ab 3d 9a 07 d5 bc d2 36 05 3e
       -0.024684098 0.083837196 -0.026004601 0.13009194
000050 8b f7 20 3e 7e 21 1c 3e b1 ac b0 3d f5 dd c8 3d
       0.1571943 0.15247151 0.08626688 0.0980796
000060 de a1 4f 3d e0 df 0a 3e 47 5d 15 bd e7 5a 95 3a
       0.050691478 0.13561964 -0.03646591 0.0011394889
000070 39 35 de 3d 0c 54 28 3e 0d 67 8b 3d 85 b4 65 3d
       0.10849995 0.16438311 0.06806765 0.05608036
000080 06 52 17 3e 91 af 2a 3d 4d b3 5e bd 43 ac d8 3d
       0.14777383 0.04167134 -0.054370213 0.10579731
000090 e9 71 95 3d 9e b4 30 3e 6d 91 15 3e 16 4b 59 bd
       0.07297117 0.172564 0.14606257 -0.053050123
0000a0 c4 54 23 3e b5 47 88 bd 6d 37 c7 3d ea 5b 69 3d
       0.15950304 -0.06654302 0.097273685 0.05697242
0000b0 34 c5 34 3e 5d 60 16 3e c0 36 ad 3d 0c 5e a0 bd
       0.17653352 0.14685197 0.08457708 -0.07830438
0000c0 69 09 82 3b 10 7b 32 3e 20 eb fb 3d bc 23 d8 bc
       0.003968407 0.17429757 0.12300706 -0.026384227
0000d0 0d dd b1 3d 6d 97 cd bc 13 4e e4 3d 11 07 16 3e
       0.0868474 -0.02509662 0.11147704 0.14651133
0000e0 ca 33 10 3e a1 bf b8 3d 64 43 d5 3d 38 f3 5b 3d
       0.14082256 0.09020925 0.10413244 0.05369875
0000f0 22 f5 34 3e ca 7f e9 3d 63 e5 20 3c af f7 b4 3d
       0.17671636 0.11401327 0.009820315 0.088363044
000100 81 20 fa 3c 1a 5a 16 3e c9 dc ad 3c 9a 94 35 bd
       0.030533077 0.14682809 0.021223443 -0.04433117
000110 67 df 76 3e 05 e2 d5 3d ae db 20 3e c0 00 14 3e
       0.24108659 0.104435004 0.15708801 0.14453411
000120 35 e7 a8 3d e0 29 39 3e 55 91 91 3d 26 99 d9 3c
       0.08247224 0.1808238 0.07107798 0.026562285
000130 32 08 d4 3d ac 23 1e 3e e8 ca 51 3e f2 76 40 3d
       0.10353126 0.15443295 0.20487559 0.046988435
000140 5b 67 38 3e 02 5f a5 bc f3 62 4e 3e 41 ed b8 3d
       0.18008177 -0.020186905 0.20154934 0.090296276
000150 9a 21 0a 3e ae 00 04 3e 92 ef dd b9 3c ac 8d 3d
       0.1348938 0.12890884 -0.000423309 0.06917617
000160 88 4a 6a 3c 53 d2 02 3e b6 2e 82 3d 8a 99 c5 3d
       0.014299996 0.12775545 0.06356566 0.09648426
000170 b7 84 45 bb 7a c8 81 3d 5f aa ac 3d cc 25 0c 3d
       -0.0030138919 0.06337066 0.08430933 0.034215733
000180 28 47 f6 3d f8 9e 92 3d 42 82 32 3e ea 72 2a 3e
       0.12025291 0.07159227 0.17432502 0.16645399
000190 10 22 ef 3c a8 94 bc 3d 1a 01 e2 3c 8d 70 c2 3d
       0.029191047 0.092080414 0.027588416 0.094941236
0001a0 40 7d 84 3e 1b b2 31 3d 13 c7 0d 3c 2f 96 85 3d
       0.25876808 0.043382745 0.00865342 0.06522786
0001b0 e0 f0 90 bd ef ba c6 3d 22 f0 22 3d 50 52 49 3c
       -0.07077193 0.097036235 0.03977979 0.012287691
0001c0 65 23 c9 3d 16 e9 d2 bb b4 99 32 3d 3a a2 20 3e
       0.09821204 -0.0064364774 0.043603614 0.15686885
0001d0 c5 e8 74 bc a9 5a c3 3d 59 3e 39 3e 2e c5 2d 3d
       -0.014948075 0.095387764 0.1809019 0.042424373
0001e0 7e 0f d3 3d 39 75 39 bc f3 da 56 3e ce 20 04 3d
       0.10305689 -0.011319452 0.2098196 0.032257847
0001f0 95 98 12 3e 33 89 58 bc 6d 98 8b 3d 68 ed 98 3d
       0.14316018 -0.013216305 0.06816182 0.07467157
000200 54 21 9d bd cc 44 c9 bc d4 a0 c7 ba 2e 95 d1 3b
       -0.076723725 -0.024568938 -0.0015230426 0.0063959574
000210 b5 9b aa 3c 12 41 92 3d ea 0a e8 3c 94 e6 75 3d
       0.0208262 0.071413174 0.028325517 0.06003435
000220 f9 d3 b3 3d fe 69 a4 bd f1 bd 03 3d f5 bd 6d 3d
       0.08780665 -0.08028029 0.032163564 0.058042485
000230 e4 36 04 3c ce ec ef 3c d2 4d cd ba e8 7a 02 bc
       0.008069728 0.029287722 -0.0015663451 -0.007963873
000240 9f 4e 10 3d d4 cd 68 3d 3a 59 97 3d f9 7b ca 3d
       0.03523123 0.056836918 0.073900655 0.09886927
000250 9f 79 94 3d 82 aa 7f bc 3d c4 12 bd 60 2f 0b bc
       0.0724976 -0.015604617 -0.03583168 -0.008495182
000260 87 1a d8 3d e7 9d d1 3b d4 8e 44 bb 20 e4 80 bc
       0.10551935 0.0063969973 -0.0029992359 -0.015733778
000270 4b 00 59 bd 03 0e ee 3d 9e 14 7f bd 3e 6c fc 3a
       -0.052978795 0.11623766 -0.06227552 0.0019258333
000280 82 9f ea 3b b2 fe 02 3e 47 38 ce 3c 6e d8 2a 3d
       0.007160128 0.12792471 0.02517332 0.04171031
000290 ba a1 19 3d 1f 97 c7 bd 69 f6 37 bc 80 19 a6 3d
       0.03750775 -0.09745621 -0.011228182 0.081103325
0002a0 49 bf f8 3c d8 f6 89 3d da 02 5d bd 55 91 4c 3d
       0.03036465 0.06736535 -0.053957798 0.049943287
0002b0 41 0b 99 3d bb 48 8b bd 82 7b 81 3c c6 db eb 3c
       0.0747285 -0.068009816 0.015805963 0.02879132
0002c0 42 ad 46 bd bd 69 14 3d ae 07 c7 bd a3 fd 30 3c
       -0.048505075 0.036233652 -0.09718262 0.010802659
0002d0 cd 31 4e bd a3 26 1c 3d 78 fc eb bd c7 a4 d4 bc
       -0.050340462 0.038122784 -0.11522764 -0.025957478
0002e0 d6 5b 92 bd af 66 b4 3d 51 3b e2 3c fb 4c 05 bd
       -0.071464226 0.08808648 0.027616175 -0.032544117
0002f0 84 83 9f 3d ba c2 90 bd 11 4c 92 bc 1c 46 84 bb
       0.077887565 -0.07068391 -0.017858537 -0.004036678
000300 44 40 75 3d 9a 18 87 3d aa 73 1c bd b9 89 f0 3d
       0.05987574 0.06596489 -0.038196243 0.117450185
000310 64 88 7c bc 6a 40 c6 3d 6a da 85 bc a4 ee a4 3c
       -0.015413377 0.09680255 -0.0163395 0.020133324
000320 f3 ea bf bd 4f 44 20 bd 95 33 7e bd 9b 44 37 bd
       -0.09370985 -0.039127644 -0.06206091 -0.04474316
000330 22 00 9c bc cc 7b a3 3d 8a 54 cd bd af 6a 0b bd
       -0.019043032 0.07982597 -0.1002589 -0.03403729
000340 f9 b6 02 bd ed 59 8c 3c bb cc 5b 3c 19 c5 ba 3c
       -0.031912778 0.017132724 0.013415511 0.022799062
000350 6f 1f 86 3d f2 98 99 3d f6 de 9b bd a9 64 42 bd
       0.06548964 0.07499875 -0.07610886 -0.04745928
000360 3c cf 80 bc ff e2 6c 3d a6 ca bc 3c fc 21 66 3d
       -0.015723817 0.057833668 0.023045849 0.056184754
000370 77 14 fd 3d 97 d6 ad 3d d8 f9 a9 3d cd 9e 7e 3d
       0.12357419 0.084881954 0.08299607 0.062163163
000380 db bc 88 3c 5b df 36 3c 6f e7 7c bd 0a eb e3 3d
       0.016691616 0.0111616505 -0.06174415 0.111288145
000390 ef 7c 14 bd ac 8a dd 3c 46 3c 69 3d 99 9c d7 3c
       -0.03625196 0.027043663 0.056942247 0.026319789
0003a0 b9 bb bc 3b 44 9e fb 3d f1 55 5b 3d ca c9 85 bd
       0.005759683 0.12286046 0.053548757 -0.06532629
0003b0 0d 14 9a 3d 61 de 0c bd db 20 8d bc 6e 13 d3 ba
       0.07523356 -0.034391765 -0.01722758 -0.0016103813
0003c0 16 1d 01 bd ab 11 93 bc 7e 00 1c be c5 1d e1 3c
       -0.03152188 -0.01795276 -0.15234563 0.027480016
0003d0 a6 0f 9d 3d 9d f1 a3 bc 41 8d 0a bd ee 1b 61 3b
       0.07669 -0.020012671 -0.033826116 0.0034348923
0003e0 a8 8f 43 bb 15 85 63 3d c2 f3 54 bd 45 32 be bc
       -0.0029840264 0.05554684 -0.051990278 -0.02321733
0003f0 77 3f 0f 3c e5 89 f9 3c 52 10 c0 3d 8c 71 88 bd
       0.008743159 0.030461261 0.09378113 -0.06662282

weight_ih f4 [512, 128]
000000 48 be 99 3b 5a ec 35 bc 91 f8 d9 bd 05 da 04 be
       0.0046918727 -0.011103714 -0.106431134 -0.12973793
000010 24 c2 c2 bd 36 96 94 3c cd f7 62 3b 1f 7f 29 3d
       -0.09509686 0.018138032 0.0034632564 0.041380998
000020 96 85 15 3d 56 ef 30 bc 8c 7b 10 bc 0b 66 f3 bc
       0.03650435 -0.01079925 -0.008818518 -0.029711744
000030 43 6a 15 3e c8 7b 1b 3e ba 43 66 bc ab 61 c2 3d
       0.14591317 0.15183938 -0.014054233 0.09491285
000040 d2 90 76 3d bf f3 72 3d bd bd ae 3d b5 93 9a bd
       0.060196705 0.059314486 0.085322835 -0.07547704
000050 5f 88 bf bc 94 73 39 bd 2b f0 f1 bd db 92 54 ba
       -0.023380456 -0.04527624 -0.118133865 -0.00081090414
000060 99 1d 0d 3d 11 33 c2 bd d8 09 ce bc 0a d5 ce 3d
       0.034452055 -0.094823964 -0.025151178 0.10099228
000070 4f 73 18 3c bd d8 f8 3c f5 a0 f3 bd a5 6f 42 3c
       0.009304835 0.030376786 -0.118959345 0.011867438
000080 9b 86 3a 3c 56 9b 83 3b bb b0 10 3c 9f 55 74 bc
       0.0113846315 0.00401632 0.008831198 -0.014912992
000090 26 7c f1 3c 6a ab 9a 3d 97 ce 35 3d ea 9a ad bb
       0.029478144 0.07552226 0.044386473 -0.005298008
0000a0 1a 29 10 bd cb 04 cc 3d ac 1f aa 3d e9 9a 23 3e
       -0.035195448 0.09961852 0.08306822 0.15977062
0000b0 6e 6d a0 3d fd a1 ad 3d cb d1 35 be 6d 5e aa 3d
       0.07833372 0.084781624 -0.17755811 0.083187915
0000c0 30 7c 21 bd 13 46 36 3d 7c 8f 42 3d 0b ee d7 bd
       -0.039425075 0.04450042 0.04750012 -0.1054345
0000d0 46 ba 8e bd 0a 4d 70 3d 24 ce aa 3d 3d 34 c9 3d
       -0.069691226 0.05866722 0.083400995 0.09824417
0000e0 de 23 29 3d 9c 29 9e bd 54 a7 b3 3c 69 92 06 bd
       0.04129397 -0.0772278 0.021930374 -0.03285447
0000f0 e1 6f 19 3e 80 0b ad bd f9 2d 48 bd 25 da 56 3d
       0.14984085 -0.08449459 -0.048871968 0.052454133
000100 88 21 01 3c f6 4a ce bd 48 e1 70 bd b5 f0 a5 3a
       0.00788153 -0.100728914 -0.058808595 0.0012660237
000110 b8 73 fc bd ed fd bb 3c 34 14 a2 3d b6 ca 03 3d
       -0.12326759 0.02294823 0.0791401 0.032175742
000120 bd e4 0b 3d e4 47 5b 3d e6 48 ab 3d 4d 19 81 3d
       0.03415369 0.053535357 0.08363514 0.06303654
000130 51 46 ae 3d 94 52 0e bc a6 d5 f3 bc 6c 95 e7 3d
       0.085095055 -0.00868668 -0.029764961 0.11307797
000140 1d c5 eb bd e0 35 5d 3d 00 a8 84 bd e3 87 6d bd
       -0.11512206 0.054006457 -0.06477356 -0.05799092
000150 1f 08 18 bd 38 c7 39 3d 11 b5 d0 bd b7 0a e9 bd
       -0.03711712 0.045356005 -0.10190786 -0.11378997
000160 90 84 7f 3d c1 a6 a1 bd cb ca ba bd 24 97 cd 3d
       0.06238228 -0.07893134 -0.09120711 0.100385934
000170 94 a7 c6 3d 96 d1 7e bd 2a 9d 8b bd 52 e6 1f bd
       0.09699932 -0.062211595 -0.06817086 -0.03903801
000180 78 79 28 bd e8 df c4 bd b3 09 1d bd 85 be 11 bd
       -0.041131467 -0.09613019 -0.038339328 -0.035582084
000190 02 e5 ce bc 17 f8 83 bd 51 17 f5 3c 63 e9 8d bd
       -0.025255684 -0.06443804 0.029918345 -0.069292806
0001a0 f4 bd fc 3a 7c f9 04 be a0 5a 2c bc 49 68 47 bd
       0.0019282685 -0.12985796 -0.010519654 -0.04868344
0001b0 df a4 1d bd 34 65 d2 3d 37 e9 fa 3c 07 26 94 3d
       -0.03848731 0.10273209 0.030628784 0.07233816
0001c0 7f ab a4 bd d0 70 77 bd b5 d3 f1 bb ca 77 c6 39
       -0.08040523 -0.06041032 -0.007379974 0.00037854753
0001d0 d0 f1 25 3e 29 0b 06 be 94 77 87 bc a1 b6 c2 3c
       0.16205525 -0.13090195 -0.016536511 0.023768725
0001e0 30 ee eb bc 60 db df 3a d4 4c 0a be 4c 01 83 3d
       -0.0288001 0.0017078929 -0.1350587 0.06396732
0001f0 e8 e4 7d bc 7f 86 a6 3c e5 a5 30 bd ff f5 3e 3d
       -0.01549647 0.020327805 -0.04312696 0.04662132
000200 38 06 80 3c ac 33 27 3d e4 43 8b 3b 90 10 05 be
       0.015627965 0.040820763 0.0042500366 -0.129946
000210 51 b4 5f bd 5a 1e a3 3d 8b 9a 53 3d 4c 30 90 bd
       -0.054615323 0.079647735 0.051661056 -0.07040462
000220 52 e2 a1 3d 4d 64 06 3e 76 b7 ab bd d8 5f 4f 3d
       0.07904495 0.13124199 -0.08384602 0.050628513
000230 63 3e 60 3d 48 31 58 3d 4a 63 81 3c d3 73 0e bc
       0.054746997 0.052781373 0.015794415 -0.008694607
000240 e4 83 34 3c 40 38 98 bd c7 84 ec 3b 55 90 04 bd
       0.011017773 -0.07432604 0.0072179767 -0.03236421
000250 5b 3b fc 3c 44 34 5f 3d 33 0a 8e bd 4f 67 ce 3d
       0.030790022 0.054493204 -0.06935539 0.10078298
000260 f0 29 01 be 39 f6 73 3d c3 16 18 bd 51 70 a8 bd
       -0.12613654 0.059560988 -0.037131082 -0.08224548
000270 6e 8c 17 3d d6 2e d6 3b bd 42 8f 3c b9 33 a8 3d
       0.03699916 0.006536345 0.017487878 0.0821299
000280 e3 38 03 3e 92 89 29 3d 57 84 c7 3d 87 f1 ba 3c
       0.1281467 0.041390963 0.09742039 0.022820247
000290 1d 04 07 be 0f cf 8e 3d 2e 28 8d 39 70 9c 94 bc
       -0.13185163 0.06973087 0.00026923552 -0.018141001
0002a0 bc fb 28 3d 1c 71 99 bd ac 3b f8 3d 6e 28 ca 3d
       0.041255698 -0.07492277 0.121207565 0.098709926
0002b0 67 38 b8 3d 7e 01 0d 3b a6 92 d2 bd 56 3e 88 3d
       0.08995133 0.0021515782 -0.10281877 0.06652515
0002c0 29 a4 85 3d 78 bd 0e bd e1 77 10 bd 58 e9 7b 3d
       0.06525452 -0.03484866 -0.035270575 0.06150183
0002d0 c3 10 d2 3d d4 99 45 3c 90 c6 51 3d 30 c4 a5 3d
       0.10257103 0.012060601 0.051214755 0.080940604
0002e0 39 d5 cb 3d c0 84 d2 bc 7f c3 69 3d 88 db 99 3d
       0.09952778 -0.025698066 0.057071205 0.075125754
0002f0 46 b6 7a 3d ad 79 b7 bd 29 91 45 3b 2b 88 12 bc
       0.061208986 -0.08958755 0.0030146337 -0.008943598
000300 c6 96 90 bc e9 16 ae 3c 6c 0f b7 3d ec 7d e1 3c
       -0.01765002 0.021251159 0.08938488 0.027525865
000310 c3 57 d4 3d 3c b6 60 3c 90 32 8d 3c 2c bb 0b 3b
       0.10368302 0.013715323 0.017236024 0.002132128
000320 61 96 0d bd 92 2b 2c bd be 80 15 bc 02 e0 cc bd
       -0.03456724 -0.04203374 -0.009124933 -0.100036636
000330 b1 79 c2 3d c5 52 2c bd 94 c2 90 bd d5 d0 72 bd
       0.09495867 -0.042071123 -0.07068363 -0.05928119
000340 96 c7 f9 bd 15 c1 34 3d 60 6f 38 bd 38 54 7b 3d
       -0.12196271 0.04412945 -0.04502809 0.061359614
000350 a3 cb b7 3a 08 02 e2 3d a5 82 88 3d 92 8a 65 be
       0.001402248 0.11035544 0.066655435 -0.22416142
000360 f7 4d b0 3c 15 f5 48 bd 45 82 2f 3d ba 6e a4 bd
       0.021521552 -0.049061853 0.042848844 -0.08028932
000370 fc 70 70 3d 5d 1c 37 3d 3b 63 87 3d 64 b8 87 bd
       0.0587015 0.044704784 0.066107236 -0.066269666
000380 40 e4 70 bd 5f 35 80 bd c4 d8 aa 3c 44 4d 31 3b
       -0.058811426 -0.0626018 0.020855315 0.002705411
000390 3b d4 6c bd e5 02 1b be c6 41 89 3d ba 14 69 bd
       -0.057819586 -0.15137823 0.067019984 -0.056904532
0003a0 93 e9 a4 bd 61 83 2d bc 94 3d 9e 3d 44 c3 77 bd
       -0.08052363 -0.010590405 0.07726589 -0.060488954
0003b0 74 f6 7f 3d a4 39 f3 bc cf 2a 83 bc 9d f9 8f 3d
       0.062490895 -0.029690571 -0.016011624 0.07030032
0003c0 76 e9 b0 3d 26 ea 03 be 5a cb 93 3d 0b b8 11 bc
       0.08638279 -0.1288229 0.072165206 -0.008893977
0003d0 7b 60 71 3d 1b c1 f2 bc 60 c7 19 3e 4c 69 23 bd
       0.0589299 -0.029633095 0.15017462 -0.03989534
0003e0 6e dc e9 3d f9 a8 55 be cb cc 95 bd 2a 52 a7 3d
       0.11418997 -0.20865239 -0.07314452 0.081699684
0003f0 73 94 c4 bd 51 6a 12 bd 42 43 03 3d 9d 5f 13 3d
       -0.09598627 -0.035745922 0.032046564 0.035979856

weight_hh f4 [512, 128]
000000 8e cf 4e 3d 3e 65 8a bd 27 fa 87 bc 53 48 bd bc
       0.05049091 -0.06757592 -0.016598774 -0.023105776
000010 38 0e 43 3d 15 ca c6 bd 98 2d 2d 3c 80 66 d6 bc
       0.047620982 -0.09706513 0.010569952 -0.026171923
000020 54 5b 3d 3d a2 00 ce bb 86 4b 51 bc 9c f1 f7 3c
       0.046229675 -0.0062866965 -0.012774354 0.030266576
000030 dd 3b d9 bd 18 87 d3 bd 2f 7a 02 3d 6e 0d e7 bd
       -0.10607121 -0.103285015 0.031854805 -0.112818584
000040 ae 45 d1 bb 9d 63 c4 3d 0a e6 f7 bd 61 6a 24 bd
       -0.0063864803 0.09589312 -0.12104423 -0.040140513
000050 4f 66 ba bd c2 40 16 bd ec 01 ce 3c be 2c ab bd
       -0.09101545 -0.03668285 0.0251474 -0.08358143
000060 42 3f 55 bd 45 c0 da 3d 2a 34 18 3e f5 9f 4b bc
       -0.05206228 0.10681204 0.14863649 -0.012428273
000070 d4 3a 14 bd 87 d3 8f 3d 47 cc df bc 4f 1b 6c 3d
       -0.036188915 0.070227675 -0.027319087 0.05764323
000080 4f 8b fe bc 38 3f aa bd cd 3b 29 bd af a8 af bd
       -0.031072287 -0.08312839 -0.041316796 -0.08577096
000090 cf d1 26 bd b7 fc f2 bc 17 14 93 bd 77 c8 7b 3c
       -0.040727433 -0.02966152 -0.07181566 0.015367619
0000a0 26 f1 8b bd 4f db e9 3d e3 5d bd 3c 07 ff c6 bc
       -0.06833105 0.11418783 0.023116058 -0.024291528
0000b0 ff ca 0a 3d 72 31 3f 3b 16 b7 05 bd 04 52 18 3d
       0.033885 0.0029173759 -0.032645307 0.03718759
0000c0 ad 00 06 3e 4d e0 ef bd 03 28 54 3b cf cd a2 bc
       0.13086195 -0.11712704 0.0032372482 -0.019873528
0000d0 ba bb 37 3d f7 b5 10 bd f8 dc 41 bd 97 7f 2c 3c
       0.044856764 -0.035329785 -0.047329873 0.010528467
0000e0 57 81 92 bd e4 3b 2c bd fa bc 6e 3d a1 ca 39 3d
       -0.07153576 -0.042049304 0.05828569 0.045359258
0000f0 7b 7b 07 3e 45 78 3b bc e3 85 78 3d ae 65 ba 3d
       0.13230698 -0.011442249 0.06067456 0.09101425
000100 4a 6b c5 3d 6c e3 f6 bd 23 65 b5 3d a5 2f 59 bd
       0.096396044 -0.12055096 0.08857181 -0.053023953
000110 4d 14 98 3d 73 29 3f 3d fb a6 aa bc aa 04 e6 3c
       0.07425747 0.04667039 -0.020831576 0.028078396
000120 ca ac d1 3d fb ce 2e 3d 6b a1 1e bb 75 bf bf bc
       0.10238035 0.04267786 -0.00242051 -0.023406724
000130 c1 70 9c bd fc 48 24 bb de b9 d0 3d d2 05 5d 3d
       -0.076386936 -0.0025067916 0.10191701 0.05396063
000140 db c4 72 bc 27 90 db bc 21 14 55 3d 4a 81 8f bd
       -0.014817442 -0.026802136 0.05202115 -0.07007082
000150 98 e6 8f 3d 46 a7 9f bc fe 62 84 3c 68 ef 02 bd
       0.07026404 -0.019488942 0.016160484 -0.031966597
000160 cb 35 8c 3d f2 d5 d9 bc 28 dc 3d 3d 55 78 1c 3d
       0.06846198 -0.026591275 0.046352535 0.038200695
000170 6a 86 86 bd 93 b3 97 bd 5c e9 58 39 fe 1a 72 bd
       -0.06568606 -0.07407298 0.00020686298 -0.059107773
000180 6c 92 ec bc 1b b5 5a 3d 2e e3 85 3d 15 a6 07 3e
       -0.028878413 0.053395372 0.06537472 0.13246949
000190 cb fe 43 3b 48 9c 4e bc 27 43 b2 3c 76 62 cd 3c
       0.0029906507 -0.012610503 0.021760536 0.025071364
0001a0 a3 38 c9 3d bf 1e 25 bd 9b 05 ef 3b ea c8 34 bd
       0.09825256 -0.040312525 0.0072943694 -0.04413692
0001b0 e2 af 3d 3d 1b 0a 58 3d ad dd cf bd be 3e f9 3c
       0.046310313 0.052744012 -0.10149703 0.030425426
0001c0 3d b0 89 3c 4c 90 81 3c 83 3e 61 3d e9 62 09 3b
       0.01680767 0.015815876 0.054991256 0.0020963496
0001d0 16 34 17 bd 48 46 4a bd 24 f5 f2 bb 4d b7 6f 3d
       -0.036914907 -0.04938343 -0.007414477 0.05852442
0001e0 0f fe ed bc f6 e0 0a 3d a4 8e d0 bc 15 82 97 3d
       -0.029051809 0.033905946 -0.025458641 0.07397858
0001f0 1f c8 be bc 2a b7 13 3d 2c 65 0d 3d 73 fd e3 3c
       -0.023288785 0.03606335 0.034520313 0.027830815
000200 5b 82 b1 3d e7 8b a3 bc df 7f 06 be 5b 34 9a 3d
       0.086674415 -0.019964172 -0.13134716 0.07529517
000210 d5 1a 36 3e 1d 36 84 3d c3 f9 53 bd ac ac 92 bb
       0.17783673 0.06455634 -0.051751863 -0.0044761505
000220 10 ab bd bd 87 63 c6 bd 43 33 94 3c 4a fe 41 be
       -0.09261143 -0.09686952 0.01809085 -0.1894466
000230 0b 56 ef bd e9 9d 05 3e e7 37 96 bc 74 d5 9d bc
       -0.11686333 0.13048519 -0.018337203 -0.019266821
000240 53 65 c3 bc f9 5e f7 3d 6b af db bc 3e da ce 3d
       -0.023852026 0.120786615 -0.026817044 0.1010022
000250 74 01 4c 3d 9d 6e 2f bd 28 e9 be bc 73 a6 32 bd
       0.049806073 -0.0428301 -0.023304537 -0.04361577
000260 cc af c3 3c c9 4b 26 3e 85 72 6f 3d 84 ce 35 3e
       0.023887537 0.16239847 0.058458824 0.1775456
000270 67 e8 d6 3d 75 52 93 3d 0a c1 6b bd 65 29 41 3d
       0.10493546 0.07193462 -0.057557143 0.047158618
000280 42 32 85 bc 94 5f 4a bc 49 86 b1 3d 2f fc e8 bd
       -0.016259316 -0.012351889 0.08668191 -0.11376225
000290 d1 14 3d bd 88 75 1d 3e 68 dd ae bc a8 09 45 bd
       -0.04616243 0.15376866 -0.02134581 -0.048104912
0002a0 ab 70 a8 3c 16 11 12 3e b6 68 5f bd cb 33 dd bc
       0.020561537 0.1426433 -0.05454322 -0.027002236
0002b0 df a1 fb 3d fe 30 a1 bc a0 e1 b6 bc eb 43 18 be
       0.12286734 -0.019676682 -0.022324383 -0.14869659
0002c0 c3 3e 55 bd 32 d2 9e 3d f1 9a 0d 3d d4 d1 0c bd
       -0.052061807 0.07754935 0.03457159 -0.034379795
0002d0 75 c3 97 3b 70 b8 00 be d0 55 31 be 30 e2 c3 3b
       0.0046314546 -0.12570357 -0.17317891 0.0059778914
0002e0 4d a5 43 bc 29 f8 fc bc 4d 6c 24 bd aa f1 21 3b
       -0.011941266 -0.03088005 -0.040142346 0.0024710693
0002f0 41 25 a5 bc e5 45 a9 bc e0 f8 2f 3e 2b 63 44 3d
       -0.020159366 -0.020663211 0.17184782 0.047946136
000300 0c f9 5c 3c a4 25 67 3d 29 04 81 3a 08 d3 8d bd
       0.013487112 0.05643238 0.0009843159 -0.06925017
000310 b9 38 69 bc d1 d5 84 bc 65 5e eb bc 70 20 90 3c
       -0.014234715 -0.016215237 -0.028731534 0.017593592
000320 73 82 88 3d 3b 10 6d bd ea 7e 8e bd 5d 30 39 bc
       0.06665506 -0.057876807 -0.06957801 -0.011303035
000330 67 5d 01 bd f7 24 4e be 12 19 22 bd 68 04 b3 3b
       -0.031583216 -0.20131288 -0.03957469 0.0054631718
000340 72 33 a2 bc 60 b0 8b bd 91 20 9f bd 32 30 0c 3d
       -0.019799922 -0.0682075 -0.077698834 0.03422565
000350 14 22 d1 3d 51 51 ed 3d 54 ed e0 3d d0 26 12 be
       0.10211578 0.115877755 0.10982767 -0.14272618
000360 f4 1c b1 3c 12 62 29 bd 06 d4 ea bc e2 38 26 3d
       0.021620251 -0.041353293 -0.028665554 0.04058159
000370 0a 18 46 bd 1c b0 ef bd 3f ec 0b bd 85 16 3a 3c
       -0.04836277 -0.11703512 -0.03416085 0.011357908
000380 7c ef 0d be 38 49 8f bd 67 b3 1a bc 90 c0 25 3e
       -0.13860887 -0.06996387 -0.009442187 0.16186738
000390 83 c7 ed bd e0 a7 5e 3d 2a 85 9e 3d d5 6a 06 be
       -0.116103195 0.054359317 0.07740243 -0.1312669
0003a0 bc 14 0b 3d 71 21 3a bd e6 30 8f bd 07 73 91 bd
       0.03395532 -0.04544205 -0.069917485 -0.07102018
0003b0 07 8d c3 bc 1f 33 ff 39 ff 7a 94 3c 0a f2 d7 bc
       -0.023870958 0.00048675478 0.018125055 -0.02636053
0003c0 8e c1 a8 3d 80 74 0c 3d a4 e7 e3 bd 45 bf dd 3a
       0.082400426 0.03429079 -0.11128166 0.0016917965
0003d0 c3 63 a5 3c 03 d8 98 3d 22 f7 89 3d b7 52 16 3d
       0.020189172 0.07463076 0.0673659 0.036699977
0003e0 ad a5 90 bd 18 a2 b2 bd eb 16 88 bd f1 df 0a 3e
       -0.0706285 -0.08722323 -0.06644996 0.1356199
0003f0 88 f6 52 3e 9d 62 a3 bd 98 f1 26 3e 43 8e 2e 3c
       0.20601857 -0.07977793 0.16303098 0.010654035

bias_ih f4 [512]
000000 86 fd 4b 3d 39 b8 ef 3d 38 d5 2a 3d 74 cb ed 3d
       0.049802326 0.117050596 0.041707247 0.11611071
000010 e5 ae 1f 3d 2f 37 0d 3d a0 49 32 3e d8 59 21 3e
       0.03898515 0.034476455 0.17410898 0.15756929
000020 ea c0 8d 3e 02 67 04 3e a4 bb aa 3b fa a3 0e 3e
       0.27686244 0.1292992 0.005210357 0.1392974
000030 0a e3 0e 3e 6f a3 f6 3d 5c 79 1b 3e 82 c2 71 3e
       0.13953796 0.12042891 0.15183014 0.23609355
000040 27 3e 5d 3d 28 dd b4 3d 48 55 54 3e b4 81 cc 3d
       0.05401435 0.08831245 0.20735657 0.099856764
000050 73 b3 1f 3e cd 02 4e bb 0c 76 69 3d b0 f0 0a 3e
       0.15595798 -0.0031434775 0.056997344 0.13568377
000060 1d 00 ca bb 75 01 c7 3b 40 ac 9e 3d a5 c1 00 3e
       -0.0061645643 0.0060731717 0.07747698 0.1257387
000070 c5 60 7c 3d 51 96 2d 3d b7 0e 4e 3e 54 dd 02 3e
       0.061615724 0.04237968 0.20122801 0.12779742
000080 2b 2a 7c 3e fb b4 7d 3d b4 57 8c 3c aa b4 c4 3d
       0.24625461 0.061940175 0.017131664 0.096047714
000090 66 4d 1e 3e 27 71 d8 3d 4c 00 37 3d 82 c3 0b 3e
       0.15459213 0.10568457 0.044678017 0.13648799
0000a0 45 42 9e 3d 60 4e de 3d 12 98 50 3e 56 98 1b 3e
       0.07727484 0.108547926 0.2037051 0.1519483
0000b0 b2 93 ad 3d d0 29 e4 bc 58 16 69 3e c8 b5 50 3e
       0.08475436 -0.027851969 0.2276243 0.20381844
0000c0 69 af 00 3e 96 2e b1 3d 60 73 92 3d dd 4e 9d 3d
       0.12566914 0.08651464 0.07150912 0.076810576
0000d0 90 81 bf bb 46 08 ec 3d 30 92 80 3c 2c 59 01 3e
       -0.0058443025 0.115250155 0.015694708 0.12631673
0000e0 01 c4 e7 3d 05 e6 98 3c 9b 34 dd 3c d4 b7 19 3d
       0.11316682 0.01866437 0.027002623 0.037528828
0000f0 b0 d6 39 3d 51 a0 33 3d 36 51 98 3d 00 db 27 3e
       0.045370758 0.04385406 0.07437365 0.16392136
000100 d2 08 8a 3d 35 4d 11 bb 3c 09 16 3e 78 a2 49 3d
       0.067399636 -0.0022171263 0.1465196 0.049227208
000110 93 61 e1 3d 1e 13 b8 3c e1 5a fa 3c 3c 22 ca bc
       0.11004939 0.022470053 0.030560913 -0.024674527
000120 b7 c8 f0 3c 90 7d 0a bc d1 a8 e0 3d 7a f7 2a 3e
       0.029392583 -0.008452788 0.10969699 0.16695967
000130 5b a3 8a 3c 87 05 a1 3d 1d 6f 99 bc bd 78 b5 3d
       0.016923597 0.078623824 -0.01872974 0.088609196
000140 be 9e f7 bc 7d ad b6 3d 2c 94 4e 3d 66 a9 37 3d
       -0.030227061 0.08919809 0.050434276 0.044839285
000150 62 3a 87 3d fa cd a4 3c 6e de 45 3d f7 09 38 3d
       0.066029325 0.020117749 0.04830783 0.04493138
000160 e0 17 0f 3e 45 79 b1 3d 1a f1 8c 3e 6c db 0b 3e
       0.13973951 0.086657085 0.27527696 0.13657922
000170 b5 ca 36 3e aa 1d bb 3d cb c9 17 3e 71 fa 4f 3e
       0.17850764 0.09136517 0.14823072 0.2031038
000180 c7 f1 43 3e 31 44 88 3d 78 5d 15 bd 7e 60 dd 3d
       0.191352 0.066536315 -0.036466092 0.1080942
000190 db d8 2c 3e cb 5b f1 bc a4 52 98 bb c7 6e d4 3d
       0.16879599 -0.029462716 -0.0046485234 0.103726916
0001a0 b3 08 4c 3c 71 a3 e6 3d 55 9a d6 3c 2e 87 10 3e
       0.012453246 0.11261643 0.026196638 0.14114067
0001b0 bd 3d 6f bc 4c 67 50 3e 44 a2 e0 3d 02 ab cf 3c
       -0.014602122 0.20351905 0.1096845 0.025350098
0001c0 55 21 a6 bc 4c 3d 38 3e 19 af ce 3d 58 a9 0e 3e
       -0.020279566 0.17992133 0.10091991 0.13931787
0001d0 0a 32 ce 3d 49 29 f0 3d 8b d7 38 3e 0b bc 64 ba
       0.10068138 0.117266245 0.18050973 -0.00087255304
0001e0 e8 da 5a 3d 7f 72 5c 3d 95 0a 3e 3e 09 dd a9 3d
       0.05343142 0.05382013 0.18558724 0.08294112
0001f0 51 29 ee 3c 77 d8 f1 3d 8d 7f 44 3e 10 28 46 3e
       0.029072436 0.118088655 0.19189282 0.1935122
000200 60 9d 17 3d 44 ef a9 bc 6b ef f6 3c 57 4b d4 bd
       0.03701532 -0.020743974 0.03014346 -0.103659324
000210 38 56 28 bd ee 11 3a bd 2a c8 47 3d 03 e8 f9 bc
       -0.04109785 -0.045427255 0.048774876 -0.03050614
000220 f4 40 0a bd 20 3f 74 bd 4b 03 2a 3c 95 40 0b 3c
       -0.03375335 -0.059630513 0.010376762 0.008499284
000230 01 02 90 3d f7 84 1c 3d 10 ba 93 bd f2 3c db bd
       0.07031632 0.038212743 -0.07213223 -0.10704984
000240 c8 2e 8f 3d 47 c0 dd 3c af af 9f bd 9c 8e 07 be
       0.06991345 0.027069224 -0.07797181 -0.13237995
000250 db 4b a0 3c 82 94 ba bd e9 3d 06 3d e6 7a 15 3d
       0.01956742 -0.09110357 0.032773886 0.03649416
000260 bc a5 c6 bb 4d b8 ce bd 3f ce 23 bd 00 61 bf bd
       -0.0060622375 -0.10093746 -0.039991613 -0.09344673
000270 87 91 c0 bd 13 20 c6 bc 9f 3d 9c bd 61 65 7c bd
       -0.09402757 -0.024185216 -0.07628941 -0.06162012
000280 af b9 07 be 6b da 1a bb 52 6c 20 3c a6 9e 09 bd
       -0.13254426 -0.0023628722 0.009791451 -0.033598565
000290 d8 ff 7e 3b 30 84 32 bd 4c de e3 bd e1 9a 13 be
       0.003890982 -0.043583095 -0.11126384 -0.1441455
0002a0 6c 94 cc 3d 41 67 05 be 90 38 01 be 39 02 19 3b
       0.09989247 -0.1302767 -0.12619233 0.0023347272
0002b0 19 20 c1 bd e7 f3 22 be 9d 47 a9 3c 7a 8b 70 bd
       -0.0942995 -0.15913354 0.02066403 -0.058726765
0002c0 ff a8 f0 bd 68 27 f8 bd a8 ea e7 3c e0 49 a6 3b
       -0.117509834 -0.12116891 0.028310135 0.0050747246
0002d0 ea 38 a5 3d f3 6c 5e bd 07 46 e1 3c 11 db 16 3c
       0.08067496 -0.05430312 0.027499212 0.009207503
0002e0 e5 dc 85 3b 97 9b 2b bd d6 54 90 3c 07 a9 e1 bd
       0.0040851706 -0.04189643 0.017618578 -0.110185675
0002f0 d2 88 9e bd ca 79 f1 bc 4f 19 64 bd 88 b3 83 bd
       -0.0774094 -0.029477019 -0.0556882 -0.06430727
000300 80 b1 21 3d b9 55 3f bd 64 f0 d6 bd 06 3b af bd
       0.039475918 -0.04671261 -0.104950696 -0.0855618
000310 41 de 47 3d 92 f0 a8 bd 5d 2f 29 bc 6f 9e af bc
       0.048795942 -0.0824901 -0.010326234 -0.021437852
000320 23 df b0 bc c9 8e ac bd 12 86 19 bd ec 72 11 bd
       -0.021590775 -0.084256716 -0.037481375 -0.03550999
000330 55 c4 be bc 17 f8 29 3d e8 fb 36 bd a9 c5 8b 3d
       -0.023286978 0.041496363 -0.04467383 0.0682481
000340 8b cf bd bb 14 6e ee bd 81 cc e9 3d 62 03 92 3c
       -0.0057925633 -0.116420895 0.11415959 0.017823879
000350 4a 01 63 bd 1d db 4d 3d 93 91 e8 bc 38 61 e9 bd
       -0.05542115 0.05025779 -0.028389728 -0.11395496
000360 f1 bf 4b 3c a2 75 8b bd 60 39 c3 bd 14 22 6b 3d
       0.012435899 -0.06809546 -0.09532428 0.057405546
000370 59 f1 27 bc f4 9c ab bd af 75 19 bc e1 ca e4 bc
       -0.010250413 -0.08379546 -0.009366437 -0.027928771
000380 fc 4f 1e bd 1e e8 33 3d 3e f2 b9 3b 7f e8 fe bc
       -0.038650498 0.043922536 0.0056746295 -0.031116722
000390 65 2c ef bd cf 0f df bc 41 5d f2 3c 0a 50 91 3d
       -0.116783895 -0.027229218 0.029585483 0.07095344
0003a0 5f 4a b3 bd 25 0c 29 bd a9 cd 92 3c f3 35 71 bc
       -0.087544195 -0.041271348 0.017920332 -0.014722335
0003b0 e0 57 8d bd 9c 8d f1 bd 65 ab 7c bd 59 eb 8b 3d
       -0.069015265 -0.11794588 -0.061686892 0.068319984
0003c0 60 d7 49 3d e0 c2 4d bd d0 e1 e2 bd b1 f9 ab 3c
       0.049277663 -0.050234675 -0.110782266 0.020993086
0003d0 2c 6a aa 3c 08 1b 08 3d 30 6a 2c bd 12 9a 3f bc
       0.02080258 0.033228904 -0.042093456 -0.011694448
0003e0 c3 63 bd bd 8f f4 71 bc 71 28 50 bd 67 eb 5f bd
       -0.09247544 -0.01476778 -0.050819818 -0.054667857
0003f0 2f 89 2c 3d 96 ff d3 bd 44 bb 71 3d 88 5d 09 be
       0.042123016 -0.103514835 0.05901648 -0.13414586
