logs/fgb_vary_rho/6/actor.pt (torch, 906162 bytes, 17 tensors)

weight_ih f4 [512, 48]
00000000: 8517 48bd bb52 d83d 2cbf 4d3c bc85 01be
00000010: 28b1 953a d6e2 a83d 73f0 2f3d 7d21 233d
00000020: 4f95 943c d4e4 d13d 8f32 b13c 47a6 c2bd
00000030: 0cc8 74bd 3912 8fbd 9bb1 593c 3246 2f3d
00000040: 72a6 403d 97e9 d43d dd20 b8bb f790 28be
00000050: 73c1 f03c 82a8 023e ca10 693d 69e6 0e3e
00000060: 89a1 ddbd de3a 18bd 8c62 8e3d f80e 0cbe
00000070: 5cdb 2a3d 3f50 72bc 0ce8 3ebb ae71 ce3d
00000080: c51c 88bd 84cf 0dbd a355 093c b965 c4bd
00000090: 81af 6fbd f425 8f3d 63fc d93c 7e31 543d
000000a0: 7dec 393d 1d02 0d3c 422b 2d3d 4f8f 63bd
000000b0: 18bd 91bd e783 bbbc 52fa 973d 649a a43d
000000c0: c3c4 90bd 9758 ee3b 02b7 2d3e 9fb1 fa3c
000000d0: b5fc 013e b940 6b3d e4be 0c3e 67b4 febd
000000e0: efaa d23c 0483 9fbd 26fa abbc ff1e 46bd
000000f0: df88 26bc 077d 823d 68ec 5abd 4eb1 c3bb
00000100: 0092 f0bc c9da 5ebd 9032 823d 3e9c 833b
00000110: 10ec c33d a906 4b3e 98bf 7cbd 8123 61bd
00000120: f6df 6cbd f3c8 6e3d cea0 153d b3a7 a03d
00000130: c9d0 153d 403a 05be 4ce4 393d e7f4 bdbd
00000140: 9905 b3bd 005f ad3d 23ed 363d 5c7b 96bd
00000150: 75ee 9b3c 927b c7bc ba2a e6bc 6738 84bd
00000160: 0855 f93c b8e7 28bd 92d2 3f3d 3120 453d
00000170: fea8 ae3d 706e 683d df12 95bd e609 3abd
00000180: 0f93 823d d7e3 8e3d fb10 7fbd 6b66 31bd
00000190: 080b 3e3d a158 c63d e2ca 6cbd 5f3b 0cbd
000001a0: b0ef a8bd b0e7 433c 4964 89bd 9a24 b7bd
000001b0: 397c ac3c dd39 673d 3118 11bd 70d6 b33d
000001c0: eedf 9ebd 8c0f 023e d352 003e fce8 1abd
000001d0: 9f6e aabd a3d1 2c3d 164a 9fbd 2ab2 50bd
000001e0: 7903 aa3b c6d0 39bc e040 adbc dc8e 8bbd
000001f0: 1876 ebbd 3bea 5bbd 5353 8ebb ceb7 b7bd
00000200: d60e e0bc fe5e aebd 5dab 12bd ddb6 223c
00000210: dcec 93bd d325 62bc 49ef 573d 633b 78bb
00000220: 0deb 903b 9ec4 173d 1725 bb3c 5f4e d03d
00000230: 2c12 943d de06 243d 6831 903d e94a abba
00000240: fa63 90bd c2c0 12bd a6a5 6c3d 6491 51bd
00000250: 34b7 efbd de90 f9bd a20d 9fbd a9b8 0ebe
00000260: a34e 283c ec71 183c 211d 2d3d bd40 cabd
00000270: 4955 c93d 1e06 40bd fa47 c5bc 11c4 e8bc
00000280: 2cf7 81bb da00 bb3b b547 b8bd c2a0 17be
00000290: a4e4 6b3c 08ce aebc b9b4 52bd 81aa 5b3d
000002a0: 73cc 383c 93aa 49bd 3072 503d 3350 8bbd
000002b0: fad0 2e3e 7363 9e3d 6701 31be 51d9 123d
000002c0: 6edd 8fbc a450 30bd 3c68 c53d 03f1 c3bd
000002d0: 7c81 7abb 9e91 c2bc 4f41 a33d 9f87 603d
000002e0: ee90 f43d 61ac 533c 07e8 b4bc e463 413b
000002f0: 7ce5 5ebd 9c88 b33d 661d e93d 0783 c13d
00000300: 5e6c 1dbe 4405 053e 05bc a5bd ea02 fabd
00000310: d3fb 66bd 22f6 893d df34 9d3c 84d5 5cbd
00000320: d6db bd3c 9569 713e d275 7dbd abf3 37be
00000330: 6820 023d 6305 8c3d 03d0 ccbc 8e58 013e
00000340: 4b60 043e c3ee 663e 5c8a 94bd ef80 4dbe
00000350: e436 ba3d bd3f 073d 267d f03c 3f67 f93d
00000360: 54cf bdbd 74d5 09bd f065 e13d b998 08bd
00000370: 1a3c 4e3e 9287 863e baf1 55bc 222a 033d
00000380: 32e2 2abe 8ad8 d63c f10f e8bc 37fa 9cbd
00000390: fd85 76bd a77b 01bd 0e85 19bc 2df1 a13d
000003a0: d36c 01bc dceb 283d d179 443c dec8 a4bd
000003b0: 6c2c f7bb 99b5 b5bd 6d76 a93b 1551 453d
000003c0: 59d3 ec3c 1ba4 e83d 8242 ccbc 7cb7 5dbc
000003d0: 3e78 643c b283 abbd 6f18 8d3d 4f89 12be
000003e0: 0e26 413d e273 a0bd 8786 153c fd09 ff3c
000003f0: ddbb b13d 6608 283d 0f9a 36bd 18f8 8fbd
-0.048850555 0.105626546 0.012557786 -0.12648672 0.0011420595 0.082463905 0.04295392 0.03982686
0.018137602 0.102487236 0.021630554 -0.09504371 -0.059761092 -0.069858976 0.013286973 0.042791553
0.047033735 0.10396116 -0.005619152 -0.1646155 0.029389119 0.12759593 0.056900777 0.13955082
-0.10821826 -0.037165515 0.0695239 -0.13677585 0.041713104 -0.01478964 -0.002913001 0.100802764
-0.06646112 -0.03462173 0.008382234 -0.095897146 -0.058516983 0.06989661 0.026609605 0.051805012
0.04539155 0.008606461 0.042277582 -0.05555659 -0.07116145 -0.022890044 0.07420792 0.0803726
-0.07068779 0.0072737443 0.16964343 0.030602274 0.12694056 0.05743477 0.13744694 -0.12436753
0.025716273 -0.07788661 -0.020993304 -0.048369404 -0.010164469 0.06371503 -0.05344811 -0.005972064
-0.029366493 -0.05440787 0.063573 0.0040164283 0.0956651 0.1982676 -0.061706156 -0.0549655
-0.057830773 0.05829711 0.03653031 0.07844486 0.036576066 -0.13010502 0.045383736 -0.09275227
-0.08741302 0.084653854 0.044659745 -0.07347748 0.019034604 -0.024350915 -0.028096545 -0.064560704
0.030436054 -0.04123661 0.046831675 0.048126403 0.085283265 0.056745946 -0.0727899 -0.045419596
0.063757055 0.06977051 -0.062272053 -0.043310564 0.04639724 0.09684873 -0.05781067 -0.03423631
-0.08248842 0.011957094 -0.06708581 -0.08942528 0.021055328 0.056451667 -0.03542346 0.08781135
-0.07757555 0.12701243 0.12531595 -0.037819847 -0.083218805 0.042192113 -0.07777803 -0.05095116
0.0051884023 -0.011341279 -0.021149099 -0.06814358 -0.11497134 -0.053690176 -0.004343429 -0.08970605
-0.027350824 -0.08514212 -0.035807956 0.009931293 -0.07222912 -0.013802963 0.052718434 -0.0037877194
0.0044225515 0.037052743 0.022844834 0.10171198 0.072300285 0.04004561 0.070406735 -0.001306859
-0.07050319 -0.03582836 0.057775162 -0.051164046 -0.11704865 -0.12185834 -0.07766272 -0.1393763
0.010272655 0.009304505 0.042264108 -0.09875629 0.0983072 -0.046880834 -0.024082173 -0.028413804
-0.0039662328 0.0057068886 -0.08998052 -0.14807418 0.014397774 -0.021338478 -0.05144188 0.053629402
0.011279213 -0.049234938 0.050890148 -0.06802406 0.17071906 0.07733812 -0.17285691 0.03585178
-0.01756164 -0.043045655 0.09639022 -0.09567454 -0.0038224151 -0.023751076 0.07971441 0.05481684
0.11941706 0.012919516 -0.022083296 0.0029509002 -0.054418072 0.087662905 0.113825604 0.094488196
-0.1537337 0.1299029 -0.080925025 -0.12207587 -0.056392502 0.06736399 0.01919025 -0.053914562
0.023176115 0.23575433 -0.06187994 -0.17964046 0.031769186 0.06836965 -0.025001531 0.12631437
0.12927358 0.22552018 -0.072529525 -0.20068716 0.09092501 0.03301977 0.02935655 0.12177896
-0.0926806 -0.03365083 0.11005771 -0.033348773 0.20140114 0.26275307 -0.01305812 0.032022603
-0.16687849 0.0262263 -0.028327914 -0.07664912 -0.060186375 -0.031612065 -0.009370102 0.07907329
-0.007899481 0.041240558 0.011991934 -0.08046125 -0.0075431373 -0.08872528 0.005171588 0.04817303
0.028909372 0.11359426 -0.024934057 -0.013532516 0.013944684 -0.08374728 0.06889426 -0.14310192
0.047155432 -0.07834603 0.009126312 0.031132692 0.0867841 0.041023634 -0.044580515 -0.07029742

weight_hh f4 [512, 128]
00000000: 0f43 6ebd b01f e0bb c6b8 1dbd bfce 433c
00000010: b34a 09bd b160 48bc 1403 4e3d c72a f1bc
00000020: d960 453d 9101 763d e74e 64bd ef13 c9bc
00000030: 91fc 043d 4db3 443d d41f 263d 9c04 063e
00000040: 422f ca3d 9c38 32bd 8160 613d 5ee7 c5bc
00000050: bd53 0abd b713 1c3d 9f12 903d d122 8b3d
00000060: eaae 36bd f928 7a3c f51c d3bc 5167 02bc
00000070: c546 a9bd a6e9 e33d 97db 763d d9d9 99bb
00000080: 9c47 f4bc c42b e6bd 2165 aebd 59d0 ccbd
00000090: 4218 4a3d ed4f 9ebd 5ab8 6fbc ba5a 9fbc
000000a0: 3d79 0d3d bfe3 c1ba 208c 003d 8ab9 453d
000000b0: e0ca 8c3d e8b3 4c3d 371b a13c a2cc db3c
000000c0: ccbb 23bc bcc3 163d 9091 313d 4630 11bb
000000d0: a2aa 82bd 1a0a 3c3d 96b9 91bd 3f75 903d
000000e0: a0aa d0bb e662 60bd 6464 adbb 98e8 f3bd
000000f0: b731 90bc 642a 483b d2f9 85bd 585e 84bc
00000100: 80e1 26bd fbc6 bf3d 8093 ab3c 46dc e13d
00000110: 4db3 ffbc b083 99bc f870 2e3c 15c0 b0bc
00000120: 0944 83bd 2e1f 9abd fafa 913c 8f2a 113d
00000130: b79c 04bd 97a2 013c b081 03bd e972 9e3c
00000140: 7fec c03d 27ab 793d db66 69bc c74e 443d
00000150: a572 cdbc a2bd 8f3d b285 4ebd 2b30 a9bd
00000160: 7d30 243d 5ca2 c63d 9834 12bd 4b72 9f3d
00000170: 7c66 693d a4ed 64bd 1902 b33c b7e3 3d3c
00000180: 01fa a7bd 0da9 1fbd 6b88 82bd e8d9 b8bd
00000190: a463 b23d 900c 963b 4845 9e3d d83d 37bd
000001a0: 7c73 96bd 3e81 61bd 9eaf 523d fb60 553d
000001b0: 2ecc a23d f379 10bd 6b40 91bd 3143 0f3d
000001c0: c285 123c e619 823d a163 10bd 5d87 583d
000001d0: 84aa 49bc 811b 6dbd 59be 2f3d 6730 15bd
000001e0: d10b 4abd 6aaf a4bd 2794 6b3c 365c 39ba
000001f0: 244e 46bd c2db ac3c 960f 9fbd dd56 8a3d
00000200: cf5f 69bd 3383 693a 312c 35bd 6e3c 953d
00000210: 6b79 233d 9533 203d 3fc6 4ebd 7309 983d
00000220: e522 e43d 0b1d 8e3c 0d03 a4bd 42fa d93d
00000230: f6af ccbb fd8c 79bd 85e2 513d 65eb 303d
00000240: 2eb9 2abd 4c4d 0fba 40b8 9a3d 6aa5 8cbc
00000250: 1f76 fbbd 33d2 dabc 29ea 6cbd d325 d6bd
00000260: f897 5a3d 3134 cd3b 8792 09bd 7a3c 76bd
00000270: fa80 5abd f0b3 393b a124 99bd d528 cebd
00000280: dbd0 2ebd 698e c63c 3d64 2c3d 4a03 05be
00000290: a976 abbd 1e32 8fbc 933f acbd 8068 f43c
000002a0: 6ab0 06bd 074c f5bc afe5 bcbc a273 8dbd
000002b0: 9d52 ab3c 3f0e 4abd cccb 993d e93b 373d
000002c0: 2cf0 ddbb 2e0c 1b3c be84 aa3c a119 a2bd
000002d0: 261a 16bb 16b7 9a3d eb44 bcbc 3609 fd3b
000002e0: 2d54 adbd 7e68 bb3c 95d7 1dbd 44b9 ddbd
000002f0: 0c51 1bbc e512 c7bd 4dde 5d3d fa4b bbbc
00000300: 2a5a ab3d b393 aabd e3ec 7b3d 508f 52bc
00000310: ccd0 b5bd 5484 c63d f0b0 8dbb 2ba0 babd
00000320: d1d3 653c fec5 403d 8fd3 383c 2033 9fbc
00000330: 7044 563d f33d 283d c2e4 be3d 74ed 323d
00000340: 2cf5 a9bc 5834 253d d4a8 923c 3bb6 67bd
00000350: b611 1fbd ee3b bf3d 43c1 723d 74f6 a83d
00000360: 5fe0 a1bd c148 a23d 8270 9dbc 8f8c 043e
00000370: 051a 1d3d 6d52 2bbd 7f23 8b3d 8797 9fbc
00000380: 8e1d 7a3c 4d97 7e3c 05c2 acbd df0e 153d
00000390: 8234 a8bc 1766 58bd e6d4 0d3c fc02 d2bd
000003a0: ba20 e8bc 8dc6 dcbc 9946 013c 8b45 8abd
000003b0: 7fbd f0bb 1dc8 ecbc 9e90 b0bb b328 6abd
000003c0: b6ad aabb 79cf 2a3d d9b7 00be 9cb3 31bc
000003d0: 34da ef3c eff9 8cbd 6f18 dbbc 1a47 233d
000003e0: 6207 c8bc b54c a03d 6d94 39bd 4eb2 973c
000003f0: b32b c6bc 9ef3 493d 37cc 51bd 7671 debc
-0.05816942 -0.006839715 -0.03850629 0.011951148 -0.033518504 -0.012230084 0.050295904 -0.029439343
0.048188064 0.060060088 -0.05573931 -0.024545638 0.03246743 0.048022557 0.040557697 0.13087696
0.09872295 -0.04351102 0.055023674 -0.024158176 -0.033771265 0.03810474 0.07034802 0.0679375
-0.044600405 0.015268558 -0.025770644 -0.007959203 -0.08265451 0.11128549 0.06026801 -0.004695159
-0.029819302 -0.112388164 -0.085153826 -0.10000677 0.04933954 -0.077300884 -0.014631355 -0.019452441
0.03453945 -0.0014792605 0.031383634 0.048272647 0.06874633 0.04997626 0.019666297 0.026830975
-0.009993505 0.03680776 0.04335171 -0.0022154017 -0.06380202 0.04590807 -0.07115476 0.07053613
-0.0063679963 -0.054781817 -0.0052915085 -0.11909598 -0.01760183 0.0030542845 -0.0654179 -0.016158268
-0.040742397 0.093641244 0.020944357 0.11028342 -0.031213427 -0.018739551 0.010647051 -0.021575967
-0.06409461 -0.07525478 0.01781987 0.035440978 -0.032376017 0.0079123 -0.0321061 0.019341903
0.09420108 0.06095424 -0.014245714 0.04792669 -0.02507908 0.070185915 -0.05042047 -0.082611404
0.040085305 0.09698936 -0.03569469 0.077854715 0.056982502 -0.055890694 0.021851586 0.011589936
-0.08201981 -0.03897958 -0.06373676 -0.09025937 0.08710411 0.0045791343 0.07728058 -0.044736713
-0.07346246 -0.055054896 0.051437013 0.05209444 0.079491004 -0.03527255 -0.07092365 0.034976188
0.008943023 0.06352596 -0.035251264 0.052863467 -0.0123087205 -0.057887558 0.04290614 -0.036423113
-0.049327675 -0.0804127 0.014378584 -0.00070709304 -0.048414364 0.021100882 -0.07766645 0.06754849
-0.056976136 0.0008907795 -0.044231597 0.07286917 0.039910715 0.039111692 -0.05048203 0.07423677
0.11139468 0.017347833 -0.080083944 0.10643436 -0.006246562 -0.060925473 0.051241416 0.04319324
-0.041680507 -0.0005466535 0.07554674 -0.01716872 -0.12278389 -0.026711559 -0.0578405 -0.10456433
0.053367585 0.006262325 -0.033587005 -0.06011627 -0.053345658 0.002833601 -0.074776895 -0.10066382
-0.04267965 0.024237828 0.042087782 -0.12989536 -0.08372242 -0.017479952 -0.08410563 0.029834986
-0.032883085 -0.02994348 -0.02305874 -0.06906821 0.020913417 -0.049329992 0.07509574 0.04473487
-0.0067730155 0.009463353 0.02081525 -0.079150446 -0.002290377 0.07554452 -0.022982081 0.0077220453
-0.08463321 0.022876974 -0.038535673 -0.10826352 -0.009479772 -0.09720401 0.05416708 -0.022863377
0.08366807 -0.08328953 0.06150521 -0.012851551 -0.088777155 0.09693208 -0.004324071 -0.09112581
0.014027552 0.04706382 0.011280908 -0.019433558 0.05231136 0.041074704 0.09320976 0.043683484
-0.02074679 0.040333122 0.01790277 -0.056570273 -0.03883525 0.093376026 0.05926634 0.08250132
-0.079041235 0.07924033 -0.019218687 0.12944244 0.038354892 -0.041826654 0.0679388 -0.019481434
0.015265835 0.015539003 -0.08435444 0.036391135 -0.02053285 -0.052831735 0.008656716 -0.102544755
-0.028335918 -0.026950145 0.007890367 -0.067515455 -0.0073468084 -0.028904015 -0.0053883335 -0.05716772
-0.0052086962 0.041701768 -0.12570132 -0.010846045 0.029278852 -0.068836085 -0.02674505 0.03986273
-0.024417583 0.07827131 -0.045307565 0.01851764 -0.02419076 0.049304597 -0.051220145 -0.027153712

bias_ih f4 [512]
00000000: c946 fd3d f77f 093e c549 edbb 1b05 4abd
00000010: 4ba8 143e 04cf 5c3d f2e1 043d 3037 083e
00000020: 3c7f e83a de9a 943c fa6f e5bc 7c97 3c3d
00000030: 01dc 603d 6629 cb3d 1b47 b0bb e143 6d3d
00000040: e090 9a3c bf43 c53c 9f86 d63d 09e2 d1bc
00000050: f6de db3d 5b0f c73c a4ab 4d3e a488 723d
00000060: 74d7 fbbc 2e02 793d 7818 d2bb 3c87 a03d
00000070: 82fc 1a3e 85df 443d 347c 88bc 8fd1 273d
00000080: 6dda 03bb 20d9 963c c0cf 963d 9d12 9f3c
00000090: 574f 083e 8fe5 af3d bfe7 133d 565b a23d
000000a0: b410 623d 7674 04bd f418 bcbc 764e 523b
000000b0: 5818 053e 1786 f33d b663 463c 6ea7 493d
000000c0: 229c 59bd a1fd 2a3e dfbb a53d 85ad a43d
000000d0: cda0 bc3d 4035 253d 935a 6e3c 0982 b43d
000000e0: fb8d d23d ff5d 173e 57e8 f43d 1392 ec3d
000000f0: 5d43 303e a25f b63d 60cd 353d 2a2a 953d
00000100: 676e 3dbc 0b42 513e 5161 9c3d 306d 54bd
00000110: b8f2 0d3e e144 273c 2c6e 5e3d 9131 db3d
00000120: de60 d33d 2a76 d13d 3941 b63d 33b2 193d
00000130: 3c8c e53d e6cc 173d 0252 82bc 8a74 393c
00000140: f1a6 003d a0f6 ed3d 11e5 e03c 575a 07bd
00000150: 3521 683d 07f4 a73b f0db c6bb 71f8 733d
00000160: c291 c93c b4e5 113e 8ea5 e73c 591d 90bc
00000170: f8ee 03bd 915e 693d d640 70bd d3c8 4c3d
00000180: 3a19 e7bc be57 333d 3e8d e33d e0bb 75bd
00000190: 2aa7 913d 0ff0 2dbd c771 aa3c b4e7 84ba
000001a0: 2cc7 1e3e a353 e13c 3b9d fe3d a478 b83d
000001b0: d3e2 603d 8bbd 66bc aac4 0d3d 262d ba3d
000001c0: 3d30 1c3e 011d 873d 87bd 573e e0fc ca3c
000001d0: 396d 4c3e 7b2d 153e a38d c93d 4cd5 7fbc
000001e0: 625f bb3d 522a c53d 4576 18bd da44 cf3d
000001f0: 6bd6 7b3d 7548 ce3d 4767 953c 7bcc 9c3d
00000200: 1f5a a93d ae9f 903d 8211 2bbd df4e acbc
00000210: a304 8fbc 0a34 973c f5ac b3bd 8a78 753d
00000220: 92e7 343d 8339 b1bd a8e3 523d 39a9 663d
00000230: 9295 b6bd 2ec8 a7bd 6df6 4a3b c0b1 5ebc
00000240: ce35 61bd 7670 31bc b1c4 5fbd a8dc 8bbc
00000250: 699f c2bb c40c 423d aa6c 1ebd 0017 493d
00000260: c49c 00bd 449a 143c 12fc 023d 9226 fd3c
00000270: 4498 be3c f5bb c9bc 45bb 14bd 582c 5a3d
00000280: bc6d 38bd 31aa c33d 8f45 f5bc 50e6 cf3d
00000290: bc41 4dbc 0c08 75bd 092f 813c 9993 cdbc
000002a0: 42ba 133d c939 41bd d669 913d 228d 18bb
000002b0: 5705 0bbd c971 7f3d c2ee f93b 8908 91bc
000002c0: 65f9 2bbd 8405 fd3c a382 403d b802 173c
000002d0: 2309 92bd e89c 883d 2843 8e3c f297 753a
000002e0: 2daa a1bd e9f6 103d 27fa c6bc 8561 173d
000002f0: 9472 e83d 570a 283d 620e aa3d 3e8d afbd
00000300: c91c d53d 8108 cd3b b325 44bb 37cf e03d
00000310: e762 92bd c502 893b b1d7 97bd bcb4 133d
00000320: 5821 6cbd 4056 a83c e477 dcbc 98fb 8dbd
00000330: 0476 5cbd d940 39bc 64be d43c 1cde d13c
00000340: b6ad 1a3d 14f3 72bd c64f 88bd 7d56 6fbd
00000350: eb46 073d 2d69 1c3b 04f8 69bd c597 ce3d
00000360: 16c9 51bd 87f9 7b3d 7986 303d 393c bf3c
00000370: 23fc a2bc f0b3 123d f841 81bd 681c 813d
00000380: d049 babd 283a 41bd 981e babc 095c 99bc
00000390: b518 53bd 395e dd3c 1ede 993d a2d7 c73b
000003a0: 1daa 92bd 8fbb c53d 68cb d9ba d5a6 c03b
000003b0: d480 5b3c 6387 5b3d 7f51 87bd a2e9 beba
000003c0: ba24 cc3d 99b3 77bc a5e1 5c3d 3f2e c0bd
000003d0: e9e9 37bd 96de 3d3d a283 f2ba b105 953a
000003e0: 710a 1c3d 17f6 bcbd 42ca 8bbc 1abf 2abd
000003f0: 5b55 b63c efec fcbc 4857 90bd 3c7b 02b9
0.12367017 0.13427721 -0.00724146 -0.049321275 0.14517324 0.053908363 0.03244204 0.13302302
0.0017738114 0.018140253 -0.028007496 0.046042904 0.054897312 0.099200055 -0.00537957 0.057926062
0.01886791 0.024080155 0.10474896 -0.025620477 0.10735886 0.024299314 0.20085007 0.059212342
-0.030742384 0.060793094 -0.0064116083 0.07838294 0.15135387 0.048064727 -0.016660787 0.040971335
-0.0020119206 0.01841408 0.07363844 0.019418055 0.13311516 0.08588707 0.036109682 0.07927577
0.05519171 -0.03233763 -0.022961117 0.0032090223 0.12997568 0.1189081 0.012108734 0.04923194
-0.053127415 0.16698314 0.08092474 0.08040909 0.09210358 0.040333986 0.014547962 0.08813865
0.10280987 0.1478195 0.11958378 0.11551299 0.17213197 0.08904959 0.044385314 0.07283433
-0.0115619665 0.2043535 0.07635749 -0.05186194 0.13862121 0.010209293 0.054304287 0.107028134
0.1032121 0.10227616 0.08899159 0.03752346 0.11208388 0.03706064 -0.015908245 0.011319289
0.031409208 0.116193056 0.027452977 -0.03304514 0.056672294 0.005125526 -0.006068699 0.059563104
0.024605636 0.14247781 0.028277185 -0.017592119 -0.03221032 0.05697495 -0.058655582 0.04999621
-0.028210271 0.04378485 0.11110924 -0.059993625 0.07111962 -0.042465266 0.020806206 -0.0010139854
0.15505666 0.027505701 0.12432333 0.090073854 0.054903816 -0.0140832765 0.03461138 0.09090643
0.15252776 0.06597329 0.21068393 0.024778783 0.1996354 0.1456813 0.09841468 -0.015614819
0.09149052 0.096272126 -0.037222166 0.10120554 0.06148378 0.10072414 0.018237723 0.07656189
0.08269142 0.070617065 -0.041764744 -0.021033702 -0.017458266 0.018457431 -0.08773223 0.059929408
0.044166155 -0.086535476 0.05148664 0.056313727 -0.08915247 -0.08192478 0.0030969635 -0.013592184
-0.054982953 -0.010830035 -0.05463094 -0.01707299 -0.0059394133 0.047375455 -0.03867785 0.0490942
-0.031399503 0.009069983 0.031978674 0.03090218 0.023265965 -0.024625758 -0.036311407 0.053264946
-0.045026526 0.09553946 -0.029940395 0.101513505 -0.012527879 -0.059822127 0.015769498 -0.025094794
0.0360663 -0.04717425 0.07100265 -0.002327748 -0.03394064 0.062364373 0.007627339 -0.017704265
-0.041985888 0.03088642 0.046999585 0.009216957 -0.07130649 0.066705525 0.017366007 0.000936865
-0.078937866 0.035391722 -0.024289204 0.036958236 0.11349979 0.041025486 0.083035246 -0.08571862
0.10405881 0.0062571173 -0.0029929697 0.10977023 -0.071477704 0.0041812384 -0.07414187 0.036061034
-0.057648987 0.02054894 -0.026912637 -0.06932753 -0.053823486 -0.011306965 0.025969692 0.025618605
0.03776332 -0.05931385 -0.066558406 -0.05843209 0.033026617 0.00238664 -0.05712129 0.100875415
-0.05121716 0.061517265 0.043096993 0.023344146 -0.019895619 0.035816133 -0.06311411 0.06304246
-0.0909611 -0.047174603 -0.022719666 -0.018720644 -0.051537234 0.027022468 0.075130686 0.0060987035
-0.07161353 0.096549146 -0.0016616406 0.005879263 0.013397414 0.05359591 -0.06607341 -0.0014565478
0.099679425 -0.015118503 0.05392613 -0.09383821 -0.04490081 0.046354853 -0.0018502364 0.0011369494
0.038095895 -0.092266254 -0.017064217 -0.041686155 0.022257498 -0.030874697 -0.070478976 -0.00012443674

bias_hh f4 [512]
00000000: ba1b 5b3d e949 3a3d 487a b73d c4f8 bbbc
00000010: 2ae0 013e e68c 173d 3a5e 6b3d d0ce 033e
00000020: 510a 7fbc 5774 943d 494b 6f3d fec7 d83d
00000030: ef32 a5bc 087d 1d3d b6c8 c73d 1588 9e3d
00000040: 12be 60bc 38fe a53d e32d 8fbc 487c f23d
00000050: 3080 083e e525 863d c4d2 363e a09d 713d
00000060: 6d06 6dba cb0d ee3d ad11 96bc 3958 003d
00000070: d2e2 c03d f69e 0d3e 3f27 063d 2b90 753d
00000080: da6f f53d d160 8b3d 4894 08bd d078 653d
00000090: c1c5 07bd 528c 053d ba89 df3d 3614 3ebd
000000a0: 6097 143e 8bca 71bd b322 a63d c8b8 243b
000000b0: 89b2 b83d e7c5 933d 52b9 6a3d cc93 51bd
000000c0: 5ed1 843c 0199 483e c01b 1e3e 4a7c 49bc
000000d0: f905 373e 9ee1 30bd 3416 b73d f53e 063e
000000e0: cfef 163e 4d9c b43d 9bfc b13d 54ae 353d
000000f0: b5c3 363e 4824 133e 710e b8bc ee58 dd3d
00000100: 44bc 09bc 7ba5 fb3d 1bb3 87bc 8169 d4bc
00000110: 322b 2e3e 7ff2 6a3d 2a20 f83d 8d1b ef3d
00000120: 59ef 333d 5044 e33d 3027 593c 2489 c83b
00000130: 247c 9d3d d845 9f3d e28e 0b3e 85ca 87bc
00000140: cfde eb3d 2160 1e3d 0559 0c3e 0f05 9f3d
00000150: c90a 333e 3d3d f43d 2d57 2e3c 29ce 573b
00000160: f968 92bc 0490 e03d fdd6 ab3d e931 d33d
00000170: d3c1 c4bc d37a 613d 439f 64bc 6cb4 31bc
00000180: 3e44 a33d 12b7 0ebd 2d59 273e f8a6 9f3d
00000190: f683 923c fb4f 533d bbab 3cbc f571 3d3d
000001a0: 82ad 523e a8e6 493d 59c4 253c 139d 72bd
000001b0: 76dd 983c 76a4 c73d 20e5 093d 8d09 6f3c
000001c0: 9b38 d63d 1161 043c 5649 8e3d b5c6 b03d
000001d0: ebe4 203d 931c b73d 0f87 153e 3105 fcbb
000001e0: 4092 a23d d22a 023c 4d27 fb3d fc81 edba
000001f0: 64b5 d43d ea3b e43b 4574 993d d5eb b43d
00000200: bdd3 8ebd 74b5 bfbc 4f7b d9b9 2177 c0bd
00000210: 8c5d dc3b f00e 603d 61b8 823c 8821 4e3d
00000220: e590 a13d bb81 adbd 8c34 503d 3f88 1f3d
00000230: 6206 e5bb 4df7 5fbb 6695 3bbd 0212 89bc
00000240: de3e 473d 4b7b 403d a324 843d 12eb b03d
00000250: e9c5 5b3d 2e58 2f3b e369 ccbd e20c 46bc
00000260: 9c8f d83d 0e6a 423c e3fc 8d3c 7900 b6bc
00000270: 98cc 59bd 128e dd3d ae3d debc f09e 713c
00000280: 9dd3 b3bc 6b48 b13d 0cf5 013d e764 b63c
00000290: 6446 1a3c 0de5 a6bd 836e 7dbc 628c aa3d
000002a0: 6290 493d 11f8 a33d 80aa 87bd 30e9 b93d
000002b0: 736f 653d 65ce 2bbd 952e 283d e285 d03c
000002c0: 1bde 1fbd 5ac9 ec3c fe44 7bbd 5d8e 8ebb
000002d0: d0fc 04bd 52c2 4e3d 0047 83bd 3473 60bc
000002e0: c117 cbbd 870d 8d3d 36da 773c a3ce 0abb
000002f0: e011 983d 43eb 74bd 113c 91bb 9c35 973c
00000300: fd31 303d 6835 743d 8e33 98bc e7b3 cc3d
00000310: 228b 57bd e213 973d 9d21 a8bd ba87 383d
00000320: 9cae a0bd 93ae 1cbc 7aed 1fbd 9bc2 6cbd
00000330: 1f89 c5bc f8f8 953d d92b a6bd 4b4e 28bd
00000340: d21a 30bd d68a 1dbd 43e5 633d b1ed 96bc
00000350: 631a 383d ec61 043d 90d9 78bd dfd4 3c3c
00000360: f1f9 71bc 3f11 9a3d 68e0 e53b a643 8b3d
00000370: ba8d d13d 219f 8d3d 4994 cb3d b89d 353d
00000380: 0af0 dfb9 bdb9 843d c983 74bd 3dca 843d
00000390: 9bbc 4cbd c1e9 413c d27f a13d a6d9 06bb
000003a0: 1934 a33c 13f1 a43d 6bcc c93d b312 18bd
000003b0: 8478 043d 98b8 edbc 9935 10bc 6df7 31bd
000003c0: 4588 28bc 4196 1dbd 7279 acbd 8186 c33c
000003d0: 058b 183d 1606 683b 459b abbc 2e26 a9bb
000003e0: 478d 743c 0bed ec3c a8b6 553c 1e6d 25bd
000003f0: b7b8 06bc 6703 743c feb2 b73d 5573 96bd
0.05349324 0.045480642 0.0895887 -0.02294577 0.12683168 0.036999606 0.05746291 0.12871861
-0.0155664245 0.072487526 0.058421407 0.105850205 -0.020165889 0.038449317 0.097550794 0.07740799
-0.013717191 0.08105129 -0.017477935 0.11840111 0.1333015 0.065501966 0.17853838 0.058988214
-0.000904179 0.116237246 -0.018318975 0.031334136 0.094182625 0.1383017 0.03275227 0.059951942
0.119842246 0.06805576 -0.033344537 0.05602342 -0.033147577 0.032604523 0.10914941 -0.046405993
0.1451087 -0.05903105 0.08112087 0.0025134552 0.09018428 0.07215481 0.05730564 -0.05116634
0.016213115 0.19589616 0.15440273 -0.012297699 0.17873372 -0.043183915 0.08939782 0.13109954
0.14739917 0.088188745 0.08690759 0.044355705 0.17848094 0.14369309 -0.022467824 0.108079776
-0.008406702 0.12287422 -0.016564896 -0.025929214 0.17008665 0.05736017 0.1211551 0.11675177
0.04392943 0.11097014 0.013253972 0.006119864 0.076896936 0.077769935 0.13628724 -0.016576061
0.11517107 0.038665894 0.13705833 0.07764637 0.17484583 0.11925743 0.0106409015 0.0032929278
-0.01787232 0.10964969 0.08390615 0.10312254 -0.024018204 0.055048775 -0.013953987 -0.010846239
0.079720005 -0.03484256 0.16342612 0.07795519 0.01788519 0.051589947 -0.011515553 0.046251256
0.20574 0.049292237 0.010117614 -0.05923183 0.018660288 0.09748165 0.033665776 0.014589679
0.104600154 0.008079783 0.069475815 0.0863165 0.039280813 0.08940997 0.14602302 -0.0076910486
0.07938051 0.0079447795 0.122633554 -0.0018120403 0.1038616 0.00696515 0.0749288 0.08834044
-0.069739796 -0.023401953 -0.00041481337 -0.09397722 0.006725019 0.054701746 0.01595706 0.050324947
0.078889646 -0.0847201 0.050831363 0.038948294 -0.0069892863 -0.0034174502 -0.045796774 -0.01673222
0.04864394 0.04699258 0.064523004 0.08638586 0.05365554 0.002675544 -0.09981134 -0.012088032
0.10574266 0.011866106 0.0173325 -0.022217022 -0.05317363 0.108181134 -0.02712902 0.014747366
-0.021951491 0.08656391 0.031727836 0.02226491 0.0094161965 -0.08149157 -0.015468243 0.08327557
0.04920996 0.08006299 -0.06624317 0.0907768 0.05601449 -0.04194488 0.04106005 0.025454465
-0.039030176 0.028904606 -0.061345093 -0.004350467 -0.032467663 0.050478287 -0.064100266 -0.013699342
-0.0991664 0.06887346 0.015127709 -0.0021180294 0.074252844 -0.059794676 -0.0044322093 0.01845818
0.043016423 0.059621245 -0.01857927 0.09995251 -0.05262292 0.07376839 -0.08209536 0.045051314
-0.07845804 -0.009563106 -0.039044835 -0.057802778 -0.024113236 0.07322878 -0.08113832 -0.04109029
-0.042994328 -0.038462482 0.055638563 -0.018423887 0.04494704 0.032319948 -0.06075436 0.011525362
-0.014769063 0.07522821 0.0070152767 0.06800012 0.1023211 0.06915117 0.099403925 0.044339865
-0.00042712718 0.06480739 -0.059695993 0.064838864 -0.049984556 0.011835516 0.07885708 -0.0020576506
0.019922303 0.08053794 0.09853443 -0.037127208 0.032341495 -0.029018685 -0.008801841 -0.043448854
-0.010286395 -0.03847337 -0.08421601 0.023867847 0.037241954 0.0035404018 -0.020948062 -0.005162022
0.014926261 0.028921625 0.013044037 -0.040387265 -0.00822275 0.014893389 0.08969687 -0.073462166

weight_ih f4 [512, 128]
00000000: 86a4 41bd 393a 37bd 9847 9ebd 587a 87bd
00000010: c308 fc3b d183 553d f58a 30bc 979a f63c
00000020: f87b 0b3d 1802 cbbd c16f a1bd 589f 583d
00000030: a74d bc3d 6b79 aa3d 616a 65bc 76ea ee3d
00000040: b633 2a3d 3605 0a3e 0263 903c 5d93 8ebd
00000050: 61bf b33a c66c 0ebe 8bb1 a6bd 8475 813d
00000060: 95c9 40bc 6bf5 d1bd 79dc 38bd 5c68 933d
00000070: 152f b5bd b469 5f3c 25dd 0cbd f5c0 523d
00000080: 1d9f b93c df90 8c3c b95b 6fbd 96df 9b3b
00000090: c71c ac3d a373 bdbc aa40 d63d 9e8c 1d3d
000000a0: 0181 1ebd bd9d 593d e8a6 873d 7aec 013e
000000b0: a395 ce3b 70a3 9b3d b3ba f8bd 4483 093d
000000c0: 9cb5 22bd b611 463d afd5 bd3d 91ab 0fbe
000000d0: 54a0 09bb 9262 a63c 0940 97bc 338f 433d
000000e0: 82eb 7a3d d0c4 27bd f60d 1ebd 400e 3ebd
000000f0: 6c50 673c 783e 23bd f2f5 8fbc 4668 763d
00000100: 5059 10bd f6c1 82bd 34fd 28bd b15d 683a
00000110: aeaa c1bd bc91 0d3c 0d21 783d 33d5 b83d
00000120: fb32 bb3d 3f3b 3b3d d3a4 79bc 327c b53d
00000130: 5fe2 493d 042b 59bc e13c 083c a2c6 9f3d
00000140: 390f 92bd f3ef 9b3b a66d f0bd 82cd 53bd
00000150: 1302 8bbd 05ef 103d da4f 78bd 1b25 3cbd
00000160: 7dca 3a3d 0545 75bd ae15 02be 5f60 bb3d
00000170: 813d 5a3d e1c2 f3bd 6f2f adbc 852e 5bbd
00000180: 0e89 24bc e2d5 40bd 1708 30bc 95c4 043c
00000190: 529f fd3d 5852 35b9 2d81 5a3d 73c5 49bd
000001a0: dce1 f43c fabf 02be 7d3f b73c c005 613d
000001b0: 28fb e93c 2f06 903c 62bc 9a3a 2c0d 2d3d
000001c0: 4ecd eabc c93f a6bd c84a 8fbd 2c50 c93d
000001d0: c1cc 183d 6b07 30bd 294c 3c3c 8917 7c3c
000001e0: 57c6 9cbd 3231 ea3d 5f2e ffbd 0d29 913d
000001f0: 4af3 83bc 6a5e 4e3b dd9f 32bc bb02 a53c
00000200: f285 d13c 2eff a83c 1e60 213d 4289 2b3c
00000210: ec6b 183d f093 073d 09d3 32bb 629f 0bbd
00000220: b110 bbbb 8157 103d 4c40 4ebd 6c2d b73c
00000230: be41 7fbc eb99 233d 354f 91bd 9d8b ccbc
00000240: 420d debb 338d 1cbb 0b60 8bbd 1b8a be3d
00000250: 22dc 28bc a69c 763d e711 8d3c 8a4c 7d3d
00000260: f9b5 23be 4653 bd3c eeb1 d1bc 58f6 a2bd
00000270: ac22 e3bb 70fb 033d 3f7f 5a3d ed93 003d
00000280: e822 9639 3693 823d c6ad f33c ffe8 fc3c
00000290: a374 853b 2554 983c 1181 7abc 3031 ea3b
000002a0: c925 ba3b 28b3 adba 4f68 613d e62a 0a3d
000002b0: 7556 203e d220 003d e85f d0bc 17cb 5bbd
000002c0: 612d 0c3d f1df 993d e119 bebd 1d3a 173d
000002d0: d821 433c f145 7e3d 0481 843c 3871 823c
000002e0: 9bc8 5b3d 0d44 afbc 8d8f e43c 28b2 473d
000002f0: ae1f 4d3c 6395 ccbd edd6 223c 2e66 f83b
00000300: f23b c2bd 1d5d b83d 4614 45bd e41d 313d
00000310: cbdc 933d 5d17 5fbd fd55 d2bc 09ae 13bd
00000320: 4c35 5dbd ae82 943b ef07 74bd 3586 dd3b
00000330: 85d9 f63d 299b a73d 40e4 0bbe 28a2 b6bd
00000340: b704 6f3a 53db 4f3d adcc 86bd 42d6 373d
00000350: 3bcb 19bd 427f 013e 17da 863d f467 05be
00000360: 8f8c d4bc 0709 2cbd a7aa 893d 7ccd 12be
00000370: 29ba 57bd b906 923d f8ef 513d 8d9f c7bd
00000380: 6776 b2bd 78dc 143d c930 013a 350c d9bd
00000390: 394a f53c dd77 acbd 6339 d43d 413f 0dbd
000003a0: e86a 79bb b064 833b 4335 ef3d d809 8dbd
000003b0: e3e4 e53d a493 17bd 7aa0 89bd e155 433d
000003c0: b7ce c83d d354 a4bd a458 b4bc e1c7 fb3d
000003d0: d085 9e3d 62df 8dbd a24b 8d3d aaa0 eebd
000003e0: d8f4 bf3d 2f95 0cbe f3b6 6f3d 0ee4 f83d
000003f0: 9669 53bd 3cac 8cbd 70cd 9c3c 1110 b53d
-0.047276042 -0.04473326 -0.07728499 -0.06615132 0.007691474 0.052127663 -0.010775317 0.030103011
0.034053773 -0.09912509 -0.078826435 0.052886337 0.091944985 0.0832394 -0.0140024135 0.116658136
0.04155322 0.1347855 0.017625336 -0.06961701 0.0013713652 -0.13908681 -0.081393324 0.063212425
-0.011766811 -0.10251888 -0.045132134 0.07197639 -0.08846871 0.013636041 -0.034390587 0.05145355
0.022658879 0.017158924 -0.058437083 0.004756878 0.08403926 -0.023126429 0.104615524 0.03846418
-0.038697246 0.053128947 0.06623632 0.12687865 0.006304459 0.075995326 -0.12144985 0.03357245
-0.039723977 0.048356734 0.092692725 -0.14030291 -0.0021000104 0.020310674 -0.018463152 0.047743987
0.061259754 -0.04095918 -0.038587533 -0.04640031 0.014118295 -0.039854497 -0.01757333 0.060158037
-0.035241425 -0.06384651 -0.0412571 0.0008864059 -0.09456383 0.008640703 0.060578395 0.090250395
0.09140583 0.0457108 -0.015237051 0.08861579 0.04928815 -0.013254885 0.008315296 0.07801558
-0.0713181 0.004758829 -0.11739664 -0.05170966 -0.06787505 0.035384197 -0.060623027 -0.045933824
0.045603264 -0.059880275 -0.12703583 0.09149241 0.05328131 -0.119024046 -0.021140782 -0.05351116
-0.010042442 -0.047078975 -0.010744116 0.008103509 0.123839036 -0.0001729218 0.053345848 -0.049260568
0.029892854 -0.12768546 0.02236914 0.054937124 0.028562143 0.017581074 0.001180541 0.04224889
-0.02866235 -0.08117635 -0.06996685 0.09829745 0.037304644 -0.042975824 0.011492767 0.015386471
-0.07655018 0.114351645 -0.124600165 0.07087908 -0.01610722 0.003148938 -0.010902372 0.020142904
0.025576565 0.020629492 0.039398305 0.0104697365 0.037212297 0.03310007 -0.0027286431 -0.034087546
-0.005708777 0.0352397 -0.050354287 0.022360526 -0.015579639 0.03994171 -0.07095186 -0.024968917
-0.006776483 -0.0023887872 -0.06805428 0.09303685 -0.01030639 0.060207985 0.01722045 0.06184057
-0.15987386 0.023110997 -0.025597539 -0.079571426 -0.0069316234 0.03222221 0.053344008 0.031391073
0.00028636237 0.063757345 0.029745948 0.03087282 0.004072742 0.01859481 -0.015289561 0.007146977
0.005680774 -0.0013252245 0.055031117 0.033732317 0.1565798 0.0312813 -0.025436357 -0.05366048
0.034222964 0.075134166 -0.0928228 0.036920656 0.011909924 0.06207842 0.0161748 0.015923128
0.05365811 -0.021394754 0.027900482 0.048753887 0.01251976 -0.09989431 0.009938938 0.00758054
-0.0948409 0.09002135 -0.048115037 0.043241397 0.07219847 -0.05446564 -0.025675768 -0.036054645
-0.054005906 0.00453218 -0.05957788 0.0067603835 0.12053207 0.08183891 -0.13661289 -0.089176476
0.0009117829 0.050746273 -0.065820076 0.044882067 -0.03754733 0.12646201 0.06584566 -0.13027936
-0.02594593 -0.042000797 0.067220025 -0.14336199 -0.05266777 0.071301885 0.051254243 -0.09747229
-0.0871399 0.036343068 0.0004928229 -0.105980314 0.029942619 -0.084212996 0.10362508 -0.03448415
-0.0038058106 0.0040098056 0.11680081 -0.06886643 0.11225297 -0.037006035 -0.067200616 0.047689322
0.09805053 -0.080239914 -0.022014923 0.12293983 0.077403665 -0.069273725 0.068991914 -0.11651738
0.09372872 -0.13728784 0.058524083 0.12152873 -0.051614366 -0.068687886 0.019140929 0.08840955

weight_hh f4 [512, 128]
00000000: 7caa 79bc 636d 21be 63fb 8abc 36c2 1cbd
00000010: d48d ec3c 01b6 83bd d912 06bd 3bff eebb
00000020: 05c1 ba3d afa5 843d b0f7 353b f57d f63c
00000030: 10fd aabd f66f bbbd 5192 b43c 7a10 9cbd
00000040: 5a14 3abc 5670 d03d af6a c5bd 4860 6fbc
00000050: 3028 d0bd adc9 2cbd c480 583d ba2a 6dbd
00000060: 3ead 62bd 8f8f 0d3e e05a 8b3d b8e9 1b3d
00000070: 70b7 473b 6368 9c3d 611e 50bd 20b0 b33d
00000080: bc59 993d e766 84bd a05e 84bc 01ec a0bd
00000090: 6652 50bd 94cb b6bc 1ccf f6bc f2e0 d238
000000a0: c857 85bd 27ba a83d 4b92 7a3c b409 133d
000000b0: 31a6 08bb 8e08 093b 3a5f cf3d 855e e2bc
000000c0: 2388 853d c5ec 7cbd 1c14 913c 3460 a4bb
000000d0: 9c2d 353d 5c6f 81bd cde9 54bc 2821 b93d
000000e0: 0ca8 a5bd 8ddd c33b ee47 b03d a136 253d
000000f0: edfe b33d c980 2cbc 505f be3d 5bd8 e13d
00000100: 643c 8a3d f3c4 96bd 64e4 bd3d 6a6d a5bd
00000110: 5384 8e3d 2ad4 1f3c c83e cdbc 06c8 c9bb
00000120: b897 ee3d 0de2 f33c 4fad 08bd dd6e d7bc
00000130: 40e2 4dbd 0361 213c 5e7f 413c 6d3d bc3d
00000140: fced e03c 6ae1 d83b eb3f e63c 2dff bcbd
00000150: 159a 013d a46d d43c bc37 6bbb 9fbc 57bc
00000160: 3f13 d63d 9cda b0bc 3cdb 89bc 8b7c 5a3d
00000170: 00a1 e0bd 75de 80bb c1fe 19bd 018f c6bd
00000180: c6dd 7fbc b046 633d 7073 2d3d 7a0a a33d
00000190: 3016 123d 22c7 44bd 86f9 4cbc b1b7 24bd
000001a0: 229a 623d 655f 57bd 4be8 863d 99a5 b5bd
000001b0: 302d 393d 8567 c53d 496b b0bd 486d 133d
000001c0: 93a0 843d 368a 8bbc b949 5d3d b5f5 c33c
000001d0: 05ca 163d 192c 1cbc 78b6 423c 679e 793d
000001e0: 389d 423b 1c3c 723d af12 fabc ac28 133d
000001f0: 40f8 d4ba 737c d43c be83 90bc 4280 623b
00000200: 8428 dd3d 84df 813d e67d abbd 9be2 443d
00000210: 7152 da3d fc2b 433e 266b b93c 87ea 94bc
00000220: 1627 85bc 0bcf 90bd 818a 7e3d 3826 ccbd
00000230: c909 e5bc 4f38 c63d e4d2 fdbc c874 8bbd
00000240: f2e1 a83d d558 0b3e 25fd c83d e6ea b63c
00000250: 7d83 1a3e c86d d1bd 7134 19be ef4b f0bd
00000260: 2e63 9fbd e184 0e3e 847c caba f023 053e
00000270: c35c c93c f7c3 b93d ca4c f73b 0216 5fbd
00000280: c778 8f3d 5729 003d 077f 2f3d 841c 76bd
00000290: 12eb e6bc a02e 15bc 5483 fa3c 0644 92bd
000002a0: ec75 7abd e381 e83d f11f 7bbd 3e3e a23d
000002b0: 5a5e ff3d 4a5b d8bd 4c1c af3d 0bb9 013c
000002c0: 4d68 94bd ca09 5a3d 4d44 b63c 17b9 8cbd
000002d0: f331 36bd d378 ecbc 7fb1 2bbd 881c 5ebc
000002e0: 99e5 093e 5258 86bc b107 e6bb 174a 903d
000002f0: 74f4 30bd 7b41 453d bb68 793d 5a88 b3bc
00000300: 1bdf fe3c d408 f93c 3a38 103e b34a 0cbe
00000310: 3fe8 20bd 9a8d 683d 757b 8d3d 61ae b6bd
00000320: f0bf c03d c198 903c 22ab 6bbd cf5d 053c
00000330: 7477 1b3c 2422 c8bd ec80 c5bd be8d 2cbd
00000340: 6d72 61bc ae77 82bd ea9c 803d dc76 debd
00000350: 398c 923d 361e 1b3e 9398 ee3d 247e 04be
00000360: 075d db3d f9f1 a7bd 39e4 a23d 0ffd 7c3d
00000370: bfcb e9bd 8a39 f9bd d4ad 81bd fb9c d6bd
00000380: a535 8dbd a78a 29bc e8e4 383d e69c 7f3d
00000390: 29d0 1ebd 5b0c fdbc 0584 5b3d 5cd9 b3bd
000003a0: ad91 8abc c963 fdbd 198c cabc 68c3 f2bd
000003b0: dcd4 5c3d a179 e0bd 7b81 a83d 59df 5abd
000003c0: 61c6 153e bc32 da3d 4b95 bbbd 2b41 32bd
000003d0: aa67 20bd 983d 3b3e f385 0a3e 69fc 3cbb
000003e0: 1def 6bbd 2f66 1fbe 5206 5d3d b619 b53d
000003f0: ac48 393e 0934 593d dcd2 31bc d441 093e
-0.015238401 -0.15764384 -0.016965574 -0.03827115 0.028876223 -0.06431199 -0.03273282 -0.0072936094
0.09118847 0.06476914 0.0027766041 0.030089358 -0.08349049 -0.09152214 0.022042425 -0.0762033
-0.011357391 0.101776764 -0.09639489 -0.014610358 -0.10163915 -0.04218452 0.052857175 -0.057902075
-0.055340998 0.13824295 0.068044424 0.03806469 0.0030474328 0.07637098 -0.05081022 0.087738276
0.074878186 -0.064649396 -0.016158402 -0.07857514 -0.05085983 -0.02231387 -0.030128054 0.0001005548
-0.065108836 0.08238631 0.015293668 0.035897925 -0.002085101 0.002090964 0.10125585 -0.027632961
0.06520107 -0.06174924 0.017709784 -0.005016351 0.04423295 -0.06320068 -0.012995196 0.09039527
-0.08088693 0.0059773386 0.086074695 0.0403353 0.087888576 -0.010528752 0.09295523 0.11027595
0.067498 -0.07361784 0.09272078 -0.0807751 0.069588326 0.009755174 -0.02505435 -0.006157878
0.11650032 0.029770875 -0.033368405 -0.02629798 -0.050264597 0.00984979 0.011810152 0.091914035
0.02745723 0.0066186683 0.02810665 -0.092283584 0.031641085 0.025931187 -0.0035891375 -0.013167529
0.1045289 -0.021588616 -0.016828172 0.05334143 -0.10968208 -0.003932769 -0.037596468 -0.096952446
-0.01561684 0.055487335 0.042346418 0.079609826 0.03566569 -0.04804147 -0.012510663 -0.040214244
0.055322774 -0.05258121 0.06587275 -0.08869476 0.04520911 0.096388854 -0.08614213 0.03599289
0.064759396 -0.017033678 0.054025386 0.023920873 0.036813755 -0.009531998 0.011884324 0.06094208
0.002969576 0.059139356 -0.030526487 0.03592746 -0.0016248301 0.025938248 -0.017640945 0.003456131
0.10798743 0.0634146 -0.083736226 0.04806767 0.10660256 0.19059747 0.0226341 -0.018178238
-0.01625399 -0.0707074 0.062143806 -0.09968227 -0.027958767 0.09678709 -0.03098435 -0.06809384
0.08246221 0.13608105 0.098139085 0.022328805 0.15089221 -0.10226017 -0.14961411 -0.11733233
-0.07782589 0.13917877 -0.0015448486 0.1300199 0.024580365 0.090705805 0.0075469958 -0.054464348
0.07005458 0.031289425 0.042845752 -0.06008579 -0.028188262 -0.009105355 0.0305802 -0.07141881
-0.061147615 0.11352899 -0.06130976 0.07922028 0.12469168 -0.10564287 0.08550319 0.007917653
-0.07246456 0.05323199 0.022249365 -0.068712406 -0.04448123 -0.028866207 -0.04191732 -0.013556607
0.13466491 -0.016399536 -0.00701996 0.070453815 -0.04320188 0.04815815 0.060890894 -0.021915603
0.031112244 0.030399717 0.14083949 -0.1370037 -0.039283987 0.056775667 0.06908313 -0.08919979
0.09411609 0.017650964 -0.05753625 0.0081400415 0.009488929 -0.09772137 -0.096437305 -0.042127363
-0.013760191 -0.06370483 0.06279929 -0.108625144 0.071556516 0.15148243 0.11650195 -0.12938744
0.10711103 -0.082004495 0.07953686 0.061764773 -0.114158146 -0.12169178 -0.06331983 -0.104791604
-0.068949975 -0.010347999 0.045140177 0.06240549 -0.038772736 -0.03088968 0.0535927 -0.087816924
-0.016915167 -0.12372548 -0.024725007 -0.11853677 0.053913936 -0.10960699 0.082278214 -0.053435657
0.14626457 0.10654208 -0.09159335 -0.04351918 -0.03916136 0.18285215 0.1352766 -0.0028836972
-0.057601083 -0.15566324 0.053961106 0.088427946 0.18094128 0.05302814 -0.010853495 0.13404018

bias_ih f4 [512]
00000000: 3960 ee3c bada ee3d a47f 5c3d ce81 f63d
00000010: 0209 26bc 37e0 c73c a360 153e 7f59 6f3d
00000020: 5e9e 253e fc74 a73d e157 82bc c96b 053e
00000030: 07c2 c13d 4b05 dd3d adb5 7f3d f6ef 063e
00000040: ffdc 55bd 81c8 953c 6f2e d93d ca18 fb3d
00000050: 7b2c f33d b8e8 2dbd 5c07 ec3d 99b5 9d3d
00000060: ccdb 90bc 4510 77bd 5952 973a 3430 b83d
00000070: 0057 613d 2be0 a7bc 578d 0f3e a0e1 333e
00000080: 1f60 443e 0a5f 803d 085b 873d f6c3 c13d
00000090: 7467 223e 9045 bf3d ea81 043d f874 843d
000000a0: 4e3d 223d 8748 553d f560 043e 7f27 0c3e
000000b0: d583 a63d 4dd8 95bc 4ced ad3d d9aa 2f3e
000000c0: ce57 5f3d 1b44 153d fa6a 8e3d 55b4 263d
000000d0: 1efe 57bb 0c05 653d 699a 9d3c 9d2b e93d
000000e0: f3c7 103e b3af 183d 152e fdba fbc2 bbbc
000000f0: 3cf0 363d d2fa 91bb e631 e73d b0b2 e53d
00000100: 1f48 e6bc c527 3bbd 89a0 083e c6b7 2bbd
00000110: 4fbb a33d 59af 9a3c 54ee 2d3b e533 71bd
00000120: 3e25 23bd e60b 12bd f89c 053d d60c 203e
00000130: 7398 33bd 9623 823d f4f7 1a3b 1313 be3d
00000140: 0ba7 813c 6a48 c03d 3491 583d 5b0f e83c
00000150: e619 623d f5aa 8d3c 1022 593d 8cfa f33d
00000160: a6f4 cc3d 9e44 fc3d 5edc 523e 91cb 383e
00000170: c49d ee3d 0b63 5c3d 9c35 ed3d dd19 343e
00000180: 1b26 b63d e84a 313d 1c67 32bd 7d58 b73d
00000190: 222f 623e 33f3 80bd 75c7 713c 3c73 e43d
000001a0: 4436 9bba 9f10 933d dd27 eabc 37a8 bc3d
000001b0: 7b4c 103e df77 483e 5e2d a53d a7c4 1d3c
000001c0: 1730 5b3c f960 4b3e 31f0 1b3e d430 a03d
000001d0: 4b39 f03d 7dc1 063e df70 ab3d a2d4 083b
000001e0: d3e8 ee3a 14e0 3a3d e69a 0f3e d1c0 bc3d
000001f0: 0bba 983d 4b5f f43d b537 e83d 701c 2c3e
00000200: 42e0 763d 81a9 21bc c944 6f3d 7a5a e8bd
00000210: 38b0 22bd 5a6d 79bd 9715 b83c 5016 d7bb
00000220: 2557 063c b7f3 97bd 312e 1e3d 9258 9a3b
00000230: cc6e b63d 632d 0f3d 16ad d4ba 000d bcbc
00000240: d93f 143d 9a1a 4b3c 446d 5bbd 2c74 8cbd
00000250: 1d1e 803d 2e7b 99bd 25cc 413c 8b17 093d
00000260: 8f41 293c 93ea 15bd 94bc 92bd 675b 9abd
00000270: ac61 58bd d6a9 0ebd 3287 373d 6ddd 33bd
00000280: 376c 77bd e0a1 c03a fb18 b83b e301 ad3c
00000290: a90e b5bc 24e1 6cbd 4e89 1ebd e11e a8bd
000002a0: 48da b23d 3cb7 fabd 9894 9dbd d7cb 2c3d
000002b0: 10bc 99bd fc92 d8bd 00d4 9d3d b3db 9bbd
000002c0: b3b2 cbbd b6c6 c7bd 529c 013d 9dd4 453d
000002d0: 2b9d a83d 9bff b0bd c0ff 8a3c 9d33 013d
000002e0: 0be5 3dbd 49ac 8abd 795b 7f3d a088 c4bd
000002f0: 3ead 88bd 73ca 343c 870e e5bd 8002 53bd
00000300: ec99 633d 08a9 5ebc 3657 4cbd 4db5 82bd
00000310: eb88 f93c ab6a 0cbe 42f2 cc3c 285d 0cbd
00000320: f015 c9bc b7c5 fdbd 126e 37bc f03b 9bbd
00000330: 5d5c cc3b aa6c 3d3d e206 2dbd f9c3 f83c
00000340: a3ed 663d 78e7 c6bd 776a 833d e02d 303d
00000350: 73f5 73bd 83ef a93d 4e1d 423b c990 a8bd
00000360: 0b57 883c 6522 a2bd f865 89bd 4d34 1c3d
00000370: bc2e 1b3d d2f1 5fbd f396 08bc 3f7c 56bc
00000380: d176 8f3c 6206 193d c38b 9cbb 19e2 d2bc
00000390: 4efb e8bd b073 bcbc beaf 3d3c 1943 023d
000003a0: 692b e0bd 2736 0ebd 3426 423c 4dd7 d43c
000003b0: b7e8 10be 9d04 dabd 5d69 9dbd 0b86 ab3d
000003c0: ca8d 2a3d 583c 783c 13a5 f1bd 6879 733d
000003d0: 7bad c03c 6eb7 253d ca82 3cbc 538e 14bc
000003e0: 3912 b0bd bcc8 c33c a97e 1cbd d8bd e9bc
000003f0: b604 283d 9ac6 99bd 0428 713d 92cc cabd
0.029098617 0.116628125 0.053832665 0.12036477 -0.010133984 0.024398906 0.14587645 0.05843496
0.16173694 0.0817661 -0.015911045 0.13029398 0.09460836 0.10792025 0.06242912 0.13177475
-0.05221271 0.018284084 0.1060456 0.122605875 0.11873718 -0.042458266 0.11524841 0.07700653
-0.017682932 -0.06031825 0.0011544927 0.08993569 0.05501461 -0.020492634 0.1401876 0.17566538
0.19177292 0.06268127 0.0660916 0.09461205 0.15859777 0.0933944 0.03235046 0.064676225
0.039609246 0.05207112 0.12927611 0.13686942 0.08130614 -0.018291617 0.084925264 0.17155017
0.054527096 0.036441904 0.06953998 0.04069932 -0.0032957862 0.055913016 0.019238668 0.11385272
0.14138775 0.037276935 -0.0019316102 -0.022920122 0.0446627 -0.004454949 0.11288814 0.112157226
-0.028110562 -0.045692224 0.1334249 -0.041923307 0.07994711 0.01888244 0.002653976 -0.05888738
-0.03983044 -0.03565588 0.0326204 0.15629897 -0.04384656 0.06354444 0.0023646327 0.09280982
0.015826723 0.09388812 0.05287285 0.028327635 0.05520048 0.017293433 0.053011 0.119130224
0.100076005 0.12317775 0.20591876 0.18046404 0.11651185 0.053805392 0.11582491 0.17587991
0.08893987 0.043284327 -0.043555364 0.08952425 0.22088292 -0.062963866 0.014757027 0.11154792
-0.0011841734 0.071809046 -0.028583461 0.09211772 0.14091675 0.19576977 0.08065294 0.009629405
0.013378165 0.19861211 0.15228345 0.07821813 0.11729678 0.13159747 0.08371138 0.0020878692
0.0018227346 0.045623854 0.14023933 0.09216464 0.0745736 0.11932238 0.1133875 0.16807723
0.060272463 -0.009867073 0.058415208 -0.11345382 -0.039718837 -0.0608953 0.022471232 -0.006563939
0.008199488 -0.07419532 0.03861827 0.0047102654 0.089078516 0.034955394 -0.00162259 -0.022955418
0.036193702 0.012396479 -0.053571 -0.068580955 0.06255744 -0.07494198 0.011828457 0.033469718
0.010330572 -0.03660066 -0.07164875 -0.07536965 -0.052827522 -0.034829937 0.044806667 -0.04391234
-0.060405936 0.001469668 0.0056182123 0.021119064 -0.022101717 -0.0578319 -0.038705163 -0.08209015
0.0873304 -0.122419804 -0.07694358 0.042186584 -0.07506573 -0.1057491 0.077064514 -0.07610264
-0.099461935 -0.09754698 0.03164322 0.048298467 0.082331024 -0.08642503 0.016967654 0.031543363
-0.04636101 -0.06771142 0.062343094 -0.09596372 -0.06673668 0.011034596 -0.111844115 -0.051516056
0.055566713 -0.013590105 -0.04988786 -0.06382237 0.030460795 -0.13712566 0.025017861 -0.03426853
-0.024546593 -0.12391227 -0.011195676 -0.075797915 0.0062365965 0.04624621 -0.042242892 0.030366885
0.05637897 -0.09712118 0.06416791 0.0430125 -0.05956025 0.08297636 0.0029619518 -0.082307406
0.016643068 -0.079167165 -0.06708902 0.038135815 0.037886366 -0.054673977 -0.00833677 -0.013091146
0.01751271 0.037359603 -0.004777403 -0.025742577 -0.113760576 -0.023004383 0.011577545 0.03180227
-0.1094578 -0.034719612 0.011849929 0.02598157 -0.14151274 -0.10645411 -0.07686112 0.08375176
0.041639127 0.015151106 -0.117990635 0.059441954 0.023520222 0.040458135 -0.011505792 -0.009067136
-0.08597226 0.023899429 -0.03820673 -0.028532907 0.041020118 -0.07508583 0.058876052 -0.099023
