logs/dive_rp_vary_oracle/1/actor.pt (torch, 879410 bytes, 17 tensors)

weight_ih f4 [512, 35]
0	0x3c4e9ad2	0.012610154
1	0x3e0648cd	0.13113709
2	0xbddbdf6a	-0.10735972
3	0xbe35b445	-0.17744549
4	0x3e82ff6c	0.25585496
5	0x3e2a69d4	0.16641933
6	0xbd89a298	-0.067204654
7	0x3e3f3dec	0.18675965
8	0x3e0b188e	0.13583586
9	0x3d9f0876	0.07765286
10	0x3e0bdfef	0.13659643
11	0xbdf082d9	-0.11743707
12	0xbd80b9f0	-0.06285465
13	0xbd4f8614	-0.050664976
14	0x3d177336	0.036975108
15	0x3de09191	0.109652646
16	0x3e2122a4	0.1573587
17	0x3e916c6e	0.28403038
18	0x3cf317d0	0.02967444
19	0xbdc059e3	-0.093921445
20	0x3e8446b9	0.25835207
21	0xbd63dbd1	-0.055629555
22	0xbde8d02b	-0.1136783
23	0x3d63cdc3	0.05561615
24	0x3e5853ec	0.21125764
25	0x3dff6744	0.12470868
26	0x3d2b22d6	0.04178127
27	0xbebcc4cc	-0.36868894
28	0xbde098e4	-0.109666616
29	0x3d1672de	0.03673064
30	0x3c6ea27d	0.014565107
31	0x3d993776	0.074812815
32	0xbdab9108	-0.08377272
33	0x3d914190	0.07092583
34	0x3d00afab	0.03141753
35	0xbda081a4	-0.07837227
36	0xbc93b05c	-0.01802843
37	0x3d996926	0.074907586
38	0xbc430a6f	-0.011904343
39	0x3e07a846	0.13247785
40	0x3e020b7e	0.12699696
41	0xbda8b113	-0.08236899
42	0x3e169e7b	0.14708893
43	0xbd793951	-0.060845677
44	0xbd79f64b	-0.0610259
45	0x3dfecc8b	0.12441357
46	0x3e0f2b5e	0.13981387
47	0x3e3eff08	0.18651974
48	0xbdb63bd2	-0.088981286
49	0xbdb3b498	-0.0877468
50	0x3b7dfc3f	0.0038755087
51	0x3cd2ccb3	0.025732374
52	0x3e6cb5af	0.23116182
53	0xbd799fb9	-0.06094334
54	0x3ded23e0	0.11579108
55	0x3c8f3ea9	0.017485933
56	0x3d0e8a5b	0.034799915
57	0xbda3cd49	-0.079981394
58	0xbe03cb30	-0.12870479
59	0xbd8935e9	-0.06699736
60	0xbcfe00b2	-0.03100619
61	0x3dc76b8b	0.09737309
62	0x3e035ee4	0.12829167
63	0x3d24250e	0.0400744
64	0xbc63ed36	-0.013911536
65	0xbe1cba78	-0.15305507
66	0x3cb94173	0.022614216
67	0xbd65cb86	-0.0561023
68	0x3dff6338	0.12470096
69	0x3d829422	0.0637591
70	0xbdb9aabb	-0.090657674
71	0x3e12589c	0.14291614
72	0x3d26599f	0.040612813
73	0xbb8f6238	-0.0043757223
74	0xbd26f4be	-0.040760748
75	0x3dcc4f02	0.09976007
76	0x3db11c57	0.086479835
77	0x3da752f4	0.08170119
78	0x3d985fe6	0.07440166
79	0xbd885ad4	-0.06657949
80	0xbe07ad0b	-0.13249604
81	0x3b562ecf	0.0032681709
82	0x3e2e679a	0.17031708
83	0xbd72e8bd	-0.059303988
84	0x3d6899e3	0.056787383
85	0xbd86f04f	-0.06588804
86	0xbc2decf5	-0.010615577
87	0x3df36852	0.11885132
88	0x3d45fdcf	0.048337754
89	0xbde571a6	-0.11203317
90	0xbaef1971	-0.0018241835
91	0x3e21936b	0.15778892
92	0x3c945c0e	0.018110301
93	0x3e1d0b17	0.15336262
94	0xbe33f2ca	-0.17573085
95	0xbc074700	-0.008256674
96	0x3dceb017	0.1009218
97	0xbc30a1d6	-0.010780772
98	0x3da9e89d	0.082963206
99	0xbe435779	-0.19076337
100	0x3e1bdbb6	0.15220532
101	0xbab3b002	-0.0013709071
102	0xbb08115b	-0.0020762298
103	0xbdb5ff73	-0.08886614
104	0xbcb2615e	-0.021774944
105	0x3c160a00	0.009157658
106	0x3d204a63	0.03913344
107	0xbcee7fb6	-0.029113632
108	0xbd687975	-0.056756455
109	0x3e18648a	0.14882103
110	0x3dbbf6db	0.09177943
111	0x3de8b72c	0.11363062
112	0xbd832b24	-0.06404713
113	0x3e2ebca0	0.17064142
114	0x3c01b845	0.007917468
115	0x3c1a9692	0.009435313
116	0x3b5900f2	0.0033112136
117	0x3da0c8d9	0.07850809
118	0x3e2e8832	0.17044142
119	0xbdd907ae	-0.10597168
120	0xbcac0c52	-0.021001969
121	0xbd87c0f9	-0.066286035
122	0xbdd9b571	-0.1063031
123	0x3d86847d	0.06568239
124	0xbe8667db	-0.2625111
125	0xbe91f097	-0.28503868
126	0xbb33c1f3	-0.0027428835
127	0x3dd9a234	0.10626641
128	0x3e371ec7	0.17882834
129	0xbe3647f5	-0.17800887
130	0xbd076753	-0.033057522
131	0x3e313d51	0.17308547
132	0xbc77c59e	-0.015122799
133	0x3d842da5	0.064540185
134	0x3e58b931	0.21164395
135	0xbce684b0	-0.028139442
136	0xbe0ad950	-0.1355946
137	0xbc5d881d	-0.0135212215
138	0x3aafd658	0.001341532
139	0x3d69f8b8	0.057121962
140	0x3da15439	0.07877392
141	0x3e09bd09	0.13451017
142	0x3e0bf90d	0.13669224
143	0x3c4cf4a8	0.0125095025
144	0xbd7bc88b	-0.06147055
145	0xbdc407ff	-0.09571838
146	0x3e8404fe	0.2578506
147	0xbced5f38	-0.028976068
148	0xbbe48669	-0.0069740308
149	0xbcf35b98	-0.029706761
150	0xbe42db83	-0.1902905
151	0xbdece30d	-0.11566744
152	0xbda6d467	-0.08145981
153	0x3d5564b8	0.052098006
154	0x3da52944	0.080645114
155	0xbd729edd	-0.059233535
156	0x3d22938a	0.039691485
157	0x3dc3daac	0.09563193
158	0x3e124e55	0.14287694
159	0xbdefd0a2	-0.117097154
160	0x3d1d9366	0.03847065
161	0xbdd8b82c	-0.10582003
162	0xbd09e20c	-0.03366284
163	0xbd391fe0	-0.045196414
164	0x3d917895	0.07103077
165	0xbdf2bb05	-0.118520774
166	0xbd4000a6	-0.04687562
167	0xbdc427d7	-0.09577911
168	0xbd6c43cb	-0.05768184
169	0x3d0a4416	0.033756338
170	0xbcd5c2fd	-0.026093954
171	0x3d25573a	0.04036639
172	0x3c70f98c	0.014707934
173	0x3dbd855a	0.092539504
174	0xbd83e0cc	-0.06439361
175	0x3d32339f	0.04350626
176	0x3daf29fc	0.0855293
177	0x3bac9c97	0.0052676904
178	0x3d45969c	0.048239335
179	0xbe025acd	-0.1272995
180	0x3daaa441	0.0833211
181	0x3e670c95	0.22563393
182	0x3d3c04ce	0.04590302
183	0x3dfc45a7	0.12317973
184	0x3ceed76b	0.029155454
185	0x3e1c322b	0.15253513
186	0xbe5a545a	-0.2132124
187	0xbdf60586	-0.12012772
188	0x3d4a9c4b	0.04946546
189	0xbd54fdac	-0.051999733
190	0x3e87ad1f	0.26499268
191	0x3e259ed0	0.16173863
192	0x3c9349a2	0.017979447
193	0xbd0c455b	-0.03424583
194	0xbe801ece	-0.25023502
195	0x3d0bcb83	0.03412963
196	0x3dc30a07	0.09523397
197	0x3e182b05	0.1486016
198	0x3e7fa7cb	0.24966352
199	0xbe26ad37	-0.16277014
200	0x3d4eccfc	0.050488457
201	0x3df4c819	0.11952228
202	0xbd59b7b1	-0.053153697
203	0x3e6677f3	0.22506694
204	0xbe14ef70	-0.14544463
205	0x3d2f9b80	0.042872906
206	0xbe1209c0	-0.14261532
207	0x3d2fc06b	0.042908113
208	0x3b0270bf	0.0019903628
209	0x3dbd9f88	0.09258944
210	0x3bade071	0.0053062965
211	0xbca78fb7	-0.02045427
212	0xbd847e5e	-0.06469415
213	0xbe17d21f	-0.14826249
214	0x3f23a8eb	0.63929623
215	0xbe0651c6	-0.13117132
216	0xbe85f1e5	-0.26161113
217	0xbc538d4e	-0.012912108
218	0x3da6fdcc	0.08153877
219	0xbd151a40	-0.036401987
220	0xbe5a8060	-0.21338034
221	0x3dcf1c52	0.101128235
222	0x3dd25328	0.10269767
223	0x3dd314a9	0.10306675
224	0xbe2ff625	-0.1718374
225	0xbddec4ff	-0.10877418
226	0xbe54872e	-0.20754692
227	0x3d18678e	0.037208132
228	0xbdd9e8d1	-0.10640109
229	0xbe1f6b93	-0.1556838
230	0xbf0cd2dd	-0.5500925
231	0x3bcceaed	0.0062535913
232	0xbd0b9768	-0.03407994
233	0x3e13b704	0.14425284
234	0x3e93112e	0.28724045
235	0xbd28a824	-0.041175976
236	0x3cb0cba1	0.021581473
237	0xbdfbcf35	-0.12295381
238	0xbda8b4e9	-0.08237631
239	0x3c8766e7	0.01652856
240	0xbd844ceb	-0.064599834
241	0x3dcd9d4d	0.10039768
242	0xbd477899	-0.048698995
243	0xbcbb86ee	-0.022891488
244	0x3e28b2c5	0.16474445
245	0xbdfd6f83	-0.12374785
246	0xbb5380ae	-0.0032272744
247	0x3d34aeb2	0.044111915
248	0x3e8afb04	0.27144635
249	0xbe886df2	-0.26646382
250	0x3d6666bb	0.056250315
251	0xbbf655eb	-0.0075175664
252	0x3dbaf1d6	0.09128158
253	0x3c9d114b	0.019173285
254	0xbe309016	-0.17242464
255	0x3cb5a7c3	0.022174722

weight_hh f4 [512, 128]
0	0xbe2d4730	-0.16921687
1	0xbe0cd119	-0.1375164
2	0x3cf497f1	0.029857608
3	0xbcc8a9f7	-0.024495108
4	0xba5c207c	-0.00083971745
5	0x3d1f45e3	0.03888501
6	0x3defe06d	0.11712728
7	0xbcbc7ef7	-0.02300976
8	0x3e374930	0.17899013
9	0xbbc9daf1	-0.006160133
10	0x3c7f770d	0.015592349
11	0x3b8e0a23	0.0043347045
12	0xbe0531a0	-0.13007212
13	0xbdbe707c	-0.092987984
14	0x3cb67723	0.022273606
15	0xbce1257e	-0.027483698
16	0xbd2abe90	-0.04168564
17	0x3d996d3a	0.074915364
18	0xbc0e8077	-0.008697621
19	0xbe07a1b1	-0.13245274
20	0xbdb8c098	-0.09021109
21	0xbc254132	-0.010086345
22	0x3dd3fe11	0.10351194
23	0x3d3d83f7	0.04626843
24	0x3c5322a6	0.012886679
25	0x3dece258	0.11566609
26	0xbd1cde3d	-0.03829788
27	0x3e1dea61	0.1542144
28	0xbd001c67	-0.031277087
29	0xbd8d8b94	-0.06911388
30	0x3e10176d	0.14071436
31	0xbd15645b	-0.03647266
32	0xbd3ea36a	-0.046542563
33	0xbe41835b	-0.18897764
34	0xbcebac7a	-0.028768767
35	0xbdcc9789	-0.099898405
36	0xbb9640e8	-0.004585374
37	0xbd000104	-0.03125097
38	0x3d9b23e7	0.07575207
39	0x3ca6b2d1	0.020348938
40	0x3e114be9	0.14189114
41	0x3db35110	0.08755696
42	0xbd6fa8c9	-0.058510575
43	0xbd2ce5d6	-0.042211376
44	0x3d91a667	0.07111817
45	0xbe24c99b	-0.16092531
46	0xbc22cad9	-0.009936058
47	0x3da60a7a	0.08107467
48	0xbddbae5a	-0.10726614
49	0x3dcb8808	0.09938055
50	0x3d67499b	0.05646668
51	0xbd2eef0a	-0.042708434
52	0xbbc2ad40	-0.005941063
53	0x3cff0311	0.031129392
54	0xbc8298f9	-0.015942084
55	0x3d07f5e9	0.033193503
56	0xbdb3a390	-0.087714314
57	0xbd527e0b	-0.051389735
58	0x3d24e23e	0.040254824
59	0xbdd97674	-0.10618296
60	0x3c8a6c2d	0.016897285
61	0x3d6acbc5	0.057323236
62	0x3e263a2d	0.1623313
63	0xbe3dcaa7	-0.18534337
64	0xbbc67128	-0.0060559697
65	0x3c852a33	0.016255474
66	0xbd55329c	-0.052050218
67	0x3d8c04ae	0.0683683
68	0x398f1984	0.00027294096
69	0x3c94fc5f	0.018186746
70	0xbd189bb5	-0.03725787
71	0xbdca5053	-0.09878602
72	0x3d8969f5	0.06709663
73	0xbe09fe15	-0.13475831
74	0xbd1a90b7	-0.037735667
75	0x3b6456c6	0.003484176
76	0xbe10caf2	-0.14139917
77	0xbb336b2d	-0.0027377114
78	0xbc0a6f20	-0.008449346
79	0x3c9a425e	0.018830474
80	0x3d1ab275	0.037767846
81	0xbc083443	-0.008313241
82	0x3da56097	0.08075064
83	0xbe216847	-0.15762435
84	0xbd384d38	-0.044995517
85	0x3d5a8951	0.05335361
86	0x3e149e41	0.14513494
87	0x3e19c326	0.1501585
88	0xbe3935c1	-0.18086912
89	0xbd36323b	-0.044481497
90	0xbcd236f7	-0.025660975
91	0xba57088f	-0.00082028745
92	0x3d2b1bab	0.041774433
93	0xbd963778	-0.073347986
94	0xbdeacd57	-0.11464947
95	0xbc7a27b6	-0.015268257
96	0x3c5fd4b3	0.013661551
97	0xbdd17eea	-0.10229285
98	0x3e1b0511	0.15138651
99	0xbd99f7b7	-0.07517951
100	0x3d526762	0.051368125
101	0x3cbc8d6d	0.023016656
102	0x3dc4a546	0.09601836
103	0xbda17b6e	-0.078848705
104	0xbd6a408b	-0.05719046
105	0xbd5f33a5	-0.05449261
106	0x3d64a18c	0.055818126
107	0xbe42f92d	-0.19040366
108	0xbd3a05e4	-0.045415774
109	0x3c92816d	0.01788398
110	0x3da0dc68	0.07854539
111	0xbda31fb8	-0.07965034
112	0x3d08ec2d	0.03342836
113	0xbc5bed23	-0.013423237
114	0x3ccefd71	0.025267335
115	0x3decd468	0.11563951
116	0x3ce3d811	0.02781299
117	0x3c776b27	0.015101231
118	0x3ce129fe	0.027485844
119	0xbd37c054	-0.044861153
120	0xbcedd267	-0.029030992
121	0x3c71a7f0	0.014749512
122	0xbe087968	-0.13327563
123	0x3cadc5f3	0.021212554
124	0xbd1d02a3	-0.038332593
125	0x3c45e271	0.012077914
126	0x3d80f8f1	0.06297482
127	0x3d935362	0.071936384
128	0xbc48f372	-0.012265073
129	0xbd371e58	-0.044706672
130	0x3db38dcb	0.08767279
131	0xbdd50cd4	-0.104028374
132	0xbd293a21	-0.0413152
133	0x3e11008a	0.14160362
134	0x3d30c023	0.043151986
135	0xbdd15130	-0.102205634
136	0x3e36dd07	0.17857753
137	0x3c39a65d	0.011331168
138	0x3daafb70	0.08348739
139	0x3d3f7d58	0.046750396
140	0x3d5a1bcf	0.053249177
141	0xbdaaaed3	-0.08334126
142	0x3ddb4c39	0.10707898
143	0x3d8bc06a	0.068238094
144	0xbb32b60c	-0.0027269153
145	0xbd2b5374	-0.041827634
146	0x3de00ae8	0.1093958
147	0x3d75d9a1	0.060022
148	0xbce962c3	-0.028489476
149	0x3e123f7b	0.14282028
150	0x3d4c3fce	0.049865536
151	0x3c1127cb	0.008859585
152	0x3d7ded53	0.061993908
153	0x3b6ef773	0.003646341
154	0x3aecec19	0.0018075734
155	0x3dc050b4	0.09390393
156	0x3d89dcc1	0.067315586
157	0xbddafe17	-0.10692995
158	0x3da4f131	0.08053816
159	0xbd0cbf85	-0.034362335
160	0xbd56180a	-0.05226902
161	0xbdc54f23	-0.09634235
162	0xbd95b854	-0.073105484
163	0xbcd0773b	-0.025447479
164	0xbe092c3c	-0.1339578
165	0xbbf9c81b	-0.0076227314
166	0x3e22621a	0.15857735
167	0xbd3eb037	-0.04655477
168	0xbc6d13f9	-0.014470094
169	0xbc9d314d	-0.019188548
170	0xbd111648	-0.03542164
171	0xbde063fe	-0.10956572
172	0xbd0fac7f	-0.035076614
173	0x3cc53ff6	0.02407835
174	0x3da5a7ec	0.08088669
175	0x3e204df4	0.15654737
176	0xbc30a900	-0.01078248
177	0xbcf492dd	-0.029855186
178	0xbd14b619	-0.036306474
179	0x3db5b5b0	0.08872545
180	0x3caf283f	0.021381496
181	0xbc44cd6e	-0.012011869
182	0xbc8b5452	-0.01700798
183	0x3ddd372c	0.10801539
184	0x3de0c6bf	0.10975408
185	0xbdd7023f	-0.10498475
186	0x3da59c9c	0.080865115
187	0xbb0eb810	-0.002177719
188	0xbd809642	-0.062786594
189	0x3c89910f	0.016792802
190	0xbcae5b30	-0.021283716
191	0xbcab4ebf	-0.020911573
192	0xbd9845c6	-0.07435183
193	0x3d8c6b39	0.068563886
194	0xbc356b2c	-0.011072915
195	0xbdbf7a7c	-0.09349534
196	0x3d8dd59f	0.069255106
197	0xbcd12402	-0.025529865
198	0xbc238a5d	-0.009981719
199	0xbd9b3bce	-0.07579766
200	0xbbc5dd1a	-0.0060383203
201	0xbde5cbc1	-0.112205036
202	0x3d874942	0.0660577
203	0x3db78c98	0.08962363
204	0xbde6a89e	-0.1126263
205	0x3c6d3452	0.014477806
206	0xbd777b7d	-0.060420502
207	0x3c02a098	0.007972859
208	0xbe21dbec	-0.1580655
209	0xbbdcd602	-0.006739379
210	0x397bb51a	0.00024004691
211	0x3c7196ac	0.014745396
212	0xbd848bc8	-0.06471974
213	0xbd4921b3	-0.049104404
214	0xbd833485	-0.06406502
215	0xbdb95f3e	-0.09051369
216	0xbcba8b44	-0.022771485
217	0x3ca3e406	0.020006191
218	0x3e19576b	0.14974754
219	0x3d86aaa0	0.06575513
220	0x3ddd4690	0.10804474
221	0x3d10c65f	0.03534543
222	0xbc42b028	-0.011882819
223	0x3c912a3c	0.017720334
224	0xbcba1579	-0.022715317
225	0xbd9cca42	-0.07655765
226	0xbbbed60d	-0.0058238567
227	0x3d5725d3	0.052526306
228	0xbdd07469	-0.101784535
229	0xbd221889	-0.03957418
230	0xbd0ade43	-0.03390337
231	0xbd04fbc2	-0.032466657
232	0xbd9ef0d0	-0.07760775
233	0xbb184263	-0.002323293
234	0x3d46252d	0.048375297
235	0xb860803a	-5.3525182e-05
236	0xbc06993e	-0.008215247
237	0xbd80e03b	-0.062927686
238	0x3ca29989	0.019848602
239	0xbccc1072	-0.024910185
240	0x3deacbcd	0.11464653
241	0xbcc39190	-0.02387312
242	0x3c83a9dc	0.016072206
243	0xbdebb3af	-0.11508881
244	0xbca4ac2e	-0.020101633
245	0xbd627532	-0.055287547
246	0x3dd35bd3	0.103202485
247	0xbc41bf65	-0.011825417
248	0x3ba3ec25	0.005002516
249	0xbd1aeeca	-0.037825383
250	0xbd306e22	-0.04307378
251	0xbd74a92e	-0.059731655
252	0x3dd5fe72	0.10448922
253	0x3da97bd3	0.08275571
254	0x3d0f708c	0.035019442
255	0x3db2aa49	0.087238856

bias_ih f4 [512]
0	0x3da51022	0.08059718
1	0x3e0dc95f	0.13846348
2	0x3e3a9f55	0.18224843
3	0x3e101952	0.14072159
4	0x3d867428	0.06565124
5	0x3e2681cd	0.16260453
6	0xbac1e6a2	-0.0014793465
7	0x3d5040d4	0.050843075
8	0x3d056bc3	0.032573473
9	0x3e202392	0.15638569
10	0x3cb2ab35	0.021810153
11	0x3d33ab54	0.043864563
12	0x3e259feb	0.16174285
13	0xbcf51c47	-0.02992071
14	0xbcf3b316	-0.02974848
15	0x3e1e4636	0.15456471
16	0x3d8f25c9	0.06989629
17	0x3d46dd6c	0.048551008
18	0x3e62695b	0.22110502
19	0x3d306c8a	0.04307226
20	0xbc3ef387	-0.011654741
21	0x3e258b8c	0.16166514
22	0x3e04c769	0.12966694
23	0x3e3b6b6c	0.18302697
24	0xbc641768	-0.013921596
25	0x3d69872d	0.05701368
26	0x3d09bf6f	0.03362983
27	0x3d47a190	0.048738062
28	0x3e95a548	0.29227662
29	0x3dbb8f1c	0.09158155
30	0x3e875dac	0.26438653
31	0x3d690df6	0.05689808
32	0x3dddfb55	0.108389534
33	0x3e18dfa7	0.14929067
34	0x3e3ffea2	0.18749478
35	0xbd3e0c20	-0.046398282
36	0x3e446119	0.19177665
37	0x3db92547	0.09040313
38	0x3cc1f16b	0.023674687
39	0x3e050400	0.12989807
40	0x3de423ba	0.11139627
41	0x3e219f36	0.1578339
42	0x3d4d0149	0.050050054
43	0x3e18abcc	0.14909285
44	0x3e93658d	0.28788415
45	0x3e00a888	0.1256429
46	0x3dfe16e1	0.124067076
47	0x3e0b9aaf	0.13633226
48	0x3e42e5c4	0.19032961
49	0xbd089cb5	-0.033352572
50	0x3dc05b99	0.09392471
51	0xbcbfe6aa	-0.023425419
52	0x3d88aafd	0.066732384
53	0x3e179fa4	0.14806992
54	0x3e1f1e3c	0.15538877
55	0x3e5cb953	0.2155507
56	0x3d2a5c2e	0.041591816
57	0x3dede27d	0.11615465
58	0x3e02207f	0.12707709
59	0x3e15b8b7	0.14621244
60	0x3cc01025	0.023445198
61	0x3dd90eaf	0.10598504
62	0x3ea431a0	0.3206911
63	0x3e33352a	0.17500749
64	0xbdb14088	-0.086548865
65	0x3e0ac7aa	0.13552728
66	0xbcc4ec6b	-0.024038514
67	0x3da6893d	0.08131645
68	0x3e7eead4	0.24894267
69	0x3e1435b9	0.14473619
70	0x3e79e036	0.24401936
71	0xbcff938c	-0.031198286
72	0x3d823dd3	0.06359448
73	0x3cde9c01	0.027173998
74	0x3dd21631	0.10258139
75	0x3d1fa5f4	0.038976625
76	0x3e304f0e	0.17217657
77	0xba0d39ab	-0.00053873163
78	0x3e64ae34	0.22332078
79	0x3d991265	0.074742116
80	0x3e082682	0.1329594
81	0x3dd64f2f	0.10464322
82	0x3d84694f	0.064653985
83	0x3e2398a4	0.15976197
84	0x3dec7d7f	0.11547374
85	0x3df38cf5	0.1189212
86	0x3d059600	0.032613754
87	0x3d4b1211	0.049577776
88	0x3dd4496a	0.10365565
89	0x3e50ee96	0.20403513
90	0x3e3d3f68	0.18481219
91	0x3ce88d2b	0.028387627
92	0x3e805873	0.2506748
93	0x3e170f05	0.14751823
94	0x3e38fed0	0.18065953
95	0x3deffdac	0.11718306
96	0xbb8b5732	-0.004252338
97	0x3dccbcf8	0.099969804
98	0x3e3f0937	0.18655859
99	0x3e14ff2c	0.14550465
100	0x3e0c9fe4	0.13732868
101	0x3dbdb6b3	0.09263363
102	0x3c32e9cb	0.010919998
103	0x3db7ca89	0.089741774
104	0x3de40f9f	0.11135792
105	0x3d59e9be	0.05320143
106	0x3e0f968a	0.1402227
107	0x3d8eab77	0.06966298
108	0x3e3163b2	0.17323187
109	0xbd350496	-0.044193827
110	0x3d58a868	0.05289498
111	0x3e03f1dd	0.12885232
112	0x3dc9a417	0.09845751
113	0xbd64286b	-0.055702608
114	0x3e065e61	0.1312194
115	0xbc2e7cc8	-0.010649867
116	0x3dbaba1b	0.09117528
117	0x3d558cea	0.05213634
118	0xbbdbd30c	-0.0067085084
119	0x3dcf0e5d	0.101101615
120	0x3c8140c1	0.015777947
121	0x3bbb4f65	0.0057162517
122	0x3d38a314	0.0450774
123	0x3e2de3e0	0.16981459
124	0xbd1d01df	-0.038331863
125	0xbd3c91f5	-0.046037633
126	0x3dd4997a	0.10380836
127	0x3dce319c	0.10068056
128	0xbd769d0c	-0.060208365
129	0x3d8701a8	0.06592113
130	0x3da0836b	0.07837566
131	0xbd55b0ee	-0.052170686
132	0xbd52491b	-0.05133925
133	0xbe12430c	-0.14283389
134	0x3d12c3d3	0.035831284
135	0x3de44215	0.11145417
136	0xbce9073c	-0.028445832
137	0xbd3fcbf6	-0.04682537
138	0x3d2d70fc	0.04234408
139	0xbc7b96ef	-0.01535581
140	0x3cbe3291	0.023217471
141	0x3d17fffa	0.037109353
142	0x3da7b41f	0.08188652
143	0x3d64b4af	0.055836376
144	0x3d7968c4	0.060890928
145	0x3d945469	0.072426625
146	0xbd5d91e4	-0.05409421
147	0x3c305ea6	0.010764753
148	0x3dd577c9	0.10423238
149	0x3d5467b2	0.051856704
150	0xbd0b39f7	-0.033990826
151	0x3d895c58	0.06707066
152	0xbcd2ae03	-0.02571774
153	0x3d3748fd	0.04474734
154	0xbe046df8	-0.12932575
155	0xbd9ad52a	-0.07560189
156	0x3d40d9ad	0.04708259
157	0x3d55768b	0.052115005
158	0xbb2f677b	-0.002676456
159	0x3d1e8aa3	0.038706433
160	0xbd5a17b6	-0.05324527
161	0xbd6bd6eb	-0.05757801
162	0xbd931d9c	-0.07183382
163	0xbd64eb01	-0.05588818
164	0xbdb75fc9	-0.089538164
165	0x3ce9ef2d	0.02855643
166	0x3dd31b81	0.1030798
167	0x3d364b59	0.04450545
168	0x3d2ffdaf	0.04296654
169	0xbd537fa3	-0.051635396
170	0x3d6dc76a	0.058051504
171	0xbae99794	-0.0017821663
172	0xbe2d07fb	-0.16897576
173	0x3da3a861	0.079911
174	0x3e0b7711	0.13619639
175	0xbd36de71	-0.04464573
176	0xbd600e2f	-0.054701027
177	0x3d19dd1d	0.037564386
178	0x3dfbcf60	0.12295413
179	0xbb89506c	-0.0041904952
180	0xbe0bf4c0	-0.13667583
181	0x3b594ff5	0.003315923
182	0xbd9bdf2d	-0.07610927
183	0x3dba4479	0.090950914
184	0xbd852ec7	-0.06503063
185	0xbcd1b657	-0.025599642
186	0xbbf1bee2	-0.0073774913
187	0xbdce122d	-0.100620605
188	0xbc4fb64b	-0.012677739
189	0xbdb00eaa	-0.08596547
190	0xbe0bd05b	-0.136537
191	0xbcdff89d	-0.027340228
192	0x3d7e9b45	0.062159795
193	0x3dca5e7d	0.098813035
194	0xbd5a1d8a	-0.053250827
195	0xbd98dbc0	-0.07463789
196	0xba91ce43	-0.0011124093
197	0xbd39f4b4	-0.045399383
198	0xbd1cbab5	-0.038263995
199	0xbd15882f	-0.036506828
200	0xbdbcece2	-0.09224869
201	0xbda04411	-0.07825483
202	0x3cfa6368	0.030564979
203	0x3aeb8016	0.001796725
204	0x3dc4f408	0.09616858
205	0xbc800b45	-0.015630374
206	0x3db8dd77	0.09026616
207	0xbd2ade67	-0.041716006
208	0x3d8b7cd1	0.06810916
209	0x3d6186fc	0.05506037
210	0xbda75b43	-0.08171704
211	0x3dedbd66	0.116083905
212	0x3da5f3fe	0.081031784
213	0xbd3b483e	-0.045723192
214	0xbd856944	-0.065142184
215	0x3d7fa63d	0.062414397
216	0xbd0ec688	-0.034857303
217	0x3cf379a2	0.029721085
218	0x3dd9416d	0.10608182
219	0x3c1b2e16	0.009471437
220	0xbda60e1f	-0.08108162
221	0x3c575313	0.013142365
222	0x3d278df8	0.040906876
223	0x3dc5c16f	0.09656035
224	0x3deff03c	0.11715743
225	0xbd7710f2	-0.060318895
226	0xbbb8c75e	-0.005639001
227	0xbdbbf428	-0.091774285
228	0xbe390b88	-0.18070805
229	0xbd234d0c	-0.0398684
230	0xbd0a98c7	-0.033837106
231	0x3d55fd87	0.052243736
232	0x3da26414	0.07929245
233	0xba23b7a4	-0.0006245321
234	0xbcbe6641	-0.023242118
235	0x3dd4b789	0.10386569
236	0x3c76d6b1	0.015065835
237	0x3c82069c	0.015872292
238	0xbd6b1a42	-0.05739809
239	0xbd8e3b9c	-0.06944963
240	0xbe1aac32	-0.1510475
241	0x3d686864	0.05674018
242	0xbcc49af2	-0.023999665
243	0x3d811420	0.06302667
244	0xbe0ca4ca	-0.13734737
245	0xbac39151	-0.0014920627
246	0xbd8e2b4b	-0.06941851
247	0xbca21c4a	-0.01978888
248	0x3da12ecf	0.07870256
249	0xbbca4567	-0.006172824
250	0x3cfddddc	0.03098958
251	0x3d53741f	0.051624414
252	0x3d33b9b0	0.043878257
253	0x3d730332	0.05932922
254	0x3e0ecb82	0.1394482
255	0xbdae1fce	-0.0850216

bias_hh f4 [512]
0	0x3d88392e	0.06651531
1	0x3e0d1d4b	0.13780706
2	0x3e0b369f	0.13595055
3	0x3e3e36b0	0.18575549
4	0x3cbfec07	0.023427976
5	0x3e7b576d	0.24545069
6	0xba122aee	-0.0005575855
7	0x3d1f282a	0.038856663
8	0x3e1d6a29	0.15372528
9	0x3e376796	0.17910609
10	0x3b875410	0.004129894
11	0x3d5098e8	0.050927073
12	0x3e47d7d9	0.19515933
13	0xbd97ff91	-0.07421792
14	0xbc5f5374	-0.013630737
15	0x3c9e417c	0.019318335
16	0x3dccc9e3	0.09999444
17	0x3d568ff8	0.052383393
18	0x3dd4fa68	0.10399324
19	0x3dbb06c4	0.0913215
20	0x3d7f9088	0.062393695
21	0x3e6edd3c	0.23326582
22	0x3e0480da	0.12939778
23	0x3d887e36	0.06664698
24	0xbc4970ca	-0.012294957
25	0x3e3f4402	0.18678287
26	0x3cda689a	0.026661206
27	0x3d884c77	0.066552095
28	0x3e41ac8c	0.18913478
29	0x3ccccf85	0.025001297
30	0x3e4df45e	0.2011275
31	0x3d9f59d5	0.07780806
32	0x3e16ba92	0.14719608
33	0x3e2c2d03	0.16814046
34	0x3e3d8b72	0.18510225
35	0x3ca2cd79	0.019873368
36	0x3e076681	0.13222696
37	0x3e101398	0.14069974
38	0x3e0a02d8	0.13477647
39	0x3df9232f	0.12164914
40	0x3b467dc4	0.0030287364
41	0x3e3297ac	0.1744067
42	0x3cb8d991	0.022564681
43	0x3e079a6e	0.13242504
44	0x3e488383	0.19581418
45	0x3d0cbe6c	0.034361288
46	0x3df5d141	0.12002803
47	0x3e249d81	0.16075708
48	0x3dc6f756	0.09715144
49	0x3dc12357	0.09430569
50	0x3c3264e4	0.010888312
51	0xbd5ec2e0	-0.054385066
52	0xbd132d23	-0.035931718
53	0x3e0bc862	0.13650659
54	0x3da9eda0	0.082972765
55	0x3e0c4447	0.1369792
56	0xbc2df071	-0.010616408
57	0x3db5d9a7	0.088794045
58	0x3e06b9cc	0.13156813
59	0x3cbb0508	0.022829548
60	0x3c0d2558	0.0086148605
61	0x3cf43522	0.029810492
62	0x3e821280	0.2540474
63	0x3e28fb58	0.1650213
64	0x3d2c397d	0.042047013
65	0x3d010ab4	0.031504348
66	0x3c9b45b3	0.018954134
67	0xbc7bc756	-0.01536735
68	0x3e4f3c6a	0.2023789
69	0x3d9a628f	0.0753833
70	0x3e28b394	0.16474754
71	0xbd0021c6	-0.03128221
72	0x3af73814	0.0018861317
73	0x3d24bcfa	0.040219285
74	0x3dbbb083	0.09164526
75	0x3c6b28de	0.014353005
76	0x3e002875	0.12515433
77	0x3dcddaf5	0.10051528
78	0x3e29580c	0.16537493
79	0x3e45cbc1	0.19316007
80	0x3e266c15	0.16252168
81	0x3df732ab	0.12070211
82	0x3e0ba08a	0.1363546
83	0x3dfcb93b	0.123400174
84	0x3dbadebf	0.09124517
85	0x3da88513	0.08228507
86	0x3e04aaa8	0.12955725
87	0x3d34f4eb	0.044178884
88	0x3d570c92	0.052502222
89	0x3e64f0fc	0.22357553
90	0x3e25e97a	0.16202345
91	0x3e028dc4	0.12749392
92	0x3e34d38a	0.17658821
93	0x3d81054c	0.062998384
94	0x3e3c4c3e	0.18388459
95	0x3dfa4f3c	0.12222144
96	0x3dc1233c	0.094305485
97	0x3dd1305e	0.102143034
98	0x3e00751b	0.12544672
99	0x3e90fdca	0.28318626
100	0x3e1fbb84	0.15598875
101	0x3e1c1f90	0.15246415
102	0x3dc7c646	0.097546145
103	0x3d4e7fc9	0.050414834
104	0x3e4cbdf3	0.19994335
105	0x3dd22082	0.102601066
106	0x3d8403ed	0.06446061
107	0x3e107712	0.14107922
108	0x3df311ba	0.118686154
109	0x3d243e5e	0.04009854
110	0x3b89ca07	0.0042049917
111	0x3e70b981	0.23508264
112	0x3dc139c1	0.09434844
113	0xbb855f38	-0.004070189
114	0x3ca5f7d9	0.020259785
115	0x3d1adc15	0.037807543
116	0x3e014b5e	0.12626407
117	0x3ce963f4	0.028490044
118	0x3e06de42	0.13170722
119	0x3d9b1ccb	0.07573851
120	0x3c38941e	0.011265783
121	0x3bd15865	0.0063887113
122	0x3d780bb4	0.060558036
123	0x3e2b1238	0.16706169
124	0x3dda1b0e	0.106496915
125	0x3d3b88f5	0.04578491
126	0x3df37fa4	0.1188958
127	0xbd0d6abf	-0.03452563
128	0xbcf8063c	-0.03027641
129	0x3d8e8206	0.06958394
130	0xbdb943e7	-0.090461545
131	0x3b723676	0.003695873
132	0xbd7f7ad1	-0.062372986
133	0xbde03153	-0.10946908
134	0x3c8d6287	0.017258896
135	0x3d8e99d5	0.06962935
136	0x3cabdfca	0.020980734
137	0xbd97e432	-0.07416572
138	0x3beb7aa3	0.0071862503
139	0xbd690ca0	-0.056896806
140	0xbdd760b2	-0.1051649
141	0xbd1851a6	-0.03718724
142	0x3d947b8d	0.07250128
143	0xbcbf3d3a	-0.023344625
144	0xba8afc51	-0.0010603761
145	0xbd141668	-0.03615418
146	0xbd27ac9c	-0.040936098
147	0x3d44e625	0.048071045
148	0x3d402516	0.046910368
149	0xbb961268	-0.004579831
150	0xbd3f24c9	-0.04666594
151	0xbd33b0a7	-0.04386964
152	0x3d87c59b	0.06629487
153	0x3c0a3566	0.008435583
154	0x3ccf9462	0.02533931
155	0xbce6499a	-0.028111268
156	0x3ce2299f	0.027607737
157	0x3cc84797	0.0244482
158	0xbe29b4fb	-0.16572945
159	0xbd72dfb7	-0.059295382
160	0x3da37e7b	0.079831086
161	0xbda2486f	-0.07923972
162	0xbe644c7f	-0.22294806
163	0x3d984a76	0.07436077
164	0x3ce09b56	0.02741782
165	0x3daf8c3d	0.0857167
166	0x3db7f14d	0.08981571
167	0xbd0f0c35	-0.03492375
168	0x3dfa59d4	0.122241646
169	0xbe2453da	-0.16047612
170	0x3d6132aa	0.054979958
171	0xbd766899	-0.060158346
172	0xbbc292c6	-0.005937907
173	0xbd936ac9	-0.07198102
174	0xbcdca59b	-0.026934436
175	0x3d373ce9	0.044735823
176	0x3db5c304	0.08875087
177	0xbd7ce702	-0.061743744
178	0x3e16c177	0.14722238
179	0x3c119606	0.008885866
180	0xbc0efe58	-0.008727632
181	0x3cb664e0	0.022264898
182	0xbe075a51	-0.13218047
183	0x3e131da6	0.14366779
184	0x3dabf51d	0.08396361
185	0x3cbfb6e5	0.02340264
186	0xbdbc119d	-0.09183047
187	0x3bf21fdd	0.0073890523
188	0x3d7c58f6	0.061608277
189	0x3cf4ef70	0.029899329
190	0xbde0e673	-0.10981455
191	0x3dacf8d7	0.084459
192	0xba40da75	-0.00073567714
193	0x3c3c5b76	0.011496415
194	0x3d349fb2	0.04409761
195	0x3d29d06f	0.041458543
196	0xbda42963	-0.080157064
197	0xbd11a9ec	-0.03556244
198	0xbe0f3d35	-0.13988192
199	0x3de75621	0.11295725
200	0x3d8ace74	0.06777659
201	0xba57b6f3	-0.00082288607
202	0xbd5ce9c3	-0.05393387
203	0xbdae56de	-0.08512662
204	0x3db28b1e	0.08717941
205	0xbdae7909	-0.085191794
206	0x3d5f5c94	0.05453165
207	0xbdca97c3	-0.098922275
208	0xbcc8841e	-0.02447706
209	0xbd425fd8	-0.047454685
210	0xbdfefd60	-0.12450671
211	0x3dbe8598	0.09302825
212	0x3d81583e	0.06315659
213	0xbd227478	-0.039661855
214	0x3dcde194	0.10052791
215	0x3b970e83	0.004609884
216	0x3c718859	0.0147419805
217	0x3d92863e	0.07154511
218	0x3da4cc83	0.0804682
219	0xbac71c39	-0.0015190906
220	0xbd45fab5	-0.048334796
221	0xbd3d5edd	-0.046233047
222	0x3c861a89	0.016370075
223	0x3d2a820a	0.04162792
224	0x3df56f92	0.11984171
225	0xbd906f6c	-0.07052502
226	0x3c97ac6f	0.01851484
227	0xbc91ddab	-0.017805895
228	0xbde6e9e8	-0.11275083
229	0xbc2eca59	-0.010668361
230	0xbcd24c77	-0.025671227
231	0x3da4a8b1	0.08039988
232	0x3dc7b376	0.09751026
233	0x3d298efd	0.04139613
234	0xbd2cfe21	-0.042234544
235	0xbd08f5aa	-0.03343741
236	0x3cee99b9	0.029126035
237	0x3da96a76	0.08272259
238	0xbd9de9c5	-0.077106036
239	0xbd0ddb32	-0.03463287
240	0xbe2fd392	-0.17170551
241	0xbda66d1b	-0.08126279
242	0xbd84b627	-0.06480055
243	0xbd5edfac	-0.05441253
244	0xbdde7836	-0.10862772
245	0xbd2ee7c1	-0.042701486
246	0xbcd81af9	-0.026380049
247	0xbd697d56	-0.057004295
248	0x3d8a9b1f	0.06767868
249	0x3c47c631	0.012193249
250	0xbd2805f3	-0.0410213
251	0xbd3d0e2b	-0.04615609
252	0x3dbd5e34	0.092464834
253	0xb881db47	-6.192043e-05
254	0x3dad96b0	0.08476007
255	0x3cbc2777	0.022968037

weight_ih f4 [512, 128]
0	0xbc961e1d	-0.018324906
1	0xbd216fcf	-0.03941327
2	0xbd8efe50	-0.069821
3	0xbbb6e9b4	-0.005582059
4	0xbc4326f1	-0.01191114
5	0xbdac1d1c	-0.0840399
6	0xbe421042	-0.18951514
7	0x3d27c5b3	0.040960025
8	0x3dcd3fd5	0.100219406
9	0x3d9aac9c	0.07552454
10	0xbd58bdc1	-0.05291534
11	0xbe0f6d01	-0.14006425
12	0xbe5740f2	-0.21020868
13	0xbc249f94	-0.010047812
14	0xbd058221	-0.032594804
15	0x3d58f906	0.052971862
16	0x3d0b9776	0.03407999
17	0xbd988b1e	-0.074484095
18	0xbdd39406	-0.103309676
19	0xbd54c509	-0.05194572
20	0x3da882b5	0.082280554
21	0x3d5e9d7a	0.0543494
22	0xbe384b1b	-0.179974
23	0x3c6cdf4d	0.014457536
24	0xbd006291	-0.031344
25	0x3dddf2e1	0.10837341
26	0x3e2daad2	0.16959694
27	0xbcc05f89	-0.023483055
28	0x3d6c5ea3	0.05770744
29	0x3c5cfd9b	0.013488199
30	0x3dcc4980	0.099749565
31	0x3e4c7dfe	0.19969937
32	0x3ddc1a81	0.10747243
33	0xbdfa4117	-0.12219446
34	0xbdbe0936	-0.092791006
35	0x3ca22560	0.019793212
36	0xbd271cf4	-0.040799096
37	0xbcd2aa47	-0.02571596
38	0xbd0018ed	-0.03127377
39	0xbe10f750	-0.14156842
40	0x3d919594	0.07108608
41	0xbcdbd803	-0.0268364
42	0xbd7c884c	-0.06165342
43	0xbcb5ce12	-0.022192989
44	0xbd412e36	-0.04716321
45	0x3bcf15f0	0.006319754
46	0xbd5c1014	-0.05372627
47	0xbe19e857	-0.15030037
48	0x3de6e127	0.11273413
49	0xbe384a8c	-0.17997187
50	0xbce42940	-0.0278517
51	0xbdcb98ac	-0.09941229
52	0xbcd03318	-0.025414988
53	0xbdb7659f	-0.089549296
54	0x3d87d1da	0.06631823
55	0xbe27b7bb	-0.16378681
56	0x3c2f0aec	0.010683756
57	0xbe086bce	-0.13322374
58	0x3ce15180	0.027504683
59	0xbdbdb2db	-0.092626296
60	0x3e0401f9	0.12891378
61	0xbdd9f0c4	-0.106416255
62	0x3e2ec01d	0.17065473
63	0xbd72823c	-0.059206232
64	0xbe4344f8	-0.19069278
65	0x3c78d5b4	0.01518767
66	0x3c9f028e	0.019410398
67	0xbe0f1917	-0.13974415
68	0xbd999455	-0.07498995
69	0x3caf87fa	0.021427143
70	0x3e5c2727	0.2149931
71	0xbc29e59e	-0.010369686
72	0xbc4eb005	-0.0126152085
73	0x3da5b960	0.08091998
74	0xbd8cf3c3	-0.06882431
75	0xbbd4c7e3	-0.006493555
76	0xbd38438d	-0.044986296
77	0xbd741bed	-0.059596945
78	0xbc45d7cb	-0.012075375
79	0x3c182e63	0.009288403
80	0xbce2b4bc	-0.027674071
81	0x3da75a65	0.08171538
82	0xbd39666e	-0.0452637
83	0xbe0f58c2	-0.13998702
84	0x3def91cc	0.116977304
85	0xbd557bb7	-0.052119937
86	0x3d335e2a	0.043790974
87	0x3e0c2e34	0.136895
88	0xbdb497a2	-0.08817984
89	0x3d8048bd	0.06263874
90	0xbda73fdf	-0.08166479
91	0xbd104c82	-0.035229214
92	0xbe0122bd	-0.12610908
93	0xbcf91af7	-0.030408366
94	0xbd02fba9	-0.031978283
95	0x3da7758e	0.08176719
96	0xbda801cc	-0.08203468
97	0xbdbeaf4d	-0.0931078
98	0x3e250e29	0.16118683
99	0xbe09663c	-0.13417906
100	0xbe2bb063	-0.16766505
101	0xbe358429	-0.17726196
102	0x3c17ba52	0.009260731
103	0xbdb89308	-0.09012419
104	0x3d8f160e	0.069866285
105	0xbe0baaab	-0.13639323
106	0xbbc52fed	-0.006017676
107	0xbe1da0ed	-0.1539342
108	0x3d983165	0.07431296
109	0x3e16d3f1	0.14729287
110	0xbe27ad0c	-0.16374606
111	0xbe1f4079	-0.15551938
112	0xbd906205	-0.07049946
113	0xbd9f35c8	-0.0777393
114	0x3d128c5f	0.0357784
115	0xbdac845b	-0.08423682
116	0xbd47b5f5	-0.048757512
117	0x3dda3fe3	0.10656717
118	0xbcba9dc3	-0.022780305
119	0x3dc19e1c	0.09453985
120	0xbb4e645c	-0.0031492924
121	0x3d28c7d9	0.041206215
122	0x3da2dc1e	0.0795214
123	0x3d66d5c2	0.0563562
124	0xbdf91db3	-0.12163868
125	0xbd87c866	-0.0663002
126	0xbd072077	-0.032989945
127	0x3d24a17f	0.040193077
128	0x3cb50c55	0.022100607
129	0x3ccdcbe3	0.025121635
130	0x3de1d3dd	0.11026738
131	0x3da3b0fd	0.07992742
132	0xbce39a64	-0.02778358
133	0x3e2f73df	0.17134045
134	0xbdd9ad40	-0.10628748
135	0x3d48ff6f	0.049071725
136	0x3d56728e	0.05235534
137	0x3d23b5a1	0.039968137
138	0xbd5aa92b	-0.053383987
139	0xbe024671	-0.12722184
140	0x3c854674	0.016268946
141	0xbc515b77	-0.012778155
142	0x3cd91b65	0.02650232
143	0x3dfab120	0.12240815
144	0x3dddce26	0.10830335
145	0x3e4cff73	0.20019321
146	0xbe2b8d02	-0.16753009
147	0xbe1aa64f	-0.15102504
148	0x3e031e14	0.12804443
149	0x3df89fe0	0.12139869
150	0xbe0ccd47	-0.13750182
151	0xbbc2960a	-0.005938296
152	0xbe1c978e	-0.15292189
153	0xbd9a33b8	-0.07529396
154	0x3e33032e	0.17481682
155	0x3e50fb74	0.20408422
156	0xbd9ed9e7	-0.07756405
157	0x3a692a80	0.00088945776
158	0x3d2c86dd	0.042120803
159	0x3e17175e	0.14755008
160	0xbc09f180	-0.0084193945
161	0xbdaf63df	-0.08563971
162	0xbe23befd	-0.15990825
163	0xbd34ae44	-0.044111505
164	0xbd9bcd9f	-0.076075785
165	0xbd598623	-0.05310644
166	0x3da804a3	0.082040094
167	0x3e246abb	0.1605634
168	0xbc730e16	-0.014834901
169	0x3e4005f4	0.18752271
170	0x3e0dfdc4	0.13866335
171	0x3d496b32	0.049174495
172	0x3de79093	0.11306872
173	0xbe1a4bdf	-0.15068005
174	0x3e5a45f8	0.21315753
175	0x3e2e5c28	0.17027342
176	0x3d9b1351	0.07572044
177	0xbc8954c8	-0.01676406
178	0xbdff84f6	-0.12476532
179	0xbd357cc5	-0.044308443
180	0xbd26652e	-0.040623836
181	0xbe3b1052	-0.18267944
182	0xbdd1729a	-0.10226937
183	0x3b8f8899	0.0043802974
184	0x3d03a8a3	0.032143246
185	0x3d71a15a	0.058991767
186	0x3d0f359b	0.03496323
187	0xbdcf4280	-0.10120106
188	0x3e0fc54f	0.14040111
189	0x3de31ed2	0.11089863
190	0xbc276440	-0.010216773
191	0x3b56ca7f	0.0032774506
192	0xbe0034b5	-0.12520106
193	0x3d699a14	0.057031706
194	0xbd775dd0	-0.0603922
195	0x3cd8e477	0.026476128
196	0xbc9877d0	-0.018611819
197	0x3d7b74da	0.061390735
198	0xbd0a22ac	-0.033724472
199	0xbe8932f7	-0.26796696
200	0xbd108ffa	-0.035293557
201	0xbd65cc16	-0.056102835
202	0x3d412abf	0.047159906
203	0x3ced4372	0.028962824
204	0x3b234cd2	0.0024917615
205	0x3c201e3b	0.0097728325
206	0xbdc418b7	-0.095750265
207	0xbdc14aec	-0.09438118
208	0xbdb7555f	-0.0895183
209	0x3da546e2	0.080701604
210	0xbda6a3e4	-0.081367284
211	0xbde9bb1e	-0.11412643
212	0x3bf0c345	0.0073474967
213	0x3da164d2	0.07880558
214	0xbd39a74a	-0.045325555
215	0xbcf6df87	-0.030135883
216	0xbe1e6f80	-0.15472221
217	0x3db32e0c	0.08749017
218	0x3d514e37	0.051099982
219	0x3dbdaee0	0.092618704
220	0xbbdfa105	-0.006824615
221	0xbc2d2bda	-0.010569537
222	0xbb9a8916	-0.004716049
223	0x3dc26391	0.09491647
224	0x3c84662d	0.016162002
225	0xbdf8fd32	-0.12157668
226	0x3d33aec8	0.043867856
227	0x3d6b1294	0.057390764
228	0xbe203b8c	-0.15647715
229	0xbcd8a5c0	-0.026446223
230	0xbdcd2973	-0.100176714
231	0xbb7af7cb	-0.0038294669
232	0xbd8be9a2	-0.06831671
233	0x3df34d6b	0.11880001
234	0xbd924dfd	-0.07143781
235	0xbd87709d	-0.06613276
236	0xbd8e24cb	-0.069406115
237	0x3d7f5010	0.062332213
238	0xbc64d6af	-0.0139672
239	0xbb0675b5	-0.0020516936
240	0xbd109a56	-0.035303436
241	0x3d641cf7	0.055691686
242	0x3bb58a36	0.0055401577
243	0xbe03952d	-0.12849875
244	0xbc36c179	-0.011154526
245	0x3acdddea	0.0015706394
246	0x3b98eca4	0.0046668816
247	0xbde929c8	-0.11384922
248	0xbd807168	-0.062716305
249	0xbdff814f	-0.124758355
250	0xbdaf269c	-0.08552286
251	0x3bd5441c	0.0065083634
252	0xbe1add88	-0.1512357
253	0xbcf09e5b	-0.029372385
254	0x3e352291	0.17688967
255	0x3d95f053	0.07321229

weight_hh f4 [512, 128]
0	0xbd1abcde	-0.037777774
1	0x3db0d8f2	0.08635129
2	0x3c63c5b5	0.0139021175
3	0xbe05cfe4	-0.13067585
4	0x3be8ab24	0.0071004797
5	0x3c28875c	0.010286178
6	0x3d353c60	0.04424703
7	0xbdb8958e	-0.090129
8	0x3e01e80a	0.12686172
9	0xbcd5429a	-0.026032735
10	0xbdc0a85d	-0.09407113
11	0x3d89ad9a	0.06722565
12	0xbdc04eb9	-0.09390015
13	0x3db295ce	0.08719979
14	0x3da8e5d5	0.08246962
15	0x3d0798f8	0.033104867
16	0xbd9ff1a4	-0.07809761
17	0xbcb4283d	-0.021991843
18	0x3dbfafb7	0.09359687
19	0xbd906e72	-0.07052316
20	0x3d9de22a	0.07709153
21	0x3bee22b4	0.0072673205
22	0x3cdedeae	0.027205791
23	0xbd2cfdfe	-0.042234413
24	0xbd90fa46	-0.07078986
25	0x3de478d1	0.111558564
26	0x3c1da910	0.009622827
27	0xbc2879d6	-0.010282954
28	0x3dbbe42d	0.091743805
29	0x3cbd81f2	0.023133252
30	0xbc332b20	-0.010935575
31	0x3d57c667	0.052679446
32	0xbda584ba	-0.08081956
33	0xbe03c56d	-0.1286828
34	0x3ccc8dce	0.024969961
35	0x3cdaa7ea	0.026691396
36	0xbcd43e2c	-0.025908552
37	0x3e4871ef	0.19574712
38	0xbda8cc17	-0.08242052
39	0x3dd0e53f	0.10199975
40	0xbdaa76ef	-0.08323466
41	0xbca22541	-0.019793155
42	0x3c869a37	0.016430957
43	0x3d35e8b4	0.044411376
44	0x3c50a546	0.012734717
45	0xbcaeeb5f	-0.021352468
46	0xbdfa086e	-0.12208639
47	0x3e4fee97	0.20305859
48	0x3e2a7843	0.16647439
49	0xbda0a203	-0.07843401
50	0xbdd2d27b	-0.10294052
51	0x3dd9e286	0.10638909
52	0xbddbc484	-0.10730842
53	0xbb72077e	-0.0036930735
54	0xbccecda1	-0.025244536
55	0xbcba00b8	-0.02270542
56	0x3bca60b3	0.006176078
57	0xbe18c056	-0.1491712
58	0xbb4d36df	-0.0031313223
59	0x3d38dbaa	0.045131363
60	0xbe141859	-0.14462413
61	0x3d7f82ce	0.062380604
62	0x3def654f	0.11689245
63	0x3d28126c	0.041033193
64	0xbe0d93b6	-0.13825879
65	0xbe02894e	-0.1274769
66	0xbda09bc8	-0.07842213
67	0xbd1756c6	-0.036947988
68	0x3d215e4c	0.03939657
69	0x3c1b02f4	0.009461153
70	0xbd8efd1e	-0.06981872
71	0x3e056330	0.13026118
72	0xbdc34a2b	-0.09535631
73	0x3d197438	0.03746435
74	0x3e10d1a1	0.14142467
75	0x3c2cb9bf	0.010542332
76	0xbce7ae3b	-0.028281322
77	0xbdd8690d	-0.10566912
78	0x3d65105b	0.0559238
79	0xbcc7c9e9	-0.02438827
80	0xb9b6cfa9	-0.00034868464
81	0xbd4704f8	-0.048588723
82	0x3d74f152	0.059800453
83	0xbdaf93fc	-0.08573148
84	0xbd2ac226	-0.04168906
85	0x3d371745	0.044699926
86	0xbd5f9ac4	-0.054590955
87	0xbe1835ec	-0.1486432
88	0x3cc74468	0.02432461
89	0x3e147149	0.1449634
90	0xbe3a9232	-0.18219832
91	0xbc42e9a6	-0.011896526
92	0x3d879b67	0.066214375
93	0x3d3d2679	0.04617927
94	0xbc90a1fb	-0.017655363
95	0x3c94f1f1	0.018181773
96	0xbe09a3a6	-0.13441333
97	0x3d79519c	0.060868844
98	0xbbfa6500	-0.0076414347
99	0x3e0af191	0.13568713
100	0x3e500e4e	0.20317957
101	0x3e2c65fd	0.1683578
102	0xbdbb8bb5	-0.091575064
103	0x3da6b3ab	0.08139738
104	0xbd21d732	-0.039511867
105	0xbdd67852	-0.10472168
106	0xbd44afd3	-0.04801924
107	0x3d925570	0.07145202
108	0xbe16c776	-0.14724526
109	0xbccfd9f2	-0.02537248
110	0xbe31e70b	-0.17373292
111	0x3c909e58	0.01765363
112	0x3e17361d	0.14766736
113	0xbdebae1f	-0.1150782
114	0x3df84c04	0.12123874
115	0x3dea0dd0	0.11428416
116	0x3d6e93ac	0.0582463
117	0x3df8a44d	0.12140713
118	0xbd5caf68	-0.053878218
119	0x3e071249	0.13190569
120	0xbda4f380	-0.080542564
121	0x3d270506	0.040776275
122	0xbe26c574	-0.1628626
123	0x3d8bc3aa	0.06824429
124	0x3d02689b	0.03183804
125	0x3d4208f8	0.047371835
126	0x3d5ab8ab	0.05339877
127	0xba958e68	-0.0011410238
128	0x3e0f0f5e	0.13970706
129	0x3dbe4287	0.09290033
130	0xbd53b2a4	-0.051684037
131	0xbd8f69d2	-0.070026055
132	0x3de018e1	0.10942245
133	0xbd5df9a3	-0.05419315
134	0x3e0e8412	0.13917568
135	0x3bb80cae	0.005616746
136	0x3cfa459f	0.030550776
137	0xbda95ee5	-0.08270053
138	0x3d894f3b	0.06704565
139	0x3e2b8b07	0.16752253
140	0x3d4ad1e8	0.04951659
141	0x3d63130e	0.055438094
142	0x3dffbbed	0.12487016
143	0x3b97e5a1	0.004635528
144	0xbd90da31	-0.07072867
145	0x3cdfff44	0.0273434
146	0x3da6b330	0.08139646
147	0x3bd31f94	0.0064429734
148	0x3d9ca46a	0.07648547
149	0x3e3711b1	0.17877842
150	0x3d34b14c	0.044114396
151	0xbe0430f9	-0.12909307
152	0xbe1ac022	-0.15112355
153	0xbd0ec77b	-0.03485821
154	0xbcd1d4b4	-0.02561412
155	0x3dcce7c4	0.10005143
156	0xbd38c959	-0.045113895
157	0x3e0a6274	0.1351412
158	0x3caf0eca	0.021369357
159	0x3d232e0b	0.039838832
160	0xbdea09df	-0.11427664
161	0xbe365c99	-0.1780876
162	0x3d40413a	0.046937205
163	0xbd7716aa	-0.06032435
164	0x3d2f7a10	0.042841017
165	0xbc708fa5	-0.014682685
166	0xbb87948b	-0.0041375807
167	0xbd331fb9	-0.043731425
168	0xbe09f909	-0.13473906
169	0xbdf1560a	-0.11783989
170	0xbd73c331	-0.05951232
171	0x3e09e23b	0.13465206
172	0xbd48acfc	-0.048993096
173	0x3cd50631	0.026003929
174	0xbc91bd32	-0.01779041
175	0x3d8a5fed	0.06756578
176	0x3d11b514	0.03557308
177	0x3dce5362	0.10074498
178	0xbc42ae4e	-0.011882378
179	0x3dd3a2cc	0.103337854
180	0xbcaf079c	-0.021365933
181	0xbe3d12e9	-0.18464245
182	0x3d5e2e84	0.05424358
183	0xbb6e44ef	-0.0036357006
184	0x3d8403f1	0.06446064
185	0xbe3b63dd	-0.18299814
186	0xbcdb4e58	-0.026770756
187	0xbcdaa486	-0.026689779
188	0x3d67251d	0.05643188
189	0x3bd71139	0.0065633324
190	0x3b7fcd02	0.0039032106
191	0x3e1645d6	0.14675078
192	0xbc2822e2	-0.010262223
193	0xbd2a534f	-0.041583356
194	0xbd70dbea	-0.058803476
195	0xbda18202	-0.07886125
196	0x3d29957b	0.04140232
197	0x3cd635d7	0.02614872
198	0xbc102dd8	-0.0087999925
199	0x3c9ed14d	0.019386912
200	0xbd302cd4	-0.0430115
201	0xbdf6c7d1	-0.12049831
202	0x3d8f6fe5	0.07003764
203	0x3e08be1e	0.13353774
204	0xbdcb8170	-0.099367976
205	0xbd745402	-0.05965043
206	0x3e27f10f	0.1640055
207	0xbc92ccd2	-0.017919932
208	0x3bab7f31	0.0052336683
209	0xbdb64f74	-0.08901873
210	0x3cccfd58	0.025023147
211	0xbd8b9e02	-0.06817247
212	0xbd955cdf	-0.072931044
213	0xbd26399f	-0.040582296
214	0xbbedf712	-0.007262119
215	0xbdd870b0	-0.105683684
216	0x3da48b47	0.080343775
217	0x3ddc9fd9	0.10772676
218	0xbdde2167	-0.10846215
219	0x3dbb6085	0.09149269
220	0x3cda8c1b	0.026678136
221	0x3d02c775	0.0319285
222	0xbca6d6b7	-0.020366056
223	0x3d7a25f4	0.06107135
224	0xbd47a1ad	-0.04873817
225	0x3dba4212	0.09094633
226	0xbd99ce19	-0.07510013
227	0x3d7ab5f2	0.061208673
228	0x3df51d6b	0.11968502
229	0x3d39b579	0.04533908
230	0x3ca9bd7e	0.02072024
231	0xbd512a9f	-0.051066037
232	0xbd2cfda5	-0.04223408
233	0xbce665b7	-0.028124673
234	0x3dd7889d	0.10524104
235	0xbc2b29e9	-0.010447004
236	0xbdd444a8	-0.10364658
237	0x3d8e34ab	0.06943639
238	0x3d80f22f	0.06296193
239	0xbc25c8fc	-0.010118719
240	0x3c747241	0.014919818
241	0xbdbb6bf3	-0.09151449
242	0x3d6b5003	0.057449352
243	0xbc1e2eda	-0.009654725
244	0xbdc6ae2c	-0.097011894
245	0x3db97926	0.0905631
246	0x3d8c16d6	0.06840293
247	0x3e044a94	0.12919074
248	0x3c967ada	0.018369127
249	0x3befa6cb	0.0073135844
250	0xbcb59fce	-0.022170927
251	0x3d0a4871	0.03376049
252	0xba9a5727	-0.0011775241
253	0xbd1ec349	-0.038760457
254	0xbda08703	-0.078382514
255	0xbc296f48	-0.010341473

bias_ih f4 [512]
0	0x3e3f49e6	0.18680534
1	0x3e11f5cf	0.14253925
2	0x3cd8d714	0.026469745
3	0x3e5663d6	0.20936522
4	0x3d95ec26	0.07320432
5	0x3cb5d553	0.022196447
6	0x3e2c6be4	0.16838032
7	0x3e3b7e57	0.18309914
8	0x3dd19be9	0.102348156
9	0x3e4667f1	0.19375588
10	0x3e5ac40c	0.21363848
11	0x3e0f7b5d	0.14011903
12	0x3d26c0c0	0.040711164
13	0x3d42bd70	0.047543943
14	0x3eb5b5b5	0.35490194
15	0x3df89672	0.1213807
16	0x3e1e6360	0.15467596
17	0x3ea4e62d	0.3220686
18	0x3d5af773	0.053458642
19	0x3e82da1e	0.25557035
20	0x3eaa29f3	0.3323513
21	0x3e54410e	0.20727941
22	0x3e81b052	0.25329834
23	0x3db3d54b	0.08780917
24	0x3e67078d	0.22561474
25	0x3e40f4fe	0.18843457
26	0x3dc354ed	0.09537683
27	0x3d2b4f40	0.041823626
28	0x3bf468f8	0.0074588023
29	0x3e591fad	0.2120349
30	0x3e6d80f9	0.2319373
31	0x3d9d401d	0.07678244
32	0x3e400636	0.1875237
33	0x3e4d3016	0.20037875
34	0xbba221f0	-0.0049478933
35	0x3de55484	0.11197761
36	0x3d7129cb	0.058877748
37	0x3e3507ed	0.17678805
38	0x3dc90289	0.09814937
39	0x3e7ebbfe	0.24876401
40	0x3e9fb63c	0.3119372
41	0x3db4fe21	0.08837534
42	0x3dfcbea0	0.12341046
43	0x3e117912	0.14206341
44	0x3ddd452c	0.10804209
45	0x3e5dc5f3	0.21657543
46	0x3e9ea176	0.3098256
47	0x3e3ef3b7	0.18647657
48	0x3e943f5a	0.28954583
49	0x3de1970e	0.110151395
50	0x3de2d994	0.11076656
51	0x3d66ee13	0.05637939
52	0x3e3a4042	0.18188575
53	0x3e30c90f	0.17264198
54	0x3d1f1dbe	0.038846724
55	0x3c4dfe0c	0.0125727765
56	0xbcd9e256	-0.026597183
57	0x3e99155b	0.29899105
58	0x3e5a58fa	0.21323004
59	0x3d9c805c	0.0764167
60	0x3e608962	0.21927407
61	0x3dea96c9	0.11454541
62	0x3e1bfbeb	0.15232818
63	0x3e346174	0.176153
64	0x3dce882d	0.10084567
65	0x3e005773	0.12533359
66	0x3c392dbd	0.011302409
67	0x3ec4179c	0.38299263
68	0x3e00c3e4	0.12574726
69	0x3ed391c2	0.41322142
70	0x3dd0b996	0.10191648
71	0x3dc767fb	0.097366296
72	0x3d9be4ca	0.076119974
73	0x3e6ca034	0.23107988
74	0x3d6d0ab9	0.057871554
75	0x3e0454df	0.12923001
76	0x3e7ba15e	0.24573275
77	0x3d852045	0.065002955
78	0x3e573be0	0.21018934
79	0x3e842bfc	0.25814807
80	0x3e1adc43	0.15123086
81	0x3d669531	0.056294624
82	0x3e108f47	0.14117156
83	0x3e30e7f1	0.17275979
84	0x3d77ccfe	0.06049823
85	0x3dec3dd7	0.115352325
86	0xbb9c052b	-0.0047613583
87	0x3d8b72f3	0.06809034
88	0x3d9eb706	0.07749753
89	0x3e25adb7	0.16179548
90	0x3e3ba3f3	0.1832426
91	0x3e548cde	0.20756862
92	0x3d570237	0.052492347
93	0x3e56ef2d	0.20989676
94	0x3e7fffa6	0.24999866
95	0x3e777d65	0.24168928
96	0x3e32e1e0	0.17468977
97	0x3c794e00	0.015216351
98	0x3dd74d58	0.10512799
99	0x3e1caf3b	0.1530122
100	0x3e7f36e1	0.24923278
101	0x3cc2d624	0.02378375
102	0x3df0e9da	0.11763354
103	0x3dd8e976	0.10591404
104	0x3e40c4ff	0.18825148
105	0x3daf6f5f	0.08566164
106	0x3e9dd19d	0.30823985
107	0x3e5d523c	0.21613401
108	0x3e638409	0.22218336
109	0x3e854bdb	0.26034436
110	0x3d8f643b	0.07001539
111	0x3e0883d2	0.13331535
112	0x3ecdfc4c	0.4023155
113	0x3e7c8125	0.2465864
114	0x3d7c1928	0.06154743
115	0x3e056e0d	0.13030262
116	0x3e4915e3	0.19637255
117	0x3e3f0658	0.18654764
118	0x3e999e3d	0.3000354
119	0x3e4df8b5	0.20114405
120	0x3d993458	0.07480687
121	0x3d342373	0.04397912
122	0x3d9dc562	0.077036634
123	0x3e717e05	0.23583229
124	0x3de956d6	0.11393516
125	0x3dd19727	0.10233908
126	0x3d866980	0.06563091
127	0x3d50b58c	0.050954387
128	0x3ca9a8ae	0.020710316
129	0x3c485054	0.012226183
130	0x3d51c6be	0.051214926
131	0x3c196d19	0.00936439
132	0xbd782661	-0.060583476
133	0xbcaf2e87	-0.02138449
134	0xbd0481bb	-0.032350283
135	0x3d918132	0.0710472
136	0xbd6e4f2d	-0.058180977
137	0xbdb2bd0e	-0.087274656
138	0xbdbdbd7a	-0.092646554
139	0xbe03ba45	-0.12864025
140	0xbda9e938	-0.08296436
141	0xbd2b29db	-0.041787963
142	0xbe308065	-0.17236479
143	0xbdda6e6d	-0.10665593
144	0x3c4aba21	0.012373478
145	0xbd6ffaa8	-0.058588654
146	0xbd1ddcf9	-0.038540814
147	0x3cbc5e2c	0.022994123
148	0xbe31efd6	-0.17376646
149	0x3c728429	0.014802017
150	0xbd2392bd	-0.039934862
151	0xbdea14ac	-0.11429724
152	0x3906006a	0.0001277939
153	0x3c0918ae	0.0083677005
154	0x3c4791e8	0.012180783
155	0x3d91638d	0.07099066
156	0xbd97a880	-0.07405186
157	0xbd18fec0	-0.037352324
158	0xbe33482a	-0.17507997
159	0x3dc5d156	0.09659068
160	0xbdbbcfa9	-0.091704674
161	0xbd213cf7	-0.03936478
162	0xbd684534	-0.056706622
163	0xbd5a9a55	-0.05336984
164	0xbceebb49	-0.029142039
165	0x3d848f9b	0.06472703
166	0x3d138d52	0.036023445
167	0xbe054d69	-0.13017811
168	0xbe0910af	-0.1338527
169	0xbc8bfc47	-0.017088069
170	0xbc1a823b	-0.009430463
171	0x3cd8a1cc	0.026444338
172	0xbd85e2ff	-0.06537437
173	0xbd877b6a	-0.06615336
174	0xbd23afbd	-0.03996252
175	0xbd58b362	-0.052905448
176	0xbe0c4918	-0.13699758
177	0xbe07ac85	-0.13249405
178	0xbda3dd47	-0.0800119
179	0x3cb14f71	0.021644326
180	0x3bfea069	0.007770587
181	0xbdae1a46	-0.08501105
182	0x3d0a5b98	0.033778757
183	0xbdca7a85	-0.0988665
184	0xbc28034d	-0.010254693
185	0xbc0fc385	-0.008774643
186	0xbda5a995	-0.08088986
187	0x3cb82f11	0.02248338
188	0xbc3b2d62	-0.011424394
189	0xbdbc33a5	-0.09189538
190	0xbca0daed	-0.019635642
191	0x3c8cb6ca	0.017177004
192	0xbd9a8205	-0.075443305
193	0x3b40712b	0.0029364328
194	0xbd6d4b03	-0.057932865
195	0xbde2c5b3	-0.110728644
196	0x3cf9b216	0.030480426
197	0xbe1f7811	-0.15573145
198	0xbb1f5069	-0.0024309403
199	0xbbe37ae9	-0.0069421423
200	0x3cc5ddfb	0.0241537
201	0xbdae5641	-0.085125454
202	0x3ca1b0b7	0.019737585
203	0xbd78b828	-0.0607225
204	0xbc12b0cd	-0.008953285
205	0x3c74a760	0.014932483
206	0xbdbb6751	-0.091505654
207	0xbddde142	-0.1083398
208	0x3d431110	0.047623694
209	0xbd648932	-0.055794902
210	0x3d9afed7	0.07568138
211	0xbdecd811	-0.11564649
212	0xbd519e72	-0.051176496
213	0x3c6f9106	0.014621979
214	0x3b24b97d	0.0025134974
215	0xbdcaea13	-0.09907927
216	0xbd9dc10e	-0.07702838
217	0x3d1bb435	0.038013656
218	0xbe0c6ab3	-0.13712578
219	0xbdb9ed99	-0.09078521
220	0xbda98c81	-0.08278752
221	0x3b87b8e6	0.0041419147
222	0x3d411a6e	0.047144346
223	0xbd64f9b6	-0.055902205
224	0xbc8d88d8	-0.017277166
225	0xbd060556	-0.032719932
226	0xbd97c395	-0.07410351
227	0xbe037f25	-0.1284147
228	0xbd707db6	-0.058713637
229	0xbca1f135	-0.019768337
230	0xbdf2fcca	-0.11864622
231	0xbcb7cfbb	-0.02243792
232	0xbddfc08e	-0.10925399
233	0x3daaa80a	0.08332832
234	0xbbc87f61	-0.0061187004
235	0xbdc5211d	-0.096254565
236	0xbde14d1b	-0.11001035
237	0xbe030373	-0.12794285
238	0x3b8ec3d7	0.004356842
239	0x3cf9cc9b	0.030493071
240	0xbe1511b8	-0.1455754
241	0x3cd460f0	0.02592513
242	0xbca5adfb	-0.020224562
243	0xbdc820e6	-0.097719
244	0xbd63cd73	-0.055615854
245	0xbd116d26	-0.035504483
246	0xbd214343	-0.039370786
247	0xbdc6a703	-0.09699824
248	0xbb9a0c1f	-0.004701152
249	0xbbf2ef91	-0.0074138124
250	0xbd285bcb	-0.041103166
251	0xbd97847b	-0.073983155
252	0xbe13c32d	-0.14429922
253	0x3cf3ede5	0.029776523
254	0xbd28d5f7	-0.041219678
255	0x3d5b74e3	0.05357827
