logs/fgb_vary_oracle/5/actor.pt (torch, 906162 bytes, 17 tensors)

weight_ih f4 [512, 48]
000000 4c 1e ef 3c 2d 32 25 3e ea 9c 23 3e 7c 16 00 be
       0.029189251 0.16132422 0.15977827 -0.12508577
000010 a1 3d 91 bd bd 0f bc 3d 47 80 ce 3d 9d a1 24 bd
       -0.07091833 0.09182689 0.10083061 -0.04019319
000020 2d 88 8f 3d ed 82 c6 ba 48 02 ce bc cf 1d a1 bb
       0.07008395 -0.001514522 -0.025147572 -0.0049168835
000030 a5 44 0a be ca 6c 6a 3c 76 ef 63 bd 13 44 81 3d
       -0.13502748 0.014308164 -0.05564829 0.06311812
000040 c1 7c 53 bd 9b b8 63 3e 1d 1c 41 bd 68 8d 5e be
       -0.051632646 0.2223839 -0.04714595 -0.2173363
000050 43 22 fe bb 96 88 9c 3d fe 43 28 3d 39 13 a5 ba
       -0.007755549 0.07643239 0.041080467 -0.001259423
000060 b8 3d 98 3d c7 e5 c6 3d aa 84 10 3d 36 68 c1 bd
       0.07433647 0.09711795 0.03528277 -0.09443705
000070 e3 b9 96 bd d7 bc b2 3d 51 fc 69 3d c1 99 81 3d
       -0.07359674 0.087274246 0.057125393 0.06328154
000080 1c 71 da bd 1f 6a 68 bd 64 f7 54 3d 31 7e b2 bd
       -0.10666105 -0.05674183 0.051993743 -0.08715475
000090 8a 05 6f bd 7e e5 87 3d d6 96 5a 3d 14 bd 96 3d
       -0.05835489 0.06635569 0.053366505 0.073602825
0000a0 a1 0d 1c bc df a9 6e bd e3 6f df bc ec a8 0b be
       -0.009524734 -0.05826747 -0.027275031 -0.13638657
0000b0 8a 19 84 bd 4a 68 35 bd 92 14 9d 3d 3f 90 17 3d
       -0.06450184 -0.04428891 0.07669939 0.0370028
0000c0 7e 6e 8b bd 0e db 9e 3d 24 40 86 3d b2 9c 21 3e
       -0.06808184 0.07756625 0.065552026 0.15782431
0000d0 23 71 a4 3d 0d 20 9f bd 87 9e ae 3d b8 ca 11 3e
       0.080293916 -0.07769785 0.085263304 0.14237487
0000e0 b7 62 cb 3d 4a 11 9f ba b0 1f 09 bd 29 20 a8 bd
       0.09930938 -0.001213589 -0.033477485 -0.08209259
0000f0 f9 bd b2 3d 53 68 70 3d 9e c1 0a 3b 1c be 2b 3d
       0.08727641 0.05869324 0.0021172534 0.04192935
000100 16 e4 0a bd 50 13 07 be 67 cf 23 3e 2d 6c a0 3d
       -0.033908926 -0.13190961 0.15997086 0.07833133
000110 8e d4 0a 3d a8 cb 08 3e af 09 91 bd 1e 2d 11 3e
       0.033894114 0.13358939 -0.07081925 0.14177367
000120 7c 29 c8 3c ca 6b bd 3d 44 ab 62 3e 63 d1 3c bd
       0.024433844 0.09249075 0.22135645 -0.046098124
000130 7d b9 1b 3e a3 56 34 be 7f b3 88 3c a5 9e 90 bd
       0.15207477 -0.17611174 0.016687153 -0.07061509
000140 dc 24 b8 bd 73 e2 0e 3d 12 e6 a4 3c 1d b8 be bc
       -0.08991405 0.034883928 0.020129237 -0.023281151
000150 50 8c ec 3c b3 0f 42 3c 3f e0 9f bb 67 1c 5d bd
       0.0288755 0.011844563 -0.004879027 -0.053982165
000160 42 04 35 3d 1b 24 e0 bb fa 05 e3 3d 59 4a b9 3d
       0.044193514 -0.0068402416 0.11085124 0.09047384
000170 04 6e 06 3e 21 43 c8 3d a4 0c 9e 3c 9d ae af 3c
       0.13127905 0.09778429 0.019293137 0.021445567
000180 36 11 ff ba 4b c1 8d 3d 08 90 5c be 43 ce 84 bd
       -0.0019460085 0.06921633 -0.21539319 -0.06484654
000190 c5 97 ed 3d d9 3c c8 3d c3 ea 31 bd ed fd 92 3d
       0.11601213 0.09777231 -0.043436777 0.07177339
0001a0 64 89 8c bd bc 90 ab 3c 36 f4 8e bd c9 ce 07 be
       -0.06862143 0.020943038 -0.06980173 -0.13262476
0001b0 82 0e e9 3d 5d 27 c0 3d d8 0e 9d bd dc 2c c4 3d
       0.1137972 0.09382508 -0.07668847 0.09578869
0001c0 90 95 cc bd 3f 0e f5 3d 85 f2 cb 3d 0c 79 ce bd
       -0.09989464 0.11965608 0.09958366 -0.100816816
0001d0 e4 44 c2 bb 03 fd 58 3d fa c0 44 bc a1 49 30 3d
       -0.0059286226 0.052975666 -0.0120089 0.043038968
0001e0 30 c1 d6 bc 4c 8e 8f bd 04 dd e8 bc 8e dd 08 bd
       -0.026215166 -0.07009563 -0.028425701 -0.033414416
0001f0 b9 ee ac bd f1 cc 39 bb a9 b9 28 3d 1c 20 30 3d
       -0.0844397 -0.0028350914 0.041192684 0.042999372
000200 53 19 b9 bd 47 e2 b2 bd 29 3b 62 3d 2d c2 65 3c
       -0.09038033 -0.08734565 0.0552322 0.014023346
000210 6a 3b 4d bd f4 5c 11 3d 38 36 ea 3d 44 d7 1f 3d
       -0.05010549 0.035489038 0.11436123 0.039023653
000220 94 81 5b 3d dd bc 46 3d ca c5 a6 3d 2e 91 02 3e
       0.053590372 0.048519958 0.08143194 0.12750694
000230 89 ed 6d 3d ad 21 13 3d cf 61 d3 3d 70 1c 3b 3c
       0.05808786 0.035920788 0.1032139 0.011420354
000240 b4 19 aa bd d3 ac 0a 3d 3a c5 63 3d 3e d0 bb bd
       -0.08305684 0.033856224 0.05560801 -0.091705784
000250 29 1f 2b bd 01 f3 06 be 7e 4c 89 bd cd 06 51 3b
       -0.041777764 -0.13178636 -0.06704043 0.0031894923
000260 ec 3a 4e bd 33 13 16 3c e7 82 a0 3d 36 f6 4d be
       -0.05034916 0.009159851 0.07837468 -0.20113453
000270 fc 54 04 3e e0 fb da bd 79 22 84 bd e0 3c 0a bd
       0.12923044 -0.106925726 -0.06451888 -0.03374946
000280 94 4a b5 bc 55 8f 0c 3c ae 2a db bd 6f 5c 8c bd
       -0.022130288 0.008579095 -0.107015 -0.06853568
000290 a3 11 49 3d 3c 62 80 bd f9 c7 44 3d b8 75 8c 3d
       0.049089085 -0.06268737 0.04804227 0.068583906
0002a0 85 70 c5 bd 4f b8 67 bd 61 8d 16 3e 7b 08 b9 3c
       -0.09640602 -0.056572255 0.1470237 0.022587052
0002b0 3c 13 14 3e af 2d 41 bd 60 bf b2 bd a0 60 91 3d
       0.14460462 -0.047162708 -0.08727908 0.07098508
0002c0 03 b7 28 3b e6 d5 b8 bd 4a ba 8b 3d 43 6f 03 bd
       0.002574385 -0.09025173 0.06822641 -0.03208853
0002d0 3f fd 8a 3d 2a 76 c1 bb de b9 01 3e 99 52 c6 3d
       0.06786584 -0.005903979 0.12668559 0.09683723
0002e0 b9 b0 9f 3c 86 5f 22 3d 40 f2 97 3b d6 b6 0a 3d
       0.019493448 0.03964188 0.0046370327 0.033865772
0002f0 01 0d 9c bc a1 70 d2 3d bd 14 17 3e 27 f5 37 3e
       -0.01904917 0.102753885 0.14754005 0.17964612
000300 0d 86 40 be 7e 18 bc bd 77 d7 22 3d 52 d6 e4 be
       -0.18801136 -0.09184359 0.039756265 -0.44694763
000310 aa 99 a4 bd 18 9e 44 bd 96 f2 a4 bc de af 4f be
       -0.080371216 -0.048002332 -0.020135205 -0.20281932
000320 be f9 89 3d 34 85 1f 3e b1 e7 d0 3c ed 02 da bd
       0.06737088 0.15578157 0.025501104 -0.10645089
000330 1d 5b 0e be 5e 5e 84 3d 21 1d 85 bd 57 44 17 3e
       -0.13901944 0.064633116 -0.064996965 0.14772163
000340 d6 36 b8 3d 26 63 a9 bd 4e a9 48 3d 4c ef 18 be
       0.08994834 -0.08270864 0.048989587 -0.14935035
000350 73 58 1f bd 48 e2 b9 bd 83 82 d0 bc 3f 8d 25 3e
       -0.03890271 -0.09076363 -0.025452858 0.16167162
000360 4d 76 22 be 12 4b 8b 3d c7 15 ee 3d c6 6c aa bd
       -0.1586544 0.06801428 0.116252474 -0.08321528
000370 e3 43 c7 3d 0e 58 a5 bd c4 52 fa 3d 2c 82 bf 3d
       0.09729745 -0.08073436 0.122228175 0.09351
000380 b5 e4 c5 bd 47 18 f5 3c 90 2f 4e 3d b9 bc 33 bb
       -0.09662763 0.029918803 0.050338328 -0.002742572
000390 d1 39 66 bc c6 06 f6 3a 38 d4 25 bc 30 68 54 3d
       -0.01405187 0.0018770329 -0.010121398 0.051857173
0003a0 03 6f 7a bb 37 b8 7b 3d 84 ca 8d 3c a3 1f b6 bd
       -0.003821314 0.061454978 0.017308481 -0.08892753
0003b0 78 0e 57 bc b9 23 fb bd 55 27 c1 bc 5f f2 61 bd
       -0.013126008 -0.12262673 -0.023578325 -0.055162784
0003c0 78 eb c9 3d ea 43 10 3e df 0a 57 be ec 10 ac 3d
       0.09859365 0.14088407 -0.2100024 0.08401665
0003d0 13 bb 4d 3d 41 50 13 bb 5a 45 be 3d c2 7e 23 bd
       0.050227236 -0.0022478255 0.092905715 -0.039915808
0003e0 a2 1b 55 3d bd f5 40 3b 8f f9 27 bd e7 9a 6b bd
       0.052028306 0.0029443346 -0.041009482 -0.057520773
0003f0 8d 01 a4 3d 93 59 87 3d 20 80 5c bc 17 49 b9 bc
       0.08008108 0.06608882 -0.013458282 -0.02261786

weight_hh f4 [512, 128]
000000 09 81 7c 3c 44 65 e7 3c 5e 69 4a bc 79 12 00 bd
       0.015411624 0.02824653 -0.012354223 -0.031267617
000010 55 af db bd e3 13 64 bc ed c5 96 3d 03 b7 89 bd
       -0.10726801 -0.013920757 0.0736197 -0.0672436
000020 cc 8a c1 3d c7 df c3 3d b6 bb 32 bc 5d 4e c7 3c
       0.094503015 0.095641665 -0.010909012 0.024329359
000030 b3 1d 75 3d 27 82 6c 3d 7f 91 68 3d 4e 39 0f 3e
       0.059842777 0.05774131 0.05677938 0.13986704
000040 28 a1 1b 3e ca 07 64 bc 31 4a ac bc 5c 13 a6 bd
       0.15198195 -0.013917873 -0.021031471 -0.08109161
000050 46 1c 93 bc 03 d6 04 bc 55 9f 90 3d 69 3a 8a 3b
       -0.017957818 -0.008107665 0.0706164 0.004218389
000060 7f 52 31 bb 03 af ca 3d 4b af 38 3c 6c 25 32 3d
       -0.0027057228 0.09896662 0.011272262 0.04349272
000070 02 ea df bd 18 25 9f 3d 57 9f 13 3d 3e 10 f0 bc
       -0.10933305 0.07770747 0.03604063 -0.02930462
000080 45 e0 1d bd 02 db 27 be ea 76 e9 bd 96 d9 86 bd
       -0.03854396 -0.16392139 -0.11399634 -0.0658447
000090 e2 05 4e bc 78 e1 1a 3c ae fd 6a 3c 54 95 1f bd
       -0.012574645 0.00945317 0.0143427085 -0.03896077
0000a0 19 06 c8 3d 37 50 03 bd 72 30 27 3d f7 2b fb 3a
       0.09766788 -0.03205892 0.040817685 0.0019162883
0000b0 7e 28 bb 3d 00 c0 b5 3c 65 79 74 3c 08 93 00 3d
       0.09138583 0.02218628 0.014921521 0.03139022
0000c0 42 27 ed bc 57 bf 7f 3d 6e a6 93 3c 3d 8b 14 bc
       -0.028949384 0.062438335 0.018023696 -0.0090664
0000d0 5b 31 02 bd 85 37 cf 3d aa 27 98 bd 17 82 ab 3d
       -0.03178535 0.101180114 -0.0742944 0.08374422
0000e0 ab 5b a3 bc c2 1c 20 3a c9 21 10 bc 3d 33 e9 bd
       -0.019941172 0.0006107801 -0.0087971175 -0.11386726
0000f0 b5 ee 8e bd 39 e8 0c bd c6 10 f6 3c d6 f4 d0 bc
       -0.069791235 -0.034401152 0.030037295 -0.025507372
000100 aa 75 7a bd b8 84 1f 3d 28 da 5a bc 38 12 de 3d
       -0.06114737 0.03894493 -0.013357677 0.10843319
000110 43 1a 2f bd a2 56 4d 3b 33 a2 6c 3d fd 1a 56 bd
       -0.042749655 0.0031332155 0.057771873 -0.05227183
000120 7b 56 9c bd 02 2a 0a bd 62 dd 57 3b bc 5f 00 3d
       -0.07633682 -0.033731468 0.003293835 0.0313413
000130 80 b5 da 3c 29 40 f0 bc 57 e4 4f bd 53 03 4b 3d
       0.026697874 -0.029327469 -0.05075487 0.049563717
000140 7b 13 8c 3d 71 72 60 3d 5b 9f 27 bc b2 09 77 3d
       0.06839653 0.05479664 -0.010230864 0.06031198
000150 af da 84 bc 11 d5 c2 3d 09 c3 0b be 1f 15 de bd
       -0.016217558 0.095132954 -0.13648619 -0.10843872
000160 29 ad 2d 3d 41 b9 c4 3d 05 b6 cb bd 69 af 7b 3d
       0.042401467 0.09605647 -0.09946827 0.06144658
000170 b1 c9 ef 3d 6b b3 90 bd 4d 61 2e 3d 3d 37 2f 3d
       0.117083915 -0.07065471 0.042573262 0.04277729
000180 ed 05 97 bd e3 25 00 bd bd a2 ef bd 5e 7b f4 3b
       -0.07374177 -0.03128613 -0.11700962 0.0074609956
000190 82 df a9 3d 1f 4b 85 bc 26 ef ed 3d ba a1 c8 bd
       0.08294584 -0.016271172 0.116178796 -0.09796472
0001a0 f0 3f 13 bc e2 3e 55 bc 34 23 d7 3c b5 10 71 3d
       -0.008987412 -0.013015481 0.026261903 0.058853824
0001b0 62 3f b5 3d 57 1e a7 bc c2 83 a3 ba 43 eb a5 bc
       0.0884998 -0.02040021 -0.001247518 -0.020253783
0001c0 06 9e 91 3b 32 71 9d 3d 58 3e 3f bc 5d 88 16 bd
       0.0044438867 0.07687606 -0.011672579 -0.03675114
0001d0 36 47 4f 3c c3 03 b3 bd 97 3f aa 3d 4c c4 70 bd
       0.012651255 -0.08740952 0.0831291 -0.058780953
0001e0 d6 58 ef bc 86 0a 34 3c 97 67 ac bc a8 9b 75 bd
       -0.029217165 0.010988837 -0.02104549 -0.0599629
0001f0 e1 63 c7 bc d7 54 79 3d 7b 51 d8 bd 5b c4 c4 3d
       -0.024339618 0.060871925 -0.10562416 0.09607764
000200 0e 3e ee bd 2d 92 16 3d d1 53 ee bd e1 72 52 3d
       -0.1163293 0.036760498 -0.116370805 0.05137909
000210 2f 7e 73 3d 2d 6b bf bc 93 c8 e2 bc 01 38 24 3c
       0.05944651 -0.023366535 -0.027683532 0.010023118
000220 4f fd e4 3d 06 a9 44 3d 52 81 f8 bd 6e 8f 9e 3d
       0.11181127 0.048012756 -0.12134041 0.07742201
000230 d8 d4 6c 3d 8d 50 b6 bb 97 17 fa bc e9 2f 55 3d
       0.05782017 -0.0055638016 -0.030528827 0.052047644
000240 e8 99 89 bc b7 62 e1 3b 3e e4 7e 3d af 8b 07 bd
       -0.016797021 0.006878223 0.062229387 -0.033092197
000250 31 51 7d bd 6c d9 1a 3d ea 2b 4a bd 55 55 91 bd
       -0.06184501 0.037805006 -0.049358286 -0.07096354
000260 9b 75 97 3d f1 0e 31 bd 88 31 84 bd 50 95 b8 bd
       0.07395478 -0.04322714 -0.0645476 -0.09012854
000270 6b 75 85 bd e0 87 06 3d 02 b6 fe bc c0 c2 2d bd
       -0.06516536 0.032844424 -0.031092647 -0.042422056
000280 06 8a 56 bd 9e c6 85 3c 33 c3 aa 3d f2 6b 27 be
       -0.052377723 0.01633006 0.083380125 -0.16349772
000290 5c a0 b8 bd 09 50 6f 3d 0e 62 3c bc e2 76 95 3d
       -0.09014961 0.058425937 -0.011497987 0.07298066
0002a0 12 71 87 bd 72 2f af 3d 2b e9 1f bd 34 2d 27 bc
       -0.06613363 0.08553971 -0.039040726 -0.010203648
0002b0 5e f7 0f 3d c2 dd 7d bd 79 ee 53 3d 22 f0 b0 3d
       0.035148017 -0.061979063 0.051741097 0.08639552
0002c0 87 80 4f bc d5 8a d3 3c a0 59 d4 3a d2 ac 61 bd
       -0.012664921 0.025823036 0.0016201027 -0.055096455
0002d0 54 f5 39 bd 66 e1 88 3d f1 82 5b bd 1a b0 67 bd
       -0.04539998 0.06683616 -0.053591672 -0.056564428
0002e0 cc 2e a9 bd 3d 46 87 3d a1 eb dc bb ea d3 48 be
       -0.08260879 0.06605194 -0.0067419563 -0.19612089
0002f0 32 4f da bb b4 ea 09 be 75 cc c4 3c 88 1a 14 3d
       -0.006662273 -0.13468438 0.024023274 0.036158115
000300 1f 12 aa 3d 6a 5a 1e be 19 6d 55 bc 4d c7 53 bd
       0.083042376 -0.15464178 -0.013026499 -0.05170374
000310 37 ae 11 be c0 73 d0 3d 66 ee a8 bc 70 c2 b8 ba
       -0.14226614 0.101783276 -0.02062149 -0.0014096033
000320 a6 e4 37 bb 32 7a b5 bc b0 54 68 3d 74 fa a9 ba
       -0.002805987 -0.022152994 0.05672139 -0.0012968318
000330 3f 45 80 3d 3a 25 8a 3d 8b c7 d2 ba 91 c6 99 3c
       0.06263208 0.06745382 -0.0016081197 0.018771442
000340 9a bf 42 ba 7a b4 b6 3d 3c db 30 bc ab f6 8b bd
       -0.00074290636 0.08921142 -0.010794457 -0.068341576
000350 ec fe 0d bd 64 1b 89 3c 3e ab 6a 3d f9 b4 cc 3d
       -0.03466694 0.016736694 0.057292216 0.09995455
000360 a3 c8 52 bd c2 49 e9 3d 72 91 ed bd 49 64 01 3e
       -0.051460873 0.11391021 -0.11600007 0.12635912
000370 84 25 c0 3d 32 c2 98 3c 98 a6 9e bc 89 18 7c bd
       0.093821555 0.018647287 -0.019366547 -0.061546836
000380 af a5 4c 3c ff 31 34 3a 30 2a a0 bd 87 6b e8 3c
       0.012490674 0.0006873905 -0.078205466 0.028371586
000390 0b a9 b5 bd 55 29 b1 bd 87 46 1d 3d 30 7a a6 bd
       -0.08870133 -0.086504616 0.03839734 -0.08128774
0003a0 a8 a2 16 bc bd e8 00 be ed 89 8b 3d 37 bf 84 bd
       -0.009194054 -0.12588783 0.06813417 -0.06481784
0003b0 8c 31 81 bd 20 64 0f 3c 6e 71 5d 3c 0b 18 0e bd
       -0.063082784 0.008751899 0.013515813 -0.034690898
0003c0 77 c0 a1 3b a4 9b 75 3d 20 4c 02 bd 7e f4 05 3d
       0.0049362737 0.059962884 -0.03181088 0.03270387
0003d0 41 df 5f 3d cd bc 2c be aa f7 33 3d 63 38 d8 3d
       0.05465627 -0.16868897 0.043937363 0.1055763
0003e0 d8 88 2a bd dc 93 24 3e 77 6b 9e bc e0 a0 b7 3d
       -0.04163441 0.16072029 -0.019338353 0.08966231
0003f0 a8 20 0b 3d cd a3 d8 3d d3 fe d3 bd 71 42 3c bd
       0.03396669 0.105781175 -0.10351338 -0.0459618

bias_ih f4 [512]
000000 50 93 17 3e c4 36 1d 3e 4a c1 37 3d 68 07 77 bc
       0.14802289 0.15352923 0.04486207 -0.015077449
000010 e3 ba a8 3d bd 27 b3 3d be 8a d0 3d 5c 66 29 3e
       0.08238771 0.08747814 0.10182713 0.16542953
000020 2c 68 7b 3b 9f a2 42 3c 6d 82 db 3b 54 3d 9e 3d
       0.0038361652 0.011879592 0.0066988976 0.07726541
000030 e4 ed df 3d 9d 9c b0 3d 4b 39 f5 bc d1 1f b9 3d
       0.10934046 0.086236216 -0.029934546 0.090392716
000040 fe df 37 3d 48 5e a0 3d a7 67 94 3d 36 50 87 bc
       0.04489135 0.07830483 0.072463326 -0.01651774
000050 67 09 26 3e 64 ef c9 3d b1 be b4 3d 7b 56 d8 3d
       0.16214524 0.09860113 0.08825434 0.1056337
000060 e5 8a 80 3a 0a 7a 9a 3d bd 02 ba bc 0b a1 59 3d
       0.0009807019 0.07542808 -0.022706384 0.0531321
000070 65 11 e5 3d 84 bf eb 3c da 78 14 bc 2a 51 1c 3d
       0.11184958 0.028777845 -0.009062016 0.03816334
000080 12 af a1 bc 74 95 25 bc 6e cc 98 3d 38 95 b4 3c
       -0.0197368 -0.010106433 0.07460867 0.02204381
000090 8c 7d 37 3e 94 c2 1b 3e d0 66 0b 3d 6e cc 8d 3d
       0.17918986 0.15210944 0.034033597 0.069237575
0000a0 2e d2 be 3d 22 1d 30 bd 47 f8 e2 bb d8 1b fe 3c
       0.09317432 -0.042996533 -0.0069265696 0.031019136
0000b0 f8 98 18 3e 5d 34 10 3e 91 b2 6f 3d 4d 70 8a 3c
       0.14902103 0.14082475 0.058519904 0.016899252
0000c0 c9 4c 46 bd 28 7c 0a 3e 53 14 31 3d a1 d0 87 3d
       -0.04841307 0.13523924 0.043232273 0.0663159
0000d0 3d f6 11 3c 0b 03 0a 3d e0 e0 9b 3c 60 69 05 3e
       0.008908805 0.03369431 0.019028127 0.13028479
0000e0 9b 92 96 3d 14 b3 33 3e 52 0a 24 3e 69 00 de 3d
       0.073521815 0.17548782 0.16019562 0.10839922
0000f0 fc d1 2d 3e 2d f1 81 3d 7f 87 03 3e ee 7f 9b 3d
       0.16974634 0.06344829 0.12844656 0.0759276
000100 ae 50 46 bc ce fd 45 3e eb c2 d8 3d 71 34 7c 3d
       -0.0121041965 0.193351 0.10584053 0.06157345
000110 49 84 7a 3e 5d c6 bb 3c 6a 41 e5 3c b2 f3 f1 3d
       0.24464525 0.022921735 0.027985293 0.11814059
000120 56 ff ff 3d e9 56 2d 3e a1 f1 d9 3d f8 97 ae 3d
       0.12499873 0.16927685 0.1064179 0.085250795
000130 c1 62 f3 3d 9d e1 a9 3d f7 b5 b4 3a 87 0a b1 3d
       0.1188407 0.082949854 0.001378714 0.08644586
000140 ca 35 17 3d 09 ec 9a 3d fa 4e 6c 3d 6b 74 ed bc
       0.03691653 0.075645514 0.057692505 -0.028986176
000150 69 f1 22 3c a2 b9 5a 3d 43 2c 4a 3d a5 b6 d0 3d
       0.009945252 0.05339969 0.049358618 0.10191087
000160 64 30 52 3d 55 f0 0b 3e db 98 4b 3d e8 71 8d 3c
       0.05131568 0.13665898 0.04970632 0.017266229
000170 0b a3 7b bc ff 1c fe 3c 1d 5e 4c 3c a1 42 bb 3d
       -0.015358697 0.031019686 0.01247361 0.09143568
000180 2d 0d d9 bc 8d 3a 04 3e 79 53 bd 3d 99 cf e2 bc
       -0.02649554 0.1291296 0.09244437 -0.02768688
000190 6d 62 09 3d 9b 0e 1f bd 5f 6f c6 3d ac cf 88 3c
       0.03354113 -0.03883229 0.09689211 0.016700588
0001a0 7c 50 4b 3e 53 8f 8b 3b ff ed 1b 3e 01 74 26 3e
       0.19854921 0.004259029 0.15227507 0.1625519
0001b0 96 7b 17 bc a7 d1 95 bc f5 ff bb 3d e0 d6 9f 3d
       -0.009245774 -0.018288447 0.09179679 0.07804656
0001c0 a6 a1 18 3e cc da 53 3d e7 1e 0d 3e ad 49 a2 3d
       0.14905414 0.051722333 0.1378132 0.07924209
0001d0 56 18 0a 3e 58 9a 23 3e 20 e7 de 3d e0 5f f2 3b
       0.13485846 0.15976846 0.10883927 0.007396683
0001e0 9c ea ce 3d d2 84 b7 3d 69 69 ef bc c7 da 20 3e
       0.10103342 0.0896088 -0.029225068 0.15708457
0001f0 f0 25 c8 3d e5 53 ae 3d 9f 3c 58 3c 3b 34 85 3d
       0.09772861 0.08512095 0.013198047 0.06504103
000200 c4 3a bb 3d f2 ea 97 3d 29 80 87 bd 3f d3 20 3d
       0.09142068 0.07417859 -0.066162415 0.03926396
000210 0b 7b ae bc 0c 08 8d 3d 58 45 90 bd 7c 10 a9 3d
       -0.021298906 0.068863004 -0.07044476 0.08255097
000220 7b 43 de 3c 66 99 92 bd 82 cf c2 3c c1 d5 98 3d
       0.027131787 -0.07158165 0.023780588 0.07462645
000230 ae 06 bb bd 19 bc 5f bd f6 a9 58 3b a5 22 4c 3b
       -0.091321334 -0.054622743 0.003306029 0.003114858
000240 a7 68 f4 bc 9a 50 7e bc 70 c2 cd bc ef 20 b2 3b
       -0.029835058 -0.015522147 -0.02511713 0.005436055
000250 05 24 65 bb 90 a2 4c 3c e1 f8 74 3c 3f 31 98 3c
       -0.0034964096 0.01248993 0.0149519155 0.01857817
000260 f3 6f 18 bd c6 5b 8d 3c c5 b9 ff 3c 93 7b 96 3d
       -0.037216138 0.017255675 0.031216512 0.07347789
000270 e1 16 47 3d 68 09 76 bc 9d 8f 8d bd 84 64 68 3d
       0.048605803 -0.015016891 -0.06912158 0.056736484
000280 45 48 25 bd 24 32 f7 3d 57 16 00 bd 4f 4e ce 3d
       -0.040352125 0.120701104 -0.031271305 0.1007353
000290 7d ba a5 bc 8e ab 07 be 9f cc d5 3a e5 c8 e4 bc
       -0.020230526 -0.13249037 0.0016311592 -0.027927825
0002a0 0b 06 f5 3c e5 25 73 bd 5f 8e 96 3d dd 85 83 3c
       0.029910108 -0.05936231 0.07351374 0.016055042
0002b0 a9 bd 8c bd b2 55 6f 3d 75 cc b7 3c ea ea 8f bb
       -0.06872112 0.058431335 0.02243636 -0.0043920176
0002c0 50 70 7c bd b0 31 fb 3c 88 f0 2f 3d a4 aa f2 3b
       -0.061630547 0.030663341 0.042953998 0.007405596
0002d0 b5 23 14 bd c4 1c 54 3d d2 f8 d5 3b ec 0f 3c 3c
       -0.036166865 0.051785246 0.006529906 0.011478405
0002e0 8a 78 80 bd 1d 9c 1c 3d 9b 20 1e bd 88 c6 b6 3c
       -0.06272991 0.03823482 -0.038605314 0.022311464
0002f0 8c c2 ac 3d e5 20 17 3d 82 f4 41 3d 48 26 6a bd
       0.08435544 0.036896605 0.04735232 -0.057165414
000300 16 8c fe 3d c0 1d 76 3b 95 69 cc bc 01 2c 0b 3e
       0.12429063 0.0037554353 -0.02495269 0.13591005
000310 94 d4 e8 bd 8c c3 39 3d f8 a4 8e bc 28 79 b3 3c
       -0.11368671 0.045352504 -0.017412648 0.021908358
000320 e6 68 92 bc be c9 89 bd 1b 39 68 bd 37 cd 8e bc
       -0.017872285 -0.067279324 -0.056695085 -0.017431838
000330 a2 fa 0f bd 2b 36 0c bd eb df 0d 3d e5 8b 13 3d
       -0.03515113 -0.034231346 0.034637373 0.036022086
000340 49 40 c7 3a 5f e5 69 bd 5e e9 6e bd 47 56 a4 bd
       0.0015201654 -0.05710351 -0.058328025 -0.080242686
000350 d6 ee 0c bc d2 a4 86 bc 13 24 66 bc 09 ef f1 3c
       -0.008601865 -0.016436014 -0.014046687 0.029532926
000360 a9 01 6a bd b0 ab 11 3d 57 bd 0a 3d 8d 20 d0 3c
       -0.05713049 0.035564125 0.033871975 0.025406146
000370 60 eb e0 bc e3 b4 a5 3d 80 27 3c bd fe 43 86 3d
       -0.027455986 0.08091142 -0.045936108 0.06555937
000380 25 e9 95 bd da a5 d7 bd e0 ff c2 bb 32 a1 77 bc
       -0.073198594 -0.105296806 -0.005950913 -0.015114116
000390 4d fd 43 bd f2 db e2 3b 39 a3 92 3c 7e 3c 81 bb
       -0.04784899 0.006923192 0.017900096 -0.003943979
0003a0 04 0b 71 bd 1b ed f9 3d bb 7b df bc 7b 70 ab bc
       -0.058848396 0.122034274 -0.027280679 -0.020927658
0003b0 69 3a af 3c 96 ed 01 3b e9 03 6c bc 06 6b f1 3c
       0.021390157 0.001982545 -0.014405229 0.029469978
0003c0 c2 25 7e 3d d6 a7 2e 3c a0 0a e4 3c aa b6 bc bd
       0.062047727 0.010660132 0.027837098 -0.09214528
0003d0 4b 03 8d 3c 20 d3 c1 3b b1 f9 4f bd 9e 91 d2 3c
       0.017213484 0.0059150606 -0.050775234 0.025704201
0003e0 e1 f1 9a 3d f3 bb 52 bd 6a ed 16 bd 44 8b be 3b
       0.07565666 -0.051448774 -0.03684751 0.0058149416
0003f0 53 b5 35 3c 52 aa 14 bc 3f 0c a6 bd 71 90 9e bc
       0.011090594 -0.009073811 -0.081078045 -0.019355984

bias_hh f4 [512]
000000 50 6e 9f 3d 11 92 84 3d c8 17 11 3e c2 1c 39 3c
       0.07784712 0.064731725 0.14169228 0.01129836
000010 f9 2a 83 3d 35 86 90 3d ff e3 01 3e e8 fd 24 3e
       0.06404681 0.07056848 0.1268463 0.16112483
000020 bb 3c 5d bc 80 a2 87 3d ee b9 be 3d 1d 5c 0c 3e
       -0.013503249 0.06622791 0.09312807 0.13707013
000030 2f 66 0c 3d c8 c9 d0 3c 8e 7f 95 3d 75 05 e1 3d
       0.034277137 0.025486842 0.0729972 0.10987369
000040 a2 a0 49 3c e0 85 0a 3e 83 d3 4b bd 0d 90 02 3e
       0.012306364 0.13527632 -0.04976226 0.12750264
000050 4b 9a 40 3e 9a 28 0f 3e 0a 0d 87 3d f7 e0 d7 3d
       0.18808858 0.13980332 0.06594284 0.105409555
000060 58 77 fc 3c 37 04 06 3e e0 c6 0d bd 25 4f c7 3b
       0.030818626 0.13087545 -0.03461349 0.006082433
000070 32 f6 5f 3d d7 be f3 3d 5a 47 25 3d 76 0f 6a 3d
       0.05467815 0.11901634 0.04035125 0.05714365
000080 2f 23 d1 3d 95 ef 21 3d 36 9b 04 bd 34 3a 70 3d
       0.10211789 0.039535124 -0.032374583 0.058649257
000090 aa c5 53 3c 88 65 ca 3d 33 49 db 3d f6 31 67 bd
       0.012925545 0.09882647 0.10707321 -0.05644413
0000a0 70 7c 3b 3e 43 b9 8e bd 53 fa c6 3d 13 69 f8 3c
       0.18309188 -0.069689296 0.09715714 0.03032354
0000b0 e8 b3 df 3d b7 a8 c0 3d 41 68 d4 3d 60 01 ab bd
       0.10922986 0.0940718 0.10371447 -0.08349872
0000c0 a0 71 ab 3c 62 17 28 3e 63 05 ef 3d a1 30 d8 bc
       0.020928204 0.1641517 0.11670949 -0.026390376
0000d0 be aa c3 3d 72 13 4c bd 09 43 c0 3d ca 66 31 3e
       0.09554051 -0.049823232 0.09387786 0.17324367
0000e0 23 e4 f1 3d 3c 47 ed 3d e5 94 02 3e 91 89 18 3d
       0.11811092 0.115858525 0.12752111 0.03724057
0000f0 66 52 34 3e 73 da f1 3d fb 4a 7c 3d d2 ae e3 3d
       0.17609558 0.11809244 0.061594944 0.11117329
000100 9a 9e 12 bc 8b 1d e5 3d f2 a4 53 3c 03 36 b3 3d
       -0.008948946 0.111872755 0.012917744 0.08750536
000110 05 5e 8d 3e a0 82 8f 3d b5 39 c2 3d c4 ee 02 3e
       0.27610794 0.070073366 0.09483663 0.12786394
000120 54 96 86 3d fd 3d 36 3e 8e 55 fb 3c d0 8e 5c 3d
       0.065716416 0.17797084 0.030680444 0.053847134
000130 c3 52 ab 3d 80 41 fd 3d 96 42 1d 3e 4e d2 6f 3d
       0.08365395 0.12366009 0.15357432 0.05855017
000140 f1 25 f7 3d 5e c1 f6 ba 48 50 2b 3e 39 55 a7 3d
       0.120677836 -0.0018825938 0.16729844 0.08170552
000150 92 31 03 3e 3b 8d 2b 3e d5 4e 87 3d 23 f0 3a 3d
       0.12811878 0.16753094 0.06606833 0.04563917
000160 93 cd 10 3c 16 a4 d4 3d e5 ba d7 3d d5 4a 0d 3e
       0.008838075 0.103828594 0.10533694 0.13798077
000170 18 d7 ea bb dc 54 ee 3c be 30 6a 3d 8a 9c fa 3c
       -0.0071667545 0.029093198 0.05717539 0.030592222
000180 14 c7 a6 3d 66 dc 4e 3d ee 3c 14 3e e1 d0 e1 3d
       0.0814344 0.050503157 0.14476368 0.110261686
000190 d0 52 a1 bc 75 31 62 3d 79 3d 84 3d 7e 00 83 3d
       -0.019692808 0.055222947 0.064570375 0.06396578
0001a0 b6 36 7f 3e 16 5f d5 3c d8 ed 1b 3d 6c 10 59 3c
       0.24923214 0.026046317 0.038068622 0.013248544
0001b0 f3 52 3a bd 6e 07 bf 3d 35 10 ba 3d 12 a5 e2 3a
       -0.045489263 0.09327589 0.090851225 0.0017291626
0001c0 0a 1b cf 3d 61 32 ca bb 36 5c 5e bb 01 28 10 3e
       0.10112579 -0.0061705564 -0.0033929474 0.1407776
0001d0 8e dd d0 bc 56 f6 d3 3d fb 33 20 3e 82 01 7b 3c
       -0.02549627 0.10349719 0.15644829 0.015320184
0001e0 54 1d b6 3d ef 0f a8 3a 1a c4 05 3e fa 74 5d 3d
       0.08892313 0.0012822131 0.13063088 0.054066636
0001f0 7e 77 0f 3e c9 8c 0d bc 45 22 8f 3d 67 53 9d 3d
       0.14010426 -0.008639523 0.06988958 0.07681923
000200 3b e6 79 bd 22 89 a2 bc f0 41 cb bc 81 f4 09 bd
       -0.06101058 -0.01984078 -0.024811715 -0.033680443
000210 e3 0a 3d 3b 58 42 d7 3d 37 2a 08 3d 08 65 95 3d
       0.00288456 0.10510701 0.033243384 0.07294661
000220 fe 5b 7d 3d 78 e1 8e bd 70 71 bd 3c 88 8a 6a 3d
       0.06185531 -0.069765985 0.02312538 0.05726102
000230 5c 0f 16 bc 29 ad c3 3c c4 b9 3a bd 76 0f d5 b7
       -0.009158935 0.02388628 -0.045587316 -2.5398778e-05
000240 68 20 97 3d ad 42 2d 3d 03 96 c0 3d 65 03 df 3d
       0.07379228 0.042299915 0.094036125 0.10889319
000250 fb c6 65 3d dc ee 03 bd ed 28 3d bd 41 81 2e bd
       0.056097966 -0.032210216 -0.046181608 -0.042603735
000260 1b a5 cc 3d 4a 43 a4 3c fe bf 87 3c ba c6 a6 3c
       0.09992429 0.020051617 0.016571041 0.020358432
000270 4d 03 e4 bc 57 3a f1 3d cb 82 75 bd 59 3f 95 3c
       -0.027833605 0.117787056 -0.059939187 0.018218683
000280 d6 88 8d bc 79 d0 e4 3d ac 02 f9 3c 4e 04 b0 3c
       -0.017277163 0.111725755 0.030396782 0.021486428
000290 c7 83 e0 3a 2e dc 1d be bd 89 f2 bc 5b bf a4 3d
       0.0017129116 -0.15416023 -0.029606694 0.08044311
0002a0 f5 59 30 3d 85 01 8b 3d 18 85 82 bd 60 8f df 3d
       0.04305454 0.06787399 -0.06373042 0.109160185
0002b0 96 f3 ad 3c 29 ea 3b bd 83 d7 64 3d 7f ca 1e 3d
       0.021234315 -0.04587761 0.05586959 0.038767334
0002c0 13 55 70 bd bd f5 ea 3c 9a eb 85 bd 18 e8 c9 bb
       -0.058674883 0.02868163 -0.06539078 -0.006161701
0002d0 b8 12 2f 3b 19 a4 11 3d 73 78 99 bd 9c ec 4e bb
       0.0026714038 0.035556886 -0.07493677 -0.0031574136
0002e0 72 e6 a9 bd 8f de 92 3d d6 b0 54 3a f5 57 89 bc
       -0.08295907 0.07171356 0.0008113509 -0.016765574
0002f0 d4 c2 38 3d 90 ea 82 bd 6c 4f 24 bd 3c 8f 40 3d
       0.045107678 -0.063923955 -0.040114805 0.0470116
000300 1d 87 81 3d b2 f6 69 3d f4 0b 26 bd 8c 1e 01 3e
       0.06324599 0.057120033 -0.040538743 0.12609309
000310 12 37 c2 bd d3 64 eb 3d 4e ce cf bc 02 1f fd 3c
       -0.0948316 0.1149384 -0.025366928 0.030898575
000320 91 70 1e bd 74 75 c7 bd 7b f5 8c bd 3d 98 c1 bb
       -0.03868157 -0.09739199 -0.06882759 -0.005908041
000330 ec 49 b2 bb 2d 0d 4e 3d b8 6b 94 bd 30 64 fb bc
       -0.005440941 0.050305534 -0.07247108 -0.030687422
000340 1c 47 a2 bd 47 7d 14 bd 2a cd 82 3d 41 cc 24 bd
       -0.07923719 -0.036252286 0.06386788 -0.040233854
000350 92 78 59 3b 13 22 5d 3c f1 d5 90 bc 40 04 75 bd
       0.0033183438 0.013496893 -0.01768014 -0.059818506
000360 a9 6c a9 bc 35 d4 49 3d a7 ba 10 bb 44 7d 8f 3d
       -0.020681696 0.049274642 -0.002208391 0.070063144
000370 6a 12 c2 3d 21 fa e9 3d 95 c2 ee 3d a8 ec 3f 3d
       0.094761685 0.114246614 0.11658207 0.046856552
000380 bd 04 8e 3c 5c 18 db 3b c8 d4 2f bd 1d 2c 8c 3d
       0.017336244 0.0066862535 -0.042927533 0.068443514
000390 2d a1 3d bd 8d 65 07 bc 7f 29 b1 3c 43 41 46 bc
       -0.046296287 -0.008263958 0.021626232 -0.012100521
0003a0 c2 e2 05 3d bc 22 d9 3d 7a 54 95 3d 75 ef 82 bd
       0.032686956 0.10602328 0.07291503 -0.06393329
0003b0 84 35 25 3d bc 22 a5 bd 86 93 2f 3d b5 2a 4d bc
       0.04033424 -0.08063266 0.0428653 -0.012522389
0003c0 1a 47 44 bd fa fc 4f bc 3f e8 e1 bd ed 63 d1 3c
       -0.04791937 -0.012694592 -0.110306256 0.025560344
0003d0 3c 7b cb 3d a5 23 17 bd 06 19 8f bd b2 f7 9e 3c
       0.099356145 -0.036899228 -0.06987195 0.01940522
0003e0 9c fd 56 3d 1e d3 8e 3d 52 d8 dc bb 20 1b e9 3b
       0.052487954 0.06973861 -0.0067396546 0.0071138293
0003f0 d1 d6 9e bc be 4c 16 3d dd fd a1 3d 0f d6 bd bd
       -0.019389542 0.03669428 0.07909749 -0.09269344

weight_ih f4 [512, 128]
000000 29 ed 8a bd 9e 83 47 ba f9 25 0e be f1 3e 02 be
       -0.06783516 -0.000761086 -0.13881673 -0.12719323
000010 5f 1b 6b bc f0 62 99 3c 9e 52 06 3c 0a 31 6f 3c
       -0.0143497875 0.018723935 0.008198408 0.014599094
000020 a1 5d 63 3d bf 9b d3 bc 8b 13 73 bd 57 b1 cf 3c
       0.055509213 -0.025831101 -0.05934481 0.025353117
000030 45 9b 86 3c 30 72 16 3e ac ff 80 bd d7 2c af 3d
       0.01643146 0.14691997 -0.062987655 0.085534744
000040 12 4b 27 3d 54 90 85 3c f0 ff 0e 3d bb da 0a be
       0.040843077 0.016304173 0.03491205 -0.13560002
000050 e7 82 4f 3d dc 19 2b bd 86 64 77 bd 4d ee ef 3d
       0.050661948 -0.04177271 -0.0603986 0.11715374
000060 86 a7 e1 3d f2 6e 10 bd 8a 67 cc ba a8 da 45 3d
       0.11018281 -0.035262056 -0.0015594822 0.04830423
000070 0e d3 37 bd c5 2a 0a bd 83 46 03 be 25 3d 06 3d
       -0.04487901 -0.033732194 -0.12819867 0.032773156
000080 da 8b 3b bd 8b 68 1c 3d 9d cc 6f 3c 66 de f3 3d
       -0.04578767 0.038185637 0.014636186 0.119076535
000090 1a 3e 8f 3c f4 aa 26 bd ae 3f 23 3d 06 cd e3 bc
       0.017485667 -0.040690377 0.03985565 -0.027807724
0000a0 4e d3 95 3c 85 1c e7 3d 4c dc 7e 3d 78 52 e2 3d
       0.018289234 0.112847365 0.06222181 0.11050886
0000b0 c2 0f 95 3d 3d a5 5c 3c 19 85 d6 bd c5 4c 8c 3d
       0.07278396 0.01346713 -0.10474605 0.0685058
0000c0 66 b6 3c bd 56 bd b9 3d d2 ee 8b 3d f4 66 f7 bd
       -0.046072386 0.09069316 0.06832661 -0.120801836
0000d0 0a 0c 15 bc 80 94 96 3d f0 be 9a bc 65 56 a3 3d
       -0.009097109 0.07352543 -0.018889874 0.07975463
0000e0 cb 70 ea bb b9 9e 47 bd 39 05 0b bd ae 59 8f bb
       -0.0071545593 -0.048735354 -0.033940528 -0.0043747043
0000f0 d2 5c d3 3c 73 51 10 be a4 5b 59 bd 36 56 e7 3d
       0.025801096 -0.1409357 -0.05306591 0.1129574
000100 55 6d 27 3c 3d 56 8b bd fd d5 52 bd 4c a2 8b 3d
       0.010218938 -0.06803558 -0.051473606 0.06818065
000110 4a f9 11 bc 3b 43 d2 bb 75 1c 69 3d 62 aa 52 3d
       -0.008909533 -0.006416706 0.056911904 0.05143202
000120 9a 72 4c 3d e6 df 8b 3d d6 7d 63 3d cf 03 ca 3d
       0.04991398 0.068298146 0.05553993 0.09864008
000130 db a5 21 3d db dd 68 bd 4a 68 a2 3c 05 6c d0 3d
       0.039464813 -0.056852203 0.01982512 0.10176853
000140 6f 1e bb bc 5e 42 29 3e 36 f4 a9 bc 13 10 20 bd
       -0.02284166 0.16529223 -0.020746332 -0.03907783
000150 84 89 25 3c 6d eb 82 3b 5b 1b 71 bd 4b e1 0b be
       0.010103587 0.00399535 -0.05886398 -0.13660161
000160 47 62 10 3c 52 ce 4d bd 0b f3 ae bd 61 69 e7 3d
       0.008812494 -0.05024559 -0.085424505 0.11299396
000170 97 48 9d 3d af 31 dc bd b2 2b 4b bc 56 b1 aa bd
       0.07679861 -0.10751664 -0.0124005545 -0.083346054
000180 d6 3b 05 bd 89 6b 52 bc ce dc 4f 3d a7 ed 21 3c
       -0.032527767 -0.012843021 0.050747685 0.009883321
000190 f2 ee 9a 3d 7a 1b 65 bd f6 76 0e 3e c7 3f 56 bd
       0.075651065 -0.055934407 0.13912567 -0.052306917
0001a0 5b bd 67 3c 77 9a 24 be 97 c3 0e 3d 49 92 0e 3c
       0.014144267 -0.16074549 0.034854498 0.008701869
0001b0 26 43 c3 bc 51 68 cf 3d 8f db 9d b8 49 49 94 3d
       -0.02383573 0.10127319 -7.527239e-05 0.072405405
0001c0 87 bd 75 bb 84 58 67 bd b2 86 0b bd 3d 72 b6 3d
       -0.0037497 -0.0564809 -0.034064002 0.08908508
0001d0 c4 0f 03 3e 71 e4 27 be 34 81 13 3e 98 1d db 3c
       0.12798983 -0.16395737 0.14404756 0.02674751
0001e0 11 99 78 bd c5 86 b3 3d 75 97 22 be 67 61 d3 3d
       -0.06069285 0.087659396 -0.15878089 0.103213124
0001f0 dc 1a be 3c 9d 06 68 3d 7e e4 b3 bc de ca 35 3c
       0.023206167 0.056646932 -0.02195954 0.011095731
000200 45 41 22 3d fd a5 c5 3d cf 91 87 3c 56 1a e8 bc
       0.039613027 0.096508004 0.01654902 -0.02833287
000210 86 b6 d8 bd a0 1d 6d 3d c3 2b 46 bd 13 d6 01 bd
       -0.105816886 0.05788958 -0.04838158 -0.031698298
000220 69 f4 1f 3e 0d 2f 4f 3d cf 4f 3b be 8f 5f f2 3d
       0.15620579 0.05058198 -0.18292163 0.118346326
000230 b8 1c 02 3d 21 90 c8 3b ce 4c 70 3c 64 59 2b bd
       0.03176567 0.006120697 0.014666749 -0.041833296
000240 56 24 e5 3d 0d 73 6e 3c ae 52 32 bd 0e a1 04 bb
       0.11188571 0.014553797 -0.04353588 -0.0020237598
000250 25 8e 5e 3d c9 d2 1f 3d 99 d8 38 bd 61 94 56 3d
       0.05433478 0.03901938 -0.04512844 0.0523876
000260 eb 68 3b be fc 1e a4 3d 77 bd 13 bd 8e 2c 83 bd
       -0.18301742 0.08013722 -0.03606936 -0.064049825
000270 6f b6 02 3d 7b 2d 74 bd c2 d7 96 3d 54 c6 b1 3d
       0.031912263 -0.059613686 0.07365371 0.08680406
000280 3d 16 90 3d 88 cf 06 3c cc 2e 40 3d 46 a2 bf 3d
       0.070354916 0.00822819 0.04691963 0.09357123
000290 f3 2b ad bd 20 2c ac bd 82 d3 e6 3c d7 40 7e bd
       -0.08455648 -0.08406854 0.028177027 -0.062073555
0002a0 26 45 90 3d 17 7c 10 bd 6e ec c0 3d 39 46 e0 3c
       0.07044439 -0.03527459 0.094200954 0.027377235
0002b0 68 cc 3a 3e 20 f5 dd bc 39 15 2d 3d 54 bd ce 3c
       0.18242037 -0.027094424 0.042256568 0.025236763
0002c0 ba 77 df 3c 78 fa 92 3d 8e ff f3 bd 09 5d a9 bd
       0.02727877 0.071766794 -0.119139776 -0.08269698
0002d0 b8 a8 80 3c 4b 1e 05 3e c8 38 3a 3b 25 d8 7e 3c
       0.015705451 0.12999837 0.0028415192 0.015554463
0002e0 7f 6f 2b bc 84 00 8b bc 13 58 ca 3c e2 90 23 bd
       -0.010463594 -0.01696802 0.0247002 -0.039933093
0002f0 b1 75 f7 bb 70 e8 ce bd 66 a0 f0 3d 9b f9 8a 3c
       -0.0075518717 -0.10102928 0.117493436 0.016964724
000300 c7 06 a3 bd 98 65 20 bd 68 cf f1 3c cf 26 36 3d
       -0.07960277 -0.039159387 0.029517844 0.044470605
000310 78 3a a0 3d e2 a6 4f 3c 0e a2 55 bd 17 2c ad 3d
       0.07823652 0.012674065 -0.0521565 0.08455675
000320 ed fa bf bd 03 4b 0a 3d 7a 17 b1 bd a2 04 08 3b
       -0.09374032 0.033762943 -0.08647056 0.0020754714
000330 e5 b8 09 3e f0 5c e0 3d 17 ba f0 bd 4d 15 a3 bc
       0.13449438 0.109552264 -0.11754244 -0.019907618
000340 e6 c0 d8 bc d6 31 4f 3d 19 da 06 be e7 1f 65 3d
       -0.026459169 0.050584637 -0.13169135 0.055938628
000350 43 8f 45 bd 8f ea d2 3c a4 d2 85 3c 02 1b 37 be
       -0.04823233 0.025746612 0.016335793 -0.17881396
000360 42 16 85 bb 1c 9a 64 3c 0b 41 8e ba ee 56 b0 bd
       -0.004061491 0.013952758 -0.0010853125 -0.086103305
000370 28 26 22 3d 83 e0 d9 3d 84 96 1e bd 1a 1c 30 be
       0.03958717 0.10638525 -0.03871776 -0.1719822
000380 78 cd c0 bd 29 2e 28 3c c5 f6 2b 3c a4 83 aa bc
       -0.0941419 0.010264912 0.010495846 -0.020814724
000390 c1 62 a6 3d 76 c3 f2 bd fa e9 17 3e 1c 55 52 bd
       0.081243046 -0.118536875 0.14835349 -0.051350698
0003a0 d5 33 4b bd 88 05 d9 bd 6e 0b bd 3d d6 9e a4 bd
       -0.049609978 -0.10596758 0.09230696 -0.08038108
0003b0 32 cd 7b 3d f1 88 c4 bc 30 ef 61 3d 08 ae c2 3d
       0.061474986 -0.02399108 0.055159748 0.0950585
0003c0 bf b3 b5 3c 4d 8b 28 be c1 fe 31 bd 00 9d c7 3d
       0.022180436 -0.16459389 -0.043455843 0.09746742
0003d0 c0 b8 0b bc 1d 74 89 bc f6 8f 40 3d 5f 19 70 bd
       -0.008527935 -0.016779 0.04701229 -0.058617946
0003e0 f1 e9 90 3d 96 56 f4 bd 43 37 0c 3d a1 b2 bc 3d
       0.07075871 -0.119305775 0.03423239 0.09213758
0003f0 38 2d 86 bd d4 f5 ca 3b 3a a4 bc 3b fb 61 23 3e
       -0.065515935 0.006193856 0.005756882 0.15955345

weight_hh f4 [512, 128]
000000 de ea 4d 3c ef d7 8c bd 6c 24 58 bd eb fa bd bc
       0.012568204 -0.068771236 -0.05276911 -0.023190936
000010 5a cc 81 3d 0a 24 c0 bd 56 c1 6f 3d 18 ac 98 ba
       0.06337805 -0.09381874 0.05853399 -0.0011647968
000020 c3 a0 c5 bd d3 b2 a4 3c e5 47 8a bc c5 95 40 3d
       -0.096498035 0.020104801 -0.016879985 0.04701783
000030 45 34 ad bd 08 cf 05 bd 2a 62 07 bd e8 47 98 bd
       -0.08457235 -0.032668144 -0.0330526 -0.0743559
000040 21 7d d8 bc a8 bb 01 3e 4d 51 fb bd ed 57 96 bd
       -0.026426854 0.12669241 -0.12271366 -0.07340989
000050 77 97 6e bd 34 38 cc bc 14 26 7c 3d d2 24 ff bc
       -0.058249917 -0.024929143 0.06155975 -0.031145487
000060 20 6c c7 bd b0 d1 fc 3d db 75 6b 3d e7 fb 65 bd
       -0.0973742 0.12344682 0.057485443 -0.056148436
000070 6a b5 13 be 2e 75 d5 3d c9 38 ae bd 8b 30 2d 3d
       -0.14424673 0.10422741 -0.08506925 0.042282622
000080 5c 57 ca 3d a2 c3 90 bd 29 14 8c 3a 25 3e 08 be
       0.09879944 -0.07068564 0.001068716 -0.13304956
000090 9a 7e 9a bc 22 91 75 bd 1b ca 07 be 94 6e 76 bd
       -0.018859196 -0.059952863 -0.13260691 -0.06016405
0000a0 80 ae de bd 25 8c 08 3e 87 48 1f 3e 13 b6 89 bb
       -0.10873127 0.13334711 0.1555501 -0.004202613
0000b0 61 b3 2e 3d 2a 18 52 bb 4a df 61 3d e9 0e 5c 3d
       0.042651538 -0.003205786 0.055144586 0.053725157
0000c0 e2 a7 fb 3d 00 1a a8 bd df b4 22 bd 2b d0 97 bd
       0.122878805 -0.08208084 -0.039723273 -0.07412752
0000d0 77 b9 64 bc 89 ff a5 bc 25 c1 73 bd 49 18 86 3c
       -0.013960234 -0.02026345 -0.05951037 0.016369002
0000e0 4d 90 78 bd 46 e6 1d bd d2 13 b0 3d 6b cd 82 3c
       -0.06068449 -0.038549684 0.085975304 0.015967092
0000f0 8f 13 0d 3e c6 fe 99 bd a8 4a f7 3c 19 38 b7 3d
       0.13776992 -0.07519297 0.030186966 0.08946247
000100 4f 82 9f 3d eb b6 1d be 4e 90 ef 3d ca 54 f2 bc
       0.07788526 -0.15401809 0.11697446 -0.029581446
000110 c0 0c 2b bc a4 b7 28 3d 13 06 a3 bb c2 d8 36 3d
       -0.010440052 0.04119076 -0.0049750893 0.04464031
000120 d3 fb af 3d d2 6d 36 3d 67 6b af 3d 2f 48 9c bd
       0.085929535 0.044538327 0.08565407 -0.076309554
000130 49 0b d1 bd fc 8c 8a 3d c8 b6 d1 3d 8c b8 35 3d
       -0.102072306 0.06765172 0.10239941 0.04436545
000140 89 09 af bc 51 58 f0 3c 45 1a fa 3d 79 a8 80 bd
       -0.021366851 0.029338988 0.12212042 -0.062821336
000150 b9 fe 93 3d bd 6c 56 3b fc af 31 3d d7 e3 3f bd
       0.07226319 0.0032718622 0.043380722 -0.046848144
000160 15 b3 98 3d a5 cd 15 bd bb b6 c1 3b 00 76 bb bd
       0.07456032 -0.03657307 0.0059116757 -0.09153366
000170 f4 0c b4 bd 09 de 87 bd a1 2b 80 bc c9 3f d0 bd
       -0.08791533 -0.06634147 -0.015645804 -0.10168416
000180 05 f2 d6 3b 49 4e 9a 3d 65 3a f3 bc 41 b6 f0 3c
       0.0065596127 0.07534463 -0.02969093 0.02938378
000190 86 ef a3 bd 63 9d 51 bd 7b 77 98 bc e1 eb 2a 3c
       -0.0800467 -0.051175486 -0.01861166 0.0104322145
0001a0 e8 16 90 3d 2d 2e 37 bd 25 df 49 3d 79 5b d6 bd
       0.07035619 -0.04472177 0.049285073 -0.10466666
0001b0 c7 f1 b6 3d d2 3a 32 3d c7 5f a1 bd b4 21 d9 3c
       0.08932834 0.043513127 -0.07879596 0.026505329
0001c0 e9 ac 6c 3d db a0 da 3c cf 80 db 3d cf 3b a6 3c
       0.057782087 0.02668803 0.10717928 0.02029219
0001d0 8f 5c b3 bd b6 cb b7 bd 87 2b c8 bc e4 0e c2 3d
       -0.087578885 -0.08974402 -0.024434818 0.094754964
0001e0 b2 d7 41 3d 83 92 c3 bd 93 e9 80 bc a2 78 df 3d
       0.047324844 -0.09549429 -0.015736377 0.10911681
0001f0 ec c3 f3 bc 68 44 74 3d d6 70 1d 3c d1 65 90 bb
       -0.029756509 0.05963555 0.009609422 -0.0044066687
000200 84 80 8b 3d 0f 16 4e bb 72 23 18 be 9e d9 4e bb
       0.06811622 -0.0031446253 -0.14857271 -0.0031562815
000210 cc b5 68 bb e5 ba 8f 3d 0a 27 94 3b c3 4d 87 3d
       -0.003550875 0.07018069 0.0045212554 0.06606629
000220 0c 73 ff bc 3e 82 b0 bd d6 a9 b7 3d 64 6d d4 bd
       -0.031182788 -0.08618592 0.089679405 -0.10372427
000230 fe e7 0d 3c 3f b7 a5 3d 21 95 bf bc f6 e0 ba 3c
       0.008661268 0.08091592 -0.02338654 0.022812348
000240 05 4e b1 3d 2a 78 bd 3d 8d 0d c4 3c e8 55 f6 3d
       0.08657459 0.09251435 0.023932243 0.12028104
000250 24 21 95 3d 54 71 f3 bd 17 f1 06 bd d0 63 68 bd
       0.07281712 -0.1188685 -0.032944765 -0.056735814
000260 a6 06 0b bd 57 db 93 3d d6 b4 5e bd 79 4b 8b 3d
       -0.033941887 0.0721957 -0.054371677 0.06801505
000270 44 82 f3 3d 30 44 a2 3d 5b 85 e1 3d f3 25 a0 3d
       0.118900806 0.07923162 0.11011764 0.07819738
000280 70 2e 26 3d 3a 48 22 3d eb bc 05 3e 16 d9 14 be
       0.04057163 0.039619662 0.13060348 -0.14535937
000290 3a 7e 43 bd 60 33 4b 3e d4 26 35 bd 2d 41 e0 bd
       -0.0477278 0.19843817 -0.044226483 -0.10949931
0002a0 83 72 04 bc 64 ff b7 3d e6 e1 7a bd d7 e4 7c 3d
       -0.008083942 0.08984259 -0.06125059 0.061741676
0002b0 03 bd 50 3d 16 1d 93 bd c6 fb 17 3d 89 f8 e6 bd
       0.050961506 -0.07183282 0.037105344 -0.11277873
0002c0 ae 01 ef bc 67 7b 24 3b 53 14 7a bc 5b ef b9 bd
       -0.029175606 0.0025097968 -0.015263635 -0.090788566
0002d0 d4 d7 71 3d c8 4c 01 be e0 13 f0 bd ad bb f8 bc
       0.05904372 -0.12626946 -0.11722541 -0.030362928
0002e0 df 80 e0 3d 28 0a 23 3c 0c 42 31 bd a4 38 75 bd
       0.1096208 0.009951152 -0.043275878 -0.05986847
0002f0 73 94 3b 3d 92 57 09 3d d0 52 c0 3d d6 79 64 3d
       0.04579587 0.03353078 0.09390795 0.055780254
000300 6e 1c 24 3d f0 74 dd 3c 63 9c b7 3d 07 06 be bd
       0.040066175 0.0270333 0.08965375 -0.092784934
000310 f9 4a af 38 34 43 b2 3d ef 78 65 3d 5a a5 c3 bd
       8.358615e-05 0.08704224 0.056023534 -0.09553023
000320 d5 35 a0 3d 8b 0b 85 3c 64 91 0b 3d 20 1f a3 3c
       0.07822768 0.016240856 0.034074202 0.019912302
000330 14 e1 32 bc d6 e7 37 be 9d 79 d2 bd c0 83 d1 bd
       -0.010917921 -0.17959532 -0.10277102 -0.102302074
000340 1f b9 0a 3e 8b d1 12 be 52 d5 5f bc 6a 56 8a 3c
       0.1354718 -0.14337747 -0.013661699 0.016886909
000350 cd 4b 43 3d d0 82 24 3e b9 37 c9 3d 0c ed 87 bd
       0.04767971 0.16065526 0.098250814 -0.0663701
000360 ba 40 fc 3d 87 ff f6 bc 02 71 3c 3d f8 ca b3 3c
       0.12317033 -0.030151142 0.04600621 0.021947369
000370 32 b3 91 bd ec e4 9a bd 35 17 dd 3b 6d 9a 8a bd
       -0.07114257 -0.07563195 0.0067471513 -0.06767736
000380 c7 d4 6f bd c0 11 ed bc 8d 9c 8f 3d 70 f3 60 3d
       -0.05855253 -0.028939128 0.070122816 0.05491966
000390 53 3d a8 bd 66 62 b2 3c 30 a9 c4 3c 6f 05 2d be
       -0.08214822 0.021775436 0.024006456 -0.16896604
0003a0 bd 7f 7e 3b ed b5 68 bd e1 b7 d4 bc 74 ac ed bd
       0.0038833462 -0.056814123 -0.025966587 -0.116051584
0003b0 0f e8 15 3d af fb b6 3c 91 0b c0 3d 6f 56 b0 bd
       0.03659826 0.022336809 0.09377206 -0.08610236
0003c0 a4 bd 07 3e 12 2f 1a 3d db e4 b0 bd 22 4f e1 bc
       0.13255936 0.037642546 -0.08637401 -0.027503554
0003d0 d2 d8 0c bd e4 0d 69 3d 64 96 b8 3d 65 c1 45 3c
       -0.034386463 0.056898013 0.0901306 0.012070035
0003e0 a8 15 bc bc cb d0 06 be 25 93 0d 3d bf 7d a5 bc
       -0.022959545 -0.13165586 0.034564156 -0.020201562
0003f0 b1 5f 91 3d 4f 3b 04 be 5e 36 c8 bc 08 1c 81 3b
       0.0709833 -0.1291325 -0.024439987 0.003940109

bias_ih f4 [512]
000000 a1 7f 9d 3d 21 8c 13 3e a6 ff 9d 3d 1b 14 f8 3d
       0.07690359 0.14408924 0.07714777 0.1211321
000010 8c f1 2b 3d d0 38 be 3d f6 f4 15 3e cd de ff 3d
       0.041978404 0.0928818 0.14644226 0.12493668
000020 30 da 6e 3e 58 46 9d 3d bc cd 36 bc 3d 05 16 3e
       0.2332542 0.07679433 -0.011157449 0.14650436
000030 4e 21 3d 3e 4a 39 db 3d ca 97 dd 3d f5 f4 b2 3d
       0.18469736 0.107042864 0.10819967 0.08738128
000040 07 8d 43 3d e8 2d bf 3d b5 a9 36 3e 28 05 e9 3d
       0.047741916 0.09334928 0.17838176 0.113779366
000050 44 91 f5 3d e7 d8 af bc 16 31 a6 3d c5 f0 95 3d
       0.11990598 -0.021465732 0.08114831 0.07321314
000060 b8 ff 93 3c 3f d2 c9 3c 85 99 d5 3d ea cb 00 3e
       0.018066272 0.024636386 0.10429672 0.12577787
000070 0b a2 6b 3b 37 8e da 3c ad 2e 2c 3e e5 83 f0 3d
       0.003595474 0.026679141 0.1681468 0.11743907
000080 99 78 8d 3e de 37 a9 3c 7d 18 1b 3d 9b 7c dc 3d
       0.2763107 0.020656522 0.03786515 0.10765954
000090 62 86 0e 3e 42 f5 b4 3d f9 fa 00 3d 8b 66 9a 3d
       0.1391845 0.08835842 0.031489346 0.0753909
0000a0 45 f8 00 3e 96 5f df 3d fd 69 3a 3e e9 00 61 3e
       0.12594707 0.109069034 0.18204494 0.21973003
0000b0 f6 b7 aa 3d 71 75 19 3c db 51 ad 3d 30 ad 52 3e
       0.08335869 0.009366379 0.08462878 0.20573878
0000c0 65 5d a2 3d 5a 11 65 3d e3 d9 95 3d 23 83 95 3d
       0.0792797 0.05592475 0.07316949 0.07300403
0000d0 2f e5 9f 3c 56 38 18 3e 7c 58 0d 3d 31 1b 0a 3e
       0.019518463 0.1486524 0.034508213 0.13486935
0000e0 86 8e b9 3d 41 24 aa 3b 50 7c 9a 3d ee f5 01 bc
       0.09060387 0.00519231 0.07543242 -0.007932169
0000f0 7e 3e 2d 3d 1a ae be ba 98 87 a9 3d ca fd f7 3d
       0.042295925 -0.0014547736 0.082778156 0.12108953
000100 c3 9a 2c 3c 3a 64 7b bc 92 44 0f 3e c5 c7 3c 3d
       0.010534945 -0.01534372 0.13991001 0.046088953
000110 d3 8b d1 3d 10 1c 24 3b 12 0d 1b 3d cd 44 ef bc
       0.102317475 0.002504114 0.03785426 -0.029207611
000120 6d 10 65 bc 69 79 13 3d 40 ee bd 3d d1 a5 29 3e
       -0.013980967 0.036004458 0.09273958 0.1656716
000130 ac 52 ab bb ad 18 dc 3d 0d 23 2b 3d 7f f3 9d 3d
       -0.005228361 0.10746894 0.041781474 0.07712459
000140 e5 aa 5a 3c 6d c4 1f 3e 99 30 7d 3d 12 4a 81 3d
       0.0133464085 0.15602274 0.061813924 0.06312956
000150 c9 56 c5 3d d7 a6 4b 3d 69 32 a9 3d 8a e5 a7 3d
       0.096356936 0.049719658 0.08261568 0.08198078
000160 4b 49 cc 3d 4e d1 97 3d ab b4 6b 3e fc 2c 52 3e
       0.09974917 0.074129686 0.23018138 0.20524973
000170 0b 43 43 3e 41 e0 0c 3e 8f 39 ff 3d 17 82 39 3e
       0.19068544 0.13757421 0.1246215 0.18116032
000180 e6 de 18 3e 9b ba 5f 3d e8 96 30 bd 8d f2 3a 3e
       0.14928779 0.05462132 -0.043112665 0.18256588
000190 b7 fd 39 3e dd f1 4b bd 53 bf dc 3c 05 3f b5 3d
       0.18163191 -0.049791206 0.0269467 0.08849911
0001a0 08 be ac 3d 41 04 cb 3d 83 06 d3 3b 3d 96 fe 3d
       0.08434683 0.09912921 0.0064399852 0.124309994
0001b0 df aa 3c 3d 85 9c 35 3e 2e d0 e4 3d b3 2e af 3c
       0.046061393 0.17735489 0.111725196 0.021384573
0001c0 9b d3 82 bc 8e 20 22 3e 99 2b f7 3d 00 7c e5 3d
       -0.015970042 0.15832731 0.120688625 0.11205292
0001d0 9d dd 0b 3e 01 29 f4 3d 31 ae 35 3e a7 6f e3 bc
       0.13658758 0.119218834 0.1774223 -0.0277632
0001e0 8c 2a 49 bb d6 a4 b2 bb 39 10 3c 3e 54 88 59 3d
       -0.0030695526 -0.005451779 0.18365563 0.05310853
0001f0 85 ec 88 3d c3 cd d1 3d 93 e0 12 3e 12 3e 39 3e
       0.066857375 0.10244324 0.14343481 0.18090084
000200 6b 02 f4 3c fa 93 e1 3c 02 10 27 3d 2d 56 ce bd
       0.02978631 0.027536381 0.04078675 -0.100750305
000210 d1 6a 86 bc cc 8c 00 be 76 f7 6e 3c 02 a7 f9 bc
       -0.016408356 -0.1255371 0.0145853665 -0.030475143
000220 61 e9 02 3c 7a c4 b6 bd d7 f6 db bc 68 04 2b b9
       0.007990212 -0.08924194 -0.0268511 -0.00016309472
000230 95 70 84 3d ad f0 2a 3d d7 0c 54 3b 32 fd 07 bd
       0.06466786 0.041733433 0.0032356286 -0.03320045
000240 19 c5 08 3d e4 78 fc 3c f3 79 f4 bd 3e 42 d0 bd
       0.033391092 0.030819364 -0.119373225 -0.10168885
000250 81 50 37 3c 87 35 f3 bd 8e 1b e8 3c 24 79 f5 3c
       0.011188627 -0.11875444 0.028333452 0.02996499
000260 6b 94 a6 bc 2d e5 a5 bd 9a b9 95 bd 73 72 ac bd
       -0.020334443 -0.081003524 -0.07310791 -0.08420267
000270 c0 8d e4 bd 46 ee f7 bc 1b e0 74 bb 0e 50 9c bd
       -0.11159849 -0.030264985 -0.0037365023 -0.07632457
000280 91 28 ac bd d3 de 23 3c 0c ae b6 bc 9e 08 65 bd
       -0.08406175 0.010001856 -0.022299789 -0.05591642
000290 5c d3 71 bc f5 26 2f bd 3a f1 14 bd af 77 0e be
       -0.014759865 -0.04276176 -0.036362864 -0.13912843
0002a0 14 01 e6 3d da 32 12 be 4f 2d cb bd 9d 62 91 bb
       0.112306744 -0.14277211 -0.09920751 -0.0044368044
0002b0 2e c0 cf bd d7 7d c3 bd 42 2a a3 3c 50 cd c1 bd
       -0.10144077 -0.095454864 0.019917611 -0.094629884
0002c0 15 2a fd bd 97 99 05 be 3f 39 6e 3d 44 ef 28 bc
       -0.12361542 -0.13046871 0.058160063 -0.010310952
0002d0 70 ef ac 3d ea 15 5f bd c1 4f 37 bc 81 2d ff 3c
       0.084441066 -0.05446426 -0.011188448 0.031149628
0002e0 e5 9a 63 3c 7a 8a 96 bd f5 86 ab 3d bb 5f 0c be
       0.01389191 -0.07350631 0.083753504 -0.13708393
0002f0 8d a0 7e bd a4 aa 64 bc 27 e1 ac bd 8a 0a 77 bd
       -0.062164832 -0.0139566995 -0.08441382 -0.060312785
000300 75 e4 77 3d 41 e5 78 bd 65 ac 8a bd 0c 18 53 bd
       0.060520608 -0.06076551 -0.06771163 -0.051536605
000310 e2 a5 1e 3d d0 28 ff bd 70 d6 1f 3d 64 5d 29 bd
       0.038732417 -0.12458956 0.039022863 -0.04134883
000320 7d d9 12 bd 36 ca ed bd d6 69 52 bc be 3c 12 bd
       -0.035851944 -0.11610834 -0.012842616 -0.03570246
000330 16 7d e3 3c 3e c9 79 3c 56 66 89 bd de 19 9e 3d
       0.027769607 0.015245734 -0.06708972 0.077197775
000340 73 4a a2 3c ff 00 ee bd 00 01 87 3d 97 19 ef ba
       0.01981089 -0.11621284 0.065919876 -0.0018241879
000350 27 71 aa bd fd b8 84 3d d1 d5 74 3a 95 00 e5 bd
       -0.08322363 0.06480596 0.00093397225 -0.11181752
000360 01 80 72 39 0c 33 93 bd fa ec 94 bd 1f 99 af 3c
       0.00023126604 -0.07187471 -0.07271762 0.021435319
000370 b0 a0 7c 3c b2 98 b8 bd dd b9 b4 3b 06 18 13 bd
       0.01541917 -0.09013499 0.0055153207 -0.035911582
000380 56 ce 32 bd da 3b 6b 3d 80 48 c9 bc 86 2b 04 bd
       -0.04365381 0.057430126 -0.024570704 -0.03226807
000390 04 ce ed bd bc d6 f7 bc 35 e2 06 3d ed 82 60 3d
       -0.1161156 -0.03025376 0.03293057 0.05481236
0003a0 f2 7c a9 bd ef f4 9e bc 22 6d a1 bb 2d ba b3 bc
       -0.082757846 -0.019403903 -0.0049263397 -0.021939361
0003b0 84 45 f8 bd 29 31 1d be ec a7 e0 bd 3e 08 8d 3d
       -0.12122634 -0.15350784 -0.109695286 0.06886338
0003c0 d6 c7 a1 3c 34 c8 17 bd 22 81 f5 bd ab 41 af 3d
       0.01974861 -0.037056163 -0.11987521 0.08557447
0003d0 9f 5f 98 bc cf 27 a6 3c bd f0 45 bd 83 e2 0f bc
       -0.018600283 0.020282654 -0.04832529 -0.008782032
0003e0 8e dd de bd 7e ef a8 3c 2a ee 70 bd c3 07 86 bd
       -0.10882102 0.020622011 -0.05882088 -0.06544449
0003f0 77 13 5c 3c 9c 85 38 bd 53 91 8c 3c 03 3f 5d bd
       0.013432375 -0.045049295 0.01715914 -0.05401517
