logs/dive_rp_vary_oracle/17/actor.pt (torch, 879410 bytes, 17 tensors)

weight_ih f4 [512, 35]
-0.0040638777 0.06571943 -0.03977601 -0.037736952 -0.2543894 -0.065721415 0.04329097 0.00079237873
0.04854103 0.1864052 -0.07719946 -0.004349961 -0.077056475 0.037564397 0.090068504 0.15672295
-0.01186469 -0.045676153 0.17032635 -0.09365116 0.28187677 0.070700526 0.0134512605 0.058631666
0.12287791 0.1760193 0.110287204 -0.35855678 -0.0006471117 -0.092009425 0.08978173 0.15522665
-0.078219265 0.02326777 -0.01921897 -0.039904986 -0.060054373 0.13191067 0.060718823 0.14686015
0.051697098 0.01001405 0.022379551 -0.09905779 -0.018371936 0.08119344 -0.036821146 0.10502621
-0.04990709 -0.024048818 -0.017547648 0.19489287 0.052019373 0.0828431 0.14446273 0.11527218
0.09113671 -0.14386335 -0.10154679 -0.05486438 0.06229277 0.09313008 -0.105532765 0.08636737
-0.03582643 -0.067293435 0.18420032 -0.037517827 0.07410848 0.12502854 -0.067748114 -0.019140813
0.082637504 0.033891115 0.07935348 0.03969411 0.019967237 0.0032834772 0.014096674 -0.12819234
-0.104913175 0.049767286 0.13336682 -0.045541096 0.018371044 -0.11431482 0.17385595 0.14223816
0.017924558 -0.033791963 0.14204161 0.15600127 -0.039286245 0.091370136 -0.16627741 -0.06629947
0.019240567 -0.025264688 -0.03472961 -0.12265158 0.115450375 0.02564922 -0.04375433 -0.17672972
0.05052077 0.015978646 -0.1605884 0.012715471 0.001944753 0.07830679 -0.06415774 0.13998611
0.020740332 0.19725123 -0.101839386 -0.018741358 -0.12201042 -0.025820399 0.18368289 0.014985745
0.06488944 -0.00044966783 -0.14328721 0.13492328 -0.16774109 -0.0014093518 -0.012010951 -0.033857893
0.05485594 -0.082571484 -0.11771533 0.0026639788 -0.04787401 0.094634235 0.090309635 -0.077339105
-0.09257679 -0.04306349 0.031253763 0.005350492 0.1550073 -0.049934655 0.16677284 0.06318168
-0.023463909 -0.06265307 0.029776732 -0.036306556 0.032429326 -0.07466127 -0.00665371 -0.03722484
0.032460224 0.082968615 0.039574545 0.04736418 -0.05317127 -3.3967488e-05 0.111999504 -0.12967862
0.0026860088 -0.14080416 -0.12057076 -0.07289701 0.10322816 0.01030405 -0.01908793 -0.1286036
-0.026620278 0.062222615 0.11884751 -0.004005387 0.032072857 0.17382322 -0.2104449 0.021392606
0.037724003 -0.076386206 0.114943184 -0.14278328 0.03626444 0.076609336 0.0087823 0.07091232
0.03903862 0.09692583 -0.07947099 -0.13618116 -0.020097286 0.013985717 0.1718765 0.086229
-0.13672331 0.004104058 -0.32889158 0.26677755 0.16169588 0.21031068 0.02685146 -0.025968766
0.1744984 0.070189476 -0.059990447 0.13087796 -0.12973355 0.084555335 -0.06594261 0.10460576
0.07384719 0.10145099 0.05951051 -0.119961224 0.07894588 -0.030718138 -0.14217874 -0.033690456
-0.064174846 -0.056253534 0.12386007 -0.07993059 -0.02506361 0.12887426 0.123173244 0.054164387
-0.108152784 0.06786478 -0.10797852 0.012280272 0.039241683 -0.029873872 -0.071930766 0.023426054
0.014085136 0.08314514 0.03627503 -0.07159123 -0.011880484 -0.056935593 -0.070373535 0.025411783
0.00092566374 0.10282305 -0.11154352 0.006111818 0.06461727 -0.09992359 0.111433916 -0.062064063
0.037451968 -0.049623907 -0.06396448 -0.07975103 0.041172415 0.058232978 -0.103353135 -0.117830135
00000000: 472a 85bb e997 863d 2bec 22bd 1092 1abd
00000010: 543f 82be f398 86bd df51 313d a3b7 4f3a
00000020: f6d2 463d 01e1 3e3e c01a 9ebd 1e8a 8ebb
00000030: c9cf 9dbd 20dd 193d d675 b83d fb7b 203e
00000040: 1e64 42bc eb16 3bbd 086a 2e3e 2ecc bfbd
00000050: 2752 903e 70cb 903d ad62 5c3c c227 703d
00000060: 6aa7 fb3d 673e 343e 42de e13d c194 b7be
00000070: eea2 29ba 706f bcbd 7cdf b73d bcf3 1e3e
00000080: 6c31 a0bd 0d9c be3c 1a71 9dbc 6973 23bd
00000090: 93fb 75bd 9713 073e 4db4 783d 8262 163e
000000a0: 56c0 533d f811 243c 5255 b73c d0de cabd
000000b0: be80 96bc bf48 a63d c5d1 16bd fb17 d73d
000000c0: 606b 4cbd 0702 c5bc 16c0 8fbc ff91 473e
000000d0: 4412 553d a5a9 a93d 0aee 133e d213 ec3d
000000e0: e2a5 ba3d ea50 13be c3f7 cfbd 79b9 60bd
000000f0: b426 7f3d fcba be3d 9021 d8bd 60e1 b03d
00000100: bcbe 12bd 24d1 89bd 029f 3c3e 4bac 19bd
00000110: 30c6 973d 7b07 003e 86bf 8abd 32cd 9cbc
00000120: da3d a93d 69d1 0a3d 1484 a23d 4b96 223d
00000130: 5592 a33c 9b2f 573b bcf5 663c da44 03be
00000140: b8dc d6bd c8d8 4b3d 5091 083e 4d89 3abd
00000150: df7e 963c e31d eabd 4b07 323e e1a6 113e
00000160: 86d6 923c 7169 0abd 5b73 113e ccbe 1f3e
00000170: 9dea 20bd 4420 bb3d a044 2abe 04c8 87bd
00000180: 659e 9d3c e4f7 cebc a340 0ebd c030 fbbd
00000190: 3f71 ec3d 501e d23c be37 33bd a3f8 34be
000001a0: deee 4e3d a6e5 823c 4971 24be 8d54 503c
000001b0: 15e7 fe3a 4f5f a03d 2265 83bd 8558 0f3e
000001c0: a1e7 a93c 3afc 493e 2b91 d0bd 7a87 99bc
000001d0: 99e0 f9bd 4d85 d3bc 5e17 3c3e c586 753c
000001e0: c1e4 843d 65c1 ebb9 e2b9 12be 5429 0a3e
000001f0: 52c4 2bbe 00ba b8ba 94c9 44bc 93ae 0abd
00000200: 9fb0 603d 3d1b a9bd bc14 f1bd 2696 2e3b
00000210: 8a17 44bd 98cf c13d 42f4 b83d f763 9ebd
00000220: e698 bdbd 5863 30bd f203 003d 2e53 af3b
00000230: 3cba 1e3e 4888 4cbd 80c6 2a3e 6665 813d
00000240: 6237 c0bc 4150 80bd 55ee f33c 2fb6 14bd
00000250: 9dd4 043d 02e8 98bd 5d07 dabb 1379 18bd
00000260: 03f5 043d 73eb a93d eb18 223d f100 423d
00000270: 1eca 59bd 5078 0eb8 ff5f e53d 79ca 04be
00000280: c007 303b f72e 10be cded f6bd 074b 95bd
00000290: 4969 d33d 51d2 283c 4a5e 9cbc aab0 03be
000002a0: c512 dabc 24dd 7e3d 5366 f33d 9f3f 83bb
000002b0: d45e 033d b7fe 313e de7e 57be 8c3f af3c
000002c0: 7c84 1a3d 5f70 9cbd 5567 eb3d c835 12be
000002d0: 058a 143d 5be5 9c3d a3e3 0f3c 7a3a 913d
000002e0: f6e6 1f3d 0d81 c63d b0c1 a2bd 1373 0bbe
000002f0: 10a3 a4bc 5924 653c 6500 303e d498 b03d
00000300: 3201 0cbe 557b 863b 7a64 a8be 1197 883e
00000310: 9b93 253e af5b 573e 98f7 db3c 73bc d4bc
00000320: b5af 323e 80bf 8f3d 8bb8 75bd df04 063e
00000330: dfd8 04be 592b ad3d eb0c 87bd 8b3b d63d
00000340: 323d 973d 89c5 cf3d 4bc1 733d 3bae f5bd
00000350: 61ae a13d 9ba4 fbbc 4e97 11be 01ff 09bd
00000360: 1a6e 83bd 1b6a 66bd 59aa fd3d a6b2 a3bd
00000370: 3352 cdbc 9df7 033e 4142 fc3d 7adb 5d3d
00000380: 357f ddbd b1fc 8a3d d823 ddbd 3233 493c
00000390: e3bb 203d 0dba f4bc 7050 93bd ffe7 bf3c
000003a0: 58c5 663c 0048 aa3d 2095 143d 6c9e 92bd
000003b0: 5da6 42bc 4c35 69bd 0020 90bd 5f2c d03c
000003c0: 3ea8 723a e494 d23d ee70 e4bd a545 c83b
000003d0: 0f56 843d bda4 ccbd 7737 e43d e336 7ebd
000003e0: 3c67 193d 7042 4bbd cfff 82bd 8254 a3bd
000003f0: 68a4 283d b485 6e3d cfaa d3bd ed50 f1bd

weight_hh f4 [512, 128]
-0.10780067 -0.063077204 -0.05440443 -0.11205631 -0.12993316 -0.032840952 0.08808621 -0.027819013
0.22377314 -0.018739652 -0.010267748 -5.2917225e-05 -0.17425896 -0.047785107 -0.023913868 -0.09256644
0.0641946 -0.1664595 0.04357163 -0.046244476 -0.06699923 -0.043676287 0.12716757 -0.035853915
0.026827995 0.0788093 -0.06966011 0.02875836 -0.15810032 -0.118522316 0.14313091 -0.012379603
-0.07306803 -0.13160199 -0.007961491 -0.0098417625 -0.0022393395 0.0117920535 -0.06062203 -0.019902691
-0.007350356 0.030659955 -0.05726955 0.06695346 0.03350721 -0.02442644 -0.07161196 0.041677408
-0.07745613 0.0024879153 0.15598588 -0.08554774 0.033395365 0.09287691 0.06518835 0.0020576343
0.059411354 -0.05607266 0.0008911621 -0.09764746 0.019609628 -0.018686 0.024711445 -0.098402806
-0.055002257 -0.0073287375 0.040522587 0.18165821 -0.0005915344 0.011329333 -0.07908865 -0.020808604
0.08779892 -0.03142028 0.035804704 0.026647042 -0.19099697 0.010821863 -0.05141044 0.097469315
0.06044506 -0.001740961 0.05295639 -0.06842229 -0.053021785 0.00789127 -0.03686384 0.123050764
-0.095293425 -0.039208934 -0.03279092 0.047946736 -0.0069193756 -0.06617728 -0.08946646 0.0067236703
-0.024086686 -0.08561929 0.12654312 0.06502719 0.04154766 -0.05124095 0.012731654 -0.09998705
-0.024304073 -0.0038861267 -0.007224687 -0.075951 0.024220904 -0.04431182 0.01977734 -0.09427938
-0.033045933 -0.08051845 0.060920417 0.097252026 0.083567776 0.0819194 0.10835254 0.030784316
0.017411679 0.11619705 -0.053473677 -0.14559332 0.0054331264 -0.062233955 0.04121326 0.02019838
-0.047844727 -0.012320041 0.07563386 -0.12381922 -0.0044436515 0.033957817 -0.0058975313 -0.1309305
0.15988135 0.08903188 0.102077045 0.034499224 0.011216455 -0.051353063 0.050145593 0.087410726
-0.076123774 -0.00018904184 0.072667085 0.0151565755 -0.010957024 0.07624059 -0.029419124 -0.09952416
0.03413234 0.01880463 0.027099853 0.042592146 0.11544205 -0.005362473 0.11174013 -0.014121172
-0.031372834 -0.14038797 0.02872467 -0.14079717 -0.062565744 0.037758682 0.14871858 -0.14987436
0.051204637 -0.064311415 -0.09318577 -0.09161146 -0.06916028 0.09207957 0.002142694 0.09222719
-0.07537049 -0.028464561 0.029173493 0.04256456 0.006524486 -0.03724428 0.01871268 0.048529856
0.09963236 -0.104361735 0.042448707 0.056125782 -0.004017303 -0.05361548 -0.11934606 -0.023957627
-0.1811152 -0.07598656 0.1086006 -0.03279004 0.09637751 -0.027967852 0.05196353 0.006619775
0.055982646 -0.048345424 0.017492749 0.0044238726 -0.101850495 0.011427076 -0.099782236 -0.03335565
-0.05715257 -0.06542657 -0.04387384 -0.008916174 -0.02659529 -0.02491968 -0.01310657 -0.042296536
-0.10422874 0.042065162 0.16679372 0.08207884 0.13394319 0.015171911 0.031427693 0.03393749
-0.0293008 -0.08243788 -0.026473666 0.02084855 -0.06452195 -0.08015987 -0.05829821 -0.01159069
-0.04598131 -0.07867252 -0.0064618182 -0.03739798 -0.040856093 0.045265365 -0.13939802 -0.10606285
-0.0371087 -0.078608 0.0049311686 -0.015241186 0.007800416 0.043315887 0.030186063 0.05416845
-0.009157697 -0.09520634 0.046676867 0.086376525 0.06337484 0.020904923 -0.046746686 0.10324427
00000000: 99c6 dcbd 9f2e 81bd 2ed7 5ebd c77d e5bd
00000010: 330d 05be 3c84 06bd 8b66 b43d b3e4 e3bc
00000020: c924 653e e683 99bc 0e3a 28bc 70f3 5db8
00000030: f170 32be 51ba 43bd 04e7 c3bc 7993 bdbd
00000040: 7578 833d 5c74 2abe 2a78 323d d96a 3dbd
00000050: e436 89bd e8e5 32bd 3738 023e 8edb 12bd
00000060: 62c6 db3c c566 a13d f6a9 8ebd a796 eb3c
00000070: 0de5 21be d4bb f2bd e990 123e d2d3 4abc
00000080: b1a4 95bd acc2 06be ea70 02bc 583f 21bc
00000090: e2c1 12bb 7533 413c ce4e 78bd f80a a3bc
000000a0: 41db f0bb 962a fb3c 7a93 6abd e51e 893d
000000b0: db3e 093d f519 c8bc 4ba9 92bd eeb5 2a3d
000000c0: 52a1 9ebd 4b0c 233b c3ba 1f3e a733 afbd
000000d0: 94c9 083d 4036 be3d 7881 853d 60d9 063b
000000e0: 5259 733d 72ac 65bd e09c 693a 64fb c7bd
000000f0: 5fa4 a03c 6213 99bc a86f ca3c 6987 c9bd
00000100: 0c4a 61bd e825 f0bb 03fb 253d 9c04 3a3e
00000110: 3411 1bba ab9e 393c 3bf9 a1bd ce76 aabc
00000120: eccf b33d 8db2 00bd f4a7 123d e64a da3c
00000130: b694 43be 2f4e 313c c193 52bd fe9d c73d
00000140: 3d95 773d f530 e4ba cde8 583d fc20 8cbd
00000150: 5f2d 59bd 634a 013c 8afe 16bd 0a02 fc3d
00000160: 3329 c3bd 8c99 20bd c64f 06bd cc63 443d
00000170: eebb e2bb f487 87bd 313a b7bd 3c52 dc3b
00000180: 7151 c5bc 2b59 afbd 8594 013e fa2c 853d
00000190: e12d 2a3d 08e2 51bd 6d98 503c 03c6 ccbd
000001a0: 5619 c7bc 63ae 7ebb 11bd ecbb 338c 9bbd
000001b0: eb6a c63c 5080 35bd 1704 a23c 8c15 c1bd
000001c0: 2c5b 07bd dbe6 a4bd b087 793d 122c c73d
000001d0: 9525 ab3d 5cc5 a73d f0e7 dd3d 642f fc3c
000001e0: f0a2 8e3c b8f8 ed3d 3707 5bbd 6a16 15be
000001f0: 5e08 b23b 08e9 7ebd 3ccf 283d 1377 a53c
00000200: d5f8 43bd ffd9 49bc ede5 9a3d ee94 fdbd
00000210: 0d9c 91bb 5a17 0b3d 1440 c1bb a512 06be
00000220: f0b7 233e 5956 b63d c50d d13d 0f4f 0d3d
00000230: 39c5 373c 9757 52bd 7765 4d3d 6504 b33d
00000240: c8e6 9bbd 8839 46b9 7bd2 943d 4953 783c
00000250: 1785 33bc 0724 9c3d 6000 f1bc 53d3 cbbd
00000260: 5ace 0b3d 2b0c 9a3c 8300 de3c 1a75 2e3d
00000270: e26c ec3d afb7 afbb 02d8 e43d 7d5c 67bc
00000280: cd80 00bd ddc1 0fbe 0050 eb3c 222d 10be
00000290: 7822 80bd d9a8 1a3d af49 183e aa78 19be
000002a0: f4bb 513d b4b5 83bd 2ed8 bebd ca9e bbbd
000002b0: e8a3 8dbd 3794 bc3d 716c 0c3b 9ce1 bc3d
000002c0: d85b 9abd 832e e9bc 40fd ee3c 2d58 2e3d
000002d0: 5bcb d53b 758d 18bd 564b 993c 3ec7 463d
000002e0: 0d0c cc3d 9bbb d5bd b2de 2d3d 26e4 653d
000002f0: 95a3 83bb e89b 5bbd b56b f4bd c942 c4bc
00000300: 4376 39be d79e 9bbd fe69 de3d d94e 06bd
00000310: 9261 c53d d61c e5bc b6d7 543d b3ea d83b
00000320: 0f4e 653d da05 46bd f44c 8f3c 22f6 903b
00000330: fe96 d0bd a138 3b3c a15a ccbd ef9f 08bd
00000340: d018 6abd 5efe 85bd 0eb5 33bd 2515 12bc
00000350: 5ede d9bc 5b24 ccbc f0bc 56bc 223f 2dbd
00000360: e175 d5bd 854c 2c3d f9cb 2a3e f318 a83d
00000370: 6728 093e 9b93 783c 53ba 003d 0a02 0b3d
00000380: 3b08 f0bc 31d5 a8bd 4ddf d8bc 94ca aa3c
00000390: 1624 84bd dc2a a4bd 1bca 6ebd e1e6 3dbc
000003a0: e656 3cbd 0f1f a1bd a9bd d3bb a02e 19bd
000003b0: b858 27bd 2d68 393d 5bbe 0ebe 7b37 d9bd
000003c0: 4bff 17bd 3bfd a0bd a495 a13b 2bb6 79bc
000003d0: a29a ff3b 006c 313d c348 f73c bddf 5d3d
000003e0: 2a0a 16bc 8bfb c2bd 3e30 3f3d 2de6 b03d
000003f0: abca 813d cd40 ab3c 7479 3fbd bb71 d33d

bias_ih f4 [512]
0.029453665 0.13577233 0.11652361 0.13555697 0.03661419 0.06255822 0.024753353 0.06887602
0.04070426 0.15163118 0.0191429 0.013058719 0.08352493 -0.028498566 0.030049052 0.13479593
0.071668796 0.029985018 0.24902594 0.071808405 0.004882488 0.13917145 0.12648146 0.19177353
-0.019725332 0.051390924 0.097104065 0.06649475 0.26357502 0.12426149 0.2190139 0.059301
0.05507019 0.08648228 0.08504931 -0.03118922 0.25692737 0.124802284 0.04804665 0.114242114
0.06200781 0.13553669 0.036288705 0.123653226 0.24906175 0.13826545 0.11360437 0.17398928
0.26296505 0.051252734 0.044346586 0.003235978 0.06604131 0.103293166 0.16104943 0.25097507
0.08717603 0.14494868 0.10913945 0.18215013 0.039203055 0.16038847 0.27385435 0.15545678
-0.014964231 0.14248246 0.008537404 0.100461885 0.2758007 0.14074606 0.10706932 -0.026201244
0.07614186 0.08220188 0.081458814 0.08438571 0.157671 0.02506054 0.095980816 0.024264686
0.14761342 0.052646328 0.13049889 0.13929689 0.1516238 0.14022054 -0.02825002 0.00049526506
0.11426761 0.21886525 0.11849544 0.09341966 0.1599011 0.100555524 0.16381146 0.15407974
-0.0039490415 0.07153284 0.1041393 0.115109034 0.08316062 0.1301755 0.0031327656 0.090986416
0.1237692 0.04979619 0.12538561 0.07685682 0.23864907 0.025009843 0.07283674 0.013138425
0.03565196 0.034268923 0.14148702 0.020214122 -0.017928453 0.08926376 -0.039234664 0.073703595
0.03611409 0.04419591 -0.010346665 0.14892368 -0.02202549 -0.05076205 0.14134109 0.1036409
-0.040652502 0.070851535 0.07184038 -0.0138855325 -0.03828175 -0.05638718 0.046214573 0.09694548
0.00021634204 -0.044949964 0.059642997 -0.00096772605 0.048829447 0.07485471 0.006191536 0.07627646
0.06415788 0.05718962 -0.014894381 0.06304624 0.11742128 0.0427466 -0.05758345 0.115285344
-0.04352877 0.05111183 -0.08148077 -0.07891835 0.010710385 0.08961856 0.04929523 0.06047239
-0.07811893 -0.045952655 0.0006839646 -0.016837828 -0.11872704 0.006851864 0.12232936 0.084443696
0.009901663 0.08796933 0.044729285 -0.023696128 -0.10148377 0.06176914 0.13835666 -0.015223922
-0.013220509 0.049921278 0.07861699 -0.014670106 -0.084666796 0.02522921 -0.06534888 0.076645695
-0.07488528 -0.0076664183 0.01087374 -0.078316964 -0.037200313 -0.113997646 -0.038087238 -0.03579727
0.06976182 0.09713793 -0.0976525 -0.061499357 -0.024301697 -0.04126606 0.06933126 -0.060419645
-0.043569002 -0.07067747 0.002972606 -0.036276992 0.117457956 0.060333487 0.09373914 -0.023912402
0.0040209796 0.028316962 -0.07745498 0.10846515 0.07464153 -0.05306061 -0.085014 0.04472883
-0.043919846 0.053717878 0.10271944 -0.003776442 -0.06175475 0.010578465 0.03962285 0.09718633
0.09228633 -0.058256462 0.01417939 -0.070629366 -0.09845075 0.0020269533 -0.06502699 0.01535096
0.1056607 0.018519364 -0.051649164 0.10320953 0.001662753 0.07153189 -0.048698068 -0.027621716
-0.09247589 0.06074389 -0.018358367 0.08472372 -0.098486036 0.005100064 -0.037865274 0.050765578
0.062235083 0.003345742 0.039289743 0.048322234 0.053055562 0.080293015 0.11712025 -0.073026635
00000000: d048 f13c e707 0b3e eea3 ee3d 72cf 0a3e
00000010: c3f8 153d 861e 803d 8bc7 ca3c df0e 8d3d
00000020: 83b9 263d 3445 1b3e 92d1 9c3c 3df4 553c
00000030: 1e0f ab3d d375 e9bc 6e29 f63c f207 0a3e
00000040: 17c7 923d 24a3 f53c a800 7f3e 4910 933d
00000050: 47fd 9f3b f682 0e3e 5b84 013e 4860 443e
00000060: 0597 a1bc 4a7f 523d 7fde c63d 662e 883d
00000070: 4ef3 863e cf7c fe3d 2e45 603e 9be5 723d
00000080: 4891 613d 9f1d b13d 552e ae3d 8980 ffbc
00000090: fc8b 833e 5798 ff3d 90cc 443d c5f7 e93d
000000a0: e7fb 7d3d 21ca 0a3e 77a3 143d e73d fd3d
000000b0: 0b0a 7f3e 7595 0d3e 68a9 e83d 3f2a 323e
000000c0: 5ba3 863e 63ee 513d c4a4 353d b412 543b
000000d0: ab40 873d 5e8b d33d 24ea 243e ce7f 803e
000000e0: 5989 b23d 6d6d 143e 8184 df3d 9085 3a3e
000000f0: 6293 203d e03c 243e a336 8c3e 1030 1f3e
00000100: 892c 75bc ece6 113e 78e0 0b3c f6be cd3d
00000110: c035 8d3e bc1f 103e 2947 db3d fea3 d6bc
00000120: 43f0 9b3d 7659 a83d e1d3 a63d 6ad2 ac3d
00000130: 8274 213e c34b cd3c 9791 c43d bcc6 c63c
00000140: f927 173e ada3 573d 80a1 053e d8a3 0e3e
00000150: 4543 1b3e f995 0f3e 966c e7bc add4 013a
00000160: 2305 ea3d 361e 603e bdad f23d cf52 bf3d
00000170: 1dbd 233e 0ef0 cd3d 31be 273e 14c7 1d3e
00000180: f666 81bb cf7f 923d fc46 d53d 49be eb3d
00000190: 1d50 aa3d ba4c 053e 164f 4d3b 1657 ba3d
000001a0: b57a fd3d 17f7 4b3d 1665 003e 1c67 9d3d
000001b0: 6c60 743e 71e1 cc3c 6e2b 953d 8c42 573c
000001c0: ca07 123d 925d 0c3d f9e1 103e 1698 a53c
000001d0: b1de 92bc ebcf b63d 87b4 20bd e9f1 963d
000001e0: 5eec 133d c506 353d 0f85 29bc 737f 183e
000001f0: cd6e b4bc deeb 4fbd b8bb 103e ae41 d43d
00000200: 3d83 26bd 9c1a 913d 0d21 933d 2580 63bc
00000210: 53cd 1cbd 3ef6 66bd 7e4b 3d3d 5a8b c63d
00000220: e0d9 6239 741d 38bd 374c 743d ffae 7dba
00000230: 6301 483d 6d4d 993d 5ee2 ca3b d536 9c3d
00000240: 3565 833d aa3f 6a3d 9007 74bc 631e 813d
00000250: 917a f03d 0f17 2f3d a0dc 6bbd b91a ec3d
00000260: 394b 32bd a35a 513d 64df a6bd f29f a1bd
00000270: 9c7a 2f3c f089 b73d cce9 493d e6b1 773d
00000280: d1fc 9fbd da38 3cbd 164c 333a 7cef 89bc
00000290: 2a27 f3bd 9a85 e03b d187 fa3d d1f0 ac3d
000002a0: 963a 223c 4429 b43d 0e36 373d 621e c2bc
000002b0: b9d6 cfbd a301 7d3d 5ead 0d3e c26d 79bc
000002c0: d59a 58bc 417a 4c3d f201 a13d e25a 70bc
000002d0: c965 adbd 7dad ce3c a2d5 85bd 6bf8 9c3d
000002e0: 745d 99bd 9436 fbbb c527 323c a564 a0bd
000002f0: 5b5f 18bd 9977 e9bd 5d01 1cbd 28a0 12bd
00000300: 49df 8e3d 40f0 c63d 09fe c7bd c0e6 7bbd
00000310: 5a14 c7bc 9a06 29bd 8cfd 8d3d 977a 77bd
00000320: 6975 32bd 59bf 90bd 0ed0 423b 2f97 14bd
00000330: cc8d f03d 3f20 773d 4efa bf3d f1e3 c3bc
00000340: 6cc2 833b f9f8 e73c b7a0 9ebd fa22 de3d
00000350: a9dd 983d 1556 59bd d21b aebd 9435 373d
00000360: 4ce5 33bd 4707 5c3d 925e d23d 2f7e 77bb
00000370: 8cf2 7cbd 4c51 2d3c 924b 223d a009 c73d
00000380: 9e00 bd3d 549e 6ebd ac50 683c 21a6 90bd
00000390: 8ca0 c9bd a2d6 043b df2c 85bd 9882 7b3c
000003a0: a364 d83d ecb5 973c 138e 53bd 855f d33d
000003b0: bcf0 d93a 507f 923d a077 47bd f046 e2bc
000003c0: 0064 bdbd 96ce 783d 4964 96bc a183 ad3d
000003d0: 0cb3 c9bd 701e a73b 9e18 1bbd 91ef 4f3d
000003e0: 37ea 7e3d 3c44 5b3b 48ee 203d 89ed 453d
000003f0: ca50 593d aa70 a43d bedc ef3d fd8e 95bd

bias_hh f4 [512]
0.015371307 0.13511582 0.07022543 0.18058941 -0.00560763 0.14540404 0.025675075 0.056888357
0.16185737 0.17435053 0.0014628578 0.020121733 0.11694071 -0.07279608 0.046165116 -0.0004516111
0.10176686 0.033817373 0.13191888 0.120057605 0.07892994 0.21077123 0.12621231 0.07539117
-0.018098822 0.18115993 0.09013557 0.08430865 0.16043259 0.057682257 0.15575418 0.080209345
0.09388276 0.10533019 0.08265676 0.035082035 0.197378 0.17509903 0.15914431 0.105990924
-0.04635898 0.15210925 0.008803992 0.10698464 0.15699045 0.04698384 0.10956539 0.19841422
0.16978407 0.17891042 -0.038690224 -0.027723875 -0.036625177 0.0917311 0.08863269 0.17240784
0.03496522 0.11758608 0.113630824 0.058767535 0.024374109 0.084216334 0.20720644 0.14547089
0.11363405 0.03845724 0.051529918 0.0037788576 0.22923182 0.07139461 0.027797442 -0.02628519
0.014434053 0.09524712 0.07052272 0.059762135 0.11064747 0.12611619 0.038033925 0.142679
0.17717601 0.06870345 0.20219873 0.102935515 0.12739797 0.10358451 0.06869488 -0.0049034506
0.0631147 0.23840544 0.09570811 0.19252795 0.0858161 0.01603561 0.16703685 0.15911889
0.09460695 0.07370613 0.043021467 0.25279695 0.10182277 0.1900073 0.089759775 0.051657915
0.21235181 0.09919692 0.049620263 0.14826788 0.18410438 0.10930156 0.024147252 0.119369514
0.031542804 0.085899755 0.030528497 0.06867176 0.017161066 0.06561739 0.09918396 0.04834158
0.031601906 0.044868436 0.005134096 0.14617108 0.12280089 0.041060448 0.15642905 -0.031564444
-0.010719522 0.0745147 -0.09699691 0.04198203 -0.049315173 -0.023023544 0.02764434 0.0551216
0.049643356 -0.072288975 0.02448533 -0.042508774 -0.07955253 0.00055789447 -0.00319511 -0.0029056575
0.0022069828 -0.051388822 -0.0017361103 0.1003535 0.060098402 -0.013690585 -0.07025884 0.004345715
0.048483845 0.014799231 0.07318421 -0.03142501 -0.008763067 0.061953146 -0.11375895 -0.037529446
0.054957837 -0.06761398 -0.15043019 0.11341206 -0.001771076 0.06401282 0.10906563 0.005015073
0.089175984 -0.020869436 0.04165779 -0.08207206 0.06155466 -0.09012269 -0.024775997 0.07415715
0.13022889 -0.04938696 0.102889 -0.001593467 0.04328128 0.044179037 -0.121420614 0.12936126
0.07410948 0.041334707 -0.07358011 0.02969288 0.03708585 0.0018672938 -0.011365495 0.0760025
0.006866134 0.009820764 -0.00030462223 0.054596867 -0.103346415 -0.031429037 -0.03228849 0.08904516
0.11645701 0.006754812 -0.08152678 -0.123196766 0.108468786 -0.009225349 0.058003567 -0.08111978
-0.088565744 -0.074197896 -0.1202439 0.08540948 0.056767818 -0.046999488 0.080656365 -0.0130766975
0.005678698 0.09554225 0.07710482 -0.014766726 -0.029008843 -0.048796587 0.015087443 0.04225358
0.09497067 -0.068464175 0.038333308 0.0033363749 -0.030494368 0.031227311 -0.056860656 0.043505672
0.12387856 0.060538884 -0.07064227 -0.034093324 0.01572332 0.13838203 -0.068404704 0.0071947384
-0.113134116 -0.07725823 -0.059159804 -0.032715816 -0.069765195 -0.03610986 0.0051729945 0.013550221
0.05121036 0.021711795 -0.03272143 -0.04945859 0.101640195 0.020904535 0.06243525 0.034962147
00000000: efd7 7b3c cd5b 0a3e 5ad2 8f3d 6eec 383e
00000010: 36c0 b7bb cce4 143e 8954 d23c c403 693d
00000020: f0bd 253e f288 323e 5dbd bf3a 55d6 a43c
00000030: 9c7e ef3d 1c16 95bd a217 3d3d 37c6 ecb9
00000040: 256b d03d 1684 0a3d be15 073e c3e0 f53d
00000050: 05a6 a13d 6ad4 573e cd3d 013e b066 9a3d
00000060: fb43 94bc fd81 393e ff98 b83d 03aa ac3d
00000070: 7148 243e 3b44 6c3d 067e 1f3e cc44 a43d
00000080: 9b45 c03d 5bb7 d73d f347 a93d 2eb2 0f3d
00000090: 751d 4a3e 294d 333e baf6 223e c511 d93d
000000a0: eae2 3dbd 87c2 1b3e 9e3e 103c c31a db3d
000000b0: 1bc2 203e 2172 403d d263 e03d 192d 4b3e
000000c0: e0db 2d3e 4b34 373e a479 1ebd 2e1d e3bc
000000d0: 4804 16bd 84dd bb3d 0e85 b53d ae8b 303e
000000e0: b137 0f3d f9d0 f03d 47b7 e83d 3ab6 703d
000000f0: 36ac c73c 9d79 ac3d ed2d 543e 52f6 143e
00000100: f8b8 e83d 5785 1d3d 0911 533d b6a6 773b
00000110: bfbb 6a3e 5637 923d 76b7 e33c 0a54 d7bc
00000120: ce7c 6c3c ec10 c33d 376e 903d 24c9 743d
00000130: 249b e23d 9a24 013e 76c9 1b3d 721a 123e
00000140: a16d 353e 65b4 8c3d 2f0d 4f3e dbcf d23d
00000150: 9d74 023e 1e24 d43d e7af 8c3d 20ad a0bb
00000160: 4842 813d 8e20 743e 9d02 c43d 0c26 453e
00000170: 5ac0 af3d 1d5d 833c b50b 2b3e 10f0 223e
00000180: 4ac1 c13d 3df3 963d 4737 303d 9a6e 813e
00000190: 7588 d03d 4691 423e f9d3 b73d 4097 533d
000001a0: c172 593e c127 cb3d 9e3e 4b3d 89d3 173e
000001b0: dc85 3c3e 7fd9 df3d 75d0 c53c 0178 f43d
000001c0: 0733 013d 36ec af3d e616 fa3c c8a3 8c3d
000001d0: 5d95 8c3c 6962 863d f620 cb3d d201 463d
000001e0: 0071 013d f7c7 373d eb3b a83b dfad 153e
000001f0: 087f fb3d 002f 283d f02e 203e b849 01bd
00000200: efa0 2fbc 2a9b 983d 51a6 c6bd 59f5 2b3d
00000210: b5fe 49bd df9b bcbc 6276 e23c 30c7 613d
00000220: d556 4b3d 3e0c 94bd 7595 c83c ae1d 2ebd
00000230: 70ec a2bd aa3f 123a 0d65 51bb d86c 3ebb
00000240: 07a3 103b 167d 52bd 328e e3ba 2386 cd3d
00000250: be29 763d 7a4e 60bc dee3 8fbd 8066 8e3b
00000260: ff96 463d 7978 723c 9ae1 953d 83b7 00bd
00000270: f892 0fbc 95c2 7d3d 74fa e8bd 7ab8 19bd
00000280: 781b 613d 3379 8abd 5f0a 1abe 9544 e83d
00000290: 7323 e8ba 2719 833d cd5d df3d 7b55 a43b
000002a0: e6a1 b63d 61f6 aabc 5ca1 2a3d 6515 a8bd
000002b0: bd20 7c3d 3f92 b8bd 08f7 cabc b4df 973d
000002c0: b95a 053e fb49 4abd 78b7 d23d e1db d0ba
000002d0: b647 313d 14f5 343d 5fab f8bd 4777 043e
000002e0: b6c6 973d 954e 293d 2bb1 96bd 7c3e f33c
000002f0: 55e7 173d fcbf f43a 5736 3abc 33a7 9b3d
00000300: 4efd e03b 45e7 203c b4b5 9fb9 f7a0 5f3d
00000310: 49a7 d3bd bcbb 00bd f040 04bd 4f5d b63d
00000320: 0381 ee3d 7857 dd3b 83f7 a6bd 964e fcbd
00000330: e224 de3d eb25 17bc 2695 6d3d 2122 a6bd
00000340: f561 b5bd 11f5 97bd 6f42 f6bd 2aeb ae3d
00000350: 5f85 683d 8982 40bd 2a2f a53d a53f 56bc
00000360: 5f14 ba3b a8ab c33d 22e9 9d3d 23f0 71bc
00000370: f4a3 edbc eede 47bd 5331 773c 1712 2d3d
00000380: fc7f c23d f236 8cbd 6303 1d3d 15a7 5a3b
00000390: 53cf f9bc 6bd0 ff3c b8e6 68bd 0133 323d
000003a0: 0bb4 fd3d 9ff7 773d e5ac 90bd 71a5 0bbd
000003b0: 31ce 803c 05b4 0d3e c417 8cbd d7c1 eb3b
000003c0: dcb2 e7bd 9039 9ebd 8d51 72bd 0501 06bd
000003d0: 0ee1 8ebd efe7 13bd 3982 a93b bf01 5e3c
000003e0: f4c1 513d efdc b13c e806 06bd 1795 4abd
000003f0: bc28 d03d fd3f ab3c 1bbc 7f3d 7834 0f3d

weight_ih f4 [512, 128]
-0.015151854 -0.06779911 -0.0837693 -0.0025728324 -0.06632738 0.02388685 -0.119056754 0.06454098
0.16551955 0.07306254 -0.056201775 -0.16033135 -0.17137454 0.020084837 0.071918935 0.09300095
-0.16776226 0.09754315 -0.047731914 0.04338602 0.05612911 0.011422458 -0.030071469 0.07028325
0.02204535 0.1504422 0.14585458 -0.10589727 0.07089609 0.017123695 0.060143426 0.039360505
0.09537361 -0.033836346 0.009441849 0.001278686 -0.15649875 -0.049963906 -0.049704153 -0.1445313
0.047416173 0.026293771 -0.029664928 0.031917777 -0.014841048 -0.06465815 -0.0911917 -0.12790821
0.24476609 -0.041513857 -0.065231055 -0.049928926 0.0025114757 -0.058730934 0.063525274 -0.20029335
-0.15789832 -0.0833499 0.015953748 -0.08315778 0.0505365 -0.20045868 0.062422853 -0.035948694
-0.048442006 0.02205832 0.0057829795 -0.10548702 -0.12150684 -0.05419066 0.13490956 0.06107813
0.041453075 0.0502716 -0.026892541 -0.0415604 -0.07053207 -0.07677245 -0.059256412 0.1791211
-0.0015943984 -0.0016569943 0.050727654 -0.076614834 0.12662996 -0.034794834 0.016748453 0.13325912
-0.12261856 0.07769418 -0.054457035 -0.090403885 -0.1214978 -0.07023494 -0.03650789 0.08536769
0.1033147 -0.06388377 0.1858998 -0.08217574 -0.026878802 -0.2675348 -0.0010239945 -0.03074809
0.08023792 -0.11520487 0.13595869 -0.07820321 0.036660474 0.17405131 -0.11739432 -0.104484536
-0.026676089 -0.13754979 -0.007883702 -0.030755015 -0.05109056 0.06438121 -0.06029696 0.067588195
0.069347166 0.10398039 0.058588523 -0.022578398 -0.06837586 -0.05297115 -0.011583151 -0.04129063
0.061611213 0.042904757 0.07686576 0.052301966 -0.031228071 0.124759294 -0.08936454 0.02888376
-0.01591998 0.0005497491 -0.026454013 -0.072781585 -0.060396627 0.01777104 0.014557988 0.086537965
0.13762517 0.03586957 -0.10095566 -0.048155095 0.076223455 0.048088197 -0.03636793 -0.061147723
-0.11303725 -0.14008112 0.13342562 0.1635475 -0.09955554 0.070434496 0.07838295 0.05998505
0.01348112 -0.08590773 -0.1749435 -0.05626244 -0.13046677 -0.14329076 0.047601026 0.11548874
-0.14592932 0.1048842 0.09040467 0.017660968 0.084240384 -0.115337685 0.11012989 0.15995637
0.0640725 -0.013657016 0.0018319177 0.030154271 0.045832276 -0.05744555 -0.07316825 -0.002914807
-0.097674 0.019654902 0.06918007 0.031310834 0.15336215 0.049882643 -0.08775028 0.013734643
-0.013956243 0.103869826 0.035498258 0.145877 0.060009502 0.07329488 -0.11234075 -0.13375045
0.07190649 0.011246834 0.08357713 0.007116126 -0.029752137 0.032947134 -0.039461017 0.0030004852
0.003965779 0.011501047 -0.07647857 -0.08304711 0.106700666 -0.06768366 0.055038657 -0.06409166
-0.09529523 0.014753618 0.03223712 0.074336335 0.058561143 -0.029058957 0.026600553 0.12108202
0.09347801 -0.15790115 0.04795521 0.07682612 -0.0941056 -0.0024967918 0.017925544 -0.06892279
-0.059822667 0.1332656 -0.08735379 -0.02119459 0.061786935 0.057025354 -0.075218916 -0.08780606
-0.03053279 0.031611044 -0.047305968 -0.022503005 -0.046771068 -0.008897026 -0.0738082 -0.040325277
-0.035370804 -0.024289181 -0.09773205 0.0012745371 -0.067296416 -0.011037058 0.11639445 -0.005527085
00000000: 7b3f 78bc 43da 8abd 3d8f abbd f79c 28bb
00000010: a6d6 87bd 5bae c33c 07d4 f3bd 102e 843d
00000020: f57d 293e d0a1 953d d533 66bd e72d 24be
00000030: cf7c 2fbe f588 a43c 3c4a 933d 4877 be3d
00000040: dfc9 2bbe b4c4 c73d 8a82 43bd 8ab5 313d
00000050: a3e7 653d 4325 3b3c 7158 f6bc aaf0 8f3d
00000060: 7398 b43c 850d 1a3e e75a 153e abe0 d8bd
00000070: f831 913d fe46 8c3c f458 763d 7b38 213d
00000080: 3d53 c33d fb97 0abd fcb1 1a3c 9599 a73a
00000090: 3541 20be f4a6 4cbd 9596 4bbd 0300 14be
000000a0: 7637 423d 0966 d73c dd03 f3bc 37bc 023d
000000b0: de27 73bc 7e6b 84bd b7c2 babd 5ffa 02be
000000c0: f6a3 7a3e 6f0a 2abd dc97 85bd 4682 4cbd
000000d0: 9297 243b d98f 70bd 8a19 823d b319 4dbe
000000e0: 19b0 21be 5ab3 aabd 6fb1 823c a04e aabd
000000f0: 5cff 4e3d 0a45 4dbe 1baf 7f3d f03e 13bd
00000100: 206b 46bd a6b3 b43c 267f bd3b 9409 d8bd
00000110: 94d8 f8bd 07f7 5dbd bb25 0a3e 102d 7a3d
00000120: b3ca 293d 98e9 4d3d bf4d dcbc 3d3b 2abd
00000130: 1e73 90bd e03a 9dbd dab6 72bd 866b 373e
00000140: 22fb d0ba 812f d9ba cdc7 4f3d 3de8 9cbd
00000150: 49ab 013e 0785 0ebd 0d34 893c 1475 083e
00000160: 711f fbbd 201e 9f3d 570e 5fbd ac25 b9bd
00000170: d7d3 f8bd 56d7 8fbd 4c89 15bd 41d5 ae3d
00000180: a896 d33d 7ed5 82bd 845c 3e3e c14b a8bd
00000190: ef30 dcbc 52fa 88be 8e37 86ba 6be3 fbbc
000001a0: c753 a43d 88f0 ebbd c138 0b3e 0129 a0bd
000001b0: 4b29 163d 823a 323e 6f6c f0bd fdfb d5bd
000001c0: d087 dabc dad9 0cbe a52a 01bc f1f1 fbbc
000001d0: 5644 51bd 4cda 833d f2f9 76bd ae6b 8a3d
000001e0: e305 8e3d acf3 d43d 85fa 6f3d 55f6 b8bc
000001f0: a508 8cbd 47f8 58bd 42c7 3dbc 5d20 29bd
00000200: 0a5c 7c3d e6bc 2f3d cc6b 9d3d 963a 563d
00000210: 03d2 ffbc cd81 ff3d c204 b7bd a39d ec3c
00000220: 9e6a 82bc 0a1d 103a 16b6 d8bc 830e 95bd
00000230: 7462 77bd 9294 913c a184 6e3c d13a b13d
00000240: 9ded 0c3e f8eb 123d d7c1 cebd 473e 45bd
00000250: 0b1b 9c3d 21f8 443d 8af6 14bd 0976 7abd
00000260: 1380 e7bd 6d71 0fbe baa0 083e ff78 273e
00000270: c6e3 cbbd f63f 903d 3d87 a03d e2b2 753d
00000280: eadf 5c3c 64f0 afbd 6424 33be 7273 66bd
00000290: 1599 05be d0ba 12be 4bf9 423d 5c85 ec3d
000002a0: 7f6e 15be 87cd d63d 1526 b93d bcad 903c
000002b0: 3986 ac3d 2a36 ecbd c88b e13d 9acb 233e
000002c0: 7138 833d adc1 5fbc f51c f03a 1706 f73c
000002d0: a0ba 3b3d 064c 6bbd 3cd9 95bd 5906 3fbb
000002e0: 4e09 c8bd 5103 a13c 48ae 8d3d ca3f 003d
000002f0: f80a 1d3e be51 4c3d 6bb6 b3bd 4507 613c
00000300: baa8 64bc b4b9 d43d 9f66 113d c860 153e
00000310: 86cc 753d a01b 963d e812 e6bd e1f5 08be
00000320: b643 933d a444 383c 7d2a ab3d 642e e93b
00000330: c1ba f3bc 93f3 063d e0a1 21bd caa3 443b
00000340: 5ef3 813b e36e 3c3c cca0 9cbd 9a14 aabd
00000350: e185 da3d bb9d 8abd 3770 613d 7d42 83bd
00000360: 252a c3bd 29b9 713c 120b 043d a63d 983d
00000370: cfdd 6f3d 0d0d eebc 67e9 d93c daf9 f73d
00000380: 6671 bf3d d7b0 21be af6c 443d 0357 9d3d
00000390: 70ba c0bd 37a1 23bb 97d8 923c 6427 8dbd
000003a0: 9d08 75bd c776 083e 8be6 b2bd 47a0 adbc
000003b0: 4c14 7d3d 6b93 693d 600c 9abd aad3 b3bd
000003c0: e71f fabc 957a 013d e7c3 41bd 3958 b8bc
000003d0: 0593 3fbd d5c4 11bc c128 97bd 1e2c 25bd
000003e0: fae0 10bd 1bfa c6bc be27 c8bd 5e0e a73a
000003f0: b4d2 89bd c7d4 34bc 3760 ee3d 8d1c b5bb

weight_hh f4 [512, 128]
-0.1260289 0.047203723 0.021504026 -0.11607047 -0.033951245 -0.032649554 -0.22532669 -0.096957654
0.112819105 0.032973822 -0.049473148 -0.013750717 0.016578896 0.05017559 0.0022288067 -0.06564689
0.007723917 -0.035556216 0.101108424 -0.031610947 0.00049812027 -0.013402911 -0.03605062 -0.028696718
-0.0075412947 0.027637322 0.03447551 -0.13804229 0.0847975 -0.04142529 0.11496349 0.035411626
-0.017039377 -0.0092040105 0.08349754 0.060988583 -0.02921132 0.02557722 -0.08740239 0.09269815
-0.0091602625 0.083574496 0.10019838 0.06165367 0.023121499 0.023785716 -0.15167218 0.08708496
0.052061643 0.016448382 -0.12037442 0.058794495 -0.11302129 0.11658957 0.021540679 -0.1343002
0.013741917 -0.019681849 0.026551766 0.026165923 -0.06648473 0.16478974 0.11402072 0.08300585
-0.041811313 -0.10868936 -0.15924643 -0.04846861 -0.03590095 0.05994944 -0.038297795 0.158479
-0.0076406454 0.033109948 0.056557372 -0.004155421 -0.0069895694 -0.072997175 -0.0031249463 -0.033470552
0.059430912 -0.072318114 0.06521954 -0.053064585 -0.009434183 0.0136922 -0.07566402 -0.02374988
-0.03160642 0.08275823 -0.11147776 0.018156657 0.07313012 -0.097973496 0.06459523 -0.020051222
-0.03028157 -0.041932464 0.023378355 0.04726114 0.11366554 0.119525775 -0.15206887 0.0058268174
-0.058044173 -0.05737295 -0.060473014 0.03822986 -0.049055148 -0.007291919 -0.10036519 0.004693943
-0.070885584 -0.012007524 0.17657323 0.15979977 0.17759438 0.09228339 0.093871996 0.07397511
-0.028007943 -0.010421201 -0.08989679 0.016099935 -0.006991088 -0.020331481 0.044469547 0.0084107965
0.119170964 -0.004946817 0.039960906 -0.07108471 0.039631043 -0.0029917909 0.04095129 -0.13596982
-0.042408302 -0.057949703 -0.0028834373 0.0723275 0.010805361 0.08063279 0.15777302 0.0077502565
-0.023526842 0.005118761 0.019846316 0.097551234 -0.035271097 0.17377028 0.009616699 -0.08943935
-0.0989337 -0.039063808 0.012236472 0.1297671 -0.07807776 0.083000705 0.1098082 0.09240416
-0.090590365 -0.04364436 -0.009661898 -0.034700613 0.017351432 -0.071045704 -0.10004354 -0.018924864
-0.033329416 -0.05845634 -0.078767866 0.024779838 0.010296308 0.09033377 -0.039280064 0.02324445
-0.06904664 0.08615813 0.052846488 0.10010034 -0.02886299 -0.10846524 0.023810674 0.021120626
0.09278704 -0.14197369 0.0077762413 -0.12220215 0.05262569 -0.027983718 0.02529054 0.026354678
0.05841661 -0.003948456 -0.010971305 0.008609338 0.086671196 -0.10572194 -0.034076642 0.03033113
-0.029116746 -0.094032995 0.058808703 0.08117401 0.020640137 -0.028540716 0.13113691 0.019818848
0.050347954 0.03438566 0.033918623 -0.057532866 -0.05945666 -0.11554152 -0.0042653973 -0.09280735
-0.034248017 0.019106664 -0.13546112 0.07222921 0.03218665 -0.0048727533 -0.024988964 0.0054694186
0.0012014922 0.06986366 -0.041173685 0.033292223 0.05361927 0.09158719 0.027799217 -0.013369572
-0.00021507853 -0.00010274786 0.09122831 0.036788546 -0.06340538 -0.009624788 -0.075344704 -0.07353975
0.03403798 -0.08464732 0.04985445 -0.038507786 -0.08332504 0.07654472 0.00028733045 0.09391305
0.0126273 0.009431517 -0.022489505 0.06162419 0.07718215 -0.06027859 -0.0034852473 0.0011819475
00000000: b80d 01be b158 413d 3629 b03c 5bb6 edbd
00000010: 7610 0bbd 8abb 05bd 0abc 66be bc91 c6bd
00000020: b40d e73d 8f0f 073d 5ba4 4abd b04a 61bc
00000030: 77d0 873c eb84 4d3d 2c11 123b e071 86bd
00000040: e918 fd3b 65a3 11bd ef11 cf3d 7b7a 01bd
00000050: 4994 023a e297 5bbc d1a9 13bd 6115 ebbc
00000060: f71c f7bb aa67 e23c 3136 0d3d f55a 0dbe
00000070: 50aa ad3d 91ad 29bd fa71 eb3d c80b 113d
00000080: 2a96 8bbc 6bcc 16bc c200 ab3d 2acf 793d
00000090: 944c efbc 5187 d13c 0600 b3bd 87d8 bd3d
000000a0: ed14 16bc 1b29 ab3d cf34 cd3d 8f88 7c3d
000000b0: 4c69 bd3c 43da c23c f44f 1bbe 9959 b23d
000000c0: 973e 553d c2be 863c dd86 f6bd 7fd2 703d
000000d0: b577 e7bd 83c6 ee3d 1476 b03c fe85 09be
000000e0: c725 613c d43b a1bc 1783 d93c eb59 d63c
000000f0: 2529 88bd a4be 283e b283 e93d f9fe a93d
00000100: 5742 2bbd 8798 debd 7f11 23be 0587 46bd
00000110: e00c 13bd 8b8d 753d 26de 1cbd 5248 223e
00000120: 615e fabb 4c9e 073d b4a8 673d 332a 88bb
00000130: c208 e5bb 8b7f 95bd e6cb 4cbb 6b18 09bd
00000140: d46d 733d 851b 94bd d291 853d 405a 59bd
00000150: d591 1abc 4055 603c bdf5 9abd 1c8f c2bc
00000160: bc75 01bd 267d a93d 744e e4bd 45bd 943c
00000170: 3fc5 953d 54a6 c8bd 814a 843d 7642 a4bc
00000180: 0e11 f8bc 60c1 2bbd f783 bf3c e694 413d
00000190: 7bc9 e83d eec9 f43d f1b7 1bbe e3ee be3b
000001a0: babf 6dbd e6ff 6abd 8db2 77bd ea96 1c3d
000001b0: 0dee 48bd 0df1 eebb 448c cdbd a6cf 993b
000001c0: 762c 91bd 35bb 44bc 9dcf 343e 8da2 233e
000001d0: 4ddb 353e 13ff bc3d f63f c03d 4380 973d
000001e0: ea70 e5bc afbd 2abc cf1b b8bd 03e4 833c
000001f0: 7f15 e5bb 358e a6bc b325 363d 70cd 093c
00000200: e80f f43d e918 a2bb 0cae 233d dc94 91bd
00000210: 2954 223d ec11 44bb 8abc 273d ac3b 0bbe
00000220: 54b4 2dbd ab5c 6dbd 0df8 3cbb 7120 943d
00000230: f808 313c ce22 a53d 408f 213e ddf5 fd3b
00000240: 5dbb c0bc 48bb a73b be94 a23c f1c8 c73d
00000250: 6d78 10bd d6f0 313e 5c8f 1d3c fa2b b7bd
00000260: c09d cabd 5f01 20bd 7c7b 483c abe1 043e
00000270: 3ce7 9fbd 46fc a93d 1fe3 e03d 643e bd3d
00000280: 7187 b9bd 6ec4 32bd f04c 1ebc 3b22 0ebd
00000290: 9724 8e3c 6980 91bd a1e3 ccbd 5108 9bbc
000002a0: 6d84 08bd ea6f 6fbd 0c51 a1bd 16ff ca3c
000002b0: d9b1 283c e900 b93d 22e4 20bd 256b be3c
000002c0: 5368 8dbd ac73 b03d 8f75 583d 6801 cd3d
000002d0: 1472 ecbc 0623 debd 9a0e c33c 2a05 ad3c
000002e0: 2207 be3d 8d61 11be d7cf fe3b 1f45 fabd
000002f0: 098e 573d 1c3e e5bc 1b2e cf3c c4e5 d73c
00000300: 4146 6f3d 0d62 81bb fdc0 33bc 2e0e 0d3c
00000310: ab80 b13d bf84 d8bd f393 0bbd fd78 f83c
00000320: 3e86 eebc 5f94 c0bd 65e1 703d 8f3e a63d
00000330: 8115 a93c 38ce e9bc c148 063e 235b a23c
00000340: a839 4e3d fad7 0c3d 41ee 0a3d 95a7 6bbd
00000350: d488 73bd 08a1 ecbd bfc4 8bbb c811 bebd
00000360: a647 0cbd 9485 9c3c 52b6 0abe e8ec 933d
00000370: 26d6 033d 9eab 9fbb a8b5 ccbc cf38 b33b
00000380: 637b 9d3a ae14 8f3d bda5 28bd 6d5d 083d
00000390: e19f 5b3d 1192 bb3d 2fbb e33c 0d0c 5bbc
000003a0: b486 61b9 567a d7b8 e8d5 ba3d 96af 163d
000003b0: aeda 81bd 49b1 1dbc 534e 9abd 029c 96bd
000003c0: 696b 0b3d 935b adbd 2e34 4c3d 57ba 1dbd
000003d0: 52a6 aabd 7ac3 9c3d d7a4 9639 7c55 c03d
000003e0: bce2 4e3c a686 1a3c e93b b8bc a669 7c3d
000003f0: ad11 9e3d afe6 76bd bf68 64bb 94eb 9a3a

bias_ih f4 [512]
0.1468152 0.10225657 0.13413763 0.13184708 0.036882814 -0.031780694 0.03183559 0.12088999
0.06963984 0.22746545 0.22511905 0.13589233 0.06418474 0.07945173 0.43062875 0.17116731
0.069236815 0.08751686 0.080539815 0.21496932 0.3629471 0.18541126 0.060174473 0.14349023
0.18263367 0.12780342 0.05460589 0.025650892 0.057831217 0.17041977 0.08041306 0.045615982
0.12754364 0.20265883 0.028909938 0.16188084 0.058900554 0.1868171 0.14942312 0.2088868
0.30472374 0.0502729 0.12698664 0.12702233 0.106140494 0.25521737 0.28328887 0.2206863
0.23948842 0.13264614 0.17591067 0.014390042 0.14008354 0.1411826 0.011372772 -0.00027457761
0.05388248 0.1847499 0.16007034 0.07927106 0.20778857 0.14787248 0.1298765 0.24003857
0.011987746 0.09652902 0.036978763 0.26757684 0.0889944 0.3922874 0.13934454 0.15764633
0.054195564 0.2529027 0.087267585 0.08889508 0.23179707 0.066245176 0.14279473 0.18965401
0.14493515 -0.017135033 0.11600158 0.08528564 0.076726794 0.108583406 0.048988897 0.08647061
0.065520756 0.2194609 0.062843695 0.16532344 0.007386685 0.18801111 0.123148516 0.26331466
0.041569132 0.004948685 0.108427726 0.16470505 0.3336237 0.011250563 0.04396657 0.14735843
0.15732509 0.11527674 0.2110145 0.16246682 0.14636801 0.15291126 0.09882997 0.20912515
0.3293421 0.049770296 0.088959835 0.15723935 0.18530908 0.14908794 0.301749 0.29172322
0.15269454 0.13871776 0.047753 0.22288892 0.046104796 0.07617933 0.09522825 0.04970031
0.0179211 0.01413416 0.015391064 0.009239431 0.0018971129 -0.035779122 -0.0021102491 0.068985425
-0.033477884 -0.13502651 -0.054508887 -0.12806706 -0.045548785 -0.03710135 -0.12567791 -0.18458444
0.03336533 -0.008806728 -0.024429921 0.04060333 -0.124170795 0.09572354 0.025046894 -0.1525673
0.022936279 0.00017376148 0.040444966 0.016685426 0.014088465 0.007514232 -0.0734041 0.09406578
-0.05433821 -0.05308326 -0.06304154 -0.039382733 0.00044632758 0.04504634 0.0184853 -0.12976201
-0.088825576 0.009081728 -0.0035649065 0.06815305 -0.020271026 -0.089676306 -0.042754233 -0.06997426
0.010359053 -0.086889036 -0.033016548 0.053920507 0.00076736626 -0.061429575 0.025281021 -0.04770645
0.056773264 0.054114953 -0.076561004 0.065034285 0.017298453 -0.08000549 0.007037766 0.036233246
-0.061687607 -0.007448315 -0.08722567 -0.15213744 0.05407797 -0.13091256 0.025422072 0.036362253
0.089932255 -0.04745935 0.04765699 -0.021450436 -0.03432695 0.051981375 -0.07258955 -0.051578775
0.022968981 -0.06529785 0.048316743 -0.072447725 -0.038238354 0.0021829037 -0.042835135 -0.035618927
-0.030651418 -0.008366174 -0.112380676 -0.020266699 -0.051134165 -0.0034477871 0.05348871 -0.07227317
-0.025666866 -0.0068172337 0.0073814844 -0.10925695 0.049596332 0.009381782 -0.09732778 0.011551957
-0.105222136 0.088171855 -0.033419386 -0.08818096 -0.07751651 -0.06576898 0.010437664 -0.051702246
-0.090062514 0.07867817 0.0039565363 -0.08473565 -0.045223963 0.014201845 -0.08045919 -0.09772518
-0.03975474 0.03412706 0.0058150976 -0.034895286 -0.1170571 0.07951936 -0.078890055 0.07606255
00000000: b956 163e e46b d13d 605b 093e ec02 073e
00000010: 6f12 173d 792c 02bd 0966 023d 2c95 f73d
00000020: 559f 8e3d b4ec 683e 9c85 663e 5c27 0b3e
00000030: 4a73 833d 97b7 a23d 5f7b dc3e 7c46 2f3e
00000040: 08cc 8d3d 0a3c b33d 0ff2 a43d eb20 5c3e
00000050: 34d4 b93e 73dc 3d3e 8279 763d 1aef 123e
00000060: 5204 3b3e e6de 023e 6daa 5f3d d221 d23c
00000070: 6de0 6c3d 8582 2e3e 9aaf a43d d3d7 3a3d
00000080: cd9a 023e cc85 4f3e 89d4 ec3c 17c4 253e
00000090: b541 713d fb4c 3f3e 6002 193e 6ce6 553e
000000a0: c004 9c3e f5ea 4d3d c908 023e 2412 023e
000000b0: 3060 d93d daab 823e 3d0b 913e 97fb 613e
000000c0: 743c 753e 64d4 073e ed21 343e 36c4 6b3c
000000d0: 0f72 0f3e 2c92 103e dd54 3a3c 2ff5 8fb9
000000e0: e0b3 5c3d 142f 3d3e 7be9 233e de58 a23d
000000f0: 87c6 543e e26b 173e 58fe 043e accc 753e
00000100: 4068 443c 02b1 c53d 0b77 173d d5ff 883e
00000110: b242 b63d e5d9 c83e 56b0 0e3e 0a6e 213e
00000120: 2bfc 5d3d 767c 813e 59b9 b23d a00e b63d
00000130: 365c 6d3e 8dab 873d c838 123e a934 423e
00000140: e169 143e c55e 8cbc 3d92 ed3d 3daa ae3d
00000150: f022 9d3d fa60 de3d 95a8 483d 8117 b13d
00000160: bf2f 863d 5cba 603e 32b4 803d 8c4a 293e
00000170: 010c f23b fc85 403e 4a35 fc3d 2ed1 863e
00000180: 6544 2a3d 9428 a23b 5b0f de3d 71a8 283e
00000190: bad0 aa3e 4854 383c 4a16 343d 21e5 163e
000001a0: d419 213e 3616 ec3d 2f14 583e b45d 263e
000001b0: 7fe1 153e c594 1c3e 5e67 ca3d e724 563e
000001c0: 879f a83e f0db 4b3d 9330 b63d 5a03 213e
000001d0: aac1 3d3e 82aa 183e d87e 9a3e bf5c 953e
000001e0: f55b 1c3e 070c 0e3e a698 433d fe3c 643e
000001f0: 62d8 3c3d e903 9c3d 0707 c33d 8d92 4b3d
00000200: 45cf 923c f792 673c cd2a 7c3c fb60 173c
00000210: 8ca8 f83a 218d 12bd 1b4c 0abb 3b48 8d3d
00000220: 1b20 09bd 6444 0abe b644 5fbd 0324 03be
00000230: 5d91 3abd 96f7 17bd b6b1 00be b403 3dbe
00000240: 16aa 083d 184a 10bc 4221 c8bc ad4f 263d
00000250: 424d febd b40a c43d 252f cd3c 9a3a 1cbe
00000260: dde4 bb3c be33 3639 9fa9 253d e0af 883c
00000270: 4ed3 663c f239 f63b e454 96bd 8fa5 c03d
00000280: be91 5ebd d56d 59bd ec1b 81bd ca4f 21bd
00000290: 1301 ea39 8382 383d 7c6e 973c 55e0 04be
000002a0: 2fea b5bd 87cb 143c 35a1 69bb d493 8b3d
000002b0: 6c0f a6bc 36a8 b7bd 101f 2fbd aa4e 8fbd
000002c0: 04b9 293c e1f2 b1bd 5c3c 07bd c0db 5c3d
000002d0: 1429 493a 949d 7bbd 251a cf3c d767 43bd
000002e0: 158b 683d a4a7 5d3d 04cc 9cbd b230 853d
000002f0: 7cb5 8d3c ebd9 a3bd 0f9d e63b 5069 143d
00000300: 25ac 7cbd ff10 f4bb 5fa3 b2bd ebc9 1bbe
00000310: dd80 5d3d f10d 06be f341 d03c 96f0 143d
00000320: 672e b83d bc64 42bd fa33 433d d3b8 afbc
00000330: 6a9a 0cbd 6cea 543d d4a9 94bd 4444 53bd
00000340: 7229 bc3c e1ba 85bd c7e7 453d 795f 94bd
00000350: d29f 1cbd 0c0f 0f3b e573 2fbd 27e5 11bd
00000360: af18 fbbc 4712 09bc d727 e6bd 5906 a6bc
00000370: 0f72 51bd 45f4 61bb fa16 5b3d f503 94bd
00000380: 5243 d2bc 1a63 dfbb 61e0 f13b 1cc2 dfbd
00000390: 8625 4b3d 0cb6 193c ca53 c7bd 6b44 3d3c
000003a0: b47e d7bd 7293 b43d c4e2 08bd 3898 b4bd
000003b0: fac0 9ebd e3b1 86bd bc02 2b3c bcc5 53bd
000003c0: b272 b8bd 0522 a13d d5a5 813b e289 adbd
000003d0: c33c 39bd dbae 683c cac7 a4bd 2424 c8bd
000003e0: ded5 22bd d1c8 0b3d 938c be3b 5cee 0ebd
000003f0: a2bb efbd 0cdb a23d 1c91 a1bd afc6 9b3d

bias_hh f4 [512]
0.291019 0.012782131 0.26362008 0.20779744 0.17403981 0.0636514 0.1593244 0.12289159
0.1308422 0.23198354 0.14601016 0.10352758 0.119464725 0.024999656 0.38332608 0.21947983
0.0066961367 0.06148063 0.1313346 0.21216284 0.33152664 0.09677813 0.10232256 0.044279672
0.20664087 0.10993912 0.05884469 0.01310663 0.05917054 0.07992735 0.1952547 0.047280278
0.19010705 0.16852295 0.036277086 0.07665578 0.09950718 0.13444774 0.06918256 0.1538879
0.16211027 0.02358741 0.012441749 0.13319558 0.18551694 0.36219802 0.2391997 0.23536415
0.12207733 0.09690181 0.2562206 0.13014351 0.03654604 0.056750834 0.01587392 0.11933638
0.06317544 0.23926958 0.18385892 0.009246604 0.20140646 0.20424855 0.26313487 0.24880794
0.033303168 0.047816634 0.09707475 0.21058413 0.0045988015 0.40369526 0.0038219737 0.026837211
0.14559704 0.2369695 0.1743349 0.07708691 0.34904316 0.08495317 0.18520725 0.08433716
0.19145863 0.019845745 -0.036045853 0.016059006 0.21836248 0.12631747 0.14246254 0.09665247
0.10155594 0.20659003 0.043903552 0.21149543 0.004939012 0.13187873 0.09666392 0.18717553
0.002180658 8.5117845e-06 0.1122115 0.054781828 0.22918619 0.095160805 0.085718386 0.16588198
0.12710011 0.15173511 0.10637024 0.112949535 0.01577523 0.22069196 0.12904383 0.12010337
0.32920894 0.124376275 0.11304856 0.2397089 0.18073586 0.101878785 0.29319084 0.3136194
0.25612175 0.1684409 0.040974893 0.05373831 0.037538156 -0.0064782635 0.18494786 -0.042630684
0.03387389 0.041042928 0.038627043 -0.036339458 0.024012072 -0.031909972 -0.025780415 -0.04818023
0.007141714 -0.106308185 -0.13205548 -0.012746422 -0.015916346 -0.059237327 -0.079395965 -0.1056974
-0.014001806 -0.075585335 -0.020987514 0.005576216 -0.047278304 -0.025033752 0.004099439 -0.10912359
-0.0051896926 -0.008887947 -0.003894174 -0.006192125 -0.009527217 -0.09117732 -0.073096186 0.076629944
-0.10216756 -0.101835676 0.005509046 -0.019574596 -0.05793511 0.03295106 0.07953635 -0.015153239
-0.07944115 -0.057237517 -0.09295929 -0.019951576 0.014974317 -0.096505314 -0.15415175 -0.12716861
0.06621887 -0.040164247 -0.056820985 0.026347436 -0.07050143 0.05929473 0.06113265 0.07253438
0.12912892 0.050573476 0.05563873 -0.068791196 0.023331342 -0.053256266 -0.036192134 -0.003340159
-0.06261655 -0.11791023 0.018573515 -0.04586716 -0.048741844 -0.042198077 -0.077182055 -0.100411855
0.07711884 -0.14722008 0.049931347 -0.009917038 -0.12543896 -0.004626392 0.028677741 -0.07831621
-0.13476144 -0.0005612174 0.013281894 -0.14678824 -0.010468269 0.03263893 -0.08135222 -0.13058777
-0.06997235 -0.027379578 -0.10792046 0.008345919 0.041564535 0.056386832 0.069456115 -0.047900483
0.046002187 0.10712614 -0.0052660997 -0.043896 0.004825608 0.07936245 0.03196282 0.034027245
-0.08321324 -0.08405727 -0.016791075 -0.035187755 0.043212354 0.028496264 -0.02204984 -0.087435395
-0.15090995 -0.014554493 0.09953795 -0.0076364004 -0.0698237 0.040438294 -0.11380114 -0.004578054
-0.15378888 -0.091613434 0.0338024 0.004560904 -0.09381938 -0.03040033 -0.06621951 0.069894366
00000000: 7100 953e 256c 513c 36f9 863e dac8 543e
00000010: 7e37 323e aa5b 823d ef25 233e 96ae fb3d
00000020: 7ffb 053e 188d 6d3e b083 153e 4506 d43d
00000030: eca9 f43d 14cc cc3c 5143 c43e 52bf 603e
00000040: 446b db3b 1dd3 7b3d 947c 063e 3741 593e
00000050: dcbd a93e 9d33 c63d 7e8e d13d 9a5e 353d
00000060: aa99 533e c327 e13d 2107 713d 31bd 563c
00000070: cf5c 723d f3b0 a33d d9f0 473e f7a8 413d
00000080: 6cab 423e 4891 2c3e 4897 143d b5fd 9c3d
00000090: 6cca cb3d abac 093e 96af 8d3d ca94 1d3e
000000a0: 3c00 263e 623a c13c 7ad8 4b3c 6c64 083e
000000b0: 27f8 3d3e 0572 b93e c4f0 743e 4d03 713e
000000c0: ae03 fa3d 7574 c63d 592f 833e 5744 053e
000000d0: 4db1 153d 9073 683d 060a 823c a266 f43d
000000e0: 2062 813d 1603 753e 8345 3c3e 117f 173c
000000f0: 7f3d 4e3e 8826 513e 9db9 863e 82c7 7e3e
00000100: e768 083d 60db 433d 20cf c63d 5ea3 573e
00000110: 8bb1 963b 25b1 ce3e 147a 7a3b b6d9 db3c
00000120: 6417 153e 22a8 723e d984 323e bedf 9d3d
00000130: c9b5 b23e edfb ad3d f8a6 3d3e f6b8 ac3d
00000140: bb0d 443e 8b93 a23c d1a4 13bd 2d8e 833c
00000150: 6a9a 5f3e 5e59 013e b3e1 113e bbf1 c53d
00000160: 90fc cf3d 568c 533e 36d4 333d 4292 583e
00000170: 70d7 a13b 380b 073e bcf7 c53d f1aa 3f3e
00000180: 5fe9 0e3b d6cd 0e37 25cf e53d e962 603d
00000190: c9af 6a3e abe3 c23d 1f8d af3d f7dc 293e
000001a0: 8826 023e 7360 1b3e a4d8 d93d 1652 e73d
000001b0: 0e3b 813c 13fd 613e 1124 043e c1f8 f53d
000001c0: 138e a83e fdb8 fe3d 0186 e73d 4076 753e
000001d0: d212 393e d3a5 d03d 1c1d 963e b992 a03e
000001e0: 6422 833e c57b 2c3e 4ad5 273d b41c 5c3d
000001f0: 9cc1 193d 9d47 d4bb f962 3d3e 839d 2ebd
00000200: 59bf 0a3d a11c 283d 6437 1e3d afd8 14bd
00000210: f7b4 c43c 08b4 02bd 7331 d3bc a258 45bd
00000220: 0a05 ea3b 1bb8 d9bd 8d39 07be 5ed6 50bc
00000230: ff62 82bc d7a2 72bd 5a9a a2bd e177 d8bd
00000240: d567 65bc 7ccc 9abd 02ee abbc b1b8 b63b
00000250: e5a6 41bd 9513 cdbc 9654 863b 307c dfbd
00000260: 4c0e aabb c09e 11bc 6635 7fbb 4fe7 cabb
00000270: 0b18 1cbc 2dbb babd 74b3 95bd 29f0 9c3d
00000280: 3a3d d1bd 398f d0bd 3a85 b43b e75a a0bc
00000290: 5e4d 6dbd b1f7 063d f4e3 a23d 4a45 78bc
000002a0: 0bb2 a2bd e371 6abd 7161 bebd 7d71 a3bc
000002b0: d656 753c 94a4 c5bd f5d9 1dbe 7d38 02be
000002c0: c29d 873d 4483 24bd 1fbd 68bd 94d6 d73c
000002d0: 0e63 90bd 08df 723d 3b66 7a3d e88c 943d
000002e0: 5f3a 043e 2226 4f3d 70e5 633d 66e2 8cbd
000002f0: 5f21 bf3c 3e23 5abd 343e 14bd 92e6 5abb
00000300: 1b3d 80bd eb7a f1bd 7c27 983c 34df 3bbd
00000310: 87a5 47bd e4d7 2cbd a011 9ebd bba4 cdbd
00000320: 7bf0 9d3d dcc0 16be d084 4c3d 127b 22bc
00000330: 1273 00be fd98 97bb 95ed ea3c 4064 a0bd
00000340: e7fe 09be aa1e 13ba 4d9c 593c a84f 16be
00000350: 1a83 2bbc 66b0 053d fe9b a6bd cdb8 05be
00000360: aa4d 8fbd 234b e0bc 6705 ddbd 52bd 083c
00000370: 933f 2a3d e1f5 663d 023f 8e3d 4c33 44bd
00000380: ca6c 3c3d f364 db3d 3f8f acbb 4bcc 33bd
00000390: 2220 9e3b c888 a23d 72eb 023d 2760 0b3d
000003a0: b46b aabd 3826 acbd 708d 89bc 0921 10bd
000003b0: 70ff 303d ff70 e93c dea1 b4bc 5411 b3bd
000003c0: 2388 1abe f875 6ebc 8dda cb3d c53a fabb
000003d0: baff 8ebd a0a2 253d 9210 e9bd 8003 96bb
000003e0: d57a 1dbe d39f bbbd 6374 0a3d a373 953b
000003f0: 6024 c0bd 1d0a f9bc 189e 87bd c724 8f3d
