logs/fgb_vary_rho/4/actor.pt (torch, 906162 bytes, 17 tensors)

weight_ih f4 [512, 48]
0	0x3d04f32b	0.032458466
1	0x3e0c9a8d	0.13730831
2	0xbde80a5f	-0.11330103
3	0xbd953944	-0.07286313
4	0xbd1fc46e	-0.03900569
5	0x3db30a09	0.087421484
6	0x3d3454a2	0.044026025
7	0x3d7e97be	0.06215643
8	0x3d1a35e4	0.03764905
9	0x3d58654d	0.052830983
10	0x3c1ba297	0.009499214
11	0xbd7b9bc0	-0.06142783
12	0xbdf38c56	-0.11892001
13	0xbd0be512	-0.034154005
14	0x3d285a9a	0.04110203
15	0xbc073a80	-0.008253694
16	0x3d27fd5b	0.041013103
17	0x3d8b2309	0.06793792
18	0xbdc10ac8	-0.094258845
19	0xbda544a2	-0.08069731
20	0x3c8548c4	0.016270049
21	0x3e12683e	0.14297578
22	0x3c2b5a55	0.010458549
23	0x3d9724b6	0.07380049
24	0xbd232159	-0.039826725
25	0x3a859cc5	0.0010193816
26	0x3db22ef3	0.08700361
27	0xbdee12fd	-0.116247155
28	0xbdaaad12	-0.08333792
29	0xbd1f7ac0	-0.038935423
30	0x3d4263aa	0.04745833
31	0x3d51c6fa	0.05121515
32	0xbd4a160c	-0.04933743
33	0xbc9d57f8	-0.019206986
34	0x3cba65cd	0.02275362
35	0xbe080a2b	-0.13285129
36	0xbd89020b	-0.06689843
37	0x3d846c36	0.06465952
38	0x3d2e47f6	0.042549096
39	0x3cd0815c	0.025452308
40	0xba777474	-0.0009439655
41	0xbbd7fecd	-0.006591654
42	0x3d325c2b	0.04354493
43	0xbd71ee41	-0.059065107
44	0xbd68479c	-0.056708917
45	0xbde2992d	-0.11064372
46	0x3c22edfb	0.009944434
47	0x3da4326e	0.08017431
48	0xbc7da300	-0.015480757
49	0x3da1958d	0.07889853
50	0x3ddffefe	0.10937308
51	0x3d8c2c28	0.0684436
52	0x3d12b20a	0.035814323
53	0x3d921ca3	0.07134368
54	0x3d5e2a9c	0.054239854
55	0x3c5a2f0e	0.013316883
56	0x3e7bd601	0.24593355
57	0xbe1085f8	-0.14113605
58	0xbd414f6f	-0.047194894
59	0xbe043b2a	-0.12913194
60	0xbc43578a	-0.011922726
61	0x3de1dbef	0.11028277
62	0xbd5a8d9c	-0.053357705
63	0x3d87460f	0.066051595
64	0xbd994bfd	-0.07485197
65	0xbd2ce176	-0.042207204
66	0x3d3207e7	0.043464568
67	0xbde11144	-0.10989621
68	0x3d3d6b2d	0.04624479
69	0xbce1ab7b	-0.027547589
70	0x3b88ff3c	0.004180817
71	0x3d9bdcb9	0.07610459
72	0x3d2d8e0b	0.04237179
73	0x3e398fcf	0.18121265
74	0x3db9a0c9	0.090638705
75	0x3d7c507a	0.061600186
76	0x3ddfb84e	0.10923825
77	0xbdd79240	-0.10525942
78	0x3db3b4b9	0.087747045
79	0xbd7dbe98	-0.061949342
80	0xbdf8dc44	-0.12151387
81	0xbaf5cbda	-0.0018752769
82	0x3e12d18a	0.14337745
83	0xbd25c752	-0.04047329
84	0x3d7441e7	0.059633162
85	0x3acc98de	0.0015609523
86	0xbb7f343e	-0.003894105
87	0xbce579fd	-0.02801227
88	0x3d419fec	0.047271654
89	0xbd89ce21	-0.06728769
90	0x3be89768	0.007098127
91	0x3d0b4585	0.034001846
92	0x3d9b5f58	0.07586545
93	0x3d3371b2	0.0438096
94	0xbd57cce8	-0.05268565
95	0xbd5c78ca	-0.05382613
96	0xbc4ddd05	-0.012564902
97	0x3db417c8	0.087935984
98	0xbd8800fc	-0.06640813
99	0x3d6060fd	0.054779995
100	0x3dc004f3	0.09375944
101	0x3ce64c72	0.028112624
102	0xbcde67f6	-0.027149182
103	0x3dc7fb03	0.097646736
104	0xbd316c29	-0.04331604
105	0xbd9f76f8	-0.07786363
106	0xbd84524e	-0.06461011
107	0xbddb3590	-0.107035756
108	0x3e0c70f3	0.13714962
109	0x3b07271a	0.0020622672
110	0xbdb55439	-0.08853955
111	0x3d8c8ed1	0.068631776
112	0xbe0dfd4d	-0.13866158
113	0x3e409f9a	0.18810883
114	0x3df69cd1	0.12041629
115	0x3bcdcd5d	0.0062805847
116	0x3d48ca3d	0.049020994
117	0xbd978dd1	-0.07400096
118	0xbd3c6c2b	-0.046001595
119	0x3c3f8746	0.011689967
120	0x3d1c2360	0.038119674
121	0xbd9c2cbd	-0.07625721
122	0xbe0457bf	-0.12924097
123	0xbd954b6a	-0.07289775
124	0xbe327b1c	-0.17429775
125	0x3b9e3bc0	0.0048289
126	0xbdcf675d	-0.10127137
127	0x3d31978a	0.04335741
128	0xbc5d00ee	-0.013488991
129	0xbd72b933	-0.05925865
130	0xbd995b0e	-0.074880704
131	0x3c61f5a0	0.013791472
132	0xbd81bd1a	-0.063348964
133	0x3c90a5ab	0.017657122
134	0x3da85e1c	0.08221075
135	0xbb87cd15	-0.0041443207
136	0xbb43d6f4	-0.002988276
137	0xbcfd2ca0	-0.030905068
138	0xbd14182d	-0.03615587
139	0x3d0feb3c	0.035136446
140	0x3cb50fb4	0.022102214
141	0xbbd836dc	-0.0065983366
142	0x3d8d55c6	0.069011256
143	0x3c93c960	0.018040359
144	0xbdf26a2e	-0.118366584
145	0x3c1b6a6b	0.009485821
146	0x3e51dd49	0.2049457
147	0xbca27903	-0.019833094
148	0xbd1d2ebe	-0.038374655
149	0xbd041cd1	-0.032254044
150	0xbdafb107	-0.08578687
151	0xbcc5c823	-0.024143284
152	0xbd215d5d	-0.03939568
153	0x3da081e8	0.07837278
154	0x3d056f1d	0.03257667
155	0xbdd8b8ce	-0.10582124
156	0x3de4f0dc	0.11178753
157	0xbd8934e6	-0.06699543
158	0xbc990605	-0.018679628
159	0xbd1244a8	-0.035710007
160	0xbe34e472	-0.1766527
161	0x3bdaebbd	0.006680934
162	0x3cf1acbc	0.029501311
163	0xbdccffe4	-0.10009745
164	0x3c3f35b3	0.011670518
165	0x3d4a523a	0.049394824
166	0xbc3be9c3	-0.011469307
167	0x3d1cbd9a	0.038266756
168	0x3c7a6e16	0.015285036
169	0xbd1ae5f7	-0.037816968
170	0x3dda42dc	0.10657284
171	0xbd7b5ea1	-0.061369542
172	0x3df2664f	0.1183592
173	0x3dae029f	0.08496594
174	0xbd9ab456	-0.075539276
175	0x3dc6a0f9	0.09698672
176	0xbc73e85e	-0.014886944
177	0xbce20649	-0.027590888
178	0x3db7062b	0.08936723
179	0xbdc9c8aa	-0.09852727
180	0xbc590ed6	-0.013248166
181	0xbd6e8d06	-0.05823996
182	0x3d0de97e	0.034646504
183	0x3bcc4435	0.006233717
184	0x3d456300	0.048190117
185	0x3d7c09f3	0.061532926
186	0xbc92bc45	-0.01791204
187	0xbc58bdbb	-0.013228829
188	0xbd3ab327	-0.04558101
189	0x3dbb29a0	0.09138799
190	0x3e09d0e4	0.13458592
191	0x3e05edf6	0.13079056
192	0xbe113e05	-0.14183815
193	0x3da148ca	0.078752115
194	0xbd90303e	-0.070404515
195	0xbe000257	-0.12500893
196	0x3d7be46a	0.06149713
197	0x3b5fa580	0.0034125745
198	0x3d1e3774	0.038627103
199	0xbe047558	-0.12935388
200	0x3cdf3df3	0.02725122
201	0x3e7c7993	0.24655752
202	0xbdaeff97	-0.08544844
203	0xbe30ec37	-0.17277609
204	0xbd12ea8a	-0.035868205
205	0x3cfd5b1b	0.030927232
206	0x3d24e2de	0.04025542
207	0x3ddab244	0.10678533
208	0x3e0ae04b	0.13562123
209	0x3e4ac443	0.1980143
210	0xbcea495d	-0.028599435
211	0xbdfd6e30	-0.12374532
212	0x3d81d6a4	0.063397676
213	0x3a90aae3	0.0011037256
214	0x3cc519a8	0.024060085
215	0x3e1e91a4	0.15485245
216	0xbdcc6bf0	-0.09981525
217	0x3d7f4560	0.06232202
218	0xbd8b4ace	-0.06801377
219	0xbe53887c	-0.20657533
220	0x3e276f9d	0.16351171
221	0x3c1c5262	0.009541126
222	0x3d43b152	0.047776528
223	0x3e1b5744	0.15170008
224	0xbe062e8e	-0.13103697
225	0xbc089333	-0.008335876
226	0xbcf80327	-0.03027494
227	0xbd1ed68b	-0.038778823
228	0xbd1174a5	-0.03551163
229	0xbcb143d1	-0.021638783
230	0xbc87c4ef	-0.016573397
231	0x3d322adc	0.043497905
232	0xbd2d7fc9	-0.042358194
233	0x3d618717	0.055060472
234	0x3ce128d5	0.02748529
235	0xbdb9f026	-0.09079008
236	0xbccaca74	-0.02475474
237	0xbdb30acd	-0.087422945
238	0x3a69e2bf	0.00089220324
239	0x3d8690e0	0.065706015
240	0xbc1119a2	-0.008856209
241	0x3db8a5f6	0.090160295
242	0xbde09694	-0.109662205
243	0x3c969133	0.018379783
244	0x3e00a737	0.12563787
245	0xbdbf0da6	-0.09328775
246	0x3dd43b0f	0.10362827
247	0xbd3d1500	-0.046162605
248	0x3d46fcb1	0.04858083
249	0xbddc557e	-0.10758494
250	0xbd8ea9ea	-0.06966002
251	0x3cbd098b	0.02307584
252	0xbce3256b	-0.027727803
253	0x3d295d60	0.041348815
254	0xbdcdf0dc	-0.10055706
255	0xbe13d8e5	-0.14438207

weight_hh f4 [512, 128]
0	0xbd4149e4	-0.04718961
1	0xbc96fc3f	-0.018430827
2	0xbd05d5c1	-0.032674555
3	0xbb05dba2	-0.00204251
4	0xbd9554ec	-0.07291588
5	0xba498c24	-0.0007688424
6	0x3da8ec92	0.08248247
7	0xbcf66ee8	-0.030082181
8	0x3da72a27	0.08162337
9	0x3d8b5683	0.0680361
10	0xbd2928ab	-0.04129855
11	0xbc2cfe57	-0.010558686
12	0x3cb6daf9	0.022321211
13	0x3d5ff1be	0.054673903
14	0x3cb6dd6f	0.022322385
15	0x3dbe49b9	0.09291405
16	0x3dc1157f	0.09427928
17	0xbc6a476c	-0.014299255
18	0x3cc37a44	0.023862012
19	0xbd37a13b	-0.044831496
20	0x3cacd1c9	0.021096127
21	0x3d4477f4	0.04796596
22	0x3d9d68ce	0.076860055
23	0x3d6afc44	0.057369485
24	0x3c7dd8f8	0.015493624
25	0x3d70a1de	0.05874812
26	0xbd36fef6	-0.044676743
27	0x3c78ce19	0.015185856
28	0xbce09b64	-0.027417846
29	0x3db14efe	0.08657645
30	0x3d8c5e23	0.06853893
31	0xbd9d5adc	-0.07683346
32	0xbd6e8177	-0.058228936
33	0xbdcbe6a6	-0.09956102
34	0xbdab1bc5	-0.08354906
35	0xbdc91ae5	-0.09819583
36	0xba627dfc	-0.0008639989
37	0xbd8b698e	-0.06807242
38	0xbcdf8f2c	-0.02728995
39	0xbd758300	-0.059939384
40	0x3d774174	0.060365155
41	0x3b5a13ec	0.0033276035
42	0x3d82bf98	0.063842
43	0x3d353bfe	0.044246666
44	0x3d4da87e	0.050209515
45	0x3d310c8e	0.043224864
46	0x3da08acf	0.07838976
47	0x3d4cb476	0.04997679
48	0xbc267676	-0.010160079
49	0x3c7ada0a	0.015310774
50	0x3d266f90	0.040633738
51	0x3ca4bfb9	0.020110952
52	0xbd8781a9	-0.066165276
53	0x3d80fa02	0.06297685
54	0xbdcf21c3	-0.101138614
55	0x3c83ee81	0.016104938
56	0x3c0bc92d	0.008531851
57	0xbd2b1b9d	-0.04177438
58	0x3c03b58b	0.008038889
59	0xbd9d1589	-0.07670123
60	0xbcaaa19c	-0.020829014
61	0xbc82e295	-0.015977183
62	0xbb843452	-0.0040345574
63	0xbd84f7c0	-0.06492567
64	0xbd0cb2b9	-0.03435013
65	0x3d94fb5c	0.072745055
66	0x3d651311	0.055926386
67	0x3df963d1	0.121772416
68	0xbd8a1f82	-0.06744291
69	0xbd551721	-0.05202401
70	0x3a97e930	0.0011589881
71	0xbd954a29	-0.072895356
72	0xbd9b47db	-0.07582065
73	0xbd53d420	-0.05171597
74	0x3bb43a59	0.0055001196
75	0x3c9eb430	0.01937303
76	0xbc8b9afe	-0.01704168
77	0xbc8683a2	-0.01642019
78	0xbc910bda	-0.017705847
79	0x3d6b5c44	0.05746104
80	0x3c8d9f0b	0.017287752
81	0x3d22cb38	0.039744586
82	0x3d324d3f	0.0435307
83	0x3d072866	0.03299751
84	0x3a5e3625	0.0008476696
85	0x3e00526a	0.12531438
86	0xbd8db2fe	-0.06918906
87	0xbd8d2cee	-0.06893335
88	0x3d9da2ca	0.07697065
89	0x3d8eb5e8	0.069682896
90	0xbda41ad4	-0.080129296
91	0x3d924926	0.07142858
92	0x3d59896d	0.053109575
93	0xbde41f27	-0.11138754
94	0x3ca2f24c	0.019890927
95	0x3c1418ff	0.009039163
96	0xbd9cd17c	-0.076571435
97	0xbd35f736	-0.04442521
98	0xbe0401fe	-0.12891385
99	0xbd47cfd9	-0.048782203
100	0x3da969da	0.08272143
101	0xbcb67ce7	-0.022276355
102	0x3d9f9175	0.077914156
103	0x3b9bee28	0.004758615
104	0xbd141f65	-0.036162753
105	0xbde82f9f	-0.11337208
106	0xbbfd93ea	-0.00773858
107	0x3d2331d8	0.039842457
108	0x3da0dbfb	0.07854458
109	0xbd900a05	-0.07033161
110	0xbd576c92	-0.052593775
111	0xbd1321dc	-0.035920963
112	0xbcca1c5f	-0.024671732
113	0x3d9d36c2	0.0767646
114	0xbd50725f	-0.050890323
115	0xbc053239	-0.00812965
116	0xbc45df68	-0.01207719
117	0xbda6bd63	-0.081415914
118	0x3aedafd9	0.0018134072
119	0x3c63a6a2	0.013894709
120	0xbc93a6c2	-0.018023852
121	0xbda73121	-0.081636675
122	0xbb6758b5	-0.0035300676
123	0xbd3a944c	-0.045551583
124	0xbd52c8fd	-0.05146121
125	0x3d0cf0b7	0.03440925
126	0xbd819d8c	-0.06328878
127	0x3e0b5f78	0.13610637
128	0xbd5fedf7	-0.0546703
129	0x3d00a7c9	0.031410012
130	0xbd4075fe	-0.046987526
131	0x3d9af00b	0.07565316
132	0x3d36b54e	0.0446065
133	0x3d2fa17a	0.042878605
134	0x3bcb53dd	0.0062050656
135	0x3cfaa74e	0.030597355
136	0x3dde98da	0.10868998
137	0x3d1d96c6	0.038473867
138	0xbd9bcf96	-0.07607953
139	0x3de36803	0.11103823
140	0x3c162c07	0.00916577
141	0xbc69dd42	-0.014273943
142	0x3ca4449e	0.02005225
143	0x3ddf568f	0.109051816
144	0xbd1b6c74	-0.037945226
145	0xb9b93cd9	-0.00035331285
146	0x3d262e95	0.040571768
147	0xbd5e974b	-0.054343503
148	0xbd997703	-0.07493403
149	0x3bffc33a	0.0078052552
150	0xbd343208	-0.043993026
151	0xbd8f2aab	-0.0699056
152	0x3d90e8f7	0.070756845
153	0xba969924	-0.0011489731
154	0x3d3b149e	0.04567396
155	0xbdefa0e9	-0.11700613
156	0xbd9df193	-0.07712092
157	0x3d87657a	0.06611152
158	0xbe1b1f2c	-0.1514861
159	0xbdc9b5cc	-0.09849128
160	0x39f45bf0	0.00046607805
161	0xbd1a24b1	-0.037632648
162	0xbb836664	-0.0040100086
163	0xbe192d3a	-0.14958659
164	0xbd9874c7	-0.074441485
165	0x3ca590ef	0.020210711
166	0xbdb9d9c2	-0.09074737
167	0x3d8d2767	0.06892281
168	0xbdd0a033	-0.101868056
169	0x3cc65c83	0.024214035
170	0xbc23dc78	-0.010001294
171	0x3d85a3de	0.06525396
172	0x3da46a90	0.08028138
173	0xbda72f64	-0.08163336
174	0x3c1dfb0e	0.009642376
175	0x3d9fa5fd	0.077953316
176	0xbd138075	-0.036011178
177	0x3c3ae26d	0.011406523
178	0xbd662958	-0.056191772
179	0xbde831ad	-0.113376
180	0x3d3cefa0	0.04612696
181	0x3d4c2079	0.049835656
182	0xbd2a1a16	-0.041528784
183	0xbbaa3287	-0.0051940116
184	0xbce862f2	-0.028367493
185	0x3d6adba8	0.057338387
186	0xbd32a74d	-0.04361658
187	0xbe0e7e80	-0.13915443
188	0xbd3694b5	-0.04457541
189	0xbe330c38	-0.1748513
190	0xbc547a74	-0.012968648
191	0xbc8a8793	-0.01691035
192	0x3d9222e1	0.07135559
193	0xbdd49a41	-0.10380984
194	0x3cac3c03	0.02102471
195	0xbb542d16	-0.0032375506
196	0xbe06586b	-0.13119666
197	0x3da9336e	0.082617626
198	0x3ca669b6	0.020314079
199	0xbcd3d1ee	-0.025856938
200	0xbcc7e492	-0.024400983
201	0xbd942983	-0.0723448
202	0x3dade10b	0.08490189
203	0x3c5aed27	0.013362206
204	0x3dfb40bb	0.12268206
205	0x3d8282c5	0.063725986
206	0x3d409f8b	0.047027152
207	0x3d34ba82	0.04412318
208	0xbcfdc3d5	-0.030977169
209	0x3dd06b96	0.101767704
210	0x3d98587b	0.07438751
211	0xbd12679f	-0.035743352
212	0x3b8caf03	0.004293324
213	0x3d9b1e8a	0.07574184
214	0x3d007f98	0.031371683
215	0x3c1c63e6	0.009545302
216	0xbdac05b4	-0.08399525
217	0x3d600244	0.05468966
218	0x3be48af9	0.0069745746
219	0x3dd0f61b	0.10203191
220	0x3d9d0ed6	0.07668845
221	0xbd627be8	-0.055293947
222	0x3dc6b3cc	0.09702262
223	0x3c947ef3	0.01812694
224	0xbcc9aa66	-0.024617385
225	0x3b44039d	0.002990938
226	0xbdd60ae6	-0.104512975
227	0x3cdf950c	0.02729275
228	0xbd513875	-0.051079232
229	0xbda876b4	-0.08225766
230	0xbdc3e435	-0.095650114
231	0xbe193832	-0.14962843
232	0x3c155347	0.009114093
233	0xbb8e70ec	-0.0043469574
234	0x3cc563dc	0.024095468
235	0xbd6d5c01	-0.05794907
236	0xbc8a9007	-0.01691438
237	0x3d803533	0.06260147
238	0xbcb7151a	-0.02234893
239	0xbd2dd151	-0.042435948
240	0x3c9f6a50	0.019459873
241	0x3dc33a84	0.09532645
242	0xbd8139da	-0.063098624
243	0xbd13593f	-0.035973784
244	0x3da06742	0.07832195
245	0xbe3774b5	-0.17915614
246	0xbc94ce1d	-0.018164689
247	0x3d02b2fd	0.031908978
248	0xba81f8f3	-0.0009916112
249	0x3dab6b38	0.0837006
250	0xbdcb849e	-0.09937404
251	0x3c94112b	0.018074593
252	0xbcccb6b9	-0.024989473
253	0x3da614c7	0.08109432
254	0xbe0926b2	-0.13393667
255	0x3d006b06	0.031352066

bias_ih f4 [512]
0	0x3ddb6c21	0.10713983
1	0x3e4f61c6	0.20252141
2	0x3cfc14f9	0.03077172
3	0xbd171d51	-0.036893193
4	0x3e216424	0.15760857
5	0x3d5d3904	0.054009452
6	0x3d7e6380	0.06210661
7	0x3df9ad41	0.12191249
8	0x3cf60516	0.030031722
9	0x3d1d251d	0.038365472
10	0x3a60a6ea	0.0008569794
11	0x3db4a540	0.088205814
12	0x3e03b3ec	0.12861603
13	0x3daf02bf	0.08545446
14	0xbd2561a9	-0.04037634
15	0x3da61b70	0.08110702
16	0x3d0f56ae	0.034994774
17	0x3d1bc0b3	0.03802557
18	0x3d8ecd77	0.06972783
19	0x3a907a52	0.0011022782
20	0x3db858cd	0.090013124
21	0x3d9ecd20	0.07753968
22	0x3df5a151	0.11993659
23	0x3da511c5	0.0806003
24	0x3d222625	0.03958716
25	0x3dbbc8f2	0.09169187
26	0xbc18ef72	-0.009334432
27	0x3d46ae57	0.048506107
28	0x3e17394c	0.14767951
29	0x3da62bf0	0.08113849
30	0x3c84f09a	0.016228009
31	0x3d56b092	0.052414484
32	0xbd286412	-0.04111106
33	0x3d2e759f	0.04259264
34	0x3e0e490e	0.13895056
35	0x3c81510c	0.015785716
36	0x3e0d825a	0.13819256
37	0x3dbaeb60	0.091269255
38	0x3d9f0166	0.077639386
39	0x3d2e14d4	0.042500332
40	0x3d330e20	0.043714643
41	0xbc2f4b23	-0.010699066
42	0xbd017ee5	-0.031615157
43	0x3d65ec6e	0.05613368
44	0x3e191f30	0.14953303
45	0x3e2c9601	0.16854097
46	0x3d287c62	0.041134246
47	0x3dcfb496	0.10141866
48	0xbcffea70	-0.031239718
49	0x3e2b7ea1	0.16747524
50	0x3d966c4e	0.07344876
51	0x3dcc301e	0.09970115
52	0x3d31de5b	0.043424945
53	0x3d679806	0.056541465
54	0x3da3788c	0.07981977
55	0x3dbe2db1	0.09286059
56	0x3dca71b5	0.09884969
57	0x3e22d102	0.15900043
58	0x3e0f9021	0.14019825
59	0x3e27a3e0	0.16371107
60	0x3e539643	0.20662789
61	0x3dcece09	0.10097892
62	0x3d2ee209	0.042696033
63	0x3d4192ee	0.047259264
64	0x3c316dcb	0.010829399
65	0x3e3f4474	0.18678457
66	0x3dc52fda	0.096282676
67	0x3c0851b0	0.008320257
68	0x3df6d04c	0.12051448
69	0x3d1f5767	0.038901713
70	0x3d9893bb	0.07450052
71	0x3e067fa8	0.13134634
72	0x3dddf6d8	0.10838097
73	0x3e032bd0	0.12809682
74	0x3d8a77d4	0.06761137
75	0x3ddc953e	0.10770653
76	0x3e296441	0.1654215
77	0x3d63425a	0.0554832
78	0x3d0b138e	0.033954196
79	0x3d0ab924	0.03386797
80	0x3d8286c0	0.06373358
81	0x3dccc53b	0.09998556
82	0x3d916393	0.070990704
83	0xbceb62c9	-0.028733628
84	0x3cc5aa32	0.024129007
85	0x3b30a190	0.0026951768
86	0x3b888a83	0.0041669025
87	0x3dbbae8d	0.09164152
88	0x3d87365a	0.066021636
89	0x3e13414d	0.14380379
90	0x3d6c4f67	0.05769291
91	0xbc4db304	-0.012554888
92	0x3d04937f	0.032367226
93	0x3d8ac326	0.06775503
94	0x3cc016ee	0.023448434
95	0x3db6dd29	0.08928902
96	0x3b9d10b9	0.0047932533
97	0x3dd52581	0.10407544
98	0x3de688fd	0.11256597
99	0x3cc22e23	0.02370364
100	0x3db8cce0	0.09023452
101	0xbc9fe4bd	-0.01951825
102	0x3d603ec6	0.054747365
103	0x3cfd3379	0.030908333
104	0x3e6e8068	0.2329117
105	0xbc886c53	-0.016653216
106	0x3e144971	0.1448114
107	0x3e16ad69	0.14714588
108	0xbbd547c0	-0.0065087974
109	0x3c362641	0.011117519
110	0x3d8fc3c5	0.07019762
111	0x3d838c2f	0.06423222
112	0x3e1af847	0.15133773
113	0x3d4e2cbd	0.050335634
114	0x3e206456	0.15663275
115	0x3d54e396	0.051974855
116	0x3e3605ae	0.17775604
117	0x3dfdb16b	0.123873554
118	0x3e02981d	0.12753339
119	0x3ce8bd56	0.028410595
120	0x3dc73d44	0.09728482
121	0x3dbebf6e	0.09313856
122	0x39d8178e	0.0004121628
123	0x3e3737e2	0.17892411
124	0x3de26a8b	0.11055478
125	0x3da1fa0a	0.07909019
126	0x3cb7674b	0.022388121
127	0x3d8901e5	0.066898145
128	0x3dd689e5	0.1047552
129	0x3d46e60f	0.048559245
130	0xbd691306	-0.056902908
131	0x3c5b1ffe	0.013374327
132	0xbca2bc13	-0.019865071
133	0x3d0ff5cc	0.03514652
134	0xbdddb370	-0.108252406
135	0x3de6c0c8	0.11267239
136	0x3d24a46f	0.04019588
137	0xbdc6a1ee	-0.096988544
138	0x3d864406	0.06555943
139	0x3db27515	0.08713738
140	0xbd97edc7	-0.07418399
141	0xbd9cbae5	-0.07652835
142	0x3ccff396	0.025384706
143	0xbac85ee0	-0.0015287064
144	0xbcd2995d	-0.025707895
145	0x3c0c3a90	0.008558884
146	0xbd587c04	-0.052852646
147	0x3c31fb9a	0.010863209
148	0xbc4180b2	-0.0118104685
149	0x3d19fa9b	0.03759251
150	0xbac82d8f	-0.0015272367
151	0x3d705b5f	0.05868089
152	0xbc2cfad6	-0.010557851
153	0x3d77ecc1	0.06052852
154	0x3c665dfc	0.014060494
155	0x3d6c2b8a	0.05765871
156	0x3d00ee80	0.03147745
157	0xbc01cc51	-0.007922248
158	0xbd9f4af3	-0.07777967
159	0x3d3d5999	0.046228025
160	0xbd37f5b4	-0.044912055
161	0x3dd6e0d6	0.10492103
162	0xbd052ffa	-0.032516457
163	0x3d8d433b	0.06897589
164	0xbc8e916f	-0.017403333
165	0xbda65c10	-0.08123028
166	0x3b04f03b	0.002028479
167	0xbca045f4	-0.019564606
168	0x3d047cba	0.03234551
169	0xbd1bf19a	-0.038072206
170	0x3d28f94b	0.04125337
171	0xbcc03323	-0.023461884
172	0xbd8aee41	-0.067837246
173	0x3c9a1922	0.018810812
174	0x3c3c055e	0.011475889
175	0x3c6b9e7c	0.014381047
176	0xbd581b62	-0.05276049
177	0x3d3b646e	0.045750074
178	0x3ba5f221	0.0050642644
179	0x3cd2e2d5	0.025742928
180	0xbd972231	-0.07379568
181	0x3da5990f	0.08085834
182	0x3c273d46	0.01020748
183	0xbcbe7754	-0.02325026
184	0xbd93abf8	-0.07210535
185	0x3cdde794	0.027087964
186	0xbd510907	-0.051034
187	0x3c199a87	0.009375221
188	0x3db4bd98	0.08825225
189	0x3d48ba3b	0.04900573
190	0x3dcc97d1	0.09989894
191	0xbd3ed264	-0.046587363
192	0x3dc1703a	0.09445234
193	0x3b9ed391	0.004846998
194	0xbd16bb49	-0.036799703
195	0x3defa93d	0.117022015
196	0xbdb70e4c	-0.08938274
197	0x3d11c8b5	0.0355918
198	0xbd7d052f	-0.06177252
199	0x3d21bfd8	0.039489597
200	0xbd55c314	-0.052187994
201	0xbc449912	-0.011999385
202	0xbd88b28b	-0.06674679
203	0xbd46dc27	-0.048549797
204	0xbcb045f6	-0.021517735
205	0xbc7a8087	-0.015289432
206	0x3d28f4a8	0.041248947
207	0x3c4e7356	0.01260074
208	0x3d4db5f7	0.050222363
209	0xbd218799	-0.039435957
210	0xbd66e00f	-0.056366023
211	0xbcc8215c	-0.02442997
212	0x3d15573d	0.03646015
213	0x3cbaa38c	0.022783063
214	0xbd429766	-0.047507666
215	0x3d8cf0b5	0.06881849
216	0xbcfdacbe	-0.030966159
217	0x3d5cea9e	0.053934686
218	0x3d0f92b9	0.035052035
219	0x3d1d8b38	0.038462847
220	0xbc8dd134	-0.01731167
221	0x3d34d64c	0.044149682
222	0xbd741b99	-0.05959663
223	0x3d749efc	0.05972193
224	0xbd93f4fd	-0.07224462
225	0xbd966abf	-0.07344579
226	0xbcdcf721	-0.026973309
227	0xbca3c205	-0.019989977
228	0xbce8931f	-0.028390465
229	0x3d05d20a	0.032671012
230	0x3d225f74	0.039641812
231	0xbac20c5a	-0.0014804706
232	0xbda1bf3d	-0.07897804
233	0x3defc385	0.11707214
234	0xb915f51b	-0.00014301056
235	0x3d4b2951	0.04959995
236	0x3d34e5db	0.04416452
237	0x3d6c8392	0.057742663
238	0xbd71f36e	-0.059070043
239	0xbbbbbe81	-0.005729497
240	0x3da859fc	0.08220288
241	0x3bf7e741	0.0075654094
242	0xbcfd66a1	-0.030932726
243	0xbd9a2cf7	-0.075281076
244	0x3be9cc09	0.0071349186
245	0x3d5f0b8f	0.054454383
246	0x3bae2ebd	0.00531563
247	0xbcb78ed1	-0.022406967
248	0x3dab96a6	0.08378343
249	0xbd7f7ed3	-0.06237681
250	0xbce47d9d	-0.027891928
251	0xbcc41843	-0.02393735
252	0x3c7adb08	0.01531101
253	0xbce82086	-0.02833582
254	0xbda235ca	-0.07920416
255	0xbc604842	-0.013689103

bias_hh f4 [512]
0	0x3d176665	0.036962885
1	0x3de8e7ff	0.11372375
2	0x3e02a9bf	0.12760065
3	0xbc2c529b	-0.010517742
4	0x3e0e9c0a	0.13926712
5	0x3d17f700	0.037100792
6	0x3db26f1a	0.08712597
7	0x3df0dc49	0.11760766
8	0x3c4ff16d	0.012691838
9	0x3dbde09f	0.09271359
10	0x3db2c332	0.08728637
11	0x3e17906d	0.14801188
12	0x3d5b59be	0.05355238
13	0x3cca62eb	0.02470537
14	0x3d801cea	0.06255515
15	0x3dce0134	0.10058823
16	0x3b1deed1	0.0024098644
17	0x3dc28d93	0.094996594
18	0xbd570942	-0.052499063
19	0x3e149b50	0.14512372
20	0x3ded7a1b	0.115955554
21	0x3df32eca	0.11874159
22	0x3dc7ef25	0.0976241
23	0x3da49c37	0.08037608
24	0x3d8e2eb3	0.06942501
25	0x3e16a9e7	0.1471325
26	0xbcae041d	-0.021242196
27	0x3abef38b	0.0014568431
28	0x3db95d45	0.09050993
29	0x3e2f7db6	0.17137799
30	0x3d866f03	0.065641426
31	0x3d92370e	0.07139407
32	0x3da55cbd	0.08074329
33	0x3dbce65c	0.09223625
34	0x3d02effe	0.031967156
35	0x3d56975c	0.05239044
36	0xbce5f2c5	-0.028069863
37	0x3d1b997f	0.037988182
38	0x3e1a4b38	0.15067756
39	0xbdaa5b58	-0.08318204
40	0x3e08d783	0.13363461
41	0xbd192921	-0.03739274
42	0x3d9469d8	0.072467506
43	0x3d6312f5	0.055438
44	0x3de0c004	0.10974124
45	0x3df96b9e	0.121787295
46	0x3db0cdf8	0.086330354
47	0x3a85d430	0.0010210332
48	0x3d1c1023	0.038101327
49	0x3e4919df	0.19638775
50	0x3e1673b4	0.14692575
51	0x3be52f60	0.006994173
52	0x3e052d34	0.13005525
53	0xbcdcfc8c	-0.026975892
54	0x3e1e61be	0.15466973
55	0x3e0b1428	0.13581908
56	0x3e12e1b5	0.14343913
57	0x3dcb811c	0.09936735
58	0x3ddc35b3	0.1075243
59	0x3dbd8c8d	0.092553236
60	0x3e5a169d	0.21297689
61	0x3e1f5bf6	0.15562424
62	0xbcc5e510	-0.024157077
63	0x3da8f8de	0.08250593
64	0x3c651ecb	0.013984392
65	0x3dd7a979	0.10530371
66	0x3b5c3d36	0.003360582
67	0x3d0c4cff	0.034253117
68	0x3e1ba002	0.15197757
69	0x3db03c53	0.08605256
70	0x3e10bdf2	0.14134958
71	0x3e107449	0.1410686
72	0x3d491c74	0.0490994
73	0x3e0c12e6	0.13679084
74	0xbc051fc4	-0.008125249
75	0x3d9c451c	0.07630369
76	0x3e055c07	0.13023387
77	0x3dc50016	0.09619157
78	0x3e3e9d74	0.18614751
79	0x3bc3ba50	0.005973138
80	0x3e170904	0.14749533
81	0x3cb7f841	0.022457244
82	0x3e38ee2c	0.18059605
83	0x3da7d9b6	0.08195822
84	0x3e11b7d2	0.14230278
85	0x3def42ea	0.11682685
86	0x3cab04ef	0.020876376
87	0x3d10e192	0.03537137
88	0x3cc0ddfb	0.023543349
89	0x3de346bf	0.11097478
90	0x3de81579	0.113322206
91	0x3ddd830f	0.10816013
92	0x3d2621b1	0.040559474
93	0x3d86d132	0.065828696
94	0x3d8b9293	0.06815066
95	0x3ce90841	0.028446319
96	0x3de6db97	0.11272352
97	0x3cd077d1	0.025447758
98	0x3e28d66d	0.16488047
99	0x3e25889e	0.16165397
100	0x3d178e19	0.03700075
101	0x3d98a686	0.07453637
102	0x3cb7b559	0.02242534
103	0x3da01931	0.07817305
104	0x3e913360	0.2835951
105	0x3ba8353f	0.0051333006
106	0x3cfab618	0.030604407
107	0xbb0d9f56	-0.0021609864
108	0xbd2f1cf5	-0.042752225
109	0x3dfb4109	0.12268264
110	0x3d8dd407	0.06925207
111	0xbc45feb9	-0.012084656
112	0x3dd3c819	0.103409
113	0xbbf7a02f	-0.007556937
114	0x3c7cb790	0.015424624
115	0x3de87856	0.11351077
116	0x3c8e912c	0.017403208
117	0x3d8a728e	0.06760131
118	0x3e335907	0.1751443
119	0x3d14d36d	0.036334444
120	0x3dae7018	0.08517474
121	0x3b9da5df	0.004811033
122	0x3e241d17	0.16026722
123	0x3d9b7588	0.07590777
124	0x3e1c9a2e	0.1529319
125	0xbc70562f	-0.014668985
126	0x3da1f44b	0.07907923
127	0x3da120fb	0.07867619
128	0xbd434794	-0.047675684
129	0xbd3a344f	-0.04546004
130	0xbc7ed2aa	-0.015553156
131	0xbd73fff0	-0.059570253
132	0x3b8d82a3	0.0043185516
133	0x3d923497	0.07138937
134	0xbb958196	-0.004562567
135	0x3dd31528	0.103067696
136	0x3d996f43	0.074919246
137	0xbdc2ea0e	-0.09517299
138	0x3d84ec7d	0.06490419
139	0x3d8ee48f	0.06977188
140	0x3c02bd7f	0.00797975
141	0x3b01af18	0.0019788202
142	0xbcc095a8	-0.023508862
143	0xbb98fd52	-0.00466887
144	0x3d9f93dd	0.077918746
145	0x3d87f313	0.066381596
146	0x3d87c900	0.066301346
147	0x3dea21fa	0.11432262
148	0x3d43b94a	0.047784127
149	0xbbe8e71c	-0.0071076285
150	0xbd805466	-0.06266098
151	0xbb23f79a	-0.0025019408
152	0x3e019f6d	0.12658472
153	0x3d81b033	0.063324355
154	0xba1977e7	-0.00058543537
155	0x3b94bf39	0.004539397
156	0xbd382a1c	-0.044962034
157	0x3dffc38e	0.12488471
158	0xbd8c7d32	-0.068598166
159	0x3bfcaa3b	0.0077107227
160	0xbcb2e34e	-0.021836903
161	0x3dc47f2a	0.09594567
162	0x3ceecfe7	0.02915187
163	0xbc285296	-0.010273596
164	0x3b94cbfc	0.0045409184
165	0xbdd2bc74	-0.10289851
166	0xbcef4887	-0.029209388
167	0x3db5e008	0.08880621
168	0x3d3a521c	0.04548846
169	0x3db69b63	0.089163564
170	0xbdc497d8	-0.095992744
171	0x3d8ea0e3	0.069642805
172	0x3cb52fe3	0.02211756
173	0xbdaf19cd	-0.08549843
174	0x3d37f2a6	0.044909142
175	0x3d6baed0	0.05753976
176	0xbd4c0014	-0.049804762
177	0x3d334686	0.04376843
178	0xbdd38484	-0.1032801
179	0x3c477bdb	0.012175526
180	0xbd0f3050	-0.034958184
181	0x3d845cbb	0.064629994
182	0xbd91f0d0	-0.071260095
183	0xbd1b2f3d	-0.037886847
184	0xbdbd198c	-0.09233388
185	0x3d78163e	0.060568087
186	0xbc3e59f4	-0.011618126
187	0xbcf3508f	-0.0297015
188	0x3d48ba2b	0.04900567
189	0xbd543bb5	-0.051814754
190	0x3c4bb012	0.012432115
191	0x3d6be3fc	0.05759047
192	0x3d08d865	0.033409495
193	0x3d6e6fbe	0.058212034
194	0xbd5692c7	-0.05238607
195	0x3ddb8e25	0.10720471
196	0xbd9071c0	-0.07052946
197	0x3dd766a0	0.10517621
198	0xbd8ecd40	-0.06972742
199	0x3d4692d4	0.04847987
200	0xbd958004	-0.07299808
201	0xbd2c7cc3	-0.04211117
202	0xbda18b63	-0.07887914
203	0xbd17a71d	-0.037024606
204	0x3c063bb3	0.008192944
205	0x3d8dd0ae	0.06924568
206	0xbd86e0e7	-0.065858655
207	0xbd5da0bb	-0.054108363
208	0xbcfa2497	-0.030535026
209	0xbc983e6f	-0.018584458
210	0x3d86d13b	0.06582876
211	0x3c7f3ef6	0.015578976
212	0x3d462a55	0.048380215
213	0x3d57ecf4	0.05271621
214	0xbd517954	-0.0511411
215	0xbca832f7	-0.020532114
216	0x3bb3a511	0.005482324
217	0x3d8a89e3	0.06764581
218	0xba86f379	-0.0010295949
219	0x3daa3ab5	0.08311979
220	0x3dd6d81d	0.10490439
221	0x3d9eb013	0.07748427
222	0x3dd2c7de	0.10292028
223	0x3d28043c	0.041019663
224	0x3c95d406	0.018289577
225	0x3d1dd698	0.03853473
226	0xbd82f839	-0.06395001
227	0x3d82303e	0.06356858
228	0xbcdbdb03	-0.026837831
229	0x3c8f39f6	0.017483693
230	0x3d31a2c0	0.0433681
231	0xbc1de413	-0.009636897
232	0x3c4dbe76	0.012557616
233	0x3dcef90b	0.10106095
234	0x3dcce93a	0.10005422
235	0x3bd80be3	0.006593214
236	0x3d813f86	0.06310944
237	0xbccbbfb2	-0.02487168
238	0xbaebceed	-0.0017990746
239	0xbd437834	-0.047722057
240	0xbce36df7	-0.027762396
241	0xbc815865	-0.01578922
242	0xbe2d226c	-0.16907662
243	0x3d2dc596	0.04242476
244	0x3db6d748	0.089277804
245	0x3c3eb30e	0.01163937
246	0xbc61cf11	-0.013782279
247	0xbceb2833	-0.028705692
248	0x3d784655	0.06061395
249	0x3d70e3d1	0.058811013
250	0x3b113d5c	0.0022161817
251	0xbcb9746d	-0.022638524
252	0xbc7888bf	-0.015169322
253	0x3c8ecedc	0.017432623
254	0x3da5d45c	0.08097145
255	0xbdb23b57	-0.087027244

weight_ih f4 [512, 128]
0	0xbd08a452	-0.033359833
1	0xbc81ee05	-0.015860567
2	0xbd68a234	-0.056795314
3	0xbdb20983	-0.086932205
4	0xbca90130	-0.020630449
5	0x3c9c13de	0.019052442
6	0x3d7ac579	0.06122348
7	0x3d206d5a	0.039166786
8	0x3da54c2a	0.08071168
9	0xbd81f373	-0.063452624
10	0xbdb0759a	-0.08616181
11	0x3d13f847	0.036125448
12	0x3e147c06	0.14500436
13	0x3e3915fc	0.18074793
14	0x3c849456	0.016184013
15	0x3e1d4075	0.1535662
16	0x3db11767	0.08647042
17	0x3dc38d05	0.09548382
18	0x3d63d05e	0.055618636
19	0xbe060e0d	-0.13091297
20	0x3e1924af	0.149554
21	0xbb92b35c	-0.0044769477
22	0xbda3e934	-0.08003464
23	0x3de4f2da	0.11179133
24	0x3d09b06c	0.033615515
25	0xbd99200b	-0.07476815
26	0xbd5959ae	-0.05306404
27	0x3dcbdcfb	0.09954258
28	0xbca2b195	-0.019860068
29	0xbc0dc007	-0.00865174
30	0xbd7f9a4f	-0.06240302
31	0x3d2d2281	0.042269234
32	0x3d07689a	0.03305874
33	0x3d0e634f	0.034762677
34	0x3d241534	0.040059283
35	0xbd5659e6	-0.052331828
36	0x3dbb3cfb	0.091424905
37	0xbd2286c0	-0.03967929
38	0x3d89f5aa	0.0673631
39	0xbd053a67	-0.0325264
40	0xbd8c5adb	-0.06853267
41	0x3e142e61	0.14470817
42	0x3e0ec633	0.13942795
43	0x3e2ce132	0.1688278
44	0x3d12d1e8	0.035844713
45	0xbc53c9b9	-0.012926512
46	0xbdec1b13	-0.115286015
47	0x3d816b62	0.0631931
48	0xbdd39d1b	-0.103327
49	0x3d95f2db	0.07321712
50	0x3d81f3fb	0.06345364
51	0xbe026b6b	-0.12736289
52	0xbca49706	-0.020091545
53	0x3bccf2d1	0.006254532
54	0x3cdea3e1	0.027177753
55	0xbbc95a13	-0.006144771
56	0x3d21b2bf	0.039477106
57	0xbc3b8f0c	-0.011447679
58	0x3d2530d4	0.04032977
59	0x3b1234d4	0.002230932
60	0x3d185de8	0.03719893
61	0xbd6dbe6e	-0.058042936
62	0xbc6a40a1	-0.014297635
63	0x3bed8010	0.0072479323
64	0xbd945ced	-0.07244287
65	0x3c4070d9	0.011745655
66	0xbd54c6d2	-0.051947422
67	0xbc85d4b5	-0.016336778
68	0xbd7d1c88	-0.061794788
69	0xbd7544c6	-0.05988004
70	0x3c2f597f	0.01070249
71	0x3d0be864	0.03415717
72	0x3d73ec76	0.05955168
73	0x3cf3e69f	0.029773055
74	0x3d29c3e9	0.0414466
75	0x3d4369e0	0.047708392
76	0x3d91edb0	0.071254134
77	0x3c33a06c	0.0109635405
78	0xbd92c1b7	-0.071658544
79	0x3dd0e19d	0.10199282
80	0xbd9b24c1	-0.075753696
81	0x3cdefe35	0.027220825
82	0xbda1e462	-0.07904889
83	0xbce195ff	-0.027537344
84	0xbd9d0b0b	-0.07668122
85	0x3cdef80a	0.027217884
86	0xbd9d1af0	-0.076711535
87	0xbe089924	-0.13339669
88	0x3d78b0e0	0.060715556
89	0xbd107f05	-0.035277385
90	0xbdd86da8	-0.1056779
91	0x3e1876e8	0.14889109
92	0x3e25e570	0.16200805
93	0xbdfde5fb	-0.12397381
94	0xbda60b5f	-0.081076376
95	0x3c5e6cbc	0.013575729
96	0x3ceb58d7	0.028728886
97	0xbe1710fd	-0.14752574
98	0x39f20af2	0.00046165992
99	0x395b1f3c	0.00020897103
100	0x3cbf9458	0.023386165
101	0xbd8d26e0	-0.068921804
102	0x39c946dc	0.00038390502
103	0xbdc8be11	-0.09801877
104	0xbcbe3729	-0.023219662
105	0xbe00826e	-0.12549755
106	0x3c31d77b	0.010854597
107	0x3d634794	0.055488184
108	0x3d00cbf1	0.031444494
109	0x3dbc9266	0.09207611
110	0xbdb5546a	-0.08853991
111	0x3d9aa764	0.075514585
112	0x3baada0d	0.005213982
113	0xbd4c179c	-0.049827203
114	0xbd60e758	-0.054908127
115	0x3da771e7	0.08176022
116	0x3debff74	0.11523333
117	0xbdd77dae	-0.105220184
118	0x3c936cac	0.017996155
119	0xbc48a25b	-0.01224574
120	0xbde640e4	-0.11242846
121	0x3cf1a543	0.029497748
122	0xbdd819f5	-0.10551826
123	0x3b91a5a9	0.004444797
124	0xbd91dce9	-0.071222134
125	0x3aa130b0	0.0012297835
126	0x3a9da76a	0.0012028043
127	0x3d0bd3c0	0.034137487
128	0x3d2b9bdc	0.041896686
129	0x3d5f0c0b	0.054454844
130	0x3db6f783	0.08933928
131	0xbb90da50	-0.004420556
132	0xbc8e46ae	-0.017367687
133	0x3e36592c	0.17807454
134	0x3c454e5b	0.012042607
135	0xbd023ded	-0.03179734
136	0x3d9a61fd	0.07538221
137	0x391a6e39	0.00014727646
138	0xbd9c2de1	-0.07625938
139	0x3d9f0bf2	0.0776595
140	0x3c37e4ce	0.011223985
141	0x3d8f1e3b	0.06988188
142	0x3d3c41a7	0.04596105
143	0xbd0bbeda	-0.034117557
144	0x3c4b8e9e	0.012424139
145	0xbc86dc48	-0.01646246
146	0xbd04dbaa	-0.03243605
147	0xbd0c2671	-0.034216348
148	0x3dc07328	0.09396964
149	0xbc67bc1c	-0.01414397
150	0xbd55aed9	-0.0521687
151	0x3dcced5d	0.10006211
152	0xbdd1c341	-0.1024232
153	0x3dc0c9b1	0.094134696
154	0xbd2b526d	-0.041826654
155	0xbd9aa4ef	-0.0755099
156	0x3c8a4665	0.01687927
157	0x3dd7e775	0.10542194
158	0x3d771cb7	0.06033012
159	0x3b362d4a	0.002779799
160	0x3da47127	0.080293946
161	0xbd088ced	-0.033337522
162	0x3dfbc00e	0.12292491
163	0x3d5e49ff	0.054269787
164	0xbd01c977	-0.031686272
165	0xbd916eab	-0.07101186
166	0xbd0a37e9	-0.033744726
167	0xbe1bc246	-0.15210828
168	0x3cef0176	0.029175501
169	0xbd4cf88a	-0.050041713
170	0x3ddf4b60	0.109030485
171	0x3dc161c1	0.09442473
172	0x3e012200	0.12610626
173	0xbd896d69	-0.067103215
174	0x3d1a174a	0.037619866
175	0xbd8401d6	-0.06445663
176	0x3d7aa27e	0.06119012
177	0x3d494a74	0.04914327
178	0x38e4bd6a	0.00010907168
179	0x3babaee1	0.005239353
180	0x3d3caa30	0.04606074
181	0x3e108813	0.14114408
182	0xbc3b2e06	-0.011424547
183	0xbc523a8b	-0.012831341
184	0x3d9a4dcb	0.07534369
185	0xbdb0cf7d	-0.08633325
186	0x3d447f57	0.047973003
187	0x3cf99244	0.030465253
188	0xbda0d28c	-0.07852659
189	0xbe1925d7	-0.14955841
190	0x3c3d6a7b	0.011561031
191	0xbcc0a938	-0.02351819
192	0xbe071489	-0.13191427
193	0x3dc699b2	0.09697284
194	0xbdb119a2	-0.08647467
195	0x3d10cd3b	0.035351973
196	0x3dbd5f9e	0.09246753
197	0xbb010cfc	-0.0019691577
198	0xbcde8b1c	-0.027165942
199	0x3c6c13d5	0.014409025
200	0xbd26715f	-0.040635463
201	0x3db34d66	0.08754997
202	0xbd91f4e7	-0.071267895
203	0x3dbf5e5e	0.09344171
204	0x3dc1c236	0.09460871
205	0x3c987ede	0.018615182
206	0xbe3fe3ab	-0.18739192
207	0xbd7971b6	-0.06089946
208	0xbcb75e07	-0.022383703
209	0x3c97c059	0.018524336
210	0xbd8f5c3e	-0.07000016
211	0x3d4f2446	0.050571702
212	0xbe099242	-0.13434699
213	0x3d8dda56	0.0692641
214	0x3de2ad58	0.11068219
215	0xbe19204e	-0.1495373
216	0x3b84248f	0.0040326784
217	0xbce2b741	-0.027675273
218	0xbd16cb6e	-0.0368151
219	0xbcd2a88f	-0.02571514
220	0x3c85ccc2	0.016332988
221	0x3d6e2091	0.058136526
222	0x3d9fb6a1	0.077985056
223	0xbd8b88a4	-0.068131715
224	0xbdab1874	-0.083542734
225	0xbc4bff44	-0.012450997
226	0x3c7d5aa4	0.015463505
227	0xbdcfd883	-0.10148718
228	0x3b31b780	0.002711743
229	0xbe0201d0	-0.12696004
230	0x3e1db4ce	0.15401003
231	0xbd75a392	-0.059970446
232	0xbaf890d5	-0.0018964062
233	0xbc80a6a7	-0.015704466
234	0x3dbd987b	0.09257599
235	0xbdaad6b5	-0.08341733
236	0x3d6df51d	0.058095086
237	0xbd946b5b	-0.07247039
238	0x390d518a	0.00013477184
239	0xbca197e1	-0.019725742
240	0x3d826701	0.06367303
241	0xbd957429	-0.072975464
242	0x3ba3f627	0.005003709
243	0x3d8d0ad4	0.06886831
244	0x3d903164	0.070406705
245	0x3be0cd7a	0.006860432
246	0x3db122fb	0.0864925
247	0x3c4c558f	0.012471571
248	0x3e06dab9	0.13169374
249	0xbe7b71c9	-0.24555124
250	0x3dfda2ff	0.12384605
251	0x3e15409d	0.1457543
252	0xbdc24fea	-0.09487899
253	0xbaeb90eb	-0.0017972266
254	0x3cde3946	0.02712692
255	0x3d8633b2	0.06552829

weight_hh f4 [512, 128]
0	0x3d16caec	0.036814615
1	0xbe051ee9	-0.13000073
2	0xbd3b3aca	-0.045710362
3	0xbd2e90c8	-0.042618543
4	0x3ce7b3a9	0.02828391
5	0xbd3ae278	-0.045626134
6	0x3d68f955	0.056878407
7	0x3c41f8a5	0.011839067
8	0xbd225efa	-0.039641358
9	0x3d10dc70	0.035366476
10	0xbd5f4cc6	-0.054516576
11	0x3cba07cf	0.022708802
12	0xbca18b15	-0.01971964
13	0xbd9cb9a7	-0.07652598
14	0xbceed5e0	-0.029154718
15	0xbdded71d	-0.10880873
16	0xbd4d41c7	-0.05011156
17	0x3df2a148	0.11847168
18	0xbdb5ca06	-0.088764235
19	0xbb6e574e	-0.0036367956
20	0xbdb4dd36	-0.08831255
21	0xbd40484f	-0.04694396
22	0x3c9812f1	0.01856372
23	0xbd3a24f9	-0.045445416
24	0xbda4b773	-0.08042803
25	0x3dc7a341	0.09747935
26	0x3db01c34	0.08599129
27	0x3c246a1e	0.010035066
28	0xbd8bddbb	-0.06829401
29	0x3ddec669	0.108776875
30	0xbdb63a5b	-0.08897849
31	0x3d24bad5	0.04021724
32	0x3cfbc814	0.030735053
33	0xbdbdf1ef	-0.09274661
34	0xbd0fc4f5	-0.035099942
35	0xbd458f87	-0.04823258
36	0xbdaf2167	-0.08551293
37	0x3b6f5ab3	0.0036522567
38	0xbda38445	-0.07984213
39	0xbcdc67fa	-0.026905049
40	0xbd2ee65b	-0.042700153
41	0x3ce4d0d1	0.027931603
42	0x3c7d7bc2	0.015471401
43	0xbc74093b	-0.014894779
44	0x3d257de6	0.04040327
45	0x3c9a7624	0.018855162
46	0x3dcf9f36	0.10137789
47	0x3d82f8a2	0.06395079
48	0x3db233a2	0.087012544
49	0xbd9e2b54	-0.07723108
50	0xbd4f9708	-0.050681144
51	0xbd172a6b	-0.036905687
52	0x3d0be667	0.034155276
53	0x3a4e23a8	0.00078635896
54	0xbd58c702	-0.052924164
55	0x3d93715d	0.07199357
56	0xbd338d0f	-0.043835696
57	0x3cf2432d	0.029573048
58	0x3dd2622c	0.10272631
59	0x3d931bb9	0.07183022
60	0x3d2a6509	0.04160026
61	0xbd22fa8a	-0.039789714
62	0x3d5db347	0.05412605
63	0x3ddbb004	0.10726932
64	0x3d8af6a2	0.06785323
65	0xbdd954ad	-0.10611854
66	0x3d86250a	0.065500334
67	0xbde534f8	-0.111917436
68	0x3d4efb5d	0.050532687
69	0xbd2d6f82	-0.04234267
70	0xbc25ff19	-0.010131621
71	0x3c563ee8	0.013076521
72	0x3deb763c	0.11497161
73	0x3d3c8c9f	0.046032544
74	0xbcca293a	-0.024677861
75	0xbd84d503	-0.06485941
76	0xbd8405ef	-0.06446444
77	0x3cac10cc	0.021004103
78	0x3d95a858	0.073075
79	0x3b33ba0f	0.0027424132
80	0xbda1a66b	-0.0789307
81	0x3ca1cd27	0.019751145
82	0x3d806ff6	0.06271355
83	0xbd96b26c	-0.0735825
84	0x3d942622	0.07233836
85	0x3c7ed201	0.0155529985
86	0xbd04a104	-0.03238012
87	0xbb478bfe	-0.0030448432
88	0x3b6cd7a3	0.0036139272
89	0xbd1f8808	-0.03894809
90	0x3dc5acc3	0.09652092
91	0x3b86c20f	0.004112489
92	0xbdf99040	-0.12185717
93	0xbd631dc4	-0.05544831
94	0xbc8da2e2	-0.017289583
95	0xbdc82f59	-0.09774656
96	0xbdab7838	-0.08372539
97	0x3d9027ac	0.07038817
98	0x3c8288f7	0.01593445
99	0x3d38874f	0.045050915
100	0x3afbf87a	0.0019223832
101	0xbd563cf8	-0.052304238
102	0xbc9eba29	-0.019375877
103	0xbd6243af	-0.05524033
104	0x3cccb385	0.024987945
105	0xbdbd9554	-0.09256998
106	0x3dc0eb18	0.094198406
107	0xbe144a80	-0.14481544
108	0x3db1aff2	0.08676137
109	0x3dffdedf	0.12493681
110	0xbd31e007	-0.04342654
111	0x3b509860	0.0031829104
112	0x3da11208	0.07864767
113	0x3c2cfbd9	0.010558092
114	0x3d1f6dda	0.038923122
115	0xbbe10f9c	-0.006868316
116	0x3b11de4a	0.0022257739
117	0xbd7ef896	-0.06224879
118	0xbc939c4d	-0.018018866
119	0x3d872a66	0.06599884
120	0xbd3308b5	-0.043709476
121	0xbd6c8259	-0.057741497
122	0x3ccf559c	0.025309376
123	0x3d47ee19	0.048811052
124	0xbd847049	-0.06466729
125	0x3cb7248b	0.022356292
126	0xbc0ecf7c	-0.00871646
127	0x3d06aec0	0.0328815
128	0x3e0e23f7	0.13880907
129	0x3a22df32	0.0006213068
130	0xbe28d2e3	-0.16486697
131	0x3ceaf221	0.02867991
132	0x3d6fdf0c	0.058562323
133	0x3dbf87ee	0.093520984
134	0x3d180833	0.037117194
135	0x3c973a8e	0.018460538
136	0xbe0b7aa2	-0.13621
137	0xbda64ac3	-0.081197284
138	0x3d650608	0.055913955
139	0xbe32292c	-0.17398518
140	0xbd852b27	-0.06502371
141	0x3d9113ed	0.07083879
142	0xbcfb85ab	-0.030703386
143	0x3ce1e036	0.027572732
144	0x3d960dae	0.07326828
145	0x3e0d374a	0.13790622
146	0x3d84dd84	0.06487563
147	0x3db673c1	0.08908797
148	0x3de6daa0	0.11272168
149	0xbdb1cb18	-0.08681315
150	0xbd89fc48	-0.06737572
151	0xbda08564	-0.07837942
152	0xbd180bfd	-0.037120808
153	0x3dc82c1a	0.09774037
154	0xbcece204	-0.028916366
155	0x3e0975f4	0.13423902
156	0x3d570d58	0.05250296
157	0x3d769baf	0.060207065
158	0x3d4370fc	0.047715172
159	0x3c8f5ea0	0.017501175
160	0x3d15807f	0.036499497
161	0x3c880469	0.016603665
162	0x3d54ea38	0.05198118
163	0xbe0135ca	-0.12618175
164	0xbe044195	-0.12915643
165	0x3deb70b8	0.11496109
166	0xbd852a4c	-0.06502208
167	0xbd89c99c	-0.06727907
168	0xbb54dfd8	-0.0032482054
169	0x3cc44f7f	0.023963688
170	0xbdcde6b4	-0.10053769
171	0x3d84092e	0.064470634
172	0x3df581c4	0.119876415
173	0xbd6b9a90	-0.05752045
174	0xbcda8189	-0.026673095
175	0xbddd6d01	-0.108118065
176	0x3c848a02	0.016179089
177	0xba1ea717	-0.000605212
178	0xbae8fcd9	-0.001777555
179	0xbdf86f3b	-0.121305905
180	0x3cef88b4	0.02923999
181	0xbd8204f0	-0.06348598
182	0xbe064d73	-0.13115482
183	0x3cfce884	0.03087259
184	0x3e068285	0.13135727
185	0xbbbbea6a	-0.0057347314
186	0xb924972b	-0.00015696573
187	0x3b9c54c6	0.004770848
188	0xbd69f8e0	-0.05712211
189	0x3d945b72	0.07244004
190	0x3d9f07eb	0.07765182
191	0x3d82ef86	0.06393342
192	0xbc1d5ed5	-0.009605129
193	0x3db70098	0.0893566
194	0x3e339418	0.17536962
195	0xbe3e1c4f	-0.18565486
196	0xbda8ce10	-0.08242428
197	0x3d6899eb	0.056787413
198	0x3d3fb746	0.046805643
199	0xbcb3b996	-0.02193908
200	0x3d874c01	0.066062935
201	0xbce49ded	-0.027907336
202	0xbd9e96d8	-0.07743615
203	0x3d422edf	0.04740798
204	0xbc40d480	-0.011769414
205	0xbe43e226	-0.19129238
206	0xbdd60899	-0.104508586
207	0xbcf67f4f	-0.030090002
208	0x3d8d0bf5	0.06887046
209	0xbe2a9068	-0.16656649
210	0xbc28336d	-0.010266167
211	0xbc43c333	-0.011948395
212	0x3dd04d42	0.10170986
213	0x3e0618d7	0.13095413
214	0x3dd2def5	0.10296432
215	0xbdcb9f5c	-0.09942505
216	0x3d336459	0.04379687
217	0xbd3b256e	-0.045689993
218	0x3d9e2814	0.07722488
219	0xbdad9b11	-0.08476842
220	0xbdad9473	-0.0847558
221	0xbda33662	-0.07969357
222	0x3c99a110	0.018753558
223	0xbd748c26	-0.05970397
224	0xbd905c52	-0.07048859
225	0xbce2d13f	-0.027687667
226	0x3d862c31	0.065513976
227	0x3d6cb81b	0.057792764
228	0xbd67b4dc	-0.056568965
229	0x3c3ca444	0.011513773
230	0x3dcd722f	0.100315444
231	0xbe3690a6	-0.17828616
232	0xbd4f6459	-0.05063281
233	0xbd42a1e5	-0.047517676
234	0xbd75115f	-0.05983102
235	0xbe015fb6	-0.12634167
236	0x3d1fb0f4	0.038987115
237	0xbc71048a	-0.014710555
238	0x3de3ce3f	0.11123323
239	0xbd91bfae	-0.07116638
240	0x3da58214	0.08081451
241	0x3d047106	0.03233435
242	0xbd01a2f9	-0.031649563
243	0xbda20ef6	-0.0791301
244	0x3cfc092d	0.030766094
245	0x3df4fbad	0.11962066
246	0x3df7d7f1	0.121017344
247	0x3d1ab9d9	0.037774894
248	0xbbfeee3c	-0.0077798646
249	0xbe49a787	-0.19692813
250	0x3cad2e44	0.021140225
251	0x3d4fcf30	0.0507347
252	0x3e420540	0.18947315
253	0xbc977472	-0.018488143
254	0xbaee3a40	-0.0018175319
255	0x3d858d91	0.06521142

bias_ih f4 [512]
0	0x3d798a88	0.06092313
1	0x3e0f31be	0.13983819
2	0x3d8358d7	0.06413429
3	0x3e22b9a2	0.15891126
4	0x3d00767b	0.03136299
5	0x3c92dd65	0.017927835
6	0x3e29b2dc	0.16572136
7	0x3d9d760c	0.07688531
8	0x3e608469	0.2192551
9	0x3dd1c5cf	0.10242807
10	0x3b2be663	0.002622985
11	0x3df33c8e	0.11876784
12	0x3e450ca4	0.19243103
13	0x3e0dfb70	0.13865447
14	0x3d2445de	0.040105693
15	0x3e174ddc	0.14775795
16	0x3baecaf2	0.0053342516
17	0x3d8fb848	0.07017571
18	0x3e097af1	0.13425805
19	0x3df0e882	0.11763097
20	0x3e47cfd1	0.1951287
21	0xbc159990	-0.00913085
22	0x3da5199a	0.08061524
23	0x3e017cd0	0.12645268
24	0xb9528750	-0.00020077568
25	0xbcf3e623	-0.029772824
26	0x3cb30dba	0.021857131
27	0x3dd3350d	0.10312853
28	0x3d7c0c60	0.06153524
29	0x3a1db672	0.0006016261
30	0x3e74ece0	0.23918486
31	0x3e088eff	0.13335799
32	0x3e74a95f	0.23892735
33	0x3d855d70	0.065119624
34	0x3d1f9236	0.038957797
35	0x3dbca7d3	0.092116974
36	0x3e297490	0.16548371
37	0x3dc0c571	0.09412659
38	0x3d03da73	0.03219075
39	0x3dcfe243	0.10150578
40	0x3d88f69f	0.06687664
41	0x3d90197f	0.07036113
42	0x3e27e1a7	0.16394673
43	0x3e199eb5	0.15001948
44	0x3d4ac6e0	0.04950607
45	0xbcd8a22e	-0.02644452
46	0x3dc303bb	0.09522196
47	0x3e4a028a	0.19727531
48	0x3df54ecf	0.11977922
49	0x3d18c4b1	0.037296955
50	0x3db62d60	0.08895373
51	0x3d33ab81	0.04386473
52	0x3cf3b9fd	0.029751772
53	0x3de42f88	0.11141878
54	0x3c8fcd0b	0.017553827
55	0x3e099b55	0.1343816
56	0x3d6a1885	0.05715229
57	0x3b595c28	0.0033166502
58	0x3d6835c7	0.05669191
59	0xbcab9058	-0.020942852
60	0x3d807f1f	0.062742464
61	0x3d0e7dcc	0.034787938
62	0x3de3b1f9	0.1111793
63	0x3e0add10	0.13560891
64	0x3b80c359	0.0039295373
65	0xbc12ec44	-0.008967463
66	0x3e189f56	0.14904532
67	0xbc7ceea0	-0.015437752
68	0x3dc99db2	0.09844531
69	0x3c6bca5b	0.014391507
70	0x3cc85196	0.024452966
71	0xbcdd536d	-0.02701732
72	0xbbf07b19	-0.007338893
73	0x3ae1ee78	0.0017237207
74	0x3d230c41	0.039806608
75	0x3e1e21ad	0.15442534
76	0xbccfb876	-0.025356513
77	0x3dd84068	0.105591595
78	0x3c60dc77	0.013724438
79	0x3d34b50a	0.044117965
80	0xbba789cb	-0.0051128617
81	0x3df2148a	0.11820324
82	0x3d6f1a8d	0.05837493
83	0x3d82a933	0.063799284
84	0x3daf07c0	0.085464
85	0x3d1fdd43	0.03902937
86	0x3dc6b0eb	0.09701713
87	0x3e13c98a	0.1443235
88	0x3df4a65e	0.119457945
89	0x3e1a2888	0.15054524
90	0x3e584693	0.21120672
91	0x3e3034f5	0.17207702
92	0x3e190ca0	0.14946222
93	0x3d945a48	0.07243782
94	0x3df30d23	0.1186774
95	0x3e39b999	0.18137206
96	0x3daccd40	0.08437586
97	0x3d2e8f6e	0.042617254
98	0xbc506247	-0.012718744
99	0x3e0a25ad	0.13490935
100	0x3e6fc95e	0.23416659
101	0xbd6123ff	-0.05496597
102	0x3cf295f6	0.029612523
103	0x3e19c199	0.15015258
104	0x3db3bbb6	0.087760374
105	0x3da0813b	0.07837149
106	0x3cda1566	0.026621532
107	0x3ded2747	0.11579757
108	0x3da89b84	0.08232787
109	0x3e4f9803	0.20272832
110	0x3ddd2c19	0.107994266
111	0x3d4c2336	0.049838267
112	0xbb8d7034	-0.004316354
113	0x3e2e0e37	0.1699761
114	0x3e0bf997	0.1366943
115	0x3daed31c	0.0853636
116	0x3dc94b53	0.0982882
117	0x3deab198	0.114596546
118	0x3e238493	0.15968542
119	0x3b315800	0.0027060509
120	0x3ccf7663	0.025325006
121	0x3dcaf7b9	0.099105306
122	0x3e2bd9c0	0.16782284
123	0x3d7eb9f1	0.062189046
124	0x3d835a9d	0.064137675
125	0x3dd0a9a0	0.101886034
126	0x3e06a7bc	0.13149923
127	0x3dd3ee40	0.10348177
128	0x3d227a2a	0.039667286
129	0xbc0e89ea	-0.008699873
130	0x3d2a0c07	0.041515376
131	0xbe01caf0	-0.12675071
132	0xbd41b005	-0.047287006
133	0xbd966d6d	-0.0734509
134	0x3ce4e98a	0.027943391
135	0xbb359802	-0.0027709012
136	0x3bf66c7a	0.0075202556
137	0xbdaa0ea1	-0.083035715
138	0x3c175aed	0.009237987
139	0x3cbb8f62	0.022895519
140	0x3dc75227	0.09732466
141	0x3c94e550	0.018175751
142	0xbc946b28	-0.018117502
143	0xbd564c10	-0.052318633
144	0x3d89fc56	0.067375824
145	0x3ce51612	0.027964626
146	0xbd73445e	-0.059391372
147	0xbd9ece5a	-0.07754202
148	0x3c669e5c	0.014075842
149	0xbdb78509	-0.08960921
150	0xbbe906a6	-0.0071113883
151	0x3c9d67ac	0.019214474
152	0xbbfbbcca	-0.0076824175
153	0xbd9e2067	-0.07721024
154	0xbd87111b	-0.065950595
155	0xbdada2fc	-0.084783524
156	0xbd4dcda2	-0.050244935
157	0xbd20bc00	-0.03924179
158	0xbd5a62d5	-0.05331691
159	0xbdad1bf6	-0.08452599
160	0xbd62039e	-0.05517923
161	0xbbf64796	-0.007515858
162	0xbc2c88b1	-0.010530637
163	0x3bcc417f	0.0062333937
164	0xbd936c31	-0.0719837
165	0xbd537944	-0.05162932
166	0xbd6bf7a3	-0.05760921
167	0xbd6ace3f	-0.057325598
168	0x3daf8f08	0.08572203
169	0xbe0b4e9f	-0.1360421
170	0xbd90f5d0	-0.07078135
171	0x3a299a52	0.0006469834
172	0xbdb9bb79	-0.09068961
173	0xbdc783e9	-0.09741957
174	0x3d9916ce	0.07475053
175	0xbda2d12b	-0.07950052
176	0xbdf3f32e	-0.11911617
177	0xbdb6087e	-0.088883385
178	0x3d5291a5	0.05140843
179	0x3d27dccb	0.04098205
180	0x3d5376cb	0.05162696
181	0xbdbdb3cf	-0.092628114
182	0xbc85fc34	-0.016355611
183	0x3ca48539	0.020083057
184	0xbb80b005	-0.003927233
185	0xbd8a2337	-0.06744998
186	0x3c703e2d	0.014663261
187	0xbde745ec	-0.112926334
188	0xbd976e02	-0.07394029
189	0xbb586734	-0.0033020498
190	0xbdf3de6c	-0.11907658
191	0xbd64df59	-0.055877063
192	0x3c878869	0.016544538
193	0xbbd63e52	-0.006538191
194	0xbdadb02a	-0.08480866
195	0xbd8d8f1c	-0.069120616
196	0x3d514afe	0.05109691
197	0xbdc2e438	-0.095161855
198	0x3c61a26d	0.0137716355
199	0xbcae3a22	-0.021267954
200	0xbcf9ec7b	-0.03050827
201	0xbe0a749c	-0.13521045
202	0xbba1c6b7	-0.0049370187
203	0xbd99eb73	-0.075156115
204	0x3cc017c1	0.023448827
205	0x3d63a268	0.055574805
206	0xbd1bcdba	-0.038037993
207	0x3da2aa79	0.07942671
208	0x3d4c4e76	0.049879514
209	0xbdc396d8	-0.095502555
210	0x3ddbbd1b	0.107294284
211	0xbb1e2994	-0.002413367
212	0xbd8334c8	-0.064065516
213	0x3d852b0c	0.06502351
214	0xbc87a3e3	-0.01655764
215	0xbdc4b811	-0.096054204
216	0xb90f58fe	-0.00013670695
217	0xbdb754ae	-0.08951698
218	0xbd9935d2	-0.074809685
219	0x3d13c608	0.03607753
220	0x3c9f60a6	0.019455265
221	0xbd1d0c70	-0.03834194
222	0xbce4c533	-0.027926063
223	0xbc450ed4	-0.012027461
224	0x3c14f8e6	0.009092545
225	0x3d23967e	0.039938442
226	0xbc255d56	-0.010093054
227	0xbd114b94	-0.035472468
228	0xbdffde80	-0.124936104
229	0xbd1b8f28	-0.03797832
230	0xbb2f46ab	-0.0026745002
231	0x3d20c300	0.039248466
232	0xbdf63991	-0.12022699
233	0xbce43d6a	-0.027861316
234	0xbc2ca6e4	-0.010537837
235	0x3c645f9c	0.013938811
236	0xbe22c5c8	-0.1589576
237	0xbde26202	-0.1105385
238	0xbda233f6	-0.07920067
239	0x3d44bfde	0.04803454
240	0x3ce2d64a	0.027690072
241	0xbc50f463	-0.012753579
242	0xbe057ae5	-0.13035162
243	0x3de91539	0.11381001
244	0x3c4041fa	0.01173448
245	0x3cd9dd73	0.026594853
246	0xbce29cda	-0.027662683
247	0xbc7649b5	-0.015032222
248	0xbd73c032	-0.059509464
249	0x3bc60eb5	0.0060442337
250	0xbd1e1204	-0.0385914
251	0xbc73716b	-0.014858584
252	0x3d1e0307	0.038577106
253	0xbd91cf4d	-0.071196176
254	0x3d32eeb2	0.04368467
255	0xbda0b5b1	-0.07847155
