logs/fgb_vary_rho/5/actor.pt (torch, 906162 bytes, 17 tensors)

weight_ih f4 [512, 48]
0.033706345 0.11875167 0.005502212 -0.10712094 0.02571002 0.042372104 0.07008868 0.1346914
0.07280082 0.07129388 -0.028499287 -0.057311174 -0.07868355 -0.015903477 0.062821515 0.002708296
0.04449114 0.13491239 -0.040935513 -0.13304886 -0.03630319 0.13231118 0.017784132 0.082564
-0.01906803 0.065901205 0.10193122 -0.1396161 -0.058754 -0.041875854 0.04085075 0.070128195
-0.099278435 -0.03879589 -0.10865642 -0.10356217 -0.056829505 0.07042711 0.01896922 0.05545264
0.006041922 -0.044975698 0.035390146 -0.05683602 -0.02338267 -0.03302758 0.053151358 0.039227974
0.00048128908 0.04462373 0.17658453 0.05876178 0.16875365 -0.002462783 0.069241814 0.0075024725
0.060666148 -0.037149046 0.13461277 -0.09596112 -0.03696516 0.0467189 0.013560007 0.014395859
0.092220776 -0.012594005 -0.0047560115 0.038318325 0.06381892 0.06737499 0.032744598 -0.16125666
0.10723324 0.15644749 0.18965842 0.14710969 -0.024659142 -0.17132305 0.159715 -0.1841962
-0.12875238 0.14725994 0.084620625 -0.09632959 0.021949722 0.024636889 -0.039312072 -0.017664189
0.031373996 -0.05344223 0.0495106 0.06214002 0.0719432 0.039755687 -0.026201304 0.032798305
0.083032705 0.023243733 -0.040597767 -0.016115675 0.09954221 0.13137046 -0.07905542 -0.004511808
-0.043163143 -0.010658086 -0.09845299 -0.088005215 0.020310324 0.08446071 -0.083721384 0.09978569
-0.031822514 0.13449343 0.07426534 0.013966893 -0.15845017 0.03357253 -0.03392129 -0.042127453
0.09057491 -0.018439788 0.09866165 -0.014740393 -0.13564742 0.013143796 -0.025222933 -0.011190158
-0.00010532099 -0.020097936 0.0003085295 0.0006560264 -0.074352406 -0.03168623 0.075725816 -0.016054245
-0.023369689 -0.029128509 0.042413488 0.0789338 0.10244029 0.07706544 0.09589024 0.034637563
-0.07742401 -0.007579442 0.022249235 -0.029359402 -0.19479738 -0.10001995 -0.08657666 -0.09124955
0.07138505 0.02353219 -0.03235352 -0.13292414 0.12310555 -0.031003855 -0.11206249 -0.053468585
-0.030668614 -0.09557291 -0.19019666 -0.19091783 -0.032887716 -0.045088105 0.029231787 0.0864071
-0.026023192 0.0042622085 0.07415731 -0.04884157 0.16000453 -0.039948385 -0.16657615 0.061768387
0.0028355864 -0.08391342 0.08253858 -0.08440217 -0.033979803 -0.061684612 0.01971084 -0.001930258
0.01063908 0.04639991 0.01886657 0.017165264 -0.07077493 0.08735813 0.13436712 0.12775503
-0.13589644 0.15064874 -0.06089042 -0.20577799 -0.07442118 0.0011071471 0.065873146 -0.090015456
0.05119717 0.21983536 -0.03883387 -0.13746099 0.025226183 0.089994304 0.0044463566 0.052681636
0.13492243 0.06774165 0.020127093 -0.3014122 0.046894904 -0.063980706 0.022707777 0.19863966
-0.15672034 0.11315769 0.1350341 -0.13096666 0.20156145 0.08303773 0.13421561 0.09820073
-0.11971338 -0.027564587 0.021118212 -0.013121295 -0.027478445 -0.023185115 -0.040953707 0.014281146
-0.015488186 0.037768275 0.028218009 -0.07999647 0.016351907 -0.06574 0.032116484 0.075121
0.09640423 0.12615643 -0.13269748 -0.028046867 -0.027912075 -0.11656408 0.118810214 -0.11854498
0.079499386 -0.037204526 -0.09556283 -0.06603929 0.09151149 0.14039074 -0.014534245 -0.01001346
00000000: aa0f 0a3d 1334 f33d e64b b43b 3962 dbbd
00000010: d29d d23c 5f8e 2d3d a78a 8f3d 8bec 093e
00000020: 9918 953d 8702 923d 5677 e9bc 1fbf 6abd
00000030: d724 a1bd 0248 82bc 91a8 803d ab7d 313b
00000040: 573c 363d 7926 0a3e ffab 27bd f63d 08be
00000050: a7b2 14bd 957c 073e 07b0 913c 5017 a93d
00000060: 8f34 9cbc 36f7 863d 51c1 d03d 86f7 0ebe
00000070: 09a8 70bd 0486 2bbd 1e53 273d 5f9f 8f3d
00000080: 7e52 cbbd 70e8 1ebd 4287 debd 6718 d4bd
00000090: 0ec6 68bd 173c 903d 5665 9b3c 4f22 633d
000000a0: 51fb c53b 7038 38bd 42f5 103d e3cc 68bd
000000b0: 038d bfbc ed47 07bd 3db5 593d 83ad 203d
000000c0: 8755 fc39 5fc7 363d 93d2 343e 31b0 703d
000000d0: c2cd 2c3e a466 21bb a7ce 8d3d 4dd7 f53b
000000e0: 117d 783d 9929 18bd eed7 093e 4487 c4bd
000000f0: c868 17bd 515c 3f3d cb2a 5e3c 9cdc 6b3c
00000100: 3fde bc3d 1657 4ebc 51d8 9bbb adf3 1c3d
00000110: 7eb3 823d e6fb 893d 331f 063d 7720 25be
00000120: 1a9d db3d c533 203e d135 423e eca3 163e
00000130: f801 cabc 4f6f 2fbe 548c 233e ee9d 3cbe
00000140: aad7 03be 4fcb 163e 944d ad3d 7348 c5bd
00000150: e7cf b33c 4dd3 c93c b205 21bd 7db4 90bc
00000160: 0582 003d 3de6 5abd a0cb 4a3d 8986 7e3d
00000170: f556 933d dcd6 223d 1ea4 d6bc 8457 063d
00000180: 0d0d aa3d a469 be3c d849 26bd 0505 84bc
00000190: c9dc cb3d fa85 063e cfe7 a1bd cad7 93bb
000001a0: d6cb 30bd 419f 2ebc b9a1 c9bd 143c b4bd
000001b0: d661 a63c bdf9 ac3d 1e76 abbd 715c cc3d
000001c0: 5358 02bd a5b8 093e 6d18 983d 65d5 643c
000001d0: c340 22be 5983 093d 0df1 0abd d68d 2cbd
000001e0: 577f b93d 0a0f 97bc 1f0f ca3d b081 71bc
000001f0: 28e7 0abe 1359 573c 53a0 cebc ed56 37bc
00000200: c7df dcb8 6da4 a4bc 21c2 a139 30f9 2b3a
00000210: 1346 98bd 6cc9 01bd 2316 9b3d 3184 83bc
00000220: ca71 bfbc e99e eebc c4b9 2d3d 0ba8 a13d
00000230: 37cc d13d 7cd4 9d3d 1a62 c43d 1ee0 0d3d
00000240: 7b90 9ebd f85c f8bb 0744 b63c 2183 f0bc
00000250: f778 47be 42d7 ccbd 1b4f b1bd 0be1 babd
00000260: 5332 923d 94c6 c03c 2085 04bd 441d 08be
00000270: c31e fc3d ccfb fdbc 0581 e5bd e001 5bbd
00000280: bf3c fbbc bbbb c3bd eac2 42be f77f 43be
00000290: 45b5 06bd 4eae 38bd 8077 ef3c 35f6 b03d
000002a0: 972e d5bc ffa9 8b3b cadf 973d 190e 48bd
000002b0: 3ad8 233e eba0 23bd f092 2abe d900 7d3d
000002c0: 3fd5 393b cdda abbd fd09 a93d 0bdb acbd
000002d0: 682e 0bbd 01a9 7cbd a178 a13c b600 fdba
000002e0: 894f 2e3c d50d 3e3d 118e 9a3c 2b9e 8c3c
000002f0: 72f2 90bd d2e8 b23d 8997 093e 37d2 023e
00000300: 7028 0bbe aa43 1a3e 3c68 79bd 77b7 52be
00000310: 226a 98bd b11d 913a 80e8 863d 065a b8bd
00000320: 20b4 513d 851c 613e 4410 1fbd 93c2 0cbe
00000330: 24a7 ce3c ef4e b83d beb2 913b b3c8 573d
00000340: 1b29 0a3e 22bc 8a3d 93e1 a43c b352 9abe
00000350: df14 403d 5108 83bd a905 ba3c 3268 4b3e
00000360: 4c7b 20be 38bf e73d 6146 0a3e 201c 06be
00000370: 2066 4e3e af0f aa3d d16f 093e 771d c93d
00000380: 4a2c f5bd 21cf e1bc 1a00 ad3c b3fa 56bc
00000390: 7a1a e1bc b6ee bdbc 13bf 27bd 78fb 693c
000003a0: 29c2 7dbc e8b2 1a3d 7429 e73c 30d5 a3bd
000003b0: 6ff4 853c b1a2 86bd 938c 033d 0ad9 993d
000003c0: 956f c53d 272f 013e d9e1 07be 8bc2 e5bc
000003d0: dda7 e4bc 26b9 eebd c552 f33d b6c7 f2bd
000003e0: 93d0 a23d c663 18bd 72b6 c3bd 9b3f 87bd
000003f0: 606a bb3d 97c2 0f3e 0b21 6ebc 7f0f 24bc

weight_hh f4 [512, 128]
-0.073888466 -0.020923464 -0.033127893 -0.006443016 -0.1085006 -0.06000246 0.05174375 0.015155142
0.042466313 0.0825054 -0.0034641668 0.034040313 0.015926631 0.050098546 0.0028915429 0.09127543
0.08264113 -0.026974995 0.06099658 -0.068166554 -0.023511117 0.047396738 0.117413275 0.030568797
-0.004758033 0.045598645 0.015894417 0.04855163 -0.07140861 0.06729012 0.024656557 0.06485024
-0.022662384 -0.08819726 -0.061422806 -0.10610512 0.01928436 -0.050381098 -0.02870763 -0.004014083
0.04202398 0.009761143 0.054882247 0.046851203 0.06304055 0.03926833 0.02214199 0.060572114
-0.029325144 0.026942955 -0.011841445 0.0056545273 -0.065545455 0.04215816 -0.057010476 0.033721425
0.026144868 -0.07562822 0.05113801 -0.059774283 -0.008874076 -0.009919641 -0.05345937 -0.042324256
-0.052882914 0.07842105 0.06758125 0.086302035 -0.059581164 -0.045395862 0.0079903 -0.023107193
-0.05096074 -0.05252373 0.008603267 0.062277887 -0.03557858 0.015425619 -0.0314854 0.010370689
0.053336557 0.060334112 0.06195642 0.08001921 0.00376757 0.098437585 -0.10849255 -0.08797343
0.097929865 0.1113675 -0.13301007 0.051210452 0.092491895 -0.06581329 0.0116552375 -0.012740395
-0.098565236 -0.10059171 -0.07775813 -0.05913677 0.07806913 -0.02676691 0.10615474 -0.022098217
-0.022458311 -0.105281584 -0.027823763 0.010242241 0.08366535 -0.097221024 -0.038040586 0.07359114
-0.019552637 0.04898055 -0.046879556 -0.00016372226 0.0018287853 -0.056378014 -0.011147716 0.008809165
-0.028453805 -0.063690394 0.036000237 -0.035514466 -0.05053385 0.06521331 -0.0568232 0.11386693
-0.05955323 0.044607427 -0.048581682 0.049767453 0.05627293 0.050442975 -0.06717947 0.034324575
0.15184726 0.004961638 -0.08466898 0.11506296 -0.0009620717 -0.0012049332 0.047610275 0.047937818
-0.04707709 0.008007504 0.0549275 -0.03190336 -0.0895543 -0.033774998 -0.08048947 -0.05001905
0.010784341 -0.014262059 -0.01077202 -0.024005506 0.0017009737 -0.010608832 -0.11459133 -0.02803613
-0.020292023 0.039517924 -0.0011495304 -0.118153565 -0.0859842 -0.033843942 -0.06127686 0.054368414
-0.031857412 -0.009245875 -0.022428675 -0.033435576 0.03049827 -0.05692199 0.038117036 0.08352014
0.006640947 0.036231536 -0.024758764 -0.1099912 0.017733699 0.06547223 -0.0038788486 -0.0028320057
-0.08482127 0.02355101 0.0029777465 -0.11176738 -0.04197394 -0.07791082 0.044884346 -0.0114246905
0.073172644 -0.057311557 0.07781153 -0.034699 -0.119293846 0.09620857 -0.0042101652 -0.05299141
-0.030780436 0.00560357 0.051036585 -0.026664127 0.070594504 0.020535039 0.08790725 0.055661254
-0.031855185 0.0417391 0.054031637 -0.04999175 0.040832236 0.08669781 0.018790927 0.11420055
-0.028213466 0.039907817 -0.08838552 0.10290679 0.064682074 -0.070667215 0.032094277 -0.037073873
0.016252395 0.007112444 -0.10973745 0.06780888 -0.016075995 -0.084758 0.0019293575 -0.10805689
-0.04816925 -0.014694298 0.02557852 -0.04534612 -0.0063814665 0.0154870665 0.0049520573 -0.03295932
-0.03550619 0.084463604 -0.107464366 0.019309873 0.06473535 -0.12224114 -0.009850208 0.06547148
-0.03676662 0.074314386 -0.05976087 -0.04804483 -0.036526892 0.015613048 -0.13101692 0.016634364
00000000: d652 97bd af67 abbc 1db1 07bd f01f d3bb
00000010: 9035 debd 24c5 75bd 41f1 533d 464d 783c
00000020: 28f1 2d3d 97f8 a83d 1307 63bb db6d 0b3d
00000030: 9178 823c 2234 4d3d 0a80 3d3b 9dee ba3d
00000040: c13f a93d aafa dcbc 8dd7 793d e89a 8bbd
00000050: 639a c0bc 1523 423d 5f76 f03d 6a6b fa3c
00000060: 46e9 9bbb a5c5 3a3d 0235 823c 13de 463d
00000070: ad3e 92bd 67cf 893d 8cfc c93c 34d0 843d
00000080: 77a6 b9bc c4a0 b4bd 7b96 7bbd a44d d9bd
00000090: 3cfa 9d3c 695c 4ebd 432c ebbc 9288 83bb
000000a0: 5621 2c3d 33ed 1f3c 35cc 603d 0ce7 3f3d
000000b0: 671b 813d d4d7 203d 1e63 b53c 771a 783d
000000c0: 493b f0bc 79b7 dc3c 9f02 42bc 9d49 b93b
000000d0: b23c 86bd 09ae 2c3d d183 69bd 7a1f 0a3d
000000e0: c32d d63c f8e2 9abd 1776 513d e1d5 74bd
000000f0: 9364 11bc fd85 22bc 36f8 5abd 335c 2dbd
00000100: c19b 58bd 379b a03d 0a68 8a3d 1fbf b03d
00000110: 610b 74bd 03f1 39bd bfe9 023c 4c4b bdbc
00000120: 35bc 50bd 1f23 57bd b8f4 0c3c 1917 7f3d
00000130: d8ba 11bd bcbb 7c3c d6f6 00bd d3e9 293c
00000140: 6f77 5a3d e720 773d 04c6 7d3d 1de1 a33d
00000150: 56e9 763b a599 c93d 5831 debd 6a2b b4bd
00000160: 748f c83d a514 e43d cb33 08be 0dc2 513d
00000170: 646c bd3d 1ec9 86bd 9cf5 3e3c 17bd 50bc
00000180: 92dc c9bd 0703 cebd a83f 9fbd 6639 72bd
00000190: b5e2 9f3d 4746 dbbc a867 d93d 5207 b5bc
000001a0: 7efa b7bc df9d d7bd a9ee e3bc 13cf 273c
000001b0: bd58 ab3d d11b c7bd 72d0 1bbd f4b6 963d
000001c0: da2c a0bc d49f 483d c704 40bd dcac 2bb9
000001d0: dab3 ef3a a2ec 66bd e9a4 36bc 5154 103c
000001e0: f417 e9bc 1c70 82bd fc74 133d 9e77 11bd
000001f0: 95fc 4ebd 8e8e 853d 72bf 68bd 1133 e93d
00000200: 16ee 73bd 47b6 363d 96fd 46bd f5d8 4b3d
00000210: 727e 663d 4b9d 4e3d 6495 89bd ed97 0c3d
00000220: d97d 1b3e 3c95 a23b ee66 adbd 21a6 eb3d
00000230: 8a33 7cba d9ee 9dba fe02 433d 725a 443d
00000240: e8d3 40bd e831 033c a9fb 603d 19ad 02bd
00000250: 3f68 b7bd a757 0abd aad7 a4bd c6e0 4cbd
00000260: ceb0 303c 69ab 69bc 207d 30bc 32a7 c4bc
00000270: 35f3 de3a abd0 2dbc dcae eabd 07ac e5bc
00000280: 753b a6bc 8cdd 213d d7ab 96ba 7ffa f1bd
00000290: 7c18 b0bd f29f 0abd 72fd 7abd 6ab1 5e3d
000002a0: eb7c 02bd 037c 17bc 57bc b7bc bef3 08bd
000002b0: 82d7 f93c 0827 69bd 9c20 1c3d 9b0c ab3d
000002c0: 4d9c d93b 8567 143d e4d2 cabc 1143 e1bd
000002d0: 4346 913c 4e16 863d 4834 7ebb 2c99 39bb
000002e0: c6b6 adbd 0cee c03c 4c26 433b 4ce6 e4bd
000002f0: deec 2bbd b58f 9fbd a6d8 373d a02e 3bbc
00000300: 8adb 953d 86bf 6abd a75b 9f3d 8a20 0ebd
00000310: 5550 f4bd 0009 c53d 6df5 89bb 850d 59bd
00000320: 4127 fcbc 279e b73b bd0b 513d ba6e dabc
00000330: da93 903d 1939 a83c b708 b43d 0efd 633d
00000340: 957a 02bd 9ef6 2a3d 4750 5d3d 26c4 4cbd
00000350: b43f 273d 9f8e b13d 6eef 993c fae1 e93d
00000360: ed1f e7bc 6176 233d 7803 b5bd ccc0 d23d
00000370: 0978 843d f9b9 90bd 4a75 033d c6da 17bd
00000380: be23 853c 810f e93b 07be e0bd 62df 8a3d
00000390: ceb1 83bc 9a95 adbd 7fe2 fc3a ee4c ddbd
000003a0: 1f4d 45bd 5ac0 70bc 0b8a d13c dabc 39bd
000003b0: 9f1b d1bb 77bd 7d3c de44 a23b 5a00 07bd
000003c0: f06e 11bd 41fb ac3d 4716 dcbd bd2f 9e3c
000003d0: f893 843d 9059 fabd c462 21bc e915 863d
000003e0: 9898 16bd 2432 983d d0c7 74bd a8ca 44bd
000003f0: 399d 15bd dfcd 7f3c 4d29 06be ca44 883c

bias_ih f4 [512]
0.12758102 0.16025864 -0.032673083 -0.050028782 0.13684535 0.09151809 0.044167235 0.1623289
0.010651026 -0.008534375 -0.014662083 0.059015032 0.09271678 0.09393368 -0.029967759 0.07041404
0.045229048 0.032495975 0.10387096 -0.008428776 0.14199606 0.041816346 0.14579526 0.08698035
0.03559796 0.059264466 0.016268378 0.04111841 0.16734283 0.07829424 -0.0137839625 0.026865492
-0.03574527 0.03623595 0.10224755 0.019530796 0.13806744 0.1109802 0.03962411 0.100832805
0.04899293 0.0062228297 0.033131696 0.051392157 0.17147116 0.13887767 0.08503955 0.049620632
-0.051483985 0.11148632 0.054249465 0.08928042 0.053831216 0.0962273 0.038092956 0.121864066
0.10923791 0.19053292 0.13168365 0.14008348 0.17007463 0.13279295 0.08614178 0.042515174
-0.01869765 0.24325617 0.078110225 -0.035180695 0.11222325 0.01270374 0.08205333 0.12852812
0.14389789 0.09541367 0.15824226 0.08033699 0.13892762 0.04109304 -0.018709084 0.025869295
0.059825465 0.1462766 0.014584829 -0.030025082 0.037084017 -0.009806048 0.0017666586 0.026131233
0.041438743 0.113106236 0.018061051 -0.034049794 -0.030888434 0.07120223 -0.053868663 0.041376192
-0.03988115 0.081874214 0.107031144 -0.010904636 0.087662645 -0.0493606 0.033140704 0.017400576
0.2218517 -0.011077053 0.16286997 0.17118663 0.041404605 -0.0023026215 0.05640426 0.09264692
0.125865 0.04778489 0.18983988 0.07719515 0.19381215 0.089725405 0.054047007 0.003061829
0.07799694 0.065078184 -0.03604236 0.15036885 0.07696699 0.07395908 0.0458658 0.0982253
0.073336355 0.0707722 -0.07130467 -0.0051233205 -0.013523229 0.049716182 -0.10826813 0.04437976
0.009457637 -0.10205849 0.008595586 0.06782779 -0.08078916 -0.09629926 0.0070738997 -0.026566125
-0.056988526 0.004217488 -0.056732927 -0.041170135 -0.0025536448 0.04393629 -0.006789581 0.0086460775
-0.036012825 -0.013661028 0.013233696 0.03709329 -0.007133728 -0.025963355 -0.04686397 0.030512007
-0.06453275 0.09535254 -0.05182666 0.12384045 0.013722428 -0.07955175 0.010480198 -0.01501644
-0.0021842474 -0.054543387 0.09391483 -0.009276917 -0.071858525 0.041815996 -0.01882504 -0.021954013
-0.05251909 0.056561545 0.024392536 -0.0038117603 -0.0948175 0.0793156 -0.0054655215 -0.057647
-0.06934673 0.013710237 -0.021007469 0.013432099 0.07644536 0.03418027 0.0909259 -0.07498163
0.07631483 -0.0010218387 -0.007091963 0.13236158 -0.04799621 -0.001610666 -0.06562143 0.038671218
-0.067478225 -0.0018355144 -0.07604993 -0.045487817 -0.00439829 -0.05743061 0.036234204 0.017154451
0.076052144 -0.065755025 -0.08336495 -0.039802108 0.014567384 -0.009026703 -0.06738505 0.08534517
-0.075416684 0.06039102 0.042812034 0.060279325 -0.042615846 0.048996318 -0.066790104 0.0683827
-0.10912296 -0.0812587 -0.0031255397 0.010831841 -0.008951757 0.017344676 0.024559908 0.00031322456
-0.07994656 0.09618549 -0.00058042974 0.048388258 0.044206332 0.01635574 -0.09353766 0.016494956
0.08766002 -0.026050339 0.0043452745 -0.103251025 -0.035567403 0.03102143 0.008607712 -0.040601194
0.04332391 -0.06950306 -0.016462661 -0.042643316 0.0072820005 -0.037844572 -0.060496032 -0.022403255
00000000: 99a4 023e d71a 243e 36d4 05bd fbea 4cbd
00000010: 3021 0c3e d66d bb3d b4e8 343d 8c39 263e
00000020: a481 2e3c c3d3 0bbc 3c39 70bc bfb9 713d
00000030: 4ce2 bd3d 4d60 c03d f27e f5bc 3c35 903d
00000040: 1842 393d 801a 053d 4cba d43d d918 0abc
00000050: 6a67 113e 9e47 2b3d 5a4b 153e c122 b23d
00000060: 2bcf 113d 4cbf 723d 4345 853c c76b 283d
00000070: eb5b 2b3e bb58 a03d 21d6 61bc 0515 dc3c
00000080: a269 12bd 266c 143d 2a67 d13d 0cff 9f3c
00000090: 8d61 0d3e 9649 e33d e44c 223d 6e81 ce3d
000000a0: d0ac 483d e1e8 cb3b 1ab5 073d 9580 523d
000000b0: 2396 2f3e f335 0e3e 3729 ae3d 013f 4b3d
000000c0: dfe0 52bd f152 e43d b034 5e3d a7d8 b63d
000000d0: 1f7e 5c3d d212 c53d 5c07 1c3d de93 f93d
000000e0: 20b8 df3d 101b 433e 14d8 063e 0b72 0f3e
000000f0: 0b28 2e3e e0fa 073e 1a6b b03d 6424 2e3d
00000100: d02b 99bc 2518 793e 41f8 9f3d a219 10bd
00000110: 4ed5 e53d 5923 503c 940b a83d e09c 033e
00000120: f859 133e 3e68 c33d 420a 223e b887 a43d
00000130: 0b43 0e3e 2d51 283d cb43 99bc d8eb d33c
00000140: 8c0b 753d 88c9 153e 35f5 6e3c 29f7 f5bc
00000150: 69e5 173d 8ca9 20bc 3a8f e73a 2b11 d63c
00000160: acbb 293d 3ea4 e73d c5f4 933c cc77 0bbd
00000170: be09 fdbc 7ad2 913d 63a5 5cbd 157a 293d
00000180: 6b5a 23bd abad a73d 2533 db3d 5ca9 32bc
00000190: 7988 b33d 572e 4abd 8cbe 073d a78b 8e3c
000001a0: 182d 633e 877c 35bc 63c7 263e 8c4b 2f3e
000001b0: e097 293d 94e7 16bb 2708 673d abbd bd3d
000001c0: c1e2 003e 17ba 433d 6365 423e 7e18 9e3d
000001d0: b176 463e f4c1 b73d 6560 5d3d f7a8 483b
000001e0: dcbc 9f3d b647 853d 27a1 13bd 4bfa 193e
000001f0: dfa0 9d3d dc77 973d c7dd 3b3d 592a c93d
00000200: 5f31 963d 04f1 903d 2f08 92bd 87e1 a7bb
00000210: 8990 5dbc 32a3 4b3d aebb ddbd 8dc7 353d
00000220: 34f4 1a3c 0b04 d1bd 80d4 0c3c 4ce9 8a3d
00000230: ca74 a5bd 8c38 c5bd 2ccc e73b 34a1 d9bc
00000240: cd6c 69bd db32 8a3b c960 68bd 04a2 28bd
00000250: 0d5b 27bb 8af6 333d 227b debb 47a8 0d3c
00000260: 2f82 13bd 81d2 5fbc 25d2 583c 22ef 173d
00000270: 0cc2 e9bb 1ab1 d4bc 6ff4 3fbd 51f4 f93c
00000280: bf29 84bd 3148 c33d 3148 54bd 10a0 fd3d
00000290: 09d4 603c 07ec a2bd 23b5 2b3c 8407 76bc
000002a0: 9725 0fbb e368 5fbd 6b56 c03d 36fe 17bc
000002b0: 902a 93bd 4047 2b3d f836 9abc e7d8 b3bc
000002c0: 421e 57bd 14ad 673d dbd2 c73c bace 79bb
000002d0: ad2f c2bd 3870 a23d 1e18 b3bb 431f 6cbd
000002e0: a905 8ebd e7a0 603c db17 acbc 4e12 5c3c
000002f0: 638f 9c3d 9c00 0c3d 5c37 ba3d f88f 99bd
00000300: f34a 9c3d 38ef 85ba b363 e8bb cb89 073e
00000310: ad97 44bd fc1c d3ba 8764 86bd b665 1e3d
00000320: 0632 8abd a595 f0ba 11c0 9bbd 6f51 3abd
00000330: 881f 90bb 5c3c 6bbd 516a 143d 7e87 8c3c
00000340: 3ac1 9b3d 92aa 86bd 3ebb aabd 8907 23bd
00000350: 09ac 6e3c bde4 13bc 2c01 8abd 73c9 ae3d
00000360: 1074 9abd 935c 773d ac5b 2f3d 74e7 763d
00000370: f48d 2ebd 5db0 483d 40c9 88bd 3b0c 8c3d
00000380: dc7b dfbd f66a a6bd dbd5 4cbb 0978 313c
00000390: 64aa 12bc 6c16 8e3c dc31 c93c 4a38 a439
000003a0: 06bb a3bd e6fc c43d fb27 18ba c432 463d
000003b0: b311 353d 79fc 853c ac90 bfbd 6e20 873c
000003c0: 1987 b33d 8567 d5bc ce62 8e3b 4675 d3bd
000003d0: 20af 11bd a720 fe3c 5c07 0d3c 704d 26bd
000003e0: 6a74 313d 9f57 8ebd b4dc 86bc c2aa 2ebd
000003f0: d99d ee3b e902 1bbd b0ca 77bd 0887 b7bc

bias_hh f4 [512]
0.05740422 0.07146173 0.06415617 -0.023653112 0.11850088 0.074610636 0.06918829 0.15802366
-0.0066889236 0.045813147 0.071767345 0.118821844 0.017653737 0.03318348 0.0729635 0.089895934
0.01264385 0.089466274 -0.018353995 0.13559373 0.1679374 0.0830186 0.1234837 0.08675619
0.06543619 0.11470809 0.004361018 -0.0059309956 0.11017085 0.16852988 0.03562917 0.045845136
0.086110346 0.085876144 -0.004734442 0.05613637 -0.028194964 0.057698317 0.11266432 -0.02484949
0.13891019 -0.020470789 0.13721494 0.050696727 0.13168193 0.09212495 0.13023774 -0.050777655
0.01785728 0.14039783 0.12772463 -0.0034261069 0.14046338 0.012709003 0.11294253 0.1648228
0.15382679 0.13090166 0.099010095 0.068924904 0.1764235 0.18743825 0.019288562 0.07776101
-0.015542633 0.16177551 -0.014812278 -0.00924889 0.14368865 0.05985486 0.14890407 0.13825159
0.08461697 0.1041072 0.08250581 0.048934255 0.10374016 0.08180222 0.13348725 -0.0020259186
0.1435878 0.06875045 0.12418836 0.080666274 0.15525798 0.10432663 0.018476238 -0.0301394
-0.0010393824 0.08027804 0.07368907 0.086664684 -0.022696434 0.069275945 -0.009166895 -0.01946652
0.068048775 0.0032470934 0.1593475 0.12704511 0.03442923 0.04469474 0.0008187003 0.064665474
0.272535 0.010709633 0.048664972 0.021880466 0.005160832 0.10926239 0.05545857 0.016330235
0.0779387 -0.010107836 0.048632085 0.1387333 0.033459958 0.03345305 0.10165377 0.01098586
0.06588763 -0.023249127 0.123813845 0.04734835 0.11934433 -0.019800557 0.102557376 0.11000305
-0.079094864 -0.023247276 -0.029955395 -0.078068554 0.010660413 0.085961156 -0.004579632 0.034775387
0.044181533 -0.100243084 0.007940289 0.050462108 0.0013738499 -0.017790714 -0.041819416 -0.029706296
0.04663835 0.062039606 0.062421292 0.06228737 0.057040438 -0.00076407474 -0.0679224 -0.05253636
0.10112844 -0.010865019 -0.0014120553 -0.016025703 -0.08357349 0.10684387 -0.037681755 -0.008005524
-0.041458007 0.086377285 0.009841266 0.04459071 0.035666782 -0.10122145 -0.02075761 0.09335375
0.010958948 0.07269302 -0.043330815 0.08382856 0.018096384 -0.062492594 0.01460788 0.021205055
-0.0495634 0.054579742 -0.08395168 -0.017379034 -0.055978995 0.06308989 -0.08693338 -0.072282575
-0.08957439 0.047191113 0.018409597 -0.025644396 0.037198354 -0.066640764 0.0034588173 0.029195096
0.0152721675 0.052342575 -0.022678206 0.12254451 -0.029141603 0.06797411 -0.07357616 0.047661386
-0.08828749 -0.031947393 -0.08818252 -0.033963155 0.02531148 0.027103953 -0.070873156 -0.049554747
-0.0047046035 -0.044902742 0.038832355 0.0002059885 0.026487427 0.020906352 -0.07101871 -0.0040065516
-0.038968768 0.07410173 0.0067309346 0.104937024 0.079602644 0.08233035 0.09572682 0.04968023
-0.018587396 0.03072502 -0.040101867 0.09438981 -0.007399005 0.002157732 0.028286152 -0.007843148
0.011588006 0.0801743 0.099615164 0.005381517 0.06315064 -0.06625904 -0.036267914 -0.025498107
-0.022306427 -0.049405202 -0.13379881 0.014455772 0.046575293 -0.011792058 -0.01048995 -0.046900235
0.020154934 0.051686253 0.013645663 -0.041344486 -0.023198381 0.007923845 0.09968024 -0.0957396
00000000: b020 6b3d 875a 923d 4f64 833d 2cc4 c1bc
00000010: 97b0 f23d 76cd 983d 97b2 8d3d f4d0 213e
00000020: c22e dbbb 91a6 3b3d c2fa 923d de58 f33d
00000030: 929e 903c 67eb 073d e36d 953d 5c1b b83d
00000040: 2728 4f3c 183a b73d 1e5b 96bc 15d9 0a3e
00000050: c8f7 2b3e a805 aa3d 06e5 fc3d 3bad b13d
00000060: 6903 863d 13ec ea3d dfe6 8e3b cc58 c2bb
00000070: 41a1 e13d 1993 2c3e e4ef 113d 1cc8 3b3d
00000080: 9f5a b03d d5df af3d 6123 9bbb 40ef 653d
00000090: 20f9 e6bc 1255 6c3d 8dbc e63d 2891 cbbc
000000a0: 793e 0e3e 5bb2 a7bc 1382 0c3e 5fa7 4f3d
000000b0: a1d7 063e 01ac bc3d 0b5d 053e 3bfc 4fbd
000000c0: 6e49 923c 73c4 0f3e 3fca 023e 8988 60bb
000000d0: a2d5 0f3e 6c39 503c 6a4e e73d 4fc7 283e
000000e0: c584 1d3e 160b 063e cec5 ca3d 8028 8d3d
000000f0: 5da8 343e d0ef 3f3e 0c03 9e3c 2a41 9f3d
00000100: 87a6 7ebc 7ba8 253e 32af 72bc a888 17bc
00000110: 1e23 133e 5f2a 753d 4f7a 183e d391 0d3e
00000120: a94b ad3d 2836 d53d cef8 a83d 496f 483d
00000130: b975 d43d ec87 a73d e2b0 083e 46c5 04bb
00000140: ae08 133e 09cd 8c3d 7856 fe3d 5c34 a53d
00000150: f3fb 1e3e 33a9 d53d 7b5b 973c e7e6 f6bc
00000160: e33b 88ba d068 a43d 4cea 963d 417d b13d
00000170: dfed b9bc 8ce0 8d3d bf30 16bc 4078 9fbc
00000180: 285d 8b3d 30cd 543b fe2b 233e 1d18 023e
00000190: aa05 0d3d d511 373d 0c9e 563a 556f 843d
000001a0: b589 8b3e 7577 2f3c ec54 473d aa3e b33c
000001b0: 321c a93b f6c4 df3d 8728 633d fcc6 853c
000001c0: 539e 9f3d 569b 25bc 7032 473d 1a10 0e3e
000001d0: 4f0d 093d 1106 093d da2f d03d 09fe 333c
000001e0: 18f0 863d f474 bebc 1d92 fd3d 58f0 413d
000001f0: cd6a f43d c734 a2bc 9a09 d23d 4749 e13d
00000200: 7dfc a1bd 1271 bebc 0465 f5bc 68e2 9fbd
00000210: 03a9 2e3c 670c b03d bd10 96bb a370 0e3d
00000220: b2f7 343d 3f4c cdbd fc17 023c 5bb1 4e3d
00000230: c112 b43a d5bd 91bc d64a 2bbd 9e5a f3bc
00000240: db07 3f3d 3e1d 7e3d 78ad 7f3d 0b21 7f3d
00000250: 3ca3 693d 304c 48ba e61a 8bbd 5e30 57bd
00000260: 6d1c cf3d 3103 32bc b714 b9ba 5648 83bc
00000270: 9428 abbd f5d0 da3d 2f58 1abd 9a29 03bc
00000280: dfcf 29bd 93e6 b03d 433d 213c c0a4 363d
00000290: 5517 123d 314d cfbd dd0b aabc 4030 bf3d
000002a0: 298d 333c 14e0 943d a77b 31bd 4fae ab3d
000002b0: de3e 943c 3cf8 7fbd e455 6f3c 39b6 ad3c
000002c0: fe02 4bbd 028f 5f3d dcee abbd 7a5e 8ebc
000002d0: 3b4a 65bd 4635 813d 210a b2bd e308 94bd
000002e0: c772 b7bd 784b 413d b9cf 963c 3214 d2bc
000002f0: 4d5d 183d f47a 88bd 53ad 623b 8e2a ef3c
00000300: 1d38 7a3c 2b65 563d a5c7 b9bc 9ef8 fa3d
00000310: 5fba eebc 0336 8b3d 19af 96bd 9638 433d
00000320: 12d0 b4bd 45db 02bd 0999 b4bd f31c 0bbd
00000330: 055a cf3c 1c09 de3c f225 91bd ebf9 4abd
00000340: 1329 9abb f0eb 37bd ad0e 1f3d 9efe 5739
00000350: 29fc d83c cc43 ab3c 4272 91bd 6449 83bb
00000360: b79d 1fbd a6c2 973d 2c8f dc3b 39e9 d63d
00000370: b606 a33d d19c a83d 6c0c c43d 7f7d 4b3d
00000380: 9844 98bc 0ab3 fb3c db41 24bd 724f c13d
00000390: 5a73 f2bb bc68 0d3b 5cb8 e73c 8c80 00bc
000003a0: 9fdb 3d3c 6c32 a43d 0903 cc3d 7057 b03b
000003b0: 1f55 813d d2b2 87bd aa8d 14bd 68e1 d0bc
000003c0: f8bb b6bc 1c5d 4abd 8e02 09be e7d7 6c3c
000003d0: bcc5 3e3d 7a33 41bc 0ade 2bbc 761a 40bd
000003e0: f61b a53c f7b4 533d 0f92 5f3c d658 29bd
000003f0: 880a bebc 04d3 013c 2725 cc3d 2013 c4bd

weight_ih f4 [512, 128]
-0.04678407 -0.054238785 -0.049239155 -0.10352285 -0.015383003 0.050521124 -0.003802767 0.03031262
0.10647853 -0.0999241 -0.09650976 0.051689498 0.12551002 0.14114346 -0.036048472 0.09138527
0.038446464 0.043639697 0.01514382 -0.107156396 0.08420499 -0.09801403 -0.06885797 0.0064855134
-0.008155759 -0.06337114 0.05482993 0.072461344 -0.08053225 -0.058966395 -0.07783514 0.0508744
-0.06559334 0.031806562 -0.036141902 0.0021373185 0.027392488 -0.04048368 0.05643801 0.009071974
0.010382263 0.09597505 0.10328273 0.1511397 0.051197708 0.08487705 -0.11590374 0.07091413
-0.008281818 0.07072823 0.041000642 -0.11838849 -0.059441503 0.08395832 0.03430641 -0.0036044738
0.012938328 -0.05599017 -0.045431957 -0.040001933 0.034134954 -0.08032679 -0.04598313 0.046084445
-0.08802599 0.022016378 -0.06599023 -0.0012742536 0.004219694 0.040920958 0.089889474 0.105488814
0.05132509 0.022670114 0.081645 0.040325094 0.04899682 -0.06293223 -0.038416512 0.097970605
-0.05860516 0.121608816 -0.05256684 -0.0031820042 -0.051166657 0.068627976 -0.09400061 -0.10070959
0.045178182 -0.020659052 -0.16875444 0.06694703 0.06113337 -0.12874714 -0.020750456 -0.01149534
-0.02002192 -0.07843145 -0.07293261 -0.021955715 0.068230264 -0.051954374 0.04394039 -0.04923078
0.0245899 -0.07602645 -0.027396636 0.04541377 0.0070078187 0.022118244 -0.022269268 0.011448387
-0.07241594 -0.03544765 -0.019610919 0.09091229 0.125821 -0.10103883 0.044372518 -0.0022977996
0.01137106 0.10346001 -0.1738511 0.011021534 -0.036886834 0.0733723 -0.046049062 -0.0036040698
0.00077421585 0.017856121 -0.020862393 -0.028707944 -0.09715437 0.06803472 0.024578394 0.07170479
0.03937025 -0.041974936 -0.038907986 0.07049911 -0.020637972 0.0086633535 -0.0920684 -0.018620178
-0.007720723 -0.07244934 -0.014493475 0.0771008 0.054345746 -0.027819429 -0.0060216477 0.01088657
-0.101957425 0.1405565 0.052532837 -0.025719661 0.044214055 0.076715924 0.016547704 0.048890904
0.050846428 0.0726598 0.015584858 0.03941623 -0.03877984 -0.07991432 -0.01333517 -0.082577415
0.04157646 -0.10400888 0.03472429 0.01056346 0.112062074 0.0041649914 -0.06505432 -0.094437204
0.012609766 0.022832727 -0.034909967 0.003271521 0.049057376 0.10920835 0.06345484 0.10087224
0.031961925 0.017885115 0.08590426 -0.00979596 -0.09040478 -0.05739737 0.007849789 -0.120191894
-0.08337315 0.11342335 -0.022597391 0.008791666 0.052612957 -0.0258051 -0.07154314 0.025364228
-0.064258434 0.040727407 -0.089239314 0.05548624 0.13795324 0.13852155 -0.12779863 -0.09186981
0.034594364 0.012456238 -0.05955519 0.034116138 -0.012794994 0.07564899 0.08119342 -0.14112431
0.01433617 -0.063236855 0.017283805 -0.100839406 0.007871144 0.00042113822 0.114773385 -0.05874291
-0.13098468 0.012487964 0.0894175 -0.1837202 0.014969793 -0.1068526 0.14050983 0.0062304307
0.024285952 -0.016395682 0.1130612 -0.059512176 0.036940765 -0.050987806 -0.019288864 0.024403697
0.016865248 -0.06065919 0.015567693 0.08881886 0.067502305 -0.009671678 0.111488946 -0.07279101
0.07819305 -0.15432562 0.13060237 0.08829377 -0.09136741 -0.025056655 0.018334314 0.1232678
00000000: a7a0 3fbd 7d29 5ebd ffae 49bd ca03 d4bd
00000010: fe08 7cbc 3def 4e3d d837 79bb 2c52 f83c
00000020: 6a11 da3d 02a5 ccbd e9a6 c5bd 5eb8 533d
00000030: b385 003e e987 103e 90a7 13bd 3328 bb3d
00000040: 0a7a 1d3d 8abf 323d c91d 783c d074 dbbd
00000050: aa73 ac3d 94bb c8bd 6805 8dbd 6e84 d43b
00000060: bc9f 05bc bac8 81bd 5995 603d 9d66 943d
00000070: 18ee a4bd bf86 71bd 0868 9fbd ad61 503d
00000080: cd55 86bd 9947 023d 8809 14bd 4112 0c3b
00000090: 3666 e03c 37d2 25bd 8b2b 673d 9ea2 143c
000000a0: 5e1a 2a3c 918e c43d e585 d33d 5ec4 1a3e
000000b0: b0b4 513d 05d4 ad3d f15e edbd 6d3b 913d
000000c0: 76b0 07bc f6d9 903d 4af0 273d aa75 f2bd
000000d0: ef78 73bd 57f2 ab3d e184 0c3d 0939 6cbb
000000e0: 48fb 533c f355 65bd dc16 3abd 11d9 23bd
000000f0: 18d1 0b3d 5f82 a4bd ce58 3cbd 0bc3 3c3d
00000100: f846 b4bd b15b b43c e325 87bd db04 a7ba
00000110: 5c45 8a3b bc9c 273d f917 b83d 850a d83d
00000120: 423a 523d adb6 b93c 7e35 a73d ed2b 253d
00000130: e4b0 483d 9de2 80bd a25a 1dbd d0a4 c83d
00000140: f70b 70bd 0b0e f93d 5450 57bd 2c89 50bb
00000150: 2194 51bd d38c 8c3d 6483 c0bd d440 cebd
00000160: c20c 393d 2c3d a9bc f7cd 2cbe 861b 893d
00000170: fc66 7a3d 4ad6 03be dcfc a9bc f356 3cbc
00000180: 0205 a4bc aba0 a0bd b15d 95bd 79dc b3bc
00000190: 4fbc 8b3d 1cce 54bd d7fa 333d 37a6 49bd
000001a0: c270 c93c c1b3 9bbd e96e e0bc ca03 3a3d
000001b0: d8a1 e53b 5231 b53c 0a6e b6bc 0492 3b3c
000001c0: cf4e 94bd 8e31 11bd 14a7 a0bc 3930 ba3d
000001d0: 38d7 003e 72ed cebd f5bf 353d ae96 16bb
000001e0: af4d 3a3c d7e2 d33d 0606 32be aa93 343c
000001f0: a616 17bd 3744 963d f19d 3cbd 4232 6cbb
00000200: bff4 4a3a 0047 923c 9ce7 aabc ec2c ebbc
00000210: dff8 c6bd ca55 8b3d a158 c93c f6d9 923d
00000220: b342 213d e9ed 2bbd fb5d 1fbd d661 903d
00000230: f710 a9bc bdf0 0d3c 5b8e bcbd 5889 98bc
00000240: 1efe fcbb 5260 94bd 0a76 6dbc 06e7 9d3d
00000250: a599 5e3d 92e5 e3bc 3e51 c5bb 965d 323c
00000260: 0ecf d0bd 0bee 0f3e ac2c 573d 0ab2 d2bc
00000270: cc19 353d 3d1d 9d3d 0d8f 873c d441 483d
00000280: 5844 503d a9ce 943d a257 7f3c ea72 213d
00000290: 9cd7 1ebd 1eaa a3bd c27b 5abc 591e a9bd
000002a0: 144c 2a3d 9c02 d5bd 0f3b 0e3d 5d12 2d3c
000002b0: cd80 e53d 7b7a 883b 333b 85bd 4b68 c1bd
000002c0: 3199 4e3c b30b bb3c c1fd 0ebd 0467 563b
000002d0: 63f0 483d a1a8 df3d 9cf4 813d 1b96 ce3d
000002e0: 82ea 023d ce83 923c 93ee af3d 3c7f 20bc
000002f0: 2426 b9bd 8119 6bbd 679c 003c 2b27 f6bd
00000300: 8bbf aabd 804a e83d 2a1e b9bc eb0a 103c
00000310: af80 573d 3865 d3bc 3685 92bd a4c8 cf3c
00000320: ed99 83bd c8d1 263d 1ac3 b6bd 8a45 633d
00000330: 9d43 0d3e 98d8 0d3e a5dd 02be 3d26 bcbd
00000340: d2b2 0d3d 4015 4c3c 25f0 73bd 5dbd 0b3d
00000350: 18a2 51bc dced 9a3d bc48 a63d e482 10be
00000360: 41e2 6a3c 5382 81bd c496 8d3c e484 cebd
00000370: f9f5 003c 37cc dc39 4f0e eb3d 689c 70bd
00000380: d920 06be 519a 4c3c 8620 b73d 2621 3cbe
00000390: dd43 753c 89d5 dabd cfe1 0f3e a428 cc3b
000003a0: 55f3 c63c 3d50 86bc a18c e73d 0ac3 73bd
000003b0: 334f 173d 97d8 50bd ae03 9ebc 43ea c73c
000003c0: fd28 8a3c c575 78bd a30f 7f3c aae6 b53d
000003d0: a63e 8a3d f575 1ebc 5154 e43d 7413 95bd
000003e0: ae23 a03d 8907 1ebe a1bc 053e 5dd3 b43d
000003f0: d61e bbbd 9d43 cdbc d831 963c d473 fc3d

weight_hh f4 [512, 128]
0.03620825 -0.14944282 -0.04094895 -0.11274316 0.040789437 -0.0547294 0.04131935 -0.017356819
-0.010542667 0.039946225 0.012824094 0.038550474 -0.039362006 -0.12193199 -0.00061531627 -0.043673854
-0.051657483 0.080099925 -0.09828565 -0.048441984 -0.057770755 -0.020590981 0.0179296 -0.04419186
-0.0844504 0.123555526 0.0874287 -0.024634648 -0.060554117 0.100208834 -0.049699232 0.08933379
0.058274344 -0.06149419 -0.014514419 -0.09634034 -0.08429132 0.023933228 -0.09187974 -0.0005724485
-0.063804895 0.06972729 0.05651699 0.030737149 -0.009605901 0.0028634418 0.04074717 0.016167697
0.12735806 -0.1196111 -0.0450578 -0.023787867 0.010785956 -0.03275068 -0.0032735278 0.091548234
-0.06444196 -0.027343903 0.08110788 0.049474772 0.053767674 -0.0370634 0.1001072 0.095700696
0.080093235 -0.12949404 0.06723703 -0.10642846 0.058314055 0.03910819 0.019012652 0.0020868422
0.11171397 0.056923464 -0.003327779 -0.00579992 -0.0521084 0.03564742 0.026720319 0.053203978
-0.08209261 -0.05962136 0.101263896 -0.0833553 0.05670991 -0.010673941 0.017984845 -0.06252519
0.09518163 -0.029820647 0.08940332 -0.010215389 -0.100664996 -0.050558362 -0.055863444 -0.10849824
-0.04404568 0.06549229 0.018277314 0.10482721 -0.0011372418 -0.057239044 -0.038759213 -0.09565272
0.004303869 -0.034790035 0.0749648 -0.11215735 0.03570302 0.038702477 -0.07027061 0.008198587
0.030247295 -0.008116846 0.094881184 -0.017037455 0.007679471 -0.044021573 -0.02305328 0.05778725
-0.0017212804 -0.10246245 -0.029626975 0.057628457 -0.010103638 0.021428445 0.0038505157 0.048150152
0.05089869 0.11279983 -0.112692356 -0.013706001 0.14252314 0.14713982 0.0994847 -0.023008324
-0.0055273455 -0.10720424 0.043158174 -0.1229253 -0.030954536 0.15271927 -0.05512811 -0.048566177
0.09566266 0.13752668 -0.019757524 0.040399525 0.11857841 -0.10446161 -0.10041355 -0.16422576
-0.032554086 0.17649584 -0.010167566 0.14510673 0.07155312 0.10652951 0.03303161 0.03658708
0.0014760729 0.0391035 0.09507257 -0.09097964 -0.08355889 0.0902682 -0.061818432 -0.05546402
-0.109145045 0.052661277 -0.08925544 0.056109972 0.11366834 -0.00043026783 -0.0032401537 -0.026915494
-0.03784341 -0.033202533 0.011515362 -0.10252349 0.028075378 -0.10818293 -0.15324299 -0.0985565
0.1645371 -0.08591134 0.011044317 0.017858833 -0.0967421 0.10195527 0.053787526 0.057933334
0.05047151 0.016373988 0.169359 -0.1202207 -0.052871156 0.1440667 0.10400656 -0.03998956
0.111858584 0.0035702887 -0.090807274 -0.023375053 -0.012158838 -0.1311923 -0.08249852 -0.01852242
-0.0016946105 -0.18428685 0.0060598827 -0.13131323 0.07146359 0.19488494 0.1390709 -0.14384143
0.05627217 -0.03982814 0.02177866 0.036026824 -0.11683591 -0.09061616 -0.03578131 -0.10856205
0.0053559863 -0.011399091 0.10381137 0.02734497 -0.03555059 0.0069176476 0.014610368 -0.21227925
-0.016492806 -0.10087959 -0.039969355 -0.1567396 0.033050407 -0.059947845 0.052393526 -0.0945576
0.08728978 0.095907584 -0.02310148 -0.08510098 -0.066369265 0.15609671 0.10367625 0.037352927
-0.029004958 -0.20005013 -0.013706759 0.031072652 0.18779604 -0.050490968 -0.040411267 0.09347226
00000000: 1a4f 143d 8a07 19be 16ba 27bd e3e5 e6bd
00000010: d312 273d ef2b 60bd 7b3e 293d e32f 8ebc
00000020: 26bb 2cbc a79e 233d 261c 523c 1ae7 1d3d
00000030: 0e3a 21bd 7bb7 f9bd 2d4d 21ba 5be3 32bd
00000040: cc96 53bd 6e0b a43d fd49 c9bd 1a6b 46bd
00000050: 07a1 6cbd 6bae a8bc 19e1 923c 8602 35bd
00000060: 55f4 acbd ae0a fd3d d10d b33d 9ace c9bc
00000070: 9807 78bd 4a3a cd3d 6c91 4bbd a2f4 b63d
00000080: 14b1 6e3d 55e1 7bbd e3cd 6dbc 164e c5bd
00000090: eda0 acbd 9e0f c43c 722b bcbd 5e10 16ba
000000a0: 24ac 82bd 2ecd 8e3d 5c7e 673d 79cc fb3c
000000b0: 1262 1dbc 95a8 3b3b 81e6 263d 1e72 843c
000000c0: 276a 023e aaf6 f4bd 878e 38bd c6de c2bc
000000d0: 94b7 303c 9425 06bd af88 56bb a47d bb3d
000000e0: 25fa 83bd 5200 e0bc e31b a63d 0fa6 4a3d
000000f0: 7e3b 5c3d cbcf 17bd 0105 cd3d bafe c33d
00000100: ec07 a43d 169a 04be 91b3 893d 2af7 d9bd
00000110: b8da 6e3d e92f 203d 6cc0 9b3c 67c3 083b
00000120: 4bca e43d 9428 693d de16 5abb 410d bebb
00000130: 9e6f 55bd 0703 123d 92e4 da3c 6aec 593d
00000140: 2c20 a8bd 8735 74bd 7263 cf3d 2fb6 aabd
00000150: a748 683d c1e1 2ebc f454 933c 350d 80bd
00000160: 96ee c23d 6e4a f4bc 1619 b73d 725e 27bc
00000170: 7329 cebd 4916 4fbd 11d1 64bd 5334 debd
00000180: 3e69 34bd d220 863d 4eba 953c a6af d63d
00000190: 810f 95ba 7d73 6abd fbc1 1ebd 93e5 c3bd
000001a0: 7807 8d3b ff7f 0ebd 2587 993d c1b2 e5bd
000001b0: 543d 123d 7d86 1e3d 0aea 8fbd 5e53 063c
000001c0: 2dc9 f73c 85fc 04bc 1151 c23d 2292 8bbc
000001d0: 12a4 fb3b f74f 34bd 3bda bcbc 53b2 6c3d
000001e0: 969c e1ba d5d7 d1bd 45b4 f2bc d10b 6c3d
000001f0: bb89 25bc b58a af3c ef58 7c3b 1839 453d
00000200: 257b 503d 9903 e73d 40cb e6bd 238f 60bc
00000210: 96f1 113e d2ab 163e a2be cb3d f47b bcbc
00000220: bc1e b5bb e68d dbbd a0c6 303d 42c0 fbbd
00000230: 5e94 fdbc 7162 1c3e 03ce 61bd 54ed 46bd
00000240: c9ea c33d cbd3 0c3e 88da a1bc f979 253d
00000250: 3dd9 f23d f8ef d5bd 9fa5 cdbd cc2a 28be
00000260: 6f57 05bd 53bb 343e dd95 26bc dc96 143e
00000270: 718a 923d 252c da3d 274c 073d 56dc 153d
00000280: ca78 c13a fe2a 203d 68b5 c23d 8953 babd
00000290: ec20 abbd 89de b83d 5335 7dbd 3e2e 63bd
000002a0: 7087 dfbd 5ab3 573d 8ecb b6bd 92d3 653d
000002b0: f2ca e83d 9295 e1b9 c258 54bb e27d dcbc
000002c0: b101 1bbd 61ff 07bd eeaa 3c3c d6f7 d1bd
000002d0: 56fe e53c 038f ddbd bbeb 1cbe fed7 c9bd
000002e0: 6a7c 283e 49f2 afbd 39f3 343c b04c 923c
000002f0: b920 c6bd edcd d03d 4f50 5c3d 814b 6d3d
00000300: 37bb 4e3d be22 863c 726c 2d3e 4536 f6bd
00000310: 6d8f 58bd 3986 133e 6401 d53d 18cc 23bd
00000320: 1d16 e53d 81fb 693b 2af9 b9bd 0a7d bfbc
00000330: dd35 47bc 4657 06be fcf4 a8bd 55bc 97bc
00000340: b11d deba b1b5 3cbe fb91 c63b fa76 06be
00000350: 815b 923d eb8f 473e 9a68 0e3e 2b4b 13be
00000360: a67d 663d d522 23bd 2969 b23c dd90 133d
00000370: aa47 efbd f794 b9bd 6c8f 12bd c855 debd
00000380: 4581 af3b 41c3 3abc 0e9b d43d 8f02 e03c
00000390: 7f9d 11bd 6fad e23b 5360 6f3c bb5f 59be
000003a0: ec1b 87bc f599 cebd e8b6 23bd 5880 20be
000003b0: dd5f 073d df8b 75bd 989a 563d 6aa7 c1bd
000003c0: fcc4 b23d 326b c43d 513f bdbc 6c49 aebd
000003d0: 9cec 87bd d1d7 1f3e 3754 d43d 62ff 183d
000003e0: ce9b edbc f1d9 4cbe 5092 60bc 138c fe3c
000003f0: 9b4d 403e 9ecf 4ebd 4986 25bd 626e bf3d

bias_ih f4 [512]
0.03854378 0.14790225 0.036773525 0.101735756 0.0014656866 0.040270373 0.17090543 0.07660129
0.24706456 0.12544191 0.0068643717 0.1518385 0.09662476 0.12423711 0.09670931 0.18266568
0.037928004 0.038981583 0.15623699 0.08029143 0.1374712 -0.029438615 0.0890594 0.118931256
0.0005104227 -0.05180173 -0.0028078316 0.16318214 0.13412382 -0.015444785 0.15138802 0.1847735
0.19161592 0.039657168 0.04776931 0.040335868 0.15244418 0.08787303 0.0021574518 0.092542954
0.088404305 0.10500551 0.17103155 0.1386987 0.07369012 -0.021797316 0.1646454 0.18724523
0.13394618 0.066031106 0.028487602 0.03323763 0.019181844 0.054450255 0.061080407 0.12283796
0.054644484 0.022565907 0.09540664 0.017661711 0.04521566 0.031968843 0.058829974 0.108543016
0.015374411 -0.0070987446 0.1377742 -0.009890824 0.083975434 0.014480669 0.010198204 -0.04160694
-0.02145863 -0.00053548435 0.09530585 0.1616359 -0.040944528 0.11153536 0.029938044 0.08880413
-0.029267848 0.14819463 0.0713481 0.095010415 0.078127146 0.03535586 0.07955889 0.09723795
0.14517465 0.11036134 0.21380146 0.1896416 0.11700643 0.09182131 0.14925297 0.2085279
0.104180746 0.034293573 -0.007971885 0.105168015 0.19168618 -0.04721027 0.02616092 0.15512092
0.037957154 0.107899055 0.018795006 0.09537199 0.14030659 0.21774834 0.061298538 0.026778933
-0.0057306136 0.17652862 0.18998735 0.10001958 0.13742274 0.15388568 0.12059606 -0.005987282
0.014213078 0.046528123 0.15577692 0.030355804 0.0572925 0.10280905 0.12898655 0.14001478
0.078024864 -0.015360644 0.058200043 -0.09491413 -0.040664703 -0.074968256 -0.0007552849 -0.013156168
-0.010046016 -0.05655243 0.027390141 -0.0034887642 0.10998126 0.017581701 -0.024989465 -0.041080203
0.039855715 0.029414363 -0.04944813 -0.08301493 0.018592982 -0.09150013 0.022757968 -0.014016066
0.009046592 -0.05248303 -0.039406143 -0.06957342 -0.08558582 -0.030399384 -0.00499755 -0.055229027
-0.07113579 -0.014905011 -0.014502901 0.0105586415 -0.01713531 -0.050097458 -0.076773375 -0.11257488
0.08285543 -0.13692057 -0.10320998 0.032691002 -0.10739983 -0.11056443 0.03289281 -0.026612451
-0.12252511 -0.09028543 0.05955655 0.0154519705 0.06393086 -0.04995801 -0.0025773835 0.05079183
-0.015151306 -0.115987405 0.044640236 -0.09929713 -0.0725393 0.0065981247 -0.09248167 -0.055966172
0.04919668 -0.027200507 -0.08141737 -0.057093747 0.033924956 -0.10375211 0.012353747 -0.013866224
-0.020760909 -0.1371262 -0.0067135296 -0.07142604 0.012416288 0.08035684 -0.070090875 0.054411434
0.067552276 -0.09379236 0.08883574 0.018211864 -0.05325884 0.08175627 -0.010553006 -0.098386236
0.023153163 -0.08958431 -0.04801278 0.04564349 -0.005395817 -0.06015525 -0.019908931 -0.054232247
-0.023363542 0.064477816 -0.013649207 -0.024806025 -0.105940156 -0.0047894535 0.015401366 0.017453944
-0.117990606 -0.030506637 0.012142108 -0.007028553 -0.15289673 -0.122059174 -0.101642355 0.08597021
0.041327227 -0.010977606 -0.13411662 0.09506311 0.03004504 0.020933116 -0.018133609 -0.0080569815
-0.079458944 0.027318474 -0.042032033 -0.07439693 0.04716407 -0.07055843 0.046703085 -0.06981992
00000000: 15e0 1d3d b073 173e d69f 163d d65a d03d
00000010: 481c c03a 8cf2 243d d501 2f3e 23e1 9c3d
00000020: 7efe 7c3e d873 003e 86ee e03b 8d7b 1b3e
00000030: 34e3 c53d 0770 fe3d 880f c63d b60c 3b3e
00000040: 655a 1b3d 27ab 1f3d 97fc 1f3e d56f a43d
00000050: 40c5 0c3e 4029 f1bc c664 b63d 3b92 f33d
00000060: e3cd 053a 0d2e 54bd 9903 38bb 3819 273e
00000070: c157 093e 200c 7dbc 7605 1b3e 4435 3d3e
00000080: f736 443e 8e6f 223d c1a9 433d 3937 253d
00000090: 541a 1c3e c6f6 b33d 0964 0d3b 2987 bd3d
000000a0: 510d b53d 210d d73d e522 2f3e 0807 0e3e
000000b0: d8ea 963d 4990 b2bc ce98 283e 37bd 3f3e
000000c0: 3029 093e 513b 873d d55e e93c 2e24 083d
000000d0: 3e23 9d3c 3b07 5f3d 732f 7a3d 7892 fb3d
000000e0: e5d2 5f3d 23dc b83c 8e64 c33d 4baf 903c
000000f0: 0e34 393d c3f1 023d b3f7 703d cd4b de3d
00000100: f4e4 7b3c 969c e8bb ae14 0d3e 1f0d 22bc
00000110: 50fb ab3d 5440 6d3c 5e16 273c 0a6c 2abd
00000120: 02ca afbc bf5f 0cba b72f c33d e283 253e
00000130: 73b5 27bd a76c e43d a140 f53c f1de b53d
00000140: 20c3 efbc 55c0 173e f41e 923d d294 c23d
00000150: 2001 a03d 4ed1 103d c5ef a23d b124 c73d
00000160: aaa8 143e 2005 e23d c5ee 5a3e 6831 423e
00000170: 11a1 ef3d d00c bc3d c5d5 183e 5688 553e
00000180: b75c d53d 6b77 0c3d 829c 02bc 5462 d73d
00000190: 6249 443e 8e5f 41bd 6d4f d63c 05d8 1e3e
000001a0: f678 1b3d 2efa dc3d fcf7 993c 6452 c33d
000001b0: 88ac 0f3e 6cf9 5e3e 2d14 7b3d 7e5f db3c
000001c0: dfc7 bbbb ebc3 343e 0b8c 423e 11d7 cc3d
000001d0: 8cb8 0c3e 3594 1d3e 11fb f63d f630 c4bb
000001e0: f8dd 683c 4694 3e3d fc83 1f3e bcac f83c
000001f0: 8aab 6a3d 8d8d d23d 0d15 043e 0960 0f3e
00000200: 80cb 9f3d 36ab 7bbc 2b63 6e3d 5762 c2bd
00000210: 0890 26bd f588 99bd 50fe 45ba f88c 57bc
00000220: 0c98 24bc 85a3 67bd 4a61 e03c c0a3 64bb
00000230: db3d e13d 8007 903c b5b6 ccbc b743 28bd
00000240: bf3f 233d 64f6 f03c 1f8a 4abd bb03 aabd
00000250: 4f50 983c 6c64 bbbd eb6e ba3c a4a3 65bc
00000260: 2838 143c 72f8 56bd 5668 21bd 827c 8ebd
00000270: 9e47 afbd 2108 f9bc 7dc2 a3bb d537 62bd
00000280: a4af 91bd 2634 74bc 939d 6dbc 27fe 2c3c
00000290: 5a5f 8cbc fe32 4dbd 5c3b 9dbd a98d e6bd
000002a0: 1cb0 a93d e834 0cbe c15f d3bd 00e7 053d
000002b0: 71f4 dbbd 9b6f e2bd 9cba 063d 5b02 dabc
000002c0: 72ee fabd 91e7 b8bd 92f1 733d 432a 7d3c
000002d0: 2fee 823d c5a0 4cbd 52e9 28bb 180b 503d
000002e0: 2f3d 78bc ce8a edbd aed8 363d 4b5c cbbd
000002f0: 7c8f 94bd 1535 d83b 0867 bdbd c93c 65bd
00000300: 7582 493d 99d3 debc 26be a6bd 22db 69bd
00000310: e5f4 0a3d fc7b d4bd 5f67 4a3c 292f 63bc
00000320: c812 aabc d06a 0cbe 2bfd dbbb d147 92bd
00000330: b06d 4b3c 2092 a43d ce8b 8fbd 86de 5e3d
00000340: d958 8a3d 3516 c0bd 83ef b53d 0c31 953c
00000350: f125 5abd d56f a73d 84e6 2cbc b97e c9bd
00000360: b4ab bd3c fb77 b7bd 0ca9 44bd abf4 3a3d
00000370: 65cf b0bb 5a65 76bd 0e18 a3bc a222 5ebd
00000380: e664 bfbc f20c 843d eca0 5fbc 0136 cbbc
00000390: 27f7 d8bd d9f0 9cbb 0356 7c3c 93fb 8e3c
000003a0: 0fa5 f1bd 0ee9 f9bc b1ef 463c c74f e6bb
000003b0: f690 1cbe 29fa f9bd de29 d0bd 2611 b03d
000003c0: bd46 293d 6bdb 33bc de55 09be 73b0 c23d
000003d0: 0421 f63c ed7b ab3c ef8c 94bc 6e01 04bc
000003e0: 5fbb a2bd feca df3c c829 2cbd 6b5d 98bd
000003f0: 1d2f 413d f080 90bd bc4b 3f3d bffd 8ebd
