logs/fgb_vary_obs/1/actor.pt (torch, 875314 bytes, 17 tensors)

weight_ih f4 [512, 33]
000000 ce d4 1a 3d 47 88 21 3e 90 4f 27 be 6c d3 02 3d
       0.037800603 0.15774642 -0.16338944 0.03193991
000010 15 56 aa bd 8c 1f 94 3c a7 62 2d 3d 24 97 05 3e
       -0.083172 0.018081449 0.04233041 0.13045937
000020 df b5 e7 3d b5 c1 44 3d 6a 7d 65 bd 97 5c b1 bd
       0.11313986 0.048036296 -0.056027807 -0.08660238
000030 0e c1 04 3d 36 07 43 3d ed 5c 04 bd d7 14 f1 3d
       0.032410674 0.0476143 -0.032315183 0.11771553
000040 e8 74 39 3c 0b c9 86 3e cc 0f 24 be be 00 ec bd
       0.0113193765 0.2632526 -0.16021651 -0.11523579
000050 46 1e 8c bd 4c 88 da 3d 6a ee 76 3d 9f 0b 02 3e
       -0.06841712 0.10670528 0.060285963 0.12699746
000060 70 cb 0d 3e 44 b8 0f 3e eb 42 0c 3e 14 52 c0 bd
       0.13847136 0.14035136 0.13697402 -0.09390655
000070 94 9f 67 bc 34 08 2e 3e b6 82 7b 3d 90 c6 0b 3e
       -0.0141371675 0.16995317 0.061403953 0.13649964
000080 56 19 89 bd 2b 3e be 3c 76 1c b3 bb 63 4c ff bc
       -0.066942856 0.023223003 -0.0054660393 -0.031164354
000090 5a 52 3f 3c 15 44 05 3e 41 ef 05 3e 68 c5 8a 3d
       0.011677349 0.13014252 0.1307955 0.067759335
0000a0 58 fa f5 3c 2b 91 ed 3a 82 19 9d bc 13 2c 98 bd
       0.0300266 0.0018124928 -0.019177202 -0.074302815
0000b0 4f ed 5a bd 0f a0 96 bd df 0a d3 3d 17 51 20 3d
       -0.05344897 -0.073547475 0.10304808 0.039139833
0000c0 47 80 3f 3c 94 f5 07 3d 07 58 19 3e 1a e7 e8 3d
       0.011688299 0.033193186 0.14974986 0.11372204
0000d0 b1 5c d3 bb 7c 57 3f 3e 4e 63 37 3e 7a 23 8f 3c
       -0.0064502587 0.18685716 0.17908975 0.017472971
0000e0 17 84 87 3d dc 26 21 3d 79 34 52 bd ea c0 cf 3c
       0.06616991 0.0393437 -0.051319573 0.025360543
0000f0 d5 de c2 3d a8 a9 5b 3e 90 c0 44 3d 32 a1 29 3c
       0.09515158 0.21451437 0.048035204 0.010353373
000100 58 b2 4e bb fc 06 ac 3c cb 61 fd 3c eb 83 99 3d
       -0.0031539407 0.020999424 0.03093042 0.074958645
000110 ad d9 96 3d 85 40 44 3e 48 1a 4c bd a3 ba 42 bc
       0.07365737 0.19165237 -0.04982975 -0.011885318
000120 1d 23 91 3d 32 b1 33 3e b2 a4 2f 3e c5 08 7b 3d
       0.070867755 0.17548063 0.1715267 0.06128766
000130 cd 64 25 bc a4 e0 39 be 44 8c cc 3d b9 73 13 3d
       -0.010094834 -0.181521 0.09987691 0.035999034
000140 34 37 f2 bd ff 64 55 3e b2 8c 87 3d b2 14 b8 bd
       -0.118269354 0.20839308 0.066186324 -0.08988322
000150 3d 66 6b 3d 26 50 0c 38 ca d5 ef 3d c5 a3 e3 bc
       0.05747055 3.3453245e-05 0.11710699 -0.027788052
000160 b2 5f d7 3d 6c 80 7b 3d f2 6a 89 3d d4 18 b9 3d
       0.10516299 0.06140177 0.06709851 0.09037939
000170 6d 9a 57 3c 6a df d6 bc b1 9b 2d 3d d9 2f 16 3d
       0.013159377 -0.026229579 0.042384807 0.036666725
000180 42 9a 26 3e 79 97 75 3d 98 06 a7 bb ec bd 90 bd
       0.16269782 0.05995891 -0.0050972216 -0.07067475
000190 45 b1 61 3e 91 63 4a bd 44 c8 18 3c c7 50 de bd
       0.22040279 -0.04941136 0.009325091 -0.10855251
0001a0 47 9b 2b be b8 f0 6c 3d 99 b1 13 be a9 b6 93 bd
       -0.16758452 0.057846755 -0.14423217 -0.07212574
0001b0 dc 57 89 bd 61 b5 81 3b b5 a9 23 be ba ad 07 3e
       -0.06706211 0.0039583896 -0.15982707 0.13249865
0001c0 b3 84 b5 bc 78 e4 be 3d 6d 9a f6 3d 67 8d 0b bd
       -0.022158002 0.09320921 0.12041173 -0.0340704
0001d0 9d f4 1b 3d 7e 56 39 bd 0c 5f b2 bc a5 34 f3 3b
       0.03807508 -0.0452485 -0.021773838 0.007422047
0001e0 c9 b8 d7 3c 07 35 49 3d 5e 42 87 bc ea fb 49 3c
       0.02633323 0.049122836 -0.016511139 0.012328127
0001f0 88 3a 8e bd 35 90 d1 3c d7 cf 26 bd 78 6a 38 3e
       -0.06944758 0.025581459 -0.040725555 0.18009365
000200 71 50 ba 3d 0d ea c2 3d 00 db b0 3c c4 b8 8c 3c
       0.09097374 0.09517298 0.021588802 0.017177947
000210 61 cc 24 bd 15 a9 10 3e f6 d0 77 3d aa f0 72 bd
       -0.040233973 0.14127 0.060502015 -0.059311546
000220 92 b2 d3 3b 55 b5 2d 3c ad c9 e0 3c 9f 86 23 bc
       0.006460496 0.010602315 0.027439917 -0.009980827
000230 cd 74 02 3e 9f c7 10 bd 0e e6 7f 3c 56 bd d8 bd
       0.12739868 -0.035346624 0.015618814 -0.10582988
000240 94 2a 2d bd 35 b3 0f 3d 9e 57 e1 3c 29 d1 99 3b
       -0.042276934 0.035083015 0.0275076 0.0046941233
000250 49 d1 21 3d b7 89 88 3b d6 b1 24 be 8a 9a 77 be
       0.03950623 0.0041668075 -0.16083464 -0.24180046
000260 bf 7b aa bd f7 f2 6e 3d 9e 80 3e 3e 7e 17 21 3e
       -0.08324384 0.058337178 0.18603751 0.15731618
000270 0f 21 01 bd a3 dd fc bc 27 7b a4 3a 70 dc ab bc
       -0.031525668 -0.030867403 0.0012548909 -0.020979136
000280 f5 a7 c6 3d 5a f8 25 3b 6f 5c 43 3c 18 13 6d be
       0.09700004 0.002532503 0.011923893 -0.23151815
000290 8b db 58 3c 16 56 4b 3d 87 70 fd 3d c2 6e 30 3d
       0.013235937 0.049642645 0.123749785 0.043074377
0002a0 a3 07 c8 bd 93 3a de 39 3f a2 b2 3d 4c b2 5e 3d
       -0.097670816 0.0004238678 0.08722352 0.054369256
0002b0 6f f5 39 3d fb 17 8b 3d 01 2a 72 bd bc 74 14 bd
       0.04540008 0.06791683 -0.05912209 -0.03624414
0002c0 85 71 10 bd 81 8f 1a be b7 6c 11 3e 90 d0 9b bc
       -0.03526451 -0.15093805 0.14201628 -0.019020349
0002d0 71 c4 ac 3d 61 0a 50 bc e0 c8 01 3e 1e d1 9b 3d
       0.08435906 -0.012697787 0.12674284 0.07608245
0002e0 79 42 38 bd 28 a6 8a bc 54 cd 26 3d 92 f0 94 3d
       -0.04498527 -0.016924933 0.04072316 0.07272448
0002f0 11 fd 9d 3c e3 6c 1e 3c a0 26 95 3d 9c d9 31 3d
       0.01928571 0.009669515 0.07282758 0.04342042
000300 38 45 ec bd 2a e8 67 3d ff 7f a3 bd 8a dc 4c bd
       -0.1153664 0.056617893 -0.07983398 -0.05001501
000310 56 5e 2c be 4f 49 11 3d 25 b3 2e bd bf d2 1e 3e
       -0.16832861 0.035470303 -0.042651314 0.15510081
000320 d4 54 48 3d ee 5c 8c 3c 82 50 8d bd 7b 54 c8 bd
       0.048909023 0.017134156 -0.06900121 -0.09781738
000330 74 96 97 3d f5 09 f4 3d 5b 5c 5f 3c e8 54 00 3e
       0.074017435 0.11915962 0.013632859 0.12532389
000340 a5 05 3c bc 24 55 71 bd f1 a0 08 bd 96 c1 86 3d
       -0.011475955 -0.058919087 -0.03335661 0.06579892
000350 06 2d c3 3d 3d 9b 8b 3d 29 2c 51 bd db e3 8e 3a
       0.09530072 0.06816719 -0.051067505 0.0010901646
000360 82 54 63 3b 3e 77 17 be c8 f8 8d 3d 31 7c 97 bd
       0.0034687822 -0.14791581 0.06932217 -0.073967345
000370 c7 78 99 3d 39 b4 09 3e f6 72 12 3c ce 5a 22 3d
       0.074937396 0.13447656 0.008938542 0.03963738
000380 9f d4 d1 3b 59 d9 b6 3b 36 af 4b bb c3 4d dd bc
       0.0064035202 0.005580109 -0.0031079776 -0.027014619
000390 e4 dc 2e 3d e2 6f ec 3b a8 91 48 3c 47 60 c8 3b
       0.042691126 0.007215486 0.012241758 0.006114993
0003a0 c0 a2 02 3e bc 7a c7 3b 30 d1 04 3d 89 80 9c bd
       0.12757397 0.006087629 0.03242606 -0.07641704
0003b0 9f 62 39 3d 6f 55 84 bd 17 a1 57 be 22 3c 96 bb
       0.045260068 -0.06461608 -0.21057545 -0.004584805
0003c0 63 f3 92 3d 40 2d 65 3d e0 bd 77 bd d8 77 6c bd
       0.071753286 0.055951357 -0.060483813 -0.05773148
0003d0 96 ac 26 3d 6b d3 17 be 1d df f0 3d 9c f1 04 bd
       0.040691935 -0.14826743 0.117613055 -0.03245698
0003e0 58 ab 1a 3e 66 87 e5 bd ab 9c ec bd 4d fd af 3c
       0.15104425 -0.11207466 -0.115533195 0.021483088
0003f0 37 e8 56 3d 0b 0c c3 3b 3f 2b 49 bd 75 8d 8b bc
       0.05246755 0.0059523634 -0.04911351 -0.017035225

weight_hh f4 [512, 128]
000000 ac d2 cd bd 94 ab 9e bc ed be d2 3c ad eb b1 3a
       -0.10049948 -0.019368924 0.025725806 0.0013574265
000010 4d 14 c1 bc ff eb 95 bc ad e9 84 3d d1 32 a8 bc
       -0.02356925 -0.018301008 0.064898826 -0.020532044
000020 ab ee d7 bc ea 4b f2 3d 0a 02 02 be fe 85 77 3c
       -0.026358923 0.11830886 -0.1269609 0.01510763
000030 f2 51 82 bd ce f9 a6 3d 11 cd 2e bc 02 0b b3 3c
       -0.06363286 0.08153115 -0.010669009 0.021855835
000040 9a 0a 39 be b7 dd 0b 3d b0 e5 ab 3c b1 d0 c7 3d
       -0.1807045 0.03414699 0.020983547 0.097566016
000050 e0 7a d5 3c c2 67 64 3d 60 54 02 be 35 4a 38 be
       0.026059568 0.055763014 -0.12727499 -0.17997058
000060 4b 3c bf 3d c6 2b 08 3e a6 bf 4a 3b f4 7c 98 3b
       0.09337672 0.13297948 0.0030936985 0.0046535674
000070 7d 08 6f bd bc 24 f2 3d 46 6a 2f 3e 7e fa ba 3c
       -0.058357704 0.11823413 0.17130384 0.022824522
000080 55 b3 f8 bb 40 cd 38 bd 12 1e ad bd f8 81 89 3c
       -0.0075897374 -0.045117617 -0.08453001 0.016785607
000090 6c f3 3d bb 94 65 85 bd d0 4f eb bc 61 31 bf 3d
       -0.0028984202 -0.06513515 -0.028724581 0.0933559
0000a0 dd e8 21 bc 9e 6e f7 bb 50 67 0d be ab d6 d9 bd
       -0.009882179 -0.0075510284 -0.13808942 -0.10636648
0000b0 d0 d8 0b be 97 d2 b2 bd fa af a3 3c d1 1b fc 3b
       -0.13656926 -0.08731573 0.019981373 0.0076937457
0000c0 82 0f 03 be 50 7f 5a be 23 6c f3 3d 77 07 07 bc
       -0.12798885 -0.21337628 0.1188586 -0.008241526
0000d0 2d 79 84 3d 4c c1 7b be 5d cd 1d bd 68 bf 1f 3e
       0.06468425 -0.24585456 -0.038525928 0.1560036
0000e0 6b 47 c8 bc b7 5d e7 bc 26 11 d8 3d 39 7f 90 bc
       -0.024448117 -0.028242929 0.10550146 -0.01763879
0000f0 4d ac 0d be 4a 75 00 be 30 59 f4 bc c2 ca d9 bd
       -0.13835259 -0.12544742 -0.029827684 -0.10634376
000100 da 8e 91 3d 8d 3d 67 3d a3 70 e7 3d 38 25 0e 3d
       0.07107325 0.056455184 0.113007806 0.034703463
000110 46 4f f5 3d 69 dd dc 3d b0 96 69 bd 4e 83 6d 39
       0.11978011 0.10784418 -0.057028472 0.00022650996
000120 14 62 91 bd f2 7f 26 3c 3b 1f 9b 3d 96 0f 09 bd
       -0.07098785 0.0101623405 0.07574316 -0.03346213
000130 20 46 73 bd 0d e4 03 3e 7f 38 d7 3d e0 3c b9 bd
       -0.05939305 0.12879963 0.10508823 -0.09044814
000140 c6 99 81 3e 5f 15 78 bd 5f 79 41 be c5 ca 46 bd
       0.25312632 -0.060567256 -0.18893956 -0.04853322
000150 95 18 86 3d c5 11 0f bc 77 32 85 3d 35 3f 88 3d
       0.065476574 -0.008732264 0.06503766 0.06652681
000160 9f 9b 8d 3d ea 06 a8 3d 14 48 2a be 04 c6 74 3d
       0.06914448 0.08204444 -0.16629058 0.059759155
000170 6c 40 6e bd b8 f8 8e 3c a7 86 1a bd 0d 39 94 3c
       -0.058166906 0.017452583 -0.03772607 0.01809361
000180 01 b9 83 bd 8a a2 9f bc ab 41 a0 3c 8b 1c ad 3d
       -0.06431771 -0.019486684 0.019562563 0.0845271
000190 c2 6b 6a bd ad 9e 2c 3d 9b db 00 3d 71 bd 87 bd
       -0.057231672 0.042143513 0.031459432 -0.0662793
0001a0 bb f5 3e be 3c e1 5e 3c 7a 10 0b bc 8e 50 50 3d
       -0.18648426 0.013603505 -0.008487815 0.050858073
0001b0 7f f2 0f be 90 6b ec 3c de 2d cc 3d 4f 7f 43 3d
       -0.14057349 0.028859884 0.09969686 0.047728833
0001c0 01 94 78 3d 83 c8 0d bd eb 87 3e bd bf a1 6e bb
       0.060688023 -0.03461505 -0.04651634 -0.0036412326
0001d0 1c 95 93 bd 22 44 b2 bd 79 ea 6e bd 23 75 96 3d
       -0.07206175 -0.087044016 -0.05832908 0.07346561
0001e0 dd 76 5d 3c b2 fb 7c bd fe ab 8d bd 9e 06 28 bc
       0.013517109 -0.061763473 -0.069175705 -0.010255484
0001f0 c3 b0 1f 3d a3 99 3d 3e 63 fe 7c 3d c4 a9 81 3e
       0.038986932 0.18515639 0.06176604 0.25324833
000200 30 32 83 b9 ec 3f e6 3d 17 83 05 3d 15 ac bf 3c
       -0.0002502366 0.11242661 0.03259572 0.023397485
000210 a4 11 b2 3d 93 2a c1 bd 11 b9 01 3d 4c 36 e8 3d
       0.08694771 -0.094319485 0.031670634 0.11338481
000220 1a 0f 53 3d fb d4 60 bc af ca 93 3c c5 b7 b3 bd
       0.051528074 -0.0137226535 0.018040983 -0.08775286
000230 93 1e df 3c 8d 29 ce 3b f2 4d 76 3d d3 7b 56 bd
       0.027236259 0.0062915743 0.06013293 -0.05236418
000240 34 19 83 bd b5 c8 21 bd 9b d2 7a bd 7f 62 5a bd
       -0.064012915 -0.03949805 -0.061236005 -0.05331659
000250 39 a6 ea bb 46 ab 71 bd c9 63 e6 bd 6a 8d 35 be
       -0.0071609286 -0.05900123 -0.11249501 -0.17729726
000260 f4 e6 fa 3d 54 72 93 3d f7 94 e3 bd 42 28 8c 3d
       0.12251082 0.07199541 -0.11112397 0.06843616
000270 75 b1 9c 3c 61 53 2c bd 93 90 2f 3d e6 48 82 bc
       0.019127587 -0.042071704 0.042862486 -0.015903901
000280 16 04 1f bd d2 96 60 3c 8f 5a e2 bc 48 8b de 3c
       -0.038822256 0.013707833 -0.027631072 0.027166024
000290 ff 43 c5 bd d3 e3 09 bc 8f 47 32 bd 8e 31 a9 3d
       -0.0963211 -0.008416134 -0.043525275 0.08261405
0002a0 36 45 1b bd c6 5b bb bd 2d 46 0c be 02 f2 2d 3d
       -0.0379078 -0.09148364 -0.13698645 0.042467125
0002b0 dc 67 fc bd 4d 75 b7 3c 72 21 66 3a 38 fe b9 bc
       -0.12324497 0.0223948 0.00087787875 -0.022704229
0002c0 6f 56 26 be 8a 75 ff bc 48 68 db 3d d1 a5 52 bd
       -0.1624391 -0.031183977 0.107132494 -0.051427666
0002d0 ed 07 9f bd a3 2f 03 3d 7f 68 8e 3d a6 8e 5e bd
       -0.077651836 0.03202785 0.06953525 -0.05433526
0002e0 40 4a ad bd 57 b0 16 3e 02 42 13 bd cb dc 8a 3d
       -0.08461428 0.14715706 -0.03595162 0.06780394
0002f0 a1 38 a6 bd 97 34 94 bc ce 9b 01 3d 5d b5 1d bd
       -0.0811627 -0.018091483 0.031642728 -0.03850304
000300 c6 99 bb 3c 2f e4 06 3d 27 67 1e 3c 37 74 5d bc
       0.022900473 0.032932457 0.009668148 -0.013516477
000310 91 d9 1a 3b 2a 54 e9 3d 80 0e 00 3c 2b a6 04 3c
       0.0023628215 0.11393006 0.007815957 0.008096258
000320 c5 35 e1 bb 0e 3c a4 3c c2 3b a0 bd 64 4a 57 3c
       -0.006872865 0.020048168 -0.07823898 0.013140295
000330 94 71 ce bc b6 dd af 3d 22 ed 1b 3d 52 2b e9 bd
       -0.025200643 0.0858721 0.038067944 -0.11385216
000340 40 5a b0 3c 8b a9 8f 3d a0 08 a2 bd 56 a1 b7 bd
       0.02152741 0.0701476 -0.07911801 -0.08966319
000350 41 a7 5f bd 00 8d 99 3d ec 01 cd bd 75 7d cf 3d
       -0.054602865 0.07497597 -0.10010132 0.10131351
000360 68 76 77 3d 3c 69 0a 3a b6 6a 05 be 2d 8e 5f bd
       0.060415655 0.00052799634 -0.13028988 -0.05457895
000370 2c 9a 76 bd 00 24 9f 3d cd 96 c0 bd 86 f5 83 3d
       -0.060205624 0.07770538 -0.09403763 0.06443314
000380 2d 72 c2 bc f7 e0 13 3d 11 ab 9d bd 31 b0 e4 3d
       -0.023736084 0.036103215 -0.07698644 0.11166418
000390 3c 83 86 bd d6 7e da 3c e4 e5 c7 bd 42 f0 ee bd
       -0.06568 0.026671808 -0.09760645 -0.11666919
0003a0 1f 8e 67 bd 0d f7 f4 3d ba 24 a4 bd 5a 2f ff 3c
       -0.05653202 0.11961184 -0.080148175 0.031150509
0003b0 c5 6f b4 bd d2 07 bd 3d 56 0b 3a 3d 8f 01 03 bd
       -0.08810381 0.09230007 0.045420967 -0.03198391
0003c0 96 65 da 3c a3 7b 03 be 1d 76 a2 3c 23 40 c0 3d
       0.026659768 -0.12840132 0.019831711 0.09387233
0003d0 ed a1 48 3b 06 b3 d4 bd 98 32 2e 3d 9d d8 56 3d
       0.0030614093 -0.103857085 0.04252872 0.052452672
0003e0 3f 09 06 3d 67 36 8e bc 91 34 9c bd 7b d8 ca bc
       0.03272366 -0.017359925 -0.07627214 -0.024761429
0003f0 c8 03 c4 3d 3d ee 27 3d 29 dc ab bc 16 04 86 bd
       0.09571034 0.040998686 -0.020979004 -0.06543748

bias_ih f4 [512]
000000 da a4 15 3e aa 4c 06 3e 1b 08 b6 3d 57 34 79 3e
       0.14613667 0.13115183 0.08888265 0.24336372
000010 c6 7c 43 3e 3c cf 58 3e 02 67 93 3d 30 34 f9 3d
       0.19090566 0.21172804 0.071973816 0.12168157
000020 dd e2 f2 3c 6e eb 08 3e 6e c6 ae 3c c0 26 e5 3d
       0.029649192 0.1337106 0.021334853 0.111890316
000030 7e 40 22 3e 16 9d 77 3c 6e 22 d8 3d 7a e1 ca 3c
       0.15844914 0.015113136 0.10553442 0.024765719
000040 ec 20 88 3d 9a e4 a1 3d dc 9e 2a 3d ec c7 ec 3d
       0.06646904 0.079049304 0.041655406 0.115615696
000050 5e f2 31 bd d7 55 6b 3c 50 7a 4a 3e fa bc c0 3c
       -0.04344403 0.0143637275 0.19773221 0.023527611
000060 b7 28 bc 3d 20 99 bf 3d 75 58 83 3d d4 9a 34 3c
       0.09187453 0.09355378 0.06413356 0.011023242
000070 06 f9 32 3e 33 6b e0 3d 10 a5 77 3d 5b 6f 1c 3e
       0.17477807 0.10957947 0.06046015 0.15276854
000080 cf ae 98 3a d7 1a 37 3d 81 0a 66 3e 3b 72 ea 3d
       0.0011648777 0.04470333 0.22464944 0.11447569
000090 30 df f9 39 ad 72 9f 3d 90 55 59 3e 8c c4 d4 3d
       0.0004765927 0.077855445 0.21224046 0.10389051
0000a0 33 c1 80 3d 12 8d a0 3c 15 cd 04 3d 40 88 f0 3d
       0.0628685 0.019598518 0.032422144 0.117447376
0000b0 a4 7b 26 3e ca 97 c8 3d b0 a7 2f 3e 9b 7b 87 bc
       0.16258103 0.097945765 0.17153811 -0.016538432
0000c0 fc fd 41 3d bf 8a 25 3d 70 45 ee 3d 4f c3 c6 3d
       0.04736136 0.04041552 0.11634338 0.09705221
0000d0 aa a9 9b 3d b2 cf 8b 3d 5c be bc 3b 7b a2 3e 3e
       0.0760072 0.06826724 0.0057599973 0.18616669
0000e0 75 b9 c4 3c 99 49 f5 3d b4 7b cb 3d 83 44 88 3d
       0.024014214 0.11976928 0.09935704 0.066536926
0000f0 e4 95 33 3e 71 09 40 3e 2e 95 eb 3d 14 fc ae 3d
       0.17537647 0.18753602 0.11503063 0.08544174
000100 22 e3 c6 3d b2 1d 5c 3c 3a 72 b1 3d c5 ec cf 3d
       0.09711291 0.013434814 0.08664365 0.10152582
000110 e1 b7 6e 3d 31 5f 0c 3e ab 47 6c 3d 42 47 6d 3d
       0.05828083 0.13708188 0.057685535 0.057929285
000120 d1 05 29 3d c8 20 a9 3c 06 d8 9d 3d e4 7d de 3d
       0.041265313 0.020645514 0.07707219 0.108638555
000130 02 69 18 3e a3 72 08 3d 59 dd 9f 3d 48 d4 2b 3e
       0.14883807 0.03331245 0.078058906 0.16780198
000140 8c a2 8d 3d fa 6e 3d 3e 83 87 5c 3d df 2f 30 3d
       0.06915769 0.18499365 0.05384017 0.043014403
000150 68 00 1b 3e 74 03 67 3e 09 1f 27 bd d8 21 f6 3d
       0.15136874 0.22559911 -0.04080108 0.12018174
000160 69 42 88 3d 18 b6 fe 3d 3e d9 da 3d f6 68 09 bd
       0.06653292 0.124370754 0.10685967 -0.033547364
000170 b3 52 74 3e 73 17 76 3d 20 21 a7 3d d1 7c 52 3d
       0.23859672 0.060080957 0.08160615 0.051388565
000180 88 db 4a 3e 74 75 10 3e 50 d8 16 3e 1c 08 b7 3d
       0.19810307 0.14107305 0.14730954 0.089370936
000190 74 af cc 3a 12 46 2b 3e aa ee d9 3d ba f6 ef 3d
       0.0015616254 0.16725948 0.10641225 0.11716981
0001a0 d6 b0 76 3c c4 7b 35 3e 99 7d 04 3e 73 04 45 3d
       0.015056809 0.17722994 0.12938537 0.048099946
0001b0 8e d5 e9 3d 6f 70 6f 3d 8d 21 0f 3e 66 d7 49 3d
       0.114176854 0.058456834 0.13977642 0.049277686
0001c0 b9 02 17 3e 08 4e b6 3b 29 45 8c 3d 3a 51 8a 3d
       0.14747132 0.0055635013 0.06849129 0.06753774
0001d0 02 f8 ae 3d 5f 02 ee 3d e6 fe f4 3d b2 c3 92 3d
       0.085433975 0.11621546 0.119626805 0.07166232
0001e0 d9 78 02 3c e0 af 26 3b 83 82 43 3e 55 a6 06 3d
       0.007963383 0.002543442 0.19092755 0.03287347
0001f0 31 5c dc 3d 6e fa b9 3d a6 28 4e 3d c2 42 23 3d
       0.107597716 0.09080969 0.050331734 0.039858587
000200 09 68 b4 3c 58 fc 05 bd 36 56 aa bb 46 a3 46 3d
       0.022022264 -0.032711357 -0.0051982654 0.048495553
000210 2d e6 8e bc 90 79 de 3c e9 99 af bd 18 42 a5 3d
       -0.01744374 0.027157575 -0.08574278 0.08069247
000220 94 4d 35 3d f7 7c a4 bb 43 8d 51 bd 6b 52 06 bd
       0.044263437 -0.00501978 -0.05116011 -0.032793444
000230 a5 cb 29 3d a5 01 d2 bb 4d 22 77 bc 1a a7 d2 bc
       0.041453976 -0.0064088874 -0.015083862 -0.025714446
000240 a0 0a 52 bc 86 6b 95 3c f8 fa b5 bd 65 a8 96 3c
       -0.012819916 0.018239748 -0.08885759 0.018390844
000250 e0 3a 92 bd de 57 51 3d fb 22 8c 3d 94 9f c6 3d
       -0.07140136 0.051109187 0.068426095 0.09698406
000260 c3 8b bb 3d 21 5e 53 bd d6 9c f6 3d fb 83 84 bd
       0.09157517 -0.05160344 0.12041633 -0.06470486
000270 b6 c2 10 bd 2c 86 8e bc 78 12 54 3d c1 c6 72 3d
       -0.03534194 -0.017397963 0.051775426 0.059271578
000280 08 c3 35 3d 0b bf 9d 3d fa 32 87 bc 09 26 92 bd
       0.04437545 0.07702454 -0.0165038 -0.07136161
000290 61 86 53 3c 20 4e 4c 3d 70 4c b1 3d b6 9c 85 bd
       0.012910456 0.049879193 0.086571574 -0.06524031
0002a0 bb e9 6f bb 40 df 64 3c 04 6d bb 3d 84 ef a1 bc
       -0.003660782 0.013969243 0.091516525 -0.01976753
0002b0 ee a8 d1 3d 8d ee fd bb ff d7 b1 3d d7 13 36 bd
       0.10237299 -0.0077493847 0.08683776 -0.044452514
0002c0 2e a6 08 3d e4 70 d2 3d 8e 4a 26 3d e4 fc 10 3e
       0.033361606 0.102754384 0.040598445 0.1415897
0002d0 68 bd 8d 3d e7 6a ce bc bd 15 bd bc cf cf aa bc
       0.06920892 -0.02519746 -0.023081655 -0.020851044
0002e0 63 27 8f bd 28 99 2e bc a8 eb b9 bc 32 a2 bd bd
       -0.06989934 -0.0106566325 -0.022695377 -0.09259452
0002f0 55 81 cd 3c c7 1f 20 3d 36 2d dd 3c 39 45 04 3e
       0.025086084 0.039092805 0.026999097 0.12917031
000300 2a ee 4c 3d c9 c2 3d 3d 75 52 dc 3c 11 0a ae bc
       0.05003182 0.04632834 0.026894787 -0.021245034
000310 a7 b3 c0 ba 89 15 b2 3c 02 ae e3 3c a8 6b 28 3d
       -0.0014701978 0.021738784 0.027792934 0.041118294
000320 3d cc a5 bd 84 6b 56 3d 32 9a 5e bd c2 fc 24 3d
       -0.08095596 0.05234863 -0.05434627 0.04028011
000330 60 1e 30 bd ea b7 9f bd 45 9f 29 3d 21 b0 c9 bc
       -0.042997718 -0.07798751 0.041411657 -0.024620118
000340 c2 d3 5b 3d d6 5d bf bd 6a 20 4d 3d e6 f7 7b bb
       0.053668745 -0.0934407 0.05007974 -0.003844732
000350 ca a4 c3 3d f3 9a df bc 8a 0c b2 3d c4 67 de 3c
       0.095529154 -0.027295565 0.08693798 0.027149089
000360 b3 3d 5c 3d 9a e3 99 3d 73 26 82 bd ac ef 32 3d
       0.05376978 0.07514115 -0.0635499 0.0436856
000370 7b fc 2a bd 28 e3 4b 3d a7 e5 a6 3d a0 f7 98 3a
       -0.04174469 0.04977718 0.081492715 0.0011670478
000380 c6 3f b9 3c 5c 3e 36 3d e3 1b ed 3d 32 c8 d1 3d
       0.022613417 0.044493064 0.115775846 0.10243262
000390 08 17 68 3d 1c 1a 9b 3c 06 ea 1e bc 42 e7 0e 3d
       0.05666259 0.018933348 -0.00969935 0.034888513
0003a0 55 a4 6a bd 89 5b e1 bc bc 67 a7 3d 79 25 9c bc
       -0.057285625 -0.027509468 0.08174083 -0.019060837
0003b0 e5 1d 49 3d b2 92 48 bd 92 a7 95 3d c0 17 8e bc
       0.049100775 -0.048968025 0.07307352 -0.01734531
0003c0 9b 75 96 3c a7 27 92 3d b3 13 86 3d 7e 87 8b bd
       0.018366626 0.07136469 0.06546726 -0.068129525
0003d0 32 e5 48 bc 17 54 8b 3d 15 17 a5 3d af 19 66 3d
       -0.012261676 0.06803148 0.08061043 0.056176838
0003e0 4b ca 94 bc 0c 53 f5 3c 1f 24 a9 bd 86 17 04 bc
       -0.018162867 0.029946826 -0.08258843 -0.008062249
0003f0 52 fe 95 bd 3d 0e 8d bd 28 64 3a 3d 56 80 02 bd
       -0.073238984 -0.06887481 0.045505673 -0.031860672

bias_hh f4 [512]
000000 fc e4 10 3e d4 15 86 3d fc 0e 24 3e cf 14 6f 3e
       0.1414985 0.06547132 0.16021341 0.23347782
000010 64 44 21 3e da 67 12 3e 1a eb 3b 3e 8c 3f c0 3d
       0.15748745 0.14297429 0.18351403 0.093871206
000020 50 e9 e9 bb c1 63 21 3d 2f bf a8 3d 5e b8 d2 3d
       -0.0071384087 0.039401773 0.082395904 0.102890715
000030 10 ee 61 3e 21 5f a8 3d 16 62 03 3e 7a 10 b3 3c
       0.2206347 0.082212694 0.12830386 0.021858443
000040 8a a4 c9 bc 19 23 05 3e 04 cb f1 3c f5 fa 20 3e
       -0.024614591 0.1300167 0.02951575 0.15720733
000050 7e ae 11 3d 7b 9b 09 3e 16 74 32 3e f8 92 1d 3d
       0.0355668 0.13438217 0.17427096 0.03847024
000060 04 48 6f 3b 1d cf 12 3e 2b 3f 35 3e dc 30 3f 3d
       0.003651143 0.1433682 0.17699878 0.046677455
000070 2c 9d 32 3d 35 df f3 3d 4e 6d 03 3e e3 14 a6 3d
       0.043606922 0.11907808 0.12834665 0.081094526
000080 fb 6b 58 3d 0a 89 50 3e e1 dc 70 3e 9e 5b fc bb
       0.052837353 0.20364776 0.23521759 -0.0077013513
000090 e2 79 0f 3c 4d 0a ab 3d 90 e9 1c 3e 85 94 2d 3e
       0.0087570865 0.08351574 0.15323472 0.16951187
0000a0 dd cf fb 3c b1 53 b1 3d 73 03 f3 3c 48 ea bc 3d
       0.030738765 0.08658541 0.02966473 0.09224373
0000b0 36 4c be 3d a4 30 b8 3d 0d a5 52 3d 81 0c 1c 3d
       0.0929188 0.089936525 0.051426936 0.038097862
0000c0 73 8a 24 3e 75 12 29 3d 8c 13 5f 3c 5b f8 13 3e
       0.16068439 0.041277368 0.0136155 0.14450209
0000d0 58 f5 d0 3c f5 9b a8 3c 56 72 23 3c e3 2b 61 3d
       0.025507614 0.020582179 0.00997599 0.054973494
0000e0 8c b9 d5 3d 44 ff 2b 3e 1f 36 ea bc 19 c3 e0 3d
       0.10435781 0.16796595 -0.02859026 0.10974712
0000f0 64 7f 13 3e 52 65 15 3e a2 cd 70 3d bc 33 14 3e
       0.14404064 0.14589432 0.058789857 0.1447286
000100 dc 91 46 3e 6e c2 69 3d fc 7c b4 3d bd 27 dc 3d
       0.19391578 0.05707019 0.088129014 0.10749767
000110 42 6c 70 3c 05 a2 5d 3d 19 2b 21 3e d2 ed 0f 3d
       0.014674248 0.054109592 0.15739097 0.035138912
000120 4d 5b 87 3d eb 9b 91 3d 47 d7 5e 3e 84 de 90 3d
       0.06609211 0.07109817 0.2176181 0.070736915
000130 aa 23 2e 3e db 93 ae 3c d0 eb 0d 3e e5 d9 b0 3d
       0.17005792 0.021310737 0.13859487 0.0863531
000140 53 e3 11 3e 0e 47 4c 3e aa 61 ea 3d f5 12 6b 3d
       0.14246874 0.1994898 0.11444409 0.057391126
000150 90 a4 2a 3e 36 30 6f 3e 49 de 2d 3d 31 a4 17 3e
       0.16664338 0.23358235 0.042448316 0.14808728
000160 f3 da 05 3e b3 d0 d1 3d f7 6d 0d 3d 76 1f 0b 3c
       0.13071804 0.10244884 0.0345287 0.008491388
000170 e5 cd d3 3d 11 d4 7a bc 3f 82 91 3b e1 35 36 3d
       0.10342006 -0.01530935 0.0044405754 0.044484977
000180 82 32 49 3e 49 33 76 3d e6 27 83 3d 6b d1 23 3d
       0.19648173 0.060107503 0.064040944 0.03999464
000190 90 b1 fd 3d 04 c3 23 3e 56 db 07 3e 93 29 f4 3c
       0.12387383 0.15992361 0.13267264 0.02980498
0001a0 02 95 de 3d a2 71 ca 3d 1c 08 db 3c 30 8c bc 3d
       0.10868265 0.09884955 0.026737265 0.09206426
0001b0 73 89 3d 3e 9e 23 fe 3c 5b c5 93 3b 8c 32 69 3d
       0.18509464 0.031022843 0.0045096106 0.05693297
0001c0 3e a1 75 3d 60 3a e8 3d 08 6a 1e 3e 3b db 2b 3e
       0.059968226 0.11339259 0.15470135 0.16782849
0001d0 f7 a0 10 3e 43 4c 50 3d a0 6f 8a 3d a2 92 c6 3d
       0.14123903 0.05085398 0.06759572 0.09695937
0001e0 20 9a 3c 3d 61 d9 9c bc b9 5b a4 3d ad 29 38 3d
       0.046045423 -0.019146623 0.08025307 0.04496162
0001f0 0f 42 d5 3d 90 5a 76 3d cd af a3 3d 4e ed 0d 3e
       0.1041299 0.06014496 0.07992516 0.13860056
000200 d7 19 b2 bd 47 36 e0 3d 42 f5 b5 3d 2c 3c 56 bd
       -0.08696335 0.109478526 0.0888467 -0.052303478
000210 61 cf b7 bb d1 92 50 bd 0e 01 50 bd d0 6b 9d 3c
       -0.0056094383 -0.050921265 -0.050782256 0.019216448
000220 47 a5 bd 3c 9c 38 de bd f9 2c 4d bd da d4 8b bd
       0.0231501 -0.10850641 -0.050091717 -0.068277076
000230 a3 66 80 3b 76 47 73 3c 2b dc 50 bd 92 29 6a bd
       0.0039184853 0.014848581 -0.05099122 -0.05716855
000240 e6 5b 18 bd 29 d3 08 bc 26 c5 50 3d b9 58 13 3d
       -0.037197016 -0.008351126 0.050969265 0.035973284
000250 e3 e4 d9 3b f2 f7 48 3d 51 9a fe bc 78 92 52 bc
       0.0066496 0.049064584 -0.031079443 -0.012852304
000260 80 81 18 3d 87 71 c9 3d c2 c2 23 bd 8e e2 89 bc
       0.037232876 0.09836107 -0.039980657 -0.016831663
000270 f2 6d ec 3d 30 82 e2 3c b0 b7 84 bb ff e1 cd bd
       0.11544408 0.027649969 -0.0040502176 -0.10052871
000280 91 36 88 bd aa 0d 6f 3d ca d2 0c 3d 2b 5d 84 3d
       -0.06651033 0.05836264 0.03438071 0.06463083
000290 9b 4c 1e 3d 96 a7 8a 3d 1c 75 e5 3d be 84 34 3d
       0.038647275 0.06770246 0.112039775 0.044071905
0002a0 2c d0 a2 bc 13 fc ce 3c 8b a5 54 bd 32 af 10 bd
       -0.019874655 0.025266683 -0.051915687 -0.03532333
0002b0 91 d4 0c bb 17 03 ea 3d 6e 38 f0 3c ea db e8 bb
       -0.0021489004 0.114263706 0.029323783 -0.007106294
0002c0 33 00 ae 3c f8 65 bb 3d 18 7e 83 3c 10 9f 29 3b
       0.02124033 0.09150308 0.016051337 0.0025882162
0002d0 df fe 30 3c 2e 2e 50 bd 57 e8 30 bd e0 30 97 bd
       0.0108029535 -0.05082529 -0.043190327 -0.07382369
0002e0 b5 86 03 3c c2 46 e6 bc 1c 33 82 bd c0 c6 0c bd
       0.008027722 -0.028109912 -0.063574046 -0.03436923
0002f0 a2 31 40 bd db 9b 53 3c 42 c0 1a 3d c8 2c f5 bc
       -0.046922334 0.012915577 0.037781008 -0.02992858
000300 78 8a b6 3b 46 43 d7 3d 4d 17 a2 3d b9 73 c2 bc
       0.005570706 0.10510878 0.079146005 -0.023736821
000310 74 91 69 3d 71 78 b5 3d ef 6e 2f 3d 61 0b 89 3d
       0.05702348 0.08860863 0.042830404 0.066916235
000320 4a c4 22 bd 9a 57 49 3d 20 d1 3c 3d e8 cd 2d 3d
       -0.039737977 0.04915581 0.046097875 0.042432696
000330 b6 b3 59 3d 43 f2 66 3d ad a0 1b 3d 3b 5e 08 3d
       0.0531499 0.056383383 0.03799503 0.03329299
000340 3e 5c 1e bd a2 d1 1e bd 4c 78 44 3d fa c9 d1 3c
       -0.038662188 -0.03877414 0.047966287 0.025609005
000350 05 6a 84 3d 10 fd 1e 3d 12 df b0 3d 7d db ae 3d
       0.06465534 0.038815558 0.08636297 0.08537958
000360 87 79 08 bd 91 34 12 3e 28 f9 55 3b 14 64 6c bd
       -0.033319023 0.14277865 0.003264973 -0.05771263
000370 a7 a4 99 3d fe 66 86 bd f3 7d e4 3d 93 7b 5e 3c
       0.07502108 -0.06562613 0.111568354 0.013579267
000380 61 b9 63 bd 1a ef 63 3d 7e a8 74 3c 43 08 35 bd
       -0.055596713 0.055647947 0.01493275 -0.044197332
000390 a3 08 94 3d dd 37 87 bd 74 cb af 3c 1b 77 9d 3d
       0.0722821 -0.06602452 0.021459319 0.07688733
0003a0 19 af 2d 3d 59 c9 f7 3c 9f 1d 79 3d e5 8a fb bc
       0.042403314 0.030247377 0.060819265 -0.030705879
0003b0 42 09 d3 bc a0 9c 11 3d 8e ac d6 3d 1c 75 2e bc
       -0.02576125 0.03554976 0.10482131 -0.010648038
0003c0 5d 2c e6 3c dd 7f 2a bd 2f 71 ac 3b f8 a0 40 bd
       0.028097326 -0.041625846 0.005262516 -0.04702851
0003d0 ef be ff 3d ff f5 fc 3d 73 93 0e 3d 94 b2 99 3d
       0.124875896 0.123516075 0.034808587 0.07504764
0003e0 74 97 17 3d 3c 4b 3b 3c 5f fd 7a bd c3 f3 3f 3d
       0.03700967 0.0114315115 -0.06127679 0.04686333
0003f0 66 58 da 3c 1d a0 2b ba fd 1b 6b 3c 5a 4e 84 3d
       0.02665348 -0.0006546991 0.014349935 0.06460257

weight_ih f4 [512, 128]
000000 09 1a 31 3b f4 0b 89 3d 1f 09 c8 3d 2d cd 95 3c
       0.0027023575 0.06691733 0.09767365 0.018286312
000010 ba 39 16 3b 55 89 ca 3d a2 01 01 bd c0 ec 85 3d
       0.0022922591 0.09889475 -0.031495698 0.06539297
000020 fb b3 16 bd 92 c9 ff 3c 1c bf 05 be 97 b7 66 bd
       -0.036792737 0.031224046 -0.13061184 -0.05632743
000030 50 bf 4d bc 51 48 64 bd ff 44 b2 bd 59 c1 c6 3d
       -0.0125578195 -0.05573303 -0.08704566 0.09704847
000040 f5 65 9d bc 4f 86 9b bc ea 71 9e 3d 9d cb 37 bd
       -0.019213656 -0.018984942 0.07736571 -0.044871915
000050 43 02 5e bd 65 ce 3b bd a5 44 aa 3d 0e 91 31 3d
       -0.054201376 -0.04585113 0.08313874 0.043351226
000060 98 48 59 bd d4 ee 80 bd 40 4c 3d bd b0 17 48 3d
       -0.053047746 -0.06295553 -0.046215296 0.048850715
000070 1f 0b 5d 3d 1b 18 97 3d c6 4f 96 3d 9b 6e 54 bc
       0.053965684 0.07377645 0.07339434 -0.0129658235
000080 e6 07 ef 3c b9 98 86 3c 63 07 8d bd 95 25 9f bd
       0.029178571 0.016430246 -0.068861745 -0.0777084
000090 b6 18 d5 3d 4a 83 89 bd c2 76 98 bc f8 f8 00 bd
       0.10405104 -0.067144945 -0.018611316 -0.031487435
0000a0 32 f4 8d bc 0d fb d0 bc 48 bc f3 3b c9 5a 01 3e
       -0.017328355 -0.025510335 0.0074382164 0.12632288
0000b0 9d b2 28 bc 8d ca 5f 3d c7 45 39 3c 19 72 38 bc
       -0.010296491 0.054636527 0.01130814 -0.011257672
0000c0 9d 88 8e 3c f6 ce 9a bd d6 8f a1 3d a9 4d ac 3d
       0.017399127 -0.07559006 0.07888763 0.0841325
0000d0 bc 7b 90 3c cf 77 45 bc fc 65 d2 3b 77 53 12 3d
       0.017637126 -0.01205249 0.006420849 0.03572413
0000e0 d5 7d 89 3c a3 14 56 3d ab 73 9f bd 4a 76 1b 3e
       0.016783634 0.052265774 -0.07785734 0.15181842
0000f0 25 7b 2e bd 08 43 e3 bb 0b 24 00 3e 1c 50 92 3d
       -0.04259791 -0.006935481 0.1251375 0.07144186
000100 90 7d f9 bc f3 0d 6c bb 60 59 45 bd 75 d8 cf 3d
       -0.03045538 -0.0036019057 -0.048180938 0.10148708
000110 62 06 06 3e a4 52 af 3d 15 ba f3 3d dd 27 cc bd
       0.13088372 0.08560684 0.11900727 -0.09968541
000120 63 05 07 3d a0 98 03 bd ff 74 90 3d a3 3d 49 bd
       0.03296412 -0.032127976 0.07053565 -0.049131047
000130 7e 1f 1a 3c 14 7e 6b bc d1 5f bb bc 6b 79 6b bd
       0.009406922 -0.014373321 -0.022872837 -0.05748884
000140 b8 6a 75 3d 61 01 d4 3c be f6 13 bd b4 71 79 bb
       0.059916228 0.025879564 -0.036123984 -0.0038062157
000150 97 be 52 3d 7e ab 23 3d 91 e4 8c bc 2b 1b 1e bd
       0.051451292 0.03995847 -0.017198833 -0.03860013
000160 90 6c 16 bc e8 af b2 3d 28 ba b2 3c 1d 0a 47 bd
       -0.009181157 0.08724958 0.021817282 -0.04859363
000170 64 7e a3 3d fe 8c 7b 3d 78 d5 27 3c bf 5e 77 3d
       0.079830915 0.061413758 0.010243766 0.06039309
000180 12 32 d4 bd 17 d7 aa bd 77 85 01 bd 51 11 c1 bb
       -0.10361113 -0.083418064 -0.031621423 -0.005891957
000190 7c 6a ea bd d8 bc c5 3c bb 11 0f bd 94 9e 92 ba
       -0.114460915 0.0241379 -0.03492902 -0.0011186176
0001a0 2f 44 81 bd ef 45 5c bd 64 a1 b4 3b 3c e7 28 ba
       -0.06311833 -0.05377763 0.0055124033 -0.0006443148
0001b0 75 1d a9 3d 2c 92 7f bd b0 24 8b bc 04 c1 99 3c
       0.082575716 -0.06239526 -0.016985267 0.018768795
0001c0 30 41 98 3c 02 92 be bd 83 92 67 3c 31 14 2c 3c
       0.018585771 -0.093051925 0.014134052 0.010502861
0001d0 8c ad e4 bd 5a 48 9a bd a7 95 d4 bc c2 35 ad bb
       -0.11165914 -0.07533331 -0.025950266 -0.0052859494
0001e0 75 3e 82 3c ad f3 26 bd ba 3d d7 3c c5 43 47 3d
       0.015898922 -0.04075973 0.02627455 0.048648614
0001f0 5a 76 66 bd 7b 52 76 bd fc 9d 07 bd d1 8e 99 3d
       -0.056265213 -0.060137253 -0.03310965 0.07497943
000200 c4 88 96 3c 65 92 af 3d f9 29 1e 3e d3 fe 71 3b
       0.018375762 0.085728444 0.15445699 0.0036925569
000210 19 e8 4a bd a7 4c 3e 3d 8f 86 12 3e e9 c7 0e 3e
       -0.04953775 0.04645982 0.14309143 0.13943447
000220 22 71 82 bb 12 5a 4a bc d6 82 04 be 51 65 e6 bb
       -0.0039807716 -0.012350576 -0.12940535 -0.007031121
000230 f0 63 cc 3d 7a 31 33 3d 1e 1e a1 3d 18 79 ff 3d
       0.09979999 0.043748356 0.078670725 0.12474269
000240 3a 90 ee 3d e0 b7 33 3e 86 0f 2e bd 37 f1 84 3c
       0.11648603 0.17550611 -0.042495273 0.016228301
000250 3a bb 71 3d 9a 0d 4a 3d bb 07 49 bc b7 84 d9 3c
       0.059016444 0.049329378 -0.0122699095 0.026552541
000260 32 16 af bb 32 4c c1 bb 00 e2 b3 bd 07 2b b1 bd
       -0.005343222 -0.005898976 -0.087833405 -0.08650785
000270 75 8c cb bb 10 7e 06 3e ab d4 d1 3d 38 28 c2 bb
       -0.006211812 0.13134027 0.10245641 -0.0059252046
000280 73 14 49 bc 03 28 69 bc ea a9 e0 3c 10 7b 7b bd
       -0.012272942 -0.014230731 0.027424771 -0.06139666
000290 fa 49 92 bd 89 9c 8d bd 61 80 48 3e a8 2f 90 3d
       -0.07143016 -0.06914622 0.19580223 0.0704034
0002a0 85 6f 27 bd 40 31 a8 bb 18 27 13 3a 43 37 3b 3c
       -0.040877838 -0.005132824 0.00056134304 0.01142675
0002b0 b3 de bb bd 71 82 e3 3d 0a ed fd 3c 59 b2 7c bc
       -0.09173336 0.11108864 0.030996818 -0.015423381
0002c0 c1 60 00 be 02 67 29 bd f8 c8 c3 3d 21 13 77 3d
       -0.12536909 -0.041358 0.09559816 0.060320977
0002d0 91 4b 01 be d4 97 bd bc aa 62 e0 bc b1 a8 cb 3b
       -0.12626483 -0.023143686 -0.027390797 0.006215178
0002e0 82 31 39 bd dd 36 b6 3d bf 80 ba 3d 11 1d fd bd
       -0.04521323 0.08897183 0.091065876 -0.123590596
0002f0 70 cc 8d bd 1c a2 43 be 1d 25 32 bd f5 ea 09 3d
       -0.06923759 -0.19104809 -0.043492425 0.033671338
000300 bc ae 08 3d fe dc 66 3d 34 c6 4a bd 3b 30 64 bd
       0.033369765 0.0563631 -0.049505427 -0.05571006
000310 95 c1 ba 3d 57 40 dd bd 3b 82 15 3d 07 ee eb bd
       0.09118954 -0.108032875 0.03650115 -0.115200095
000320 d9 00 73 bd 3d 5b 93 bd b6 d4 9e 3d 50 56 39 3d
       -0.05932698 -0.07195137 0.07755415 0.04524833
000330 45 fa ff 3c a8 3e 36 3d 0c c2 24 3d a4 17 81 3c
       0.031247267 0.044493347 0.04022412 0.015758343
000340 b0 ab 5f 3c 36 77 a8 3d 08 91 4a bd 5d 34 e4 3d
       0.013651773 0.08225863 -0.04945472 0.111428
000350 cc c4 2f 3d 3a 13 86 bd 83 b7 a2 bd 3d 8d b8 3d
       0.04291229 -0.06546636 -0.07945158 0.09011314
000360 1e 72 12 3d 6f 7d 87 bd 3e 5f b2 3c ea da c8 3b
       0.035753362 -0.066157214 0.02177393 0.006129612
000370 5d 03 81 bd ef dd 00 bc b1 9e ae 3c d6 d3 c5 3d
       -0.062994696 -0.007865413 0.021315904 0.09659545
000380 2a 8c 93 3d dd ed 70 bc 8f 67 6a bc 1f 5c ee 3b
       0.072044685 -0.0147051485 -0.014306917 0.0072741653
000390 aa 66 ec bd 55 ab 58 bd e3 d8 9a bd 4a a9 91 3c
       -0.11543019 -0.05289777 -0.07560899 0.017780919
0003a0 75 d6 1f bd f5 c5 31 bd 2d 6c b6 bd f3 3b 31 3d
       -0.03902288 -0.043401677 -0.08907352 0.043270063
0003b0 b7 40 2e bd 7a f5 db 3c 81 b2 85 bd 8c e9 0d 3b
       -0.042542186 0.02685045 -0.065281875 0.0021654097
0003c0 2e d8 b7 bd 08 5c 15 3d 6b 30 45 3d b9 4d 1a 3e
       -0.0897678 0.03646472 0.048141878 0.15068711
0003d0 36 3e 0b be 2f 2a a3 3b ca 4f 18 bd 46 55 75 3d
       -0.1359795 0.004979394 -0.037185468 0.059895776
0003e0 ab 79 11 3d 82 ad 0f bc da cf 30 3d ad e3 58 bc
       0.035516422 -0.008769395 0.043166973 -0.013237876
0003f0 b3 76 11 bd 93 82 0f 3d ce f0 b5 3d 52 69 c7 bd
       -0.03551359 0.035036635 0.088838205 -0.09736885

weight_hh f4 [512, 128]
000000 21 c8 36 bd ca 80 91 bd a8 a8 ae bb db c0 26 bb
       -0.04462445 -0.07104643 -0.005330164 -0.002544454
000010 ce 0e bd 3d 78 7e 7e bd ef 0a 29 3b 1c 41 03 be
       0.092313394 -0.06213233 0.002579387 -0.12817806
000020 44 0c ec 3c d4 b0 e1 bc 9f 7c b6 bc c3 3e e0 bd
       0.028814442 -0.027550139 -0.02227622 -0.10949471
000030 84 48 d1 bc 2f d4 96 3d 58 53 c0 bd 76 80 b5 3c
       -0.025547273 0.073646896 -0.093908966 0.022155982
000040 42 8e d0 bd 2e 19 6a bd 15 c9 ab bd fb 94 f0 3d
       -0.101833835 -0.05715292 -0.08387963 0.11747166
000050 d2 bb c6 bd 5f a5 36 bd 6e d2 d0 3d 05 e6 b0 3d
       -0.09703793 -0.044591304 0.10196386 0.08637623
000060 47 85 ae 3c 3a 7f 95 bd 06 92 ff 3c d0 a8 53 3c
       0.021303786 -0.07299657 0.03119756 0.012918666
000070 a2 2b de 3d 0f b0 b4 3d 96 0a 05 bd a6 b0 1f 3d
       0.10848166 0.08822643 -0.0324808 0.038986824
000080 cf 25 51 3c a8 6f 5f 3c 73 ba c3 3c bd ff c2 bd
       0.012765362 0.013637461 0.023892617 -0.095214345
000090 8a 6f 1c 3d 9f 71 f8 3d 07 ac 16 bd 93 d4 b0 3c
       0.03819231 0.121310465 -0.03678515 0.021585738
0000a0 82 c6 61 3d 33 10 ef bb 90 50 80 3d 71 e1 81 3d
       0.055120952 -0.0072956323 0.06265366 0.06341828
0000b0 b4 af 7c bd 60 31 8c 3d 29 3e 54 3d 76 cd ca bc
       -0.061691 0.06845355 0.051817093 -0.024756175
0000c0 94 7a b8 3d 45 15 b8 3d 86 ec 9e 3d 51 56 72 3d
       0.09007755 0.08988432 0.07759957 0.05916435
0000d0 8f 7d 04 3d 58 c7 d1 bc 4c 4a 9b 3d 5a 51 a3 3d
       0.032346305 -0.02560775 0.075825304 0.07974501
0000e0 c0 c7 a0 3c 2f 23 3f 3e 71 7f 55 bd 63 88 98 bd
       0.019626498 0.18665765 -0.05212349 -0.07447889
0000f0 25 8f f4 3d 85 73 9a 3d 24 63 c9 bd 3b 09 1d 3e
       0.11941365 0.07541565 -0.09833363 0.15335552
000100 6c ed 3c bd 81 f5 93 3d 8a 50 96 bd 5d 1f a6 3d
       -0.04612486 0.072245605 -0.0733958 0.08111451
000110 1c 4f 57 3c c7 ac 8b 3d cf d0 57 3a 46 49 42 bd
       0.01314142 0.06820064 0.0008232714 -0.04743316
000120 8a 19 c3 3c 10 25 30 3d c8 a0 a0 3d a1 68 24 3e
       0.023815889 0.043004096 0.078431666 0.16055538
000130 6d 83 46 bd b6 1d cf 3d 2f fa ad 3d f2 fd 74 bb
       -0.04846518 0.10113089 0.08494984 -0.0037382809
000140 d9 27 64 bc 4b a4 55 3b 6e ab 8e bd ae 55 5c 3d
       -0.013925516 0.0032599147 -0.06966291 0.053792648
000150 1a 63 c8 3d c4 a0 cb 3d eb dd e7 3c 04 68 cc bd
       0.09784527 0.09942773 0.02830406 -0.09980777
000160 e5 0f 95 3c c6 72 85 3c b8 b0 8f bc c5 a9 3f bd
       0.018196056 0.01629008 -0.01754032 -0.046792764
000170 97 07 3f 3d ce 7b 0f 3e 62 85 cd 3b af 98 15 3d
       0.046638098 0.14012071 0.006272004 0.036522564
000180 32 88 9a bd b4 9c 13 be bc 94 83 bd ad 72 3c bd
       -0.075455084 -0.14415246 -0.06424853 -0.0460078
000190 01 66 f1 3c 24 fc 14 3d c5 b7 88 bc 8a 24 87 3c
       0.029467585 0.036373273 -0.01668919 0.016496915
0001a0 49 df 5c 3d 59 27 6f 3d 34 ab 0a bd 2e 11 b6 bd
       0.05392388 0.058387134 -0.03385468 -0.088899955
0001b0 40 53 71 bc d7 42 16 3c ef cd ad bd b6 6a 1c bd
       -0.014729321 0.009171209 -0.08486544 -0.038187705
0001c0 1e 9f 8a bd 6c d7 a4 bc 95 cd c6 bc 0c 4c 58 3d
       -0.067686304 -0.020122252 -0.024267951 0.0528069
0001d0 6b 5f e7 bb 59 a3 8b 3c cd ba ce 3d 31 89 f0 bc
       -0.0070609353 0.017045664 0.10094223 -0.029362293
0001e0 65 2f 1b 3c f3 1c 98 3c 2d 89 0a 3d da fb 2b 3b
       0.009471749 0.018568492 0.033822227 0.0026242645
0001f0 08 ef 4c bd 8b b7 3d bd 3f 6c 46 3d 50 4d 84 bd
       -0.050032645 -0.04631762 0.048443075 -0.06460059
000200 7f cb 1f bd b2 86 10 bd 43 8b a9 bd 3d 6f 5a bd
       -0.03901243 -0.035284705 -0.08278515 -0.05332874
000210 3b b7 67 bc 38 d4 b8 3d 06 c5 f2 3d 80 51 3b bc
       -0.014142807 0.090248525 0.118539855 -0.011433005
000220 7a d8 d9 3d 30 f0 a2 bc dd 55 4a bd 99 50 b8 3c
       0.10636993 -0.019889921 -0.04939829 0.02249937
000230 cf ad ad bd fe c6 a5 3d 0b ba b4 bd 48 0f e6 3d
       -0.08480417 0.080945954 -0.088245474 0.112333834
000240 ca f6 52 3d 63 73 1a 3c 61 68 30 3d e9 12 2e 3b
       0.051504888 0.009426924 0.043068293 0.0026561564
000250 48 65 c7 bd a9 96 a5 3c 49 f9 e7 3c 5a 22 00 3d
       -0.09736115 0.020213442 0.02831711 0.03128276
000260 ac 1f 0e 3e b9 3f 12 bd 3d 6d fa bc 01 6f c3 3d
       0.1387927 -0.035705302 -0.030569667 0.09542657
000270 71 78 23 3d 27 91 26 bd 9b 66 a3 bd b8 44 9a bd
       0.039909784 -0.04066577 -0.07978555 -0.07532638
000280 23 9b f8 bd 7c 58 13 bd 16 b0 b5 bd 00 b9 09 be
       -0.12138965 -0.035973057 -0.08871476 -0.13449478
000290 b3 0e bf 3c 3e f2 d3 bc 4f d9 b9 3d 8a 0f 74 bd
       0.023322439 -0.025872346 0.090746514 -0.05958513
0002a0 b9 25 fc 3c ee c8 fa 3c 8a 6b 83 3d 9f 7e b4 bc
       0.030779706 0.030613389 0.06416996 -0.022033034
0002b0 3d fe 97 3c c0 c5 5f bc 7f 45 28 3c 63 32 b6 bd
       0.018553847 -0.013657987 0.010270475 -0.08896329
0002c0 75 09 92 3c b1 5d 7c bd b4 22 03 3e 33 56 6c bd
       0.017826775 -0.06161279 0.12806207 -0.057699393
0002d0 a3 e0 8a bd 54 d7 3f bd 70 0f bc 3c 76 3a 0a 3d
       -0.06781127 -0.046836212 0.02295658 0.03374716
0002e0 33 02 73 bd 64 dd 8f 3d 06 84 85 3d 86 4d 0a 3c
       -0.05932827 0.07024649 0.06519322 0.008441335
0002f0 7b e6 5e 3d 08 e7 e3 bb 1a 80 6f 3d 54 e6 a0 3d
       0.054419022 -0.0069550313 0.058471777 0.078564316
000300 d8 09 f3 bb 95 76 74 3d b8 bb 84 bd 85 cb 8a 3d
       -0.007416945 0.0596834 -0.06481117 0.067770995
000310 a3 40 09 bd 4a fe 8c bd e7 82 d9 3d ab 59 0a bc
       -0.033508908 -0.06884439 0.10620671 -0.00844423
000320 41 72 11 3d f7 e9 93 3d 58 13 f2 bc c3 f1 af bc
       0.03550935 0.0722236 -0.02955024 -0.021477586
000330 a6 80 c1 3d 1f a9 ea 3d 4c 10 ca 3d b3 dd e4 3d
       0.09448366 0.114580385 0.0986639 0.11175098
000340 c4 70 e3 bc dd 61 b1 3d 6e ff c0 bd ab 30 0d bd
       -0.027763732 0.08661244 -0.09423719 -0.03447024
000350 74 4d 94 bc 5e c9 13 3d 25 86 bb bd a4 ec 23 3d
       -0.018103339 0.03608071 -0.091564454 0.0400206
000360 2c 12 f4 bd 1d 96 37 bd e9 6a 62 3b b7 88 29 bd
       -0.119175285 -0.044820894 0.0034548587 -0.041390147
000370 29 a8 d1 ba 06 18 2a 3c d3 a0 3b 39 80 76 4b 3d
       -0.001599555 0.010381704 0.00017893621 0.049673557
000380 d6 0f 95 bd cb c9 67 3d 12 a4 84 3b 88 6d 2f bc
       -0.07278411 0.05658893 0.004047879 -0.010707267
000390 aa 78 ee bb fb 9f a8 3d f5 7e 29 3d be 4d c1 3b
       -0.007277568 0.08233639 0.04138084 0.00589916
0003a0 54 56 f5 bb b6 15 d0 3d ae d0 04 3d 0a a5 00 3d
       -0.0074870978 0.10160391 0.032425575 0.031407394
0003b0 07 06 da 3d 9d b9 9a 3d 35 56 01 3c 73 0c 79 3a
       0.10645681 0.07554934 0.0078940885 0.0009500451
0003c0 b9 52 f2 3c cb 66 94 39 a9 60 0c be d1 19 1d 3d
       0.02958046 0.00028305346 -0.13708748 0.0383547
0003d0 6f f3 0b 3b 11 8e b0 3c 0a 3e 2a 3d 2e 7b bf 3d
       0.0021354815 0.021552118 0.04156307 0.093496665
0003e0 dd ba a1 3d 10 a9 0f bd 6c 96 8a 3d 90 f6 47 39
       0.078969695 -0.03507334 0.06766972 0.0001906997
0003f0 03 e0 70 3d b8 ff a1 3d 29 b9 90 3d 05 6b 2a 3c
       0.058807384 0.079101026 0.070665665 0.010401492

bias_ih f4 [512]
000000 95 90 8a 3d 35 6c 05 3e bc 1d fd 3d 18 7f 92 3c
       0.06765858 0.13029559 0.12359187 0.017882869
000010 fa 0d ce 3d 59 09 ec 3d c5 11 e6 3d a1 f1 e9 3d
       0.100612596 0.115252204 0.11233858 0.1142304
000020 6b f4 93 3d 1a 5a 3c 3d 30 16 d9 bb ca e0 ba 3c
       0.072243534 0.045984365 -0.0066249594 0.022812266
000030 fd aa 3d 3d 0e 08 56 3d d8 01 3c 3d 0a 1e 3f 3e
       0.046305645 0.052253775 0.045900196 0.18663803
000040 d9 dc be 3d 2f ba 64 3d b2 71 14 3e 4e 06 05 3e
       0.09319467 0.05584162 0.14496496 0.12990686
000050 47 7e 48 3d 69 46 65 3c 46 1a 38 3e 7e 66 03 3e
       0.048948552 0.013993838 0.17978773 0.12832066
000060 aa 7e 50 bd 89 5f 91 3e 08 2b c2 3d f3 35 15 3e
       -0.050902046 0.283932 0.09480864 0.14571361
000070 fd 1e 28 3e d0 4a 2e 3e f2 a4 ef 3d 6f 81 c7 3d
       0.16418071 0.17020726 0.11701383 0.097414844
000080 36 d1 23 3d 5f d3 b5 3c f3 d6 a0 3d 53 36 a0 3c
       0.03999444 0.022195516 0.07853498 0.019557154
000090 04 9f e5 3c 7a 14 f5 3d 52 27 24 3e 48 d8 12 3e
       0.028029926 0.11966796 0.16030625 0.14340317
0000a0 15 f8 31 3d 8b 64 f9 bc ac 88 a3 3d fb 48 e9 3c
       0.04344948 -0.03044345 0.079850525 0.028477183
0000b0 10 cc 3f bd 26 a2 13 bd 27 40 ba 3d 94 c0 13 3e
       -0.04682547 -0.03604331 0.09094267 0.14428931
0000c0 10 31 ad 3d 45 d6 90 3d e0 93 5a 3d 1c da c1 bb
       0.084566236 0.07072119 0.05336368 -0.0059158932
0000d0 7c 72 86 3e 01 c3 18 3e 2d 14 8b 3d 63 97 bf 3c
       0.2625922 0.14918138 0.067909576 0.023387617
0000e0 7c 94 1b 3e d3 71 43 3d 17 ca c3 3c 10 27 51 3c
       0.15193361 0.047715973 0.023900075 0.012765661
0000f0 98 c6 09 3d 80 21 8c 3e ef 5a 72 3e 91 62 58 3d
       0.03363666 0.27369308 0.23667501 0.052828375
000100 e3 f5 4f 3e 8f 1b 4b 3e 22 73 40 3b c9 15 1a 3e
       0.20308642 0.19834732 0.00293655 0.15047373
000110 c4 77 25 3e 6b c4 ff 3d 44 28 38 3e 92 71 1b 3e
       0.16158968 0.12488636 0.1798411 0.15180042
000120 f9 f3 b4 3d 55 f8 f1 3d c9 21 98 3d c2 2d d2 3d
       0.088355966 0.11814944 0.07428319 0.10262634
000130 71 3c 10 3e d1 0b 50 3d a3 ab 27 3e 2e 3a e8 3d
       0.14085557 0.05079252 0.16374068 0.11339222
000140 c2 f9 20 3d b5 9a bf 3d e4 38 45 3e 3b d9 13 3e
       0.039300688 0.0935568 0.19259983 0.14438336
000150 e2 a0 d1 3d e8 28 df 3d f8 9d 2d 3e 1f b3 5f bc
       0.10235764 0.10896474 0.16954792 -0.013653546
000160 19 d9 53 3c f2 8b 2f 3d 22 81 8a 3d 12 21 1b bd
       0.012930178 0.04285807 0.067629114 -0.037873335
000170 1b 50 69 3d 94 e0 a6 3d 2c 04 0b bd 5c c1 f0 3d
       0.05696116 0.08148304 -0.033939525 0.117556304
000180 f1 b6 d3 3c ed 24 ac 3a fd bc 57 3e 0f c8 b1 3d
       0.02584407 0.0013133563 0.21068187 0.08680736
000190 53 c5 fb 3b 60 bf eb 3d 77 2f 59 3d e6 65 37 3e
       0.007683435 0.11511111 0.05302378 0.17909965
0001a0 43 1c 0d 3a 84 06 b6 3d d6 28 98 3d 41 80 ef 3d
       0.00053829345 0.088879615 0.07429664 0.11694384
0001b0 ea 55 20 3e 43 34 3e 3d 5e 8b e0 3d 95 53 ac 3d
       0.15657774 0.04643656 0.10964082 0.084143795
0001c0 aa 74 17 3d 17 96 3f bd ea 92 72 3d b2 09 46 3d
       0.036976494 -0.046773996 0.05922214 0.04834909
0001d0 98 2e a6 3d 10 4e ea 3d 04 60 b8 3d a3 c2 28 3e
       0.08114356 0.114406705 0.090026885 0.16480498
0001e0 1a a9 82 3d 0a a2 01 3d 7f d7 e6 3c 10 d8 24 3e
       0.0637991 0.031648673 0.028178928 0.16098046
0001f0 b7 fd 36 3e ce 19 7d ba 0e 56 a4 3d a9 0f 4f 3d
       0.17870222 -0.0009655029 0.08024226 0.050552044
000200 cd aa 5c 3d 4f 3f fa bb 5f a8 08 3d 72 f4 e4 bc
       0.053873826 -0.0076369415 0.033363696 -0.027948592
000210 24 95 c5 bd 67 07 03 be f3 a8 cc bd 5c 20 44 bd
       -0.09647587 -0.12795793 -0.09993162 -0.047882423
000220 4e db 15 bd 56 ea 25 bd 6a 92 a8 bc 5c c0 8b 3d
       -0.0365861 -0.040506683 -0.020577628 0.06823799
000230 03 f8 ce bd 06 00 26 bc b2 0b 05 3b 3d 5e 31 3d
       -0.10105898 -0.0101318415 0.002030116 0.043302763
000240 78 29 6a 3d 89 ee 10 be 58 5f 74 bd 54 38 73 3a
       0.057168454 -0.14153494 -0.05966124 0.0009278108
000250 3e 9b 88 3d 73 25 e0 bd 84 91 e2 bd a5 21 45 bd
       0.06670235 -0.10944643 -0.11062911 -0.04812779
000260 b7 43 1a 3d 7d cf 8f bd cc 1f ae bd 70 6e 12 3d
       0.037662234 -0.07021997 -0.085021585 0.035749853
000270 e9 ff 5f bd 68 ea 4b bb 11 9d 8d 3d 42 1c f4 bd
       -0.054687414 -0.0031115059 0.06914724 -0.11919452
000280 8d 9b c0 bd 80 4e a1 bd 82 9b 9c bb 4b 79 82 bc
       -0.09404669 -0.07876301 -0.00477928 -0.015926978
000290 21 da 75 bd 3d 00 aa bd c7 c1 60 3d 7d df 06 bd
       -0.060022477 -0.08300827 0.0548723 -0.03292798
0002a0 da da ee 3b cf 51 d1 ba 21 a8 9f 3d 40 b5 b8 3c
       0.0072892727 -0.0015969815 0.0779574 0.022547364
0002b0 c4 3e a0 3c b6 c7 ab bc 82 e1 c7 bd e4 32 94 3c
       0.019561179 -0.020969253 -0.09759809 0.018090673
0002c0 f2 45 85 bb c5 40 93 3b b2 65 0d 3d 8b f4 ac bd
       -0.004067176 0.004493805 0.034520812 -0.0844508
0002d0 d5 52 f1 bc 19 6d d9 bd e9 d0 89 bd bc 3a 05 be
       -0.029458443 -0.10616512 -0.067292996 -0.13010687
0002e0 1f 2d bf 3c 57 ef d3 bd e0 16 20 3c 7c 28 e1 3d
       0.023336945 -0.10348385 0.009771079 0.1099405
0002f0 69 1b c8 3c fe 0d eb 3c cf 75 8c bd 7c b4 00 3c
       0.024427133 0.028693195 -0.06858408 0.007855531
000300 30 e4 9d bb 52 3f 19 3d 94 11 0f be d6 3e 9c bd
       -0.004818462 0.037413903 -0.1397155 -0.076291725
000310 32 06 9a bd a7 c1 e9 3d e2 f7 fc 3b 64 b8 de bd
       -0.07520713 0.114138894 0.0077199796 -0.108750135
000320 4c ac e8 bc 3f 6f 80 3d 44 f6 f1 3b 52 30 f5 bd
       -0.02840247 0.062712185 0.0073840935 -0.11972107
000330 21 6b d3 bc a7 69 03 bd 8f bd 5c bd 7c d5 03 be
       -0.025807919 -0.03208318 -0.053891715 -0.12874407
000340 b7 41 82 bd dd 87 88 3c 20 6e 34 bd 0a 4e 39 3b
       -0.0636019 0.016666347 -0.044050336 0.0028275275
000350 82 f7 fe 3a 90 01 93 3c 14 aa ad 3d b3 f1 71 bc
       0.0019452425 0.017945081 0.084797055 -0.014767098
000360 d7 e3 49 3c 0c 89 ed bc 5b f8 bd bd 8a 39 47 3d
       0.012322388 -0.028996013 -0.09275886 0.048638858
000370 35 1b 5d bd 04 a0 76 3d 38 65 ae 3d 60 32 35 bd
       -0.053981025 0.060211197 0.085154 -0.044237494
000380 96 00 1b bd 0d a4 3f 3d dd 2f 81 bc 2b 7e e8 bc
       -0.037842356 0.04678731 -0.015769893 -0.028380474
000390 fa 74 77 bd 61 49 bf bc 2c 9c 8c bd 97 03 0f be
       -0.060414292 -0.02335042 -0.06865725 -0.13966213
0003a0 a2 67 01 3c ab be da 3b 89 a6 ed bd 9a d7 97 3d
       0.007898243 0.0066755614 -0.1160403 0.074141696
0003b0 4f f9 e6 bd 6c 25 fb bb b3 7c a3 3d b6 c3 d0 bc
       -0.112780206 -0.007664373 0.07982769 -0.025483947
0003c0 39 d8 7a bc 16 35 c1 3d b8 e3 d4 bd a4 52 65 bb
       -0.015310341 0.094339535 -0.103949964 -0.0034991885
0003d0 5d ab 5a 3d ae 75 9e bc ce 07 8d 3d 82 c5 ba bd
       0.05338608 -0.019343223 0.06886254 -0.09119703
0003e0 b7 fd f9 bc d3 c1 f5 3c 94 db 00 3c 16 1c 4f 3d
       -0.030516488 0.02999965 0.0078648515 0.050563894
0003f0 0e 8f fc bd b9 b2 ba 3d 4c 5a 22 bd a3 e6 5c 3d
       -0.12331973 0.0911612 -0.039636895 0.05393089
