logs/fgb_vary_rho/1/actor.pt (torch, 906162 bytes, 17 tensors)

weight_ih f4 [512, 48]
00000000: 80bc de3d 9449 043e 3dc9 2ebe e65e 31be
00000010: 907c 77bd f3c8 523c f55d 33bd a68b 0abc
00000020: d60e fa3c f2fa 66bc 4b25 86bd 4e00 afbd
00000030: d5fa c8bd 98f2 a63c 5d4a 06be 527e 9dbd
00000040: 5225 e33d ca1f 7d3e 0391 fabd ca22 0abe
00000050: b9bb 673d 88c8 b13d ca27 bf3d 2ad1 783c
00000060: 3227 4e3c bad0 98bd 9a12 3b3e 5c64 5cbe
00000070: 3551 a9bd 51a0 413d a523 a9bd fdcd 323d
00000080: 854e 86bd 3d84 253d 7f6f 2fbd 8fc8 60bd
00000090: 9a30 0bbd 4bb3 bf3d 2c29 503d 278a 6e3d
000000a0: 93c7 363d 286f 0c3d b626 5b3d 0847 32bd
000000b0: 90ba 32bd 2de6 87bc 227a 043e aeaf f03d
000000c0: 0551 0fbd f7cc 8f3d ae38 373e 4e56 a93a
000000d0: ca9f 473d 9a7b 6c3d 666d dd3d b08d 0bbc
000000e0: 6cd3 f63d 2810 c5bd d1af e5bd b485 a5bd
000000f0: 0a51 983b 21f2 b13d 31b5 91bc 63aa a93d
00000100: 294c 453e 963d 3fbc a5ff 0bbe aa4c c73b
00000110: 55ad aabd a667 453d 1f7b 14be 4b89 3fbd
00000120: 38f7 7e3d 3ba0 803d e2fd b73c 45db 853d
00000130: c84c 64bd 3a40 d2bd fbb1 8cbd 467e 523c
00000140: 7b49 12be 5674 8d3d 408b a03d 8cad 0dbe
00000150: 7d06 013c 93ea e63c 26b9 393c fbbf 79bd
00000160: 461e b93d 3c65 13bc 82a3 6e3c c8bb 173d
00000170: ef6a 5e3d 3d21 7c3d 1e8a eabd 8117 75bd
00000180: b70a 1e3e 4af8 d53d 65fd 043e 5f56 913d
00000190: 6e97 d03d 2d93 373e 2ec1 d639 70fc 6abd
000001a0: ddd8 e9bd 111d 473d 1d55 0dbe f040 bebd
000001b0: 4b0b 843d 2bd8 ac3d 372d c13c 931e 12bd
000001c0: 3f74 2ebc 5343 073c 298d 1a3d 9083 04be
000001d0: 5125 1ebe 6bec 42bd 6106 173e 2845 4f3e
000001e0: 5efa 593c d35d 413d 375d c6bd 14b1 7b3d
000001f0: 06b4 983d f3f4 39be 597c f1bd bace 7bbd
00000200: f905 aabd de8c 03be d048 753d 32dc 673d
00000210: 1d46 18bd 203e 03bd 8888 233d a1b0 423b
00000220: 99c8 28bc a92d 9cbc ffa3 18bc 1033 633c
00000230: 6c1e fd3c a71e 3c3d 25e4 993d c650 6ebc
00000240: e5b4 15bd 42d1 46ba 328a 30be 84a5 b1bd
00000250: eb43 4d3d 966a 97bd c21b b6bd 3616 d9bd
00000260: cd41 6e3d f1a9 e5bc 6d3b 413c cf43 a6bd
00000270: d34c f63b 165c 623d 451a 03bd 34b1 aebd
00000280: e85d 493e 993f b1bd 5ef4 93be 4ed9 d9bd
00000290: d80a 4e3e f991 bb3d 97c1 c53d b817 8f3d
000002a0: f936 6abe 7da6 89bc 0d8a 07bc fa0f 11bd
000002b0: 8a2f 493e c0ac 22bd 5534 38bd 0ba2 b43c
000002c0: 082a f43c 1fa6 20be a907 dc3d df8d 63bd
000002d0: 2cd2 1f3d a33a 2cbd f5ec 8a3d 43bc 58bb
000002e0: 27ed 163d 50e9 4cbc e4cc 40bd c8c9 42bd
000002f0: 9a00 d1bd fbed 9fbc cf63 8a3d 398e 413d
00000300: 08cc d3bd 657b bc3d ea9f a6bd 2afa 15be
00000310: 0f81 55be 6085 e33c c85a d1bd 138f c13d
00000320: 46c7 713d e722 253e 7a62 a83b 18f2 87be
00000330: 3847 953d bcd8 5e3e d4a7 fc3c bb3d b03d
00000340: a2b6 623e 85e0 bebc 5d90 a5bd 1979 26be
00000350: e2d7 b6bb 5575 183d aaa3 c9bd 7979 713e
00000360: f39d 35bd 8d37 07bc d75e 3c3d 66ff b3bc
00000370: 48fa 9f3e 8703 7e3e 3bfd 5d3d 1197 cd3d
00000380: f106 29be 235d 68bd b53f aebc 0315 01bd
00000390: 8a3a 6fbc aed2 0c3d 58d3 9c3d ac51 333d
000003a0: a58c 58bd 6aef 2c3d 79c5 c73c 0705 c4bd
000003b0: 27fe 17bc c6f3 03be 3750 ebbc eeac 5b3d
000003c0: f2e9 073e 8df1 563e 92c9 a03d 757a 76be
000003d0: 65f7 8fbc a686 2fbe e87d 383e 4a89 0abd
000003e0: a890 883e e346 0ebe 7c20 833d 4ee5 d63c
000003f0: dd9c 0d3d 6037 723d 8a6b aebd c21c 3abe
0.10875797 0.12918693 -0.17068954 -0.17321357 -0.060421526 0.012865293 -0.043790776 -0.008456146
0.030524652 -0.014097916 -0.06550082 -0.0854498 -0.098134674 0.02037935 -0.13114305 -0.07690109
0.11091103 0.24719158 -0.1223469 -0.13489833 0.05657551 0.086808264 0.09333761 0.015186587
0.012582587 -0.074616864 0.18268815 -0.21522659 -0.08267442 0.04727203 -0.08258752 0.043653477
-0.06557945 0.040409315 -0.04283094 -0.054878768 -0.033981897 0.09360369 0.050820515 0.05823722
0.044623923 0.034285694 0.053503715 -0.043524772 -0.04363495 -0.016589249 0.12937215 0.11752258
-0.034989376 0.07021516 0.17892715 0.0012919398 0.04873637 0.057735063 0.10811882 -0.008517668
0.12052044 -0.09622222 -0.11215175 -0.080821425 0.0046483325 0.086887605 -0.017786594 0.08284452
0.19267334 -0.011672398 -0.1367174 0.006082137 -0.08333842 0.04819455 -0.14500092 -0.046761792
0.062247485 0.062805615 0.022459928 0.06535963 -0.055737287 -0.102661565 -0.068698846 0.012847489
-0.14285843 0.06906955 0.0783906 -0.13835734 0.007875082 0.028188026 0.011335647 -0.060974102
0.09038977 -0.008996304 0.0145653505 0.037044317 0.0543012 0.061555136 -0.11452125 -0.05983687
0.15433775 0.10447748 0.12987287 0.07096552 0.10185133 0.17927237 0.0004096119 -0.05736965
-0.114183165 0.048611704 -0.13802 -0.092897296 0.064474665 0.08439668 0.02358113 -0.03567369
-0.010647832 0.008255797 0.037732277 -0.12940812 -0.15443923 -0.047588747 0.14748527 0.20241225
0.013304321 0.04720862 -0.09685748 0.06144817 0.07456212 -0.18159847 -0.117912956 -0.061476447
-0.083019204 -0.12846705 0.059883893 0.05660648 -0.03717624 -0.03204167 0.03992513 0.002970733
-0.010301732 -0.019064741 -0.009316443 0.013867155 0.030898295 0.04592767 0.07514218 -0.014545625
-0.036549468 -0.00075842824 -0.17240217 -0.08674148 0.0501136 -0.073933765 -0.08892013 -0.105999395
0.05816822 -0.028035136 0.011793953 -0.08118402 0.0075164824 0.0552636 -0.032007474 -0.085298926
0.19664729 -0.086547084 -0.28897375 -0.10637151 0.20121324 0.091587014 0.09656065 0.06986946
-0.22872533 -0.01680302 -0.00827266 -0.035415627 0.19647041 -0.03971553 -0.044971783 0.022049924
0.029805198 -0.1568837 0.107436486 -0.05555522 0.039018795 -0.042048108 0.06783477 -0.0033071197
0.03684726 -0.012506798 -0.0470704 -0.047555715 -0.10205193 -0.019522658 0.06757318 0.047254775
-0.1034165 0.09203223 -0.0813597 -0.14646211 -0.20850013 0.02777356 -0.10222393 0.09451117
0.059027933 0.16126595 0.0051386924 -0.2655189 0.072889745 0.21762365 0.030841745 0.08605524
0.22139981 -0.023300419 -0.08084176 -0.16257133 -0.0055799345 0.03722127 -0.098456696 0.23581494
-0.044340085 -0.00825299 0.045988884 -0.02197237 0.31245637 0.24806033 0.054196578 0.10038579
-0.16506554 -0.056729447 -0.021270612 -0.03151418 -0.014601359 0.034380607 0.07657498 0.04377906
-0.052868504 0.04222051 0.024386154 -0.095712714 -0.009276903 -0.12885961 -0.028724773 0.053631715
0.13272837 0.20990582 0.078509465 -0.24070151 -0.017574022 -0.17141208 0.1801678 -0.033822335
0.26672864 -0.13894229 0.0640268 0.026232388 0.034573425 0.05913484 -0.08516605 -0.18175033

weight_hh f4 [512, 128]
00000000: da20 97bd dccd fbbc 19b2 61bc 2a4a 0bbc
00000010: e9db 88bd 8532 b83b 4a4a ffb9 df80 12bd
00000020: 2cab 083e 3adb 0a3e e131 0e3c e508 8fbb
00000030: 5a54 373d 3cac 203d fb23 d53d c20a b53d
00000040: 4823 8f3d c16c 76bd e8b0 be3d d533 eb3b
00000050: 076f 45bc 6d01 173d 17a7 1a3d edbc 6a3d
00000060: cc6b 2abd 026a 9b3c a9a3 b0bd c1d4 163b
00000070: 78f9 f0bd 22b0 dc3d f22a 7d3d 0d9a 86bc
00000080: 839a 333c 7a33 03be 046e d1bd 9d37 4abd
00000090: 128a 19bb cfab d53c 4ebe 40bd 2431 44bd
000000a0: 58eb 643d 6867 52bc 836c e4ba 4120 2abd
000000b0: bb9a e03d 3916 513d 243a be3d b578 6f3d
000000c0: 4672 223c 5051 2ebd ac14 3d3d b9fa a1bc
000000d0: 5886 70bd 1ec4 c03d b0f5 c0bd 068a 94bc
000000e0: b802 06bd 09f6 7fbd b24e f93c de6d 91bd
000000f0: c24b 16bd 2eb1 873d 78a6 cabc f2cf 9f3c
00000100: 4116 383b ff5f a73d a462 b3bc 99c7 2d3d
00000110: cfe3 adbd c6b6 acbd 10d3 17bd 8e25 a9bd
00000120: 17c8 0dbe 7396 8abd 5a5f 963d 8d9a 2bbd
00000130: 60a7 8abd 1520 383c 74e2 9dbd b487 c03c
00000140: 91c6 1dbc 9dba 313d 7c99 0e3d 2caa d13c
00000150: c976 17bc 3aab 4d3d d4d7 a3bd 2e51 c8bb
00000160: f7c5 353c 5125 bd3d 0dcd 92bd b8d1 ba3c
00000170: b1e4 da3d 271b 8ebd ecae a6bc f5cc bd3d
00000180: 3c2c 02be 00a4 133d d0e5 18bd c5b9 debd
00000190: ef9b 013e 7c34 a13c f437 423d b781 b7bc
000001a0: cb05 963b 123c 0dbe a4fe 36ba 4e9e 913d
000001b0: 3a05 863c da3a d9bd e217 6dbd 7621 853d
000001c0: d99d 97bb 6d35 483d ad75 1ebc f97c a7bc
000001d0: 4367 683a 2c34 dbbc 3688 dc3c b0c8 84bd
000001e0: e240 f1bd a433 5bbd 44ab c63c 1cec 82bd
000001f0: 22fb acbd a160 383c b79c a7bc 9978 f23d
00000200: 2027 823c 2087 8e3d cc1a cbbd a9bd a53d
00000210: c08e a23a 781d 9ebb a6f1 a3bc 31db 1d3c
00000220: b187 4f3d 8341 8a3d 2581 f8bd e2e2 f53d
00000230: 0794 bc3c 0790 8cbd acea 9f3d ba1a 1a3d
00000240: e72a 66bd 10d2 23bd db73 333d 8754 8dbd
00000250: d553 b8bd ff8e e23b b772 093c ef0b adbd
00000260: 8c93 5c3d cf70 a93d 4984 f03c 6379 abbb
00000270: 3b65 06be 00a9 d63c 9970 d0bd 57e5 80bd
00000280: b278 41bc 3240 55bd b00b 49bd 553e 59be
00000290: a684 a8bd eab4 b8bc 0773 61bd b18b b13c
000002a0: f3e9 2abd bd21 0ebd 5737 4abc b5b2 82bd
000002b0: 8f25 e93d bd46 7bbd a9c7 063e 5108 9fbb
000002c0: b691 d4bb 4729 c23d fa03 a83d 2ba8 b1bd
000002d0: 21c6 5e3c cd5b f13d cfff 31bd 39fc a43c
000002e0: 4f67 26bd 01e2 0b3c 0531 e1bd 8038 a1bd
000002f0: ab95 5ebc 515a 22be 3ff0 cd3c 22a3 eebc
00000300: 1cab 303d f397 b4b9 2982 a93d 7e38 0cbc
00000310: ddd9 98bd 8b37 003e 5b7b f9bc 249c b0bd
00000320: f88c 3e3d 08b4 613d f54e a33d baa5 dbbc
00000330: e3e2 093e c535 573c ae1d 0e3d 506c a03d
00000340: f44f 00bb 4287 ba3c 0985 c03d be77 fdbc
00000350: a74b 0a3c 9ce2 d03d c31a 813c 83c4 273d
00000360: d0ee 9cbd c76e e43c 8716 e7bb 90c4 b83d
00000370: 7892 00bc 1e17 07bd 66a4 d93d 73c3 b6bd
00000380: 99e3 0e3d b128 3b3d bdc1 fcbd 0004 0b3d
00000390: 9a3a 47bd 71da 48bd 8ff7 103d f198 04be
000003a0: 071c 243c 3a01 df3b bbff 373c 35e7 53bd
000003b0: 89bb 61bd a663 c23c 9811 b1bd 183d 27bd
000003c0: 6a27 4ebd 939c cd3c 67bd b3bd 21db 84bc
000003d0: eba2 1b3d 4036 f0bd 2841 22bd fd02 573d
000003e0: f128 7d3d 05ad e23d c1d1 1bbd 0243 40bc
000003f0: 9c6d ea3c cea0 d13d c266 19be 47aa 70bc
-0.07379313 -0.03073781 -0.013775372 -0.008501569 -0.066825695 0.005621257 -0.0004869274 -0.035767432
0.13346547 0.13560191 0.008678884 -0.004365074 0.04475818 0.039226755 0.10407253 0.088399425
0.06989151 -0.06016231 0.09311086 0.0071778097 -0.012050397 0.036866594 0.037757006 0.05730908
-0.04160671 0.018971447 -0.08624966 0.0023014995 -0.117663324 0.10775782 0.061808534 -0.016430879
0.010962131 -0.12812606 -0.10226062 -0.049369443 -0.0023428244 0.026082901 -0.04705649 -0.047898427
0.055888504 -0.012842037 -0.0017427359 -0.041534666 0.109670125 0.051046584 0.09288433 0.058464725
0.00991494 -0.042558014 0.046162292 -0.019772874 -0.05872187 0.094124064 -0.09421861 -0.018132221
-0.032717437 -0.062490497 0.030433033 -0.07101034 -0.036693342 0.06625591 -0.024737582 0.019508336
0.0028089436 0.08172607 -0.021897621 0.04242668 -0.08490717 -0.08433299 -0.03706652 -0.08259116
-0.1384586 -0.06766977 0.073424056 -0.041895438 -0.067702055 0.011238118 -0.07709208 0.023502208
-0.009629861 0.04339086 0.034814343 0.02559384 -0.009244629 0.050212122 -0.0800015 -0.006113193
0.011094562 0.09235633 -0.071680166 0.02280508 0.10688151 -0.06938773 -0.020347081 0.09267608
-0.12712187 0.036045074 -0.03732854 -0.108752765 0.1265714 0.019678347 0.047416642 -0.02240072
0.0045783273 -0.13792446 -0.00069806934 0.07110272 0.016359914 -0.10606928 -0.057884105 0.06500523
-0.004626971 0.048879076 -0.009671611 -0.020445334 0.0008865485 -0.026758276 0.02692042 -0.064835906
-0.117799535 -0.053516045 0.024251588 -0.063926905 -0.08446337 0.011253507 -0.02046047 0.118394084
0.015887797 0.06959367 -0.099172205 0.080928154 0.0012402162 -0.0048252903 -0.020012688 0.009634779
0.050666515 0.067507766 -0.12134007 0.12006165 0.023019804 -0.068634085 0.07808432 0.037623145
-0.05619326 -0.039995253 0.04381166 -0.06900888 -0.09000365 0.006914019 0.008389167 -0.08449542
0.05385165 0.0827347 0.029359953 -0.0052329763 -0.13124554 0.026203632 -0.10177726 -0.06293743
-0.011808561 -0.052063175 -0.04908341 -0.21215184 -0.08228426 -0.022547204 -0.05504134 0.021673055
-0.041727018 -0.034700144 -0.012342296 -0.06381742 0.11384117 -0.06134676 0.13162102 -0.0048532863
-0.0064870967 0.09480529 0.082038835 -0.086746536 0.013597042 0.11785088 -0.04345685 0.0201398
-0.040625867 0.00853777 -0.10995678 -0.07872105 -0.013585488 -0.15854765 0.025138972 -0.029130522
0.043131933 -0.00034445486 0.08276779 -0.008558391 -0.07463429 0.12521188 -0.030454328 -0.086235315
0.046521157 0.05510333 0.07974044 -0.026812423 0.13465457 0.013135378 0.034696274 0.07833159
-0.0019578906 0.022769574 0.094003744 -0.030940887 0.0084408885 0.10199472 0.015759831 0.040958893
-0.07662737 0.027884854 -0.007052246 0.09021866 -0.007847421 -0.03298103 0.1062706 -0.08923998
0.034885023 0.045693103 -0.1234164 0.03393936 -0.04863987 -0.049036447 0.03539234 -0.12948968
0.010016448 0.006805566 0.0112304045 -0.051734168 -0.055110488 0.023729157 -0.08645934 -0.040829748
-0.050330557 0.025099074 -0.0877636 -0.01621777 0.037997168 -0.11729097 -0.03961292 0.052493084
0.061806623 0.11068157 -0.038041834 -0.011734726 0.028616719 0.10235749 -0.14980605 -0.014689035

bias_ih f4 [512]
00000000: 7a84 ec3d 6c4a 1c3e 359a f63c 8355 7d3c
00000010: b9de 013e fc04 323e ed75 6e3e c44e 1a3e
00000020: 4021 283d 00b4 44bc 99b5 dc3d 9b01 973d
00000030: 8029 1d3e 59c9 003e 1877 3bbd be0a 043e
00000040: e882 2c3d 45f2 9b3d 79a5 a53d ea59 be3c
00000050: 966c 313e 95f4 b13d 1e9f 443e 6e17 b63d
00000060: b25b 923d 5eb3 ad3d 5e69 123d 407f ec3d
00000070: c1a6 1a3e 9055 a33d 3555 503b 3013 473d
00000080: 65e0 8b3c 41a5 a23b f7e0 b43d 9bae 203c
00000090: e525 193e 967b 563e 06f6 923d 3ebd c03d
000000a0: d349 a63d be30 6a3d f478 5c3c 63eb 343e
000000b0: 0b93 373e ba5a 393e 9436 803d 64f0 1f3e
000000c0: 0ce8 1f3d 1444 eb3d 4d33 623d d585 a13d
000000d0: 891b 2f3d 0af0 b83d 9651 b83d ceb6 203e
000000e0: 5475 f43d 0a72 713e 7a48 e53d 1d79 513e
000000f0: a1cc 5f3e a90a a03d c150 ca3d f62d 0a3e
00000100: e5ab 493d d2c6 293e 7fc5 723e 375d 573c
00000110: 74af 503e 82db 263c 8920 993d e7cb 5e3e
00000120: d912 203e 8420 ae3d f408 183c 735a fb3d
00000130: f184 ee3d 78cc 643d 40be 97bc becc 98bc
00000140: 0679 573c d3f1 f93d f6d0 433d 05d1 223d
00000150: e67a 0d3e 9082 9e3c 08fc 633d ad86 4a3d
00000160: c3f9 073d 4932 fe3d 01b6 e63c ae9e 043d
00000170: 5b52 9b3c ea3f ad3d 55ac 32bc 4d15 f23d
00000180: 0951 1f3d 2843 e03d 4e97 5fbb 3c4a a1bc
00000190: 063b 963d f561 f5bc 4e21 f63d c1ea 6c3d
000001a0: 834d 603e 85fd 3d3d 2d4a b63d f575 603e
000001b0: 3587 1d3d 477d cf3c b98b 093e c138 4b3e
000001c0: b46c 173e 00ff ab3d 929e fa3d 469a f43c
000001d0: d51d df3d 5990 0d3e 1777 313e 914f f13d
000001e0: 32fc c03d 4376 003e 85cf 703a f895 0f3e
000001f0: 8d6c 393e 88a0 8a3d 190d 163e e483 8c3d
00000200: fee9 023e c855 723d 196d 0e3b acb0 23bb
00000210: a6e4 7dbd 93a9 453d ccef bcbd 753a fb3c
00000220: d5f3 3b3d f3d5 05bd 8a8f c43d 640e 573d
00000230: 19d5 47bd 3040 f3bd 4d0a 5b3d 43f6 77bd
00000240: e3bf 80bb 9f7c 253d 6385 72bd 40dd 09bd
00000250: edc5 e7bc 5301 13bc 603f ddbb 814b e83c
00000260: ecc7 c8bd d9a6 323d b576 923b a8c9 4dbc
00000270: 3ce4 503d fa7a 28bc 2a57 88bd 70c5 163c
00000280: 2927 56bd 59f4 053e e20b 27bd d4b5 d33d
00000290: bd0f 5d3d 8a4b e6bd d991 1b3d 57ba 9cbc
000002a0: 7163 bb3d 403f a0bd 233e 5b3d a77b b7bc
000002b0: af58 91bd 98cd c43d 1840 2d3d e841 f93c
000002c0: 4d53 9abd ce21 603d 58bd b73d 73a7 2b3d
000002d0: 2118 12bd 3b23 a83d c825 293c 750b f23c
000002e0: ac00 f7bc 029a 463d 5231 3abc 4246 1fbd
000002f0: b338 df3d bea1 2a3d 6734 b53d aa3b 37bd
00000300: 1624 c83d 493d 153c 1968 67bd 6cf9 e33d
00000310: e74d 69bd 7173 443c 9711 d8bd f83b 97bd
00000320: ef55 57bd 91e3 c13a fc3e aabd edac 2ebd
00000330: cfd0 84bd 9b17 92bc d1b1 763d 212b cf3c
00000340: b0a0 073d 135f 7dbb 4b60 f1bd 3638 97bc
00000350: e735 71bd 951b 453c cc57 85bc ca98 3b3c
00000360: 08a7 d2bd e328 d43d 8d6e 363d a40a e33c
00000370: cb4a f0bc 9bc5 883d b155 a8bd b365 a63d
00000380: 51bd 91bd 0ed1 913c 1079 a83d 069e 6cbc
00000390: 224e c13c 1b95 393d cd5c 3bbc e221 f239
000003a0: c328 e9bc ffe7 e33d 9375 5abc 3ebd 093d
000003b0: 8ab1 a93c a0a3 0e3d a860 c9bd 92eb f9bb
000003c0: 47ca c23d 1ad7 3dbc 7052 973d f9fd 41bd
000003d0: aab2 ecbc daca 9d3d 7d33 033d 904e c4bc
000003e0: 9a3a 033d ab99 3ebd 4e9c 1e3d 7f40 06bd
000003f0: ca02 19bd e9f8 8cbb 60a4 eebd a451 13bc
0.115487054 0.15262765 0.030102829 0.015462282 0.12682618 0.17384714 0.23287173 0.15069109
0.041047335 -0.012005806 0.107768245 0.07373353 0.15347862 0.12576808 -0.045767874 0.12894723
0.04211703 0.076145686 0.08088202 0.023236234 0.17326578 0.086892284 0.19201323 0.088911876
0.07146396 0.08481477 0.035745017 0.115477085 0.15102674 0.07975304 0.0031789069 0.048602283
0.017074773 0.0049635475 0.08831971 0.009807254 0.14955862 0.20945582 0.071758315 0.09411095
0.081195496 0.05717539 0.013456572 0.17667918 0.17927186 0.18101016 0.0626041 0.15619045
0.039039657 0.11487594 0.055224705 0.078868546 0.04275087 0.09030159 0.08999936 0.15694734
0.11936441 0.23578659 0.111954644 0.20456357 0.21855403 0.07814533 0.09878684 0.13494095
0.049236197 0.1657975 0.23708151 0.013144783 0.2037943 0.010184171 0.07476909 0.2175747
0.1563219 0.085022956 0.009279478 0.12273111 0.1164645 0.05585906 -0.018523335 -0.018652316
0.013151413 0.122043274 0.047806703 0.039750118 0.13816413 0.019349366 0.055660278 0.049444843
0.033197176 0.12411935 0.028162958 0.03237789 0.018960169 0.08459456 -0.010905345 0.11820469
0.03889564 0.10950309 -0.0034117284 -0.019688718 0.073354766 -0.029953936 0.12018071 0.057841066
0.21904568 0.046384353 0.08900867 0.21919997 0.03845902 0.025328292 0.13432206 0.19845869
0.1478756 0.08398247 0.12237276 0.02985872 0.10894362 0.13824596 0.17330585 0.11782754
0.094231024 0.12545113 0.0009186196 0.14022052 0.18107815 0.067689 0.14653434 0.06861094
0.12784573 0.05916384 0.0021732508 -0.002497713 -0.061985634 0.04825742 -0.09225425 0.030667523
0.045886833 -0.03267474 0.095976904 0.05250396 -0.04878721 -0.11877477 0.05347662 -0.060537588
-0.0039291247 0.04040205 -0.05920924 -0.033658266 -0.02829262 -0.008972484 -0.0067519397 0.028356316
-0.09803757 0.04361615 0.0044697174 -0.012560286 0.05099891 -0.010283226 -0.0665725 0.009202346
-0.05228344 0.13081492 -0.040782817 0.10337415 0.053970087 -0.11244877 0.037980888 -0.019131823
0.09149826 -0.07824564 0.053526055 -0.02239783 -0.07096993 0.096095264 0.042297453 0.030426934
-0.075354196 0.05471974 0.08971661 0.04190774 -0.035667542 0.08209845 0.010323949 0.029546479
-0.030151688 0.048486717 -0.011364298 -0.038885362 0.108994864 0.041658156 0.088478856 -0.044734634
0.09772508 0.00910885 -0.05649576 0.11131558 -0.05695906 0.011990414 -0.1055023 -0.07384485
-0.052572187 0.0014792552 -0.083127946 -0.042645384 -0.064851396 -0.017833522 0.060228173 0.02528912
0.033112228 -0.0038661405 -0.117859446 -0.01845942 -0.058889296 0.012030502 -0.016277216 0.011450002
-0.10285765 0.10359361 0.044539023 0.027715035 -0.029332539 0.06678315 -0.08219469 0.08124866
-0.07116187 0.01779988 0.08226216 -0.014441973 0.023596827 0.045308214 -0.0114357 0.00046183082
-0.02846182 0.11128234 -0.013333696 0.03362774 0.02071454 0.034824014 -0.09832889 -0.007626959
0.095112376 -0.011586929 0.073887706 -0.047361348 -0.028893787 0.077047065 0.032031525 -0.023963243
0.03203831 -0.046533268 0.038723283 -0.032776352 -0.037356175 -0.0043021333 -0.11652446 -0.008991633

bias_hh f4 [512]
00000000: 6f96 393d 0fb9 823d a1fa 013e 245e 2b3d
00000010: b72c de3d b2b4 203e 5a0a 843e 54e6 153e
00000020: 7935 c23c 276e 2d3d e9da 463e c0be 083e
00000030: e498 a03d 2328 853d e823 6a3d 8ffd 173e
00000040: 272a 1c3c 2a4f 083e 0f59 29bd cc45 2b3e
00000050: 5efd 4b3e 172b 033e 78c6 2d3e eca1 b53d
00000060: 7477 cf3d 57a0 0f3e 9d45 c33c a823 8c3d
00000070: 8537 c03d e811 2e3e 4f6a 573d ca68 8a3d
00000080: 6f43 0e3e 83aa 5f3d d8e5 98bc e51a 3e3d
00000090: 6ad8 88bc a8eb 1f3e a345 143e 0b51 01bd
000000a0: fc37 2f3e 83b3 f93c b0b8 f03d f934 343e
000000b0: 6bd3 0e3e 747a 093e 54c6 dc3d d085 643d
000000c0: 2ff6 dd3d 6c3d 133e 6dca 033e 17ba 62bc
000000d0: ee7c 043e 3a4d de3b e5ce 283e ecb4 4c3e
000000e0: 37e4 273e 5661 343e 365d a23d 499b 083e
000000f0: fb4c 663e affa 073e 91cb 023d 1845 2e3e
00000100: 3798 563d d8af ac3d 159e 133e c70f 203d
00000110: e6e7 703e 65d9 6a3d ef03 113e 03c1 683e
00000120: 96bb c63d f0ee bf3d 951a 88bd 3b0a bb3d
00000130: e873 a63d 3dc5 c53d dae0 083e 60a8 3ebd
00000140: fa7a c63d ed56 363d 5930 213e 210d 1a3e
00000150: dc3e 833e 48af 083e 9536 943d f1aa dfbb
00000160: 6e0e 18bc b1f6 ba3d 8b9b ab3d dbc4 1c3e
00000170: 4b6e de3c 064e a93d d16d 0a3d 86f2 6a3d
00000180: 3359 163e a0ec fc3c 4452 483d 5232 f23d
00000190: e7d3 a43c 1d47 833d 3dee b33d e241 d73d
000001a0: 411a 8a3e 749d 8b3d 3968 cebc f623 8f3d
000001b0: 1c34 113b 872e 0c3e df93 083e 4923 fa3d
000001c0: 8db1 cc3d 2db8 d53c 214b 9abc aa2d bb3d
000001d0: 3593 52bd 82e1 a73d f736 623e 01c5 003e
000001e0: ea2e a83d ab0f 183d 49a2 243e 1e61 183d
000001f0: 7fd1 643e 2192 d5bc 251a 503e 84a3 a43d
00000200: 8464 c9bc e8c4 0ebd 1145 323d 7881 9abd
00000210: 99d7 1abd 460f ad3d ab5a 3b3c e28c ac3c
00000220: dd17 a53d 80cc fcbc ea37 c33d deed 0f3d
00000230: bdb4 083d 4def 24bd c429 963b 5869 82bd
00000240: 8a2d cc3d 8b29 c93d 6289 753d f9f2 8e3d
00000250: e236 003d 71d8 5bbd 0e07 8bbd 5974 06bd
00000260: 0f2d 203d f51a 3e3d 27ba 26bc 6e83 86bd
00000270: 2868 d0bc 39ed fa3d 9212 6bbd 9627 f0bc
00000280: 4e45 efbc 2587 f93d 5617 ab3c ffa2 c53c
00000290: b578 9b3d 7056 09be bcfa dc3b ddc1 b63d
000002a0: d14e d63d 5aaa 483d 7675 abbd 96cf 903d
000002b0: 8387 9b3c 3c94 06bc b718 9b3d dfb4 963d
000002c0: 8345 94bd 4c04 583d b998 98bc b52a e83c
000002d0: 47de 4f3b aae6 863d 5bb3 91bd b348 743c
000002e0: e55a 4ebd 25e0 a73d 88ce e53c 2faa 9fbd
000002f0: d9d7 8e3d 8855 72bd 3ea8 843a 097a 733d
00000300: ec3f 163d bae3 7f3d 9a9f 93bd 1cde cf3d
00000310: ab12 1cbd 6511 a73d fd5b e8bd 8cd2 84bd
00000320: a048 96bd 468f eabc 3018 c3bd 19f1 febc
00000330: 4af0 0fbd 259b 883d fd04 40bd 13a7 29bd
00000340: 1e28 43bd fd24 8b3c 1d1b 8e3b 1e88 b03c
00000350: af62 40bd fee2 2b3d 441b a3bc 3d8a 9fbd
00000360: 9e01 88bd 3d3d f03d a38f 0a3c 3037 943d
00000370: da3a be3d 5b0a cd3d 6f80 a43d d717 803d
00000380: 98b3 9e3c d4e5 043e de7c 393d 498d 8d3d
00000390: b606 ce3c 5ec1 f63c b79d fcbb e622 fcbb
000003a0: 8f2c 813d 851d c33d aee4 b13d 45a8 19bc
000003b0: 3a71 223d ccbf 43bd 5d2b 28bd 733e 4bbd
000003c0: 845f 73bc 791e 0fbd ca98 83bd a310 903d
000003d0: 7d1b 5a3d be34 0c3d b6e8 533c f3e8 f7bc
000003e0: 1d4f 113c 56e5 983d 7cf7 8c3d 72ee 00bd
000003f0: 5dee 8abd 04d8 293d bacc 323d 829c a8bd
0.04530948 0.063829534 0.12693264 0.041837826 0.108483724 0.1569393 0.25789148 0.14638644
0.023707138 0.042341378 0.19419445 0.13354015 0.078416616 0.06501796 0.05716315 0.14842819
0.009531534 0.13311449 -0.0413447 0.16725844 0.1992087 0.12809406 0.16970241 0.08868775
0.10130206 0.14026009 0.023836905 0.068427384 0.093855895 0.16999018 0.05259162 0.06758268
0.13892911 0.054605972 -0.018664286 0.046412367 -0.016704757 0.1561724 0.1447969 -0.03157143
0.171112 0.030481106 0.11753976 0.17598332 0.13947837 0.13425618 0.107800156 0.055791676
0.108379714 0.143789 0.12870188 -0.013838313 0.12938282 0.0067841085 0.16485174 0.19990891
0.16395651 0.17615256 0.07927935 0.13340487 0.22490303 0.13279222 0.031932417 0.17018545
0.052391257 0.08431977 0.14415772 0.039077546 0.23525962 0.05733623 0.14161657 0.22729878
0.09703748 0.093717456 -0.06645695 0.09132811 0.08127576 0.09656761 0.13367024 -0.046547294
0.09691425 0.044516493 0.157411 0.15044071 0.25633895 0.13348114 0.07236973 -0.0068257977
-0.009280784 0.09129084 0.08379277 0.1530947 0.027152201 0.08266835 0.033796135 0.057360195
0.14682464 0.03087455 0.04890658 0.11826004 0.020120574 0.06410048 0.08785675 0.10510613
0.26973155 0.06817141 -0.025196182 0.06989281 0.0022156304 0.13689624 0.13337658 0.12213761
0.099948026 0.026088798 -0.018834652 0.09139569 -0.05140992 0.08197309 0.2209128 0.12575151
0.08212073 0.037124317 0.16077532 0.037201993 0.22345541 -0.026070656 0.20322473 0.08039001
-0.024584062 -0.034855753 0.043522898 -0.075442255 -0.037803266 0.08450179 0.011435191 0.021063272
0.08061192 -0.030859232 0.09532149 0.035138957 0.03337549 -0.040267278 0.0045826156 -0.06367749
0.099696234 0.09822377 0.05994547 0.06979937 0.03130234 -0.05367321 -0.06788455 -0.0328258
0.03910547 0.046412427 -0.010176218 -0.06568037 -0.02544029 0.12252278 -0.057390757 -0.029315751
-0.029207852 0.1218398 0.02088515 0.024125574 0.075913824 -0.1341188 0.006743757 0.08923695
0.10464252 0.048990585 -0.08372013 0.07070844 0.018985515 -0.008214053 0.07573073 0.07358717
-0.07239821 0.052738473 -0.018627511 0.028340677 0.003171818 0.065869644 -0.071142875 0.014909911
-0.050379653 0.08197049 0.028052583 -0.07796132 0.069747634 -0.0591636 0.0010120941 0.059442554
0.036682054 0.062473036 -0.07208176 0.10149786 -0.03810374 0.081576146 -0.1134567 -0.06485471
-0.07338071 -0.028632771 -0.09526098 -0.031120824 -0.035141267 0.066702165 -0.046879757 -0.0414191
-0.04764568 0.01698541 0.0043367282 0.02154928 -0.046969112 0.041964523 -0.019910462 -0.07790039
-0.066409335 0.1173043 0.008457097 0.07237089 0.09288569 0.10011741 0.08032309 0.06254547
0.019372746 0.12978297 0.0452851 0.06911714 0.025149684 0.030121502 -0.0077092308 -0.00769459
0.06307327 0.09527115 0.08686195 -0.0093784975 0.039658763 -0.047790334 -0.04105698 -0.049620103
-0.014854316 -0.03494117 -0.064256266 0.07034423 0.05324887 0.034229986 0.012933901 -0.030262446
0.00886896 0.07465617 0.068831414 -0.0314774 -0.067837454 0.041465774 0.043652274 -0.082329765

weight_ih f4 [512, 128]
00000000: eb9b 5b3d 14b1 14be 94d9 bbbd ea2a ffbd
00000010: aaee aebb 85a3 33bc f9e5 c93d c6a5 853c
00000020: 4692 123d ffc3 cbbd 89ac 00bd fa59 603d
00000030: 5e4a bd3d 3ad3 c13d 8388 97bd 12f3 c83d
00000040: 6eac fe3d f2f9 df3d a7fc 4ebd c9f5 49be
00000050: b726 203e 6f90 e7bc 27ed 2c3d c3be 803d
00000060: 4f7a d03d 7576 89bd 5327 bb3d 3d80 99bc
00000070: c22b 1d3d a1a5 83bc e219 0abe fe58 833d
00000080: 3c3e 4fbd fe8f 7f3c 7fa4 98bc f3ce 8ebc
00000090: d919 ef3d 1ac6 4bbe 650d a63d 92a0 3c3d
000000a0: 77a7 e8bd 0d9c 973d 4338 083e 0faf c63d
000000b0: 4d2c c93d 392a bd3d 3186 18be e5b7 e33c
000000c0: 70fb adbd 1881 243e 8594 0bbc 8733 1cbe
000000d0: e815 06bc 5366 af3d 5f83 ba3d 37cd b9bc
000000e0: b79a 9cbb 8b79 8fbd e897 5b3a f397 fdbc
000000f0: 3e79 093e 096f 49be 86b4 35bc c3df 893d
00000100: c11b d9bb 8ecb 7dbc 42ac 343d f7c4 0a3d
00000110: 4ecf 083c 98c9 52b9 0500 9f3b 75ac 113e
00000120: 8336 60bd 960d da3d c428 a53d f30a 40bd
00000130: 0b50 b33d ea21 093d 445f debd 31af 053e
00000140: 1319 47be c613 b33d b6ac ce3b 7cc2 4a39
00000150: 0f77 13bd f932 ee3d c2d1 64bd e7ae b1bd
00000160: 7f60 bc3c 7d88 18bd a916 62bd 036d 5a3d
00000170: 32e0 8a3d f180 e0bd f260 40bd 013d acbc
00000180: 41b2 3dbc 0073 fcbd 8387 95bc 7b2d da3a
00000190: da9e 993d 1045 97bd 18a7 473d 5148 62bd
000001a0: b891 a3bd b3c2 853c 1f93 20be ceb8 e13d
000001b0: 6420 bb3b f9c3 bc3d a82c 08be 4d1f 01bd
000001c0: ebfe 95bd 6a56 20bb dd99 e5bd 3e5b f53d
000001d0: 0ba4 843d 6845 afbd 7d86 263e f404 95bb
000001e0: d186 1dbd 803f 923d 07b8 2cbe 90fa 393b
000001f0: 7efb 6b3d ec77 763d 339e adbd ec38 393c
00000200: 77db 473c e03a 1e3e ea7f ee3d 1ecf 023c
00000210: db3d 67bd 024f 24bd 7137 a9bd bb48 95bd
00000220: e796 d4bb 5f12 0f3e 1b05 c8bd d2f4 df3d
00000230: 261b bfbc b7e2 eb3b 28d1 023d cb9f 7abc
00000240: 7a1c 12be a27a f2bd c47d 013c b1e2 853c
00000250: 1da2 3fbd 4bb9 0f3e 11ed b8bd 6084 603c
00000260: 09b9 31be f02d a13d a3e2 95bc 34e9 2a3d
00000270: 3e52 bcbd 7959 2a3d 5f7d 0c3e cfbe 3f3d
00000280: ee93 9e3d 574e ddbc 62e6 943d 8db6 153c
00000290: e45d 1ebe cbaf 7b3d 9b32 4f3d 6b82 40bd
000002a0: ff9f 5e3e 256a 00be acbd 9abd 6b90 f1bd
000002b0: 49fa 1b3d 79e5 dcbb 78e2 0b3e 7157 7a3d
000002c0: de83 ac3c 4f0e 20bc a31a fb3c a4fb 243e
000002d0: 1ff9 503e b71a e23d 367d bdbd d286 433e
000002e0: 7311 8e3d 03c8 a6bd 1b59 0bbd 2da5 e53d
000002f0: 13ae afbc c5bb b4bd b198 103e dfd7 1f3c
00000300: 07a8 75bc fce7 a03d 6178 553c 2052 d1bd
00000310: 1b9f ea3d b5eb 56bc 5944 953d b35f b8bd
00000320: 04db 0dbe f56a b43c cf17 c3bd fecb a0bd
00000330: d3bd 3e3d dce0 a03d 9293 09be 4f03 d0bd
00000340: 2140 59bd b6c6 7d3d 09a7 1abd 69ef 3cbd
00000350: cdd1 a13d 037c 5a3d ac70 9d3d 97c9 45bd
00000360: 5705 683d 65a1 8dbd dcba 993c 61f4 c1bb
00000370: 0556 b93d 0617 a73d 82ee 553d 98d4 a3bd
00000380: a051 d739 fb59 e53d b8b6 dbbc d5ed b7bd
00000390: 3833 3a3d c65f 4fbd 3915 a13d 592b a33c
000003a0: 7a91 453c 4e43 953c 1691 b63b 8e7a 32be
000003b0: 1317 143c 2ecc dd3d b741 b0bc c8e0 973c
000003c0: 66a0 d33d 8f95 4cbe a19d c0bd 790d 0ebd
000003d0: 96cc 143d 5e2b b53d d2f8 d43d cfe7 cfbc
000003e0: fe00 cb3c 56ee 67bd 9701 0f3d 6824 833d
000003f0: a606 12bd 1713 02be a58d 213e 5e9e 873d
0.05361549 -0.14520675 -0.09172359 -0.12459357 -0.0053385096 -0.010964279 0.09858317 0.016314398
0.03578403 -0.09949493 -0.031414542 0.05477331 0.092427 0.094641164 -0.073990844 0.09811987
0.12435232 0.10936345 -0.050533917 -0.19722666 0.15639769 -0.028267113 0.042218354 0.06286385
0.101795785 -0.06712047 0.0913836 -0.018737907 0.03837181 -0.016070189 -0.13486436 0.06413458
-0.05059646 0.015598295 -0.018633125 -0.017432665 0.11674852 -0.19899788 0.081080236 0.04605157
-0.113600664 0.07402811 0.13302712 0.097013585 0.09822903 0.09236569 -0.1489494 0.027797649
-0.084952235 0.1606487 -0.008519297 -0.15254031 -0.008183934 0.08564439 0.09107088 -0.022680862
-0.0047791856 -0.07005604 0.0008376823 -0.030956244 0.13425156 -0.19671263 -0.011090403 0.06732132
-0.006625623 -0.015490426 0.04410959 0.033879247 0.008350207 -0.0002010226 0.0048522973 0.14225943
-0.054739486 0.106471226 0.08064416 -0.046885442 0.08755501 0.03347961 -0.10858014 0.13055111
-0.19443159 0.08744006 0.00630721 0.00019336672 -0.036002215 0.11630816 -0.055864103 -0.08675938
0.022995232 -0.03723954 -0.05519739 0.053326618 0.06781043 -0.109620936 -0.046967454 -0.021025183
-0.011578144 -0.12326622 -0.018253094 0.0016645634 0.07501002 -0.073862195 0.048743337 -0.055244748
-0.07986778 0.016328191 -0.15681122 0.11021577 0.0057106484 0.09217066 -0.13298285 -0.03152399
-0.07324012 -0.002446557 -0.11210988 0.11980294 0.06476601 -0.0855816 0.1626224 -0.0045477096
-0.03845865 0.07141018 -0.16867076 0.0028378107 0.05761289 0.06017296 -0.0847744 0.011305075
0.012198321 0.15452147 0.116454914 0.007983951 -0.056455474 -0.04011441 -0.08262528 -0.07289263
-0.0064877155 0.13971852 -0.09766599 0.10935368 -0.023328375 0.0071986574 0.03193775 -0.015296887
-0.14268675 -0.118397966 0.00790352 0.016343446 -0.046785463 0.14035527 -0.09029592 0.013703436
-0.17355742 0.0787009 -0.018296545 0.041726306 -0.09195374 0.041589234 0.137197 0.04681283
0.07743059 -0.027014894 0.072705045 0.009137762 -0.15465504 0.061446946 0.05058537 -0.046999376
0.21740721 -0.12540491 -0.07555708 -0.11795124 0.038080487 -0.0067412225 0.1366061 0.061118547
0.021058973 -0.009769036 0.03065235 0.16111618 0.20407532 0.11040252 -0.09252398 0.19094399
0.06936922 -0.08143618 -0.034020524 0.112131454 -0.02144531 -0.08824877 0.14120747 0.0097560575
-0.014993674 0.078567475 0.013029189 -0.10220742 0.11456128 -0.01311772 0.07288427 -0.09002628
-0.13853079 0.022023657 -0.095260255 -0.078514084 0.04656775 0.078553885 -0.134352 -0.10156881
-0.053039674 0.061957084 -0.037756953 -0.046126757 0.079013444 0.053340923 0.07687506 -0.048287954
0.056645717 -0.06915549 0.01876586 -0.005919025 0.0904961 0.08158688 0.052229412 -0.079995334
0.0004106881 0.11198803 -0.026820526 -0.0898091 0.045459002 -0.050628446 0.07865376 0.01991813
0.01205861 0.01822057 0.005571495 -0.17429563 0.009038704 0.1082996 -0.02151571 0.018539801
0.10333328 -0.19978927 -0.09405065 -0.034680817 0.03632792 0.08846162 0.10399021 -0.02537909
0.024780747 -0.05662378 0.034913626 0.06403428 -0.03565087 -0.12702595 0.1577669 0.06622003

weight_hh f4 [512, 128]
00000000: c8e8 603d 4c72 3fbb 1161 89bd 20b2 733c
00000010: dbc1 fb3d 8296 1ebe 16d8 993d 81d0 8e3c
00000020: 5733 e2bd 7928 b6ba 284c 8a3d 7c25 b83d
00000030: 7611 19bd 4178 03be 4c49 3ebd f0b9 c8bd
00000040: b2b0 cbbd d26f f03d e6c3 73bd c59c e9bd
00000050: 2b82 08bd da7e c8bd 5012 b1bd 5b56 4ebe
00000060: 1643 eebd f562 d73d 7def 163d 2179 9d3c
00000070: 5d74 8abd 5ef7 943d 8318 713d 6791 ba3c
00000080: 9f25 be3d d404 19bd d405 b3bd 63c5 10bd
00000090: 379b 9bbd 106f fcbc a831 34be 071a 87bd
000000a0: 57cc 19be 6e7a 223d 42c1 293c 5fe1 b93c
000000b0: 0c45 993d 3bf6 9bbc 3247 8d3d 9574 ba3d
000000c0: 002b 0c3e 0751 cfbd db1a 90bc e85b 54bd
000000d0: 1bc2 52bd 0f91 fabb 0039 51bd 4736 d53c
000000e0: 2fed 5cbc 96b6 07be a29e b83d 62d7 c43d
000000f0: 384e ff3c 90e2 9d3b b81a 0b3d 2bab 293d
00000100: 27cb 2a3d f0b2 f8bd b842 f03d 8453 63bd
00000110: 4870 b23d 3f8d 1b3e 7126 893d 7528 f73c
00000120: e477 de3d 9585 b13d a85e b2bc fec9 163c
00000130: af4b dcbd 6a11 863d 95ba 813d f421 e43b
00000140: 3787 9fbd 035c f3bd f5ad 093e e334 85bd
00000150: d095 d43d 0e9b 0a3d 1125 9f3d ad15 25bc
00000160: c699 063e 5cda ffbb 6fde 093d c09c 10bb
00000170: b4a4 2fbe 2630 d1bc 9334 2abd 536f 56bd
00000180: 2793 20be 388f b03d da96 253e 0440 953b
00000190: 296d 9ebd ec0a e9bd 8d92 123c 8f1f 7ebd
000001a0: b999 dc3d 0d50 ddbd 1cb0 6d3d deee e9bd
000001b0: fe30 ef3d a285 c63d 44c4 44bd 84e6 9dbd
000001c0: fd76 5c3d 69b2 063c 3d3c 3f3b ad2a 78bd
000001d0: f3a0 13be 0640 a8bd bd1b 623c 8962 273d
000001e0: 1aae 353d 627f 85bd 85f9 5e3d bd0e 723c
000001f0: 712b 90bd ead1 ec3c f1f1 64bd 9a33 5d3d
00000200: bdc9 ccbc a4d3 163e ed02 d3bd 0eac 8d3d
00000210: 37a0 863d 88b0 80bb 0a74 ec3c f58c aa3d
00000220: b5c6 52bd 900e b237 d1f8 afbd 3212 e2bd
00000230: d822 fabd 8ef5 fd3d 5392 21bd b1cd 683c
00000240: 2eb8 56bc da53 0f3e 1a14 f43d e822 313e
00000250: 352d 0c3e bdd0 19bd 2066 c1bd 788a 99bd
00000260: 4b91 973d 6010 f23d d769 483d b739 163e
00000270: 6f9a 543d e1ac 1d3c 9850 b03d 5ea6 b9bd
00000280: 0c53 233d b90a 093d 6c9b d63c b244 f5bc
00000290: 7773 97bc 81ff 9e3d d1ae fb3c b2b8 1cbe
000002a0: ccdf 2abd 3253 a33d 30c8 babd e2f6 2b3b
000002b0: e6d5 063d 92f6 183c 7852 983d 5925 9bbd
000002c0: ce2e ba3d 89d1 af3d f087 b93d 5f2d 7abd
000002d0: 6497 0bbc 2c61 9abd bb1b 03be 9470 31bd
000002e0: ccec 013e b54a dabc a3d7 f5bd 0f3b e1bd
000002f0: ad87 493c d1cc 293b 6389 0c3d e603 32bc
00000300: 7ad7 643c 0588 003e 10f8 a33d 6ce1 a2bd
00000310: 4266 cebd 1878 c33d 4d41 2bbd 16c8 2f3b
00000320: 28d6 f73c 8f5b 763d b414 713d 5749 ee3c
00000330: fd2f 04bc ee3d 153d 58fe b43c 8283 023d
00000340: 9140 86bd 4309 52be c332 a53d 760e e63c
00000350: a333 97bc fba8 c73d 000f aa3d 9fef e7bc
00000360: 8880 183d 302e 48ba ced3 afbd 74ad 84bd
00000370: 265a 12bd 7faa 69bd 12a0 8fbc 2877 d83c
00000380: 53f1 07be 7528 aa3b d2ef 85bc b425 803c
00000390: 4106 41bd d846 a7bc b280 543b c34c 533d
000003a0: 3448 d6bd 776f a0bd 16ba 11be 329a 9bbd
000003b0: e00a fdba f71d eebc 59ab 92bb ed2d c1bd
000003c0: 1f26 a13d 3b5e c03d ca33 12be 926b d33c
000003d0: f23e 52ba 84ff 463c ccc0 153d 4ba4 843d
000003e0: 438f 39bc e3cb a7bd afa0 1d3d eaeb a83d
000003f0: 5526 e53c 414d 2dbd 8949 9b3d 5548 933d
0.054909497 -0.0029212413 -0.06707967 0.014874011 0.12292834 -0.15487102 0.07511918 0.017433407
-0.110449485 -0.001389756 0.06752807 0.089915246 -0.037370168 -0.12838842 -0.04645662 -0.0980109
-0.09945811 0.11740078 -0.059512995 -0.114068545 -0.033327263 -0.0978982 -0.08646071 -0.2015013
-0.116338894 0.105169214 0.036849488 0.019222798 -0.06760476 0.07273744 0.058861267 0.022774411
0.092845194 -0.03735812 -0.08741346 -0.035344493 -0.07597964 -0.030814677 -0.17597067 -0.06596761
-0.15019356 0.03966754 0.010361018 0.022690473 0.07483873 -0.01903831 0.06898345 0.091042675
0.13688278 -0.101228766 -0.01759093 -0.05184546 -0.051454645 -0.007646687 -0.05107975 0.026026858
-0.013484283 -0.13253245 0.09014632 0.096113935 0.031165227 0.004818268 0.033961028 0.041423004
0.041697647 -0.121435046 0.117314756 -0.05549957 0.08712822 0.151906 0.06696785 0.030170659
0.10862711 0.08668057 -0.021773651 0.009203432 -0.10756623 0.0654629 0.06334416 0.0069620553
-0.07789462 -0.11882784 0.13445266 -0.06504228 0.10380137 0.033839278 0.07770742 -0.010075969
0.13144597 -0.007808013 0.033659395 -0.0022066087 -0.17152673 -0.025535654 -0.041554045 -0.05235226
-0.15681134 0.08621067 0.16170827 0.0045547504 -0.077356644 -0.11379036 0.008946073 -0.062041815
0.10771508 -0.10806284 0.05802928 -0.114225134 0.116792664 0.09693457 -0.048038736 -0.07709983
0.053824414 0.008221247 0.0029180192 -0.060587574 -0.14416866 -0.082153365 0.013800559 0.040865455
0.04435549 -0.06518437 0.05443718 0.014774022 -0.07039536 0.028908689 -0.055894796 0.05400429
-0.02499854 0.14729172 -0.103032924 0.069175825 0.06573527 -0.003927294 0.028863925 0.08327667
-0.051459033 2.1226035e-05 -0.0859238 -0.11038627 -0.12213677 0.124003515 -0.039446186 0.014209197
-0.013105435 0.1399683 0.119178966 0.17298472 0.1368912 -0.037552584 -0.09443307 -0.07497114
0.07400759 0.118195295 0.04892906 0.14670454 0.05190509 0.009623737 0.08609122 -0.09064935
0.03987412 0.03345749 0.026197158 -0.029939983 -0.018487675 0.07763577 0.030723007 -0.1530483
-0.041717336 0.079748526 -0.09120214 0.0026239683 0.032918833 0.009336131 0.07437605 -0.07575483
0.090909585 0.085848875 0.09059131 -0.061078425 -0.008519981 -0.07538065 -0.12803547 -0.043320253
0.12687987 -0.026646951 -0.1200402 -0.10997593 0.012300414 0.0025909434 0.03431071 -0.010865187
0.013967389 0.12551887 0.080062985 -0.07953152 -0.10078098 0.095443904 -0.041810323 0.0026822141
0.030253485 0.06014591 0.058857635 0.029087706 -0.008068082 0.036436014 0.022093937 0.031863697
-0.06555284 -0.20511346 0.08066323 0.028083067 -0.01845724 0.09749027 0.08303642 -0.028312502
0.037231952 -0.0007636277 -0.085853204 -0.06478396 -0.035730503 -0.057047363 -0.017532382 0.026424006
-0.13275652 0.005192811 -0.016349707 0.015642978 -0.047125105 -0.020419523 0.0032425341 0.051586878
-0.104629904 -0.0783376 -0.14231142 -0.0759777 -0.0019305609 -0.029067023 -0.0044759926 -0.09432588
0.07868599 0.09392973 -0.14277568 0.02580813 -0.0008020244 0.012145881 0.03656082 0.06476649
-0.01132566 -0.08193185 0.038483318 0.08248122 0.02797238 -0.042310003 0.07582385 0.071915306

bias_ih f4 [512]
00000000: 117b 0e3e ce21 0c3d 98b8 0f3d 579b 4e3e
00000010: 29df 9abc 5b73 933d 7955 c23d 0ebb 2a3e
00000020: 9911 953e dd2a e23d fe4c 9c3b 063c 093e
00000030: 6041 673d 6e10 133e 1ec5 103d f9a8 d13d
00000040: 16fd 093d 5195 ef3d f1fb 193e fc0a e93c
00000050: 45a1 c33d 6146 a03d 4b65 d33d 044c 003e
00000060: 56df b63c bc46 85bb d8f7 343e 6eb9 3d3e
00000070: 4f08 09bd 0be0 4c3d 2be3 223e b3f4 8d3d
00000080: 7d07 143e 7254 093d 4bff 0b3c bf39 c23d
00000090: b953 dc3d 2a97 d43b 3794 b43d 6bc2 e63d
000000a0: 856c b43d adda 3c3c ced6 c93d 5101 5e3e
000000b0: 6677 b73d 2721 f4bb ee2a 473e e948 013e
000000c0: 750e ab3d 16c9 a23d babf 123c 9159 c83c
000000d0: 47ec 413d 8248 573e 0a75 c8bc ce45 6a3e
000000e0: 5093 6a3d ce4f 09bd efa6 a83d b068 a13d
000000f0: d5d2 ab3d 80db 183c e535 f03d a102 da3d
00000100: 37ad af3d f71a 523d 9dcb ce3d d9c5 d13d
00000110: 0382 1d3e 84ff c13a 4587 a43d 4d94 2bbc
00000120: 2b8d 913c fdf4 05bd ef44 063e f72c 7d3e
00000130: a0d7 9dbc e3a7 193e c336 20bd 1171 e83c
00000140: 7f4c 04ba 7f80 793e b947 a03d 3f12 733d
00000150: 4874 f03d c051 423d 23be 2f3d 79a3 903d
00000160: 1c8c 013e e579 d73c 7265 743e 282a 1b3e
00000170: 5b99 1d3e e3cf a83d 245a 533e ec8c 5c3e
00000180: b867 0f3e eb52 9d3d 5da3 eabc 6582 3a3e
00000190: 4a86 fe3d c294 7b3c 3414 2f3d d641 8e3d
000001a0: 2c4a f83c a69a 0f3e abf8 023e 4d09 013e
000001b0: 8e49 2abd d5c4 733e 5bf2 333e bf63 613d
000001c0: 1001 563b 30f3 d33d 6fdd 173e 16fe 363e
000001d0: 1c4f 97b9 4666 273e c0bd 223e 6f75 e43d
000001e0: 4331 ce3d 19d5 613d 0749 823e ee03 89b9
000001f0: 09fe 8c3d b29a 853d a082 e13d eaaa 3b3d
00000200: c42d 7f3b c94c d4bc aa4c 613d 7a46 2ebe
00000210: dbab f3bc dbca b9bd 00aa 023d a86d a8bd
00000220: da02 26bd efde f7bd a38f 173b 9856 3ebc
00000230: 3f2d f83d 1caf 453c b828 00bd 9c4f 62bd
00000240: 769f 02bc 62bc 1dbd 2c23 e4bd 60f5 ecbd
00000250: 2145 be3c 1b7c 09be 9abd 32bd ca12 06bd
00000260: 5fcb 36bd 8f85 03be 24a0 47be c1fc 0abe
00000270: d4c1 c2bd 7247 eabd 71f7 40bb 7d1f 32bc
00000280: 998f c8bd ad71 c4bb 8559 883c 4d31 cc3c
00000290: 8945 22bd 6f8b a4bd e3ad e9bd 1b01 07be
000002a0: cb8f 573c 040d eabd f409 adbd 15f2 67bc
000002b0: e18e 0abe 1761 dcbd f7e5 043c 7b99 5abc
000002c0: 4903 37be a7d8 11be 911b 943c 915f 683d
000002d0: 7fd5 313d cd57 04be 2374 c83c 0034 2dbc
000002e0: aa13 ecbc c611 adbd b67f 06bd 3f28 4fbe
000002f0: 0537 f3bd 668b 08bc 3758 18be 9ac7 6ebd
00000300: e6f0 6bbd b489 8fbd efbb fbbc 4b19 06be
00000310: 9c54 cfbb e177 fabd f404 52bd 1a0a 8dbd
00000320: a257 61bd e26c edbd 50c5 64bd 2d52 24be
00000330: d23d c93c 9c9f 46bc 3458 58bd 2721 c23c
00000340: 643e 0c3d f033 33be be32 603d 6fed 6fbc
00000350: 7239 06be 8eaa 6c3d 5df0 2b3b ba80 babd
00000360: 9b34 1f3b bab7 1abd 989a cbbd 4c8f 1fbc
00000370: d2bb 9abc be5a 9abd 5e43 d5bd 90d0 71bd
00000380: 155e 4f3c 629c 7a3d 0c39 92bd 1842 06be
00000390: e6d4 eabd 320b 5bbd 055a 023a 3979 133d
000003a0: a493 87bd b516 45bd dc9d 1cbd fc05 9e3b
000003b0: 5b73 9abd 89c7 57be 8477 12be 0650 813d
000003c0: 22a7 643b 49ca f73b c1d9 10be b7b9 0a3a
000003d0: 4410 923d 3439 45bc 0fca 8bbd 8ba3 acbd
000003e0: f252 0abe 5ffd 7e3d e117 90bd 1383 68bd
000003f0: 2983 7eba d7a5 dfbd 1c7c 4e3d 07a8 07bc
0.13914134 0.034211926 0.03508815 0.20176445 -0.01890524 0.07199737 0.09488959 0.16672918
0.29114988 0.11043332 0.0047699204 0.13401803 0.05645883 0.14361736 0.035344236 0.10237307
0.033688627 0.11698402 0.15037514 0.02844762 0.09552244 0.07825924 0.103220545 0.12528998
0.022323292 -0.00406727 0.1767267 0.18527767 -0.03345519 0.05001835 0.1590697 0.06931438
0.14455982 0.0335278 0.008544753 0.094836704 0.10758156 0.0064877467 0.08817332 0.11267551
0.08809761 0.011526746 0.09855424 0.2168019 0.0895832 -0.007450241 0.1944997 0.1262547
0.08352367 0.0794851 0.008956844 0.024456771 0.047344472 0.21023753 -0.024469871 0.22878191
0.057269394 -0.033523373 0.08234965 0.07881296 0.083898224 0.009329677 0.117290296 0.10645033
0.0857796 0.051295247 0.1009743 0.102428146 0.15381627 0.0014800881 0.08033613 -0.010472369
0.01776751 -0.032704342 0.13112234 0.24724184 -0.019267857 0.1500545 -0.039114725 0.028374227
-0.0005046799 0.24365424 0.0782618 0.059343573 0.11740929 0.047441244 0.042905938 0.0706243
0.12651104 0.026303241 0.23866823 0.151528 0.15390532 0.08242776 0.20639855 0.21538132
0.1400441 0.07681831 -0.02864235 0.18213804 0.12427957 0.015355291 0.042743877 0.06946151
0.030308805 0.14023837 0.12790172 0.12601204 -0.041574053 0.23805554 0.1757292 0.055026766
0.0032654442 0.10349119 0.14830564 0.17870364 -0.00028859905 0.16347608 0.15892696 0.11155211
0.1006799 0.055134866 0.2544634 -0.00026133604 0.06884391 0.065236464 0.11011243 0.045817293
0.003893719 -0.02591552 0.055004753 -0.17019072 -0.029745033 -0.09071895 0.031900406 -0.0822404
-0.040530063 -0.12103068 0.0023126386 -0.011617325 0.12118005 0.012065675 -0.031288832 -0.055251703
-0.007972589 -0.038509734 -0.11139521 -0.11570239 0.023226323 -0.13426249 -0.04363785 -0.032732762
-0.044627544 -0.12843917 -0.19494683 -0.1357298 -0.09509626 -0.11439408 -0.0029444362 -0.010871765
-0.09793014 -0.0059949965 0.016644249 0.024925852 -0.039617095 -0.08034407 -0.114101194 -0.13184015
0.0131568415 -0.11428264 -0.08449164 -0.014156838 -0.13531066 -0.10760706 0.0081114685 -0.013342257
-0.17872347 -0.14242803 0.018079551 0.056731764 0.043416496 -0.12924118 0.02446944 -0.01057148
-0.02881797 -0.08450656 -0.03283664 -0.20230196 -0.118757285 -0.008334016 -0.14877401 -0.058295824
-0.057602786 -0.07008687 -0.030729262 -0.13095586 -0.006327225 -0.12229896 -0.051274255 -0.06886692
-0.055015214 -0.115930334 -0.055852234 -0.16046973 0.024565611 -0.012123015 -0.052818492 0.023697449
0.034239188 -0.17500281 0.05473589 -0.014644011 -0.13107851 0.05777984 0.0026235797 -0.09106584
0.002429283 -0.03777287 -0.09941596 -0.0097387545 -0.018888388 -0.07536839 -0.1041324 -0.05903679
0.012656708 0.061184295 -0.07139787 -0.1311115 -0.114663884 -0.053477474 0.00049725204 0.03600428
-0.06619957 -0.04811736 -0.038236484 0.0048224907 -0.075415336 -0.2107221 -0.14303404 0.063140914
0.0034889658 0.007561956 -0.14145567 0.0005291956 0.07132009 -0.012037564 -0.06825649 -0.08429631
-0.13508204 0.062253352 -0.070358045 -0.056765627 -0.00097088754 -0.10920303 0.05041133 -0.008279807

bias_hh f4 [512]
00000000: 8fc6 663e 1288 0d3d 4499 f73d 5182 983e
00000010: 049d 7e3d f7f7 1b3e a70c 9f3d 417a 943d
00000020: c155 923e 3729 b53d 4698 d53d 6739 413d
00000030: 7618 12bd 2365 9a3d 65c5 efbb fd38 b03d
00000040: d2dd 1b3d b6b5 fd3d 8979 803d 77ed f83d
00000050: e17d 173d 2b93 533e e195 ff3d 3c81 fcba
00000060: 63d4 923d bf4a 173e 7601 673e d6b4 1e3e
00000070: 0de1 603c fb10 9f3d ab0c 673e 45b3 f93d
00000080: b455 ce3d 90ad 9f3d d246 ecbc fcbb 633e
00000090: aafb 193d e411 363d 0c0a 4d3d 807b 383e
000000a0: a0ac 123d 9262 10bd a4e2 b83d 390d 3e3e
000000b0: 7c93 383d 7ba3 8b3d a042 423e afad c03d
000000c0: 2773 5bbb b481 d33d cb0b 96bc 987a 28bd
000000d0: c5e7 343c 2c9e 773e 2883 84bd 1071 193e
000000e0: 75a3 993c dce2 59bd e36c 823d 40c9 6d3e
000000f0: 6224 2c3e 6127 d13c 3e3b 343e 3b8f 8c3d
00000100: 645e 4a3e 6b57 0d3e 77bf 46bd 086b 4e3e
00000110: 757f f73d 0d38 4d3d 0c4e 0a3e dbb6 273d
00000120: 079d 873d 11fd 1b3d 76e0 ce3d 2b40 133e
00000130: 3f70 3cba 6257 ed3d a36b 143d 4bba f73c
00000140: 2437 bb3d 2e55 953e b7b8 a1bc 07a3 6a3d
00000150: 474f 313e 3cb4 123e 603e 133e b99b c63c
00000160: 73fb eb3c af76 8e3d 313c de3d 2127 eb3d
00000170: ea6e f93b 521d 0b3e 1495 093e 207e 543e
00000180: 0e84 c83d b582 a73d 1b32 5a3c 453f 3e3e
00000190: 8cc6 c13b f5f4 323e b957 e43d 0020 613d
000001a0: cd76 1b3e 426f 023e 6ebe 3f3e 64cb 1e3e
000001b0: dce3 cb3d 7dbf 713e 833a 553e bd61 f03d
000001c0: 2b20 1d3e a3a9 a03d 71fd 6f3e e883 1d3e
000001d0: dfde a33d da0c a43d b47a c33d 0179 c63d
000001e0: d3bb 243e 9eef 423e 8f05 7e3e cdd4 273e
000001f0: c3e5 2f3d 4b03 a13d 0016 4c3b 0eb1 673d
00000200: e908 32bd a480 00be 5424 6d3d b51a 06bd
00000210: 72f0 7bbd addc 8abd 1f88 c5bd 2ab7 ebbd
00000220: fde7 a0bd c898 1cbd 6177 bbbd 8ffb a6bd
00000230: 5c20 023d 569b 40bd c599 153c 84d4 6abc
00000240: b480 cdbd 86b8 ccbd 7fac 4bbd 622b babd
00000250: 67ea 9ebc 9a90 0cbd 5b96 cdbd f4ac a339
00000260: 87d3 45bd cbdb 13be 8c4b 94bd 3378 05be
00000270: bc06 7fbc cdfb 21be 74f9 f6bc 00bd c13d
00000280: 3886 f53b 1f76 c6bd 0792 123d d979 d8bc
00000290: 43a9 23bd 5ed9 1f3c 4593 00be 43c9 c5bb
000002a0: d014 873c 92c7 f6bd bf35 053d 051b bdbd
000002b0: 698e 0dbe a760 bbbd 648f c7bd 81b3 633c
000002c0: f1d8 0ebe 135a babd 3270 e8bd 43ae 91bd
000002d0: 8371 163d 9f99 013b 27ff 0bbd 662a 8abd
000002e0: 5cbe babd 2076 413d ddd6 3abd 49b8 a1bd
000002f0: a278 68bd 6e64 93bc 73ae 09bd b29a 36bd
00000300: f650 95bd 549b 1e3b 4ca9 5cbd 04ac babd
00000310: 3f85 ccbd 81c9 28bd 5931 123c 49e8 603b
00000320: 807e 47bd 4abd 8cbd 961a a4bd abab 24be
00000330: 6f21 50bd ff67 00be 4063 9dbb ef8b a1bd
00000340: 0184 02bc a271 3fbe ff17 16bc 2008 e7bd
00000350: fe03 adbd 54c5 e73c 5df1 0a3d beed cebd
00000360: a7e3 5bbd c74a a5bd d7dd 1d3b 9458 d9bd
00000370: fc6b b53c 6458 d0bd 0a69 6dbd b674 603c
00000380: cc05 683d 9886 123d 75f4 f1bb 5ff2 21be
00000390: 4bbf c83c 8ea2 50bd ae16 87bd 36eb c7bd
000003a0: c883 9abd 8599 65bd 6046 a6bd 0a8c 103d
000003b0: 055f 293d 298c c3bd 4cb3 8c3b 78ce 92bd
000003c0: 88b1 0f3d 0125 9bbd 462b a53a 7d91 783b
000003d0: 10d5 3e3d ae4b 7bbc c22c 08bd c500 ffbd
000003e0: 706b c9bd 7f1c 2b3d 75f7 f0bc 329e e9bc
000003f0: 6c69 e6bd e2de 21be 8ea3 893d 75dd 39bd
0.22536682 0.034553595 0.1208978 0.29786924 0.06216146 0.1523131 0.07766085 0.072498806
0.2858105 0.08845752 0.104294345 0.047173884 -0.03566786 0.075388215 -0.0073172324 0.0860462
0.03805334 0.12388174 0.06273181 0.12154668 0.03698528 0.20661609 0.12479759 -0.0019264589
0.07169416 0.14774607 0.22559151 0.15498671 0.013725531 0.07766911 0.22563426 0.12192396
0.1007494 0.07796776 -0.028842364 0.22239679 0.03759352 0.044450656 0.05005841 0.18015862
0.03580916 -0.035250254 0.09027603 0.18559732 0.045062527 0.06818291 0.18970728 0.094081275
-0.0033485384 0.10327473 -0.01831617 -0.04113254 0.011041586 0.24181432 -0.064703286 0.14984536
0.0187547 -0.053194866 0.06368425 0.23221302 0.16810754 0.025531473 0.17600724 0.068632565
0.1976257 0.13802879 -0.04852244 0.20158017 0.120848574 0.050102282 0.13506335 0.04094587
0.066217475 0.03808314 0.10101406 0.14379947 -0.0007188357 0.115889326 0.036235463 0.030240199
0.091413766 0.2916655 -0.0197414 0.05728438 0.17315398 0.14326566 0.14379263 0.024244176
0.028806424 0.06956231 0.10851324 0.114820726 0.007612099 0.13585404 0.13435775 0.20751238
0.097908124 0.08179227 0.01331761 0.18578823 0.005913561 0.17476256 0.11149544 0.05496216
0.15182038 0.12737754 0.18724987 0.15507275 0.0995557 0.23608203 0.20823102 0.11737392
0.15344302 0.07844856 0.23436524 0.1538235 0.08001494 0.08010264 0.09544888 0.096910484
0.16087274 0.19036719 0.24806808 0.16389771 0.042943727 0.07861956 0.0031141043 0.056565337
-0.04346553 -0.12549073 0.057895973 -0.032740314 -0.061508603 -0.06780372 -0.09645104 -0.11509545
-0.07856748 -0.03823164 -0.09153629 -0.0815345 0.03176914 -0.04702314 0.0091309 -0.014332894
-0.10034314 -0.099961326 -0.049725052 -0.09090306 -0.019398881 -0.03431759 -0.10038444 0.00031218643
-0.04829743 -0.14439313 -0.07240972 -0.13034134 -0.01556557 -0.1581871 -0.030148245 0.09459877
0.0074928068 -0.096904986 0.035783794 -0.026425289 -0.039956342 0.009756414 -0.12556179 -0.006035955
0.016489416 -0.12049784 0.03252196 -0.09233669 -0.13823856 -0.09149294 -0.097441465 0.013897778
-0.13949944 -0.090992115 -0.113495246 -0.07113316 0.036729347 0.0019775403 -0.03417888 -0.06746368
-0.091183394 0.047231793 -0.045615066 -0.07896478 -0.05675567 -0.017992225 -0.033613633 -0.044581123
-0.07290833 0.002420147 -0.05387239 -0.091148406 -0.09986352 -0.041207794 0.008922898 0.003431814
-0.048704624 -0.068720415 -0.08012883 -0.16081111 -0.050813135 -0.12539671 -0.0048030913 -0.07888018
-0.0079660425 -0.18695691 -0.009160995 -0.112808466 -0.08448027 0.028292336 0.03392159 -0.101039395
-0.053683903 -0.08070903 0.0024088526 -0.10612598 0.022146218 -0.10173109 -0.0579615 0.013699701
0.056646153 0.03577289 -0.007383878 -0.15815113 0.024505278 -0.050936274 -0.06596123 -0.0976166
-0.075446665 -0.05605461 -0.08118892 0.0352898 0.041350383 -0.09548218 0.004293835 -0.07168287
0.035081416 -0.07575417 0.0012601397 0.0037928515 0.04658991 -0.015337868 -0.03324581 -0.12451319
-0.09834945 0.041775223 -0.029414872 -0.028517816 -0.112505764 -0.1580768 0.06720649 -0.045377214
