logs/fgb_vary_horizon/1/actor.pt (torch, 906162 bytes, 17 tensors)

weight_ih f4 [512, 48]
00000000: 49db f6bc a900 173d 105a 0fbe bab1 4bbe
00000010: 7709 22be 6aaf 323c a3c4 513d 2e83 e63c
00000020: 5c5b 8fb9 40af 2dbc f5d7 babc 4b55 6cbd
00000030: 2e2c 41bd 18fd 93bd 1e91 38ba bccc 0abd
00000040: 034a 8fbc 655f b9ba 09e6 07be 04b2 18be
00000050: 77c6 9cbd 4da1 5b3d b864 943c 0816 dc3d
00000060: ec9c c6bd 87e0 053d a3c4 ba3d 05eb e2bd
00000070: ccd4 db3a abc6 d4bd 9870 923c 15c7 ce3d
00000080: f05d d7bd af10 8cbd 0e2a 81bd 5a6e a0bd
00000090: 7f0e 28bd d9d7 b23d 8297 8d3d bff3 cf3a
000000a0: e7fb d03b a796 b038 5c15 c73b 3b1f b3bd
000000b0: 1106 fbbd 5fc7 d6bd 9f76 f23c fbe0 6e3d
000000c0: 72c9 ff3b 31bf 093d 4bb1 2f3e bff2 383d
000000d0: 1a4c 053d c41d 913c 7b5a 0e3e 007f 16bc
000000e0: 4458 023e 5cff 93bd 01c9 e5ba 42dc aabd
000000f0: 4d40 1dbb 9abe ec3c 4003 0abc 6471 1a3d
00000100: 83a2 d83d 8475 ddbc 5929 e43b 18fb c9bc
00000110: 57b7 dfbb 52f3 f23d 99b0 53bb 4055 bc3c
00000120: d360 713d 4418 0c3e 339b 343d 68c3 d73d
00000130: c6d9 313d bede dfbd 5b9a 373d 56e0 acbd
00000140: 55b8 63bd 68b5 b83d a124 8c3d 24a9 75bd
00000150: aa82 953c 3767 0a3b 728c e5bc 7edf 61bd
00000160: f274 873c 468c adbd 8c04 cb3c aa7b 303d
00000170: 185d 683d 0074 573d 70f5 9ebd 8e71 4bbc
00000180: 57d1 b93b 74a8 9f3d 787f 00bd 432d 20be
00000190: a6a4 79bd bcb3 4a3d bda6 483c 327c 9a3c
000001a0: 98cd cfbd fe1b c83c 3486 b6bd 169e f3bd
000001b0: 2226 953d 7106 ed3c bb79 44bd 1d0b 553d
000001c0: 4775 a6bd 2368 e73d fc7d b43d 1d5b 17be
000001d0: 88fe c4bd adc9 083a 466c 3dbc 704f 9ab9
000001e0: f5cf 213d eed0 d3bc 882a b03a 1a77 9f3a
000001f0: fb52 6fbd 1a9f 46bd db18 84bc ac02 95bd
00000200: f56a 04bd 39e5 adbd 7aa9 a9bc 89a3 1b3d
00000210: 0c4d b5bd 384a eabc 2e3d 6bbd 2240 8ebc
00000220: 2e5e 4ebc 5288 04bc c7ff 023d 7397 b83d
00000230: 6da2 c23d 2f71 8b3d ac57 d43d 34e2 883c
00000240: 7b90 a3bd 706b a63c 4c44 1e3e 4412 e2bd
00000250: 47ae 7dbd 6544 e7bc acab 84bd cd15 82bd
00000260: 9e81 aabc ad41 c73c dc97 853c 025a aebd
00000270: d684 993d f2f1 babd 0507 76bd b196 82bd
00000280: beed fbbd 15a1 afbc ac17 03bd d2cf ccbd
00000290: 0729 253d 2b8c 34bc c15e 29bd f528 e3bc
000002a0: 0a28 cfbd 26c9 cd3c 6d2e 83bd 5c0e 94bd
000002b0: a0f5 b73d 8632 f23c 2cac ebbd b8f4 6e3d
000002c0: 93aa 68bd 8011 fabc 1c5b 903d 5745 7abd
000002d0: 4504 16bb 8c7e 68bc ee10 e43d 9659 403d
000002e0: 1f29 5b3d 82c3 0f3d c250 d73c da9c fb3c
000002f0: 3c2c 04bd a772 ad3d 1220 073e dee4 3a3e
00000300: 9564 30bd 434c 4a3e 9e5d d4bc ddc0 95bc
00000310: bf5e ccbd de0b c63b 5192 ef3c 822c 16be
00000320: b4a9 0b3e 7c77 1a3e 42d6 0c3d d559 49be
00000330: c736 efbd 8292 083e 64a7 aa3d ce1d b73d
00000340: 0626 aa3d 61c6 b43c ac13 99bb 04f3 40be
00000350: 54ba bebb 4ab4 2b3d 19c8 5f3d fd66 b93d
00000360: 2b49 debd dd71 eebb 6ee6 a13d ebd8 25be
00000370: f343 283e 3f6a 79bd e402 a13d 1e66 133e
00000380: 03d7 06be c3e0 4b3d edaf 0c3d 9fd0 eb3b
00000390: 313d 22bd fc36 29bd 06de 94bd dfa6 573d
000003a0: 3acd a6b8 29d1 283d 08c0 21bb e5f6 a6bd
000003b0: 743b 3c3c 286d a1bd f91d 483b 03cd b33d
000003c0: d368 833d 682b e83d 98d5 bf3d 71f5 97bc
000003d0: 1315 993c a72f 34bd 1d16 f23d 87b2 b9bd
000003e0: c3b5 423d f4a3 12be 46cc f7bc 08b5 363d
000003f0: fc90 763c d1ac 56bc 5ef2 46bd 4210 37bd
-0.03013386 0.036865864 -0.139992 -0.19892016 -0.15823923 0.01090608 0.051212918 0.028138723
-0.00027343153 -0.010600865 -0.022808054 -0.05769853 -0.047161274 -0.07226008 -0.0007040667 -0.033886656
-0.017491346 -0.001414281 -0.13271345 -0.14911658 -0.07655042 0.053620625 0.018114433 0.107463896
-0.09697899 0.03268483 0.09119537 -0.11079983 0.0016771792 -0.103894554 0.017875955 0.10096566
-0.10515964 -0.0683912 -0.063068494 -0.07833548 -0.04102945 0.08732576 0.069136634 0.0015865489
0.0063776853 8.420395e-05 0.0060755443 -0.08746191 -0.122570165 -0.10487246 0.029597579 0.058320027
0.0078059966 0.0336296 0.17157476 0.045153376 0.03254328 0.017714389 0.13901703 -0.009185553
0.12728983 -0.0722644 -0.0017531217 -0.08342792 -0.0023994625 0.02889948 -0.008423626 0.037705794
0.10577872 -0.027033575 0.006962937 -0.024655864 -0.0068272757 0.11862816 -0.0032301305 0.02298987
0.05893023 0.13681132 0.044093322 0.10535318 0.043420576 -0.109311566 0.04482494 -0.08441226
-0.055595715 0.090189755 0.06842924 -0.05997576 0.018250782 0.002111865 -0.028021071 -0.05514478
0.016535256 -0.08474021 0.024782442 0.043086685 0.056729406 0.05260086 -0.07761657 -0.01241721
0.005670707 0.07795802 -0.031371564 -0.15642266 -0.060948037 0.049487814 0.012246785 0.018858049
-0.10146636 0.02442741 -0.08912316 -0.11895387 0.07282664 0.028933736 -0.047967654 0.05201255
-0.08127838 0.112991594 0.08813092 -0.1478085 -0.096188605 0.00052180403 -0.011561459 -0.00029432354
0.039504964 -0.025856461 0.001344041 0.0012166232 -0.058428746 -0.048491575 -0.016125133 -0.072759
-0.032328565 -0.084909864 -0.020710696 0.037997756 -0.08852586 -0.028599843 -0.057431392 -0.017364565
-0.012595696 -0.008089142 0.03198221 0.09013262 0.095036365 0.068086974 0.103682846 0.016709425
-0.07986542 0.020314902 0.1545574 -0.1103864 -0.061933782 -0.028230855 -0.06478056 -0.063518144
-0.02081376 0.024323309 0.016307764 -0.085132614 0.074960396 -0.09128179 -0.060065288 -0.06376398
-0.12301205 -0.021439115 -0.032004997 -0.10000576 0.04032233 -0.011019747 -0.04135013 -0.02772949
-0.10115059 0.02512033 -0.064053394 -0.07229301 0.08982396 0.029565107 -0.115074486 0.05833885
-0.056803297 -0.030525923 0.07048628 -0.061101284 -0.0022890728 -0.014190327 0.111360416 0.046960436
0.053506013 0.03509856 0.026283626 0.030714441 -0.032268748 0.08469134 0.13195828 0.18251368
-0.043064672 0.19755654 -0.025923546 -0.018280441 -0.09979009 0.006043895 0.029244574 -0.14665416
0.13638955 0.15084642 0.03438402 -0.19663174 -0.1168037 0.13337138 0.083327085 0.08941232
0.08308034 0.02206725 -0.0046715345 -0.18842703 -0.005820552 0.041919984 0.054634187 0.090528466
-0.108537994 -0.007276757 0.07905279 -0.16196029 0.1643217 -0.06089234 0.078618795 0.14394423
-0.13167958 0.049774896 0.034347463 0.0071965004 -0.039609138 -0.041312203 -0.0726891 0.052649375
-7.953723e-05 0.041215096 -0.002468111 -0.0815256 0.011488784 -0.07882148 0.0030535443 0.08779337
0.06416478 0.11336404 0.09366912 -0.018549653 0.018686807 -0.043990757 0.11820624 -0.090672545
0.047536623 -0.14320356 -0.030248772 0.04460624 0.015049215 -0.013102726 -0.048570983 -0.04469324

weight_hh f4 [512, 128]
00000000: c67b 80bd 013c 3cbd 6ea4 d4bc e208 b2bc
00000010: e53e 99bd 85e5 cd3b 6d34 853d c4c1 733b
00000020: 235f db3d d928 993d e7e6 69bd 0b97 2cbc
00000030: ca83 ddbb 647c e23c 9049 363d 782a c13d
00000040: 0d29 9d3d e841 9d3c 8cd8 6d3d a505 50bd
00000050: a967 013d 4e47 7c3d 832a a63d 4622 8c3c
00000060: 2c55 583c b2b9 1c3c 840c 85bd 4b85 813d
00000070: cd91 12bd 7dc3 b53d 1216 463c 3966 8fbd
00000080: c338 ce3c 6267 9fbd c16e 93bd 1a09 90bd
00000090: 29ad 883c eff8 06bd a393 35bd 03ef 4abd
000000a0: 450c f53c 3d65 3fbd 9cf8 5c3d f666 bf3c
000000b0: 1870 1c3d 13cd 0a3d 6075 703d 835d 543d
000000c0: 596b 073d c3aa 003d 0f8f 8b3d d4a0 debb
000000d0: 5717 dcbd 3a52 b33d a2d2 86bd 8812 f93b
000000e0: b0d8 ab3b d6ac 99bd 14a1 1e3c 5a10 2cbd
000000f0: f24e c3bd 0281 96bc c83b 4ebd 7a0f ebbc
00000100: da30 89bd e8d7 dd3d ebf1 a23c c12c ae3d
00000110: f1a5 3abd 6087 11bd 15cf fcbc aded 97bc
00000120: 457d aabd 9ee9 b0bd ee4c 443c e06d 743d
00000130: bb2d 03bd a8c7 083d 8e82 bebd 93a9 b53d
00000140: 26d8 e33c b421 433d eb34 523d 08dd 163d
00000150: dcdc cbba 3ee1 9e3d 447f 19bd d280 93bd
00000160: d2d1 3c3d 80e2 bb3d 64a5 92bd 9d29 2a3d
00000170: 56b2 473c 0d00 5bbd fc25 67bd d634 603b
00000180: 88eb 74bd 9556 95bd f770 a6bd 249b d6bd
00000190: db12 9d3d 6302 6a3c 27d4 dc3c cf8d e53b
000001a0: 7771 f3bc fd49 f1bd 67e0 2abc 3d3e ca3d
000001b0: 3b47 753d 6a97 b1bd 3b78 51bd be9c e13c
000001c0: 8d96 5bbd fcd3 433d 2421 9bbc da47 893c
000001d0: df46 7fbc d51c 62bd 6d59 313c 7f60 26bc
000001e0: 2d10 92bd c3f8 76bd 9df3 273d b0df 39bd
000001f0: aaa3 6fbd 67bd 273d d325 07bd fc0f b63d
00000200: 6889 85bd c766 673c c799 43bd b1bd 373d
00000210: 9d6f 8a3d 1bf9 9b3d 90ea c4bc de92 fa3d
00000220: 0258 853d 9297 b13b 9d11 80bd 3748 b03d
00000230: ae7d d5bb 1f1a 0ebd 2c51 eebb 2963 073d
00000240: 50df 28bd 27e7 0f3d ee61 a63d 4a8c 4cbd
00000250: 8946 7abd 31c7 c73b 6631 53bd 0095 97bc
00000260: 62f1 a93d 15d8 793d f36a 31ba 4faa 8dbd
00000270: af66 6dbd 001d 813d 8d8e 68bd 3f94 e0bd
00000280: b0dc 6bbd 3d13 543c 99ca 743d 09a2 d6bd
00000290: 6896 25bd ce0a 2e3d cfde 81bd 19d8 4b3d
000002a0: 91dd 76bd 8494 bdbc a1d3 82bd 4b33 8a3c
000002b0: 77aa 7d3d 5e44 98bd 0dff 0d3e 7f9f 353d
000002c0: ac0a cb3b 1d17 0c3d be19 db3b bf7b dabd
000002d0: c278 80bc 4b4d c03d 4313 213d 8125 63bc
000002e0: f718 a6bd 5efa fb3c f07e 34bd d861 d9bd
000002f0: d709 9cbd f81e a0bd d1ce 9cbc 8e65 ed3b
00000300: e7a2 7d3d 5c9b bbbd e2eb 973d b989 07bc
00000310: 842d bfbd aec8 653d ac76 0abd 7619 41bd
00000320: 28ca f93c cb9b 1a3c 0938 bc3b a14b c2ba
00000330: c7d9 033b 8ddf 203d d93c 623d 3c89 cb3d
00000340: 9737 94bc 8602 713d 60ee a53d 9314 e9bc
00000350: 43d2 b73c b227 f73d e10f 9a3d 6c62 a83d
00000360: 9fdf c9bd fccc 8f3d 8744 683c cced e03d
00000370: 9aef be3c fc11 53bd 7190 d53d be6a 0abd
00000380: 35ff a03c 10dd c2ba ef9f f0bd e87c 283c
00000390: d77e 90bc 959d 08bd 48cd 78bd 3844 27be
000003a0: a50b 1cbc 9d6c aebc b6d4 b8bc 5dfc 20bd
000003b0: 96c3 fe3b 1989 563c b84f 9c3c d06f 89bd
000003c0: 8ddb 27bd 3971 743d 3612 acbd b608 013d
000003d0: 21ac 04ba 44e7 23be 532b 1c3c bf18 a03d
000003e0: 7baf 5fbd 3dbf 4a3d e709 fdbc 8223 b13c
000003f0: 1114 3ebc 3680 163d 135a 82bd ae22 41bc
-0.06273608 -0.04595566 -0.025957312 -0.021732751 -0.07482699 0.0062834644 0.0650414 0.003719435
0.10711505 0.07478494 -0.05710497 -0.010534058 -0.0067600952 0.027647205 0.04450375 0.094319284
0.076738454 0.019196466 0.058067843 -0.050786633 0.031593 0.06159144 0.08113577 0.017106187
0.0132039 0.009565758 -0.06496528 0.06324252 -0.035783578 0.08875177 0.012090223 -0.07001919
0.02517355 -0.077833906 -0.07198859 -0.07032986 0.016684132 -0.032952245 -0.04433025 -0.049544346
0.029913077 -0.046727408 0.05394803 0.023364525 0.03819284 0.03388698 0.058705688 0.051846992
0.03306136 0.03141285 0.06814396 -0.0067940746 -0.10746639 0.08755918 -0.06583144 0.007601086
0.005244337 -0.07503669 0.009681959 -0.04200778 -0.09536542 -0.018372063 -0.05034998 -0.028693903
-0.06698771 0.108321965 0.019890746 0.0850463 -0.04556841 -0.035529494 -0.030860463 -0.01854595
-0.083246745 -0.08638309 0.011981232 0.059675097 -0.032026034 0.033393532 -0.09302245 0.08870234
0.027813029 0.047639564 0.051319998 0.036831886 -0.0015553492 0.07757805 -0.037474886 -0.07202305
0.046098538 0.09174061 -0.07160452 0.04154359 0.012188515 -0.053466845 -0.05643271 0.003421118
-0.059794933 -0.07291905 -0.08127015 -0.104788095 0.07669612 0.014282796 0.02695663 0.0070054303
-0.02971719 -0.1178169 -0.010429478 0.09875152 0.059882384 -0.08671458 -0.05114005 0.02754056
-0.053610373 0.047809586 -0.018936701 0.016757894 -0.015580862 -0.055203278 0.010824543 -0.010154842
-0.071319915 -0.06029583 0.041003812 -0.04537934 -0.05850569 0.040952113 -0.032995056 0.088897675
-0.06520349 0.014123625 -0.047754075 0.04485864 0.0675957 0.076158725 -0.02403763 0.12235044
0.06510927 0.00541968 -0.062533595 0.08607524 -0.0065152263 -0.03469288 -0.00727286 0.03305355
-0.041228592 0.035132553 0.08124147 -0.049938478 -0.061102424 0.0060967435 -0.051560782 -0.018503666
0.08297993 0.060997088 -0.0006767951 -0.069172494 -0.057959255 0.063043594 -0.056776572 -0.10965776
-0.05758351 0.01294404 0.059763525 -0.104801245 -0.04042664 0.042490773 -0.063413255 0.049766634
-0.060269896 -0.023142107 -0.06388021 0.016870162 0.061930146 -0.07434915 0.13866825 0.04434156
0.0061963405 0.03420173 0.0066864183 -0.10668134 -0.015682582 0.093897425 0.03932501 -0.013863922
-0.081102304 0.030759033 -0.04406637 -0.10614365 -0.07619064 -0.07818407 -0.019141586 0.0072447723
0.061922934 -0.09160492 0.07418038 -0.008272582 -0.09334853 0.056099586 -0.03380458 -0.047143422
0.030491903 0.009436558 0.0057439846 -0.0014823565 0.002011882 0.039275695 0.05523381 0.09938285
-0.018092914 0.058840297 0.08102107 -0.028452193 0.022439128 0.12068118 0.0752256 0.082218975
-0.098571055 0.070215195 0.014176494 0.10982856 0.02330761 -0.051530823 0.10427941 -0.033793204
0.019652942 -0.0014866907 -0.11749255 0.010283686 -0.017638607 -0.033353407 -0.060742646 -0.16334617
-0.009524261 -0.021292025 -0.022562366 -0.039303172 0.0077747805 0.01309421 0.019080982 -0.0671078
-0.040980864 0.05967829 -0.08401911 0.031502448 -0.00050610496 -0.1600619 0.009531814 0.0781722
-0.05461071 0.049498785 -0.03088851 0.021623377 -0.011601464 0.036743365 -0.063648365 -0.011788053

bias_ih f4 [512]
00000000: 4e8b a93d c668 083e 7670 5e3c fad4 38bd
00000010: b10e 513e 8124 5b3d 5e01 b43d 04e7 043e
00000020: 83b7 353d 814a 783d fb67 7abd 1609 2c3d
00000030: fe7e 923d 94f8 c33d 14a5 32bc 8966 ea3c
00000040: 3d79 fe3c cc17 743d 644b b03d 917f c6ba
00000050: 225c b43d 2940 833c 6bb9 033e 5d0a 113e
00000060: 2a9a 8f3c 2505 b43d 5d23 4fbc 98ad 413d
00000070: 6475 063e 163f 933c d866 bbbc 0c9e de3d
00000080: 1471 2f3d ccb2 c63d fcaa d63d 900c 973d
00000090: 2505 e83d a84c 393e 42cd 4d3d 77bb 103e
000000a0: 1b3b b53c 9fd4 cdbc cb19 84bc 4a69 0c3c
000000b0: 8f36 3f3e 49fc 083e 08c6 dd3c a761 303d
000000c0: a402 13bd b181 373e 64f6 c23d 42ee 9c3d
000000d0: 199d 963d 571b 023d e4af b83d 8998 1a3e
000000e0: 98ba fc3d 58ca 213e 8cb5 1d3e a68a cd3d
000000f0: 2c48 2f3e 15df 123d e2ae e03d 1ed2 963d
00000100: 2af0 35bc c923 823e 0e72 c73d 0965 8dbc
00000110: 79c4 513e e514 ff3c e9e7 e93d 9d11 023e
00000120: de0a 0f3e c647 113e c859 f93d 5355 793d
00000130: d81f 253e 8fa2 153b 9c47 9eba bef5 d43c
00000140: a575 f43c 156a 533e 3d9b df3c 95e9 7ebd
00000150: 6f7d 983d 36e8 1c3d 3b46 4c3c 96be 683d
00000160: 1c1c 4a3d 13a4 523e db74 e03c e738 f8bc
00000170: 6714 fd3c d478 a43c 2953 b03c 47cb 963d
00000180: b2e9 d13b e5ed ae3d ab93 0e3e 7288 1f3c
00000190: d913 bd3d d2d4 8bba 74d2 4f3d c5f6 243c
000001a0: 48e0 8d3e c986 c83c 3c43 dd3d af34 1c3e
000001b0: 9ce2 983c 3bd6 203c 4c2d 813d 3dc4 803d
000001c0: 5591 253e 7e9e 653d 1546 3c3e b186 903d
000001d0: 2e3d 303e dcab 083e 2cea ee3d 0782 b13c
000001e0: 6bde 723d f81b 1b3d 95de 4d3d 0554 393e
000001f0: 493d a13d 8e5a 403d 665b 073d 97c1 a43d
00000200: d961 813d 9833 7e3d a9e2 8cbd 9e05 7cbd
00000210: 24b1 40bd fd1f 0e3d 103e 85bd 7445 743d
00000220: 40be 323d 45c1 26bd e6ed 93ba 1667 4d3d
00000230: 9279 e6bd dd99 b4bd c665 acbc 583e a8bc
00000240: 2e9c dfbc 0916 fa3c 132d 97bd bb7e e7bc
00000250: f3b5 f6bc 845d 0e3d b775 52bd 5193 773d
00000260: 813f 2dbd 97f0 913c 9d9f 4f3b 34b8 923d
00000270: 7812 f43c caa7 c93b 29e5 56bd 909e b0ba
00000280: 3c71 0abd 7ccf b83d a248 41bd cde3 f23d
00000290: 3407 3b3c 9476 b7bd 95c6 fd3b cb6c aabc
000002a0: 8eed f83c cbca 72bd c527 803d c50f b3bb
000002b0: e605 8abd a65a 813d be99 c83c e52b 20bc
000002c0: dc55 b5bc 7803 0d3d 8bf2 963c 0ca7 7fbb
000002d0: 548d a1bd 47c8 a93d d7a9 9a3c a623 2fbd
000002e0: 16d4 34bd c22d 673d 59a8 c7bc 5b44 603c
000002f0: e46b b23d eed9 543d 97b9 273d b0f4 a9bd
00000300: 5247 c03d fa5f 023d 0077 073c 8520 a73d
00000310: 86b3 7dbd 51de 3f3c 4a39 94bd c920 f43a
00000320: 9970 d4bc d006 143d 1511 9abd f2a4 71bd
00000330: 9cff b0bc 2da2 a6bc 5b72 8f3c 396e 9fba
00000340: 08f1 2bbc 6855 65bd 4a80 94bd cdb9 98bc
00000350: b307 ad3a fd31 91bc 57aa 4abd 948d ad3d
00000360: 82a7 a7bd daa1 c03d ead4 ac3d 87a5 5a3d
00000370: 2c5e 40bc b42e 093c 6554 b6bd 00e1 9d3d
00000380: 72cc 9ebd 2439 63bd ba93 34bc 6064 31bb
00000390: 1a39 1ebd 7511 133d 29c2 263d 7555 da3c
000003a0: 75c2 01be ce29 a33d 0a5c 83bc f784 cf3c
000003b0: 64c7 853d 1180 fa3c 6da0 8fbd 3ad0 d1bc
000003c0: 9cf1 9c3d b1aa 05bd 97d8 343c 5d8d 78bd
000003d0: a3ca 01bc 4603 793d d560 fa3b 49f4 9cbb
000003e0: 69b0 e43c ee56 abbd 5be6 23bd 1a46 8dbd
000003f0: 12be 303d c4e3 80bd 860d 13bd 53b9 43bc
0.082785234 0.13321218 0.013576617 -0.045124985 0.2041576 0.05350161 0.08789323 0.1297875
0.044364464 0.060617927 -0.06113432 0.042000853 0.07153128 0.09568897 -0.0109036155 0.028613346
0.03106367 0.059593007 0.086081296 -0.0015144219 0.088066354 0.016021805 0.128637 0.1416411
0.017529566 0.08790044 -0.012642709 0.047284693 0.13130718 0.017974418 -0.022876188 0.10869989
0.04283245 0.097020715 0.104818314 0.07375443 0.11329106 0.18095648 0.050244577 0.14134012
0.02212291 -0.0251258 -0.01612558 0.008570025 0.18673156 0.13377489 0.027071968 0.04306188
-0.03589119 0.17920567 0.095196515 0.076626316 0.07354183 0.031764355 0.090179235 0.1509725
0.123402774 0.15799844 0.15401286 0.10036211 0.17117375 0.03585728 0.10970856 0.073642954
-0.011104623 0.25417927 0.09738551 -0.017260091 0.20485105 0.031137893 0.114211865 0.12702031
0.13968989 0.14187536 0.121753275 0.060872387 0.16125429 0.0022832488 -0.0012075785 0.025996085
0.029841254 0.20645936 0.027295703 -0.06223448 0.074457996 0.03830739 0.012467916 0.056822382
0.049343213 0.20570402 0.027399471 -0.03030057 0.030893518 0.020077147 0.021524029 0.07362991
0.0064060325 0.085414685 0.13923518 0.009737121 0.09232301 -0.0010668284 0.050737813 0.0100686
0.27710176 0.024478333 0.108038396 0.15254472 0.018662743 0.0098167015 0.06307468 0.062874295
0.16168721 0.056059353 0.18386109 0.0705694 0.17210838 0.13346809 0.116657585 0.021668447
0.059294146 0.03786847 0.0502611 0.18098457 0.07873017 0.04696136 0.03304615 0.08044737
0.06317491 0.062060922 -0.068791695 -0.061528794 -0.047043934 0.034698475 -0.06505978 0.05963655
0.043638468 -0.04071166 -0.0011286109 0.05014714 -0.112536564 -0.088184096 -0.021044623 -0.02053754
-0.027296152 0.030528085 -0.07381644 -0.028258672 -0.030116057 0.034757152 -0.051381793 0.060443226
-0.04229689 0.017814917 0.003168083 0.0716404 0.029793963 0.006154035 -0.052464638 -0.001347499
-0.033799395 0.090239495 -0.04718841 0.11859856 0.011415292 -0.08958164 0.00774462 -0.02080383
0.030386712 -0.05927543 0.062575854 -0.0054645264 -0.06739406 0.06316118 0.024487372 -0.00977609
-0.022135668 0.034427136 0.0184262 -0.003900948 -0.07888284 0.08290153 0.018879814 -0.042758606
-0.044147573 0.056440122 -0.024372267 0.013688172 0.08711985 0.051965646 0.040948477 -0.082986236
0.09388603 0.03182981 0.008268118 0.081604995 -0.061938785 0.011710719 -0.072374895 0.0018625493
-0.025932597 0.03613931 -0.075227894 -0.058995195 -0.021606259 -0.020341003 0.017510584 -0.0012163586
-0.010494478 -0.055989653 -0.07251032 -0.018643284 0.0013201147 -0.017724032 -0.049478855 0.084742695
-0.081862465 0.09405871 0.08439048 0.053380515 -0.011741202 0.008372951 -0.08902816 0.07708931
-0.077538386 -0.055474415 -0.011021549 -0.0027067885 -0.038628675 0.03590532 0.04071251 0.026652077
-0.12671836 0.07966958 -0.016035099 0.025331957 0.06532171 0.030578645 -0.07013021 -0.025611985
0.07663271 -0.032633487 0.011037967 -0.06068169 -0.0079218475 0.060794137 0.007640938 -0.0047898632
0.02791615 -0.0836619 -0.040014606 -0.068981364 0.043150015 -0.06293443 -0.03590157 -0.01194604

bias_hh f4 [512]
00000000: bf92 4e3c 97ed 353d e71c e23d 4797 99bc
00000010: 8d46 3e3e d7e2 153d 463f e73d bd7e 003e
00000020: e762 dd3c 0673 eb3d 1737 cf3c 5480 d03d
00000030: 187c 67bb 381c 0f3d 7378 bc3d 5dff 443d
00000040: eb62 c7ba 41b9 ee3d 390b 14bd bbed 113e
00000050: 2a7d e93d ed63 6a3d 0ec2 d93d 9dcf 103e
00000060: d704 423d 68c9 123e 201d c9bc 6ba8 7639
00000070: b1d3 973d 329e dd3d c264 d93c 99be 023e
00000080: dba3 283e 622e 163e 71d7 0dbb 6c04 e23d
00000090: 7af9 58bd 48bd 023e 267c fc3d a746 803c
000000a0: 6675 e53d 3741 54bd 8322 b43d ad03 013c
000000b0: 6777 163e 9337 b23d 7b01 943d b7d9 6abd
000000c0: e302 093d e91c 553e 09b9 2c3e cfba 83bc
000000d0: ad04 243e 09fb 53bd 50fd 283e 5b96 463e
000000e0: 2906 2c3e 7274 c93d d17f f83d df3e ef3c
000000f0: 94c8 353e ec58 b93d ce89 2f3d c800 df3d
00000100: 8f3f 02bc 0dd8 303e 7d32 923b 6515 0e3c
00000110: d1fc 713e 0256 a03d b968 393e 9106 0c3e
00000120: 41ad a43d 0a2f 1a3e ea7c 3c3d fe68 f13c
00000130: c817 013e fd18 303d 919c 1a3e 88f3 f8ba
00000140: 74a8 e83d 5307 043e 7e2f 0c3e 997a 463d
00000150: c141 453e ec18 1c3e 8105 ef3c 8a83 103a
00000160: 26f3 e03b d505 313e 7a0a aa3d 592b b93d
00000170: a518 203d 2cb1 943c 57a1 873d 7c7d 513c
00000180: b028 ea3d 4f63 de3b 0e27 443e 253b 173e
00000190: 421c 203d 7c70 be3d b8dd 963c 50d7 6a3d
000001a0: 98d3 a73e 2480 3d3d 6319 cabb 6028 543b
000001b0: 9c05 90bc fb96 f83d 077b 7e3d 493c 5cbc
000001c0: 04fb e83d 8c5f f0ba d3b4 2e3d d046 073e
000001d0: ea98 403c a517 9e3d 5535 283e a36b f23c
000001e0: c743 413d 87ae 4ebd f728 573e ecac 9f3d
000001f0: ff06 f83d 2ab0 3fbd 2fc8 b73d d3e0 bc3d
00000200: d7cb b6bd ade6 02bd 1cce e0bc 5cb3 09be
00000210: c745 bbbc 474a 913d 2339 1e3d 36ee 4c3d
00000220: b37c a03d 9b51 1fbd aad0 e9ba f045 063d
00000230: 6bd3 f8bc b092 1ebc ab3b 8fbd 20f8 c1bc
00000240: 7553 9c3d 37f1 b43d 91b4 393d f601 9a3d
00000250: 657b f13c 8be6 22bc 1b6e e6bd c0d7 41ba
00000260: 1e3e c23d 6ed8 a83c aa0d 3cbc 86b9 973c
00000270: b60e 3fbd 2d4b 0e3e e148 31bd f449 23bd
00000280: 62b5 2fbc 0e6e a63d 4c3b 6d3c ef2d 213d
00000290: 96a3 083d 80d7 e3bd 3674 c0bc 1456 b33d
000002a0: e54c 323d 7e2f 8b3d 64ec 98bd 507d b33d
000002b0: 6fd1 b83c 168b 28bd 823d 6d3d 39bc 083d
000002c0: aa1f 9dbc 70e5 043d b426 b8bd 951a 8fbc
000002d0: ee08 24bd 7f8c 883d 762d 80bd e816 6bbd
000002e0: 0fd8 83bd f628 b83d 707d 763c 21fb cfbc
000002f0: 9816 443d 361c 48bd d789 3ebd 1299 ad3c
00000300: ff86 063d fd79 ae3d e2cc efbb 1705 933d
00000310: 5278 30bd ef7e a63d e683 a4bd d4cf 313c
00000320: ac73 3fbd 457f c53b b1e9 b2bd 0c71 42bd
00000330: 0fc9 043c 2a78 833d 997e b7bd 321c 8bbd
00000340: bce2 babd 1eed 0fbd 1585 4b3d 7d06 af3c
00000350: c2ee 583c 3108 483c fd8b 59bd 9e03 97bb
00000360: 8704 3abd 32b6 dc3d d1df 453d 2bc7 c83d
00000370: 2641 e23d 80d6 2a3d c881 963d 2426 6f3d
00000380: 05ed 543c 3875 673d 089a 44bd 4095 a53d
00000390: c0dc 17bd 94b8 a93c 4905 363d d583 973c
000003a0: 891b 10bd 2f5f 823d cd5c ac3d d1c9 90bc
000003b0: f493 ac3d d023 55bd 87b1 52bc 6174 8abd
000003c0: 8288 08bd 8c53 65bd 5928 02be 6f90 693d
000003d0: 6301 983d 0149 933c 6fb5 3bbc 02ad 35bc
000003e0: 488a 9b3b 40b6 193d dc4e 22bc 1c9d 8abd
000003f0: 4e95 4f3c 0c9f 8cbc 9c83 fe3d 41a9 aebd
0.012608229 0.044416036 0.11040669 -0.018748892 0.185816 0.036593284 0.11291365 0.12548347
0.0270247 0.11496548 0.025294824 0.10180727 -0.0035321768 0.03493902 0.09202661 0.048095096
-0.0015211975 0.11656428 -0.036143515 0.14250843 0.11400826 0.057224203 0.10632716 0.14141698
0.047367897 0.14334643 -0.02455002 0.00023523129 0.07413424 0.10821189 0.026537303 0.1276802
0.16468756 0.14666131 -0.0021643306 0.11036 -0.052972294 0.12767518 0.12328367 0.01565869
0.112040326 -0.051820006 0.08795645 0.0078744115 0.14693986 0.08702006 0.07226845 -0.057336535
0.03345002 0.2081181 0.1686746 -0.016080288 0.16017409 -0.051753078 0.16502881 0.19393294
0.16799225 0.09836663 0.12133754 0.029204784 0.17752296 0.090501636 0.04285603 0.10888821
-0.007949724 0.17269917 0.004461585 0.008672093 0.23631598 0.07828905 0.18106355 0.1367438
0.08040858 0.15057006 0.046017565 0.02946901 0.12606728 0.04299258 0.15098788 -0.0018993476
0.11360255 0.12893419 0.13689992 0.048456762 0.19263364 0.15243882 0.02917743 0.0005512765
0.006864923 0.17287381 0.083027795 0.09041471 0.039086003 0.018150888 0.0662257 0.012786265
0.11433542 0.006786741 0.19155523 0.14768656 0.03908945 0.092987984 0.01841627 0.057334244
0.3277862 0.046264783 -0.006167577 0.0032372698 -0.0175808 0.12138172 0.062129047 -0.0134421075
0.113760024 -0.0018339022 0.042652916 0.13210607 0.011755208 0.077193536 0.16426595 0.02959234
0.047183778 -0.05045941 0.2101172 0.07796654 0.121107094 -0.046798863 0.08973729 0.09222569
-0.08925598 -0.03195827 -0.02744203 -0.13447326 -0.02286042 0.070942454 0.03862871 0.050031863
0.078362845 -0.038896184 -0.0017838676 0.03278154 -0.03037425 -0.009678528 -0.06993803 -0.023677886
0.07633106 0.088350706 0.045338217 0.07519905 0.029477784 -0.009942661 -0.1125147 -0.0007394515
0.09484504 0.020611014 -0.011477867 0.018521082 -0.04664489 0.13895865 -0.043282393 -0.03986545
-0.010724397 0.0812646 0.0144794695 0.039350446 0.033359133 -0.11125088 -0.023492914 0.087566525
0.043530364 0.06796168 -0.07466963 0.08764136 0.022560803 -0.041148268 0.057919987 0.033382628
-0.019180138 0.03244537 -0.08991757 -0.01746873 -0.04004758 0.066674225 -0.06258671 -0.057394892
-0.06437694 0.08992188 0.015044555 -0.025388302 0.04787311 -0.04885503 -0.046518173 0.021191154
0.032843586 0.08519361 -0.007318125 0.07178705 -0.043083496 0.081296794 -0.0803297 0.010852773
-0.046741173 0.0060271346 -0.08735979 -0.04747109 0.008104577 0.06419404 -0.089596935 -0.06792487
-0.091252774 -0.035138242 0.049687464 0.021365399 0.013240518 0.012208984 -0.05311202 -0.0046085855
-0.045414474 0.107769385 0.04830915 0.09803613 0.11047582 0.04170847 0.073489726 0.058385983
0.012995963 0.056508273 -0.04799846 0.08085108 -0.037075758 0.020717897 0.044438634 0.01849548
-0.03518251 0.06365811 0.08416138 -0.017674359 0.08426657 -0.052036107 -0.012859709 -0.06760479
-0.03333331 -0.05598788 -0.12710704 0.05702251 0.074221395 0.017979147 -0.011456831 -0.011088612
0.004746709 0.037527323 -0.009906497 -0.067682475 0.012669874 -0.017165683 0.12427446 -0.08528376

weight_ih f4 [512, 128]
00000000: 9f48 7dba 806c a9bd 8f19 c5bb 064a d4bc
00000010: 7aab a2bc 8c76 263d 4432 333d 8048 803d
00000020: 66ef 26bc d9cb 8ebd c1a7 c7bd c2ca 903c
00000030: e632 363d 4ff6 8b3d edc9 32bd c540 843d
00000040: a2ca 5cbd 201f 343d 6c3f ccbc 3812 eebd
00000050: 8b29 7b3b cb0c a4bd bce1 d1bc 8f05 363d
00000060: a7ac bc3d 132b 82bd f4f0 81bc 95ee 433d
00000070: 5f13 8fbd 3540 383c 9145 6dbc 39a6 863d
00000080: c033 35bd 7809 563b dc73 9f3c aab6 e33c
00000090: 58c0 8f3d 14b0 b4bb 0ac1 0a3d 8a20 893c
000000a0: 4e2c 45bd 3df1 c53d 6586 b43d 11f5 b03d
000000b0: fc58 af3c 4441 7c3d 248f b8bd b099 fd3c
000000c0: d0be 46bd 6ca7 cc3d dc84 103e ec42 92bd
000000d0: f507 06bd 54c3 ac3d d8a9 073a db9b 3b3b
000000e0: b4ad 50bc 4f85 2bbd b33d d5bd b875 06bd
000000f0: a73b eb3c 36bb eabd 081b 36bd 7ca1 2e3d
00000100: 521f b1bd 1079 abbd 8916 24bd 2254 21bb
00000110: ef42 bfbd 8bcd 253c 55ab be3c 958f 653d
00000120: 2dc1 ae3d b3e9 9c3d 0d88 863c 3f63 6e3d
00000130: 613e 203d 094b 12bd 95de b9bd 6a31 9d3d
00000140: c649 57bc 3a9e c33b 1133 93bd 3a4d 25bd
00000150: 9eb8 03bd fc3f 093d 05bf b8bd ca73 a8bd
00000160: c42d a83c 22ae 2cbd ae59 aebd 7e56 883d
00000170: ed03 253d 2c17 dabd e775 8a3c dce0 58bd
00000180: 36c9 a03c bed9 90bb 6cb4 f8bc 3917 86bd
00000190: e1af 293d 5bc8 92bc 4878 a73d 975a 083c
000001a0: 26a5 0d3d 47c8 4abd f0e7 dbbc c815 b53c
000001b0: 3b58 f53c d9d2 693d 67cd adbd ceed 233d
000001c0: 572c 4bbd 2553 adbd 1694 a1bd 5712 9a3d
000001d0: b82f 193e a9aa 74bd 479a 073c ed4c 0ebc
000001e0: e23d 14bd db24 9a3d 4aae 98bd c6d5 ec3d
000001f0: b617 983c eb3c c93c 5ea5 37bd b12b 883b
00000200: c5cf cf3c 6fbf 033e 4be1 38ba f5b3 d6bc
00000210: f0c5 61bd 61ed 223d 0c63 a4bd 2b0c 34bb
00000220: ced3 983d cf53 8abc d6b5 6f3c 7376 ed3c
00000230: c6c5 0a3e 7b06 9239 5d06 bcbd 07bf 9bbc
00000240: d762 0f3d 7076 dd3b 69b1 eabc 2956 f83c
00000250: 5103 ae3d fc4e 11bd 3f68 683d e20e 4f3c
00000260: f33d 53bd 3685 21bd 875b 523d 5734 ee3c
00000270: 9ef9 583d e23f 80bc 8dda 943d ec70 b33d
00000280: 6eff 0e3e 53b7 933d 4a7c af3d 56e2 febd
00000290: 6b2c 483c 8a35 f2bd 2041 39bb d81c 393c
000002a0: aca9 81bb 5333 393c e97e ad3d 79fb cb3d
000002b0: dce2 333d 0aba 3039 1b88 9ebd e2a3 09bd
000002c0: e124 74bc d4f5 a83c 0327 a6bd bff2 443d
000002d0: b9b5 9d3d 9cda 863d ecea aa3d d72e b93d
000002e0: 662b 153e 279c 453b 745b f93d 0cd2 8ebb
000002f0: 2165 06bd 6887 b6bd 6f06 ac3d f036 803d
00000300: 40fe f7bc 085e ce3d 0536 1f3c 06d7 ff3c
00000310: 3c43 133e d4a0 d63c 4e3f 2a3d e8cf cabc
00000320: 6c3c 06be 4bfd 71bd 10ac 9cbc 3765 c2bc
00000330: 02dc 803d a5fe e83d 1fdd adbd 623a 17bd
00000340: 0ddf bebd c284 373c d8f2 dabd ef56 af3c
00000350: 276b f0bc 054b bc3d 58c8 8a3d d89a 4dbe
00000360: d694 be3d 4da0 6b3d e2f9 3cbc 992f 56bc
00000370: 026a 0b3e 72bb 213d 2c99 52bd d68d 01be
00000380: b799 e4bd 9f68 9bbc a1d0 a43d 7fd3 39bd
00000390: 8e26 f13c 43bc 64be 6690 053e 075e 5abd
000003a0: 0174 433d 109c bf3c a2e0 bf3d e948 9dbd
000003b0: 841b a63d 8136 babc bb1c fd3b e597 4a3d
000003c0: 77e2 873d a12d 0fbe f4ac 913d 3237 c03d
000003d0: 8595 d53c 854d 4a3d 509d a73d 2a8d 673a
000003e0: 685d 223e 92ab 13be cf23 453d 803c ebbc
000003f0: ab56 e6bd 5bd3 acbc bcca 613d 34dc 493d
-0.00096620055 -0.08272648 -0.0060150097 -0.025914203 -0.019857157 0.0406404 0.04374911 0.06263828
-0.010188913 -0.069724746 -0.097487934 0.017674807 0.044482134 0.06834089 -0.043649603 0.06457666
-0.053904183 0.043974996 -0.024932586 -0.11624569 0.0038324322 -0.080102526 -0.025620334 0.044438895
0.09212618 -0.06355872 -0.015861966 0.04783495 -0.069861166 0.011245777 -0.014481918 0.06574673
-0.044238806 0.0032659452 0.019464426 0.027797062 0.070191085 -0.005514154 0.033875503 0.016739149
-0.048137955 0.09665153 0.08814696 0.08640493 0.021404736 0.06158568 -0.09011677 0.030957073
-0.048521817 0.09992871 0.14113182 -0.071416706 -0.032722432 0.084356934 0.000517515 0.0028626833
-0.012736727 -0.04187518 -0.10412159 -0.03282711 0.028714968 -0.11461489 -0.044459373 0.042634472
-0.08648552 -0.083727 -0.040060554 -0.0024616797 -0.093389384 0.010119806 0.023275057 0.056045134
0.08532939 0.07661762 0.016422296 0.058200117 0.03912199 -0.03571609 -0.09075657 0.076754406
-0.013140148 0.00596979 -0.071874745 -0.040356852 -0.032158487 0.033508286 -0.09020809 -0.0822521
0.020529635 -0.042158253 -0.08513199 0.06657122 0.040286947 -0.10648951 0.016901923 -0.052948818
0.019627195 -0.004420488 -0.03035947 -0.06547398 0.041427497 -0.017917803 0.08177239 0.00832238
0.034581326 -0.049507406 -0.026843995 0.022105113 0.029949298 0.057085846 -0.08486443 0.04002171
-0.049602833 -0.08463124 -0.07889573 0.07523029 0.1495961 -0.059733067 0.008276529 -0.008685333
-0.03619183 0.07526561 -0.07455118 0.115642115 0.018565994 0.02456518 -0.04483544 0.004155599
0.025367627 0.12865995 -0.0007052614 -0.026208857 -0.05512041 0.039777163 -0.08026704 -0.0027473073
0.074622735 -0.016885666 0.014630755 0.028987145 0.13552007 0.00027852118 -0.09180901 -0.019011987
0.03500637 0.0067585036 -0.028649049 0.030314522 0.08496726 -0.035475716 0.05674004 0.012637826
-0.05157275 -0.03943368 0.05135682 0.029077692 0.05297243 -0.015655462 0.07268248 0.087617725
0.13964626 0.07212701 0.08568628 -0.12445514 0.012217621 -0.11826618 -0.0028267577 0.011298381
-0.003956994 0.011303741 0.08471472 0.09960074 0.04391752 0.00016853973 -0.07740804 -0.033603556
-0.014901371 0.020625032 -0.0811291 0.048083063 0.077006765 0.06584665 0.08345589 0.09042137
0.14567336 0.0030152889 0.121756464 -0.0043585356 -0.032811288 -0.089125454 0.083996646 0.062604785
-0.030272603 0.10076529 0.009717469 0.03123046 0.14381117 0.026199736 0.04156428 -0.02475734
-0.13108987 -0.05907945 -0.019125015 -0.023729904 0.06291963 0.113766946 -0.08489441 -0.036920913
-0.09319887 0.0112010855 -0.1069085 0.021403758 -0.02934797 0.09193996 0.06776494 -0.200786
0.09305732 0.05752592 -0.011534186 -0.013072872 0.13614658 0.039485402 -0.051415607 -0.12651762
-0.11162131 -0.018970786 0.08047605 -0.045367714 0.02943733 -0.22337441 0.13043365 -0.053312328
0.04771805 0.023389846 0.09369017 -0.07679922 0.08110717 -0.022731068 0.007724372 0.049461264
0.066349916 -0.1398225 0.07113066 0.09385528 0.026072273 0.049390335 0.08184302 0.0008832986
0.15855944 -0.14420918 0.048129853 -0.028715372 -0.11246999 -0.021096876 0.055124983 0.049282268

weight_hh f4 [512, 128]
00000000: 0991 7d3c 29c2 c6bd 33b6 21bd 143e 7ebc
00000010: 5866 ef3c ef4a 97bd 9f6f 8ebc 1469 9a3c
00000020: e335 16bc fc4c 913d 2c57 7fbc 2e49 373d
00000030: f5d5 80bd 9f22 b9bd d800 a8bc 2498 83bd
00000040: aeca f5bc 7767 a53d 43fe 5ebd 2c73 02bd
00000050: a357 8cbd 3484 f3bc 838c 223d 1e15 a2bd
00000060: a80e 94bd fd91 d13d 95a1 193d 983a a0bc
00000070: 4b78 66bd 5e41 943c 4aa7 67bc 77fb 123d
00000080: 7af6 b83d 5755 88bd 1a8b b6bd 39fa 77bd
00000090: 43cf 8abd 7dab 063c d830 6ebd 043c 543c
000000a0: 7a63 2ebd 80e3 9d3d 590e 9a3b cc3f 99bb
000000b0: 293b 1fbc ea2d 0a3d 209c 4c3d 8c47 96bc
000000c0: 643f 153e 5220 bcbd d51e 4a3c d898 47bc
000000d0: 93d4 1c3d 47fe 84bc ba37 9bbd fc4a 4d3d
000000e0: 15ee 90bd 2db5 41bd 2224 c63d e843 4f3d
000000f0: 663f 243d 7a30 22bd 261c 9f3d 588d 883d
00000100: 3c73 a43d e843 82bd 94a8 a53d 5ea9 afbd
00000110: 47a4 553d 45b1 323d de50 28bd 0fe7 413d
00000120: 3ac6 a43d b777 483d 9eb2 9b3a df9f 29bd
00000130: dcef a5bd 248d 623d 4769 753d b808 b83d
00000140: da5d 23bd 760b 88bd 7b2c 743d 7f53 afbd
00000150: cd79 363d d20d 1fbc bcd3 10bd 2c85 693b
00000160: 21f6 683d 83a4 e43c f702 1a3d 3378 af3c
00000170: 552e 9cbd 2174 73bc d6ad aabd 759f acbd
00000180: 6b20 61bd cfed 183d 50e8 633d 184e 0d3d
00000190: 5895 6dbd 28a5 41bc dbb8 c73c 3d17 c0bc
000001a0: 1d61 8d3c 6a00 04bd 4b8a b03d 9f5c cebd
000001b0: d4c6 c23c 5658 fb3d 3d68 83bd 11ef 053c
000001c0: 9c19 733c 8dbe 4dbc 3836 b03d 5f9a c93b
000001d0: d2d8 473c a3e5 92bd c04c 59bc 1b00 b03d
000001e0: df6c 4a3d 940e f0bc 9dd4 02bd b938 ee3b
000001f0: 02f9 b739 6aea 47bc f836 493c bfd5 863d
00000200: 17e0 233e 664e a53d cd3e 32be 7081 29bd
00000210: 0bea f93d 8602 0f3e f5be 113c 953a 883c
00000220: f857 0cbd d109 ccbd 95e8 7e3d e360 b4bd
00000230: 517f 87bd 6180 523d 8b59 43bc eaf6 8ebd
00000240: c15e fd3b 41cc 1e3e e1dc a53c 9dfd 993a
00000250: 4338 df3d aacc 8cbd b77b dbbd 0dd9 c6bd
00000260: db58 82bd 4dd9 483e 4d10 b63d 08e5 e93d
00000270: e640 d03b 23d9 e13d 7eb9 943d 2869 bb3b
00000280: 525f 133d 90d7 cc3c b5ea b2bc 4793 60bd
00000290: 6cad 6bbd 8030 5a3d b3b8 0bbd d61f afbd
000002a0: 4efc b5bd d890 ec3d 6cb1 0cbd b97e ff3c
000002b0: 2dc6 193e 2c19 8ebd 504f 7f3d c1f2 26bd
000002c0: 00e0 19bc be2b 393b 70eb 853c 602a 0bbd
000002d0: 33e9 70bd cb94 a2bd 2a71 57bd bfe0 a3bd
000002e0: 17f7 013e b222 46bd 92eb e3ba 3bf8 ba3c
000002f0: 6353 ebbc 898f 2a3d 0cc0 543d 842f 4c3d
00000300: 64f1 703c b470 85bb e6dd 013e 8eb3 debd
00000310: 081f cebb 3f94 e53d 9b73 c23d 25dd 8fbd
00000320: 2980 f73d 1cb2 73bc 5533 73bd a096 aebc
00000330: 603a f63b da92 e8bd b387 6dbd 7e3b 02be
00000340: efca 22bd b9f5 1cbe d671 3f3d 80c2 c0bd
00000350: 30a5 e43d 42f0 453e 36eb e73d aef3 44be
00000360: eee7 c83c 5e80 8a3b c6ef a43d 6a70 ad3b
00000370: 3c0c 17be 155c f7bd dc66 c53b 477d eabd
00000380: 48c5 b2bd 97a5 b23b 8696 8d3d d224 d43d
00000390: d1fc 7dbc d4c0 c9bb af45 283d cd97 0ebe
000003a0: 0d65 08bd def0 fabd a68d b6bc 623b 13be
000003b0: 62af df3c 7f95 c3bd da44 ba3d e8a2 a8bd
000003c0: 3c7f 1d3e 4e93 d33d 9449 e5bd 691a acbd
000003d0: eb3d f4bc 9c55 063e 78a2 043e eac2 4cbc
000003e0: 68fd 7bbd 2783 17be a8c0 e83c 74e6 073e
000003f0: ec2d 483e b015 ad3c 1e20 86bc 9708 023e
0.015476474 -0.09705002 -0.0394804 -0.01551773 0.029223606 -0.07387339 -0.01738721 0.018848933
-0.009168121 0.07094762 -0.015584748 0.044747524 -0.06290809 -0.090398066 -0.020508215 -0.06425503
-0.030003872 0.08076375 -0.0544417 -0.031848118 -0.06852653 -0.029726125 0.039684784 -0.07914184
-0.07229358 0.10232923 0.037507612 -0.01955919 -0.056267064 0.018097576 -0.014139006 0.035884347
0.09031387 -0.06656902 -0.0891325 -0.060541365 -0.06777813 0.008219597 -0.05815205 0.012953762
-0.042575337 0.07709408 0.0047014174 -0.0046767946 -0.009718695 0.033735193 0.04995358 -0.018344663
0.14574963 -0.09185852 0.0123364525 -0.012182437 0.038288664 -0.01623453 -0.075789884 0.05012034
-0.070766605 -0.047291923 0.096748605 0.05060187 0.040099524 -0.039597012 0.07769041 0.06667584
0.08029792 -0.06360608 0.08088794 -0.08577226 0.05215862 0.04362609 -0.041092746 0.047339495
0.08045621 0.048942294 0.0011878794 -0.04141223 -0.0810239 0.055310383 0.059914853 0.08986038
-0.039884426 -0.06642811 0.059612732 -0.085608475 0.044549752 -0.009707885 -0.035358176 0.0035632355
0.05687535 0.027910477 0.037600484 0.02141962 -0.07626025 -0.01485923 -0.08333938 -0.084288515
-0.054962557 0.037336167 0.055641472 0.034498304 -0.058003753 -0.0118191615 0.024380138 -0.02344858
0.017258221 -0.032226957 0.08620127 -0.1007626 0.02377645 0.12272708 -0.06416366 0.008174674
0.014837649 -0.012557638 0.086040914 0.0061524357 0.01219769 -0.07172706 -0.0132629275 0.0859377
0.049420234 -0.029303826 -0.031941045 0.0072699455 0.00035090005 -0.012201885 0.012281172 0.065837376
0.16003452 0.08071594 -0.17406769 -0.041383207 0.12202843 0.13965806 0.008895625 0.016629497
-0.03426358 -0.0996281 0.062233526 -0.08807542 -0.066160806 0.051391963 -0.011923204 -0.06980689
0.007732243 0.15507604 0.020246925 0.0011748556 0.10899403 -0.06874974 -0.10716956 -0.09709368
-0.06364604 0.19614144 0.08889828 0.11420637 0.0063553927 0.11027744 0.07261942 0.0057193227
0.035979576 0.025005132 -0.021840433 -0.054827955 -0.057538435 0.05326891 -0.03411169 -0.08550994
-0.08886014 0.11551064 -0.03434889 0.031188356 0.15017004 -0.06938395 0.062331498 -0.040758852
-0.009391785 0.0028254832 0.016347617 -0.03397596 -0.058816146 -0.07938536 -0.052598156 -0.08001851
0.12691914 -0.04837293 -0.0017388931 0.022823444 -0.028726285 0.041640792 0.051940963 0.049850002
0.0147059895 -0.004072273 0.12682304 -0.10874091 -0.0062903203 0.11209916 0.09494706 -0.07024602
0.120849915 -0.014874008 -0.059375126 -0.021312058 0.007514283 -0.11356135 -0.05799074 -0.12718007
-0.039744314 -0.15328111 0.04673942 -0.09412098 0.111643195 0.19329932 0.1132416 -0.19233581
0.024524655 0.0042267283 0.08053546 0.005292942 -0.14750761 -0.1207811 0.0060242247 -0.11449676
-0.08729035 0.0054518688 0.06913476 0.103585854 -0.015502171 -0.00615702 0.04108208 -0.13925095
-0.033299495 -0.12252973 -0.02228434 -0.14378121 0.027305309 -0.095499985 0.09095164 -0.08234197
0.15380567 0.103308305 -0.111956745 -0.08403475 -0.029814681 0.13118595 0.12952602 -0.012497643
-0.061520964 -0.14796124 0.028412178 0.13271505 0.19548768 0.021128505 -0.016372737 0.1269859

bias_ih f4 [512]
00000000: c8da ea3c a1a6 143e 0f05 7a3d e886 6c3d
00000010: ad0d fcbc 1eda 203d 669c 583e c3ab 963d
00000020: 89b3 753e a415 e53d 540b bd3c e6d4 023e
00000030: 465f 3c3e 191c 103e 58b6 a93d 7277 6f3e
00000040: 584b 88bc 2fd6 163d 6884 e43d 0345 a33d
00000050: 27d3 233e 1fa7 033c 5d0e b93d 9f7b 7c3d
00000060: 6d3f f23c 6dfb 27bd f557 a23c fe7d 893d
00000070: 4693 8f3d c8ae b7ba 2c44 523e 6e13 293e
00000080: 7c59 2f3e 1314 4d3d c1e6 af3d 874d df3d
00000090: b27f 503e 4508 ed3d d01a a53c 67ca e43d
000000a0: 5fb8 203d 72b2 a03d 914f 103e 26c6 3c3e
000000b0: aff3 d53d 2db0 9e3c f8c8 113e d3c6 5e3e
000000c0: 5849 0d3e 3e68 d23d fc8c be3c b244 453d
000000d0: 9c23 2e3c bdd9 cd3d 6397 333d 7b03 053e
000000e0: 99c3 873d d1f5 dd3d 4b62 893d 81f7 05bc
000000f0: eb34 cb3c 3288 263d a415 a33d 1adf e03d
00000100: 8e73 81bc 5e47 223b f841 403e 5c4a a63b
00000110: 34f3 f63d d0fb 873c c5a4 0a3b e9e1 aebc
00000120: 7d96 57ba 8cd0 893c b070 423d c243 453e
00000130: 4d4a 6dbd 0b47 9b3d cb09 d23d d660 1a3e
00000140: 97a7 c43b 7237 b93d bec0 883d fe76 8f3d
00000150: f82f c03d c9d7 313d d3a1 1c3d c895 b03d
00000160: 9bf0 1b3e c3d6 d83d 80f7 753e 0d38 183e
00000170: 9a34 d73d 7ed6 a93d 8007 f93d 43e0 1c3e
00000180: 5a0a 143e 6ec4 733d 3190 71bc ec41 163e
00000190: 0170 d23e c851 6dbd 9e9d 973c e1d9 ec3d
000001a0: a65b 883c 721f b23d 77e5 3dbc 5f8a ba3d
000001b0: 46f6 be3d 31f1 6b3e ee9c 9b3d 960a 483d
000001c0: b6c8 9c3c eee9 613e 1364 5a3e bcd3 b23d
000001d0: 04f2 2d3e f569 093e d38b d53d deba 843c
000001e0: 8966 6fbc 0d24 7d3d 1ab7 3d3e 8b53 573d
000001f0: 50de fd3d 0645 1d3e 03cf d93d 9803 2b3e
00000200: a225 823d abd6 7d3b 9d85 933d c113 d4bd
00000210: 042b 31bd b3fa 2bbd 07d2 203d 5c20 85bc
00000220: 06e9 773b a9fb 7bbd 4ac4 193d 058b 383c
00000230: 58ae 9d3d 7509 393d 7991 053d 85b8 16bd
00000240: ee87 e23c 40a6 063d 2dd5 0bbd cdea b3bd
00000250: 3e89 383c c8cc 48bd a4f8 2d3d a776 ed3c
00000260: e2fe 0a3d c497 29bd ae19 3abd eec8 85bd
00000270: 437d 5ebd 34ad 46bc 4c2a d93c 7593 3abd
00000280: 0e23 a3bd 88db b9ba 5b09 07bb feea 61bc
00000290: 2c39 d939 3e66 ffbc e4c9 b73b 55e3 84bd
000002a0: 15e7 c13d 539a bbbd 00fd acbc 391d d83c
000002b0: 12fc 3cbd f00c 86bd 710b e33c dd27 74bd
000002c0: c77c fabd 37ce d8bd 557f b03c 9c4e 3f3c
000002d0: 9373 713d 470b 27bd ced7 113d 4626 303d
000002e0: 0996 11bc 199d afbd b2a6 a03d 52ba d1bd
000002f0: bac2 43bd d964 8bbc 9a14 03be eae0 35bd
00000300: acc0 483d f480 c43b c5e5 5cbd 3795 5fbd
00000310: 5dac 3a3d 28e9 0abe 1625 573c fd4d dbbc
00000320: b459 883b c23e f4bd a0f0 89bc 1276 71bd
00000330: a1d9 003d c89e 383d af68 a5bd f200 473d
00000340: 7e90 983d e7e5 92bd c775 8f3d e46a 2f3d
00000350: 7d29 85bd b0dd c03d fcb8 c13a 39d3 88bd
00000360: a63b 763c 138a a1bd 08d0 24bd 23d1 913d
00000370: 5546 cf3c d040 4bbd 3f21 3c3b 3b3a 0fbd
00000380: cf58 963c 98fc d33d 671c bdbb e098 f3bc
00000390: ce27 f5bd 54de afbc 4282 8aba 2a4b 863d
000003a0: 9a36 c8bd 1e73 0cbd 161f fa3c d56f 753c
000003b0: 26a7 c1bd 4703 c5bd 9af6 22bd 4a54 9a3d
000003c0: 4e9f 233d de68 2a3d ce8c e5bd 2580 533d
000003d0: 08ae 853c 6749 793c 0678 b0bc 2a93 e13b
000003e0: 717e aabd 3a4e 193c 956c 26bd 2130 0abd
000003f0: 5fdb 123d e4ca 77bd 30b7 083d 7607 8fbd
0.028668776 0.14516689 0.06103998 0.057745844 -0.03076824 0.039270513 0.21153411 0.0735698
0.23994268 0.11185768 0.02307669 0.12776527 0.18395719 0.14073218 0.082867324 0.23385409
-0.01663749 0.036825355 0.11158067 0.07972147 0.15998517 0.00803545 0.09035943 0.06164133
0.02957126 -0.041011263 0.019817332 0.06713484 0.07010512 -0.0014013881 0.20533818 0.16511318
0.1712398 0.050067972 0.08588935 0.10903459 0.20361212 0.11573843 0.020154387 0.11171418
0.03923833 0.07846536 0.14092852 0.18434963 0.104468696 0.019371117 0.1423682 0.21755533
0.1379751 0.10273789 0.023260586 0.048161216 0.010628607 0.10051296 0.043845546 0.12989609
0.06629104 0.108379014 0.06708201 -0.008176685 0.024805507 0.04065723 0.07963112 0.10980053
-0.015802171 0.0024761776 0.18775165 0.0050747823 0.12058106 0.016599566 0.002115534 -0.021347957
-0.00082240236 0.016823076 0.04747075 0.19264129 -0.057932187 0.0758191 0.10255774 0.15076002
0.0060014236 0.090437785 0.06677388 0.07005118 0.09384149 0.04341868 0.038240265 0.086223185
0.15228502 0.105878375 0.24020195 0.14865132 0.1050808 0.08292864 0.12159634 0.15319924
0.14457074 0.0595135 -0.014743851 0.14673585 0.41101077 -0.05793932 0.018507775 0.115649946
0.016645264 0.08697404 -0.011590353 0.091084234 0.09324317 0.23041226 0.07598291 0.04883822
0.019138675 0.22061893 0.21327238 0.087317914 0.16986853 0.13419326 0.1042706 0.016202386
-0.014611849 0.06180196 0.18526879 0.052569907 0.12395918 0.15358362 0.106351875 0.1670059
0.06354834 0.0038732688 0.07203219 -0.1035533 -0.043253914 -0.041987132 0.039262798 -0.016250782
0.0037828102 -0.0615193 0.03754071 0.011263614 0.07699269 0.045175035 0.032609437 -0.036797065
0.027652707 0.032873392 -0.034138847 -0.08785019 0.01126319 -0.04902342 0.04247345 0.028987242
0.03393448 -0.0414045 -0.045434646 -0.06532465 -0.054318678 -0.012126256 0.026509427 -0.045550782
-0.079656705 -0.0014179805 -0.0020604942 -0.013788937 0.00041432062 -0.031176683 0.005608784 -0.06488673
0.094679035 -0.091602944 -0.021116734 0.026381122 -0.04613883 -0.065454364 0.027715417 -0.05960833
-0.12230831 -0.10586207 0.021545092 0.011676457 0.05894811 -0.04078224 0.035606198 0.04300525
-0.008885869 -0.08574886 0.078442946 -0.10240616 -0.047793128 -0.017015861 -0.12800828 -0.044403948
0.04901187 0.0059968177 -0.053930063 -0.05458566 0.045574535 -0.13565505 0.013131401 -0.026770586
0.004161084 -0.119260326 -0.016838372 -0.05895049 0.031457547 0.0450733 -0.080766074 0.048584886
0.07449435 -0.07172757 0.07004886 0.04282655 -0.06502054 0.094172835 0.0014779861 -0.066809125
0.01502887 -0.07887664 -0.040237457 0.07119968 0.025302092 -0.049622357 0.002870634 -0.034967642
0.018352894 0.10350913 -0.005771208 -0.029735982 -0.11970483 -0.021468319 -0.0010567384 0.06557305
-0.097760394 -0.03428947 0.030532401 0.014980276 -0.09455709 -0.09619766 -0.03978596 0.07535608
0.039946847 0.041603915 -0.11208497 0.05163588 0.016318336 0.015215254 -0.021541607 0.0068839984
-0.08324898 0.00935703 -0.040630896 -0.033737306 0.03585374 -0.060496226 0.033377826 -0.06983845
