logs/dive_rp_vary_oracle/9/actor.pt (torch, 879410 bytes, 17 tensors)

weight_ih f4 [512, 35]
00000000: 22c4 8d3c 56e7 d83d 5ff2 b3bd f836 55bd
00000010: ca21 51bc d7ba 0abd fae4 4e3d c163 ff3d
00000020: 829e 003d 2899 7e3d 4029 b03d 1217 40be
00000030: 0581 853d 5dd4 85bd ba17 0e3d ae08 36bc
00000040: 31c0 c83d e31d 963e 6e55 10bd 299e 0bbd
00000050: 279c 363e 1db0 ea3d 5457 2cbc 793d 8a3d
00000060: 9116 30bc 3945 323e 32fe 153e 52d5 e4bd
00000070: 7d13 0bbb 17af cdbd db78 803d 414c 6d3d
00000080: 9217 80bd f91c 71bc 1133 d1ba fd48 a8bd
00000090: 368c 50bd e6c6 dc3d fb8f a73c 6db1 053e
000000a0: fdcd b93d ac1e 263c 8112 8e3d 61fa dabd
000000b0: d048 a6bd 7624 123c bf80 503d 807b ee3d
000000c0: cecb 17be 57c7 7ebd e616 dc3c 1bcc 8e3d
000000d0: 715d 253e b0e9 003d 2bfd d13d 610d e93d
000000e0: 5a20 f53d 9475 8abd 09e8 1bbd 309a 96bd
000000f0: cacf 633d c6f2 ec3d c848 f1bd 9623 2f3d
00000100: 8920 edbc 9a50 d4bd c9a9 1a3d b072 f73b
00000110: 462c 1d3e b03b e33d 815d 56bd c8d5 cbbc
00000120: 9782 f73c b19d 773d 6104 af3d 219e d03d
00000130: efbd b1bd d6ac 923c 786e 953d cb09 b1bd
00000140: b702 bcbd c73a 0a3e cc5a a73d 32d5 86bc
00000150: 1f98 1bb9 cb4c 9dbd 3a8b a43c eacf 813d
00000160: cba0 b6bc 2bfe 1cbd 0a5d 7c3e afa4 f43d
00000170: 8ead 8d3d cb8b 853d 63c5 aabe d175 39bd
00000180: 8159 403c 274d 193c 2867 cbbd 0d57 30be
00000190: 5c86 e43d 0e2d 3b3d e0e3 95bd 8896 d4bd
000001a0: 803c 873c 0561 3f3d 0fb4 5abe 12b3 69bc
000001b0: 017c 723c edd2 013e 7f7c f2bd f59b 443e
000001c0: e1e1 c23b 58ce 4e3e a421 84bd da08 89bd
000001d0: 58d5 0dbe 2484 b9bc 241b 473e bc53 cfbc
000001e0: 34ab 9c3d 1f0c f1bc 1393 02be d7e8 b63d
000001f0: f2fb f9bd 077f a13c 4dd1 6dbd 96ca 553d
00000200: 5c1c dd3c 7605 37be 126e 8fbc fc39 87bd
00000210: 05db 39bc 623e 063d 02db 0d3d 8d89 b4bb
00000220: d898 91bd e5e7 6ebd 869a 1d3d fecb ad3b
00000230: 8ae5 283e 3401 67bd 17ef ff3d 6992 d83a
00000240: 1702 3ebd b629 2fbd 1a8c 333e 5a4f 48bd
00000250: dc26 0ebc bc2e 3fbd 94a9 aebd 5c1a afbd
00000260: e5e5 1abc dd95 cc3d 8e57 5a3d e008 0f3b
00000270: 18b6 8ebc f6e6 723d c5ee 803d f80d 81bd
00000280: 8090 acbb 14e5 acbd 6b1b ddbc 0b50 b6bd
00000290: b445 9f3d bf62 4abb f8ed 98bc 6960 8bbd
000002a0: 3a57 d5bd 2a4a ad3d fe47 213e 39c9 93bb
000002b0: d25b 833b dfc7 0f3e 8273 31be 96c4 2f3d
000002c0: 9934 393d b85b b6bd 1124 973d e111 4cbc
000002d0: 31b8 2c3d a8f5 3a3e deb9 183c 7836 353e
000002e0: 006a 063d f1e2 003d 1e6b a2bd 4636 a4bd
000002f0: 7e75 443c e33d 2a3d 21d5 103e 0dd0 0e3e
00000300: 4a72 03be e7b0 86bc 05aa e2be 51c4 573d
00000310: c7f4 3abd 3308 5b3e 259c b43d b768 923d
00000320: 4f6a 073b 13c5 70bb 1da3 d33c 49f5 313e
00000330: 420e 48bd f155 ca3d a0c7 8bbd 5cb5 d33d
00000340: c816 c63d ae6d 573e b296 6d3d 7c5f d7bd
00000350: 37b7 ed3c 323f c6bd e3c4 703d 5618 1ebd
00000360: 6f03 2ebd cc2e 66bd b452 ff3d 4b7f a3bd
00000370: a95a 853b 8b14 d93d 70f5 f43a 3791 db3c
00000380: 4533 08bd 6cd7 d03c 7f4e ffbd cd03 eb3b
00000390: 4531 d13d 5e5f 94bd c167 01be f388 de3c
000003a0: 47cb f83c 15fb a13d 74f9 d53d 3362 83bd
000003b0: edd3 733c 2ac8 1cbe 17dc dcbd 81f9 373d
000003c0: 81c9 ce3c 13be f43d 0661 ecbd a45b 74bc
000003d0: 8162 d53d 0576 0cbe 1fe2 2f3d 620d b0bd
000003e0: 2ccb aa3c ac70 12bd d376 71bc 35e6 cbbc
000003f0: 1e3c 253e 174e 133e cd42 bebd a2fc bd3b
0.017305437 0.10590999 -0.08786463 -0.052054375 -0.012764404 -0.03386959 0.050511338 0.124701984
0.031401165 0.06215778 0.08601618 -0.187588 0.06518749 -0.06534646 0.034690596 -0.011110468
0.098022826 0.29319677 -0.035237722 -0.03408638 0.17833005 0.11459372 -0.0105188675 0.06750006
-0.010747568 0.17409219 0.14647749 -0.111735 -0.0021221333 -0.10043161 0.06273051 0.05793405
-0.06254496 -0.01471638 -0.0015960654 -0.082170464 -0.050914966 0.10780124 0.020454397 0.13055964
0.09072492 0.010139149 0.06937123 -0.10692287 -0.08119357 0.008919826 0.05090403 0.116446495
-0.14823839 -0.062201824 0.026866388 0.06972524 0.16148926 0.03147286 0.10253366 0.11379505
0.11969061 -0.067607075 -0.038063083 -0.07353628 0.055618085 0.11569743 -0.1178146 0.042758547
-0.028946178 -0.10366936 0.037759576 0.0075515136 0.1534892 0.11095369 -0.052335266 -0.024882212
0.030213637 0.06045312 0.08545757 0.10186411 -0.08678805 0.01790468 0.07296461 -0.08644446
-0.09180205 0.13498984 0.08171615 -0.016459081 -0.00014838621 -0.07680663 0.02008592 0.063384846
-0.022293469 -0.03832833 0.24644867 0.119454734 0.069178686 0.06520804 -0.3335372 -0.045278374
0.011740089 0.009356773 -0.09931785 -0.17220707 0.111584395 0.045697264 -0.07318854 -0.10380274
0.01650834 0.046723384 -0.2135775 -0.014263885 0.014800073 0.12678118 -0.11840152 0.19200118
0.005947337 0.20195901 -0.06451729 -0.066911414 -0.13850915 -0.022646017 0.19443947 -0.025308482
0.07649842 -0.029424725 -0.12751417 0.089311294 -0.12206258 0.019713892 -0.058060933 0.052195154
0.026991062 -0.17873177 -0.01750854 -0.066028565 -0.011343722 0.032774337 0.03463269 -0.0055095614
-0.07109231 -0.05832662 0.038477443 0.005303859 0.16493812 -0.05639763 0.12496775 0.0016523126
-0.04638871 -0.042764388 0.17533913 -0.0489038 -0.008676257 -0.04667543 -0.08528438 -0.085499495
-0.009454225 0.09989522 0.053306155 0.0021825358 -0.017420813 0.059302293 0.06295542 -0.063014925
-0.005266249 -0.08442131 -0.026990613 -0.08901986 0.07776967 -0.0030881611 -0.01866816 -0.06805498
-0.10417028 0.08461411 0.15750119 -0.0045100716 0.0040087486 0.14041089 -0.17329219 0.04291209
0.045216177 -0.08904213 0.07379926 -0.012455435 0.042167846 0.18257773 0.009321658 0.1769656
0.032815933 0.03146643 -0.07930587 -0.08018164 0.011990903 0.041562926 0.14143802 0.13946553
-0.12836567 -0.016441775 -0.4427034 0.052677456 -0.045643594 0.21389847 0.08818845 0.07148879
0.002066273 -0.003673856 0.025834614 0.17378725 -0.048841722 0.09879673 -0.06825185 0.10337326
0.09672314 0.21037933 0.058005042 -0.10516259 0.029018028 -0.09680022 0.058781516 -0.038597427
-0.042483743 -0.056196973 0.12466946 -0.079832636 0.0040696454 0.105996214 0.0018688869 0.026802642
-0.03325202 0.025493346 -0.12466144 0.007172084 0.102144755 -0.07244752 -0.12637235 0.027164912
0.030370368 0.07909218 0.1044797 -0.064152144 0.01488207 -0.15310732 -0.10784166 0.04491568
0.025242569 0.11950316 -0.11541943 -0.014914427 0.10419179 -0.13716896 0.042940255 -0.085963026
0.020848833 -0.035751984 -0.014737803 -0.024890045 0.16136214 0.14385258 -0.09290085 0.0057979384

weight_hh f4 [512, 128]
00000000: 48e3 03be cfe2 cdbd ef6a 89bc aba6 a3bd
00000010: 9fca d7bd 443a 7abd 7a91 c33d f772 babd
00000020: 0de9 5d3d a105 17bc 6c6b 83bd 68ec ecbb
00000030: 5f37 ecbd 68eb bcbd 1ab7 d73c f41c 79bd
00000040: c54a 9f3d 568f 4ebd 220a a53d 199b 1abc
00000050: 3e81 96bd b8ff 20bd 9d26 083c 7958 0bbd
00000060: 9b02 143d 8094 543d f9aa 78bd 136b ff3d
00000070: 2f03 1ebd fe95 07bd 549d 0c3e e4b7 99bd
00000080: e1db 873c 3483 d5bd 4c55 083d 8c6a 1dbd
00000090: 25ba 9c3d 6adc 9dbc 5ae5 863b 3faa 923c
000000a0: 812a 083c dc14 5dbd 5386 34bd e5a5 beb9
000000b0: 44da 3a3d 3fda c3bd 88f5 85bd f2f3 053d
000000c0: 0720 efbd 6f47 443d 7ad2 f43d 84b0 0fbd
000000d0: 7ba2 4b3d cb1b 643d 15cb ca3c 41a0 38bd
000000e0: 2cbd 89bd 3bfe 0abd df0b a23c b472 55bd
000000f0: 8643 84bc 7043 1e3d 8726 023e 440d 8cbd
00000100: 1c80 1ebd b634 d53c 0e15 393d 99e8 f63d
00000110: c21d 2cbd 9eea ad3d 0584 d7bc cd1c 0a3e
00000120: ec82 133d 498d b2bd 2280 843c 1a50 d1bc
00000130: 409f e9bd 2b85 963c 7eec 03bd fcfe 393d
00000140: e074 c63d 5bcc 223b b459 b23d e72e 04bd
00000150: 6ac3 b7bd d2ce 863d 9875 143e f6a6 853d
00000160: 04db 1fbd 7546 8dbd f71b 73bd c1e0 17bd
00000170: 45b7 0dbc 1834 00bd a4b4 2bbd ce24 95bd
00000180: 832e 9b3c f0c0 243d 2a1e fe3d 82f8 88bc
00000190: 24cf df3d f46f abbb 842e ce3d 582a d0bd
000001a0: 6c65 44bd 5a08 79bd d505 8b3d 805e 0abe
000001b0: 1799 123d 64c3 67bd 007e e73c 125b 78bd
000001c0: 5086 99bc 1442 babd af5e 3f3d 60a7 c73d
000001d0: 717f b23c 12f7 303c c53c 4b3d 9d35 b8bc
000001e0: f506 9c3c 7bc3 773d 1b9c 33bd 722b a1bc
000001f0: 4ebd 3b3d 86a6 003e cbc2 673c adfa 473d
00000200: 74b6 3f3c 8601 e0bc f165 233d 3826 dfbd
00000210: 572f a43c 58d5 723c 66a9 de3c a27b 25be
00000220: 6afa 093e e218 403c f6c4 a13d 457d 2ebc
00000230: 127a 133d 86bb a2bd 632b b63d 2604 063d
00000240: 0eb5 90bd 3b08 73bd a843 9f3d 284a 683d
00000250: ce63 96bd 82f2 083e cc93 b73c 5fe3 75bd
00000260: 2b6d 2d3d 356e 843d 74ab 143d 671b 813c
00000270: 01c0 923d db53 18bd cb60 a03d 3aaa 8bbb
00000280: 0443 1dbd 299f e4bd 1d04 a9bc cdb9 d1bd
00000290: 27a2 8ebd 7486 29bd 454a f73d e309 09be
000002a0: bfe6 fc3c b250 bebd 8b7c aabd 33ce 95bd
000002b0: 7335 50bd 8e7b ac3d 30fb 3ebd 185e af3d
000002c0: 9481 59bd 0c35 98bd ae69 823c a134 823d
000002d0: 4652 603d 4bb0 90bc 5d34 033d 05d8 5e3c
000002e0: e450 a43d 7c46 d4bd 04d1 0c3d f1b8 293d
000002f0: f435 10bd 4e4f e3bd 46fa dbbd aba7 7e3d
00000300: 36b6 02be 2ab1 0c3a 6f9b c33d 73cc ebbd
00000310: 1b6c f43d 4fb8 c9bc cd48 8dbc 53c5 0f3c
00000320: a617 163c 42ef a7bd 41d4 4f3c 5361 9c3c
00000330: d776 c7bd e932 d93c e13b 25bd 9c7c b2bc
00000340: f03d 6bbd 425b 96bd 0e0a 14bd 5a60 5c3c
00000350: 409a 28bd 347f 6bbc 1aa8 543b 6a03 a1bd
00000360: 7100 a6bd 106c 0a3c 389f 2c3e 49bb b7bc
00000370: 3cfa c33d f527 663d 19be 643d 2187 8eba
00000380: 9e19 a83c ac31 3abd 69ac f5bb 2fe8 97bb
00000390: 4f2d ecbc c724 94bd a3e9 aabc 8052 243d
000003a0: 4829 c2bb 9a29 c1bd 3695 17bc 036e 373b
000003b0: cbcc 443d 44d6 c83c b54a d6bd 3d99 02bd
000003c0: cfab 873d 960c 01be 2798 463c 582d aabd
000003d0: 04d2 3cbd 75fb a9bb 0394 d73d b07d 123d
000003e0: da57 f13c 6160 85bd c926 d8bc 0c70 e9bc
000003f0: b7f7 c63d c7ab 753d 6e92 55bd cd87 d53d
-0.1287967 -0.10053026 -0.016774623 -0.07990774 -0.10536694 -0.061090723 0.09549232 -0.09103959
0.054177333 -0.009217651 -0.064169735 -0.0072303303 -0.11533999 -0.09224588 0.026332427 -0.060818627
0.07777933 -0.050429665 0.08058573 -0.009436392 -0.0734887 -0.039306372 0.008309987 -0.03401992
0.036135297 0.051899433 -0.060709927 0.12471595 -0.038577255 -0.033102028 0.13731891 -0.075057775
0.016584339 -0.10425416 0.03328447 -0.03843169 0.07652692 -0.01927014 0.0041166963 0.017903445
0.008310915 -0.05397497 -0.044073414 -0.00036363225 0.04561831 -0.095631115 -0.06540972 0.032703348
-0.116760306 0.047919687 0.11954208 -0.035080448 0.0497155 0.055690568 0.02475504 -0.045074705
-0.06725535 -0.03393386 0.019781051 -0.052111343 -0.016145479 0.038638532 0.1271001 -0.06838468
-0.038696393 0.026026111 0.045186095 0.12056083 -0.042020567 0.08492015 -0.026308069 0.13487549
0.03601353 -0.08718354 0.01617438 -0.02555089 -0.11407328 0.018374046 -0.03220796 0.045409188
0.09690261 0.0024841044 0.08708516 -0.032271292 -0.08972819 0.065824166 0.14497983 0.06525986
-0.03902723 -0.06898204 -0.05935284 -0.037079576 -0.008649652 -0.03129968 -0.04192032 -0.072824106
0.018943077 0.040223062 0.12408097 -0.01672006 0.10928181 -0.0052318517 0.10067466 -0.101643264
-0.047948286 -0.06079898 0.06788222 -0.13512611 0.03579053 -0.056582823 0.028258324 -0.060633726
-0.018740803 -0.09094635 0.046721157 0.09748721 0.021789284 0.010801094 0.0496185 -0.022486502
0.019046286 0.06048916 -0.043850046 -0.019674037 0.045834832 0.12563524 0.014145563 0.048823047
0.011701215 -0.027344476 0.03989214 -0.108959615 0.020042105 0.014821373 0.027180385 -0.16160443
0.13474432 0.0117246825 0.078988954 -0.010649984 0.036005087 -0.079459235 0.08894994 0.0327188
-0.070657834 -0.05933402 0.07776576 0.056711346 -0.07343255 0.1337376 0.022409342 -0.06003129
0.04234044 0.06466333 0.036296323 0.015760137 0.07165528 -0.037189346 0.07830962 -0.004262236
-0.03839399 -0.1116317 -0.020631844 -0.10240517 -0.06964522 -0.04138799 0.12074713 -0.13382678
0.030871747 -0.09292735 -0.08324536 -0.0731472 -0.050832223 0.08422004 -0.04662627 0.08562869
-0.05310209 -0.07431993 0.015919533 0.063576944 0.054765962 -0.017662188 0.03203236 0.013601308
0.08023241 -0.10365006 0.03437902 0.04143614 -0.035207704 -0.110991105 -0.10741095 0.06217162
-0.1276482 0.00053669757 0.09551131 -0.11513605 0.11934682 -0.024624018 -0.017246628 0.008775073
0.009160912 -0.08199932 0.012684883 0.019089377 -0.09739464 0.026513534 -0.040340308 -0.021787934
-0.057432115 -0.07341625 -0.0361424 0.013450706 -0.04116273 -0.014373589 0.003244883 -0.07861979
-0.08105553 0.008448616 0.16857612 -0.022428172 0.09569213 0.05619045 0.055845354 -0.0010874012
0.020520028 -0.045457527 -0.0074973595 -0.0046358327 -0.028830199 -0.07233577 -0.02086336 0.04011774
-0.0059253313 -0.09431763 -0.009251883 0.0027989156 0.04804687 0.024516232 -0.10463468 -0.03188442
0.06624567 -0.12602457 0.012121237 -0.0830943 -0.046098724 -0.0051874467 0.10526278 0.035764396
0.029460836 -0.065125234 -0.026385682 -0.02849581 0.097152166 0.059978273 -0.0521416 0.104262926

bias_ih f4 [512]
00000000: b4e4 793d 2fac 0d3e db16 0e3e de6c 163e
00000010: 4c8d e23c a8ca d33d 3b64 303d b419 be3d
00000020: 30e0 283d 8fb2 ea3d 496b e03c 8bfb 713d
00000030: ee3b f13d 6e0a afbc bd13 4d3d 3a2a 3c3e
00000040: 2d36 803d fad4 243d 8fbf 4b3e e0de b3bc
00000050: dabb 083b c093 3e3e 153f 093e e054 3d3e
00000060: acca e43c c623 763d 09b1 003e 0c4a b13c
00000070: 4c16 493e 4790 d93d 8fa8 4f3e 15fd 293d
00000080: 4a44 613d 2d25 fb3d 74e0 c33d 7489 0cbb
00000090: 88c3 4e3e 3862 a23d c688 2dbb 265b 013e
000000a0: 332d b13d 0523 e23d 8845 423d ebbb 243e
000000b0: 0d2b 793e 56e1 133e 2792 b03d ad5f 1d3e
000000c0: 45e9 4d3e a238 413c 81c6 943d f2b6 883c
000000d0: 9250 743d 7a1a 073e 4c59 1a3e 165d 533e
000000e0: 6a1b f03d f2c4 1a3e 490a aa3d 9e20 1b3e
000000f0: 5543 6e3c bc31 343e fb4f 803e 8a6b 113e
00000100: 0edb 06bc fc86 d73d 0096 243d c88e 9d3d
00000110: 31f0 6b3e 41a9 243e 7dcf 2c3e e9e1 cfbc
00000120: 2903 6a3d 1d01 103d 48a4 bd3d a265 943d
00000130: c173 233e 794d 4d3d a56e c93d b6ee da3c
00000140: 524e 303e 3e05 e03d 1cd2 d13d c806 1e3e
00000150: a9b6 083e acd5 1f3e 0757 14bc 0201 9a3a
00000160: 8b88 ef3d 98af 493e b09a 053e 2ea8 d13d
00000170: 8f96 383e d752 b53d 16ab e33d b64b 0c3e
00000180: 6947 c23a 9a73 063e addb e63d dcbe 353e
00000190: f62f 4f3d 7a6a 113e b477 65bc 7388 fa3d
000001a0: 4409 b53d fdf8 7c3d 706e de3d 7993 a33d
000001b0: f2ca 673e d3f8 773d 463f 833d 83bd c93c
000001c0: 1da7 963d d1af f43c b355 f53d aacb 29bb
000001d0: 5735 39bc ad18 7a3d 37bf 0ebd 2fa8 8c3d
000001e0: ba9b 123c 3def 1f3d 7ada 463c 4e72 093e
000001f0: 7281 8dbc ab1b 80bb f2e5 df3d 3f4c c53d
00000200: 9528 03bd 5890 433d 9c4e b93d 4625 1cbd
00000210: 509a acbc b0ac 0cbd 123d a83d 4e72 0f3e
00000220: be8d 15bd 5924 d9bc b4d4 5a3d c5f0 fdbc
00000230: 3467 633d da2b 453d 057e 683c 9ac0 dc3c
00000240: d43f a93d c839 923d 6113 99bc e732 a33c
00000250: 9eec af3d bb11 0fba cb62 3cbd 2952 b83d
00000260: c7c8 4abc cd18 b13c 7191 6bbd 2313 c9bd
00000270: 0ce2 573d 58ca a33d 71af 593d ee42 bc3d
00000280: edb3 93bd 4454 7cba 1318 19bc 7267 e9bc
00000290: 1a7d 9abd 1704 15bc d10c 003e 1068 a33d
000002a0: cb2d 693b 76e4 423d 0270 443d 5430 abbc
000002b0: d908 37be 5f45 313d 39f0 263e 1746 76bd
000002c0: 82b9 63bc e335 2f3d 6a0f 013e e840 313c
000002d0: da4b 8cbd 72af be3c 3030 34bd a41b 793d
000002e0: 3277 e8bd ac46 b63b af5a 7fbc 332c 96bd
000002f0: 8b24 02bc c978 c7bd 61ba 30bd 8dc9 78bd
00000300: 2644 ad3d f4b7 ac3d 30de afbd ad11 14bd
00000310: 0515 26ba b24f 2dbd d82f 0d3d 3f7b 9fbd
00000320: cc58 80bd 3a40 06bd 43a8 db3c 1f2c 23bd
00000330: 51ab e43d 854f 863d d6b7 ba3d b8a0 bfbc
00000340: a6d5 a0bb cb8e 343d ba85 c1bd a399 f03d
00000350: d7eb 5e3d 572b 8ebd 23f6 9fbd 82e5 323d
00000360: 5998 d6bc cd18 1f3d 539e 033e 28d5 223d
00000370: 2d56 9cbd 7a1e 273d c82c 063d 2ced bb3d
00000380: 26fb c93d 9e18 a0bd 9715 5a3c f937 94bd
00000390: 0ae9 debd cf6f 18bd 593a 7cbd e55f 323d
000003a0: 7858 953d 302c a03c 1d1e 33bd 2cc2 dd3d
000003b0: 9487 a03b 39ba 5c3d e1ee eabc bb35 a4bd
000003c0: 9a75 cfbd 56e7 343d d7e8 24bc 4bb0 873d
000003d0: efed 94bd f296 b33b 5680 79bd 841e 9a3c
000003e0: 8af4 713d c1f3 68bd 64a2 113d fb15 d23c
000003f0: 3ffc 863d bb5a a73d b559 df3d 0219 aabd
0.061009124 0.13835214 0.13875906 0.14689967 0.027655266 0.10341388 0.043064337 0.09282246
0.041229427 0.114598386 0.027394908 0.05907778 0.11779009 -0.021367278 0.050067652 0.18375483
0.06260333 0.040242173 0.19897293 -0.021956861 0.0020863921 0.1861105 0.1340297 0.18489408
0.027928673 0.06009271 0.12567534 0.021641754 0.19637412 0.10623222 0.20279144 0.041501123
0.054996766 0.1226295 0.095642954 -0.0021444233 0.20191777 0.0792889 -0.0026479228 0.12632427
0.08651199 0.11041836 0.04742959 0.1608731 0.24332829 0.14441428 0.08621626 0.15368529
0.20108517 0.0117932875 0.07264424 0.016688798 0.05964715 0.13193694 0.15073127 0.20640978
0.11723979 0.15114191 0.08302743 0.15149161 0.01454242 0.17597097 0.2506102 0.14201179
-0.008230938 0.10523793 0.040182114 0.07693249 0.23040845 0.1608019 0.16876025 -0.025376277
0.05713192 0.03515731 0.0925985 0.072459474 0.15962125 0.05012271 0.09835557 0.026725154
0.17217377 0.109385 0.10245153 0.15432274 0.1335093 0.15608853 -0.009053952 0.0011749568
0.116959654 0.1969589 0.1304729 0.10237156 0.18026184 0.08853691 0.111166164 0.13700756
0.0014822307 0.13130036 0.112723686 0.17748588 0.05058285 0.14200774 -0.01400559 0.12233057
0.08839658 0.06176089 0.10860908 0.079871126 0.22636011 0.06054003 0.06408553 0.024626499
0.07356093 0.029868992 0.119792365 -0.0025908747 -0.011304221 0.06105869 -0.034850325 0.06868016
0.008948261 0.039046515 0.01213705 0.1342251 -0.017273638 -0.0039095483 0.109325305 0.096336834
-0.032021124 0.04774508 0.09048197 -0.038121484 -0.021069676 -0.034344375 0.08214773 0.14008448
-0.03651213 -0.02650659 0.053425506 -0.030998597 0.055518344 0.048137523 0.014190202 0.026947308
0.082641274 0.07139927 -0.018685998 0.019921733 0.08590053 -0.0005457659 -0.045992654 0.09000046
-0.012376971 0.021618271 -0.05751175 -0.09818103 0.05270581 0.079975784 0.05314583 0.09192453
-0.072120525 -0.00096255937 -0.009344119 -0.02849171 -0.075433925 -0.009095213 0.12504889 0.07978833
0.0035580273 0.04758116 0.04795838 -0.020897068 -0.17874469 0.043279048 0.16302575 -0.060125437
-0.013899209 0.042776 0.12603536 0.0108186975 -0.06850405 0.023277018 -0.043991268 0.060817376
-0.1135086 0.005562624 -0.0155855855 -0.07332649 -0.007943283 -0.09739835 -0.043146495 -0.06073909
0.08460264 0.08433524 -0.08587301 -0.03614967 -0.00063355296 -0.04231233 0.034469455 -0.07787179
-0.06266937 -0.032776095 0.026813632 -0.039837 0.111654885 0.06558136 0.09117095 -0.023392066
-0.0049082814 0.04408149 -0.094493344 0.11748054 0.054424133 -0.0694186 -0.07810619 0.043675907
-0.026195692 0.03884201 0.12853365 0.039754063 -0.07633624 0.04080055 0.03275755 0.09176096
0.09862356 -0.07817195 0.0133108115 -0.072372384 -0.108842924 -0.037216004 -0.061579082 0.043548483
0.07292265 0.01955232 -0.04372989 0.10828051 0.0048989747 0.053888533 -0.02867836 -0.08018061
-0.101298526 0.04416593 -0.010065279 0.06625422 -0.07271945 0.0054806406 -0.060913406 0.01881338
0.0590711 -0.056873087 0.03555526 0.025645247 0.06591081 0.08171602 0.10905782 -0.08305551

bias_hh f4 [512]
00000000: 9836 403d 1900 0d3e 945d bd3d 208a 443e
00000010: 2ba8 6ebc d5ba 3e3e a32a 343d 508d a53d
00000020: 5d47 263e 3a9d 0c3e ca29 1f3c 9874 873d
00000030: 13d6 1a3e 687c 86bd 418b 873d 00b0 463d
00000040: 43da bd3d 1687 343d b4a5 a73d 8460 d73c
00000050: dceb 9b3d 09f3 833e 93f8 083e 954f 8c3d
00000060: 981d f23c 516b 423e 741c f33d 029e 213d
00000070: 27ef be3d 5a68 223d cbe1 0e3e 78a2 7f3d
00000080: 271f c03d 8edf 103e 1efa be3d b554 833d
00000090: 14c9 113e 8eb2 043e 241d de3d ced0 f13d
000000a0: 0c09 b3bc ba09 023e a963 a33c c7aa 133e
000000b0: a5e2 1a3e d2a2 593d 9f4c a83d c562 363e
000000c0: 78ff dc3d f4cc 0e3e c345 2abc 0ecf 69bc
000000d0: 9032 30bd d586 f63d 0d62 a03d 70e9 023e
000000e0: 362f 853d 8181 fd3d 453d b33d f646 e63c
000000f0: 6e99 96b9 1463 cc3d 2e61 3c3e b431 073e
00000100: 0782 f63d 851d 9f3a 2957 aa3d 27cd a1bc
00000110: f141 3c3e c149 bb3d 2e47 b73d e391 d0bc
00000120: 9cf5 95bb 6970 453d 823e a73d 67ee 433d
00000130: 379a e63d a3cd 1a3e 3983 253d 6c9f 143e
00000140: a093 4e3e 2d74 003e 0e54 323e d794 f13d
00000150: 83cf df3d f8a2 f43d 5800 b43d 5265 8abb
00000160: b5c5 863d 1eb2 5d3e 3989 dc3d 5651 4e3e
00000170: 2175 d93d 47a9 833b 1046 ea3d 4c75 113e
00000180: 84e0 cc3d 70ad 083e a463 533d b75d a13e
00000190: bdd0 8d3d faaf 4e3e ebba 943d 65fe a93d
000001a0: 053a 353e 8ba8 e33d a283 063d 33eb 1a3e
000001b0: 16f0 2f3e 5f4e 143e 163d 7c3c 79ff 053e
000001c0: e33c 8e3d 11ea a63d 26b9 103c e1de 3b3d
000001d0: dad8 c23c ed3d 193d f61a d43d c36c 313d
000001e0: 615e 913b 77b0 223d 723f e23c a8a0 063e
000001f0: 719d 023e 320c b43d d4cc fe3d 7936 1fbd
00000200: 4ece 08bb 3690 523d c278 a0bd 8660 913c
00000210: 107f 03bd 8173 80ba 8c34 823d f63b c93d
00000220: 5095 533c ca8c 5cbd 25a6 953c 0390 94bd
00000230: 5639 95bd be4a d6bc 9165 9d3b 41f2 55bd
00000240: d780 a93c 4949 18bd 8920 b5bb 9c68 6a3d
00000250: ad1c ea3c c966 69bd 9f4d 70bd ed88 abbc
00000260: 0c18 a33d aabf 70bc aff7 c63d 169e 4fbd
00000270: bc1d 083d 7b42 563d 0917 e1bd 501e c7bb
00000280: a2ac 793d a656 b9bc 784e 24be a466 d03d
00000290: 8613 2a3d ebde 443d 61ee e43d 91d9 bb39
000002a0: 65a3 a93d eae7 7abd 50db 373d e95a a2bd
000002b0: f1a1 80bc 3e71 debd 2e60 deb8 ddab ef3c
000002c0: d9a8 043e ef8e 67bd 00e9 193e 88c0 c33c
000002d0: a27a 733d 05f5 2c3d 18ee ccbd d582 e83d
000002e0: d458 113d 8c7e 5f3d a6e1 ccbd e50d 0e3d
000002f0: 82de 873d 8047 973c 218c 86bc af24 513d
00000300: d0d2 b13c 346d 43bb ccfe 3b3c eebb a33d
00000310: 352f a3bd ef04 05bd 5986 89bd 2d9f 923d
00000320: f562 c73d 42e9 363d d747 6cbd 8acd 01be
00000330: 6742 d23d c364 82bb 1a10 633d 0611 a5bd
00000340: d2aa c7bd db57 6fbd 3b93 0cbe b761 c13d
00000350: 3db4 153d 13c1 81bd eb54 b33d 3383 67bc
00000360: b3b8 bf3c 1035 a53d 07c7 d23d 529f eb3c
00000370: 338b 32bd 252a 98bc 43b6 063c 26db 163d
00000380: 8c7a cf3d e6fe b4bd 7574 193d 3704 d13a
00000390: 8677 27bd de55 03bc d1c7 5abd 77d9 923d
000003a0: c2a7 ba3d 5233 7c3d 8274 80bd a9bf edbc
000003b0: 3c52 9b3c eb45 f73d 5630 46bd 47cf 39bd
000003c0: 86c4 f9bd 2a2d c0bd 4159 50bd e2a6 51bd
000003d0: fb37 34bd 5f58 12bd 0b6e 92bc c8bf 96bc
000003e0: 22ce 443d 79b9 1dbd 7a53 15bd 9bbb 93bd
000003f0: 4f7d ea3d 98e1 b63c 7cb7 5e3d f341 cc3c
0.046927065 0.13769569 0.09246364 0.19193316 -0.014566462 0.18625958 0.043985974 0.08083594
0.1623816 0.13731852 0.009714553 0.06614035 0.15120725 -0.06566697 0.066183574 0.04850769
0.09270146 0.04407414 0.08185902 0.02629114 0.07613346 0.2577136 0.13376074 0.068511166
0.029555127 0.1898625 0.118706614 0.03945733 0.093229584 0.0396503 0.1395332 0.0624108
0.09380942 0.1414778 0.0932505 0.06412641 0.14236861 0.12958738 0.10845402 0.118074045
-0.0218549 0.12699023 0.019944983 0.14420615 0.1512552 0.053133793 0.08217739 0.17811115
0.10790914 0.13945371 -0.010392609 -0.014270557 -0.04301697 0.12037436 0.07831202 0.12784362
0.065031454 0.123782165 0.087519206 0.028110009 -0.00028724544 0.09979835 0.18396446 0.13202554
0.120365195 0.0012139535 0.08317406 -0.019751145 0.1838453 0.09144927 0.08949123 -0.02546019
-0.004576398 0.048202906 0.08166219 0.04783478 0.11259883 0.15117507 0.040408347 0.1451394
0.20173502 0.12544318 0.17414877 0.11795967 0.109282516 0.11945146 0.08789128 -0.004223504
0.065806784 0.21649978 0.10768361 0.20148215 0.10618044 0.004017982 0.114391446 0.14204901
0.100037605 0.13347411 0.051608697 0.3151681 0.06924579 0.20184317 0.07262214 0.08300475
0.17697914 0.111161314 0.03284038 0.15128784 0.1718143 0.14483021 0.015395423 0.13085736
0.06945207 0.081501134 0.008833205 0.04586685 0.023785044 0.037412573 0.10356705 0.043316614
0.0044362997 0.03971907 0.027618144 0.13147223 0.12755372 0.087913886 0.124414116 -0.03887031
-0.002087492 0.05140706 -0.07835533 0.017746221 -0.032103598 -0.0009800048 0.06357679 0.0982589
0.012914017 -0.053845204 0.0182677 -0.072540306 -0.072863266 -0.026158687 0.0048033674 -0.052232984
0.020691318 -0.037179265 -0.00552756 0.05722867 0.028578127 -0.05698279 -0.058667775 -0.020939315
0.07963571 -0.014694134 0.09715211 -0.050687872 0.033231482 0.052309494 -0.10990722 -0.0060766116
0.06095565 -0.022624325 -0.16045558 0.10175827 0.041522525 0.048064154 0.1117828 0.0003582952
0.08283118 -0.061256327 0.044886887 -0.07927496 -0.01570222 -0.10861443 -0.000106037 0.029256755
0.12955035 -0.056532796 0.15030289 0.023895517 0.059443124 0.042225856 -0.1000635 0.11353079
0.035485104 0.054564044 -0.100039765 0.03468122 0.06634237 0.018466711 -0.01642424 0.051060375
0.021706969 -0.0029819729 0.0114743225 0.07994829 -0.079679884 -0.03247541 -0.06715078 0.071592666
0.097356714 0.044656046 -0.0576857 -0.12676063 0.102665715 -0.003979297 0.055435278 -0.080598876
-0.09749378 -0.058433395 -0.13728039 0.09442466 0.03654884 -0.06335654 0.08756431 -0.014130401
0.023403501 0.080667615 0.10291868 0.028762493 -0.043589782 -0.018574784 0.0082221655 0.03683009
0.10130796 -0.088376805 0.037464578 0.0015946691 -0.04088547 -0.008016078 -0.053413216 0.071703844
0.091140285 0.06157238 -0.06272222 -0.029022055 0.01896011 0.12073883 -0.04838594 -0.04536369
-0.12195687 -0.09383614 -0.05086637 -0.051184542 -0.0439987 -0.03572881 -0.017874738 -0.018401995
0.048048146 -0.03850696 -0.036456563 -0.07213517 0.11449682 0.022324368 0.054374203 0.02493379

weight_ih f4 [512, 128]
00000000: 816b 0b3c d750 a4bd 0e8c 53bd 5a99 14bd
00000010: 43f0 f4bd a2b8 8bbd 306b b7bd 8ca1 973d
00000020: b283 063e 7f11 9a3c e80a 8dbc babd 4cbd
00000030: 9e0f 3fbe 925e 2d3d 4861 373d eb52 ae3d
00000040: b514 14bc 3e44 08bd 72e1 cdbc 0782 973d
00000050: 2002 8d3d 5e41 8b3d db0b 9ebd 7e92 f03c
00000060: 27fa 9c3c 4404 373e 4349 fa3d 0c6f 3ebd
00000070: e2db de3b 04d9 5e3d ce02 9b3d d409 d83d
00000080: 1320 383e 9cb3 e1bd f27f 543d 7a72 c4bc
00000090: 8a7a a3bd 7cde 80bd 6cb7 973c cc8b b4bd
000000a0: 868b 553d 1832 00be 9f8e e6bc 97eb 2c3d
000000b0: 6f9f 113c 0237 60bd ccab 26bd 04ad efbd
000000c0: 4bc0 593e 72f7 babd 3444 2fbd 772a 6cbd
000000d0: 1b73 6bbd f4f0 30be 10b3 c73c 0ff7 30be
000000e0: ed7d 32bd 3e7e f3bd 3ab7 23bc d276 d9bd
000000f0: 242f be3d 6da6 1fbe 0b4c a73d b94c 11bd
00000100: 6a3b d5bd 7f9a 46bd 298b 00bd 34f6 30be
00000110: ea05 19be ae1d b5bc 79da bc3d 9413 4c3c
00000120: 3cf5 563c dd09 2b3d fcf5 bebd 5175 61bb
00000130: c630 19bd ec1d 51bd a117 aa3b 88de 103e
00000140: 0af8 9fbc f41f d13c 5b79 ad3d 38f8 01be
00000150: bc54 083e 93a6 abbd 66ba 363c 4f94 da3d
00000160: 03c3 a9bc 2376 953c 05ea 83bd e907 15bd
00000170: 25c5 75bd 3bd7 413c 24c0 933b 354c e23d
00000180: 4704 923c 11c2 2bbd bb52 283e 1b6e 2bbe
00000190: c37b b2bd c85d 62be 6050 54bd 1f05 afbd
000001a0: c646 873d 8546 18be 643b d73c e942 c5bd
000001b0: 64b1 f73c 276e 063e 36d7 43be c198 fcbd
000001c0: 0be9 ccbd ceef 06be b046 f9bc f93e acbd
000001d0: 9d5f 40bd 2ef1 223e a451 01bd 8b30 343d
000001e0: 16c5 983d df20 523d 86c6 da3c 1203 8f3c
000001f0: f790 a2bd 0a89 06bd f69c e7bc 8f45 4ebd
00000200: e623 0e3d 8f35 c73b 25ca 903d 5859 483d
00000210: 58fb 54bc 9fca 333e f002 8bbd 17a5 193d
00000220: 3705 56bb 53be 843d 5d9c 1abd c432 d3bb
00000230: 0b55 1b3d 7922 333d 64dd 91bc 83cd da3d
00000240: 3729 743d ae0f c23d c8c5 c9bd f03b 02bd
00000250: 06f7 813d 3a79 9c3d a7b1 90bd 6bc0 a2bc
00000260: 914d 2fbe 6b7f 8ebd e658 183e 1204 0d3e
00000270: dd8e 89bd 4e6d 07bd ccae 3b3d 66a1 903d
00000280: a1a5 99bb aa36 9ebd 1329 21be 3a57 cebc
00000290: e81b 03be da15 c4bd e3e0 c13d cf5b 283e
000002a0: b28e f3bd e9d2 693d db30 e53d 022b b33b
000002b0: 1742 163d d5e6 0abe 1f3e fd3d 2341 2e3e
000002c0: 5f15 9e3d 08ea 5dba e6f9 3bbe 2e43 153d
000002d0: 969b 25bd f2e4 c4bd 08ee ecbd 5710 db3c
000002e0: a540 acbc 5b37 30bd 6f01 cabc 33f8 293c
000002f0: 8b06 d23d 9eba e33d 01cd 70bc 5440 1b3d
00000300: 4e52 52bc e45e 813d 56e3 bebc e87e 133e
00000310: 8aa9 f83c 6cda 8d3d 8ed9 ecbc a895 efbd
00000320: 297c ee3c c88f 96bd 5f43 3f3c d226 babc
00000330: 5d56 81bc 4cb7 a33c fca6 23bd 4a84 39bd
00000340: 6739 99bd ceb9 a7bc 797c 29bd a58d bbbd
00000350: 14a4 8a3d 8a92 0bbe 79e1 933c 84c5 bdbd
00000360: c4a0 06be c17b 6a3d 4e12 723d be22 1e3c
00000370: 6244 ac3d 195e 253d f8db 2a3d 764e a93d
00000380: 59d2 143d 4600 02be 7dfe 803c 8213 adbd
00000390: 7eaf e0bd 00ee 833c e514 62bd 12d1 a5bd
000003a0: 3967 f6bc 8815 143e 796a eabd 1cd4 75bd
000003b0: e7f1 b53b 433a 753d 84f6 3bbc b053 a9bd
000003c0: 68df 3fbc 735d 183d 3bad 66bd 47a3 3dbd
000003d0: 169a 40bd 1bc8 263d bd55 56bd b726 c5bd
000003e0: b61e 71bd 1b73 08be f110 f4bd 2201 87bc
000003f0: 4a03 a5bd a2c3 28bd ba5a f33d 1e07 57bc
0.008509518 -0.080232315 -0.05164724 -0.03627906 -0.11959889 -0.06822325 -0.08955991 0.074038595
0.13136175 0.01880717 -0.017217115 -0.049985625 -0.18658301 0.042326517 0.04477051 0.08511909
-0.00903814 -0.033268206 -0.025131915 0.073978476 0.06885171 0.06799577 -0.07717105 0.029366728
0.01916225 0.17872721 0.12221005 -0.04649262 0.0068011144 0.05440618 0.07568894 0.105487496
0.17980985 -0.11020586 0.05187983 -0.023980368 -0.07982357 -0.062924355 0.01852008 -0.08815727
0.052135013 -0.12519109 -0.028144179 0.042216863 0.00888811 -0.05473996 -0.040691182 -0.11702922
0.2126476 -0.09129228 -0.042789653 -0.057657685 -0.05748282 -0.17279416 0.024377376 -0.17281745
-0.043577123 -0.11889313 -0.009992415 -0.10618366 0.09286335 -0.1559083 0.08168801 -0.03547356
-0.10411723 -0.048487183 -0.031382713 -0.17281419 -0.14943662 -0.022108879 0.09221358 0.01245584
0.013119992 0.041757453 -0.093242615 -0.0034402201 -0.03740003 -0.051053926 0.005190805 0.14147389
-0.019527454 0.025527932 0.08470412 -0.12692344 0.13313574 -0.08381381 0.011152839 0.10672819
-0.020722872 0.018244809 -0.0644112 -0.036384497 -0.060002465 0.0118311 0.004508989 0.110496916
0.017824305 -0.041933123 0.16437809 -0.1674122 -0.08715012 -0.22106087 -0.051834464 -0.08545899
0.06605296 -0.14870651 0.026273437 -0.09631903 0.030235954 0.13127957 -0.19125065 -0.12333823
-0.10005387 -0.13177416 -0.030429214 -0.084104486 -0.046966184 0.15912315 -0.031572 0.043991607
0.07459466 0.05130088 0.026705991 0.017457519 -0.07937806 -0.032845534 -0.028273087 -0.050359305
0.034702204 0.0060793827 0.07069806 0.04891333 -0.012999378 0.17557763 -0.0678767 0.037510958
-0.0032656917 0.06481614 -0.037746776 -0.0064452607 0.0379229 0.043734048 -0.017805763 0.106837295
0.059609618 0.09475647 -0.09852177 -0.031795442 0.06345944 0.0764031 -0.070651345 -0.019867143
-0.17119433 -0.06957897 0.14877662 0.13771084 -0.06716702 -0.033063225 0.045820996 0.07062034
-0.004688934 -0.0772527 -0.15738325 -0.025188077 -0.12803614 -0.0957448 0.09466722 0.16441272
-0.11892451 0.057085905 0.11190959 0.0054677734 0.036684122 -0.13564618 0.12365364 0.17017035
0.0771892 -0.00084653543 -0.18357047 0.03644102 -0.04043158 -0.0961398 -0.11568838 0.02674119
-0.021026919 -0.04302154 -0.024658887 0.010374117 0.10255154 0.11119579 -0.014697314 0.037903145
-0.012837006 0.06316927 -0.023301762 0.1440388 0.03035428 0.06926426 -0.028912332 -0.116984665
0.029111939 -0.07351643 0.011673777 -0.02272359 -0.015788252 0.019984864 -0.03995417 -0.045292176
-0.07481652 -0.02047434 -0.041378472 -0.09157876 0.06769577 -0.13630119 0.01805185 -0.09266189
-0.13147265 0.057246927 0.059099488 0.009651838 0.084114805 0.04037294 0.041713685 0.08266918
0.036333416 -0.12695417 0.01574635 -0.084509864 -0.109709725 0.016104698 -0.055195708 -0.080965176
-0.030078517 0.14461339 -0.11446089 -0.060016736 0.0055525186 0.059870016 -0.011472348 -0.08267915
-0.011710979 0.037198495 -0.05631755 -0.04629829 -0.047021948 0.04071818 -0.05232786 -0.09626525
-0.05886718 -0.13325159 -0.11917294 -0.016480032 -0.08057268 -0.041202195 0.11882539 -0.013124255

weight_hh f4 [512, 128]
00000000: 2b99 8dbd be12 673a ef70 2b3c 094a d1bd
00000010: bdd6 7c3c 4ebb 3fba 3076 10bd 22c4 ddbd
00000020: 08e3 043e 3725 713d d47a 08bd e00b 033d
00000030: de85 b5bd 7e33 ea3d 6fd3 4a3d 25f9 4bbd
00000040: 8324 07bd 4bb0 0cbd 574c d53d a451 dabc
00000050: a6f4 803d 4d32 71bc fe1a 4fbd 0692 aa3c
00000060: de16 6ebc 98b2 1a3d ef5f 4c3d afc0 92bd
00000070: cb5b 0c3d 33c3 09bd b4aa 39bb 4431 373c
00000080: 08f1 55bd 22be d3bd a3db 2f3d d341 053c
00000090: 4403 f4bc 757a 793d 6b35 48bd e5d7 be3d
000000a0: 748f 65bd e755 8e3c 5ff0 963c 6fa1 793d
000000b0: 5991 803c 1789 793d c934 d6bd 364f 0d3e
000000c0: 8bad 113e 6c6b a9bd 9287 19be 1c0f 393d
000000d0: 4359 32bd eb1d 8f3c 2659 84bc aa8d 033d
000000e0: feec 9b3d 9aed a0ba 68c5 023d bbc9 68bc
000000f0: c9a3 f5bd fc50 033e d049 2f3d 8a8c 413d
00000100: a28c bebd 075c 33be 5c28 12be 92cf 8dbd
00000110: 0e17 1bbd 484d 873d 7b9b 43bd 1546 9c3d
00000120: f06c c4ba a42e 153c 5bc9 eb3d c379 fe3b
00000130: fc2f abbc f951 9bbd dc42 3d3d 20a5 3abd
00000140: 6865 8bbb deb9 67bd a730 643d 6134 09bd
00000150: 21ce a13c 2b95 a73d 5324 3bbd c0cf 16bd
00000160: a54b 76bd c18f 0d3e f6f1 00be 1eb3 78bb
00000170: 5d33 0e3d dbd1 f6bd e4b6 a2bc d73e c3bb
00000180: a39d f5bd a9b1 bd3c 872e 583d 4156 b4b9
00000190: f43a 123e ea29 fc3d d01d 09be 9935 ba3c
000001a0: 741b 94bd c6c7 1abd 56ee 8fbd 7bf2 d4bc
000001b0: 3fc6 d1bd 8d01 93bc 5e4f 95bd 4865 303d
000001c0: a960 fd3d 5150 bebd 4320 013e 8925 d63d
000001d0: 1ddb db3d 509c e43d 4211 a53d 5486 f13d
000001e0: bb72 9cbd 85cf 903d c7d3 18be ebbd 8b3d
000001f0: 3c0a 233c 4a17 f3bc 8f04 b23d 3fc4 2a3d
00000200: a4c9 a13d ee4f af3c d894 57bd 679c 99bd
00000210: 5569 64bd 346b 9bbd 3dd6 2d3d b77a 9abd
00000220: aba7 7cbd 05cc b0bc 04c4 75bd bba5 613d
00000230: d2ff 8a3d 1909 a53d ff99 063e 90a6 1fbd
00000240: 39fa b8bb ff77 5a3c 317e bb3c 0170 543d
00000250: cb5d 4ebd fcd6 213e 906b 323d d087 dcbd
00000260: b6fc f0bd 2aaa babc 5f3d 5dbc 36d4 ee3d
00000270: e470 88bd 7966 df3d bc9f 143d d574 ba3c
00000280: c8e5 92bd 6010 d1bc 5d9d 8f3c 6038 43bd
00000290: bf31 d4bb 504b 50bd 4411 51bd dcd5 35bd
000002a0: d55a 62bd 768d 90bd d1c9 6abd 0376 a73d
000002b0: 1787 88bc e191 aa3c 9240 3f3d 1dca 9b3c
000002c0: 08f1 6bbd 0590 b03d db42 95bc 05c9 cf3d
000002d0: b8a5 74bc fdde debd 8b5e 883d 8237 5cbc
000002e0: df34 b23d 50fb b4bd 6c5d 943d f63a 25bd
000002f0: f126 053d b1b4 cabd ea5a 103d 2c3e 913d
00000300: de1d 6b3d 00c4 76bd 8c53 743c 1c1d edbc
00000310: 3664 4e3c 89e1 903b 8e74 603d 65c1 743d
00000320: 183c 93bc f0f3 f8bd e93e aa3c 8711 843d
00000330: 7a91 57bd 98a4 79bd 13c6 523d 0cbc fa3b
00000340: d24d 893d eb81 b63c 6afa fe3c eeeb efbc
00000350: 7bcb d4bd cc83 b9bd 7b2b eebb 38bd c3bd
00000360: 7e4b 30bd 19ef 833d 8bfb d0bd cfef 363e
00000370: 2660 e23d 7369 9d3c 138a 4f3d c222 453d
00000380: 4a84 4b3c fe64 9a3b 403d 1ebd a78d f83c
00000390: a6f4 be3d d783 a5bc da95 673d eb73 a5bd
000003a0: 6740 a9bc 4cb9 37bd 677a c13d 56e4 c83d
000003b0: 8c9a 4f3b d666 013c d3f8 a13c f553 4dbd
000003c0: 20c4 843d a7f4 e6bd 5af3 2e3d b09d bcbc
000003d0: f279 fcbd f56e bf3d fc6f 903d c666 ed3d
000003e0: 7186 823d 85b7 2abd a55c ac3a 7962 8a3d
000003f0: 373b e33c a704 26bd 98a1 fdbb 2cab dabc
-0.0691398 0.00088147435 0.010463937 -0.10219199 0.015432057 -0.00073139824 -0.035268962 -0.10828425
0.1297723 0.05887338 -0.033320263 0.031993747 -0.08863424 0.114356026 0.049518045 -0.04979815
-0.032993805 -0.034347814 0.10414951 -0.026650257 0.06296663 -0.014721465 -0.05056285 0.020821583
-0.014531819 0.037767977 0.049896177 -0.07165658 0.034267228 -0.033633422 -0.0028330507 0.011181179
-0.05223182 -0.10338999 0.04293407 0.0081333695 -0.029786713 0.0609078 -0.04887907 0.09318522
-0.05604501 0.017374946 0.018425165 0.06094497 0.015694307 0.060921755 -0.10459287 0.13799748
0.14226358 -0.08272442 -0.14993122 0.045180425 -0.043542158 0.01747032 -0.01615579 0.032117523
0.07613562 -0.0012277842 0.031926543 -0.014208253 -0.1199413 0.12823862 0.042795002 0.04725317
-0.09304167 -0.17515574 -0.14273208 -0.069243565 -0.037863784 0.06606537 -0.0477557 0.076305546
-0.0014986079 0.009105358 0.11513015 0.00776598 -0.020896904 -0.075839944 0.04620634 -0.04556763
-0.004254032 -0.05657374 0.05571046 -0.033497218 0.01975161 0.081827484 -0.04568894 -0.03681922
-0.060130734 0.13824369 -0.12592301 -0.003794856 0.034716953 -0.120517455 -0.0198626 -0.005958419
-0.119929574 0.023156004 0.052778747 -0.0003439654 0.14280301 0.12312682 -0.13390279 0.022730635
-0.07231799 -0.037788175 -0.07027881 -0.02599453 -0.102428906 -0.017945075 -0.07290529 0.04306534
0.12371952 -0.09292663 0.12609963 0.10456378 0.10735152 0.11162627 0.08059932 0.11793199
-0.076390706 0.07070831 -0.14924537 0.06823333 0.0099511705 -0.029674191 0.08692276 0.04169106
0.07899788 0.021400418 -0.052632183 -0.075005345 -0.055764515 -0.07588807 0.04244064 -0.07542937
-0.061683338 -0.02158166 -0.06000139 0.055089694 0.06787075 0.08058376 0.13144682 -0.038977206
-0.0056450632 0.013334273 0.022887321 0.051864628 -0.050382417 0.15804666 0.04355961 -0.10768092
-0.11766951 -0.022786219 -0.013503402 0.1166157 -0.06662157 0.10908217 0.036285147 0.022760788
-0.071727335 -0.025520504 0.017531091 -0.047661185 -0.0064756568 -0.050853074 -0.051041856 -0.044393405
-0.055262405 -0.070582315 -0.057321373 0.08176806 -0.016665978 0.020821514 0.04669244 0.019017274
-0.057602912 0.086212195 -0.018220356 0.10145763 -0.014932089 -0.108823754 0.06658658 -0.0134409685
0.087014906 -0.088369966 0.07244381 -0.040339433 0.03250784 -0.098977454 0.035242952 0.070919365
0.05740153 -0.060245514 0.014912497 -0.028944544 0.012597134 0.004421417 0.054798655 0.059754748
-0.01797299 -0.121559024 0.020781951 0.064486556 -0.05262897 -0.060947984 0.05145843 0.0076518115
0.06704296 0.022278747 0.031125266 -0.029287305 -0.10390373 -0.090583414 -0.007268367 -0.09557575
-0.043040745 0.06442089 -0.10204228 0.17864917 0.11053495 0.019215321 0.050668787 0.04812885
0.012421677 0.0047117462 -0.03863263 0.030340983 0.09324007 -0.020204468 0.056539394 -0.0807875
-0.020660592 -0.044854447 0.094471745 0.098091766 0.003167781 0.007898053 0.019771969 -0.050128896
0.064827204 -0.112771325 0.042712547 -0.02302441 -0.12327947 0.09347335 0.07052609 0.11591868
0.06373299 -0.041678924 0.0013150169 0.067570634 0.027738197 -0.04053178 -0.0077402107 -0.02669295

bias_ih f4 [512]
00000000: f3fb 073e d7dc e43d 8834 4f3e 3e50 763e
00000010: efa8 b23d 992d 4e3d fa44 1f3e 1c0e 543e
00000020: 3346 3d3e 082b 103e 5de2 533e 5c18 393e
00000030: 3ce1 5b3d 1a6e c23d 2afb a43e 9f5a 1e3e
00000040: 3a09 d13d 4483 203e 5e4c a43d 2cd3 713e
00000050: 765a 993e 81aa 263e ce13 823d c516 f93d
00000060: 3e56 283e 0779 1d3e 5e98 993d 5edf ca3c
00000070: 2862 0b3c a981 6d3e 836f 323e 9820 e63c
00000080: 000e d93d ac3d 2f3e 5ef3 3d3d 1ee6 f23d
00000090: 553e 9e3d e58b 3c3e 0912 bb3d 96e4 153e
000000a0: 55ef 883e 8f89 633d 0149 fb3d 5c9c f13d
000000b0: 7730 ee3d 4ea9 623e 9af8 503e 1ff1 313e
000000c0: b49c 7a3e 8805 113e 3bba 543e 2f08 543c
000000d0: 6cbd f93d d174 c73d 2d67 913d a618 5dbd
000000e0: db4a 853d ea19 8a3e bd24 283e 05fd 993d
000000f0: dffd 023e fc57 fd3d f7f4 fb3d cf6b 353e
00000100: a2dd 613d 37fe 0b3e 98c0 873d 8d4d 523e
00000110: 6d41 3c3e 68ee de3e a32c b63d 7eb0 003e
00000120: d495 243d be1e 953e 8085 6a3c ee4d 6c3d
00000130: 896d 943e a3ef a43d 3917 173e 7790 393e
00000140: e88b 3c3e 5368 a83d 2231 c33d 7303 053e
00000150: 545f b23d 9b5b 1e3e 4e99 183d d2aa a13d
00000160: 0f04 9e3d 7c90 123e cfd6 a03d bf5e 123e
00000170: 92db d53b 53f8 383e e1f6 a43d 3ed3 6a3e
00000180: ad6d 043e 3355 e7bb 53b6 093e c8bc f63d
00000190: 5119 703e 5ae9 273d 8fb0 7c3d 71e5 9a3d
000001a0: ccc4 4e3e 34e0 d93d 51e3 763e d143 1f3e
000001b0: cdc8 6c3e 23d3 2e3e 126a db3d 2cba 313e
000001c0: 4779 b73e 3a7f e93d a911 bd3d 3af0 5e3e
000001d0: 936b 433e 41fb 1b3e 4ed9 9c3e fdc4 9a3e
000001e0: 77f5 f53d d19c d13d 8633 b23c 1355 703e
000001f0: fe91 5b3d f8c4 a03d 298b ad3d b25d c03d
00000200: d055 003d a5c3 1c3c 4b14 0f3d da0b 07bd
00000210: 7c50 7d3c 1898 a5bc a08d 63bc 72c4 d93c
00000220: 54c4 9e3c 0199 c9bd fd2c abbc 69ea 0abe
00000230: c87e aabd 428e bdbd cb85 08be ff06 12be
00000240: 7456 d13d 3152 b8bb ffc8 d1bc 49cc e23c
00000250: f7a0 bdbd 5fa7 843d 3a50 833b eeea bdbd
00000260: c893 a73c 1536 c33c 5c67 e43a d8ef d3bc
00000270: 7980 3f3d caf6 d0bc fb64 febd fd12 713d
00000280: dedd 83bd 70fd 09bd 9778 afbc ad2c 11bd
00000290: ecc7 1e3a 1b67 7d3d 3032 063b 1c5f cbbd
000002a0: 628c 47bd 1e4b f33c fc68 3dbd be5e e93c
000002b0: 2925 a3bd 3417 e9bd e0de 5cbc 3a6e 95bd
000002c0: 58f0 973b ae3e e1bd 4bd9 f1bd 60ae 1e3d
000002d0: a0e4 353c 38dd 91bd 730c aa3c 5869 14bd
000002e0: 0d0e 153b d8f5 e13c 97a1 41bd 73c4 c93d
000002f0: 803c a2bc bb0e 6abd 4255 03bc 759f ef3b
00000300: 5f42 bcbd a32b afbb 290d d1bd b04d d6bd
00000310: bfde 153d 5693 18be b00a 3f3c 3ad9 fe3c
00000320: 2497 523d 3ccc 8abd cba1 873c 9bc0 b2bc
00000330: a3a2 54bd a548 583d e5ad adbd f83d c6bd
00000340: b924 563c b9b6 7fbd 573c 673d e38f 4cbd
00000350: 0841 39bd fd06 153c 807e 3ebd dafa 2bbd
00000360: c91d c1bc 636f fa3c 2fd8 c2bd 525d 55bd
00000370: df74 99bd 5be3 1cbd d7f6 703d 5a87 fabc
00000380: 9baa 59bd 03d6 dabc 12a1 92bd be63 e4bd
00000390: a359 813b c3d7 5e3b ef58 26bd 0569 d63c
000003a0: 95a0 dbbd 8b9e 9b3d 8986 153d 50d0 1abd
000003b0: 40c0 cdbd 5e01 debd 2aca fabc b38c 8abc
000003c0: b5f1 d2bd 18fe f03c ada5 f63b 3454 e5bd
000003d0: a69e 3cbd e750 c63c fbd9 7bbd a286 85bd
000003e0: 08ab 81bc 3858 12bc ffce a0bc f67d e4bc
000003f0: 9f76 b5bd 8cb3 d93d 35dc acbd ebb4 7d3d
0.13279705 0.11174934 0.20234883 0.24054047 0.08723628 0.050336454 0.15553656 0.20708507
0.1848381 0.14078915 0.2069182 0.18075699 0.053681597 0.094936565 0.32222873 0.15464257
0.10206838 0.15675074 0.080223784 0.23615712 0.2995183 0.1627598 0.06351434 0.12162546
0.16439149 0.153782 0.07499765 0.024764713 0.008507289 0.23193993 0.17425351 0.028091714
0.105983734 0.1711337 0.04637467 0.118602976 0.07726733 0.1841274 0.09134299 0.1463798
0.26745096 0.055551108 0.12269784 0.11797401 0.11630338 0.22134897 0.20407334 0.17377137
0.2447384 0.14162266 0.20774166 0.012941404 0.121943325 0.09739078 0.07099757 -0.053978585
0.06508418 0.26972896 0.16420265 0.07518963 0.12792157 0.12370297 0.12302583 0.17716907
0.055143006 0.13671194 0.06628531 0.20537396 0.18384333 0.43541265 0.088952325 0.12567326
0.04018195 0.29125017 0.014314055 0.057691507 0.2898982 0.080535196 0.14754952 0.18121515
0.18412745 0.08223023 0.09530856 0.12989597 0.08709589 0.15464632 0.037255578 0.078939095
0.07715618 0.14312929 0.078534715 0.14293955 0.006526419 0.18063478 0.08054901 0.22932145
0.12932463 -0.007059717 0.13448457 0.12047726 0.23447157 0.040994026 0.061691817 0.07563294
0.2019226 0.106384665 0.24110152 0.15553214 0.23123474 0.1707273 0.10713591 0.17356175
0.35834715 0.1140122 0.09231884 0.21771327 0.19084005 0.15232565 0.3063454 0.30228415
0.12009709 0.102349885 0.021753084 0.23469953 0.053606026 0.07850069 0.08473808 0.09392871
0.031331837 0.00956813 0.034931462 -0.032970287 0.0154610835 -0.020214126 -0.0138887465 0.02658293
0.019380726 -0.09843636 -0.020895476 -0.13565983 -0.08324963 -0.09255649 -0.13332288 -0.14260481
0.10221568 -0.0056250324 -0.025608538 0.027685301 -0.09259217 0.06477236 0.0040073665 -0.09273325
0.02045621 0.0238295 0.0017425823 -0.025871202 0.04675338 -0.025508303 -0.12421604 0.058856
-0.06438802 -0.033688962 -0.021419806 -0.035442997 0.00060570124 0.061865907 0.0020476691 -0.0993025
-0.048717864 0.029698905 -0.0462427 0.02848756 -0.07966072 -0.11381379 -0.013480872 -0.07296415
0.0046368055 -0.10998283 -0.118090235 0.038740516 0.011101872 -0.07122272 0.02075789 -0.036233276
0.002274397 0.027583048 -0.047273245 0.09851923 -0.01980424 -0.057142954 -0.0080159325 0.00731271
-0.09192347 -0.005345778 -0.10207588 -0.104640365 0.03658938 -0.14899954 0.011660263 0.031109441
0.05141367 -0.06777236 0.016556641 -0.021820357 -0.051912915 0.052803654 -0.084804334 -0.09679788
0.013070279 -0.062430117 0.05645403 -0.04994191 -0.045228034 0.009095904 -0.04650736 -0.041987278
-0.023573773 0.030570691 -0.0951389 -0.05209095 -0.074929945 -0.03830276 0.058829155 -0.030582119
-0.053141218 -0.026713377 -0.07159628 -0.11151837 0.003947453 0.0034003116 -0.040612157 0.026173124
-0.10723988 0.07598599 0.036505256 -0.03779632 -0.100464344 -0.108401045 -0.030613977 -0.016912794
-0.10300008 0.029418036 0.0075270743 -0.11197701 -0.046049736 0.0242085 -0.06148718 -0.0651982
-0.015828624 -0.008932166 -0.019629953 -0.027892094 -0.08860516 0.10629949 -0.08440439 0.061940115

bias_hh f4 [512]
00000000: 00d3 8d3e bc79 b63c cee5 a93e 640b a23e
00000010: 3cc8 653e 8344 153e 55e7 903e c01a 563e
00000020: cbf2 7b3e 94cb 143e 77e0 023e f2f3 173e
00000030: 8327 df3d 86d3 253d 84c3 8c3e 77d3 4f3e
00000040: 0be9 213d 79da 053e 6d29 063e 6af3 6e3e
00000050: 7a43 893e c7ce 973d c965 d83d df9a b73c
00000060: 98eb 403e 4d2e 0b3e c246 a23d 1638 483c
00000070: 4653 213c 07d7 103e 3d04 943e 40c3 f33c
00000080: 3b96 2c3e 4a49 0c3e 2220 5c3d 0fb8 083d
00000090: 7b67 f13d bbeb 063e 23f5 353c 3a25 bb3d
000000a0: 3daa ff3d 2076 ec3c ff9c 053c 2441 fe3d
000000b0: f85f 483e d21a a83e 9ed3 233e 13f9 403e
000000c0: 6061 023e 52d6 d83d d27b 933e 1bc9 033e
000000d0: 11ca 963c e648 543c 079f 9a3d 1d69 863d
000000e0: db52 983d ea03 a63e c380 403e 8541 a93b
000000f0: 4cea f83d 0467 383e 7737 833e 8766 3e3e
00000100: 1396 9c3d a938 b43d f569 013e d5f1 173e
00000110: 02ab cb3d a6c5 e43e 9fbf 3ebd 262d a8bb
00000120: 2abe 063e 4af6 8c3e b2a2 cf3d a0ef 3b3d
00000130: 1475 d03e e33f cb3d f384 423e f76d 9b3d
00000140: a82f 6c3e 4b24 f43d 4567 68bd aa80 783d
00000150: f638 6a3e 0f85 303e 16de 053e d084 b63d
00000160: bdd0 e73d d861 053e b519 743d 05a7 413e
00000170: 11a5 853b c9fb fe3d 3974 5d3d 7cdc 1c3e
00000180: 8830 b83d e19a 44bc 1f96 0d3e 6ce3 2c3c
00000190: a129 053e b3cd ff3d 28d9 d33d 0fd5 c03d
000001a0: f2d1 2f3e 2545 123e 73ba 0b3e c91d d93d
000001b0: f01a ce3d 4b3b 743e 7ba5 0c3e 1c23 ad3d
000001c0: d967 b73e 4924 413e c166 ee3d 14b2 993e
000001d0: 97bc 3e3e 1c47 d73d 7c77 983e d7fa a53e
000001e0: 78e3 643e 103e 073e b259 753c ea3c 863d
000001f0: fc7a 383d 0131 88bb 45a5 323e 8084 d13a
00000200: a7ae 413d 4069 153d 8940 6e3d 1ade a0bd
00000210: 41e9 193d f8e5 85bc f7d7 19bd 2282 b9bd
00000220: d3c2 753d ffc8 8ebd 3b9c c9bd 9a99 a6bc
00000230: 699e 5bbd 30e4 eabd 8442 b2bd 3b7f 82bd
00000240: f6a6 603d 9848 94bd 7796 b5bc 808e f0bb
00000250: e799 80bc 9c4d 65bd 96c4 8abc 71e0 49bd
00000260: 114c fbbb f4f4 713c ca79 2ebd 4eac 47bd
00000270: 5089 bd3c 525c febd 7bc3 fdbd 47a8 293d
00000280: 05d2 e5bd a2d6 a8bd 600c 413d 8512 80bc
00000290: afa5 6cbd 23db 4b3d 1339 813d a6bb 7a3c
000002a0: 861c 21bd 0cff 15bd 15e4 0abe 2930 74bd
000002b0: 53ec 35bd b813 f7bd 2ec0 ffbd a748 05be
000002c0: 07cb 773d 488c 81bd fc4c 11be 5afa 363c
000002d0: 5f72 76bd 55c2 4a3d 08e0 673d e40b ac3d
000002e0: 1ad7 983d dcf2 c43c 98ed ad3d a29f 10bd
000002f0: 83a3 61bc a3f5 f8bc f0e6 51bd 6923 04bd
00000300: 3b29 bebd f82b edbd ca06 743b 0cd6 d53a
00000310: 0aa5 87bd f8ec 76bd 5740 babd 7766 d8bd
00000320: 561b 1e3d 448f 2bbe 7a43 9a3c 8b8b 28bc
00000330: 2d74 12be 384c 79bb 9fda 863c 3e00 fdbd
00000340: ac22 14be 7c33 173b 6c77 af3c 8888 febd
00000350: 0204 8fbc 3f00 223d 0f22 aebd 3a3e 0cbe
00000360: 07d0 80bd 1d59 3d3c e9b5 b9bd fa55 c0bc
00000370: 118f 913c 5263 b03c 582e 993d d77a cbbb
00000380: 8ec8 973c 35a6 b23d d687 acbd 6711 3dbd
00000390: 4c35 27bd e747 963d 3e9d b53d 9744 473d
000003a0: ff8d aebd 1f1b c5bd 93a3 593d 3cf8 783c
000003b0: 8101 a63c 0a96 67bc d53a 81bd 30a3 57bd
000003c0: 27c8 27be d6b0 82bd 9c29 d33d b0da 0ebd
000003d0: c3b1 90bd 189f 4e3d c335 c2bd dcf2 e43c
000003e0: 57fb 04be c5e7 09be 02ef 083c 6676 3d3c
000003f0: 2bdd 85bd 2d17 6dbb 51e9 92bd a671 643d
0.27700043 0.022274844 0.3318314 0.31649315 0.22439665 0.14576916 0.28301492 0.20908642
0.24604337 0.14530784 0.12780939 0.14839152 0.10896208 0.040484928 0.27492917 0.20295511
0.039528888 0.13071622 0.1310174 0.23335043 0.26809293 0.074124865 0.10566289 0.022412715
0.18839872 0.13591881 0.07923652 0.012220403 0.009846514 0.14144526 0.28909484 0.029756188
0.16854183 0.13699833 0.05374158 0.033378657 0.117873155 0.13175862 0.011105808 0.0913796
0.12483642 0.02886492 0.008155107 0.12414768 0.19567859 0.32832962 0.15998694 0.18845014
0.12732458 0.10587753 0.28805405 0.12869684 0.0184069 0.0129568335 0.07549863 0.065630175
0.074376784 0.3242486 0.18799119 0.0051652812 0.121540636 0.18008047 0.25628254 0.18593799
0.07645812 0.087998696 0.12638076 0.14838345 0.099447265 0.44682044 -0.046569463 -0.0051323352
0.1315848 0.27531654 0.101384535 0.04588282 0.40714324 0.09924295 0.18996029 0.075893335
0.23065054 0.11920985 -0.05673911 0.06066958 0.22873291 0.17238258 0.13073 0.08912051
0.113191105 0.13025606 0.05959483 0.18911369 0.0040785153 0.12450368 0.054065917 0.15318483
0.089936316 -0.011999817 0.13826798 0.0105522685 0.13004161 0.12490406 0.10344154 0.09415638
0.17169932 0.14284189 0.13645343 0.10601384 0.10063732 0.23850743 0.13735001 0.08453962
0.35821417 0.18861498 0.116406925 0.30018675 0.18626629 0.1051161 0.2977866 0.32417938
0.22352397 0.13207269 0.014974998 0.06554587 0.045039162 -0.0041562323 0.17445858 0.0015984923
0.047285702 0.036477327 0.058167014 -0.078548625 0.037575964 -0.01634501 -0.037559476 -0.09058024
0.060000252 -0.06971931 -0.09844252 -0.020336915 -0.05361787 -0.114693046 -0.08704093 -0.063719235
0.054846726 -0.07240409 -0.022166474 -0.007341206 -0.015698386 -0.055982217 -0.016939443 -0.04928631
-0.00766898 0.014767874 -0.042596616 -0.048748307 0.023136765 -0.124199525 -0.123908006 0.041420247
-0.11221699 -0.08244063 0.047130942 -0.01563383 -0.057775196 0.049769532 0.06309714 0.015303528
-0.039333843 -0.036620185 -0.13563569 -0.05961624 -0.04441483 -0.12064308 -0.12487827 -0.13015996
0.060496356 -0.06325585 -0.14189523 0.011168087 -0.060167667 0.049501736 0.056610137 0.084007055
0.07462902 0.024041586 0.08492583 -0.035308488 -0.013771894 -0.030390566 -0.05124563 -0.032260332
-0.09285208 -0.11580652 0.0037235492 0.0016314401 -0.066232756 -0.060284585 -0.09094303 -0.105664186
0.03860029 -0.1675387 0.018831003 -0.010287176 -0.1430213 -0.0038039815 0.016461669 -0.12353562
-0.14466351 0.0023071459 0.02141925 -0.12428385 -0.017457966 0.039551016 -0.0850259 -0.13695613
-0.06289678 0.011556891 -0.090679 -0.023478497 0.017768415 0.021531735 0.074795425 -0.006209712
0.01852825 0.08723108 -0.08424346 -0.046159174 -0.040822312 0.07337933 0.08867882 0.048649397
-0.08523177 -0.096243136 0.053134512 0.015195902 0.020264389 -0.014134893 -0.063100494 -0.052645862
-0.16384946 -0.06381385 0.10310671 -0.034876525 -0.07065155 0.050444692 -0.094829105 0.027947836
-0.12986504 -0.1346732 0.008357765 0.011563873 -0.06536325 -0.0036177144 -0.07173408 0.055772446
