logs/fgb_vary_oracle/7/actor.pt (torch, 906162 bytes, 17 tensors)

weight_ih f4 [512, 48]
0	0x3c8eebab	0.01744636
1	0x3e26777d	0.16256519
2	0xbdc7f63f	-0.097637646
3	0xbbfe74b9	-0.0077653793
4	0xbc5d9966	-0.013525343
5	0x3d25d646	0.04048755
6	0x3d598164	0.053101912
7	0xbc02ca14	-0.0079827495
8	0x3e010234	0.12598497
9	0x3e1586d2	0.14602211
10	0xbe15de32	-0.14635542
11	0xbccdbca0	-0.025114357
12	0xbd7e6462	-0.06210745
13	0xbd3065ac	-0.04306571
14	0xbd22587e	-0.039635174
15	0x3c3e9c8f	0.011634006
16	0x3e308026	0.17236385
17	0x3dd35659	0.10319204
18	0xbe29f99f	-0.16599129
19	0xbd622bcb	-0.055217545
20	0x3bcd1145	0.006258162
21	0x3cc5a49d	0.024126345
22	0xbc82887d	-0.015934223
23	0x3d4fde6a	0.05074922
24	0xbd41e3ae	-0.047336273
25	0x3d32b19f	0.043626424
26	0x3d1739d0	0.03692037
27	0xbd96b3bd	-0.07358501
28	0xbd793394	-0.060840204
29	0xbd3c9a6b	-0.046045702
30	0x3d80064b	0.062512
31	0x3d18a4a3	0.037266385
32	0xbd7f1518	-0.062275976
33	0x3c8c9359	0.017160105
34	0xbdc09b88	-0.09404665
35	0xbd626f1b	-0.05528174
36	0xbc44c530	-0.012009904
37	0x3df43365	0.11923865
38	0x3d3f55f8	0.046712846
39	0x3d3cd129	0.04609791
40	0x3bbdf28b	0.0057967356
41	0xbc9ad5fe	-0.018900868
42	0x3d08dfbe	0.033416502
43	0xbd0f9118	-0.03505048
44	0xbd5f7006	-0.054550193
45	0xbe1204a0	-0.14259577
46	0x3d474e4c	0.048658654
47	0x3cff34a5	0.031153033
48	0xbced42aa	-0.028962452
49	0x3cebb586	0.02877308
50	0x3e42aca6	0.19011173
51	0xbd88a437	-0.066719465
52	0x3debcb00	0.115133286
53	0x3d0bc695	0.03412493
54	0x3e041a76	0.12900719
55	0x3ccb6e1e	0.024832781
56	0x3da2a2c9	0.07941205
57	0x3d79d1e7	0.060991194
58	0x3d30a92c	0.043130085
59	0xbdc177f7	-0.094467096
60	0x3db7952a	0.08963998
61	0x3d17ba6e	0.037043028
62	0xbd91cb2c	-0.0711883
63	0x3d7db5de	0.06194102
64	0x3ce9c6fd	0.028537268
65	0xbd82404a	-0.063599184
66	0x3d86d0ce	0.06582795
67	0x3c7d6a34	0.015467215
68	0x3c5f5b61	0.013632626
69	0x3dddb4e5	0.108255185
70	0xbd217ea5	-0.03942742
71	0xbca2a78a	-0.01985528
72	0x3be77787	0.0070638093
73	0x3dee393d	0.11632011
74	0x3e07d186	0.1326352
75	0x3c447cde	0.011992661
76	0x3dae471f	0.08509659
77	0xbe7604f7	-0.24025331
78	0xbbd8f6ac	-0.0066212025
79	0xbda7e808	-0.08198553
80	0xbdd085e4	-0.101817876
81	0x3ccbc643	0.024874812
82	0x3d1ab9f1	0.037774984
83	0xbd9a6ada	-0.075399116
84	0x3b61d99f	0.0034461988
85	0xbcc116b6	-0.0235704
86	0xbce6cd1d	-0.028173978
87	0xbcb507c4	-0.02209843
88	0x3d70c502	0.05878163
89	0xbd033462	-0.032032378
90	0x3cea2d72	0.028586123
91	0x3d6b0b8b	0.057384055
92	0x3deaebe5	0.114707746
93	0x3dbec654	0.09315172
94	0xbd185b23	-0.03719629
95	0xbd108c93	-0.035290312
96	0x3da446fc	0.08021352
97	0x3d7e938e	0.062152438
98	0xbdb89b5c	-0.090140074
99	0xbe4d8c9b	-0.20073168
100	0x3d8d7f0f	0.06909
101	0x3d808dd3	0.06277051
102	0xbcc8cf18	-0.024512812
103	0x3c3f4bd1	0.011675791
104	0xbdd29c02	-0.102836624
105	0xbbc28459	-0.005936187
106	0xbcd7ee9f	-0.0263589
107	0xbdf264c9	-0.118356295
108	0x3dd6943b	0.104774915
109	0x3cdea817	0.02717976
110	0xbcdb24cc	-0.026750945
111	0x3deda926	0.11604528
112	0xbd1a8cd1	-0.03773195
113	0x3d923896	0.07139699
114	0x3e1387ab	0.14407222
115	0xbe1515c8	-0.1455909
116	0xbdcdc0b4	-0.10046521
117	0x3cf60433	0.0300313
118	0xbd3b9723	-0.045798432
119	0x3c7df0b7	0.015499285
120	0xbd0ed5dc	-0.03487192
121	0xbb990bd7	-0.004670601
122	0xbd721b2e	-0.05910795
123	0xbd5139a4	-0.05108036
124	0xbda13aae	-0.078725204
125	0xbdcd180c	-0.10014352
126	0x3ccd776b	0.025081357
127	0xbddc4edf	-0.10757231
128	0xbd8ea575	-0.06965152
129	0xbd7db48f	-0.061939772
130	0x3d5fae29	0.05460945
131	0x3ac1cc3a	0.0014785596
132	0xbd47497f	-0.048654076
133	0xbb02c260	-0.0019952282
134	0x3d908166	0.07055931
135	0xbd1176b0	-0.03551358
136	0xbcf4f06f	-0.029899804
137	0xbd19e5bb	-0.037572604
138	0x3a1332bd	0.00056151656
139	0x3da34448	0.07972008
140	0x3ddad85f	0.10685801
141	0x3d4d451e	0.050114743
142	0x3d82669a	0.06367226
143	0xbd42d005	-0.047561664
144	0xbdba22d4	-0.09088674
145	0xbcfb963f	-0.030711291
146	0x3e2b1018	0.16705358
147	0xbbf06777	-0.0073365527
148	0xbdd1320f	-0.10214626
149	0xbdb841a4	-0.08996895
150	0xbd431299	-0.047625158
151	0xbe000cd6	-0.12504897
152	0x3c86dd20	0.016462862
153	0xbbd54cc1	-0.006509394
154	0xbd4ed81a	-0.05049906
155	0xbddc0dcb	-0.10744818
156	0x3dbc403a	0.09191938
157	0xbc30404c	-0.010757517
158	0xbd68019c	-0.05664216
159	0xbd20f6ee	-0.03929799
160	0xbc886f9c	-0.016654782
161	0x3c56d82a	0.013113061
162	0xbde94d53	-0.113917015
163	0xbe1ed2bb	-0.15510075
164	0xbb2855e6	-0.0025685965
165	0xbd2308ee	-0.039803438
166	0x3c85d4c3	0.016336804
167	0x3d62e2d1	0.05539209
168	0xbd24d510	-0.040242255
169	0x3c3f5c28	0.011679687
170	0x3db15535	0.0865883
171	0xbd8e35ef	-0.06943881
172	0x3de8d1a1	0.113681085
173	0x3dba496b	0.090960346
174	0xbd6d85bf	-0.05798888
175	0x3d14b6ec	0.03630726
176	0xbd32a38a	-0.043612994
177	0x3d0c7841	0.03429437
178	0x3d8f0481	0.06983281
179	0xbe04633b	-0.12928478
180	0x3c5a2e5b	0.013316716
181	0xbd154ba4	-0.03644909
182	0x3cbf28e5	0.02333493
183	0xbd1878f6	-0.037224732
184	0x3c74ce66	0.014941787
185	0x3a871afd	0.0010307726
186	0xbd27aad2	-0.04093439
187	0x39bea060	0.00036359113
188	0xbdbf50e1	-0.09341598
189	0x3d469749	0.04848412
190	0x3de4d49b	0.11173364
191	0x3dbb8a5b	0.091572486
192	0xbdd83c22	-0.105583444
193	0x3e18eba2	0.14933637
194	0xbc2ed4d3	-0.010670858
195	0xbe93827a	-0.28810483
196	0xbd75ff24	-0.060057774
197	0xbbe3ac43	-0.0069480254
198	0xba51bd2b	-0.00080009055
199	0xbddc3c06	-0.10753636
200	0x3cbea1be	0.023270484
201	0x3e5cae55	0.21550877
202	0x3b1ecdaa	0.0024231472
203	0xbe1ff31e	-0.15620086
204	0xbcb1a393	-0.021684444
205	0x3d3ad93c	0.045617327
206	0xbca3d60d	-0.019999528
207	0x3e0d4cdb	0.1379885
208	0x3e399b52	0.18125656
209	0x3e16575e	0.14681765
210	0xbd0f4baf	-0.034984287
211	0xbe3fdecc	-0.18737334
212	0x3c062834	0.008188296
213	0xbc61cfbd	-0.013782439
214	0x3de59a31	0.1121105
215	0x3d291c81	0.04128695
216	0xbdfbd3b4	-0.122962385
217	0xbdfe5f9e	-0.12420581
218	0x3d807020	0.06271386
219	0xbde48633	-0.11158409
220	0xbc2d88db	-0.010591711
221	0x3c91d0f8	0.01779984
222	0x3de0b8ba	0.10972734
223	0x3dbebe4a	0.093136385
224	0xbdf9c8e5	-0.12196521
225	0x3d8adaec	0.06780037
226	0xbc017aff	-0.00790286
227	0xbcd74bc0	-0.026281238
228	0xbd292740	-0.041297197
229	0xbcc8f5db	-0.024531296
230	0xbc923cee	-0.01785132
231	0x3d89450f	0.06702625
232	0xbc1a101c	-0.009403255
233	0x3d9a78be	0.07542561
234	0x3d0ea6f8	0.034827203
235	0xbda83d9d	-0.08214877
236	0x3c8f60a9	0.017502146
237	0xbd5cc671	-0.053900186
238	0xbc9dfb74	-0.019284941
239	0x3d8959bb	0.06706568
240	0x3e40971b	0.18807642
241	0x3e01f877	0.12692438
242	0xbd0f181c	-0.034935102
243	0x3e1c8406	0.15284738
244	0x3d3f49cb	0.046701234
245	0xbdf81150	-0.12112677
246	0x3d159cbc	0.036526427
247	0xbe089deb	-0.13341491
248	0x3de16d99	0.11007232
249	0xbd03ccce	-0.03217774
250	0xbd0de577	-0.034642663
251	0x3d30c950	0.043160737
252	0xbca37159	-0.01995151
253	0x3dfab159	0.12240858
254	0xbc545ccb	-0.012961577
255	0xbcedf3c3	-0.029046899

weight_hh f4 [512, 128]
0	0xbd2b46c8	-0.04181555
1	0x3d6af9d0	0.057367146
2	0xbd2d3dfe	-0.04229545
3	0xbcd8550a	-0.026407737
4	0xbd6c5f07	-0.057707813
5	0xbc835f46	-0.01603664
6	0x3de282b1	0.11060084
7	0xbd89e0cd	-0.067323305
8	0x3deddb45	0.11614088
9	0x3dc5e348	0.09662491
10	0xbd91dba2	-0.0712197
11	0x3d973282	0.073826805
12	0x3dc8c640	0.09803438
13	0x3d2cae59	0.04215846
14	0x3d8e05a2	0.06934668
15	0x3e02ef1e	0.12786528
16	0x3dc1edf6	0.094692156
17	0xbc60aa45	-0.01371247
18	0x3d1504bc	0.03638147
19	0xbda479c3	-0.08031037
20	0x3c881a55	0.016614119
21	0x3d54f9e0	0.051996112
22	0x3d73ea82	0.059549816
23	0x3d51eda0	0.051252007
24	0xbcc8d859	-0.024517225
25	0x3d049c4c	0.03237562
26	0xbcb05d2c	-0.021528803
27	0x3d77cb2a	0.060496487
28	0xbdcaed07	-0.09908491
29	0x3d9a1b4f	0.0752474
30	0x3d4d917b	0.05018757
31	0x3c2c981e	0.010534314
32	0xbc983b86	-0.01858307
33	0xbde44115	-0.11145226
34	0xbdba1314	-0.0908567
35	0xbde74b91	-0.1129371
36	0xbd0434a3	-0.03227676
37	0x3d003296	0.031298243
38	0xbd498e49	-0.04920796
39	0xbd046f17	-0.032332506
40	0x3d45a508	0.04825309
41	0xbc4882e3	-0.012238237
42	0x3d55d97b	0.05220936
43	0x3d7d4179	0.061830018
44	0x3dcc6086	0.09979348
45	0x3d3ecc92	0.046581812
46	0x3d3520c9	0.04422072
47	0x3d2cd220	0.04219258
48	0x3ccc73c1	0.02495754
49	0x3cc908cd	0.02454033
50	0x3d07eb43	0.033183347
51	0xbc7e1b5b	-0.015509452
52	0x3c86f7b7	0.016475542
53	0x3da1cc7f	0.07900333
54	0xbdcbef26	-0.09957723
55	0x3cd4be84	0.025969751
56	0x3d10dfea	0.03536979
57	0xbd0b7c87	-0.034054305
58	0xbcb203bb	-0.021730294
59	0xbd8be30b	-0.068304144
60	0xbd3dba71	-0.046320383
61	0xbcddb802	-0.02706528
62	0xbb905b8a	-0.0044054436
63	0xbd826ca7	-0.0636838
64	0xbcbc62fe	-0.022996422
65	0x3dd28318	0.102789104
66	0x3d99bef2	0.07507123
67	0x3d446faf	0.047958072
68	0xbdcdb552	-0.1004435
69	0x3cd7c37d	0.026338333
70	0x3daeb3f9	0.08530421
71	0xbd6aab09	-0.057292018
72	0xbe092878	-0.13394344
73	0xbd9d4620	-0.07679391
74	0x3d397e5f	0.045286532
75	0xbd1f87a6	-0.038947724
76	0x3d3c3e0d	0.045957614
77	0x3c8a20eb	0.0168614
78	0xbdce6b19	-0.10079021
79	0x3d887a6b	0.066639744
80	0x3d7b7c77	0.061397996
81	0x3db24b0e	0.08705722
82	0x3d037af5	0.032099683
83	0x3d827e89	0.06371791
84	0x3c417a04	0.011808876
85	0x3da75dea	0.081722096
86	0xbd8078c8	-0.06273037
87	0xbe31dff3	-0.17370586
88	0x3d99e5b9	0.07514519
89	0x3de7b4e7	0.11313801
90	0xbe17fe2e	-0.14843056
91	0x3d8fe239	0.070255704
92	0x3e2863ef	0.16444372
93	0xbdb9e7a2	-0.090773836
94	0xbd26a22e	-0.04068201
95	0x3cb3d471	0.021951886
96	0xbdb66f25	-0.08907918
97	0xbd8cedaa	-0.06881268
98	0xbe18b300	-0.14912033
99	0xbbc27766	-0.0059346436
100	0x3d8c5240	0.068516254
101	0x3c7c459e	0.015397457
102	0x3d86cc6f	0.06581961
103	0xbddb77ea	-0.10716231
104	0xbc29c331	-0.010361479
105	0xbdeaa2e3	-0.114568494
106	0xbb295b54	-0.002584179
107	0x3d6c6360	0.05771196
108	0x3d84807b	0.06469818
109	0xbd3183f9	-0.04333875
110	0x3d31b7db	0.04338823
111	0xbcabfb35	-0.020993808
112	0x3d903c5e	0.07042764
113	0x3d993410	0.07480633
114	0xbc8246b1	-0.015902849
115	0xbd208b2c	-0.039195225
116	0x3d169e09	0.036771808
117	0xbd83ec0a	-0.06441505
118	0xbc971b73	-0.018445706
119	0xbcbabff3	-0.022796607
120	0xbcb7a750	-0.022418648
121	0xbc184ac5	-0.00929517
122	0xbde36304	-0.1110287
123	0xbd898f23	-0.06716754
124	0xbc42691d	-0.011865881
125	0x3de8afa0	0.11361623
126	0xbd134c13	-0.035961222
127	0x3e27a863	0.16372828
128	0xbdbe897a	-0.09303565
129	0x3d315c7f	0.0433011
130	0xbdd6d484	-0.10489753
131	0x3da7bbdf	0.081901304
132	0xbd3b13ac	-0.045673057
133	0xbbd406d9	-0.006470543
134	0x3d29c666	0.041448973
135	0xba2a0f80	-0.0006487295
136	0x3e1f0a0c	0.15531176
137	0x3db10c18	0.08644885
138	0xbd122cac	-0.035687134
139	0x3d89c72f	0.067274444
140	0xbc524091	-0.012832777
141	0xbd64e820	-0.055885434
142	0x3d3825d4	0.04495795
143	0x3d0b9dc7	0.034086015
144	0xbd436da2	-0.047711976
145	0xbd7a7ae1	-0.061152343
146	0x3c685942	0.014181437
147	0xbd5a0075	-0.053223092
148	0xbe176d42	-0.14787772
149	0x3d5c88a5	0.053841252
150	0xbdce43ad	-0.10071502
151	0xbe05d6e9	-0.13070263
152	0x3d8b8cca	0.06813963
153	0xbd09f6e2	-0.03368271
154	0xbd4bc1f7	-0.049745526
155	0xbd991c82	-0.074761406
156	0xbd3c87c8	-0.04602793
157	0x3ca3a1b2	0.019974563
158	0xbd139820	-0.03603375
159	0xbcb4df86	-0.02207924
160	0xbc8e87e5	-0.017398784
161	0xbb4b7638	-0.0031045806
162	0xbc086f96	-0.008327385
163	0xbd7f14ef	-0.062275823
164	0xbdaf9e10	-0.0857507
165	0xbc98e88f	-0.01866558
166	0x3d0d0d20	0.034436345
167	0xbc036693	-0.008020061
168	0xbe04bcc5	-0.12962635
169	0xbcc4f5fc	-0.024043076
170	0xbb52a36f	-0.003214087
171	0xbd49e7d4	-0.049293354
172	0x3d83adbf	0.06429624
173	0xbd527fab	-0.051391285
174	0x3da375af	0.07981431
175	0x3d944028	0.07238799
176	0x3d70c215	0.05877884
177	0x3dbd8af2	0.09255017
178	0x3ca15792	0.019695077
179	0xbdd5a15f	-0.1043117
180	0x3d39362e	0.045217685
181	0x3dd4b92e	0.10386883
182	0xbd636f5d	-0.055526126
183	0xbcb8a8da	-0.022541452
184	0x3d19cbdb	0.037547927
185	0x3cfcbfd5	0.030853191
186	0xbd3fe038	-0.04684469
187	0xbe0af363	-0.13569407
188	0xbcc43a89	-0.023953693
189	0xbe0e92d1	-0.13923194
190	0x3dbb29b0	0.09138811
191	0x3d8239a5	0.06358651
192	0x3d50d3a1	0.050983075
193	0xbe06acc9	-0.1315185
194	0x3d9adf16	0.075620815
195	0xbcb56c0b	-0.022146245
196	0xbe0039ea	-0.12522092
197	0x3d886d58	0.06661481
198	0x3d654bc5	0.055980463
199	0xbcf2b906	-0.029629242
200	0xbbde92ce	-0.006792403
201	0x3bf44d6b	0.007455518
202	0x3d9fd084	0.07803443
203	0xbaa7a812	-0.0012791178
204	0x3d4f48a9	0.050606403
205	0x3c8485f2	0.016177151
206	0x3dd11745	0.102095164
207	0x3ddbad39	0.10726399
208	0x3dd3b19b	0.1033661
209	0x3d199513	0.037495684
210	0xbcc4e4a2	-0.024034802
211	0xbcf463b5	-0.0298327
212	0x3c9ea791	0.019367011
213	0x3dc5ba49	0.09654672
214	0x3d3469ef	0.04404634
215	0x3c9f141f	0.019418774
216	0xbd80d15f	-0.06289934
217	0x3d1643f2	0.03668589
218	0xbdee34a7	-0.116311364
219	0x3de1623e	0.11005066
220	0x3d0ba683	0.034094345
221	0xbce53c0e	-0.027982738
222	0x3c7331cf	0.014843418
223	0xbcc4a6e2	-0.024005357
224	0x39a3b93a	0.00031227787
225	0x3c5e5e4c	0.013572287
226	0xbdc623a5	-0.096747674
227	0x3da8ff97	0.08251875
228	0xbd377af9	-0.04479501
229	0xbcf8df2b	-0.030379852
230	0xbc876daa	-0.016531784
231	0xbde93ff8	-0.11389154
232	0xbc48d401	-0.012257577
233	0xbc70815b	-0.014679278
234	0x3d9bc554	0.07605997
235	0xbd955062	-0.072907224
236	0xbce7edc9	-0.028311627
237	0x3d4b9564	0.049703017
238	0xbd08354a	-0.033253945
239	0x3ca0b713	0.019618547
240	0xbd55b658	-0.05217585
241	0x3db37c4a	0.08763941
242	0xbd98490d	-0.07435808
243	0x3cb24dff	0.021765707
244	0x3d8d17f8	0.06889337
245	0xbe05e912	-0.1307719
246	0x3c782b59	0.015147054
247	0x3d0415b2	0.032247253
248	0xbd10440f	-0.035221156
249	0x3d4a4f48	0.049392015
250	0xbd89c496	-0.06726949
251	0x3d13b752	0.0360635
252	0x3d743425	0.05962004
253	0x3afe431b	0.0019398661
254	0xbdd46ce8	-0.10372335
255	0x3c38cd71	0.01127945

bias_ih f4 [512]
0	0x3deb10e2	0.114778295
1	0x3e0e6ee9	0.13909496
2	0x3ce5eaf5	0.028066138
3	0xbc953c3e	-0.018217202
4	0x3e00cb45	0.12577541
5	0x3d5374e2	0.05162514
6	0x3dc991d1	0.098422654
7	0x3e32d964	0.1746574
8	0xbc9053f6	-0.01761816
9	0x3d0ab57c	0.033864483
10	0x3d230cdd	0.03980719
11	0x3d8d58b2	0.06901683
12	0x3e04ad79	0.129568
13	0x3d3b3c20	0.045711637
14	0xbc98d101	-0.018654348
15	0x3d80cb24	0.06288746
16	0x3dc3aa15	0.09553925
17	0x3db06e90	0.08614838
18	0x3d943f2f	0.07238614
19	0x3af167ce	0.0018417777
20	0x3e0346a8	0.12819922
21	0x3db69a63	0.08916166
22	0x3dd74ac5	0.10512308
23	0x3db77832	0.08958472
24	0xbb54feb5	-0.003250045
25	0x3d9129ad	0.07088027
26	0xbc4a9dcc	-0.012366723
27	0x3d0f7401	0.03502274
28	0x3df16387	0.117865615
29	0x3dbfc146	0.09363036
30	0x3d039790	0.032126963
31	0x3c18c1e7	0.009323574
32	0xbc9df613	-0.019282376
33	0x3d387b89	0.045039687
34	0x3e0a9cdc	0.135364
35	0x3d1cccec	0.038281366
36	0x3e29890f	0.1655619
37	0x3e820800	0.2539673
38	0x3da8e080	0.08245945
39	0x3d8fa521	0.07013918
40	0x3d890ec9	0.06692273
41	0xbc79b715	-0.015241404
42	0x3cf1e2cd	0.029527092
43	0x3d526beb	0.05137245
44	0x3e51e946	0.20499143
45	0x3df45b30	0.11931455
46	0x3d72dd47	0.059293058
47	0x3dc0596e	0.09392057
48	0xbd967c54	-0.073479325
49	0x3e0353db	0.12824957
50	0x3d527115	0.051377375
51	0x3d8669bc	0.06563136
52	0xbbb354e6	-0.005472767
53	0x3d2f6f9b	0.042831045
54	0x3da1dd83	0.07903578
55	0x3e1b9ffc	0.15197748
56	0x3dcae6e2	0.09907319
57	0x3e32c669	0.174585
58	0x3e1589f2	0.14603403
59	0x3de574af	0.11203896
60	0x3e320776	0.17385659
61	0x3d7aa482	0.061192043
62	0x3d9b7bfb	0.07592007
63	0x3dcaef98	0.0990898
64	0xbc413082	-0.01179135
65	0x3e31e1d1	0.17371298
66	0x3d90121d	0.07034705
67	0xbcf37045	-0.02971662
68	0x3e20ff75	0.15722449
69	0x3d2fb0ae	0.042893104
70	0x3c4883f5	0.012238492
71	0x3dc52984	0.09627059
72	0x3e1230f1	0.14276482
73	0x3e00bbd5	0.12571652
74	0x3e017bb1	0.12644841
75	0x3d7d6fff	0.061874386
76	0x3e2b68cb	0.16739194
77	0x3d8e49b5	0.06947652
78	0xbcd3dd45	-0.025862345
79	0xb91605ce	-0.00014307277
80	0x3cdb238e	0.026750352
81	0x3da0c24b	0.078495584
82	0x3dacfbce	0.084464654
83	0xbd2e4ff6	-0.042556725
84	0x3c1687da	0.009187663
85	0x3b547dc7	0.0032423602
86	0x3d917c0f	0.071037404
87	0x3da9a8f9	0.08284182
88	0x3d0b7ef4	0.03405662
89	0x3e30a2f3	0.1724966
90	0x3d5e553a	0.054280497
91	0x3cc1fe93	0.02368096
92	0xbbd2f5cf	-0.006437994
93	0x3c9f3297	0.019433303
94	0x3cb73a84	0.02236677
95	0x3d4b666b	0.04965822
96	0xbd156a47	-0.036478307
97	0x3e4cc002	0.1999512
98	0x3de95e53	0.11394944
99	0xbc8d1333	-0.017221069
100	0x3dc356b6	0.09538023
101	0xbd7a4e86	-0.061110042
102	0x3d8578a3	0.0651715
103	0x3a15574a	0.0005696906
104	0x3e4d314c	0.20038337
105	0x3d54d96a	0.051965155
106	0x3e2b63b4	0.16737252
107	0x3e1f232a	0.15540758
108	0x3c4d35d9	0.012525045
109	0x3bf72ec0	0.007543415
110	0x3d098010	0.033569396
111	0x3db2b5fa	0.087261155
112	0x3de9cdb1	0.11416186
113	0x3d0a1f3c	0.033721194
114	0x3e34fa21	0.17673542
115	0x3d809ce3	0.06279924
116	0x3e03200f	0.12805198
117	0x3defeb26	0.11714773
118	0x3d90d17c	0.07071206
119	0x3b5f078d	0.00340316
120	0x3dd59962	0.10429646
121	0x3db0e8ca	0.08638151
122	0x3c823225	0.015893051
123	0x3e0a633c	0.13514417
124	0x3d911875	0.07084743
125	0x3d734497	0.059391584
126	0x3d13a8cd	0.036049653
127	0x3da5671c	0.08076307
128	0x3db2fa22	0.08739115
129	0x3d7ab665	0.0612091
130	0xbd436714	-0.047705725
131	0x3d0a1f98	0.033721536
132	0xbcaa255b	-0.020769766
133	0x3d9d1dab	0.07671674
134	0xbde4d966	-0.11174278
135	0x3d96084e	0.07325803
136	0x3d8c2ceb	0.06844505
137	0xbdb397dc	-0.08769199
138	0x3bfcb66b	0.0077121756
139	0x3d89290a	0.06697281
140	0xbd7cf340	-0.06175542
141	0xbdb554ad	-0.08854041
142	0x3ca12d69	0.019674974
143	0xbce08b52	-0.027410183
144	0xbd7db51c	-0.061940297
145	0xbcbed9ee	-0.023297276
146	0xbcda5b73	-0.026654935
147	0xbc51d2dc	-0.01280662
148	0xbc0d89f8	-0.008638851
149	0x3c198e92	0.00937237
150	0x3afd6723	0.0019333105
151	0x3ca3bd1f	0.01998764
152	0xbd0079f3	-0.0313663
153	0x3d01a360	0.031649947
154	0x3ce70849	0.028202193
155	0x3d89ae1b	0.06722661
156	0x3d24881f	0.040168878
157	0xbcefc888	-0.029270425
158	0xbd46e92a	-0.048562206
159	0x3d03a97f	0.032144066
160	0xbd25c9b5	-0.040475566
161	0x3de9fbc5	0.11424974
162	0xbd605d82	-0.054776676
163	0x3dc19eeb	0.09454139
164	0xbcf211c1	-0.029549481
165	0xbdfe4df9	-0.12417216
166	0xbd2b6d61	-0.04185236
167	0x39e3fed8	0.00043486687
168	0x3c96c1d8	0.018402979
169	0xbd579080	-0.05262804
170	0x3d840861	0.06446911
171	0xbd019c64	-0.031643286
172	0xbccf467f	-0.02530217
173	0x3daa6377	0.08319753
174	0xbc66e243	-0.014092031
175	0x3d67aec0	0.05656314
176	0xbd828a2d	-0.06374011
177	0x3d015491	0.03157479
178	0x3a5c6d5f	0.00084086315
179	0x3bd00e77	0.0063493806
180	0xbd061258	-0.032732338
181	0x3d935e3e	0.0719571
182	0x3c0c41c5	0.008560603
183	0xbc50a6f1	-0.012735114
184	0xbd65d75b	-0.056113582
185	0x3d730fc5	0.05934121
186	0xbc7a63ba	-0.015282566
187	0x3da5d9e0	0.08098197
188	0x3dcc403e	0.09973191
189	0x3d17bce2	0.037045367
190	0x3db94ee5	0.09048251
191	0xbdcf8b55	-0.10133997
192	0x3daa5c34	0.083183676
193	0x3d148a77	0.036264863
194	0xb813200a	-3.507737e-05
195	0x3dcaa37c	0.098944634
196	0xbd5e157c	-0.054219708
197	0x3c3d1041	0.01153952
198	0xbce42de2	-0.02785391
199	0x3c0709c7	0.008242077
200	0xbd7e6fdb	-0.062118392
201	0xbcad7065	-0.021171758
202	0xbda897a3	-0.082320474
203	0xbd8cb73c	-0.06870887
204	0xbc97790e	-0.01849034
205	0x3b0e0535	0.0021670584
206	0x3c326a0c	0.010889541
207	0x3d725f58	0.059172958
208	0x3d3dc464	0.04632987
209	0x3c991b6b	0.018689832
210	0xbd7e4ba5	-0.06208386
211	0xbcf95e21	-0.030440392
212	0xbbefc4c1	-0.007317156
213	0x3c893c15	0.016752282
214	0xbd415dad	-0.047208477
215	0x3d8acadb	0.06776973
216	0xbd884985	-0.06654648
217	0x3d28f1dc	0.04124628
218	0x3d15853b	0.03650401
219	0x3d3ee756	0.046607338
220	0x3b72c7ab	0.003704528
221	0x3ce440e1	0.027862968
222	0xbd4bafe9	-0.049728308
223	0x3d95226f	0.07281958
224	0xbdea3feb	-0.11437973
225	0xbdb8ce31	-0.09023703
226	0x3ca7aaab	0.020467123
227	0x3baea92e	0.0053302264
228	0xbd2c985b	-0.042137485
229	0x3c1d95c8	0.00961823
230	0x3ce3df8f	0.027816562
231	0x3c814193	0.015778339
232	0xbda3154d	-0.07963047
233	0x3dcb5fab	0.099303566
234	0xba2eed24	-0.000667291
235	0x3ce9a711	0.028522046
236	0x3ce64b5e	0.02811211
237	0x3d5222bf	0.051302668
238	0xbd91ed90	-0.071253896
239	0x3cf7e9a8	0.030262783
240	0x3dda20af	0.10650765
241	0x3ca97db8	0.02068983
242	0xbc802103	-0.015640741
243	0xbd8d03ac	-0.06885466
244	0x3c799473	0.015233147
245	0x3cdcf4ea	0.026972253
246	0xbbbe2517	-0.0058027613
247	0x3cdd4885	0.02701212
248	0x3d056e01	0.03257561
249	0xbd94245b	-0.07233497
250	0xbc9d0db2	-0.01917157
251	0xbd0a61b1	-0.033784572
252	0x3d445c0f	0.047939356
253	0xbcb176b1	-0.021663042
254	0xbd8625a2	-0.06550147
255	0x3b4d5efb	0.003133713

bias_hh f4 [512]
0	0x3d36af04	0.0446005
1	0x3d4e0452	0.05029709
2	0x3dffca28	0.1248973
3	0x3c05aba2	0.008158596
4	0x3ddc061f	0.10743355
5	0x3d0e32e0	0.034716487
6	0x3dfccff5	0.12344352
7	0x3e2e7118	0.1703533
8	0xbd0f305a	-0.03495822
9	0x3db4a851	0.08821166
10	0x3e014391	0.12623431
11	0x3e03ea27	0.12882291
12	0x3d5f40c2	0.054505117
13	0xbc7662bb	-0.015038188
14	0x3dac996c	0.084277004
15	0x3da8b0fa	0.082368806
16	0x3d80ee8e	0.06295501
17	0x3e128de3	0.14311938
18	0xbd4c2500	-0.049839973
19	0x3e155d5f	0.145864
20	0x3e1dd700	0.15414047
21	0x3e057dfe	0.13036343
22	0x3da99923	0.08281162
23	0x3db702b0	0.089360595
24	0x3cd9d04c	0.026588582
25	0x3e015b62	0.12632516
26	0xbcc6daa8	-0.024274185
27	0xbc450746	-0.01202566
28	0x3d789c07	0.060695674
29	0x3e3c4884	0.18387038
30	0x3da6fed9	0.08154077
31	0x3ce7dcba	0.028303493
32	0x3dd210db	0.10257121
33	0x3dc1e84b	0.094681345
34	0x3ce88103	0.02838183
35	0x3d995e1e	0.074886546
36	0xba377120	-0.0006997753
37	0x3e4d808c	0.20068568
38	0x3e1f3b45	0.15549953
39	0xbd6381b2	-0.05554361
40	0x3e209b39	0.15684213
41	0xbd2bc43c	-0.04193519
42	0x3e08d152	0.133611
43	0x3d4f92af	0.050676998
44	0x3e292a0c	0.16519946
45	0x3d949a5a	0.07256003
46	0x3dd5fe1b	0.104488574
47	0xbbd444a7	-0.0064779106
48	0xbb87a0c9	-0.00413904
49	0x3e20eef8	0.1571616
50	0x3dffb38c	0.12485418
51	0xbcddcc91	-0.027075084
52	0x3da636e9	0.08115942
53	0xbd26a6e1	-0.040686492
54	0x3e1d93be	0.1538839
55	0x3e479d9e	0.1949372
56	0x3e131c25	0.14366205
57	0x3deb6e57	0.11495655
58	0x3de828e5	0.11335925
59	0x3d2773f2	0.04088206
60	0x3e3887c4	0.1802054
61	0x3ded3b0e	0.115835294
62	0x3c148db4	0.009066988
63	0x3e098f04	0.13433462
64	0xbc0d7f21	-0.008636267
65	0x3dbce5a0	0.09223485
66	0xbcb8f19a	-0.022576142
67	0xbb78066b	-0.0037845622
68	0x3e4137f1	0.18868996
69	0x3db8692e	0.090044364
70	0x3da1f96f	0.07908904
71	0x3dd913a8	0.10599452
72	0x3daaf9ca	0.08348425
73	0x3e09a31d	0.13441129
74	0x3d4fb61e	0.05071079
75	0x3cf99dfb	0.030470839
76	0x3e0760dd	0.13220544
77	0x3de1a8d7	0.11018532
78	0x3e015db5	0.12633403
79	0xbce5b040	-0.028038144
80	0x3de25451	0.11051238
81	0x3a7db6df	0.0009678434
82	0x3e46ba3c	0.1940698
83	0x3d8b8ab6	0.068135664
84	0x3e026adf	0.1273608
85	0x3df061df	0.117374174
86	0x3db3b4b4	0.08774701
87	0x3cd9ac2c	0.026571356
88	0xbc09f93a	-0.008421237
89	0x3e0f04a1	0.1396661
90	0x3de11877	0.109909944
91	0x3e13dc44	0.14439493
92	0x3ae5eaa7	0.0017541245
93	0x3c8f6b07	0.01750709
94	0x3d895b2f	0.06706845
95	0xbc373f63	-0.011184546
96	0x3d9254f6	0.07145111
97	0x3df877b9	0.1213221
98	0x3e2a422e	0.16626808
99	0x3df74030	0.1207279
100	0x3d2ca2a4	0.042147294
101	0x3d06f192	0.032945223
102	0x3d068ca5	0.032848973
103	0x3d43ee8c	0.047834918
104	0x3e808bb4	0.25106585
105	0x3d970b5e	0.07375215
106	0x3d59c43b	0.053165656
107	0x3bc7f981	0.006102741
108	0xbcc24cd3	-0.023718273
109	0x3df3ef3b	0.11910864
110	0x3d05a034	0.032623485
111	0x3c334c50	0.010943487
112	0x3d87a5ef	0.06623446
113	0xbcc60364	-0.024171539
114	0x3d1185d4	0.03552802
115	0x3dfea3ba	0.12433572
116	0xbd044ea7	-0.03230157
117	0x3d795719	0.06087408
118	0x3df2505e	0.11831735
119	0x3c399569	0.011327126
120	0x3dbccc3e	0.092186436
121	0xbafeec6e	-0.0019449124
122	0x3e33f74e	0.17574808
123	0x3d039744	0.03212668
124	0x3de7e259	0.11322469
125	0xbd0cc58b	-0.03436808
126	0x3dbdee5d	0.0927398
127	0x3dbd864a	0.09254129
128	0xbd8533b6	-0.06504004
129	0xbd0663e7	-0.032810118
130	0xbbd0473d	-0.0063561485
131	0xbd20a8bd	-0.03922342
132	0x3b5fb8de	0.003413729
133	0x3de757ed	0.112960674
134	0xbc03f072	-0.008052932
135	0x3d825cbd	0.06365345
136	0x3dd349e5	0.10316829
137	0xbdafe002	-0.08587648
138	0x3be73d5f	0.0070568766
139	0x3d4b3061	0.049606685
140	0x3ca72e17	0.02040772
141	0xbc2463c3	-0.010033551
142	0xbcef5c37	-0.029218776
143	0xbcfa44d6	-0.030550402
144	0x3d2abf57	0.041686382
145	0x3d0d6af8	0.03452584
146	0x3dbd6fa1	0.09249807
147	0x3db9a757	0.09065121
148	0x3d50b783	0.05095626
149	0xbd10b37e	-0.035327427
150	0xbd727c13	-0.059200358
151	0xbd28bc35	-0.041195113
152	0x3dd8a058	0.10577458
153	0x3d0d172e	0.034445934
154	0x3c5e1a64	0.013556097
155	0x3c6723b9	0.014107638
156	0xbd149069	-0.036270533
157	0x3dd40aa2	0.103535905
158	0xbd214d00	-0.039380074
159	0xbbd0dcf3	-0.0063739954
160	0xbc8e8c31	-0.017400833
161	0x3dd79a1f	0.10527443
162	0x3be1d01a	0.0068912627
163	0x3c7a8aad	0.015291852
164	0xbbf93429	-0.007605095
165	0xbe1556e8	-0.14583933
166	0xbd95b03a	-0.07309003
167	0x3dded514	0.10880485
168	0x3d013702	0.0315466
169	0x3d98cc8d	0.0746089
170	0xbd950bbf	-0.07277631
171	0x3d7bbfbb	0.061462145
172	0x3d8468d4	0.06465307
173	0xbcacf0fd	-0.021111006
174	0x3c9e715a	0.01934116
175	0x3dcc3a7a	0.09972091
176	0xbd78f94a	-0.060784616
177	0x3cf26c60	0.029592693
178	0xbddc2b7c	-0.107504815
179	0xbbec8471	-0.0072179367
180	0x3bc810e2	0.006105528
181	0x3d64465b	0.05573116
182	0xbd954ffe	-0.07290648
183	0xbce03941	-0.02737105
184	0xbd9c5a30	-0.076343894
185	0x3dbe199f	0.092822306
186	0x3cc5b4d5	0.024134079
187	0x3d2ba426	0.04190459
188	0x3d77bce3	0.06048287
189	0xbd829ce9	-0.063775845
190	0x3b45a896	0.00301603
191	0x3b39f16e	0.0028372663
192	0x3cb562f5	0.022141913
193	0x3db78f8c	0.08962926
194	0xbc7ff03a	-0.015621239
195	0x3db6882a	0.0891269
196	0xbd10da45	-0.035364408
197	0x3da624a6	0.08112459
198	0xbd12ab89	-0.03580812
199	0x3c8d2aab	0.01723226
200	0xbda9d544	-0.0829263
201	0xbd520eb0	-0.05128354
202	0xbdc17087	-0.09445291
203	0xbd6a3974	-0.057183698
204	0x3c37d2e2	0.011219712
205	0x3db19184	0.08670333
206	0xbdc50daa	-0.09621747
207	0xbbf6f5a2	-0.007536606
208	0xbd0d04ae	-0.03442829
209	0x3d21f5dd	0.039541114
210	0x3d763a72	0.06011433
211	0x3c1cc617	0.009568713
212	0x3b96d411	0.004602917
213	0x3d3f39f7	0.04668614
214	0xbd503f87	-0.050841834
215	0xbcb0cb82	-0.021581415
216	0xbcf6916a	-0.030098636
217	0x3d611a52	0.05495674
218	0x39dd7240	0.00042237528
219	0x3dbae85a	0.09126349
220	0x3e00f160	0.12592077
221	0x3d7aa9f2	0.06119723
222	0x3de6fe34	0.11278954
223	0x3d5da8c7	0.054116037
224	0xbcc357a5	-0.023845503
225	0x3cb2236a	0.021745402
226	0xbc873e92	-0.016509328
227	0x3db60bc5	0.088889636
228	0xbd263c45	-0.04058482
229	0xbbb67869	-0.005568553
230	0x3d013310	0.031542838
231	0x3bf9bf0d	0.007621652
232	0x3c430c73	0.011904824
233	0x3daa9531	0.08329237
234	0x3dcbd59f	0.09952854
235	0xbc6d4ed4	-0.014484126
236	0x3d40bdc4	0.047055975
237	0xbd00410f	-0.031312045
238	0xbc65151e	-0.0139820855
239	0xbc402d1f	-0.011729508
240	0xbb62a5a7	-0.00345836
241	0xbb2e99b8	-0.0026641916
242	0xbe1d7900	-0.15378189
243	0x3d48158c	0.048848674
244	0x3dc76dda	0.097377494
245	0xbc81c903	-0.01584292
246	0xbccbfbea	-0.024900395
247	0x3ca9aedb	0.02071326
248	0x3c1a1d57	0.009406409
249	0x3d481894	0.048851565
250	0x3c332f4d	0.01093657
251	0xbd050fa5	-0.032485623
252	0x3c8f0775	0.01745961
253	0x3cc578a5	0.02410538
254	0x3dc1e3e2	0.09467293
255	0xbd8fc5f9	-0.07020182

weight_ih f4 [512, 128]
0	0x3c5eca2b	0.013598005
1	0xbd335453	-0.04378159
2	0xbd44154c	-0.047871873
3	0xbe13af1f	-0.14422272
4	0xbc2373a3	-0.0099763
5	0x3c107513	0.008816975
6	0x3ce6306a	0.028099257
7	0x3d0d7554	0.03453572
8	0x3ccfd05c	0.025367908
9	0xbd217ddb	-0.039426666
10	0xbcb401c5	-0.0219735
11	0x3c8e128b	0.017342826
12	0x3de3edba	0.11129327
13	0x3e0c70fa	0.13714972
14	0xbc8682d5	-0.016419807
15	0x3db14cba	0.086572126
16	0x3c0f1421	0.008732826
17	0x3dc72d33	0.09725418
18	0x3d2a5998	0.04158935
19	0xbe086d17	-0.13322864
20	0x3c5cdede	0.01348087
21	0xbd2819ad	-0.04104011
22	0xbd009f91	-0.031402174
23	0x3d5d043b	0.053959113
24	0x3d82d2d2	0.06387867
25	0xbe07143f	-0.13191317
26	0xbd6e6dac	-0.05821006
27	0x3ddf0186	0.108889624
28	0x3c51919b	0.012791063
29	0x3d201335	0.039080817
30	0xbd3fed85	-0.046857376
31	0xbbe7566d	-0.0070598633
32	0xbd3684cb	-0.044560235
33	0x3dca8251	0.09888137
34	0x3c39690b	0.011316548
35	0x3cea7feb	0.02862545
36	0x3ded8486	0.115975425
37	0x3d51e5fd	0.051244725
38	0x3ca6520e	0.020302799
39	0xbc1a177a	-0.009405011
40	0xbd4a392b	-0.049370926
41	0x3e0006cd	0.12502594
42	0x3da5e797	0.08100813
43	0x3e2f00e4	0.17090183
44	0x3cf3f87b	0.02978157
45	0x3d0b07a6	0.03394284
46	0xbe075aae	-0.13218185
47	0x3d153a7a	0.03643272
48	0xbd1f5f3a	-0.038909175
49	0x3db44d38	0.08803791
50	0x3d629b1b	0.0553237
51	0xbe1dcba3	-0.15409712
52	0xbd2bbf7a	-0.041930653
53	0x3cc882cd	0.024476433
54	0x3cc40176	0.023926478
55	0x3e1ca9e2	0.1529918
56	0x3d86fa5f	0.06590723
57	0xbd350b68	-0.04420033
58	0x3b900a75	0.004395778
59	0xbd8d6dfe	-0.06905745
60	0x3d7a1804	0.06105806
61	0xbd8ec74f	-0.06971609
62	0xbd3ea4cd	-0.046543885
63	0x3ddf0f40	0.108915806
64	0xbcec7722	-0.0288654
65	0xbdc92b93	-0.09822764
66	0xbd93ec0b	-0.07222756
67	0x3c95ca40	0.018284917
68	0xbddb18d0	-0.10698092
69	0xbce2067d	-0.027590984
70	0x3cbac2d1	0.022797974
71	0x3d966a18	0.073444545
72	0x3e1dcb9f	0.15409707
73	0xbc753db0	-0.014968321
74	0x3c3ef49c	0.011654999
75	0x3d054286	0.032534145
76	0x3d3cc51b	0.046086412
77	0xbd744839	-0.05963919
78	0xbd676223	-0.056490075
79	0x3d286bc5	0.041118402
80	0xbcbbe5cc	-0.022936724
81	0x3dc7777a	0.09739585
82	0xbd0f5e96	-0.035002314
83	0xbd66b011	-0.056320254
84	0xbd6c9eba	-0.05776856
85	0x3cc9857b	0.024599781
86	0xbd904eae	-0.07046257
87	0xbe0620bb	-0.13098423
88	0xbb40b614	-0.0029405402
89	0xbd7e3eeb	-0.062071722
90	0xbe157d65	-0.14598615
91	0x3dabea19	0.0839426
92	0x3dbd920f	0.09256374
93	0xbdebe425	-0.115181245
94	0xbd5e82a5	-0.05432381
95	0xbcadcf6c	-0.02121707
96	0xbb42181b	-0.0029616419
97	0xbd0d1e4a	-0.034452714
98	0x3cd30a86	0.025761854
99	0xbc7b787b	-0.015348549
100	0xbbd39371	-0.0064567854
101	0xbc30f45b	-0.010800446
102	0x3d0b8412	0.0340615
103	0xbd9c609a	-0.07635613
104	0xbcb63dd9	-0.022246288
105	0xbe31ce21	-0.17363788
106	0x3d58f7a7	0.052970555
107	0x3cb8f81c	0.022579245
108	0x3cdf90a6	0.027290653
109	0x3cd9d7f6	0.026592236
110	0xbd43e048	-0.047821313
111	0x3d7899eb	0.060693663
112	0xbdcb1113	-0.09915366
113	0xbcaef0ed	-0.021355117
114	0x3bb9ce42	0.00567034
115	0x3d6c3cb4	0.05767508
116	0x3e1f98a6	0.15585575
117	0xbde2adf5	-0.11068336
118	0x3cee869b	0.02911692
119	0x3d0be845	0.034157056
120	0xbd2def85	-0.04246475
121	0x3d8a514f	0.0675379
122	0xbdc7e367	-0.097601704
123	0xbd4654ae	-0.0484206
124	0x3bcbd719	0.00622071
125	0x3d2eea4a	0.042703904
126	0xbbfe4de4	-0.00776075
127	0x3bfd3b2d	0.0077280016
128	0x3d157330	0.036486804
129	0x3de058c0	0.10954428
130	0x3bf7ce77	0.0075624543
131	0xbc6290b8	-0.013828449
132	0xbd0213e2	-0.031757243
133	0x3dd9185c	0.10600349
134	0x3d52cd6a	0.05146543
135	0xbd5fb29b	-0.05461369
136	0x3da02836	0.0782017
137	0xbbf4265c	-0.007450862
138	0xbdb6f138	-0.089327276
139	0x3c51d27a	0.012806529
140	0xbd2461bc	-0.04013227
141	0x3e11f425	0.1425329
142	0x3d3b5edf	0.045744773
143	0xbd85da11	-0.065357335
144	0x3ce036d0	0.027369887
145	0xbca96e33	-0.02068243
146	0xbd2177cf	-0.0394209
147	0xbcd3c463	-0.02585048
148	0x3cd15acf	0.025555996
149	0xbcc91235	-0.024544815
150	0xbdb85144	-0.08999875
151	0x3dde4fbd	0.108550526
152	0xbe48419a	-0.19556275
153	0x3d367fa8	0.044555336
154	0xbd9c353c	-0.07627341
155	0xbc998bf6	-0.018743496
156	0x3e09052d	0.1338088
157	0x3d9c877a	0.076430276
158	0x3dbc4991	0.09193719
159	0xbc5794a1	-0.0131579945
160	0x3ce9bfb6	0.028533798
161	0x3c8e3232	0.01735792
162	0x3d06d605	0.03291895
163	0x3dc7fbc3	0.097648166
164	0x3c8a2141	0.01686156
165	0xbda206ed	-0.07911477
166	0xbcbeb580	-0.023279905
167	0xbdcd1fc7	-0.10015827
168	0x3d59e4b8	0.05319664
169	0xbd29227a	-0.041292645
170	0x3daab134	0.0833458
171	0x3dd841d0	0.10559428
172	0x3df79599	0.1208908
173	0x39747ded	0.00023316564
174	0xbc0a7434	-0.008450557
175	0xbd20c231	-0.039247695
176	0x3d3502f6	0.044192277
177	0xbd0a75a5	-0.0338036
178	0xbcd2a269	-0.025712209
179	0x3d586794	0.052833155
180	0x3d17cad6	0.037058674
181	0x3d14d04a	0.036331452
182	0x3dc4ea1a	0.09614964
183	0x3d72c53b	0.059270125
184	0x3dbdf1b0	0.09274614
185	0xbd88c375	-0.066779055
186	0x3d940bae	0.0722879
187	0xbb8ce59f	-0.004299834
188	0xbd56cdca	-0.05244235
189	0xbdd00c44	-0.101585895
190	0x3d2b5317	0.041827288
191	0xbdcd4414	-0.100227505
192	0xbd8f7ba9	-0.07006008
193	0x3d3ecca9	0.046581898
194	0xbd887c95	-0.06664387
195	0x3c9372a0	0.017998993
196	0x3df3c55e	0.11902879
197	0xbd224167	-0.039613154
198	0x3d474773	0.048652124
199	0x3c3b403c	0.011428889
200	0x3c794e5b	0.015216435
201	0xbdc11bd6	-0.094291374
202	0xbcd5af95	-0.0260847
203	0x3b2ee1ee	0.0026684958
204	0x3dc204af	0.094735496
205	0x3d9d778b	0.07688817
206	0xbe09e4d1	-0.13466193
207	0xbc19ea04	-0.009394173
208	0xbd924095	-0.07141224
209	0x3d0168d7	0.031594124
210	0xbe14f5d9	-0.14546908
211	0xbb155c83	-0.0022790737
212	0xbd57f460	-0.05272329
213	0x3d517f60	0.051146865
214	0x3d9797aa	0.074019745
215	0xbe42c861	-0.19021751
216	0xbcdb31e1	-0.026757183
217	0x3aaa5490	0.0012995172
218	0x3d81cd61	0.06338001
219	0xbd1fb855	-0.038994152
220	0x3da1afd9	0.078948684
221	0x3bb6ed7c	0.0055825096
222	0x3dba0b15	0.09084145
223	0xbd7f1fd6	-0.06228622
224	0xbd0a51eb	-0.03376953
225	0x3d59318c	0.053025767
226	0x3cee857c	0.029116385
227	0xbde9128b	-0.1138049
228	0xbd234545	-0.039860982
229	0xbd88793d	-0.06663749
230	0x3d816aa5	0.06319169
231	0xbd673807	-0.056449916
232	0xbdc65de3	-0.09685876
233	0xbe3103fa	-0.17286673
234	0x3da9c051	0.082886346
235	0xbe604123	-0.21899848
236	0x3ce5d62a	0.028056223
237	0xbd0d6eab	-0.03452937
238	0xbd4e238e	-0.050326876
239	0x3d0fff29	0.03515545
240	0x3d48c67a	0.049017407
241	0xbd0396ee	-0.03212636
242	0xbceabdd0	-0.028654963
243	0x3dbc4446	0.091927096
244	0x3e38385d	0.17990251
245	0xbd723900	-0.05913639
246	0x3d9e715a	0.07736464
247	0x3c934609	0.017977731
248	0x3d9c2707	0.076246314
249	0xbe795d88	-0.24352086
250	0x3e08f197	0.13373409
251	0x3df5ebeb	0.120078884
252	0xbdee38f6	-0.11631958
253	0x3d1b955e	0.037984245
254	0x3d39bd06	0.045346282
255	0x3dee4869	0.11634905

weight_hh f4 [512, 128]
0	0xbbfe5221	-0.0077612554
1	0xbdc7f880	-0.097641945
2	0xbd3f5fad	-0.046722103
3	0xbd7ca567	-0.061681177
4	0x3cb6f8d0	0.02233544
5	0xbd2d3b32	-0.04229278
6	0xbcac04bd	-0.020998353
7	0x3d265c7a	0.040615536
8	0x3dcfe912	0.101518765
9	0x3d1e3299	0.038622472
10	0xbc8d0adc	-0.017217092
11	0x3d317664	0.043325797
12	0xbcd0eb4f	-0.025502829
13	0xbde8de90	-0.113705754
14	0xbd08925a	-0.033342697
15	0xbdb886b1	-0.09010065
16	0xbcbf13d1	-0.023324879
17	0x3da87868	0.08226091
18	0xbddf2083	-0.10894873
19	0xbcd9bb16	-0.026578467
20	0xbd75e13c	-0.060029253
21	0xbcf250ee	-0.029579606
22	0x3daa59c1	0.083179004
23	0xbc434319	-0.011917853
24	0xbd1e457c	-0.038640484
25	0x3dee7c94	0.11644855
26	0x3d88d47e	0.06681155
27	0xbd925f58	-0.071470916
28	0xbd41b100	-0.04728794
29	0x3dd81ce3	0.10552385
30	0xbe017ade	-0.12644526
31	0x3daa87bc	0.083266705
32	0x3d916b8d	0.07100592
33	0xbd73faac	-0.05956523
34	0xbc9637c3	-0.018337136
35	0xbd53c7ee	-0.05170434
36	0xbdd233de	-0.10263799
37	0x3b83871d	0.0040139095
38	0xbd5f788f	-0.054558333
39	0x3d06de49	0.03292683
40	0xbd83e9ba	-0.06441064
41	0x3d11bc69	0.035580073
42	0x3b9c4d83	0.0047699823
43	0xbaa09c90	-0.001225369
44	0x3d6914e5	0.056904692
45	0x3d3484e5	0.04407205
46	0x3d9d239c	0.076728076
47	0xbc8824e3	-0.016619151
48	0x3d79a897	0.060951795
49	0xbdca04b2	-0.09864177
50	0xbd3cd737	-0.046103682
51	0xbcf8f711	-0.030391248
52	0x3d2057b5	0.039146144
53	0xbd370d58	-0.04469046
54	0x3caad156	0.020851772
55	0x3d628a75	0.055307824
56	0xbd87cb7f	-0.06630611
57	0xbd012289	-0.031527076
58	0x3dc18997	0.09450071
59	0x3dd3aa69	0.103352375
60	0x3da73a2b	0.081653915
61	0xbb9d3337	-0.004797365
62	0x3da19963	0.07890584
63	0x3dbf685a	0.09346075
64	0x3d3a225b	0.04544292
65	0xbdf1b3a0	-0.11801839
66	0x3dc27298	0.09494513
67	0xbe01b510	-0.12666726
68	0x3d062dd5	0.032758553
69	0x3d4e1b1e	0.05031883
70	0xbcc6ae80	-0.02425313
71	0xbd69c38e	-0.05707126
72	0x3de31d46	0.11089568
73	0xbcc44047	-0.023956431
74	0xbc5b60ae	-0.013389749
75	0xbd16a718	-0.036780447
76	0xbd75daad	-0.060023
77	0x3cdb576e	0.026775088
78	0xbc2a6c20	-0.010401756
79	0x3db9c7ff	0.09071349
80	0xbda93523	-0.08262088
81	0xbcd0147c	-0.025400393
82	0x3dcf69da	0.101276115
83	0xbdd5efeb	-0.10446151
84	0x3d834e04	0.06411365
85	0xbc0147c8	-0.007890649
86	0xbd8a7077	-0.06759732
87	0xbd41938d	-0.047259856
88	0x3da58aca	0.080831125
89	0xbcdda992	-0.027058396
90	0x3da28853	0.07936158
91	0x3ca52e39	0.020163642
92	0xbd95778a	-0.07298191
93	0xbd263ca7	-0.040585186
94	0xbc582c3f	-0.013194143
95	0xbd37ac7c	-0.04484223
96	0xbcddf887	-0.027096046
97	0x3d1e4a5a	0.038645126
98	0xbbd5b001	-0.0065212254
99	0x3e02e479	0.12782468
100	0x3ca71029	0.020393448
101	0xbc970b66	-0.018438052
102	0xbbd4ba5e	-0.0064919433
103	0xbd283a3f	-0.041071173
104	0x3ccec687	0.02524115
105	0xbd2768d7	-0.040871467
106	0x3c0ca27e	0.008583663
107	0xbd97032f	-0.07373654
108	0x3d7177fb	0.058952313
109	0x3cadd767	0.021220876
110	0xbd63626b	-0.05551378
111	0x3b010fa9	0.0019693172
112	0x3d53388d	0.051567603
113	0x3cda6a65	0.026662061
114	0x3dd68101	0.10473824
115	0x3bf5fecb	0.0075071803
116	0xbd56b04b	-0.05241422
117	0xbda52c35	-0.080650724
118	0xbdad9409	-0.08475501
119	0x3d868540	0.06568384
120	0x3c8e2ea5	0.017356226
121	0x3c833674	0.016017176
122	0xbd0da05e	-0.034576766
123	0x3d19b767	0.03752842
124	0x3c141dc7	0.009040303
125	0x3d5c1390	0.053729594
126	0x3c3728cd	0.011179161
127	0x3cdb5af3	0.026776766
128	0x3d860454	0.06543794
129	0x3ae0da7e	0.001715496
130	0xbde21dc5	-0.11040834
131	0x3cf86133	0.030319786
132	0x3db9908f	0.090607755
133	0x3d1459cf	0.03621846
134	0xbd7b4200	-0.06134224
135	0xbc923b49	-0.017850535
136	0xbe3e2c4d	-0.18571587
137	0xbd817b62	-0.063223615
138	0x3d37b601	0.044851307
139	0xbe184c8c	-0.1487295
140	0xbcc8ca60	-0.024510562
141	0x3d94ac3e	0.07259415
142	0xbd847b12	-0.06468786
143	0x3cf633e0	0.030054033
144	0x3d9e4309	0.0772763
145	0x3de98a6a	0.114033535
146	0xbadf64b5	-0.0017043563
147	0x3e0bd1b3	0.13654213
148	0x3d9b5cf9	0.075860925
149	0xbd5ab1c6	-0.053392194
150	0xbd208c17	-0.0391961
151	0xbdb60f77	-0.088896684
152	0xbd644f91	-0.055739943
153	0x3e1683d9	0.14698733
154	0x3cc221a6	0.023697685
155	0x3e11ebbe	0.14250085
156	0x3d996893	0.07490649
157	0x3dcada46	0.099049136
158	0xbd1b89c5	-0.037973184
159	0xbc04436a	-0.008072713
160	0xbd9bb08d	-0.07602034
161	0x3d0abeeb	0.03387348
162	0x3df6c08a	0.12048443
163	0xbdd9ae1f	-0.10628914
164	0xbda1de28	-0.07903701
165	0x3db57183	0.08859541
166	0xbd48292d	-0.048867393
167	0xbc9e3dfa	-0.019316662
168	0xbd0576aa	-0.03258387
169	0x3e2ccc4d	0.1687481
170	0xbe183e95	-0.14867623
171	0xbbcc39b8	-0.0062324665
172	0x3e1f5af5	0.15562041
173	0xbdf7b766	-0.12095527
174	0xbb9b180e	-0.004733092
175	0xbdb9bb56	-0.090689346
176	0xbdba2b84	-0.09090331
177	0x3cefb16c	0.029259406
178	0x3ced5a79	0.028973805
179	0xbd273d18	-0.040829748
180	0xbc5091d6	-0.0127300825
181	0xbde2c5af	-0.110728614
182	0xbe1f1f81	-0.15539362
183	0x3c886d5b	0.016653707
184	0x3d459627	0.0482389
185	0xbced326a	-0.028954703
186	0xbcc5599d	-0.024090583
187	0x3d5fde10	0.054655135
188	0x3d36f633	0.044668388
189	0xbc6c8809	-0.01443673
190	0x3e021ab7	0.12705503
191	0x3d4458d9	0.047936294
192	0xbbac8d07	-0.005265835
193	0x3d9724c9	0.07380063
194	0x3dd064cc	0.101754755
195	0xbdcdbd6e	-0.100458965
196	0xbc8b26a8	-0.016986206
197	0xbc5c5bd5	-0.013449629
198	0x3c5a23e2	0.013314219
199	0xbd8a8b10	-0.06764805
200	0x3ce23d72	0.02761719
201	0xbca9d20d	-0.020730043
202	0x3b55b23e	0.0032607461
203	0x3d6fd3be	0.058551542
204	0xbd06e17a	-0.032929875
205	0xbe4ad9c8	-0.1980964
206	0xbd059b0f	-0.03261858
207	0xbcb7f179	-0.02245401
208	0xbc5c8e3c	-0.013461646
209	0xbd98ba4a	-0.07457407
210	0x3c11cc03	0.008898738
211	0x3cdb972a	0.02680548
212	0x3dd91bc0	0.10600996
213	0x3e0197b2	0.12655523
214	0x3d86834d	0.065680124
215	0xbdcb98b5	-0.09941236
216	0x3dbc8790	0.09205544
217	0xbdbae1aa	-0.09125073
218	0x3c32fc21	0.01092437
219	0x3be87cc2	0.0070949504
220	0xbddbca74	-0.10731974
221	0xbda665c0	-0.08124876
222	0xbd658a1b	-0.05603991
223	0xbc0cd7c1	-0.008596362
224	0xbe32c6d9	-0.17458667
225	0xbc7197e5	-0.014745687
226	0x3afa14d3	0.0019079692
227	0x3e2931de	0.16522929
228	0xbd6b2c59	-0.05741534
229	0x3cd15652	0.025553856
230	0x3dc14232	0.09436454
231	0xbdac0963	-0.08400228
232	0xbd5eb137	-0.054368224
233	0xbd9a4004	-0.07531741
234	0xbdc5023b	-0.09619566
235	0xbdc74d10	-0.097314954
236	0x3c559f3b	0.013038452
237	0xbd34e6a0	-0.044165254
238	0x3d6c94f6	0.057759248
239	0xbd52df8e	-0.05148273
240	0x3d479ae5	0.048731703
241	0x3d7bfa9c	0.061518297
242	0xbd1c215b	-0.038117748
243	0xbbdba90a	-0.0067035006
244	0xbcb447a6	-0.02200682
245	0x3d076e9a	0.033064462
246	0x3dea0e76	0.114285395
247	0x3c86807c	0.016418688
248	0xbd0c340b	-0.03422932
249	0xbe5b89ce	-0.21439287
250	0xbcadae27	-0.021201206
251	0x3da56c6d	0.08077321
252	0x3e5ab547	0.21358214
253	0xbcd3b775	-0.025844315
254	0x3dfc5307	0.12320524
255	0xbccd740d	-0.025079751

bias_ih f4 [512]
0	0x3ccb1ef1	0.024795027
1	0x3df2347e	0.11826418
2	0x3ddbaa61	0.107258566
3	0x3def0a59	0.116718955
4	0x3d31d84c	0.043419167
5	0x3d6af21c	0.0573598
6	0x3e3eba95	0.18625863
7	0x3db66cbe	0.0890746
8	0x3e45d852	0.19320801
9	0x3dcbea7b	0.09956833
10	0x3c57b2d8	0.013165198
11	0x3e157556	0.14595541
12	0x3e08c231	0.13355328
13	0x3dff9c39	0.12480969
14	0x3de3571e	0.11100601
15	0x3dc8b99e	0.09801029
16	0xbcce7070	-0.025200099
17	0x3d007bf0	0.031368196
18	0x3e78d817	0.24301182
19	0x3dcd1912	0.100145474
20	0x3e07ad99	0.13249816
21	0xbc36346a	-0.011120895
22	0x3df7e9d1	0.12105144
23	0x3d626816	0.055275045
24	0xbc49a0af	-0.012306376
25	0xbc53af70	-0.0129202455
26	0x3d0cdee7	0.034392264
27	0x3e0c50d3	0.13702707
28	0x3d74f526	0.059804104
29	0x3c87e2d2	0.016587649
30	0x3e45db3e	0.19321916
31	0x3e05a144	0.13049799
32	0x3e767ef2	0.24071863
33	0x3d8366b3	0.06416073
34	0x3d7c1a25	0.06154837
35	0x3d883892	0.06651415
36	0x3e133184	0.14374357
37	0x3dae9c28	0.08525878
38	0x3cd33cd0	0.025785834
39	0x3ddf116e	0.10891996
40	0x3dd0685f	0.10176157
41	0x3dce4fca	0.10073812
42	0x3e47fbbf	0.19529627
43	0x3e0b0724	0.13576943
44	0x3dce9c9f	0.10088467
45	0x3c7f08a0	0.015566021
46	0x3e5b0a3a	0.2139062
47	0x3e835a8c	0.2565502
48	0x3e0a98dc	0.13534874
49	0x3d5567a3	0.05210079
50	0x3d08e86e	0.033424787
51	0x3dc894f8	0.097940385
52	0x3cedb5a7	0.029017283
53	0x3dd3f534	0.10349503
54	0x3c77dc65	0.01512823
55	0x3df70adc	0.12062618
56	0x3dd70931	0.104998
57	0x3da8852f	0.08228528
58	0x3d7fa6ac	0.06241481
59	0xbb41142f	-0.0029461493
60	0x3d339018	0.04383859
61	0x3d8f2e41	0.06991244
62	0x3da35af7	0.079763345
63	0x3df0ebaa	0.11763699
64	0x3a965617	0.0011469749
65	0xbc519a10	-0.012793079
66	0x3e3f5895	0.18686135
67	0x3d0e4e90	0.03474289
68	0x3d91d4b6	0.071206495
69	0x3d2a245b	0.041538578
70	0x3d10ae4a	0.035322465
71	0xbd4e68e9	-0.05039302
72	0xbc81f53b	-0.015864005
73	0x3ce14506	0.027498733
74	0x3d78cd4a	0.060742654
75	0x3e44d05b	0.19220106
76	0xbd72095b	-0.059090953
77	0x3d77ea21	0.060526017
78	0xbc15c4b8	-0.00914114
79	0x3d4c5451	0.049885098
80	0xbcabe666	-0.020983886
81	0x3e2a403e	0.16626069
82	0x3dc010b5	0.093781866
83	0x3db77f8d	0.08959875
84	0x3dad025a	0.08447714
85	0x3d550fc7	0.052017
86	0x3e06fb1b	0.13181727
87	0x3d9d664b	0.076855265
88	0x3de83ae2	0.11339356
89	0x3dbc315e	0.091891035
90	0x3e90be3e	0.28270143
91	0x3e16daff	0.14731978
92	0x3e11074f	0.14162944
93	0x3dc5f8f3	0.09666624
94	0x3e091ff9	0.13391103
95	0x3e3ab092	0.18231419
96	0x3e2befe4	0.1679073
97	0x3d256863	0.040382754
98	0xbc43e336	-0.011956027
99	0x3e0e8e0c	0.13921374
100	0x3e0ba38b	0.13636605
101	0xbc8d5ee2	-0.017257158
102	0x3ce9146c	0.02845212
103	0x3df99f4a	0.12188585
104	0x3d5c43e4	0.053775683
105	0x3e079308	0.13239682
106	0x3caf73ef	0.021417586
107	0x3dc70cdb	0.09719249
108	0x3db54908	0.0885182
109	0x3e557641	0.20845892
110	0x3da15f9b	0.078795634
111	0x3d32a4aa	0.043614067
112	0xbb047f7d	-0.002021759
113	0x3e33a538	0.17543495
114	0x3e3ec1de	0.18628642
115	0x3dc4e825	0.096145906
116	0x3d5d4f3e	0.05403065
117	0x3e36e648	0.17861283
118	0x3e13fcd6	0.14451918
119	0x3c9b6f97	0.018974109
120	0xb9d068c6	-0.00039750914
121	0x3ca2d162	0.019875232
122	0x3e5025cc	0.20326918
123	0x3d02f9d7	0.031976547
124	0x3d97eff1	0.07418812
125	0x3ddee356	0.10883205
126	0x3e16d30d	0.14728947
127	0x3e1f7697	0.15572582
128	0x3c9960a7	0.018722845
129	0x3aea5993	0.0017879478
130	0x3cc50484	0.024050005
131	0xbe0c3020	-0.13690233
132	0xbcff280b	-0.031147024
133	0xbd9953f3	-0.07486715
134	0x3d309c22	0.04311765
135	0xbc6a6716	-0.014306804
136	0xbab65c0b	-0.0013912929
137	0xbd961388	-0.07327944
138	0x3bc5c052	0.0060348893
139	0xbd0ea5d5	-0.03482612
140	0x3d0fcaf2	0.035105653
141	0x3be92684	0.007115187
142	0xbd9ba746	-0.07600264
143	0xbd31f504	-0.043446556
144	0x3d155fbf	0.036468264
145	0x3a14fc99	0.0005683392
146	0xbd6fbcd3	-0.058529686
147	0xbd90d683	-0.07072165
148	0xbad65ef5	-0.0016355204
149	0xbdc5d918	-0.09660548
150	0x3ba31fa2	0.004978136
151	0x3d158fc3	0.036514055
152	0xbabfae57	-0.0014624101
153	0xbda39394	-0.07987133
154	0xbd9b1fab	-0.075743996
155	0xbdcdffdf	-0.10058569
156	0xbda5a087	-0.08087259
157	0xbd072f2e	-0.03300398
158	0xbcdf382d	-0.027248466
159	0xbdedfce4	-0.11620501
160	0xbd80c6ac	-0.06287894
161	0xbd1f244b	-0.03885297
162	0x3bb72bf3	0.005589956
163	0x3b8b9616	0.004259835
164	0xbd5336c6	-0.051565908
165	0xbcef425d	-0.02920645
166	0xbd431ba8	-0.047633797
167	0xbdfbbd9f	-0.12292027
168	0x3dea7d21	0.11449648
169	0xbe103ad2	-0.14084938
170	0xbe01ae35	-0.12664111
171	0x3add05f6	0.0016862738
172	0xbd837495	-0.06418721
173	0xbdf27ada	-0.11839838
174	0x3cd99a71	0.026562901
175	0xbd93219b	-0.07184144
176	0xbdecbff2	-0.11560048
177	0xbde0d844	-0.109787494
178	0x3d2a005e	0.041504256
179	0x3d60c2a7	0.054873135
180	0x3dbde30a	0.0927182
181	0xbd9e6412	-0.07733931
182	0x3bd1065a	0.006378931
183	0x3d314c5e	0.04328572
184	0x3b2967ad	0.002584915
185	0xbdab6f85	-0.0837088
186	0x3c7842cd	0.015152645
187	0xbdd6442a	-0.1046222
188	0xbd9ae240	-0.07562685
189	0xbd6aaa9d	-0.057291616
190	0xbd7aea87	-0.06125882
191	0xbd207241	-0.03917146
192	0x3d8f45bf	0.06995725
193	0xbc7008f8	-0.014650576
194	0xbd8e2279	-0.06940169
195	0xbdf2a443	-0.11847737
196	0x3bdab4af	0.006674371
197	0xbdc10d22	-0.09426333
198	0x3cac0905	0.021000395
199	0xb8e5cf7a	-0.000109582164
200	0xbcb067b4	-0.021533825
201	0xbe1c2a3c	-0.15250486
202	0x3c061d4a	0.008185694
203	0xbdd0e02e	-0.10199009
204	0x3c06214f	0.008186652
205	0xbb8a1db3	-0.004214966
206	0xbd3d59b2	-0.04622812
207	0x3da6d720	0.081465006
208	0x3d37b661	0.044851664
209	0xbdd2a241	-0.10284854
210	0x3da8df25	0.082456864
211	0x3d069295	0.032854635
212	0xbd8d2d4c	-0.06893405
213	0x3d5f2dd0	0.05448705
214	0xbc9d5032	-0.01920328
215	0xbdc8393c	-0.097765416
216	0x3caf7c61	0.021421613
217	0xbd9dd941	-0.077074535
218	0xbd353431	-0.044239227
219	0x3d914a26	0.07094221
220	0x3d08e0e2	0.03341759
221	0xbd4b0a2f	-0.04957026
222	0x3bb6f0d0	0.0055829063
223	0xbd03ca23	-0.032175194
224	0x38015a14	3.083989e-05
225	0x3d8dcd91	0.06923974
226	0xbaf8f7ae	-0.0018994713
227	0xbd24bdf1	-0.040220205
228	0xbddb78b5	-0.107163824
229	0xbd0676b2	-0.03282804
230	0x3cea776a	0.028621394
231	0x3d00d2d2	0.031451054
232	0xbdc7f81f	-0.09764122
233	0xbd6a20ec	-0.057160303
234	0x3cc1a0cc	0.023636244
235	0xbd0c607d	-0.034271706
236	0xbdf39f29	-0.11895592
237	0xbddc906d	-0.107697345
238	0xbd8ed404	-0.069740325
239	0x3db4dd82	0.08831312
240	0x3d30fa9f	0.04320776
241	0xbcb202af	-0.021729795
242	0xbe30e7e0	-0.17275953
243	0x3dc47eb0	0.09594476
244	0x3ce47689	0.027888553
245	0x3d1b748a	0.037952937
246	0xbc4f1d12	-0.012641208
247	0xbb2ff298	-0.0026847478
248	0xbdb7ed73	-0.08980837
249	0x3d0f0f1f	0.03492653
250	0xbd0a3605	-0.033742923
251	0xbd31ed94	-0.043439463
252	0x3d84536b	0.06461223
253	0xbd02ef69	-0.0319666
254	0x3d7ff5d1	0.06249029
255	0xbd827ed8	-0.0637185
