logs/dive_rp_vary_oracle/18/actor.pt (torch, 879410 bytes, 17 tensors)

weight_ih f4 [512, 35]
000000 61 db 54 3c 45 69 b9 3d 34 56 2d bd a4 31 b3 bd
       0.012991757 0.09053282 -0.042318538 -0.087497026
000010 0a 23 29 bd 14 bd aa 3d 0b 68 0f be d1 05 a1 3d
       -0.04129318 0.08336845 -0.14004533 0.078624375
000020 ef 74 0b 3c 39 06 ed 3d 35 0e c7 bb 49 8d 82 bc
       0.008511766 0.115734525 -0.0060746917 -0.01593651
000030 2f 0b 44 be c2 25 0a bc 6f 2c 5e 3d 7c 64 b1 3d
       -0.19144891 -0.008431854 0.054241594 0.08661744
000040 1d 27 8e be 3f 72 49 3b 5b db a0 3d 99 3e e4 bd
       -0.27764216 0.0030738262 0.07854339 -0.11144752
000050 49 94 02 bb 65 a2 23 3d f4 fa 81 bb 34 48 80 3d
       -0.001992481 0.039949793 -0.0039666835 0.06263772
000060 fd 66 6e bd 5f 8a 4d 3d bc 8b 91 3c ad 3f e5 bd
       -0.058203686 0.05018079 0.017766826 -0.11193786
000070 db ed 33 bd 53 44 72 bd d4 d8 12 3c 52 e7 2b 3e
       -0.04392801 -0.05914719 0.008962829 0.1678746
000080 57 27 ca bd fb b0 3a bc c1 b8 68 bc 76 7b b4 bd
       -0.09870785 -0.0113947345 -0.014204205 -0.08812611
000090 4d cc 06 bd eb c4 08 3e d0 a9 dc 3c 76 26 58 3d
       -0.03290968 0.13356368 0.026936442 0.052771054
0000a0 a5 fb b2 3d 7a c6 f1 bc 05 be 38 bd 7f f0 2e bd
       0.08739404 -0.029513586 -0.04510309 -0.042709824
0000b0 0d 03 09 bc de 62 a5 38 4f ba 8c bc d3 2d 98 3c
       -0.008362544 7.8862286e-05 -0.017178683 0.018576538
0000c0 a3 7f 3d bd 28 ac 94 bd 1e 12 8c 3c 8b 94 4e 3d
       -0.046264302 -0.07259399 0.017098483 0.05043463
0000d0 4b 4a af 3d 84 27 a0 3c 53 23 72 3d 8f e3 d6 bb
       0.08559092 0.019550093 0.05911572 -0.006557889
0000e0 4f e7 36 bc cf c1 97 bd 36 e1 0a bd 66 af 86 bd
       -0.011163547 -0.07410013 -0.033906184 -0.06576423
0000f0 47 d7 ea 3d 96 94 04 3e c2 31 f5 bd b1 df 41 3c
       0.11466842 0.12947306 -0.11972381 0.011833117
000100 a5 b6 5f bd d0 d6 2b 3d a2 b4 00 3e 5e e1 bb bc
       -0.054617543 0.041952908 0.12568906 -0.022934612
000110 74 7b 87 3e 4d 5b 6b bd d2 48 ca bd fb 4c 9e bc
       0.26461375 -0.057460118 -0.098771706 -0.019323817
000120 b5 94 be bb 43 b6 d2 3d 99 ea 31 3e bd f2 6a 3e
       -0.005816067 0.1028867 0.17374648 0.2294416
000130 94 58 4a 3e 7f dd 49 bd bc 91 8e 3c 32 0d 83 bd
       0.19760352 -0.0492835 0.017403476 -0.06399001
000140 f9 2e 30 bc 93 59 36 3c 14 1d 10 3e c6 41 c3 bd
       -0.010753387 0.011129755 0.14073592 -0.0953403
000150 30 d2 87 bc 95 5d 8b bd 7a f5 a8 bd aa a6 94 3d
       -0.016579717 -0.06804959 -0.08249946 0.07258351
000160 4e 85 bc 3d 1b 8c 47 3d 5a eb 17 3e 43 17 33 3d
       0.09205113 0.0487176 0.14835873 0.043723356
000170 15 0e 99 3c 71 a5 87 3d 35 a9 10 be fd 3e 49 bd
       0.018683473 0.06623352 -0.14127047 -0.049132336
000180 48 b8 05 3d b3 f9 ce bb 15 16 8a 3d 89 15 fb bd
       0.032646447 -0.0063163876 0.06742493 -0.12259967
000190 ef 59 09 3d 9f 42 47 3c 67 6d c6 3b ef b8 05 be
       0.033533033 0.01216188 0.0060555222 -0.13058828
0001a0 5a 51 e0 bd aa e2 4a 3d e8 60 16 be bf 3f 5b bd
       -0.109530166 0.04953257 -0.14685404 -0.05352759
0001b0 b4 45 8c bc e4 30 70 3d 45 67 41 bd 72 cf 2d 3e
       -0.01712308 0.058640376 -0.047217626 0.16973665
0001c0 b8 b0 45 bd 64 2d d2 3d bc a8 4e 3b a2 69 8f bc
       -0.048264235 0.10262564 0.003153368 -0.017506424
0001d0 f0 f7 91 3d 8d 48 4e bd af 3a 26 3e fe 7c f3 3c
       0.071273685 -0.05036216 0.16233324 0.029722687
0001e0 38 3f 82 bd 4d bb 7d bc 74 89 13 be fa ed 71 3d
       -0.06359714 -0.0154865505 -0.14407903 0.059064843
0001f0 9c c7 59 be a6 f1 bb bc 8f ca 90 bd 09 5d 83 3c
       -0.21267551 -0.022942375 -0.07069885 0.016035574
000200 42 eb c2 3d 54 64 11 be 1d 1f 38 bc 07 c3 86 3d
       0.09517528 -0.14198428 -0.011237887 0.06580167
000210 69 48 18 be 4f 65 d7 3d 51 fc 93 3d 4e ac 75 3d
       -0.14871372 0.1051737 0.0722586 0.059978776
000220 a7 ed 53 bd 07 a1 c6 bd a8 5c 14 be db 5e 36 3e
       -0.051740315 -0.09698682 -0.1448847 0.17809622
000230 c2 2a da 3d bc 89 a7 3d 6f ed cf 3d 16 a9 a0 3c
       0.10652687 0.081805676 0.10152709 0.019611876
000240 7e f9 aa bd f0 38 93 38 14 e0 41 3d b0 bd 9f bd
       -0.08348368 7.020112e-05 0.04733284 -0.07799852
000250 a0 35 ac bd 7f 6b ad bc 92 61 06 be c9 4b 0b be
       -0.08408666 -0.021169422 -0.13123158 -0.13603128
000260 e6 10 ec bc 67 29 50 bc 62 e1 b8 bb 36 3e 19 be
       -0.028816652 -0.012705184 -0.005642102 -0.14965138
000270 23 c3 34 3d 52 00 97 bd b0 45 ac 3d d0 3a 3c be
       0.04413141 -0.07373108 0.08411729 -0.1838181
000280 5e ce 4a 3d 39 f6 17 be 38 e3 fc bd ab 9d 92 bd
       0.049513213 -0.1484002 -0.12348026 -0.07158979
000290 3e 67 c9 bc c1 6b 09 3d 63 11 20 be 17 e2 c5 bd
       -0.024585363 0.033550028 -0.15631633 -0.09662264
0002a0 42 79 88 bd 4d b8 ae bd 60 9b 98 3d c1 cd fd bb
       -0.06663753 -0.08531246 0.074515104 -0.007745475
0002b0 10 72 ea 3c 00 6e 8e 3d 4c 79 04 be 43 0a a6 3c
       0.028618842 0.069545746 -0.12936896 0.020268565
0002c0 61 59 26 3d 0d b8 99 bb 0d 8c 02 3e d5 e2 23 be
       0.040612582 -0.00469113 0.12748738 -0.16004498
0002d0 80 56 2a bc e9 22 60 bc f0 d2 27 be 8d 55 ef 3d
       -0.0103966 -0.013680198 -0.1638906 0.116862394
0002e0 2c ea c3 bc c0 dd e7 3d 0d f3 0b be 5e 6c fa bd
       -0.023915373 0.11321592 -0.13666935 -0.12227701
0002f0 c4 8a 61 3c b0 b9 f3 3c 38 2c ec 3d 8b 1e 9f 3d
       0.013765994 0.029751629 0.115318716 0.077694975
000300 36 fa 17 be f2 48 74 be 53 c1 c6 be 9f 6f 1a 3e
       -0.14841542 -0.23855951 -0.3881937 0.15081643
000310 f2 f9 41 3b 7a 7f 19 3e 58 e6 80 bc 3b bf a8 bd
       0.0029598442 0.14990035 -0.015734836 -0.08239599
000320 4b b7 68 3e 91 79 08 3e bc d3 04 be d1 c7 cf 3d
       0.2272617 0.13327624 -0.12971395 0.10145534
000330 52 e0 59 bd 09 68 98 3e bc 5f ca bd 94 b6 de 3d
       -0.053192444 0.29766873 -0.09881541 0.10874668
000340 5a 87 67 3e a9 27 87 be 44 8c 81 3d 68 b7 05 3c
       0.22610226 -0.26397446 0.06325582 0.008161403
000350 68 88 2e be 4a af 62 ba 89 00 a1 3c 8b 2c 4b bc
       -0.17044222 -0.0008647336 0.019653575 -0.012400757
000360 4e e8 c5 bc 9d 16 05 bd 9c 30 13 3e f9 15 a8 bd
       -0.024158623 -0.03249227 0.14374012 -0.08207316
000370 7b 4c aa bc df af 2f 3c 1a b7 b6 3d 6d 4e 45 bc
       -0.020788422 0.010723083 0.089216426 -0.012042624
000380 b4 9e 05 be 82 a3 fb bd 26 68 d8 be c5 35 d8 3c
       -0.13048822 -0.12287046 -0.4226696 0.026392827
000390 af 7e d4 3e 27 c9 5f be 1d 7e 26 be a5 ba 0e 3c
       0.41502902 -0.21854077 -0.16259046 0.008711492
0003a0 57 85 87 bc cf c8 63 3d 0e 2b 1d 3e 84 b0 c0 bd
       -0.016543074 0.055611428 0.15348455 -0.09408668
0003b0 db a3 0f 3e 29 ae 8b be 20 f9 af bc ba 44 1c 3d
       0.1402735 -0.2728131 -0.021481097 0.03815148
0003c0 86 32 1f 3c de 69 62 3c 2f 94 45 bd 38 ad 2f be
       0.009716636 0.013819186 -0.048237022 -0.17155921
0003d0 ef 4c d6 3d 84 29 70 bd 0d 0e d8 3c c9 5e 04 bd
       0.10463893 -0.058633342 0.026373887 -0.032316957
0003e0 46 da 89 3c 71 0f bd be 32 89 27 3e 0d ba fa bd
       0.016827714 -0.36925843 0.1636093 -0.122425176
0003f0 17 24 8e 3e cf 94 35 3c e3 98 84 be 0b 04 a3 3c
       0.2776191 0.011082842 -0.25897893 0.019899389

weight_hh f4 [512, 128]
000000 85 d1 d2 bd 6a 94 d4 bd 2d f4 1e bc 85 7b 46 bd
       -0.10293869 -0.1037987 -0.009701771 -0.04845764
000010 4b 65 77 bd 95 9f 46 bc 2e fc 8e 3d da b1 99 bd
       -0.060399335 -0.012123008 0.06981693 -0.075046256
000020 22 0b d8 3d 0c 4b f7 bc 95 51 ea 3c 72 88 5d bd
       0.105489984 -0.030187152 0.028603354 -0.054085203
000030 84 5f 9d bc b2 ce 6e bd 32 12 9d 3c 2b 28 1e be
       -0.019210584 -0.05830259 0.019173715 -0.1544501
000040 31 9f 8f 3d 03 29 bc bd b1 32 fe 3b f8 31 b4 bd
       0.07012785 -0.0918751 0.0077575077 -0.08798593
000050 e6 49 97 bd 96 7a 05 bd ae 4a c2 3d 10 f6 71 bd
       -0.07387142 -0.03258761 0.094869 -0.059072554
000060 5c 3e f3 3c 3c 6a 58 3d 05 d3 0d bd 90 de cc 3d
       0.029692821 0.052835688 -0.034625072 0.10003388
000070 a6 00 09 bd 47 31 11 be 13 ca e6 3d 25 7f 1f bd
       -0.033447884 -0.14178954 0.11269011 -0.038939614
000080 fd 46 a5 bd 97 f8 02 be 7f 97 14 3d d3 d9 0a bd
       -0.080701806 -0.12790142 0.03627729 -0.03389914
000090 98 6c e1 3c 49 85 8d bd b3 39 62 3c 0d 97 22 3c
       0.027517602 -0.06910188 0.013807702 0.009923709
0000a0 19 c6 68 3b c4 3d 1a bc d2 81 f9 bd 31 3e 25 3c
       0.0035518466 -0.00941414 -0.121829644 0.010085628
0000b0 1b 56 17 3d 09 fa 3f bd 78 6b ab bd 18 8a 6e 3d
       0.03694735 -0.04686931 -0.083701074 0.058237165
0000c0 01 51 f3 bd b7 09 c2 3c ea 07 34 3e cc 42 67 bc
       -0.11880685 0.023686273 0.17581144 -0.014115047
0000d0 9d 4e 60 bd 2f 89 e5 3b 61 b6 61 bd d7 53 0a bd
       -0.05476247 0.007004879 -0.05510557 -0.033771362
0000e0 f6 a4 a5 bc e8 d7 ba 3d 2a 58 8b 3d 66 24 e0 bd
       -0.020220261 0.09123212 0.06803925 -0.109444425
0000f0 08 b9 34 3d 5c 7a 60 3d 7d e8 ae 3d 11 70 77 bd
       0.044121772 0.05480419 0.08540437 -0.06040961
000100 46 23 4d bd fd 17 ab 3c 10 a8 2b 3c e0 f8 17 3e
       -0.050082467 0.020885462 0.010477081 0.14841032
000110 c7 c4 74 bd 6c c5 4d ba 7c ce 8b bd 10 7f 96 bb
       -0.059757974 -0.00078495475 -0.06826493 -0.0045927837
000120 48 9e 38 3d 82 13 7f bd 2f 4e 32 3d b3 ed 3a 3d
       0.045072824 -0.062274463 0.043531593 0.045636844
000130 7f 12 33 be c6 37 dc bc cf 8d 3d bd f6 61 56 3d
       -0.17487524 -0.026882064 -0.046277817 0.052339517
000140 1b f0 a0 3d 8f ae 0a 3c db 3c a6 3d 8c 9e 83 bd
       0.078582965 0.00846447 0.08117076 -0.06426725
000150 00 d8 87 bd 0a f5 94 bc 4f d6 04 bd e2 cd ca 3d
       -0.066329956 -0.01818325 -0.032430943 0.0990255
000160 db 25 85 bd b1 58 8f bd 39 0f fe 3c 8f 13 f5 bc
       -0.06501361 -0.069993384 0.031013118 -0.029916553
000170 0d fa ee bc 06 67 ab bd eb 73 b6 bd 5f 1b d5 bd
       -0.029171968 -0.083692595 -0.08908828 -0.10405611
000180 1d b1 7a 3c 6b 3f 9d bc f4 07 ac 3d 06 0b be bd
       0.015301016 -0.01919528 0.083999544 -0.09279446
000190 98 33 5b 38 60 c0 b0 3a b0 b1 9f 3d 82 f5 dc bd
       5.226172e-05 0.0013485067 0.07797563 -0.107890144
0001a0 1c fc a0 bc 64 a2 a4 bc dc 5f 01 3d f3 7e 85 bd
       -0.019651465 -0.020096965 0.03158556 -0.06518354
0001b0 8d de 47 3c 31 c5 86 3c 6e 31 e0 3b 13 f7 1f bd
       0.012199056 0.01645145 0.00684183 -0.039053988
0001c0 65 1b df bc f8 ef 66 bd b0 8d 88 3d 24 f3 d8 3d
       -0.027234742 -0.056381196 0.0666765 0.105932504
0001d0 de a3 cb 3d 70 b4 82 bc e3 79 99 3d d1 68 83 3c
       0.099433646 -0.01595518 0.07493951 0.016041191
0001e0 c6 1f 9b bc 2f 47 60 3d c3 45 00 3d bf b8 2b 3b
       -0.01893605 0.054755386 0.03131653 0.0026202647
0001f0 ef ee 6c 3c ed a7 70 3d 3f 35 57 3d 4b 95 cf 3d
       0.014461263 0.058753897 0.052541014 0.10135897
000200 2f 0b b3 3c f1 b8 2d bd 93 71 3a 3d 20 b0 0e be
       0.021855919 -0.042412702 0.04551847 -0.13934374
000210 f8 87 d9 bb 16 a7 9a 3d d9 25 9c bc e1 cb bd bd
       -0.006638523 0.075514 -0.019061016 -0.092674024
000220 48 2e 3c 3e 00 dc f9 3d 2a e6 ee 3c df 7e 23 bd
       0.1837703 0.12200165 0.029162485 -0.039915916
000230 21 0f 41 3c 1e a9 d7 bd f3 59 a5 3d 2b e0 0e 3d
       0.011783392 -0.105303034 0.08073797 0.034881752
000240 fb 6c f0 bc c9 cd 26 be ec b3 6b 3d b8 93 18 3c
       -0.029348841 -0.16289438 0.057544634 0.009312563
000250 60 dc ac 3c ea b8 0e 3e 0d fd 43 3d dd 9b 6b bc
       0.021101177 0.13937727 0.04784875 -0.014380422
000260 b5 ac 8d 3d 8e 83 a8 3d cf e0 3f 3d d4 45 5b 3d
       0.06917707 0.08228217 0.046845254 0.05353339
000270 fb e8 b1 3c c5 15 9e bd 28 62 0d 3e 75 ac a5 3b
       0.021717539 -0.07718996 0.13806975 0.005055959
000280 cd 94 a1 bc 8e 1c 0b be 93 73 df 3c 2c c4 e2 bd
       -0.019724274 -0.13585111 0.02727679 -0.11072573
000290 9b 8d a7 bd cc 70 2d bd d8 f6 21 3e ba fb ea bd
       -0.08181306 -0.0423439 0.1581682 -0.11473794
0002a0 86 fd 33 3d 5d ef ee bb 8d 9e bb bd 96 5f a6 bd
       0.04394295 -0.007291718 -0.091611005 -0.081237
0002b0 37 75 ca bc dc c4 71 3d 2a 5e 2d 3c 3e c8 bd 3d
       -0.024714096 0.05902563 0.0105815325 0.09266709
0002c0 6f ff 1f bd 34 e3 d2 bd 00 a5 17 3d 34 22 3d 3d
       -0.03906196 -0.10297242 0.03702259 0.046175197
0002d0 9c a0 62 bd 23 c8 2f bd 50 93 05 bc 94 fd 12 3d
       -0.05532895 -0.042915475 -0.008152798 0.035886362
0002e0 2a 84 b6 3d f5 b7 a7 bd ce 05 99 3d f4 cb 4b 3c
       0.08911927 -0.08189384 0.0747181 0.012438763
0002f0 f4 f8 2d 3d c4 46 cc ba 0c b8 71 bd 6a 9e bf 3c
       0.04247375 -0.0015585055 -0.05901341 0.023390967
000300 6e 2d c4 bd c6 98 54 3d b7 b2 be 3d 3f f3 01 bd
       -0.095789775 0.05190351 0.09311431 -0.03172612
000310 41 f0 ca 3c ff dd 12 bc d6 a6 35 3c d3 86 cc bd
       0.024772765 -0.008964061 0.01108714 -0.09986653
000320 a2 58 bd 3c 3b af 08 be c3 33 96 3c e8 08 fb 3d
       0.023113552 -0.13348095 0.018335229 0.12257558
000330 7e fa 01 be a1 d2 e9 3c b4 bd 9a bd 5f ff 2c bd
       -0.12693211 0.028542819 -0.07555714 -0.04223573
000340 df 6e 11 be ab 71 fc bc b7 56 94 3c 5b 36 1f bc
       -0.1420245 -0.03081592 0.018107755 -0.009717549
000350 8a 91 71 bd 9f 9d 49 bd b4 fb 59 bd 71 f0 8a bd
       -0.058976687 -0.049222585 -0.05321856 -0.06784142
000360 d6 31 d3 3c 3f 5b e5 3b 10 e7 37 3e 9b e5 ac 3c
       0.0257806 0.006999403 0.17959237 0.021105578
000370 7d bb 0e 3e ba 54 d3 3a 0c 73 ce 3c 76 ce 30 bc
       0.13938709 0.0016123273 0.025201343 -0.010791412
000380 fb 27 f4 3c 50 2a 90 bd f1 c7 c0 3c 8a 33 fb 3d
       0.02980422 -0.070393205 0.02353284 0.1226569
000390 06 02 0a bd fc 31 d6 bc 31 d7 85 bd a8 56 6d bc
       -0.033693336 -0.026146881 -0.06535185 -0.0144859925
0003a0 5f f7 85 bc db 6e 22 bd 92 3f 90 3c 48 04 18 bd
       -0.016353307 -0.0396565 0.017608438 -0.037113458
0003b0 92 85 e8 3c 47 7d 86 3c 10 36 2d be e6 65 63 bd
       0.028384004 0.016417159 -0.16915154 -0.0555171
0003c0 ae 56 cb 3d db 15 da bd e7 5d 2a 3d 4d 33 d0 bc
       0.09928642 -0.106487 0.04159346 -0.025415087
0003d0 80 79 96 3c 8b e3 55 bd db d4 b2 3d 68 9d 94 3c
       0.018368483 -0.052218955 0.08732005 0.018141463
0003e0 7e 5f af 3c 5d 1d 92 bd 76 cd 51 ba 18 41 99 3d
       0.021407839 -0.07134507 -0.00080033334 0.07483119
0003f0 45 2e 25 3d 6c da b8 3c c0 0f 27 3d b2 30 ca 3d
       0.04032733 0.02256509 0.040786505 0.09872569

bias_ih f4 [512]
000000 31 29 56 3d 86 87 1a 3e 5d 6b 8d 3d 33 f4 07 3e
       0.052285377 0.1509076 0.069052435 0.13276748
000010 e1 6b aa 3c 8d a1 88 3d 63 3e ca 3b c4 cf f5 3d
       0.020803394 0.06671438 0.006171988 0.12002519
000020 af 66 6e 3d 2a 38 f5 3d c3 43 bf bc 90 54 d1 3c
       0.058203395 0.11973603 -0.023347741 0.025553018
000030 03 36 92 3d 2d 55 18 bd 62 1e 01 bc 3a 57 f6 3d
       0.07139208 -0.037190605 -0.007880779 0.12028356
000040 53 b5 aa 3d 72 23 9e 3d 16 d9 20 3e 1f 49 20 3e
       0.08335366 0.077216044 0.15707812 0.15652893
000050 b9 30 6a 3c d5 d2 8f 3d 9c e2 e7 3d ce e6 57 3e
       0.014293843 0.07022635 0.11322519 0.21084139
000060 58 7a 09 3a 0b 6e 59 3d 4c b6 04 3e 57 02 24 3d
       0.0005244366 0.05308346 0.12960166 0.040041294
000070 42 5c 34 3e 03 30 40 3e dc c6 b3 3d 76 68 a2 3d
       0.17613319 0.18768315 0.08778164 0.079300806
000080 96 18 91 bc 88 af 2a 3e d0 8b 62 3d 88 b6 18 bd
       -0.017711919 0.16668522 0.055309117 -0.03728345
000090 e7 3b 79 3e f6 c7 88 3d f0 7a f6 b9 2f 8c d4 3d
       0.24339257 0.066787645 -0.00047012372 0.103783004
0000a0 f5 f0 d0 3d fc 85 c8 3d 46 ab d0 3b 8b d7 f2 3d
       0.10202209 0.097911805 0.0063680736 0.11857518
0000b0 9e d5 c3 3d da 9c 1d 3e 04 ca b9 3d cc df 11 3e
       0.095622286 0.15391865 0.090717345 0.14245528
0000c0 41 55 2d 3e 59 ae 31 bd ad 7a 99 3d 94 d3 8e 3c
       0.16927053 -0.04337916 0.07494102 0.017434873
0000d0 1b 21 85 3d af 26 02 3e 5a 7a 07 3e 6b 2e 25 3e
       0.06500455 0.12710069 0.13230267 0.16130988
0000e0 fe c0 a2 3d 4d e5 28 3e b2 11 92 ba fb ee 23 3e
       0.079469666 0.16493721 -0.001114419 0.16009133
0000f0 ab 2e ae bc 60 91 b3 3d 6c 6f 47 3e 46 70 01 3e
       -0.021262487 0.087679625 0.19476098 0.12640485
000100 d6 a9 62 bd fd dd f5 3d 78 b9 12 3d 3e bf 12 3d
       -0.05533775 0.120052315 0.035821408 0.035826914
000110 e9 8e 68 3e b7 10 cd 3d 2f b5 d4 3d fb 7c 1d 3c
       0.22710766 0.10012954 0.103861205 0.009612317
000120 65 22 de 3d 4a 5e 2b 3d d0 f4 cf 3d 63 e0 99 3d
       0.10846404 0.041837968 0.10154116 0.075135015
000130 1b 9f 11 3e 47 aa 2a 3d c3 3d 8f 3d 2c 62 24 bb
       0.1422085 0.041666295 0.06994202 -0.002508293
000140 6f 30 d9 3d 5d c9 b2 3d 92 6c b0 3d e1 fa 91 3d
       0.10604941 0.08729813 0.08614458 0.071279295
000150 04 e5 df 3d 84 5f ce 3d 80 56 3e bc 96 31 30 3d
       0.10932353 0.10076812 -0.011617303 0.04301604
000160 e9 98 19 3e 4e 9e 1a 3e 8b 29 02 3e 49 a4 fa 3c
       0.14999737 0.15099451 0.1271116 0.030595915
000170 bc a7 4c 3e 26 64 2c 3e ad c4 dd 3d f3 bb 25 3e
       0.1998586 0.16835079 0.108285286 0.16184978
000180 e5 a3 da 3b 9d 30 68 3d 9b ba 7b 3d b9 7b b6 3d
       0.00667237 0.056686986 0.061457258 0.08910317
000190 4f 8c ca 3d f0 50 95 3d fb f9 89 bc 2a c1 08 3d
       0.09890043 0.07290828 -0.016842833 0.03338734
0001a0 f8 31 9b 3d b6 eb 0b 3d 47 d7 1c 3e 72 54 6e 3d
       0.0757789 0.03416034 0.15316497 0.058186002
0001b0 b5 f2 40 3e 6c 83 68 3d ad 3b 36 3d 49 04 f1 3d
       0.18842585 0.05676596 0.044490505 0.117683955
0001c0 00 70 b2 3d 80 6a 00 bd 73 fd cc 3d c8 06 86 3b
       0.087127686 -0.031351566 0.10009279 0.004090164
0001d0 3f 4f 07 bb 42 aa b1 3d b7 3f d3 3d bc 91 e9 bc
       -0.00206466 0.08675052 0.10314887 -0.028511874
0001e0 cc 34 c0 3c cb 6e 6a 3c 6a ad e8 3b a3 69 28 3e
       0.023462676 0.014308642 0.0071007507 0.16446547
0001f0 82 98 b3 bc e1 c4 7a bc e3 1f 9d 3d f3 bf ce 3d
       -0.021923307 -0.015305729 0.076720975 0.10095205
000200 da 75 97 bc 4b 45 cc 3d bb bc c8 3d e3 20 07 bd
       -0.018488813 0.09974154 0.098016225 -0.032990348
000210 59 e5 24 bc fb 97 20 bd 0f 39 49 3d 24 a1 aa 3d
       -0.010064446 -0.03920744 0.04912668 0.083315164
000220 00 2e 7f bd 93 c0 f1 bc e6 08 91 bb 07 fd c6 ba
       -0.06229973 -0.029510772 -0.0044261096 -0.0015181609
000230 d3 0b 36 3d f1 d9 84 3d c4 aa 9c 3d 9e 2b 8e 3d
       0.04444487 0.064868815 0.076497585 0.06941913
000240 10 40 81 3d 7a 6f 32 3d 3c 4b 25 bd 07 e1 8d 3b
       0.06311047 0.043563344 -0.040354952 0.004329804
000250 26 28 e9 3d e3 a9 ed bb 0b f9 70 bd c7 81 04 3e
       0.11384611 -0.007252918 -0.058831256 0.12940131
000260 9a fc 4b bd af 6e 59 3d 86 c0 7a bd 27 44 bc bd
       -0.049801446 0.05308407 -0.06121876 -0.091926865
000270 42 27 5b 3c 8e 37 33 3d 61 cb e1 3d 7d 0e cb 3d
       0.013376059 0.043754153 0.110251196 0.09914873
000280 53 5b 8b bd e2 fc 26 bd a9 57 b2 3d d6 f8 82 bc
       -0.06804528 -0.04076851 0.08708126 -0.015987795
000290 bc a4 6e bd 9f a5 4a bd 05 1e 43 3d e2 81 e2 3d
       -0.05826257 -0.049474355 0.04763605 0.110599294
0002a0 e6 28 c0 3b 2f 4b 6a 3d c3 39 ae 3c 1e 2e 95 bc
       0.0058642505 0.057200607 0.021267777 -0.018210467
0002b0 e8 4b 0b be 19 41 b6 3d 7d 01 27 3e 94 0d fb bc
       -0.13603175 0.08899135 0.16309161 -0.030646123
0002c0 79 a1 3e bd 14 e2 36 3d 3b 91 cc 3d 7e 80 7a 3c
       -0.04654071 0.0446492 0.09988638 0.015289424
0002d0 fa 06 bc bd db 1a d0 bb bd 5e e4 bc 87 59 82 3d
       -0.09181018 -0.0063508577 -0.027877206 0.06364732
0002e0 07 7b cd bd 21 f1 03 bd 3d 3b 18 3d 0b 04 b2 bd
       -0.10033231 -0.03221238 0.03716587 -0.086921774
0002f0 ba 15 86 bd d5 d2 93 bd 5a e3 9a bd 7a 61 64 bc
       -0.06547113 -0.072179474 -0.07562895 -0.013939256
000300 d0 03 84 3d 13 d3 67 3d 04 3f 95 bd fa d7 a5 bd
       0.0644604 0.05659778 -0.0728741 -0.08097835
000310 4b ab 69 3c 91 70 a0 bd 7c 21 18 3d 12 fb 83 bd
       0.014262031 -0.0783397 0.03714131 -0.06444372
000320 8b 87 a5 bd 2b 55 f7 bd 4e 07 b6 3c 2a 84 12 bd
       -0.080824934 -0.120767914 0.02222028 -0.035770573
000330 f8 e8 d7 3d 53 22 b3 3d 89 69 9f 3d 51 8b 26 bb
       0.10542482 0.08746781 0.07783801 -0.002541263
000340 ff e3 63 3d 80 5b 24 3d d2 2b 68 bd ef 64 a9 3d
       0.055637356 0.040126324 -0.056682415 0.08271205
000350 e8 b1 80 3d f9 09 82 bd d9 12 97 bd d1 e1 42 3d
       0.06283933 -0.063495584 -0.07376642 0.047578637
000360 e0 63 20 bd 59 74 8d 3c b0 6d e9 3d 1a 4a bd bc
       -0.03915775 0.017267393 0.11397874 -0.023106623
000370 28 bc cf bd 15 cc 24 bd 35 97 2a 3d c3 89 c5 3d
       -0.1014331 -0.04023369 0.04164811 0.096454166
000380 d6 6f 9f 3d 11 f5 c5 bd 73 eb 7f 3d 7d 15 44 bd
       0.07785003 -0.09665883 0.0624804 -0.047872055
000390 e0 56 ce bd 45 16 ed bc 2e 12 90 bd 14 cb fc 3c
       -0.10075164 -0.028941283 -0.070347175 0.030858554
0003a0 af 7b f5 3c 32 d9 a3 bb 10 98 e7 bd a0 b4 fd 3d
       0.029966203 -0.005000257 -0.113083005 0.12387967
0003b0 9d 32 96 3c 82 61 ea bb 7c 24 ae bd dc 35 e0 bc
       0.018334681 -0.007152737 -0.085030526 -0.027369432
0003c0 7d e4 b9 bd 86 00 7f 3d 57 0a 2c 3c 97 7a 85 3d
       -0.09076784 0.06225636 0.010500512 0.06517523
0003d0 f3 ae 83 bd 08 b4 87 bb 86 b6 8d bd 33 bf 95 3c
       -0.06429853 -0.0041413344 -0.06919579 0.018279647
0003e0 55 1a 1e 3d 81 23 1b bd cd ee d3 3c 5e e8 2c 3c
       0.03859933 -0.037875656 0.025870705 0.0105534475
0003f0 3e 15 3e 3d 68 51 d3 3d a2 11 e1 3d bf 8d 41 bd
       0.046406977 0.103182614 0.10989691 -0.04725432

bias_hh f4 [512]
000000 8d 79 1c 3d 62 db 19 3e 10 68 ba 3c bb 11 36 3e
       0.038201857 0.15025094 0.022754699 0.17780201
000010 0b 76 af bc 11 25 19 3e 19 73 e8 3b 7c 43 dd 3d
       -0.021418592 0.14955546 0.007093799 0.10803887
000020 8f a8 37 3e 74 df 11 3e b1 0d 28 bd 26 98 05 3d
       0.17935394 0.14245397 -0.041028682 0.032615803
000030 af a5 d6 3d 6d e3 a6 bd 24 f0 06 3c 79 24 75 bc
       0.104808204 -0.08148847 0.008235965 -0.014962309
000040 73 59 e8 3d b8 fc a5 3d 8d b4 23 3d 25 b1 51 3e
       0.11345186 0.08104843 0.03996711 0.20477732
000050 5f ec b4 3d 2f 3b 11 3e 94 55 e7 3d df 74 c1 3d
       0.08834147 0.14182733 0.112956196 0.094461195
000060 b5 f4 0c 3b 56 3d 3b 3e 5f 26 fb 3d 4b fb 6c 3d
       0.0021508161 0.18285117 0.12263178 0.05785684
000070 e3 7b 95 3d 43 04 f8 3d e8 e8 c8 3c 9a 3a cd 3d
       0.0729902 0.12110188 0.02452512 0.10020943
000080 34 d9 ac 3c 6a fc 3d 3e 36 bf 58 3d 42 76 ed 3c
       0.021099664 0.1855332 0.052916728 0.028987054
000090 53 41 3c 3e a7 ca ef 3d ff 91 e2 3d 1d a6 c3 3d
       0.18384294 0.11708575 0.11063003 0.09553168
0000a0 ec e4 cf bb ba 76 ea 3d 02 fc ac bc 7b b4 d0 3d
       -0.0063444283 0.114484265 -0.02111626 0.10190674
0000b0 25 a3 68 3b d4 46 80 3d 70 84 b1 3d 6e e2 2a 3e
       0.0035497632 0.062635094 0.086678386 0.16687939
0000c0 02 d7 9b 3d e9 9a ac 3d b1 a2 04 bc 6d 96 5d bc
       0.07609369 0.08427984 -0.008095429 -0.013524634
0000d0 01 41 1a bd 58 9d ec 3d 5d 49 75 3d 2b 75 a9 3d
       -0.03765965 0.115534484 0.059884418 0.08274301
0000e0 23 4f df 3c dd e0 0c 3e 22 62 5d 3b af 5a 16 3d
       0.027259415 0.13757654 0.0033780416 0.036707576
0000f0 87 d4 13 bd 6a 7c 3c 3c f4 30 03 3e 43 6c ee 3d
       -0.036091354 0.011504272 0.12811643 0.11641743
000100 fb 08 96 3d f1 4f 83 3c 61 69 a1 3d a9 44 79 bd
       0.07325932 0.01602933 0.078814276 -0.060856495
000110 9f e0 38 3e 69 26 fc 3c 65 69 c9 3c af 1c 1c 3c
       0.18054436 0.030780034 0.024586389 0.009528323
000120 a7 82 3f 3d 95 cc 60 3d 3a 8f b9 3d d9 e5 4e 3d
       0.04675546 0.054882605 0.090605214 0.05051217
000130 b0 f0 c2 3d be 24 12 3e 96 85 44 3c 45 60 ed 3d
       0.09518564 0.14271829 0.01199474 0.115906276
000140 69 de 0a 3e f5 ac d3 3d 43 a2 21 3e b1 06 0f 3d
       0.13561405 0.10335723 0.15784554 0.03491849
000150 4c 46 ae 3d 7c 57 83 3d 62 c0 ae 3d 88 14 1a 3d
       0.08509502 0.06413171 0.08532788 0.037617236
000160 d2 6d ca 3d d4 a0 2e 3e 13 a8 d5 3d ca d0 04 3e
       0.09884228 0.17053539 0.10432448 0.12970272
000170 d1 c9 00 3e 0b b2 ab 3d 79 5f e4 3d f5 e4 2a 3e
       0.12576987 0.083835684 0.111510225 0.16688903
000180 a5 81 d7 3d bb 17 71 3d a2 03 b3 39 4d 3c 68 3e
       0.105227746 0.05886052 0.00034144247 0.22679253
000190 55 c4 f0 3d 83 ed 07 3e cf eb 8e 3d 86 a7 c2 bb
       0.11756197 0.13274197 0.06978571 -0.0059403805
0001a0 6e 4f 28 3e b8 21 ab 3d c3 83 9e 3d c2 b6 04 3e
       0.1643655 0.08356041 0.07739975 0.12960342
0001b0 29 19 09 3e 68 71 10 3e ad 8c 89 bb ea 4a 65 3e
       0.13388504 0.14105761 -0.004197678 0.22391859
0001c0 b2 05 aa 3d 11 22 a6 3c ee 0b 32 bc e2 3b 57 3d
       0.083018675 0.020279916 -0.010867102 0.052547343
0001d0 9f 44 07 3d 6d 3d 81 3d af 5d 77 3e 52 ac 5c bd
       0.033024427 0.06310544 0.24156831 -0.053875275
0001e0 4c 3e 9b 3c c3 73 75 3c a1 fd b8 3c f7 97 25 3e
       0.018950604 0.014981213 0.022581877 0.16171251
0001f0 bd b5 fb 3d 73 b4 9c 3d 5f 06 bc 3d 15 4f 0c bd
       0.12290523 0.076516055 0.09180903 -0.034255106
000200 fe 84 3b 3c 81 c5 d3 3d b1 0a 91 bd 09 69 bb 3c
       0.011445282 0.10340405 -0.07082117 0.022877233
000210 b6 d5 ac bc f8 7a bf bb c9 51 fa 3c a6 f2 29 3d
       -0.021097999 -0.0058435164 0.030556576 0.041491173
000220 b7 ea 52 bc 13 dc 68 bd 59 23 22 bd 04 5f 30 bd
       -0.012873343 -0.056850504 -0.03958449 -0.043059364
000230 9c e6 ab bd 46 79 1a bc b6 70 89 3d 6f f1 1f bc
       -0.083935946 -0.009428328 0.06710951 -0.009762152
000240 20 27 98 3a f9 26 85 bd a8 cb de bc 44 8b 2a 3d
       0.001160834 -0.06501574 -0.02719672 0.04163672
000250 55 84 67 3d 5c 6f 82 bd b4 71 92 bd 70 3d 97 3c
       0.056522686 -0.06368896 -0.071505934 0.018461913
000260 b4 e5 2c 3d 71 65 89 3c ac 60 bf 3d d4 00 36 bd
       0.04221125 0.016772004 0.093446106 -0.044434384
000270 ab d2 c7 bb 55 cb 83 3c ee 47 58 bd 95 25 96 3a
       -0.0060981116 0.016088167 -0.052802972 0.0011455292
000280 71 2e 85 3d a1 b6 7f bd db 22 83 bd f0 01 ea 3d
       0.065029986 -0.062430028 -0.064031325 0.11426151
000290 be 66 70 3d 52 d1 fb 3b ed c9 0c 3d 06 57 ff 3c
       0.058691733 0.007684865 0.03437226 0.031169426
0002a0 e1 5c ae 3d 9b 82 53 bd 6f 10 95 3c 32 d9 9c bd
       0.08513809 -0.051638227 0.018196313 -0.07658614
0002b0 1a 3f dd 3c 54 d2 80 bd 6c 2c 2d b8 ff 94 70 3d
       0.027007628 -0.06290117 -4.1287785e-05 0.058735844
0002c0 04 7a c6 3d 02 e2 5f bd 99 44 fe 3d ca 5f e8 3c
       0.096912414 -0.054658897 0.12415428 0.028365988
0002d0 61 03 14 3d bc 68 4e 3c d3 ee ab bd bd 51 ee 3d
       0.036136035 0.012598213 -0.083951615 0.11636684
0002e0 b0 52 47 3d 5e 88 89 3c a5 b1 41 bd 6f bb ac 3c
       0.04866284 0.016788658 -0.047288556 0.021085469
0002f0 ce 6c 10 3c bd ef 32 3d 90 52 48 bd 60 6a c8 3d
       0.008815004 0.043685663 -0.048906863 0.097859144
000300 91 e8 cc 3a 0a a8 fb bc e5 81 c8 3c e1 d7 0f 3d
       0.0015633275 -0.030719776 0.024476001 0.035117988
000310 d3 ad 84 bd b0 4a 8c bd df 0c 84 bd ae 1f ae 3d
       -0.06478467 -0.06850183 -0.064477675 0.08502136
000320 c9 34 a2 3d 44 80 31 bd 11 18 7f bd 3e 46 fb bd
       0.07920224 -0.043335214 -0.06227881 -0.12269257
000330 0e 80 c5 3d 7a ae 92 3c c0 73 2c 3d 92 b9 74 bd
       0.09643565 0.017905463 0.042102575 -0.059747286
000340 31 58 17 bd 6a 8b 7f bd 9f b7 cb bd 4f 5a 74 3d
       -0.03694934 -0.062388815 -0.09947132 0.059656437
000350 7d 2c 38 3d 03 40 6b bd 25 38 bc 3d f1 90 27 bc
       0.044964302 -0.057434093 0.09190396 -0.010227428
000360 a9 11 2b 3c e0 0b 72 3d 84 f8 b4 3d 39 a9 0b bd
       0.010441222 0.059093356 0.08836463 -0.03409693
000370 52 ac 8c bd 0e 00 cc bd 03 2e 8c 3c f3 14 2a 3d
       -0.06868805 -0.09960948 0.017111784 0.041523885
000380 2e ef a4 3d 2d dc da bd b8 6d b1 3d 7b c5 d5 3c
       0.080534324 -0.106865264 0.08663505 0.026095143
000390 4e 55 06 bd 41 9b 87 39 88 b2 7e bd 24 b7 71 3d
       -0.032796197 0.0002586488 -0.06218198 0.059012547
0003a0 40 5b 45 3d ae a2 17 3d ff 3e 07 be 9f ec 5b bc
       0.048182726 0.037020378 -0.13207625 -0.013423114
0003b0 9d b1 04 3d 23 85 74 3d 18 81 d6 bd 88 05 f4 3b
       0.032395948 0.05969728 -0.104738414 0.0074469484
0003c0 29 33 e4 bd 1d 20 9b bd 16 3b f8 bc 0a 12 56 bd
       -0.111425705 -0.075744845 -0.030301612 -0.052263297
0003d0 84 b8 11 bd 31 c2 39 bd 69 45 d6 bc 49 1f 9b bc
       -0.03557636 -0.04535121 -0.026156144 -0.018935816
0003e0 44 e4 e1 3c a4 d3 9f bc 1f fe 3c bd df a3 b2 bd
       0.027574666 -0.019510098 -0.046140786 -0.08722662
0003f0 43 8c c2 3d 3b 60 33 3d 9e 25 62 3d a5 c6 78 3d
       0.09499409 0.043792944 0.055211656 0.060736317

weight_ih f4 [512, 128]
000000 c1 67 02 3e 29 e9 9a 3d 94 ca e1 bd 82 75 3d 3c
       0.12734891 0.07564003 -0.11024967 0.011563661
000010 a0 ab c7 bd e8 91 25 3e 92 a4 f1 bd 10 27 38 3e
       -0.09749532 0.1616894 -0.117989674 0.17983651
000020 a2 8e b5 3d 2b c7 f6 bb 9c 27 02 be fd 95 44 be
       0.08865096 -0.007531067 -0.12710422 -0.19197841
000030 d6 27 44 be 55 58 eb 3c 62 70 03 3e 9b e7 10 3d
       -0.19155821 0.028728643 0.1283584 0.035377126
000040 bd 95 a5 3d a9 de d4 bd c4 82 47 bd 37 b2 74 3d
       0.08085201 -0.103940316 -0.048708692 0.05974027
000050 cb 31 11 3e 31 cb dc bc 59 83 8d 3c 8f 1f 65 3e
       0.14179151 -0.026952358 0.017274546 0.2237532
000060 9c f7 a3 3d 97 f2 4e 3e ed c6 29 3e 13 95 55 be
       0.08006212 0.20209728 0.1657979 -0.20857649
000070 bb e7 e7 3d 42 ac 04 3e b7 8a cd bc e3 e1 03 3e
       0.11323496 0.12956336 -0.025090558 0.12879138
000080 36 f8 00 3e 2b db 89 be d7 d3 36 bb d9 40 b7 bd
       0.12594685 -0.26925024 -0.0027897262 -0.089479156
000090 5a 1e 3c be 87 7d 34 bd 2f f4 b4 bd 03 77 78 bd
       -0.18370953 -0.044065025 -0.08835637 -0.060660373
0000a0 fc c2 aa 3d 92 ff 9a bd 6c 3a ed bd 39 b1 0b 3e
       0.083379716 -0.075682774 -0.11583409 0.13641824
0000b0 fb 52 9c 3d 77 8f f4 bd 31 ba 14 be 4d aa d3 bd
       0.07633015 -0.11941426 -0.14524151 -0.10335217
0000c0 66 13 8d 3e 5d 32 3b bc 5a d1 19 bd 0b 05 1a 3d
       0.27553862 -0.011425582 -0.03755317 0.037602466
0000d0 78 84 1c be 53 81 37 bd f0 c1 01 3e 46 6a dd bd
       -0.15284908 -0.044801068 0.12671638 -0.10811286
0000e0 91 6a 3b be 80 8f 8f bd bf 2d 06 3b b6 98 d2 bd
       -0.1830237 -0.07009792 0.0020474044 -0.102830335
0000f0 79 38 e5 3c 0b b6 4d be a8 5b 9e 3d b8 06 60 3d
       0.02798103 -0.20088975 0.07732326 0.054693907
000100 6d 23 c2 bd e2 fa 3b 3c 89 6d 37 bd 7a 4d 4d bd
       -0.09479413 0.011473389 -0.044782195 -0.050122716
000110 1e 93 2c be 9f 7b bf 3c fb dd 4f 3e 60 c1 97 3d
       -0.16852996 0.023374377 0.20299523 0.0740993
000120 2b 33 ad 3d 4f c1 aa 3d 6b 9a e9 3d e6 de 73 3d
       0.08457025 0.08337652 0.11406406 0.059538744
000130 83 af da bc ec da 36 be 80 1a a5 bd 54 f2 34 3e
       -0.026695019 -0.1785695 -0.08061695 0.17670566
000140 7c 85 a7 bd 6e b2 0d be b2 f6 00 3e bd 89 55 bd
       -0.08179757 -0.13837597 0.12594107 -0.05213331
000150 55 6d 27 3e 9e eb 22 3d 94 33 a3 3d a3 fa 20 3e
       0.163503 0.039775483 0.07968822 0.1572061
000160 40 9d 83 bc 0d da 5e 3d 7e 68 01 be 04 3c 4c bd
       -0.016066194 0.05440717 -0.12637517 -0.049861923
000170 6b d8 11 be b2 87 99 bd 1c bf cc bc bf a7 cf 3b
       -0.14242713 -0.07496585 -0.024993472 0.0063371356
000180 d6 bb c5 3d 94 13 54 3d 46 33 1e 3e e5 c8 32 be
       0.096549675 0.051776484 0.15449247 -0.17459448
000190 4a c7 81 bd 8c 54 91 be 9d 7a a1 bd 57 3b 73 3d
       -0.063368395 -0.28384817 -0.07884715 0.059382763
0001a0 24 6c 0f 3d 74 c4 22 be bc 31 06 3e 3a b1 b4 3c
       0.03501524 -0.15895253 0.1310491 0.022057164
0001b0 41 c4 5c 3e db b8 35 3e 6c 85 0d be d8 bc f0 bd
       0.2155924 0.17746298 -0.13820428 -0.11754769
0001c0 26 a8 74 bd a2 ff 05 be b3 40 75 bd 1e 24 b5 bd
       -0.05973067 -0.13085797 -0.059876155 -0.088447794
0001d0 e8 96 45 be 4c c0 41 3e d0 0f 79 3d 90 eb 9a 3d
       -0.19295847 0.18921012 0.060806096 0.07564461
0001e0 a3 0e 98 3d 53 5a c4 3d 47 b9 49 3e c8 18 41 3b
       0.07424667 0.095875405 0.19699584 0.0029464234
0001f0 73 5e a0 bb 81 f7 27 3d ad 8b 51 3c 5b d7 36 be
       -0.0048940717 0.041007522 0.012789649 -0.17855589
000200 39 53 8c bd 35 3f 30 3e 85 a7 29 3d 8d 97 f6 ba
       -0.06851811 0.17211612 0.041419525 -0.0018813476
000210 f1 90 91 bd 60 c6 dd 3d c3 a5 06 bd 48 82 c6 bd
       -0.071077235 0.10828853 -0.032872926 -0.09692818
000220 0d 64 45 3d d2 08 34 bd 76 6a 04 3d 01 83 82 bd
       0.04819112 -0.043953724 0.03232809 -0.06372643
000230 50 2b aa bb 30 cb 2a 3c 80 e7 83 3d 64 9e ff 3d
       -0.0051931515 0.01042442 0.064406395 0.124813825
000240 43 27 06 3e e0 d2 0e 3c fa a6 96 bd 17 7b 8c bd
       0.13100915 0.008717269 -0.07356067 -0.06859415
000250 eb 24 bd 3d 19 34 a4 3d 86 bc 2a bd ec 9a 82 bd
       0.09235557 0.08017749 -0.041683696 -0.06377205
000260 39 05 05 be f2 52 13 3d 4f 25 03 3e 66 82 26 3e
       -0.12990274 0.035967775 0.12807201 0.1626068
000270 ab 29 3c be 6f ae 64 3d 33 6f 72 3d cb 58 86 3d
       -0.1837527 0.055830415 0.05918808 0.06559905
000280 c2 6c 84 3c ad 03 ec bd 9d 96 df bd 9f ed 3f bd
       0.016165141 -0.115241386 -0.10917399 -0.046857473
000290 bf 44 60 bc 03 dc 95 bd 62 4b d1 3d 41 e2 cd 3d
       -0.013688265 -0.073173545 0.10219456 0.1005292
0002a0 02 af e5 bd df e7 37 bd 1a d4 94 3d 46 eb d7 3b
       -0.11215021 -0.044898864 0.07267018 0.006589326
0002b0 dc f0 14 3e ab 78 69 bd a1 d1 ae 3d d8 b0 3d 3e
       0.14545006 -0.056999844 0.08536077 0.18524492
0002c0 74 67 72 3c 16 0c 1a bd c6 8c 49 3d d5 c0 e7 3d
       0.014795173 -0.037609182 0.049206518 0.11316077
0002d0 ce 42 4f bd f7 1d f4 bd cf b0 75 bc a7 af 32 bd
       -0.05060082 -0.11919778 -0.014995768 -0.043624546
0002e0 2a 9f 04 bd 8c c5 e0 ba 30 70 36 3b 68 56 1b 3c
       -0.032378353 -0.0017148717 0.0027837865 0.00948105
0002f0 76 c1 38 3d 07 9d 87 3d 49 9a c1 bd b2 d3 51 3d
       0.045106374 0.066217475 -0.09453256 0.05122728
000300 76 91 8b bd f4 ed bb 3d ec 9a 2a 3d 9a 82 20 3e
       -0.06814854 0.09176245 0.04165165 0.1567482
000310 62 b8 62 3b 79 5a 51 3d fa 26 41 3c 42 60 74 bd
       0.0034594764 0.051111672 0.011789078 -0.05966211
000320 5c 1d 98 3d e0 b0 ba 3b c4 59 af 3d 40 fd 53 3d
       0.07427475 0.0056973547 0.08562043 0.05175519
000330 af 79 88 3b 1a 40 13 bc c2 ee ac bc 55 05 98 bd
       0.0041648964 -0.008987451 -0.021109942 -0.07422892
000340 10 a1 f2 bc 09 8d 74 bc 0f 6f ad bd e0 2a a9 bd
       -0.029617816 -0.0149262035 -0.08468448 -0.08260131
000350 b2 a6 13 3e 45 ff 5a bc 64 1d f7 bb 46 da 0a be
       0.14419058 -0.013366525 -0.0075413454 -0.13559827
000360 fd 08 dc bd 7d ef bc 3d 2b 26 cf 3c bd ea 12 3e
       -0.10743902 0.09225366 0.025286755 0.14347358
000370 0a 65 19 3e 9b 84 ee 3d d9 c8 51 bc e0 85 87 3d
       0.1497995 0.11646386 -0.0128042335 0.066173315
000380 75 ec 42 bd ec d9 58 3d 0f b0 d2 3c 59 26 e0 bb
       -0.047588784 0.0529422 0.025718717 -0.006840509
000390 3c 6e 1a bd 34 63 eb bc 6c 8f 61 bc 24 49 4a bd
       -0.037702784 -0.028733827 -0.013767105 -0.04938616
0003a0 57 c8 74 bc 58 27 24 3e 02 07 0c be 7a ce 05 3d
       -0.014940343 0.16030633 -0.13674548 0.032667615
0003b0 d9 53 b0 bd 02 fa 38 3e 03 98 c8 bd 31 3c 15 be
       -0.08609743 0.1806412 -0.09794619 -0.14573742
0003c0 be e9 08 bc 6f a9 ee bc d9 07 f6 bd 7f 99 b3 bc
       -0.00835651 -0.029133527 -0.120132156 -0.021923779
0003d0 96 bf 0a be a7 7d 15 3d 1f 62 4e bc 87 38 b5 bd
       -0.13549647 0.036496785 -0.012596636 -0.08848672
0003e0 05 4f 32 bd d2 1c aa bd 45 1e 80 bd 5c 30 dc bd
       -0.04353239 -0.08306278 -0.062557735 -0.10751411
0003f0 84 4f 3b bd d4 f3 d7 3d 2e dd 3d 3d dc 05 1e be
       -0.04573013 0.105445534 0.04635351 -0.15431923

weight_hh f4 [512, 128]
000000 72 69 3d bd 7b fe 8f 3d f4 56 e3 3d e1 4d 05 be
       -0.04624314 0.0703096 0.11100569 -0.1301799
000010 57 20 42 3c 50 46 a9 3d 48 31 de bd b2 6a e0 bd
       0.011848531 0.08265364 -0.108492434 -0.109578505
000020 9d ee 14 3d c2 46 26 3d 7b c4 1b be ef 1d 5c bd
       0.03636037 0.040594824 -0.1521167 -0.053739484
000030 13 14 9b 3c b3 5e 7e 3d 6a 6e 8a 3d e8 10 f0 bc
       0.01893047 0.06210203 0.06759341 -0.029304937
000040 62 dd 26 bd 4f d7 db bc 03 98 12 3e 01 1a 58 bd
       -0.04073847 -0.026836066 0.143158 -0.052759174
000050 dc 92 37 3d aa ff a9 3d 2a 42 90 bd e0 3a 0f 3d
       0.04481779 0.08300717 -0.0704387 0.034968257
000060 6a c4 d2 bb 82 1a b0 bd 41 ed 1a 3d e9 c5 8d 3b
       -0.006432106 -0.08598806 0.03782392 0.0043265712
000070 50 35 eb 3c 05 16 b4 3d c5 81 91 3d 0c 61 40 3d
       0.028711945 0.087932624 0.0710483 0.04696755
000080 a9 66 e1 3c 30 f9 84 3c 37 1d 0f ba d1 46 91 3c
       0.027514772 0.016232103 -0.00054593704 0.017733963
000090 08 12 5e bd 3e 9a fe 3d d2 55 ae 3b 86 56 94 3d
       -0.054216415 0.12431763 0.005320289 0.072430655
0000a0 fa bf 9b bd be c8 36 3d 05 f7 34 3d cb 4f b6 3d
       -0.07604976 0.044625036 0.04418089 0.08901938
0000b0 30 22 81 3d f0 df 1e 3b f0 01 39 be f1 ca 2a 3e
       0.06305349 0.0024242364 -0.18067145 0.16678979
0000c0 db a8 28 3e 66 28 ba 3d a8 70 bf bd 01 93 45 3d
       0.16470663 0.09089737 -0.09347659 0.048235897
0000d0 6f c2 1b be 87 d7 71 3d 2c 98 1f 3c fb 5d 25 be
       -0.1521089 0.059043434 0.00974087 -0.16149132
0000e0 20 fe 4e bd 55 3f c6 bc 71 d0 1c 3d a4 62 9a bd
       -0.05053532 -0.024200121 0.038284723 -0.075383455
0000f0 d3 9d e3 bd a1 50 b5 3d 02 2e 2b 3e 5b 92 d8 3c
       -0.11114087 0.08853269 0.1671677 0.026436975
000100 fb 65 c5 bd e5 11 34 be 59 07 50 be 34 17 ce bd
       -0.09638592 -0.17584951 -0.20315303 -0.100630194
000110 42 b3 5e bd d0 8f c3 bc 87 15 f7 bd ea 64 63 3d
       -0.054370172 -0.023872286 -0.12064653 0.05551616
000120 39 68 d8 bc b1 08 4f 3d d2 de 72 3c 88 34 d2 3b
       -0.026416885 0.0505454 0.014823632 0.0064149536
000130 f4 50 bc 3b 8e 93 fa bd b2 c8 d3 bc 60 2a 89 bd
       0.005746955 -0.12235175 -0.025852535 -0.066975355
000140 28 b9 e4 3c d5 39 2f bc 43 bc bd 3d 45 7c 94 bd
       0.02792032 -0.010694941 0.09264424 -0.07250265
000150 36 1e 2a bc a2 ef f5 3c cd b5 e0 bc 03 f8 4a 3c
       -0.010383179 0.030021492 -0.02743044 0.012388232
000160 fd 18 df bd 15 e9 28 3e 03 0d e4 bd 72 e4 24 bd
       -0.10893438 0.16495164 -0.11135294 -0.040256925
000170 bb fe 06 3e f8 a7 a1 bd aa dd c7 bc 0b e1 92 3d
       0.1318311 -0.078933656 -0.02439769 0.0717183
000180 1a ac 42 bc 8d 52 0c bd 2e e0 45 3e ce 18 11 3e
       -0.0118818525 -0.034258414 0.19323799 0.14169618
000190 5b a1 0f 3e 89 ba 93 3e 0c ae 02 be d9 98 6e 3d
       0.14026396 0.28853253 -0.12761706 0.058251236
0001a0 0f d9 9a bd ed 75 8d bd 08 67 4b be 37 10 10 3e
       -0.07560932 -0.06907258 -0.19863522 0.14068685
0001b0 bf cd 10 3a 40 52 9b 3d 21 0e 67 3b 69 1d 7f 3b
       0.00055238226 0.07584047 0.0035256224 0.0038927442
0001c0 f6 eb 66 3d 88 1f ec bc 8a 78 f9 3d 22 f3 29 3e
       0.056377374 -0.028823629 0.12181194 0.16596654
0001d0 04 b4 01 3e c2 44 db 3d e2 48 1c 3d fa f5 5f 3d
       0.12666327 0.10706474 0.038155444 0.05467794
0001e0 27 d8 6f bd 54 ad 04 3d 00 5a 6b bd fc 82 7d 3c
       -0.05855575 0.03239186 -0.057458878 0.015473124
0001f0 e3 77 10 bd 3d eb d4 3d 29 7a cf bc 9c ed 04 bd
       -0.035270583 0.10396431 -0.025326805 -0.032453164
000200 47 1b 53 3d f8 2e 00 bd 9e 27 a7 bc a4 42 06 bd
       0.051539686 -0.031294793 -0.020404633 -0.032778397
000210 ac fb 47 bc c9 08 00 3d 53 39 ae 3d 1d 9a 1c bd
       -0.012205999 0.03125838 0.085070275 -0.03823291
000220 c8 5e a0 bd 61 bf 12 bd 87 45 31 3d 44 d9 cf 3c
       -0.07830578 -0.035827044 0.043279197 0.025372155
000230 bc db e9 3d 44 fe 8d 3d 16 e2 10 3e 9b 83 2d bb
       0.11418864 0.06933263 0.14148745 -0.0026476148
000240 1d 85 2c 3d 9a 31 ff 39 4d 60 13 3c 4b 93 11 3e
       0.042119134 0.00048674346 0.008995128 0.14216344
000250 11 11 52 3c ba a4 b8 3d 39 e7 c1 bc 6c 38 84 bd
       0.012821452 0.09015794 -0.023669826 -0.06456074
000260 b6 3d bb bb c8 5f 7d bd f6 dc 8c 3c 65 a2 0a 3e
       -0.0057141436 -0.061858922 0.017195206 0.13538511
000270 32 17 dc bb a0 ea 19 3d ab 3b 22 3d 8f 6e 43 3d
       -0.0067166323 0.03757727 0.039607685 0.04771286
000280 9a 83 f6 bc c3 48 e7 bd cd d6 35 bd 09 a5 9d bd
       -0.03009205 -0.11293175 -0.044394303 -0.076974936
000290 5e d5 c9 bc ee bf 01 be 29 f8 59 bd 8e 41 7a bc
       -0.024637874 -0.12670872 -0.05321518 -0.0152744185
0002a0 2a 95 08 bd 58 27 51 bc aa ea c0 bd f6 23 d2 3d
       -0.03334538 -0.012765728 -0.094197586 0.10260765
0002b0 7f 03 9a ba 2a c0 98 3d 8f 98 46 bd cb 28 b2 bc
       -0.001175031 0.074585274 -0.048485335 -0.021747967
0002c0 6b 64 44 bd ff 37 f3 3d c2 cc 92 3d f7 07 14 3e
       -0.04794733 0.11875915 0.07167961 0.14456163
0002d0 4c 69 78 bd c9 dc 1e be 30 f5 77 bd 99 02 b3 bc
       -0.060647294 -0.1551391 -0.060536563 -0.021851825
0002e0 52 ec 21 3d 56 c8 1a be 07 b7 ce 3c 07 92 8b bd
       0.039532013 -0.15115485 0.025233759 -0.06814962
0002f0 56 7e 4d 3d 94 41 ea bd 1a ce 7b 3c ad d1 f4 bb
       0.05016931 -0.11438289 0.015368963 -0.0074712844
000300 d6 c7 c3 3d f7 3c e8 bd a4 d7 22 bd 9c 03 89 bd
       0.095596 -0.11339753 -0.039756432 -0.066901416
000310 bb 84 ea 3c 02 32 7f bd a8 30 68 bd b3 e0 8e 3d
       0.028627744 -0.06230355 -0.056687027 0.06976452
000320 5a 06 1b bc 8b c5 8b bd 0b 2c fe 3c d0 2d da 3d
       -0.009461964 -0.06824788 0.03102686 0.10653269
000330 52 cb 7a bd e0 6d 25 3d 03 ec 1b 3e ee e6 c2 bb
       -0.061229058 0.040387988 0.1522675 -0.005947939
000340 d3 1c 68 3d c3 f3 3c 3d 7b 14 a9 3c 0e a0 ab bd
       0.056668114 0.046130907 0.020639649 -0.083801374
000350 5b d9 40 be f0 23 c5 bd 2c a3 04 3d fc 8e b2 bc
       -0.18832915 -0.09625995 0.032382175 -0.021796696
000360 8e 0a 06 bd 35 77 9d 3b 43 3a 12 be 81 8a 44 3d
       -0.03272491 0.0048054704 -0.14280038 0.04798365
000370 2c c5 e3 bc 28 03 e0 3c 50 96 59 bd b4 2d 10 3c
       -0.02780398 0.027345255 -0.053121865 0.008799959
000380 3f 6e cb bd 88 51 88 ba d0 71 f0 39 81 de 54 3d
       -0.09933137 -0.0010400275 0.00045861164 0.05197001
000390 97 9a 66 3d 31 2e bb 3c 4d f5 83 3d 09 0e c0 bc
       0.056299772 0.022849174 0.06443272 -0.023444192
0003a0 e7 1f 4f 3c 51 81 b4 3d d4 8f 8b 3d 29 c1 bd 3d
       0.012641883 0.08813728 0.068145424 0.09265358
0003b0 9d a1 d1 bc b5 b4 c3 bd ac 18 a6 bd e4 23 e3 bd
       -0.025589759 -0.095559515 -0.081101745 -0.1109083
0003c0 20 b4 23 3c 76 89 91 3c 22 c8 07 3d d0 76 7a bd
       0.009991676 0.017765742 0.033149846 -0.061148465
0003d0 8b 8c e7 bd 01 8c 26 3d 9c 4f 9d 3d 51 a1 9c 3d
       -0.11306103 0.040660862 0.076812 0.07647956
0003e0 9d a5 f0 3d 81 6d 25 3c be 41 fe bc 4b e6 f1 3c
       0.11750338 0.010096909 -0.031037208 0.029528758
0003f0 05 0d 98 bb a9 0c 30 bd d5 09 40 bd 0f 78 a7 bc
       -0.004640224 -0.042980824 -0.046884377 -0.02044299

bias_ih f4 [512]
000000 01 51 63 3e ad 79 05 3e c3 10 c4 3d db dc af 3d
       0.2219887 0.13034697 0.095735095 0.08587047
000010 52 17 a3 3d e3 8c 90 bc 6a 64 06 ba 28 4d 38 3e
       0.07963432 -0.017645305 -0.0005126657 0.17998183
000020 31 90 21 3e cd 98 7d 3e 50 71 e6 3d 10 65 7b 3e
       0.15777661 0.2476532 0.112520814 0.24550271
000030 7b 04 0d 3d a0 6c 6e 3d cb 47 9e 3e a9 d8 00 3e
       0.0344281 0.05820906 0.3091415 0.1258265
000040 bc a3 b0 3d 94 5b 41 3e 34 df bf 3d 74 e8 9e 3e
       0.0862498 0.1888259 0.093687445 0.31036723
000050 a7 b3 51 3e c3 c2 26 3e 24 28 0c 39 d8 f1 09 3e
       0.20478688 0.16285233 0.00013366394 0.13471162
000060 13 ce 18 3e 48 15 66 3e de 26 7c 3d a7 a0 36 3d
       0.14922361 0.22469056 0.061560504 0.044586804
000070 49 8b 05 3d f2 c1 4c 3e 70 6e a3 3d da e3 65 3d
       0.032603536 0.1999586 0.07980049 0.0561255
000080 dd 59 be 3c bf 03 4d 3e d8 45 3d 3d cf 7b d9 3d
       0.02323621 0.2002096 0.046209186 0.10619318
000090 01 82 0b 3d 82 a9 49 3e 21 96 c4 3d 6e a8 16 3e
       0.03405953 0.19693568 0.09598947 0.14712688
0000a0 52 a8 66 3e 05 ce 77 3d a6 cf dd 3d 33 8d 61 3d
       0.22525147 0.06049921 0.108306214 0.0550663
0000b0 4b be 01 3e 91 df 45 3e 63 55 6c 3e bf db 36 3e
       0.12670247 0.19323565 0.23079447 0.17857264
0000c0 6a d0 9a 3e b6 bc d5 3d 9b 37 36 3e 2d 1c e1 39
       0.30237132 0.104363844 0.1779465 0.00042936337
0000d0 3d 25 14 3e 79 a6 bb 3d 30 54 de 3c 37 31 3d bc
       0.1446733 0.091626115 0.027139753 -0.011547378
0000e0 9f d0 1b bc e3 fc fc 3d 16 31 b4 3d ef ba ad 3d
       -0.009510188 0.12352922 0.08798425 0.084829204
0000f0 9c 44 00 3e b5 7b 2c 3e 44 68 04 3e 74 a9 2a 3d
       0.12526172 0.16844065 0.12930399 0.04166551
000100 c2 72 90 3c ca 89 74 3d 91 9c 94 3d 86 08 80 3e
       0.017632846 0.05970172 0.07256425 0.25006503
000110 77 8b ad 3d 8c ad a5 3e cc db a4 3d 23 22 0c 3e
       0.084738664 0.32358968 0.080497354 0.13684897
000120 4f 30 55 3d 8d 17 2a 3e 74 99 71 3c e1 ea 04 3c
       0.052048024 0.16610546 0.014746059 0.00811264
000130 75 7b 98 3e da ec a8 3d 52 11 04 3e 10 e5 35 3e
       0.2978169 0.08248301 0.12897232 0.17763162
000140 c8 a7 64 3e a3 11 29 3d 1d c2 a6 3d 6c 13 08 3e
       0.22329628 0.041276585 0.08142493 0.13288659
000150 2b 4e 35 3d 5a d0 a3 3d ea 8c 37 3d 4e 91 3c 3d
       0.044264 0.07998724 0.04481212 0.04603701
000160 62 28 69 3d b7 a3 17 3e 96 95 d0 3d f4 84 92 3d
       0.056923278 0.14808546 0.10184781 0.07154265
000170 71 b9 5d 3d e4 c0 15 3e 8b b9 b9 3d f7 3c 9f 3e
       0.05413193 0.14624363 0.09068593 0.311012
000180 c9 f7 cd 3b 98 66 3a 3d 29 7f a1 3d 79 11 1d 3e
       0.006285642 0.045507997 0.07885582 0.15338697
000190 48 bf c5 3e 15 89 9f 3d cf c6 2c 3d 10 4a 6f bd
       0.386225 0.07789818 0.042181786 -0.05842024
0001a0 e6 f2 56 3e 62 e2 04 3e b6 9a 81 3e 6b 9c 23 3e
       0.20991096 0.12976983 0.25313348 0.15977637
0001b0 fb e7 5a 3e 2f 0e e2 3d 72 4b c7 3c 6e 8a 41 3e
       0.21377556 0.110378616 0.024327967 0.18900463
0001c0 1c 0d 7e 3e 67 a9 8b 3e c4 58 e0 3d dc cb 1b 3e
       0.24809688 0.2727768 0.10954431 0.15214485
0001d0 bd 33 3e 3e 71 12 03 3e 00 00 49 3e 44 1e 2b 3e
       0.18574424 0.12800004 0.19628906 0.16710764
0001e0 d1 10 74 3e 28 c1 03 3e 56 d8 4a 3d a0 fb 59 3e
       0.2383454 0.12866652 0.04952272 0.21287394
0001f0 17 a4 c2 3d 67 82 88 3d 31 4d fb 3c ad 91 fc 3d
       0.09503954 0.06665497 0.030676456 0.12332473
000200 25 4c 00 bd 00 d2 9c bb 3e 6f d6 3c 1c 19 58 3b
       -0.031322617 -0.004785776 0.026176091 0.003297395
000210 40 03 3b bd 08 8c 05 bd 47 d9 9a 3a ab 4d a3 3d
       -0.045657396 -0.032604247 0.0011814021 0.07973798
000220 85 64 bf bd f6 d2 1d be 2a e6 11 bd 36 d6 db bd
       -0.093453445 -0.15412506 -0.035619892 -0.10734217
000230 33 0a 32 bd cf da 9d bd ed cd f1 bd 58 39 d9 bd
       -0.043466758 -0.0770775 -0.11806855 -0.106066406
000240 6a a1 7d 3d a8 f8 c1 bc 92 ab 17 bd 9d c2 2b 3b
       0.061921515 -0.023678139 -0.037028857 0.0026208528
000250 9f d7 9d bd f4 b5 36 3d d5 c5 b0 3c f5 de 08 be
       -0.07707142 0.044607118 0.021578709 -0.13366301
000260 9f 46 62 3d f0 c7 81 bc ba 11 5a 3c aa b7 c6 3c
       0.05524313 -0.015842408 0.01330989 0.0242575
000270 18 4c 82 bc bf 51 02 3c d7 5c e3 bd 33 9d c6 3d
       -0.015905425 0.00795406 -0.11101692 0.09697952
000280 ae 03 70 bd 70 8a 5e bd 74 23 24 be 02 49 4b bc
       -0.05859726 -0.054331243 -0.1602915 -0.012407543
000290 a5 21 82 bc 4a 6c 19 3d 5c 4d 8c 3c 4c 8f 0e be
       -0.015885184 0.037456788 0.017126732 -0.13921851
0002a0 29 c3 c3 bd 81 91 98 bc ed 93 11 bc 06 40 17 3d
       -0.09558708 -0.01862407 -0.008885366 0.036926292
0002b0 7a b4 97 bd 4e f5 bf bd 1f 73 cf bb 05 35 90 bd
       -0.0740747 -0.0937296 -0.006330862 -0.07041363
0002c0 11 7f 39 bd c2 3d bc bd 58 86 8b bd b7 2f ff 3c
       -0.045287196 -0.09191467 -0.068127334 0.031150682
0002d0 a7 ee 33 3c 60 23 82 bd 2d 47 31 3d d8 78 ac bd
       0.010982192 -0.063544035 0.04328077 -0.084214866
0002e0 0a bb 1d bd b7 a5 8a 3d 2e 85 fb bd c8 e9 1d 3d
       -0.038508452 0.06769889 -0.122812614 0.03855303
0002f0 ef 95 02 bb 2e ab fc bd fe 7b cb 3c 45 da 1c 3d
       -0.0019925793 -0.123373374 0.024839398 0.038294096
000300 f6 7e a8 bd 74 03 8e bc c7 ba de bd 53 7c c6 bd
       -0.08227341 -0.017335631 -0.10875469 -0.09691682
000310 36 15 a5 3d 5e 05 f0 bd c4 bd a3 3c 5b 37 1e 3d
       0.08060686 -0.11719774 0.019987948 0.03862701
000320 7f 74 5c 3c 90 b2 fe bc 12 db 35 3d 8d 15 bd bc
       0.013455509 -0.031091005 0.044398375 -0.023081565
000330 f8 f6 ee bb 17 e6 69 3d 33 80 ca bd b8 f8 01 be
       -0.0072926246 0.057104196 -0.09887733 -0.12692535
000340 be b6 a5 bc fd d7 78 bd ad 80 6f 3d 2b ce 3f bd
       -0.02022874 -0.060752857 0.058472324 -0.046827476
000350 3e 85 7b bc ae fb ef bb 22 0d 8f bb 93 15 72 bc
       -0.015351592 -0.0073237037 -0.004365579 -0.0147756515
000360 1e 47 c1 bc ff 18 8e 3c e9 62 e6 bd da 1d 14 bd
       -0.023593482 0.017345903 -0.11249334 -0.03616128
000370 be 76 6c bd ba 56 62 bd ad 03 00 3d a1 18 b3 bd
       -0.05773043 -0.05525849 0.031253505 -0.08744932
000380 50 af 5e bd 6b 12 c5 3b ce 9d 9c bc 62 0f e3 bd
       -0.05436641 0.0060141585 -0.019118216 -0.110869184
000390 ad 2d 81 bd df 48 44 3c 9d 69 ce bd 50 fb 67 39
       -0.0630754 0.011980264 -0.10078738 0.00022123498
0003a0 9b 34 1c be a7 e1 fe 3d 9a e6 50 39 08 2d 7e bd
       -0.15254442 0.124453835 0.00019922332 -0.062054664
0003b0 6b 46 1d be 18 1b dc bd d7 52 c3 3b 7d a6 8e bd
       -0.15358894 -0.10747355 0.005960803 -0.06965349
0003c0 d6 12 8e bd de 11 07 bb 58 e9 4b bd 59 e4 fb bd
       -0.069371864 -0.0020610015 -0.04978308 -0.12299413
0003d0 c4 c2 84 bd 06 4c c7 3c cc 81 b7 bb 9f 9a 7b bd
       -0.06482461 0.024328243 -0.00560019 -0.061426755
0003e0 a0 a7 f4 bc a6 e0 60 bc 1d de 09 bd ad 0a 41 bd
       -0.029865086 -0.013725435 -0.03365909 -0.04712932
0003f0 11 81 01 be 8c 57 b9 3b cb 47 ec bd 5f 56 14 3c
       -0.12646891 0.0056561884 -0.11537131 0.009053796
