logs/dive_rp_vary_oracle/5/actor.pt (torch, 879410 bytes, 17 tensors)

weight_ih f4 [512, 35]
0	0x3cb8be71	0.022551747
1	0x3e066116	0.13122973
2	0xbde22fa4	-0.11044243
3	0xbdde0476	-0.108406946
4	0x3ddc76b6	0.1076483
5	0x3d52def4	0.051482156
6	0xbcbc05ee	-0.022952046
7	0x3df4635b	0.11933013
8	0xbc049e7a	-0.008094424
9	0x3d403224	0.046922818
10	0x3d39d711	0.04537112
11	0xbdd37033	-0.10324135
12	0xbd82ca67	-0.063862614
13	0xbdf73497	-0.120705776
14	0x3d275bc5	0.040859003
15	0x3b772059	0.003770849
16	0x3ce13054	0.027488865
17	0x3e5c48b8	0.21512115
18	0x3de0d515	0.10978142
19	0xbe01a117	-0.12659107
20	0x3e92113b	0.2852877
21	0x3caa0977	0.020756466
22	0xbe3d6e83	-0.18499188
23	0x3d4a14d6	0.049336277
24	0x3c9a4100	0.018829823
25	0x3d7c1d70	0.06155151
26	0x3e106114	0.14099532
27	0xbecfb7df	-0.4056997
28	0x3b466081	0.0030269923
29	0xbcc5dcaa	-0.024153072
30	0x3bfbf081	0.0076885824
31	0x3d60a4d7	0.054844704
32	0xbd80af54	-0.06283441
33	0xbd7282a6	-0.059206627
34	0x3c6df80d	0.014524472
35	0xbd99931b	-0.07498761
36	0xbcd30273	-0.025758004
37	0x3d6da65d	0.058019985
38	0x3d8f9d36	0.070124075
39	0x3c3d65ca	0.011559913
40	0x3da3419d	0.07971499
41	0xbd128245	-0.035768766
42	0x3d81682c	0.06318697
43	0xbe354d89	-0.17705359
44	0xbe2f7028	-0.17132628
45	0x3d68a70c	0.056799933
46	0x3b1fbfc6	0.002437578
47	0x3df095bf	0.11747312
48	0xbe0ea3fd	-0.13929744
49	0xbdfedacd	-0.12444077
50	0x3d8b9247	0.068150096
51	0x3e153b54	0.14573413
52	0x3e1ad941	0.15121938
53	0xbc3a8a01	-0.011385442
54	0x3e2d62c7	0.16932212
55	0x3d9bb0d2	0.07602085
56	0x3dc6967b	0.096966706
57	0xbb845206	-0.0040380983
58	0xbdf39c38	-0.11895031
59	0xbe157cfb	-0.14598458
60	0xbc86a04b	-0.016433856
61	0x3d9cb609	0.07651908
62	0x3cf5017b	0.029907933
63	0x3db62317	0.088934116
64	0x3cf714b7	0.030161245
65	0xbe0a7d90	-0.13524461
66	0x3d3411dd	0.04396235
67	0xbd14eb81	-0.036357407
68	0x3d8bb10b	0.06820878
69	0x3e0d8c5c	0.13823074
70	0xbd905768	-0.070479214
71	0x3cefc446	0.029268395
72	0xbc64e0ff	-0.013969659
73	0x3b8d522c	0.004312774
74	0x3d183dfe	0.037168495
75	0x3d1e1e16	0.03860291
76	0x3a4e4195	0.0007868049
77	0x3d334491	0.043766562
78	0x3c0e732e	0.008694453
79	0xbdd5403e	-0.10412644
80	0xbdaf1dc7	-0.085506015
81	0x3b4a8e44	0.003090755
82	0x3e5f48d0	0.2180512
83	0xbda22008	-0.07916266
84	0x3d0b158b	0.03395609
85	0xbc676f94	-0.014125723
86	0x3c60c243	0.013718191
87	0x3dd52348	0.1040712
88	0x3c65eca4	0.01403347
89	0xbdb2c766	-0.087294385
90	0x3db77e71	0.08959664
91	0x3dc56bf3	0.0963973
92	0x3d84c7ef	0.06483447
93	0x3e2bc0ad	0.16772719
94	0xbe3adeb3	-0.18249016
95	0xbe018908	-0.1264993
96	0x3c077e82	0.008269908
97	0xbbda735e	-0.006666585
98	0x3ce8deda	0.028426576
99	0xbe0ab6c8	-0.13546288
100	0x3d7a71da	0.061143734
101	0xbbcc8381	-0.0062412624
102	0xbc21245b	-0.009835328
103	0xbe2c687b	-0.16836731
104	0x3c565608	0.013082035
105	0xbbb0a829	-0.00539114
106	0xbccdd6af	-0.025126783
107	0xba59ce50	-0.0008308636
108	0xbd49602a	-0.049163975
109	0x3dd5f01f	0.1044619
110	0x3c82fdf8	0.015990242
111	0x3d5bb563	0.05363978
112	0xbd3a1c3f	-0.045437094
113	0x3e2d2fbd	0.16912742
114	0x3dabe698	0.08393592
115	0xbc9250da	-0.017860819
116	0xbdd83e74	-0.10558787
117	0xbd6d7d80	-0.057981014
118	0x3e03cfd7	0.12872253
119	0x3d2b6fed	0.041854788
120	0xbab55352	-0.0013834035
121	0xbcb52b51	-0.022115381
122	0xbde137f7	-0.109970026
123	0x3ea6c886	0.32574862
124	0xbe64ab22	-0.22330907
125	0x3d31b1cb	0.043382447
126	0x3da417d0	0.080123544
127	0xbe44abbd	-0.19206138
128	0x3da31b62	0.07964207
129	0xbe0f9bcf	-0.1402428
130	0x3c7234cb	0.014783095
131	0x3d382741	0.04495931
132	0xbe8952bd	-0.26820937
133	0x3d6e33d0	0.05815488
134	0x3d059bc0	0.032619238
135	0x3d40481d	0.046943773
136	0xbe43081d	-0.19046064
137	0xbc49c9ca	-0.012316177
138	0x3d3e7cd8	0.04650578
139	0x3d7f390f	0.062310275
140	0x3e27d197	0.16388546
141	0x3d80ad15	0.06283013
142	0x3dac56df	0.08415007
143	0x39df2d7c	0.00042567763
144	0xbe29a4af	-0.16566728
145	0xbc397cda	-0.011321271
146	0x3e0c37c7	0.13693152
147	0xbda2e12d	-0.07953105
148	0x3d6228bc	0.05521463
149	0xbc43b851	-0.0119458
150	0xbdff148b	-0.1245509
151	0xbd758854	-0.059944466
152	0xbe0aa10d	-0.13537998
153	0x3e49b301	0.19697191
154	0xbc3e43ef	-0.011612876
155	0xbd586603	-0.05283166
156	0xbc102c72	-0.008799659
157	0x3d048538	0.03235361
158	0xbd01f914	-0.03173168
159	0xbdd8d115	-0.10586754
160	0xbc981633	-0.018565273
161	0xbd5cd134	-0.05391045
162	0x3d8f86db	0.070081435
163	0xbdefb3d9	-0.11704225
164	0xbd0312be	-0.032000296
165	0x3d9efba3	0.0776284
166	0xbd3e8a64	-0.0465187
167	0x3d22b1f8	0.039720505
168	0xbdd6be7a	-0.10485549
169	0x3c7eef83	0.015560034
170	0x3d8948c5	0.06703333
171	0xbcbb3593	-0.022852695
172	0x3d0bbf4a	0.034117974
173	0x3e1934c7	0.14961539
174	0xbdd82def	-0.10555636
175	0x3cbc8bfe	0.023015972
176	0x3d9124ee	0.07087122
177	0xbd3adee7	-0.045622732
178	0x3dd3d62b	0.10343584
179	0xbdc51bdb	-0.09624454
180	0x3df73f71	0.12072647
181	0x3e038a70	0.12845778
182	0x3d4247e6	0.04743185
183	0x3d742ca7	0.059612896
184	0xbd56317f	-0.052293297
185	0x3e0b0d38	0.13579261
186	0xbe1b033b	-0.15137951
187	0xbdf6e605	-0.120555915
188	0xbdee296a	-0.11628993
189	0xbc283cf6	-0.0102684405
190	0x3de3d5dc	0.11124775
191	0x3e2d6353	0.1693242
192	0x3bc74b6f	0.0060819904
193	0xbd4c5644	-0.049886957
194	0xbe66a8fc	-0.225254
195	0x3e8d04b4	0.2754265
196	0xbc90c79e	-0.01767331
197	0x3dd5670a	0.10420044
198	0x3d84d3ad	0.064856865
199	0x3d557406	0.0521126
200	0x3d43dafa	0.047816254
201	0x3dbffec4	0.093747646
202	0xbd91f277	-0.071263246
203	0x3d71e023	0.059051644
204	0x3c51c9fa	0.012804503
205	0x3d9e86cf	0.077405564
206	0xbdee37c4	-0.1163173
207	0x3dd57cc6	0.10424189
208	0x3cd9061c	0.026492171
209	0x3e1a301c	0.15057415
210	0x3d8e7fd7	0.06957977
211	0xbc05859a	-0.008149529
212	0xbe0e9f90	-0.13928056
213	0xbdf802cf	-0.12109911
214	0x3eba7fc6	0.36425608
215	0xbdb9114f	-0.090365045
216	0x3d3c20f3	0.04592986
217	0xbc28d74c	-0.010305237
218	0x3d944a44	0.072407275
219	0xbd66c5fb	-0.056341153
220	0xbe03cd68	-0.12871325
221	0x3de93887	0.11387735
222	0x3e131a82	0.1436558
223	0xbd01d961	-0.03170145
224	0xbe0550e9	-0.13019146
225	0xbb0d3b52	-0.002155025
226	0xbec697ae	-0.38787597
227	0x3d0c1a6e	0.034204893
228	0x3e6a064d	0.22853966
229	0x3d2e8832	0.042610355
230	0xbee34eb5	-0.44395986
231	0x3d671a33	0.05642147
232	0xbdc09ee1	-0.09405304
233	0x3d9009f4	0.070331484
234	0xbc8eaf74	-0.017417647
235	0xbd369e28	-0.044584423
236	0x3c320d89	0.010867485
237	0xbe267c26	-0.16258296
238	0xbe070d54	-0.13188678
239	0xbe0d5b2f	-0.13804315
240	0x3d253c17	0.04034051
241	0x3b41ae0e	0.0029553208
242	0xbd2da4c5	-0.042393465
243	0xbcae23e5	-0.02125735
244	0x3e0c18be	0.13681313
245	0xbdb9b5d0	-0.09067881
246	0x3cd65cd0	0.026167303
247	0x3c70e221	0.014702351
248	0x3e37d281	0.17951395
249	0x3def6fd9	0.11691255
250	0xbc9f081a	-0.019413043
251	0xbcdc9a44	-0.026929028
252	0xbd11e930	-0.035622776
253	0x3ce54407	0.02798654
254	0xbd2a7a3f	-0.04162049
255	0xbdc7e422	-0.0976031

weight_hh f4 [512, 128]
0	0xbde044d8	-0.10950631
1	0xbdf2dc09	-0.118583746
2	0xbbc80545	-0.006104144
3	0xbcff35aa	-0.031153519
4	0xbd95bbef	-0.07311236
5	0xbd3e65f9	-0.046483967
6	0x3dca15c2	0.09867431
7	0xbdaa8b0b	-0.083273016
8	0x3d4fc561	0.050725345
9	0xbc1bc668	-0.009507753
10	0xbb5fc1dd	-0.003414265
11	0x3cb6c1c0	0.022309184
12	0xbe195f47	-0.14977752
13	0xbd873fd2	-0.0660397
14	0xbc72fc05	-0.014830594
15	0xbd52f597	-0.051503744
16	0xb9ba0eac	-0.00035487616
17	0xbb18313e	-0.002322271
18	0x3d94aaa2	0.07259108
19	0xbc486dc3	-0.0122332005
20	0xbdf5c9a6	-0.12001352
21	0xbcccfdca	-0.02502336
22	0x3d416299	0.04721317
23	0xbc973912	-0.01845983
24	0x3cb7003b	0.022338977
25	0x3dac0605	0.08399586
26	0xbd90764e	-0.07053815
27	0x3de37f17	0.11108225
28	0xbd904d97	-0.07046049
29	0xbce85824	-0.028362341
30	0x3d7bfc4e	0.061519913
31	0xbdad6132	-0.08465804
32	0xbcd34ca8	-0.025793388
33	0xbdea99e1	-0.11455131
34	0x3d8e801c	0.06958029
35	0xbd1713e8	-0.03688422
36	0x3b2dfa38	0.0026546847
37	0xbc7af180	-0.015316367
38	0x3c8b573e	0.017009374
39	0x3d195757	0.03743681
40	0xbc67de76	-0.01415216
41	0xbd4f5572	-0.050618596
42	0xbd89d885	-0.06730751
43	0x3cc6592a	0.024212439
44	0x3d3531ea	0.044237055
45	0xbd9c7ea4	-0.07641342
46	0xbd539be5	-0.051662344
47	0x3d662304	0.056185737
48	0xbd91a5f2	-0.0711173
49	0x3d918ede	0.07107328
50	0x3ddd5287	0.108067565
51	0x3bbacfdc	0.0057010483
52	0x3d52544a	0.051349916
53	0x3d9580f5	0.07299987
54	0x3d0a08bc	0.033699736
55	0x3ba01119	0.0048848507
56	0xbd047c4d	-0.032345105
57	0xbd818fcf	-0.063262574
58	0xbb8bf775	-0.0042714425
59	0xbd9f463c	-0.07777068
60	0xbc67bb74	-0.014143813
61	0x3d88299c	0.06648561
62	0x3d932eb7	0.071866445
63	0xbda61f82	-0.081114784
64	0xbd7b2e59	-0.061323497
65	0xbca63322	-0.020288054
66	0x3d8351ae	0.064120635
67	0x3da2ba7a	0.07945724
68	0x384925f8	4.7957496e-05
69	0x3c814b7e	0.015783068
70	0xbc9a74cd	-0.018854523
71	0x3c792fd8	0.015209161
72	0x3d5d39e8	0.0540103
73	0xbd69a873	-0.05704541
74	0x3d29d6ea	0.041464724
75	0x3c962daa	0.018332321
76	0xbe01d37a	-0.12678328
77	0x3c87a4b5	0.01655803
78	0x3b1ed7f0	0.0024237595
79	0x3d3de62b	0.046362083
80	0x3d9776a2	0.07395674
81	0x3b21899e	0.0024648677
82	0x3d566eb2	0.05235166
83	0xbcc3fec7	-0.023925198
84	0xbd300425	-0.042972703
85	0x3d861088	0.06546122
86	0x3e31889d	0.1733727
87	0x3d501a9e	0.050806634
88	0xbdc034e6	-0.093850896
89	0xbd3f0c8c	-0.046642825
90	0xba795d04	-0.00095124566
91	0x3c2abc1d	0.010420826
92	0x3d933054	0.07186952
93	0xbdd0468d	-0.101697065
94	0xbda1287b	-0.07869049
95	0xbdd79d6b	-0.10528072
96	0xbcb2975d	-0.021800691
97	0xbcff9d2f	-0.03120288
98	0x3d5a3cd7	0.053280678
99	0xbc3f2b6f	-0.01166807
100	0x3d06055f	0.032719966
101	0x3d0f13ce	0.034930997
102	0x3dce54dd	0.1007478
103	0xbdf06bcb	-0.1173931
104	0xbce9d994	-0.028546132
105	0xbd73588b	-0.059410613
106	0x3d76f202	0.06028939
107	0xbe2dae9a	-0.16961136
108	0xbc8285d3	-0.015932953
109	0xbd9745a5	-0.073863305
110	0x3d43d98d	0.047814894
111	0xbd526037	-0.05136129
112	0xbca2523a	-0.0198146
113	0xbdaabca9	-0.08336765
114	0x3d6f94c6	0.05849149
115	0x3d9d3db9	0.07677788
116	0xbbc48f09	-0.0059984964
117	0x3c3a2fe7	0.01136396
118	0x3d4f8dd8	0.050672382
119	0xbcd3a95b	-0.02583759
120	0x3d4b9754	0.049704865
121	0x3cf3363c	0.029688947
122	0xbd49d86d	-0.049278665
123	0x3bd64d0b	0.006539946
124	0x3cd92357	0.02650611
125	0x3c82da52	0.015973244
126	0x3d0b6506	0.03403189
127	0x3d16c341	0.036807302
128	0xbcae0625	-0.021243164
129	0xbbae8736	-0.005326177
130	0x3d41bf55	0.04730161
131	0xbdd17b87	-0.10228639
132	0xbd42bd65	-0.047543902
133	0x3db8235e	0.08991121
134	0x3c0eaff0	0.008708939
135	0xbe4c67b4	-0.19961435
136	0x3de74ada	0.11293574
137	0x3d7ea1ee	0.062166147
138	0x3db4d11c	0.08828947
139	0x3d030a7a	0.031992413
140	0x3cd94a8f	0.02652481
141	0xbd450c2b	-0.048107307
142	0x3dbf681d	0.0934603
143	0x3d4473ee	0.04796212
144	0xbd5c27f2	-0.053749032
145	0xbc82d26e	-0.015969481
146	0x3da731a7	0.08163767
147	0x3d4bab93	0.049724173
148	0xbd992ff4	-0.074798495
149	0x3d839da1	0.0642655
150	0x3a1de2be	0.0006022862
151	0xbd6e785f	-0.058220264
152	0x3d818103	0.06323435
153	0x3d1ee2b7	0.03879043
154	0x3d7a7b22	0.061152585
155	0x3d421e12	0.04739196
156	0x3d42228d	0.04739623
157	0xbcfa1c70	-0.030531138
158	0x3d7e8cb1	0.062145893
159	0x3c7ea1c5	0.015541499
160	0xbd6cb111	-0.05778605
161	0xbda65d2b	-0.08123239
162	0x3cb22315	0.021745244
163	0xbdba5ee6	-0.09100132
164	0xbdc6d7f0	-0.097091556
165	0xbca8a7e2	-0.020587865
166	0x3e2e0d37	0.16997229
167	0xbe0849e2	-0.13309434
168	0x3a7bf9c6	0.0009612109
169	0xbdc3c5fb	-0.09559246
170	0xbd843257	-0.06454914
171	0xbdb7fdd8	-0.08983964
172	0xbddbf26e	-0.10739599
173	0x3d9b9733	0.07597198
174	0x3c8fe2b1	0.01756415
175	0x3e080e04	0.13286597
176	0xbda00de2	-0.07815148
177	0xbd50c96c	-0.05097334
178	0xbd09695b	-0.03354774
179	0x3db36744	0.08759931
180	0x3d01ead3	0.031718086
181	0xbc41ab1f	-0.011820584
182	0xbbf824d9	-0.007572752
183	0x3d8536f6	0.065046236
184	0x3defe299	0.11713142
185	0xbe00bcc2	-0.12572005
186	0x3d27e647	0.040991094
187	0x3d3a4668	0.0454773
188	0x3c2ec9f0	0.010668263
189	0xbd6a786d	-0.057243753
190	0xbdf2efe6	-0.11862163
191	0xbce26e80	-0.027640581
192	0xbe15aa25	-0.14615686
193	0x3b6e316f	0.0036345383
194	0x3ca67109	0.020317571
195	0xbd8cbfa9	-0.06872494
196	0x3dbc9253	0.09207597
197	0x3c7eea48	0.015558787
198	0x3cb83b80	0.02248931
199	0xbd0598e6	-0.03261652
200	0x3cedb723	0.02901799
201	0xbd87fda8	-0.06640178
202	0x3b8a6ae2	0.004224167
203	0x3c2ef457	0.010678372
204	0xbe043b37	-0.12913214
205	0x3cd19d6b	0.025587758
206	0xbd99dcda	-0.07512827
207	0xbd2bc58e	-0.04193645
208	0xbd9cb2ff	-0.07651328
209	0xbd0799dc	-0.033105716
210	0x3c11a374	0.008889068
211	0x3d068c67	0.03284874
212	0x3bd37255	0.0064528384
213	0xbc93445f	-0.017976938
214	0xbd8da73d	-0.06916664
215	0xbda626e4	-0.081128865
216	0xbd9a9f19	-0.07549877
217	0x3d467901	0.048455242
218	0x3e3571c2	0.17719176
219	0x3d9a0680	0.07520771
220	0x3da9c9f1	0.082904704
221	0x3c5e2036	0.013557484
222	0x3d554845	0.052070875
223	0x3d6fb818	0.058525175
224	0xbce39757	-0.027782125
225	0xbdf4597c	-0.1193113
226	0xba362d64	-0.0006949513
227	0x3ce965d5	0.02849094
228	0xbd8ccaf2	-0.06874646
229	0xbd9dcc6f	-0.07705008
230	0xbdf03380	-0.11728573
231	0xbc824860	-0.015903652
232	0xbd8e4a9a	-0.06947823
233	0xb9b43529	-0.00034371883
234	0xbcfae74e	-0.030627873
235	0xbc9f5a3b	-0.019452205
236	0xbd5a2934	-0.05326195
237	0x3c69cc1d	0.014269856
238	0xbe0d49b4	-0.13797647
239	0xbdb1a285	-0.08673576
240	0x3cf02c74	0.029318072
241	0xbd935cca	-0.071954325
242	0x3bcf705f	0.0063305344
243	0xbd958495	-0.07300679
244	0xbd13351a	-0.035939313
245	0xbb2a64da	-0.0026000054
246	0x3c01a808	0.007913597
247	0x3d4049a9	0.046945248
248	0xbccc2b8c	-0.024923109
249	0xbdc3bf52	-0.09557976
250	0xbbacee14	-0.0052774046
251	0xbc8b049c	-0.016969971
252	0x3da7b25a	0.08188315
253	0xbd023178	-0.03178546
254	0xbc033de8	-0.008010365
255	0x3d974273	0.07385721

bias_ih f4 [512]
0	0x3d672749	0.05643395
1	0x3e28875d	0.16457887
2	0x3ddc14c0	0.10746145
3	0x3e0bee2f	0.13665079
4	0x3d07e1a4	0.033174172
5	0x3d939e1f	0.072078936
6	0x3975283c	0.00023380009
7	0x3d88c5e0	0.06678367
8	0x3dd84c94	0.10561481
9	0x3e2a2811	0.16616847
10	0xbbe8d68e	-0.007105655
11	0x3dbc9a97	0.09209173
12	0x3dbab5e5	0.09116725
13	0xbd3de8f8	-0.046364754
14	0x3cef2b38	0.029195413
15	0x3e2072c9	0.15668787
16	0x3d23df49	0.040007863
17	0x3d09c8b5	0.033638675
18	0x3e371f8f	0.17883132
19	0xbc0ed227	-0.008717096
20	0xbc7ef6f4	-0.015561808
21	0x3e293693	0.16524725
22	0x3e0cc4b1	0.13746907
23	0x3e3e2030	0.18566966
24	0xbc619dac	-0.013770502
25	0x3dd2c44d	0.10291348
26	0x3de3c2e7	0.11121159
27	0x3d019fb6	0.031646453
28	0x3e6ce3f8	0.23133838
29	0x3dc0e6d9	0.09419031
30	0x3e75674c	0.23965186
31	0x3d8908ee	0.06691156
32	0x3d54ddec	0.051969454
33	0x3e209b0c	0.15684146
34	0x3db19ce7	0.08672505
35	0xbccf25da	-0.025286604
36	0x3e40bb46	0.18821439
37	0x3daf04ac	0.08545813
38	0x3bf44997	0.0074550617
39	0x3df50b8a	0.119650915
40	0x3db33da7	0.087519936
41	0x3dd37873	0.10325708
42	0x3db1a3c6	0.086738154
43	0x3e039181	0.12848474
44	0x3e8ca7b1	0.27471688
45	0x3e2d61f4	0.16931897
46	0x3e0081b5	0.1254948
47	0x3e0db6b2	0.13839224
48	0x3e81af64	0.25329125
49	0x3cef845c	0.029237919
50	0x3d4f5331	0.050616447
51	0x3d07e586	0.033177875
52	0x3d6700a0	0.05639708
53	0x3e0528bb	0.13003819
54	0x3e19ecce	0.1503174
55	0x3e5ba108	0.21448147
56	0x3deef80f	0.11668407
57	0x3e134e4d	0.14385338
58	0x3dd3cb18	0.103414714
59	0x3e1ec91a	0.15506402
60	0x3c2f0c84	0.010684136
61	0x3e050e8d	0.12993832
62	0x3e862a89	0.26204327
63	0x3e1665d3	0.1468728
64	0xbd388ab1	-0.04505414
65	0x3e07cfc7	0.13262855
66	0x3d5ed508	0.05440238
67	0x3dc51a67	0.096241765
68	0x3e76381d	0.24044843
69	0x3e16cb20	0.14725924
70	0x3e1194fc	0.1421699
71	0xbd195ea4	-0.037443772
72	0x3dcf46be	0.10120915
73	0x3c1e2147	0.009651489
74	0x3d839914	0.06425682
75	0x3db209cb	0.08693274
76	0x3e2285a8	0.15871298
77	0x3d0c1265	0.03419723
78	0x3df2690e	0.11836444
79	0x3cd342dc	0.025788717
80	0x3e804b39	0.2505739
81	0x3ddc0128	0.10742408
82	0x3defc974	0.11708346
83	0x3e085195	0.13312371
84	0x3e09d0a7	0.13458501
85	0x3e29a37f	0.16566275
86	0x3cdc838e	0.026918199
87	0x3c0f6015	0.008750935
88	0x3dffb5f6	0.12485878
89	0x3e31c129	0.17358841
90	0x3db58e7f	0.088650696
91	0x3d84ab17	0.06477945
92	0x3e6b9328	0.23005354
93	0x3dfb17ea	0.122604206
94	0x3de81863	0.113327764
95	0x3dfde48b	0.12397107
96	0xbb034228	-0.0020028446
97	0x3dad8f6c	0.08474621
98	0x3df16d5a	0.11788435
99	0x3dfa43ff	0.122200005
100	0x3dddf67a	0.10838027
101	0x3dbe0873	0.09278955
102	0xbcd997b8	-0.026561603
103	0x3e0c2f21	0.13689853
104	0x3dc6c06b	0.097046696
105	0x3d6aa2cf	0.057284173
106	0x3dfad07e	0.12246798
107	0x3db5ed5d	0.08883164
108	0x3e56ff7e	0.209959
109	0x3b4c33e3	0.0031158857
110	0x3d371cc1	0.044705156
111	0xba337119	-0.0006845161
112	0x3d8ab877	0.06773465
113	0x3c3d5bfc	0.011557575
114	0x3df37483	0.11887457
115	0xbcaf5cb4	-0.021406509
116	0xbc1bdbb2	-0.009512829
117	0x3d90c4c0	0.07068777
118	0xbc52015d	-0.012817708
119	0x3d828fb0	0.063750625
120	0x3d116d74	0.035504773
121	0x3c7c8a0f	0.015413775
122	0x3bda9436	0.0066705
123	0x3e1a9dc1	0.15099241
124	0xbc57fcff	-0.013182878
125	0xbd02b725	-0.03191294
126	0x3e03837e	0.12843129
127	0x3d7d14c3	0.061787378
128	0xbd0edd8b	-0.03487925
129	0x3d06c411	0.032901827
130	0x3da9f573	0.08298769
131	0xbd4048cf	-0.046944436
132	0xbbc92030	-0.0061378703
133	0xbd56d9df	-0.05245387
134	0x3db73505	0.089456595
135	0x3df77fc0	0.12084913
136	0xbce814cb	-0.028330227
137	0xbd9cc456	-0.076546356
138	0x3cf42367	0.029802037
139	0xbd966ec9	-0.07345349
140	0x3d27cee2	0.040968783
141	0x3d497be4	0.049190417
142	0x3d26038c	0.040530726
143	0x3c9fda2c	0.019513212
144	0x3d837c8a	0.06420238
145	0x3d9e9904	0.07744029
146	0xbcc2f81d	-0.02379995
147	0x3c9795bb	0.018504014
148	0x3df5205a	0.11969061
149	0x3d3cb975	0.046075303
150	0xbd275b9d	-0.040858854
151	0x3dc62bcd	0.09676323
152	0xbd8187d4	-0.06324735
153	0x3c5846e6	0.013200497
154	0xbd652ac6	-0.055948995
155	0xbdd3d7bf	-0.10343885
156	0x3d731278	0.059343785
157	0x3d514e7a	0.05110023
158	0x3d4a03d9	0.049320076
159	0x3d968a68	0.07350618
160	0xbda1ba56	-0.07896869
161	0xbcc151ef	-0.02359864
162	0x3b8615dc	0.0040919613
163	0xbd473b66	-0.04864063
164	0xbdb56305	-0.08856777
165	0x3cd77b61	0.026303949
166	0x3ddf5f85	0.10906891
167	0x3d828658	0.0637328
168	0x3c12cf8c	0.008960616
169	0x3d6f43f6	0.058414422
170	0x3d91114c	0.07083377
171	0xbce21234	-0.02759657
172	0xbe2b2107	-0.16711818
173	0x3daf71b0	0.08566606
174	0x3e10d905	0.14145286
175	0xbce23261	-0.027611913
176	0xbcbb22ab	-0.02284368
177	0x3cc782b2	0.024354313
178	0x3de6c75c	0.112684935
179	0x3b1c6454	0.002386351
180	0xbd8366f9	-0.06416125
181	0x3ab0eea7	0.0013498858
182	0xbcb05724	-0.021525927
183	0x3da60645	0.081066646
184	0xbdd07660	-0.10178828
185	0x3c95bef8	0.018279538
186	0x3cf25a8f	0.029584197
187	0xbd5cda78	-0.053919286
188	0xbbeaf3d8	-0.0071701817
189	0xbe066d44	-0.13127619
190	0xbdba9e69	-0.091122456
191	0xbd094064	-0.033508673
192	0x3da9097d	0.08253763
193	0x3db6679a	0.08906479
194	0xbe0cab95	-0.13737328
195	0xbd38fa69	-0.045160685
196	0xbd60eaff	-0.05491161
197	0xbd2d4cca	-0.04230956
198	0x3d514c2e	0.05109804
199	0xbdc1c39a	-0.09461136
200	0xbdafb78e	-0.08579932
201	0xbd5bb6d2	-0.053641148
202	0x3d2ea8ad	0.04264133
203	0xbd1a789a	-0.03771267
204	0x3d980e9f	0.07424664
205	0x3d3201f1	0.043458883
206	0x3da57bae	0.08080231
207	0x3c7fd045	0.01561362
208	0xbc8035d9	-0.015650677
209	0x3d4379ce	0.047723584
210	0xbda2352c	-0.07920298
211	0x3de4154c	0.111368746
212	0x3dad74c0	0.08469534
213	0xbd5fc185	-0.054627914
214	0xbd87531c	-0.06607649
215	0x3d5e3fb8	0.054259986
216	0xbc93e540	-0.01805365
217	0x3d26bfab	0.040710133
218	0x3dc402f8	0.09570879
219	0x3c170e70	0.009219751
220	0xbd8613f3	-0.06546774
221	0x3d6593f7	0.056049313
222	0x3d6d2612	0.057897635
223	0x3dcb7101	0.09933663
224	0x3dd0b758	0.1019122
225	0xbd33dbc4	-0.043910757
226	0x3c883732	0.016627882
227	0xbd895493	-0.067055844
228	0xbdc3c9fd	-0.095600106
229	0xbc1c14bf	-0.009526431
230	0xbd012d9d	-0.03153764
231	0x3cf7aba3	0.03023321
232	0x3d8e1084	0.06936744
233	0x3b511b3e	0.0031907107
234	0xbd89c116	-0.06726281
235	0x3e04f341	0.12983419
236	0x3ca5046a	0.020143706
237	0x3d21072c	0.03931348
238	0xbd7bfce8	-0.061520487
239	0xbd80c85b	-0.06288215
240	0xbd9bd02e	-0.076080665
241	0x3ca8a449	0.02058615
242	0xbab6b809	-0.0013940345
243	0x3d838555	0.064219154
244	0xbd885a8c	-0.066578954
245	0x3bcc1192	0.0062276805
246	0xbd48abb4	-0.048991874
247	0x3cb32bb3	0.021871423
248	0x3d99cbdf	0.075095885
249	0xbca4bc5b	-0.020109346
250	0x3d27d44f	0.040973958
251	0x3d3cc85d	0.04608952
252	0x3d3c9c79	0.04604766
253	0x3db41d2a	0.08794625
254	0x3dd885db	0.10572406
255	0xbd931d84	-0.07183364

bias_hh f4 [512]
0	0x3d2d7903	0.042351734
1	0x3e27db45	0.16392238
2	0x3d7a8747	0.061164167
3	0x3e3a0b3d	0.1816835
4	0xbc143a9f	-0.0090471795
5	0x3e1ea45e	0.15492389
6	0x3a9774be	0.0011555178
7	0x3d6073f9	0.0547981
8	0x3e68355e	0.22676608
9	0x3e416bb5	0.18888743
10	0xbccb0aea	-0.024785478
11	0x3dcb1185	0.09915451
12	0x3dff25c7	0.12458377
13	0xbdb9ac06	-0.09066014
14	0x3d39992c	0.04531209
15	0x3cafaadb	0.021443775
16	0x3d8f9464	0.07010725
17	0x3d197b21	0.03747094
18	0x3d7cd23f	0.061723944
19	0x3d21eacd	0.039530564
20	0x3d6f8ee4	0.05848588
21	0x3e7287c9	0.2368461
22	0x3e0c7e35	0.13720019
23	0x3d8de40b	0.06928261
24	0xbc46f79c	-0.012143996
25	0x3e6e43ad	0.23268004
26	0x3dd57d31	0.10424269
27	0x3d4a993c	0.049462542
28	0x3e0345de	0.12819621
29	0x3ce22f8c	0.027610563
30	0x3e34a0d2	0.17639473
31	0x3db3db44	0.08782056
32	0x3db9eabd	0.09077976
33	0x3e33e7f0	0.17568946
34	0x3dacb681	0.08433247
35	0x3d27df76	0.040984593
36	0x3e03bfc3	0.1286612
37	0x3e0b03a4	0.13575608
38	0x3df2cc9c	0.118554324
39	0x3de424b0	0.1113981
40	0xbcaac62e	-0.020846453
41	0x3df5690f	0.11982929
42	0x3d72b34a	0.059253015
43	0x3de4ffe8	0.11181623
44	0x3e3b0661	0.18264152
45	0x3d9fd20d	0.07803736
46	0x3df8bdba	0.121455625
47	0x3e26b9b0	0.16281772
48	0x3e23f523	0.16011481
49	0x3e20a947	0.15689574
50	0xbd04cafe	-0.03242015
51	0x3b115b41	0.0022179636
52	0xbd3d84ce	-0.04626923
53	0x3df2a208	0.11847311
54	0x3d9f893c	0.07789847
55	0x3e0b2da3	0.13591628
56	0x3d840c0b	0.064476095
57	0x3dee923d	0.116489865
58	0x3ddcfdea	0.10790618
59	0x3d01c4d1	0.03168184
60	0xbb87d654	-0.004145423
61	0x3d5c3592	0.053762026
62	0x3e48162c	0.19539708
63	0x3e0c2c15	0.13688691
64	0x3dab185c	0.083542556
65	0x3cea563a	0.02860557
66	0x3dc776b3	0.09739437
67	0xb9e8810c	-0.00044346636
68	0x3e4689b9	0.19388475
69	0x3d9f8dda	0.07790728
70	0x3d80d12d	0.06289897
71	0xbd19b6a8	-0.03752771
72	0x3d21cd0f	0.0395022
73	0x3cb9ee65	0.022696683
74	0x3d5a6752	0.05332119
75	0x3d7f374b	0.06230859
76	0x3de4beb0	0.11169183
77	0x3e0a7e39	0.13524713
78	0x3d7778df	0.060418006
79	0x3e13aa62	0.14420465
80	0x3e8f6e32	0.2801376
81	0x3dfce4a8	0.123483
82	0x3e41508b	0.18878381
83	0x3dc62bba	0.09676309
84	0x3de20388	0.1103583
85	0x3e041f2e	0.12902519
86	0x3dfdac81	0.12386418
87	0x3b5bb263	0.0033523075
88	0x3d96f35e	0.07370637
89	0x3e45c3b1	0.19312932
90	0x3d86e353	0.065863274
91	0x3e27d329	0.16389145
92	0x3e1fb5fe	0.15596768
93	0x3d1bfe4d	0.038084317
94	0x3deeb3d7	0.116553955
95	0x3e041ba2	0.12901166
96	0x3dc5bd74	0.09655276
97	0x3db20302	0.0869198
98	0x3d6887a3	0.05676998
99	0x3e850f24	0.25988114
100	0x3e02172b	0.1270415
101	0x3e1c48e8	0.15262187
102	0x3d760892	0.060066767
103	0x3dc7d3af	0.09757172
104	0x3e3e1610	0.18563104
105	0x3dda7df7	0.10668557
106	0x3d3f4974	0.04670091
107	0x3e241707	0.16024409
108	0x3e1f2516	0.15541491
109	0x3db3025e	0.08740686
110	0xbb829539	-0.003985074
111	0x3dd828fc	0.10554692
112	0x3d824dd1	0.063624986
113	0x3d816a18	0.06319064
114	0x3c01b1c1	0.007915915
115	0x3cdd9b02	0.027051453
116	0x3cd18615	0.02557663
117	0x3d40ae7b	0.047041398
118	0x3e009d6f	0.12560056
119	0x3d1d3cc0	0.038388014
120	0x3cfde442	0.03099263
121	0x3c83c768	0.016086295
122	0x3cb575e3	0.02215094
123	0x3e17cc53	0.14824037
124	0x3e06ce16	0.13164553
125	0x3d7563f7	0.059909787
126	0x3e12f750	0.14352155
127	0xbd965cc0	-0.073419094
128	0xbba212b3	-0.004946077
129	0x3d15c46d	0.03656428
130	0xbdafd1e9	-0.08584959
131	0x3c123227	0.00892309
132	0xbc8cab03	-0.017171388
133	0xbc9c6279	-0.019089924
134	0x3d912c89	0.070885725
135	0x3da1d788	0.079024374
136	0x3cacd1cf	0.021096138
137	0xbdd4c236	-0.10388605
138	0xbbaf8a7b	-0.0053570843
139	0xbdeb8279	-0.11499495
140	0xbdb30539	-0.087412305
141	0xbccdab88	-0.025106207
142	0x3cff21eb	0.031144103
143	0xbd746656	-0.059667908
144	0x3b139e65	0.002252483
145	0xbcff1472	-0.031137679
146	0xbc2e56d6	-0.0106408205
147	0x3d649a5e	0.05581128
148	0x3d7f7629	0.062368546
149	0xbc29c400	-0.010361671
150	0xbd5b46e9	-0.053534422
151	0xbc684534	-0.014176656
152	0x3ceba5fe	0.028765675
153	0xbcbd5504	-0.023111828
154	0x3dca2b9d	0.098716
155	0xbd652a97	-0.05594882
156	0x3d234cf0	0.039868295
157	0x3cbff958	0.023434326
158	0xbde8ed09	-0.11373336
159	0xbcc8a86c	-0.024494372
160	0x3d5d9f55	0.05410703
161	0xbd3962a9	-0.045260105
162	0xbe168c59	-0.14701976
163	0x3da72366	0.081610486
164	0x3ce88f7c	0.028388731
165	0x3daaef92	0.08346476
166	0x3dc43519	0.0958044
167	0xbc809470	-0.01569578
168	0x3db4b5ed	0.08823762
169	0xbd4e8a00	-0.050424576
170	0x3d8ac6d8	0.06776208
171	0xbdb012de	-0.08597349
172	0xbb85b929	-0.0040809107
173	0xbd87a1e0	-0.06622672
174	0xbcb19b23	-0.02168042
175	0x3d7d025f	0.06176984
176	0x3df700b8	0.12060684
177	0xbd99826c	-0.07495579
178	0x3e0c3e03	0.1369553
179	0x3c7d5610	0.015462413
180	0x3d82a266	0.06378631
181	0x3ca64a64	0.020299144
182	0xbd9eec5c	-0.07759926
183	0x3e08fe63	0.13378291
184	0x3d415aee	0.047205858
185	0x3d89ca37	0.067280225
186	0xbd60beec	-0.054869577
187	0x3d5d8c30	0.05408877
188	0x3d89744e	0.067116365
189	0xbc7c88dc	-0.015413489
190	0xbd83e3c3	-0.064399265
191	0x3da056e4	0.07829073
192	0x3ca0e7dd	0.019641811
193	0x3ae542b5	0.0017491194
194	0xbd23efc7	-0.04002359
195	0x3d9146d7	0.0709359
196	0xbe092bcb	-0.13395612
197	0xbd050219	-0.032472704
198	0xbd4ef016	-0.050521933
199	0x3d60af02	0.0548544
200	0x3d980440	0.074226856
201	0x3cc2e611	0.023791345
202	0xbd2b72dd	-0.04185759
203	0xbdff40c6	-0.124635264
204	0x3d85a5b5	0.06525747
205	0xbcd5d1e6	-0.026101064
206	0x3d3897e1	0.045066718
207	0xbd2a5db7	-0.04159328
208	0xbdddabd5	-0.1082379
209	0xbd606d0a	-0.054791488
210	0xbdf9d6c0	-0.121991634
211	0x3db4dd7c	0.08831307
212	0x3d88d88a	0.066819265
213	0xbd46ee07	-0.048566844
214	0x3dcbf7e0	0.09959388
215	0xbb6869cb	-0.0035463448
216	0x3d013571	0.031545106
217	0x3da90772	0.08253373
218	0x3d8f8dbe	0.07009457
219	0xbae81046	-0.0017705045
220	0xbd060731	-0.032721702
221	0xbb59fed6	-0.0033263466
222	0x3d08a6b2	0.033362098
223	0x3d35e3f3	0.044406842
224	0x3dd636aa	0.10459645
225	0xbd5da928	-0.054116398
226	0x3d2709a2	0.04078067
227	0x3be27858	0.0069113187
228	0xbce275c7	-0.027644051
229	0x3ca12c8a	0.019674558
230	0xbcbf75d9	-0.023371624
231	0x3d6f29c2	0.058389433
232	0x3db35f98	0.087584674
233	0x3d393095	0.045212347
234	0xbdb0a68a	-0.08625515
235	0xbbf4bca0	-0.007468775
236	0x3d0c1ac5	0.034205217
237	0x3dd96bf2	0.10616292
238	0xbda65a43	-0.08122685
239	0xbce5eaf9	-0.028066145
240	0xbdc61f50	-0.09673941
241	0xbdf076f2	-0.11741437
242	0xbd2cd479	-0.042194817
243	0xbd59fc35	-0.05321904
244	0xbd1b0fc9	-0.03785685
245	0xbd0f4905	-0.034981746
246	0xbbc31896	-0.0059538586
247	0xbc7b674d	-0.015344453
248	0x3d833833	0.064072035
249	0xbae47627	-0.0017430232
250	0xbcfe427a	-0.031037558
251	0xbd53b9cf	-0.051690873
252	0x3dc1cedc	0.094632834
253	0x3ce9eb41	0.02855456
254	0x3d510d2a	0.051037945
255	0x3d141916	0.036156736

weight_ih f4 [512, 128]
0	0x3c5de98c	0.013544451
1	0xbdb7031e	-0.089361414
2	0xbd25578d	-0.040366698
3	0xbd543955	-0.05181249
4	0xbdb241a8	-0.08703929
5	0xbcf77ae0	-0.030209959
6	0xbd8e8077	-0.069580965
7	0x3d277415	0.04088219
8	0x3dba07ae	0.09083496
9	0x3c2e0036	0.0106201675
10	0xbd597530	-0.053090274
11	0xbe228c32	-0.15873793
12	0xbe149988	-0.14511693
13	0x3cf6acc6	0.030111682
14	0x3d7a7153	0.06114323
15	0x3d82864f	0.063732736
16	0xbd1547e1	-0.036445502
17	0xbd4c8a16	-0.049936377
18	0xbd3ce32b	-0.04611508
19	0x3de4a1a5	0.11163644
20	0x3d4fd83e	0.050743334
21	0x3c8505d5	0.016238132
22	0xbda827b8	-0.08210701
23	0x3d5b33d1	0.053516213
24	0x3cda716c	0.026665412
25	0x3e278f5d	0.16363283
26	0x3e20d0a4	0.1570459
27	0xbd1eda30	-0.0387823
28	0x3d385fc1	0.045013193
29	0x3c6f93d5	0.014622648
30	0x3da1f93c	0.07908866
31	0x3d9dd41a	0.07706471
32	0x3e13307e	0.14373967
33	0xbd8f997b	-0.07011696
34	0xbc823815	-0.015895883
35	0x3cb3d5df	0.021952568
36	0xbd98bd7f	-0.074580185
37	0xbd65a68f	-0.056067046
38	0xbd484a4d	-0.048898984
39	0xbdca38be	-0.09874104
40	0x3c619b56	0.013769945
41	0x3d25ddb1	0.040494625
42	0xbc94d806	-0.018169414
43	0x3cce1342	0.025155667
44	0x3c0a370f	0.008435979
45	0xbd357538	-0.04430124
46	0xbda6fac3	-0.08153298
47	0xbdc2fa6b	-0.0952042
48	0x3e2dfa06	0.16989908
49	0xbddc940d	-0.10770426
50	0xbd00f691	-0.031485144
51	0xbbc35398	-0.005960893
52	0xbb9275c7	-0.0044696066
53	0xbdb4ab6f	-0.08821761
54	0x3d46a8c7	0.048500802
55	0xbe2860fa	-0.16443244
56	0xbd888540	-0.066660404
57	0xbdaba994	-0.08381954
58	0xbc7a721f	-0.015285998
59	0xbe1da439	-0.15394677
60	0x3cc231ad	0.023705328
61	0xbe269f26	-0.16271648
62	0x3ddda3d4	0.10822263
63	0xbd00b3f7	-0.031421628
64	0xbda34978	-0.079729974
65	0xbd560b55	-0.0522569
66	0x3c4509ff	0.012026309
67	0xbe09ba78	-0.13450038
68	0xbd8bb2e4	-0.0682123
69	0xbc534bb7	-0.01289647
70	0x3e3a4805	0.18191536
71	0x3bcb7026	0.0062084375
72	0xbc9c5c28	-0.019086912
73	0x3db19828	0.086715996
74	0xbcc82243	-0.0244304
75	0xbc350115	-0.011047621
76	0xbd01a18a	-0.031648196
77	0xbd95722d	-0.07297168
78	0xbc337f34	-0.010955621
79	0x3d975f7e	0.073912606
80	0xbb54b14e	-0.0032454315
81	0x3d5c287c	0.053749546
82	0x3d02d753	0.03194363
83	0xbddc6d3c	-0.10763022
84	0x3e194221	0.14966632
85	0xbcd83ade	-0.026395258
86	0xbb437da9	-0.0029829538
87	0x3e004f5a	0.1253027
88	0xbd0432e7	-0.032275107
89	0x3d426337	0.0474579
90	0xbdddaa67	-0.10823517
91	0xbd953c01	-0.072868355
92	0xbd829d21	-0.06377626
93	0xbce0c9a0	-0.027439892
94	0xbdc3d49e	-0.09562038
95	0x3d990203	0.07471087
96	0x3daa8d40	0.083277225
97	0xbd871c70	-0.06597221
98	0x3e002483	0.12513928
99	0xbe50405b	-0.2033705
100	0xbdca005c	-0.0986335
101	0xbe5e26d0	-0.21694493
102	0xbd1fa8f6	-0.038979493
103	0xbdd23c83	-0.10265448
104	0x3db5d43a	0.0887837
105	0xbe2fef1e	-0.1718106
106	0x3db1a1b5	0.08673421
107	0xbdad6845	-0.084671535
108	0x3e2b3fbc	0.16723531
109	0x3e313dda	0.17308751
110	0xbe1c50e4	-0.15265232
111	0xbdd7b263	-0.105320714
112	0xbdcf24dc	-0.10114452
113	0xbddb06fb	-0.10694691
114	0x3d3c73ed	0.046008993
115	0xbd5ca347	-0.05386665
116	0xbd8b843b	-0.0681233
117	0x3e2f64b7	0.17128263
118	0xbd19a40a	-0.037509955
119	0x3d3f9553	0.046773266
120	0x3cd60bd5	0.026128689
121	0x3bdf57e5	0.0068158978
122	0x3d1fae95	0.038984854
123	0x3cd82018	0.026382491
124	0xbd874d9f	-0.06606602
125	0xbc7fbadf	-0.015608518
126	0xbca7d85e	-0.020488914
127	0x3b00ff31	0.0019683356
128	0x3d9a152b	0.07523569
129	0x3cccc2d9	0.024995254
130	0x3d82e440	0.063911915
131	0x3dafcaa8	0.085835755
132	0xbce3fce0	-0.027830541
133	0x3dfc98d7	0.123338394
134	0xbe0c240f	-0.1368563
135	0x3d36b54e	0.0446065
136	0x3d48d106	0.049027465
137	0xbc8b9825	-0.017040322
138	0xbd1c539b	-0.03816567
139	0xbdf38bf5	-0.11891929
140	0xbd429dd1	-0.047513787
141	0x3d1770cb	0.036972802
142	0x3c01269a	0.0078827385
143	0x3db89124	0.090120584
144	0x3e2632f3	0.16230373
145	0x3d257f13	0.04040439
146	0xbdd89cb8	-0.10576767
147	0xbd21047c	-0.039310917
148	0x3da2609e	0.079285845
149	0x3d81ac76	0.063317224
150	0xbda5fb11	-0.08104528
151	0xbda1b40b	-0.078956686
152	0xbe25a9a6	-0.16177997
153	0xbdd1c4f3	-0.10242643
154	0x3e100c1b	0.14067118
155	0x3dc924ce	0.09821473
156	0xbc2d5035	-0.010578205
157	0xbb3bd2b8	-0.0028659534
158	0xbc4354bc	-0.011922058
159	0x3ccc600a	0.024948139
160	0xbc45a45c	-0.012063112
161	0xbd6458b8	-0.05574867
162	0xbe35aff5	-0.17742904
163	0xbcb1ce80	-0.021704912
164	0xbdc46183	-0.095889114
165	0xbe0a9c90	-0.13536286
166	0x3d0ee252	0.034883805
167	0x3dd4883a	0.10377546
168	0xbe1b49af	-0.15164827
169	0x3e5855b5	0.21126445
170	0x3dc49a74	0.09599772
171	0xbd083b1b	-0.033259492
172	0x3dbf3e5b	0.09338065
173	0xbe3b765f	-0.18306874
174	0x3e1772f9	0.14789952
175	0x3e2786d8	0.16360033
176	0x3dcbb3dd	0.099464156
177	0xbd52ffdc	-0.051513538
178	0xbd903a1b	-0.07042333
179	0x3c923c3c	0.017850988
180	0xbd916bdf	-0.07100653
181	0xbdb81322	-0.08988024
182	0xbb3cb30b	-0.0028793241
183	0xbd13cea9	-0.03608576
184	0xbd98d02d	-0.074615814
185	0x3d906644	0.070507556
186	0x3c07a486	0.008278972
187	0xbcf6a89d	-0.030109698
188	0x3d0c7d64	0.03429927
189	0x3c9ed1c2	0.01938713
190	0xbaa8f0ca	-0.0012889144
191	0x3d68d22b	0.056841057
192	0x3c2e16cc	0.010625552
193	0x3d9796ef	0.07401835
194	0x3d3aed3d	0.045636404
195	0x3dddd9f1	0.10832585
196	0x3d41faee	0.047358446
197	0x3d04caf3	0.03242011
198	0xbd8cef07	-0.06881528
199	0xbe306e22	-0.17229512
200	0x3d67c90a	0.05658821
201	0xbdb08330	-0.08618772
202	0x3d70ff7c	0.0588374
203	0xbb14e9bf	-0.0022722331
204	0x3ccde183	0.025131946
205	0x3d86d031	0.06582678
206	0xbcc83f88	-0.024444357
207	0xbd2f607a	-0.042816617
208	0xbd64be38	-0.05584547
209	0x391c00e4	0.00014877651
210	0xbe02b8ab	-0.12765758
211	0xbd95de51	-0.07317794
212	0x3d8b3412	0.06797041
213	0xbdd03465	-0.101662435
214	0x3d48178d	0.048850585
215	0xbd8e01f2	-0.06933965
216	0xbe1e581e	-0.15463302
217	0x3c74c37c	0.014939185
218	0x3cbbbf04	0.022918232
219	0x3b03407f	0.0020027456
220	0xbca127e7	-0.019672347
221	0x3cae5eee	0.0212855
222	0xbc7b9093	-0.015354293
223	0x3cbd97d9	0.023143696
224	0x3d9ecb1d	0.077535845
225	0xbe172999	-0.14761962
226	0x3d2803e2	0.041019328
227	0xbd890f0f	-0.06692325
228	0xbe2648e6	-0.16238746
229	0x3d6c03e8	0.057620913
230	0xbda6e4d2	-0.08149113
231	0xbd8e1cd6	-0.06939094
232	0xbc7b3f8e	-0.015334977
233	0x3dcdb352	0.10043968
234	0xbde455d0	-0.1114918
235	0xbd22f268	-0.039781958
236	0x3d840329	0.06445915
237	0x3d812c1f	0.063072436
238	0xbd0f9bcd	-0.035060693
239	0xbde55b7f	-0.11199092
240	0xbdc77b44	-0.09740308
241	0x3b3efd11	0.0029142539
242	0xbc9eedc4	-0.019400485
243	0xbdbcab32	-0.092123404
244	0xbd9d3090	-0.07675278
245	0x3d45bba8	0.048274666
246	0x3b06d71f	0.0020575
247	0xbd9aca72	-0.07558145
248	0xbb0348ea	-0.0020032474
249	0xbe11289a	-0.14175645
250	0xbd4d3d42	-0.050107248
251	0xbd05a0f6	-0.032624207
252	0xbd84aedb	-0.064786635
253	0x3bed2e83	0.0072382106
254	0x3d92c4b5	0.07166425
255	0x3bd50575	0.0065008947

weight_hh f4 [512, 128]
0	0xbdb097d6	-0.086227104
1	0x3d428a9b	0.047495466
2	0x3cda3ba4	0.026639767
3	0xbdd7331c	-0.10507795
4	0xbc168bca	-0.009188602
5	0xbc871b26	-0.016492438
6	0xbd5dd52c	-0.054158375
7	0xbdddc538	-0.10828632
8	0x3de2c2f0	0.110723376
9	0x3dc01868	0.09379655
10	0xbd8beb9b	-0.068320476
11	0x3d0287f7	0.031867947
12	0xbdc698be	-0.09697102
13	0x3da281bb	0.079349004
14	0x3d582696	0.052771173
15	0xbd7f5940	-0.062340975
16	0xbc06157b	-0.008183832
17	0x3a638334	0.00086789136
18	0x3dc6e52a	0.09711678
19	0xbcd5284f	-0.026020197
20	0x3c95bb23	0.01827771
21	0xbcab3a7e	-0.020901915
22	0xba82fb6c	-0.0009993142
23	0xbd227f60	-0.039672256
24	0xbad8a877	-0.0016529699
25	0x3d4c2a6f	0.049845155
26	0x3d4dffa4	0.050292626
27	0xbe0ae405	-0.13563545
28	0x3d967b44	0.0734773
29	0x3d2cc481	0.04217959
30	0xbbcd6995	-0.00626869
31	0x3c3cf765	0.011533593
32	0x3ca7d26b	0.020486077
33	0xbda205dd	-0.079112746
34	0x3d8b9389	0.068152495
35	0x3cd935d6	0.026514929
36	0xbd00f6da	-0.031485416
37	0x3df17193	0.11789241
38	0xbd1784c5	-0.036991853
39	0x3dcc59d5	0.099780716
40	0xbd80b9a6	-0.0628541
41	0x3d06d712	0.03291995
42	0x3d8d4b8d	0.06899176
43	0x3c8ed050	0.017433316
44	0x3cf117b4	0.029430248
45	0x3d4a0095	0.04931696
46	0xbcd3c061	-0.02584857
47	0x3e2b44c5	0.16725452
48	0x3e343e26	0.17601833
49	0xbcd274b8	-0.025690421
50	0xbdec38c3	-0.11534264
51	0x3dafc72b	0.0858291
52	0xbdabbd06	-0.08385663
53	0x3dc1bf85	0.094603576
54	0xbbbc5d9c	-0.005748464
55	0xbd2094c3	-0.03920437
56	0x3d475f85	0.04867508
57	0xbd52502d	-0.051345993
58	0xbca75058	-0.020424053
59	0xbc47cb26	-0.01219443
60	0xbd46e0dc	-0.048554286
61	0x3e0e508b	0.13897912
62	0x3d12123b	0.035661917
63	0x3d62e43a	0.055393435
64	0xbde1ac51	-0.11019195
65	0xbe298ac9	-0.16556849
66	0xbe05d753	-0.13070421
67	0xbdc77eaf	-0.0974096
68	0xbd447c65	-0.047970194
69	0x3d49a06a	0.04922525
70	0x3c09ebef	0.008418067
71	0x3e1590be	0.14605996
72	0xbc1b4ede	-0.009479253
73	0x3de39eef	0.111142986
74	0x3da5eba2	0.08101584
75	0xbcb39da3	-0.021925753
76	0xbd0bef7c	-0.034163937
77	0xbd8ce7bc	-0.06880137
78	0x3d7f79cb	0.06237201
79	0xbd3bd67c	-0.045858845
80	0xbd106e8e	-0.035261683
81	0xbd8259c2	-0.06364776
82	0x3d82fc47	0.06395774
83	0xbda5085f	-0.08058237
84	0xbc001407	-0.007817275
85	0x3dcf2933	0.1011528
86	0xbddd9619	-0.108196445
87	0xbd88122d	-0.06644092
88	0xbd04db37	-0.032435622
89	0x3dfb377e	0.12266444
90	0xbe1a8589	-0.15090002
91	0xbc691bac	-0.014227789
92	0x3d271dd4	0.04079993
93	0xbdeb4dcf	-0.1148945
94	0x3d9aadeb	0.075527035
95	0xbcb43125	-0.02199609
96	0xbdb3d968	-0.08781701
97	0x3cc22900	0.023701191
98	0x3d8d2e1d	0.06893561
99	0x3d144a3c	0.036203608
100	0x3de7a0b6	0.1130995
101	0x3e2e4f12	0.1702235
102	0xbe36b5a0	-0.17842722
103	0x3d3f0be3	0.046642195
104	0xbccbc799	-0.024875449
105	0xbd981507	-0.07425886
106	0xbdda3773	-0.10655107
107	0xbc5f4c08	-0.013628967
108	0xbe18a8b6	-0.14908108
109	0xbcc13182	-0.023583177
110	0xbd7f478d	-0.062324096
111	0x3d396f4e	0.045272164
112	0x3db77d00	0.08959389
113	0xbe06934a	-0.13142124
114	0x3df288fc	0.11842534
115	0x3e04f23a	0.12983027
116	0x3ddd2cd1	0.10799564
117	0x3e04f02f	0.12982248
118	0x3dc9bef6	0.09850876
119	0x3e2611dc	0.1621775
120	0xbd44e8b6	-0.048073493
121	0x3cd418b2	0.025890682
122	0xbd8ef649	-0.06980569
123	0x3d30726b	0.043077867
124	0xbd2ee9f7	-0.042703595
125	0xbc4e99f1	-0.012609945
126	0x3def3aa7	0.11681109
127	0x3cba6cce	0.02275696
128	0x3e0b1178	0.13580883
129	0xbd123266	-0.035692595
130	0x3c434b8d	0.011919868
131	0xbdc5e620	-0.096630335
132	0x3d4c6800	0.04990387
133	0xbdb12844	-0.08650258
134	0x3daed724	0.085371286
135	0xbd610fba	-0.05494664
136	0xbcdb9388	-0.026803747
137	0xbdb8b027	-0.090179734
138	0x3d2b62fb	0.041842442
139	0x3e0de588	0.1385709
140	0x3da33317	0.07968729
141	0x3c9e2800	0.019306183
142	0x3e2d35f1	0.16915108
143	0x3d118301	0.035525326
144	0x3c4c507e	0.012470363
145	0x3d92d577	0.071696214
146	0x3c81be01	0.015837671
147	0x3d3700ad	0.04467838
148	0xbc27a981	-0.010233284
149	0x3e0a4d90	0.1350615
150	0x3db6bd97	0.0892288
151	0xbe2617f5	-0.16220076
152	0xbe1e4d69	-0.15459217
153	0xbdf51924	-0.11967686
154	0x3c82ca04	0.01596547
155	0x3da7802b	0.08178743
156	0xbd5447a6	-0.05182614
157	0x3d23da1c	0.040002927
158	0x3d1f29b7	0.03885814
159	0x3d71ccab	0.059033077
160	0xbe26bb15	-0.16282304
161	0xbd986918	-0.0744192
162	0x3bff459f	0.007790282
163	0xbc9c3d74	-0.019072272
164	0x3c985d16	0.018599074
165	0xbceba8e0	-0.02876705
166	0xbcd3c007	-0.025848402
167	0xbdcacaa4	-0.09901932
168	0xbd41bb0e	-0.04729753
169	0xbd6bfb9f	-0.05761301
170	0xbc69e7a1	-0.014276416
171	0x3d8e3049	0.069428034
172	0xbce8e535	-0.028429607
173	0x3c388783	0.011262777
174	0xbdfa0706	-0.12208371
175	0x3cb465a5	0.022021124
176	0xbcca333b	-0.024682632
177	0x3df29e3d	0.11846588
178	0xbc24793d	-0.010038671
179	0x3d6f7ddf	0.05846965
180	0xbcc68aac	-0.024236046
181	0xbde91e23	-0.11382701
182	0x3d47275d	0.048621524
183	0xbd4eddc0	-0.050504446
184	0x3ddc136d	0.10745893
185	0xbda2055b	-0.07911178
186	0xbccd06c3	-0.025027638
187	0xbd97552e	-0.073892936
188	0x3d42c27f	0.047548767
189	0xbe0332cb	-0.12812345
190	0x3db78808	0.08961493
191	0x3db632a0	0.08896375
192	0x3d9367fa	0.07197566
193	0xbd9cb32f	-0.07651364
194	0x3c6719bf	0.014105259
195	0x3db54e8a	0.08852871
196	0x3cfee6ba	0.031115878
197	0xbcdea6c0	-0.027179122
198	0x3d521424	0.05128874
199	0x3d22fb93	0.0397907
200	0x3c46e9d1	0.012140707
201	0xbda8ba3a	-0.08238645
202	0xbbb04644	-0.00537947
203	0x3d145bc3	0.036220323
204	0xbd6460db	-0.05575643
205	0xbcedaacd	-0.029012108
206	0x3dd1982f	0.10234105
207	0x3cb7e6f7	0.022449
208	0x3dca9399	0.09891433
209	0x3d7e787b	0.062126618
210	0x3c5e9269	0.013584712
211	0xbd19002b	-0.037353676
212	0xbdc5c91d	-0.096575
213	0xbe0ccbcf	-0.13749622
214	0x3c7ad674	0.015309919
215	0xbe401298	-0.18757093
216	0xbdb4d3fa	-0.08829494
217	0x3da2391a	0.079210475
218	0xbd737a5d	-0.059442867
219	0x3e3eb7f9	0.18624867
220	0x3c588f1c	0.013217714
221	0xbc9f6007	-0.01945497
222	0xbc6cce67	-0.014453507
223	0x3d8b9551	0.06815589
224	0x3afb4d3b	0.0019172797
225	0x3d8e7537	0.06955951
226	0xbde232ed	-0.110448696
227	0x3d0606bd	0.03272127
228	0x3dde2d80	0.10848522
229	0x3cdf5e0f	0.02726653
230	0x3d8b3e86	0.06799035
231	0xbdb4541f	-0.08805107
232	0xbbabe669	-0.005245973
233	0xbd9ff543	-0.07810452
234	0x3d0109d5	0.031503517
235	0x3dad3597	0.08457487
236	0xbdd78a28	-0.10524398
237	0x3c112562	0.00885901
238	0xbc0ffe99	-0.008788728
239	0xbd09bc13	-0.033626627
240	0x3d0f617e	0.035005085
241	0xbe20eace	-0.15714571
242	0x3da14226	0.07873945
243	0xbce94470	-0.028475016
244	0xbe20a5a5	-0.15688188
245	0x3dcfa9a7	0.101397805
246	0xbc462cd4	-0.012095649
247	0x3dad4abf	0.08461522
248	0xbc686661	-0.014184565
249	0xbceb8f1f	-0.028754769
250	0x3d3ca4bc	0.04605554
251	0x3dc93b06	0.09825711
252	0x3ddf0a99	0.10890693
253	0xbd158e5d	-0.03651272
254	0xbcaba39b	-0.020952037
255	0xbd137496	-0.035999857

bias_ih f4 [512]
0	0x3e0a0bf0	0.13481116
1	0x3e08caa3	0.1335855
2	0x3de2c69f	0.1107304
3	0x3e86f001	0.26354983
4	0x3ccc5568	0.024943069
5	0xbbdee8b9	-0.006802645
6	0x3dd6e05d	0.10492013
7	0x3dfa2b97	0.12215345
8	0x3def52ba	0.11685701
9	0x3e3b0470	0.18263412
10	0x3e93956e	0.28824943
11	0x3e29a5af	0.1656711
12	0x3cc21b4a	0.023694653
13	0x3d8aab31	0.067709334
14	0x3eb34889	0.35016277
15	0x3e0bde6e	0.13659069
16	0x3df9d33d	0.12198494
17	0x3dde9745	0.10868696
18	0x3d757cb8	0.059933394
19	0x3e72e2cd	0.2371933
20	0x3eab4315	0.33449617
21	0x3e2a969b	0.16659014
22	0x3d446f8e	0.04795795
23	0x3dca965c	0.0989196
24	0x3e239105	0.1597329
25	0x3e22d117	0.15900074
26	0x3d72c20e	0.059267096
27	0x3d4b7d6c	0.04968016
28	0x3d9488e9	0.07252676
29	0x3e34f8ba	0.17673007
30	0x3e00e85c	0.12588638
31	0x3d3179b3	0.043328952
32	0x3e001ed9	0.12511767
33	0x3e223992	0.15842274
34	0x3cb8d10e	0.022560623
35	0x3deb3b77	0.114859514
36	0x3de6a2e2	0.11261536
37	0x3e353b00	0.17698288
38	0x3daecbba	0.085349515
39	0x3e19ec70	0.150316
40	0x3eb78067	0.3584015
41	0x3d3ab1fb	0.04557989
42	0x3e00bf4e	0.12572977
43	0x3ded3c6c	0.1158379
44	0x3e1f3d0e	0.15550634
45	0x3e0f5145	0.13995846
46	0x3e863e2f	0.26219317
47	0x3e1cf41f	0.153275
48	0x3e6442bf	0.22291087
49	0x3df1042e	0.11768375
50	0x3e0c31ea	0.13690916
51	0x3d88d4cc	0.06681213
52	0x3e006acc	0.1254074
53	0x3e2b48ba	0.16726962
54	0x3d0c5888	0.034264117
55	0x3cfd2bd0	0.03090468
56	0xbc8aa777	-0.016925557
57	0x3e9540e4	0.2915107
58	0x3e395108	0.18097317
59	0x3d6f28e4	0.058388606
60	0x3e1a0bff	0.15043639
61	0x3e161461	0.14656211
62	0x3e8094e2	0.2511359
63	0x3e507121	0.20355655
64	0x3d8cdd88	0.06878191
65	0x3ddc2a52	0.107502595
66	0xbbc685fe	-0.0060584536
67	0x3e65c007	0.22436534
68	0x3dd3632c	0.1032165
69	0x3eca87e0	0.3955679
70	0x3e098d45	0.13432796
71	0x3e0a5762	0.13509896
72	0x3d02ea8d	0.031961966
73	0x3ea27cbd	0.31735793
74	0x3d95f61e	0.07322334
75	0x3de4f3d4	0.11179319
76	0x3eaec102	0.34131628
77	0x3d9ae82f	0.07563817
78	0x3e1a2e58	0.15056741
79	0x3e5c8d6d	0.21538325
80	0x3e17ec30	0.14836192
81	0x3b636275	0.0034696136
82	0x3e001c1b	0.12510721
83	0x3e0261ab	0.1273257
84	0x3d745ba4	0.059657708
85	0x3e03443e	0.12819001
86	0x3d2675b8	0.04063961
87	0x3db55d71	0.08855713
88	0x3de94ab4	0.113912016
89	0x3e1d2acb	0.15348355
90	0x3dbf4888	0.09340006
91	0x3dd06174	0.10174838
92	0x3d9494d4	0.07254949
93	0x3e76341c	0.24043316
94	0x3e229749	0.15878023
95	0x3e2a7f15	0.1665004
96	0x3dd2d0ed	0.10293756
97	0x3bb4baef	0.0055154483
98	0x3e3a5d4b	0.18199651
99	0x3e1fd86c	0.15609902
100	0x3e8b30f7	0.27185795
101	0xbb2f56b2	-0.0026754555
102	0x3d36a32c	0.044589207
103	0x3da44d96	0.08022611
104	0x3e4a6cfd	0.19768138
105	0x3da7e136	0.081972525
106	0x3e7d9dbf	0.24767207
107	0x3e1e8667	0.15480958
108	0x3e7fa82c	0.24966496
109	0x3e4c7760	0.19967413
110	0x3dedd6cc	0.11613235
111	0x3e14db21	0.14536716
112	0x3eb3a0f5	0.35083738
113	0x3de56d22	0.11202456
114	0x3dca8b56	0.098898575
115	0x3e067839	0.13131799
116	0x3e07bb5c	0.13255066
117	0x3e358e20	0.17729998
118	0x3e91a571	0.28446534
119	0x3e8416c0	0.25798607
120	0x3e00ab69	0.12565388
121	0x3db42347	0.08795791
122	0x3d021f1f	0.03176796
123	0x3e5c493a	0.21512309
124	0x3da8820e	0.08227931
125	0x3d94538d	0.072424985
126	0x3dcf9bd7	0.10137146
127	0x3d8f30d5	0.06991736
128	0x3d46b01e	0.048507802
129	0xbd062fc1	-0.032760385
130	0x3cb2f2cb	0.021844288
131	0xbd840496	-0.06446187
132	0xbc20d9a6	-0.009817516
133	0xbc91abeb	-0.017782172
134	0xbcf12c14	-0.029439963
135	0x3cc81d72	0.024428103
136	0xbd4ebbb0	-0.05047196
137	0xbdac527b	-0.084141694
138	0xbdb23516	-0.087015316
139	0xbdf6ecfc	-0.1205692
140	0xbd0f2648	-0.034948617
141	0xbd56ba9a	-0.05242405
142	0xbe213e0c	-0.15746325
143	0xbdf32ce9	-0.118738
144	0x3cd8f879	0.026485668
145	0xbc952055	-0.018203894
146	0xbd66753d	-0.05626415
147	0x3d40ba2d	0.04705255
148	0xbdfe55bc	-0.12418696
149	0x3d4b99cb	0.049707215
150	0xbd27876b	-0.04090063
151	0xbdde44c8	-0.10852963
152	0x3cc7d824	0.024395056
153	0xbce86a70	-0.028371066
154	0x3d07bd83	0.033139717
155	0xbc8abd8b	-0.016936084
156	0x38cccb1a	9.765309e-05
157	0xbca93ef6	-0.020659905
158	0xbe0f6122	-0.14001897
159	0x3dac1e8f	0.08404266
160	0xbda18a32	-0.07887687
161	0xbd08bd5b	-0.03338371
162	0xbd8f67aa	-0.07002194
163	0x36df7958	6.660044e-06
164	0xbcefefd0	-0.029289156
165	0x3d190fb9	0.03736851
166	0x3cd1d38b	0.025613567
167	0xbe144ccc	-0.1448242
168	0xbdebac09	-0.115074225
169	0xbc8ffb89	-0.017575996
170	0xbcf43f98	-0.02981548
171	0x3d388caf	0.04505604
172	0xbc39f179	-0.0113490755
173	0xbd90003a	-0.07031293
174	0xbcada7f6	-0.021198254
175	0xbd620ef5	-0.055190045
176	0xbc8098a4	-0.015697785
177	0xbde65a75	-0.11247722
178	0xbd80c38e	-0.06287299
179	0x3c8f1f45	0.017470965
180	0x3a9060ba	0.0011015155
181	0xbdc04ddc	-0.093898505
182	0x3d7bed93	0.061505865
183	0xbdada772	-0.08479203
184	0xbca0b267	-0.019616319
185	0xbcf3c899	-0.029758738
186	0xbd495bcd	-0.049159814
187	0x3d95b703	0.07310297
188	0x3d0b544a	0.03401593
189	0xbd980e58	-0.07424611
190	0xbc240a77	-0.010012261
191	0x3c35c3c7	0.01109404
192	0xbd563ed6	-0.05230602
193	0xbc3cc551	-0.011521653
194	0xbdc9b0b8	-0.098481596
195	0xbdc7e99f	-0.097613566
196	0x3d873e78	0.06603712
197	0xbdfdb6f6	-0.12388413
198	0x3d282684	0.041052356
199	0x3cd3d69c	0.02585917
200	0x3c2468d2	0.010034757
201	0xbd118c68	-0.035534292
202	0xbb6c0955	-0.0036016305
203	0xbd84fe1b	-0.06493779
204	0xbdb31750	-0.08744681
205	0x3d4ae78d	0.04953723
206	0xbdd06476	-0.101754114
207	0xbdcbaaf9	-0.0994472
208	0x3d5cb6a9	0.053885136
209	0xbd82c897	-0.06385916
210	0x3d77464b	0.06036977
211	0xbd7b5a69	-0.06136552
212	0xbd2f9476	-0.042866193
213	0x3c8c05a8	0.01709254
214	0xbc9ffb97	-0.019529147
215	0x3b950bbe	0.004548519
216	0xbca3946a	-0.01996823
217	0x3cb5752f	0.022150604
218	0xbd8dfeda	-0.06933375
219	0xbd5263b4	-0.051364616
220	0xbd9347d6	-0.07191436
221	0xbd392e47	-0.04521015
222	0x3d3ba59f	0.045812245
223	0xbd5c79d4	-0.05382712
224	0xbd673e90	-0.05645615
225	0x3b901a50	0.004397668
226	0xbca7b57a	-0.020472277
227	0xbdd6f2fe	-0.10495566
228	0xbc908ef2	-0.017646287
229	0xbcab232a	-0.020890791
230	0xbd47770d	-0.04869752
231	0x3d53ceca	0.05171088
232	0xbddf86ad	-0.10914359
233	0x3d9b8cb9	0.075952
234	0xbb0d859f	-0.0021594537
235	0xbdb796bb	-0.089642964
236	0xbdecb157	-0.115572624
237	0xbde2ee7b	-0.11080643
238	0x3c5aedbb	0.013362343
239	0x3c07a19f	0.00827828
240	0xbe04aed4	-0.12957317
241	0x3d0b7c62	0.034054168
242	0x3b9d845b	0.0048070378
243	0xbdc34a59	-0.09535665
244	0xbd682197	-0.05667266
245	0x3d1a9405	0.03773882
246	0xbd089454	-0.03334458
247	0xbdcb7b8e	-0.099356756
248	0x3b2e8983	0.0026632256
249	0x3d21cdbe	0.03950285
250	0xbb8a160f	-0.0042140554
251	0xbcf1369c	-0.029444985
252	0xbe0fe497	-0.14052044
253	0x3db0ddda	0.08636065
254	0xbda3b78c	-0.07993993
255	0x3d8b04b4	0.067880064
