logs/dive_rp_vary_oracle/19/actor.pt (torch, 879410 bytes, 17 tensors)

weight_ih f4 [512, 35]
000000 b6 a8 37 3d b7 4c b3 3d 91 7d b1 bd 74 48 0e be
       0.04483863 0.087548666 -0.08666528 -0.13894826
000010 6c e4 ce bd e6 12 d9 bd 16 4c d6 3d 55 f5 7c bb
       -0.10102162 -0.10599308 0.10463731 -0.0038598378
000020 d9 f1 20 3e de 88 bf 3d 93 8f e9 bd f9 3b 28 bd
       0.15717258 0.09352277 -0.11404338 -0.04107282
000030 e9 e6 5c bd e1 55 ea 3d cc 60 68 bd 5e 2c a0 3d
       -0.05393115 0.11442161 -0.056732938 0.07820962
000040 29 17 c3 3d 99 43 04 3d bf 25 1e 3d 4b af a6 bd
       0.09525902 0.03229103 0.038610216 -0.08138903
000050 b3 83 48 3e 46 5a 16 3e 84 90 c8 bc 4b 24 91 bd
       0.1958149 0.14682874 -0.024482973 -0.070870005
000060 d2 aa 55 3e e8 6f bc 3d 79 6e 4d 3d dc 8c 36 be
       0.20865944 0.09201032 0.050154183 -0.17827171
000070 c9 ce 0c be 8a 86 fd 3c 19 6f 1b 3d 49 74 0a 3e
       -0.13750757 0.030947942 0.037947748 0.13520922
000080 07 68 de bd cf d0 2a bd 1e ae 1d bc d1 3d 5c bc
       -0.108596854 -0.04170304 -0.009624032 -0.013442473
000090 c0 0b c7 bc 8a a5 e2 3d e4 89 ae 3d e9 bf 90 3e
       -0.024297595 0.1106673 0.08522394 0.28271416
0000a0 a8 0c c7 3d 39 8b ad 3d 44 50 81 bd e3 4c a7 bd
       0.09719211 0.0847382 -0.063141376 -0.08168962
0000b0 7d 97 c7 bc b3 48 2a 3e 12 70 b0 bc 26 70 2b 3e
       -0.024364227 0.16629295 -0.021537814 0.16742
0000c0 26 7f ac bc ee d4 d4 bd 51 28 bd 3d 71 bc 24 3e
       -0.021056723 -0.103921756 0.09236205 0.1608751
0000d0 0a 63 87 bb ae 98 0a bd f4 a2 48 3e bd e6 be 3d
       -0.0041316794 -0.033837013 0.19593412 0.093213536
0000e0 f8 3b 0b 3e bf 3b 91 3c a0 ac 92 be b2 6d a4 bd
       0.13597095 0.017728684 -0.28647327 -0.08028735
0000f0 66 89 c4 3d 25 fe 2d 3e 55 8b 68 be b0 c8 ee 3c
       0.09596519 0.1699148 -0.22709401 0.02914843
000100 c6 be 9f 3d 08 f2 80 bb 1f 50 21 3e 5a c6 42 bd
       0.07800059 -0.0039351024 0.1575322 -0.047552444
000110 fb 44 af 3d 56 75 4b 3e 3c 97 a3 bd ee 73 7d bd
       0.08558079 0.19868979 -0.0798783 -0.061878137
000120 0b 2e dc 3d 43 d9 a3 3d d3 3e 27 3c 96 f0 91 3d
       0.107509695 0.08000424 0.01020785 0.07125966
000130 b8 23 a9 3c d2 b8 e4 bc ce f1 08 3e f2 9e 6d bd
       0.020646915 -0.02792016 0.13373491 -0.05801291
000140 63 eb 80 bc 94 b1 62 3b a9 0e d0 3d c0 d6 90 3d
       -0.015737241 0.0034590708 0.10159046 0.0707221
000150 ec a3 44 3c e4 61 ba bd 1c 08 a4 bd 14 1c 95 bd
       0.012001973 -0.091007024 -0.08009359 -0.07280746
000160 ec c6 2b 3e eb b2 09 bb 99 11 fa 3b b1 89 08 3e
       0.16775101 -0.0021011184 0.0076314923 0.13333775
000170 81 31 f2 bd 2b c4 a0 3d 6c a3 d3 bd 0d 85 1a bc
       -0.11825848 0.07849916 -0.103339046 -0.009431136
000180 14 f1 00 3e 87 ac b2 bd d2 2e 98 3c 5d 02 2c bd
       0.12591964 -0.08724313 0.018577013 -0.04199444
000190 11 f1 f7 3d d2 e4 8e 3d 7f 2a 91 bc 27 5e 0a 3d
       0.12106527 0.06977238 -0.017720459 0.033781197
0001a0 9f ca 42 bc 71 87 fd 3c ae 53 08 be 8a 62 cc 3c
       -0.011889129 0.030948373 -0.13313171 0.02494933
0001b0 41 4b 38 bd 7c bd d5 3c 1c 4b 19 be a8 e2 4a 3e
       -0.044993643 0.02609133 -0.14970058 0.19813025
0001c0 12 dd ff bc 5e 6a 79 3e 87 39 47 bc 3f 10 3b be
       -0.031233344 0.24356982 -0.012159712 -0.18267916
0001d0 89 e1 0b be 24 1e e1 bb 1a 82 3d 3e 11 6a 48 3c
       -0.13660254 -0.006870048 0.18506661 0.012232319
0001e0 00 58 63 bd 1e e1 99 3d 35 6a 07 3d 40 3c e0 3d
       -0.055503845 0.07513641 0.03306027 0.10948992
0001f0 7e f3 5b be 15 f0 0f 3d 25 a9 59 bd a1 f5 28 3e
       -0.21479604 0.03514107 -0.053139824 0.1649995
000200 d7 fe 53 3d e8 67 44 be f3 7f 56 bd df 42 6c 3d
       0.051756706 -0.19180262 -0.052368116 0.05768096
000210 92 a9 af bc 03 22 d5 3d 3d 12 ac 3d 36 74 7e bd
       -0.021443162 0.10406878 0.08401916 -0.062122546
000220 eb 27 0a be 1f 89 9d bd 2c 24 07 3e 80 77 ae 3d
       -0.1349179 -0.076921694 0.13197392 0.085188866
000230 1c e7 b4 3e c7 c9 b3 bb 8b 3a 0c 3e d9 ef b5 3d
       0.35332572 -0.0054867 0.13694207 0.08883638
000240 24 7b 5e be 9d 9f a0 3d 59 b1 ff 3d 9d 6e 90 bd
       -0.21726662 0.07842944 0.12484998 -0.07052348
000250 f1 8c a0 bc a3 a5 c2 bd 71 aa ae 3b 19 1a 34 be
       -0.019598456 -0.09504249 0.005330377 -0.1758808
000260 17 35 91 3d 6c 9d 0b 3e 5d 0c bf 3c 31 75 3a bc
       0.07090204 0.1363427 0.023321325 -0.01138048
000270 e5 37 a9 3d 93 07 53 3e d7 09 3c bd f7 a2 70 be
       0.08262614 0.20608358 -0.04590782 -0.23499666
000280 9d 40 dc bd 2f dc 3d bd d9 64 9e bb 7e 87 08 bd
       -0.107545115 -0.04635256 -0.0048337993 -0.03333234
000290 73 3c 0c 3e 7b d3 e2 bc 59 6e 93 bd 0a 2b bd bd
       0.13694935 -0.027688732 -0.071987815 -0.09236725
0002a0 bd 67 b8 3b a7 34 9f 3e e6 23 34 3e af 78 58 3d
       0.005627601 0.31094858 0.17591819 0.052849468
0002b0 5d 73 bf bd 72 2a 1e 3e aa 66 7d bd ec a7 b1 ba
       -0.09348176 0.15445879 -0.061865486 -0.0013554073
0002c0 8b 8f b9 3c 86 f4 ed bc cc 98 a0 3d 38 f8 23 be
       0.022651454 -0.029047262 0.07841644 -0.16012657
0002d0 c9 5a 3b 3e 41 2e 56 bd 68 17 32 3e bd 74 82 3b
       0.1829635 -0.052290205 0.17391741 0.0039812014
0002e0 50 97 cd 3d db f1 90 3d 4a bc 11 be 5e 28 87 bd
       0.10038626 0.0707738 -0.14231983 -0.06599496
0002f0 e4 ef 04 be 12 e6 17 3d 5a fe 20 3e e3 03 04 3e
       -0.12982136 0.037084647 0.15722027 0.12892108
000300 45 6a 0a bd 43 f3 32 bd 78 de b5 be 55 64 17 3f
       -0.033792753 -0.043689024 -0.35521293 0.5913747
000310 c4 d4 13 3e 8f 97 86 3d 39 b3 5c 3d c9 97 1d b9
       0.14436632 0.06571876 0.053881858 -0.00015029231
000320 02 aa 3e 3e 7a 56 b3 3d bf 62 65 be 5e 07 08 3e
       0.1861954 0.087567285 -0.2240095 0.1328406
000330 d6 cc bb 3c 58 af 88 3d 6a 19 79 bd 41 d3 b4 3d
       0.022924822 0.06674069 -0.060815252 0.08829356
000340 b1 b1 4d 3d ff 3d 57 3e da 63 0c 3e 34 fa db bd
       0.050218288 0.21019743 0.13709965 -0.10741082
000350 d5 6f 8a 3d 20 2f 70 bc e8 bf 31 be 41 56 58 bd
       0.067596115 -0.014659673 -0.17358363 -0.052816633
000360 f8 7b 80 bb 1c 57 b6 bc 24 d9 d6 3d 4f c9 ce bd
       -0.003921028 -0.022258334 0.10490635 -0.1009699
000370 d2 1a 9f 3c c2 5d e9 3d f7 1f 89 3d c4 80 06 bc
       0.019421969 0.11394836 0.0669555 -0.008209411
000380 a4 18 fa bd ef 16 2d bd 8f ce f4 bd c1 55 b7 3c
       -0.12211731 -0.0422582 -0.119534604 0.022379758
000390 d6 6d 53 3d 3c 5f b2 bd 0c 48 b4 bd f9 de f4 3d
       0.05161842 -0.08709571 -0.08802804 0.11956591
0003a0 57 6e c2 3c f3 e6 da 3c 8a 92 e6 3d 91 8c f8 bd
       0.023734255 0.026721453 0.11258419 -0.12136186
0003b0 19 48 84 3d 34 1e 1b be 18 e5 d5 ba a1 8a f7 3c
       0.06459064 -0.1514824 -0.0016318886 0.03021747
0003c0 21 74 50 be bf 7a 9d 3d c4 bd 7b bd f3 0c 82 bd
       -0.203568 0.076894276 -0.06146027 -0.06350126
0003d0 65 d3 b8 3d d8 97 08 be 59 9b 0f 3d f1 fb 84 be
       0.09024695 -0.13339174 0.03506026 -0.25973466
0003e0 a7 da e0 3d 91 2c d1 bd 47 56 a3 bd 0f 50 9e bd
       0.109792046 -0.102135785 -0.079754405 -0.07730114
0003f0 7c 35 51 3e fa 4f 6a bd 23 20 18 3d c8 d7 72 be
       0.20430559 -0.057205178 0.037140023 -0.23715127

weight_hh f4 [512, 128]
000000 d4 a6 db bd c6 59 4b be e4 1c c6 3c 14 7f f5 bd
       -0.10725179 -0.19858465 0.024183698 -0.11987129
000010 4a 5e 92 bd 83 a1 a1 bb 2f 84 9c 3d 85 8c d4 bc
       -0.071468905 -0.004932584 0.076423995 -0.025945911
000020 db 6a a9 3d 26 9d 4d ba 8f 61 d3 3d 05 27 c8 3c
       0.08272334 -0.00078435463 0.10321342 0.024432668
000030 13 c2 32 be 10 dc a0 bd 9d a9 b3 bd 34 4a 89 bc
       -0.17456846 -0.078544736 -0.087725855 -0.016759016
000040 38 27 98 3d c3 0e a3 bd 1d 0d 27 3d d7 fb 91 bd
       0.074293554 -0.079618 0.04078399 -0.07128113
000050 ed f1 68 bd ef b7 75 bd c6 b7 55 3e c4 99 67 3d
       -0.056871343 -0.059989866 0.20870885 0.056543127
000060 e9 7d 8e 3d ee 10 00 3d d8 19 15 be b0 ea 00 3e
       0.06957609 0.031266145 -0.1456064 0.12589526
000070 94 2d 95 bd b2 ee b1 bd d2 bb 82 3d 19 3c 14 bd
       -0.07284084 -0.08688106 0.0638348 -0.036190126
000080 a5 2f 43 bd b5 de 07 be c1 f8 09 3c 7a b6 b6 bc
       -0.04765286 -0.1326855 0.008421124 -0.022303808
000090 13 c5 94 39 b2 64 3c bd a5 e4 6e 3d 30 69 06 3e
       0.00028375592 -0.045994468 0.05832352 0.13126063
0000a0 d9 d3 03 bd 8a 19 50 3c a2 11 b7 bd 40 45 11 bd
       -0.032184456 0.0127014015 -0.0893891 -0.035466433
0000b0 92 7d 98 3b 0b c9 ff bd 8f 32 3a bd 01 ea 39 3e
       0.004653641 -0.12489518 -0.045458373 0.18155672
0000c0 26 86 9d bd 16 b7 35 3d b3 5d 3b bd ee 98 de bc
       -0.076916024 0.044364057 -0.045743655 -0.027172532
0000d0 41 0c 0f bd 77 bf 7e 3d 40 2d 97 bd 52 13 32 3d
       -0.034923796 0.062194314 -0.07381678 0.043475457
0000e0 bb 55 37 bc 13 2f 70 bd 7c 22 9d bc 57 59 08 be
       -0.011189873 -0.058638643 -0.019181482 -0.1331533
0000f0 33 31 04 bb e5 5a a5 3c 9e 1e 8f 3d d9 45 08 be
       -0.0020170927 0.020184943 0.06988262 -0.13307895
000100 6d 0b 9d bc 69 29 31 3c b0 67 44 3d cf ca 58 3e
       -0.019170487 0.010813096 0.047950447 0.21171115
000110 88 58 e3 bc 26 07 cc 3b 20 4b 10 bd 96 20 00 3d
       -0.027752176 0.006226438 -0.035227895 0.031281076
000120 24 4a 4d 3b f1 06 d2 bd 62 22 4a 3d 9c 13 1e 3d
       0.0031324709 -0.1025523 0.049349196 0.03859292
000130 97 09 56 be ac fe 80 3d 19 7d c3 bc a2 7f cd 3d
       -0.20902096 0.06298575 -0.023863362 0.1003411
000140 3e 50 4e 3d 87 41 92 3b c7 17 06 3d 54 73 b3 bd
       0.050369494 0.004463378 0.03273752 -0.087622315
000150 43 f0 80 bd 72 16 85 bc e4 85 ce 3d f3 42 67 3d
       -0.06295826 -0.016246054 0.10084131 0.056460332
000160 f4 2c 9c bd 94 3b a9 bd 37 0a c3 3c 53 58 69 3d
       -0.07625762 -0.08263317 0.023808582 0.056969
000170 29 ff 32 bc fb ce 14 be a7 3e c3 bd 42 6d 7c 3c
       -0.010925093 -0.14532082 -0.09533434 0.0154069085
000180 78 85 90 bd ee 9a b1 bd 1c b2 c6 3c 52 84 c2 3d
       -0.07056707 -0.086721286 0.024254851 0.09497894
000190 b7 32 e8 3d 1b c6 45 3d 3b 9c 0d 3e 38 eb ce bd
       0.11337798 0.04828463 0.13829128 -0.10103458
0001a0 49 4c df bd bf fc a3 bc 51 db 20 3e 7e 46 ff bd
       -0.10903222 -0.02001798 0.15708663 -0.12464617
0001b0 af ef 96 bd cc 93 ec bd 1d 3b 77 3d 20 ae 60 bd
       -0.07369935 -0.115516275 0.06035911 -0.05485356
0001c0 0c b2 e9 bc 50 40 07 bd 99 00 8a 3d ac 02 ab 3d
       -0.028527282 -0.033020318 0.06738395 0.08350119
0001d0 cb 40 d0 3d ad 11 25 b8 38 c4 33 3d 27 c5 77 bd
       0.10168608 -3.9355527e-05 0.0438883 -0.060490754
0001e0 0e 83 6d bd 2c 5d 11 3e 61 e3 5f 3c 83 bc 96 bd
       -0.05798631 0.14195698 0.013665051 -0.073601745
0001f0 42 52 81 bd 39 ca b0 bd 7b 76 69 3d ae 10 3f 3d
       -0.063145176 -0.08632321 0.056997757 0.046646766
000200 0d 86 01 3d 4e d5 88 bd 1b 1c c4 3d 4e c6 1f be
       0.03162198 -0.0668131 0.09575673 -0.15602991
000210 7a c9 c6 3c cf d0 d3 3d 9b ba ec bc cd e4 11 be
       0.024265993 0.103425615 -0.028897574 -0.14247437
000220 f9 03 3a 3e 85 d7 cd 3d 3e 6d cb 3d cc 5b bc bc
       0.18165578 0.10050873 0.09932946 -0.02299299
000230 d2 c5 da 3c 22 96 14 bc 0f 50 8e 3d 71 8e 0b 3e
       0.026705656 -0.009068998 0.06948864 0.13628556
000240 2f 4b 25 3c 90 cd 20 3c b0 dc 07 bc 21 56 23 bd
       0.010088726 0.009814635 -0.008292362 -0.03987706
000250 d8 76 93 3d 8e 32 dc bc da ce 17 3d 03 24 cd bd
       0.07200402 -0.026879575 0.037062503 -0.10016634
000260 01 6e e7 3b 25 88 5e 3d fe c5 ce bc 45 5e 55 3d
       0.007062674 0.054329056 -0.025240894 0.052091856
000270 6b 30 94 3d 1a 16 91 bb 47 36 04 3e f8 6a 13 3d
       0.072357975 -0.0044276835 0.1291133 0.035990685
000280 f7 a7 24 bd 55 79 21 be 77 cf 60 bd 96 93 38 be
       -0.040199246 -0.15768941 -0.054885354 -0.1802505
000290 68 fb e6 bd 36 14 0a 3d 1e 30 08 3e c3 7d ea bd
       -0.11278421 0.03371068 0.13299605 -0.114497684
0002a0 e1 9d bb 3d 55 4e 0e bd e9 18 d3 bd 0f 28 e7 bd
       0.091609724 -0.034742672 -0.103074856 -0.112869374
0002b0 3f f5 97 bd e8 1a 4a 3d 51 1f ad 3d 09 03 08 3e
       -0.07419824 0.049342066 0.08453239 0.13282408
0002c0 b4 ca 7d bd 24 22 03 bd d4 b3 3b bb bd e3 89 3b
       -0.06196089 -0.03201498 -0.0028641121 0.0042080567
0002d0 47 75 ad bd 2a e0 b2 bd 08 83 31 bd be 4a 86 3d
       -0.084696345 -0.08734162 -0.04333785 0.06557225
0002e0 bc f5 14 3e 5f d3 21 be 52 c9 cd 3d 1d 2c 7f 3d
       0.14546865 -0.15803288 0.100481644 0.06229793
0002f0 9c 8f f5 bc 80 d3 9b bd 3d 8f db bc 4f ef 43 bd
       -0.029975705 -0.076087 -0.0268017 -0.047835644
000300 f6 8d 65 be 45 17 42 3d 10 11 24 3e 0a 84 96 3d
       -0.22417435 0.047385473 0.16022134 0.07349403
000310 de d2 ba bc 7b f5 5a bd 28 c7 b0 bc d9 b5 83 bc
       -0.022805627 -0.053456765 -0.02157934 -0.016077923
000320 36 e5 2a bd f0 43 2c 3d 3c e6 84 3d fc be 3d 3d
       -0.0417225 0.042056978 0.06489226 0.046324715
000330 95 e1 03 be ee 40 0d 3c a6 52 6e be 4b 38 0b 3a
       -0.12879021 0.0086214375 -0.23273715 0.00053108175
000340 0d d3 05 be 71 7e dd bd 10 ef 5a bc 74 58 b1 bd
       -0.1306879 -0.108151324 -0.013362661 -0.08659449
000350 22 f8 38 3d f3 cd 35 3d 69 86 20 bd 46 7f 6f ba
       0.045158513 0.04438586 -0.039190684 -0.00091360917
000360 59 c5 a5 bd 47 ea db 3c 43 53 1c 3e 9d a3 65 3d
       -0.08094282 0.02684511 0.15266137 0.056064237
000370 fd 44 65 3e 1c 80 b8 3c 9f c0 3c 3d 03 40 a0 3d
       0.22389598 0.022522025 0.046082135 0.07824709
000380 02 e3 9a bd ef 92 f0 bd d2 f1 c2 bc df 7d 11 bc
       -0.075628296 -0.11746775 -0.02379695 -0.008880108
000390 c0 43 71 bd 17 3c c8 bd e0 53 da bd c1 19 3c 3c
       -0.058902502 -0.09777086 -0.10660529 0.01148075
0003a0 03 24 8d bd d4 3e a7 bd cf 37 9f 3b ed 4d c7 bc
       -0.06891634 -0.081662804 0.004858948 -0.02432915
0003b0 fa 9c 50 bd 11 03 ca 3c b0 e4 0a be 21 c0 2e be
       -0.050930955 0.024659665 -0.135638 -0.17065479
0003c0 1a 19 10 3d 27 aa a1 bc 80 f6 81 3d fd 6c b9 bc
       0.03518019 -0.019734455 0.06345844 -0.022634977
0003d0 69 45 94 3d 42 9f 66 bd 47 3b 31 bd e5 34 26 3d
       0.072398014 -0.056304224 -0.043269422 0.040577788
0003e0 23 31 26 bd 46 59 6b 3d 60 ee 14 bb 16 6f ec 3d
       -0.040574204 0.057458185 -0.002272509 0.115446255
0003f0 a6 97 92 3c 5f 84 6f bd 8a a0 10 bd 5b 9a 05 3e
       0.017894577 -0.05847585 -0.035309352 0.13047163

bias_ih f4 [512]
000000 0b 9d 1f 3d 7f 04 33 3e 71 54 b2 3d e2 f4 80 3e
       0.038968127 0.17482184 0.08707512 0.2518683
000010 53 ca c1 3d 57 e4 71 3d 7e 62 fb 3b 96 d2 93 3d
       0.094624184 0.059055652 0.0076716533 0.072179005
000020 a5 39 2c 3c 48 28 41 3e c5 e8 18 3c 49 2d 34 3c
       0.01051179 0.18863022 0.00933284 0.010997125
000030 58 81 18 3e 46 e3 8d bc 9e f7 a4 3d 43 35 0e 3e
       0.1489309 -0.017320286 0.08055042 0.13887505
000040 ba df 86 bc b9 5f 45 3d c4 e2 7b 3e f4 b3 05 3e
       -0.016464103 0.04818699 0.24598223 0.13056928
000050 b2 f2 43 3c be 8e 9d 3e 9c b6 74 3e ad 16 97 3e
       0.011959719 0.30772966 0.23897785 0.29509488
000060 ac 3b 21 bc 04 58 a2 3d 8d 4e 75 3d 08 0d 29 3d
       -0.009840887 0.07926944 0.059889365 0.041272193
000070 1f 60 83 3e b4 3f 1c 3e 67 88 95 3e 47 e0 b3 3d
       0.25659272 0.15258676 0.2920563 0.08783012
000080 de 78 ae 3d d9 c0 3b 3e a5 e3 03 3e 47 a5 82 bd
       0.08519147 0.18335284 0.12879808 -0.063791804
000090 6b bf 3d 3e 88 93 24 3e 28 f3 d7 bb e2 4d 15 3e
       0.18530051 0.16071904 -0.006590266 0.14580491
0000a0 35 b6 ef 3d 74 2b 30 3e 2c 70 64 3d c3 e7 1d 3e
       0.11704675 0.17204076 0.055771038 0.15420441
0000b0 9e 21 71 3e cd c8 d4 3d 1b 75 68 3d 71 9e 72 3e
       0.2354798 0.10389862 0.056752305 0.23693253
0000c0 10 ec 9a 3e 34 89 42 ba 2a 60 a9 3d 31 72 6b 3d
       0.30258226 -0.00074209576 0.08270295 0.05748195
0000d0 98 98 42 3d 19 fb 05 3e 4c 65 84 3e 9b 39 c0 3e
       0.047508806 0.13084067 0.25858533 0.3754395
0000e0 56 d1 fe 3d f5 5b 1e 3e 35 4b be 3d f2 6f 2b 3e
       0.124422714 0.15464766 0.09291688 0.16741922
0000f0 0e 01 58 3d f1 3f 9e 3e 86 5f dc 3e 75 07 d2 3d
       0.05273538 0.30908158 0.4304163 0.102553286
000100 a8 2c 4b bd c4 67 dd 3d 5a c3 b2 3c f9 ff a7 3d
       -0.049603134 0.10810807 0.021821667 0.0820312
000110 ca dd 89 3e e7 f5 53 3e f0 4a df 3d 15 c3 71 bc
       0.26927024 0.20699273 0.10902965 -0.014755984
000120 79 37 3a 3e 59 77 cf 3c 6f f5 f4 3d 61 43 ac 3e
       0.18185224 0.025325464 0.11960875 0.33645156
000130 14 2e 3a 3e 66 0f 4e 3b 34 16 8c 3e be b9 7c 3d
       0.1818164 0.0031442284 0.2736069 0.061700575
000140 0b 04 2a 3e 37 d1 d0 3d a8 48 45 3e c0 ef 96 3d
       0.16603105 0.101961546 0.19265997 0.073699474
000150 a3 4a 24 3e fa d2 c5 3d 9b 01 85 bd 66 c3 94 3d
       0.16044097 0.09659381 -0.06494447 0.07263832
000160 0c 7d 68 3e 32 ab 28 3e fb 9e 67 3e c4 2c c8 3d
       0.22703952 0.16471556 0.2261924 0.09774163
000170 d1 b8 66 3e bd 45 eb 3d bd 51 1f 3e 18 28 0d 3e
       0.2253144 0.11487911 0.15558524 0.13784826
000180 f9 f3 85 3c f0 c4 4e 3c 92 c6 cc 3d 19 c0 fe 3d
       0.016351687 0.012620196 0.09998812 0.124389835
000190 45 49 52 3e 42 70 4e 3e 06 ff 08 bc 5a 47 44 3e
       0.20535763 0.2016001 -0.008361584 0.19167843
0001a0 b2 41 ac 3d 50 a7 9d 3d 86 08 23 3e 52 43 a5 3d
       0.08410968 0.07697928 0.1592122 0.08069481
0001b0 b0 8e 8f 3e 06 e5 fa 3c 08 49 d7 3d 3c 91 ca 3d
       0.2803855 0.030626785 0.105119765 0.098909825
0001c0 a7 f7 86 3d 8c 7a 8e bb 21 87 04 3e 6e 25 01 bd
       0.06590205 -0.004348105 0.12942173 -0.031529836
0001d0 8b 8c c6 bc 0b 62 e9 3d 50 f7 99 bc c8 af 33 3e
       -0.024236938 0.11395653 -0.018794686 0.17547524
0001e0 18 bd f1 3b f1 98 15 bc 1e 47 3d 3c a0 d8 de 3d
       0.007377278 -0.009130702 0.0115526 0.10881162
0001f0 12 82 9e 3c f0 1c 2c bd 81 5d 84 3d 27 8b d1 3d
       0.019349132 -0.042019784 0.06463147 0.10231619
000200 be ae 9f bd c7 4e 18 3d 8b 61 98 3d 28 00 7a 3c
       -0.07797001 0.037184503 0.0744048 0.015258826
000210 d8 dd 57 bd 38 90 68 bd 4e b5 8f 3d 13 06 e1 3d
       -0.0527018 -0.056778163 0.07017003 0.10987487
000220 cd 5e 30 bd b5 48 74 bd b8 c8 47 3d f1 6b 7e bb
       -0.04305916 -0.05963965 0.048775405 -0.0038821662
000230 33 44 c5 3d c7 a4 8e 3c 35 aa 80 3d 38 d9 7d 3d
       0.096321486 0.017412556 0.062824644 0.061974734
000240 a2 76 5e 3d 82 2e 8a 3d 91 4d d4 bc 12 04 66 3d
       0.054312356 0.06747152 -0.025915893 0.056156226
000250 0d 32 fd 3d 04 fd c6 3c fb 24 73 bd f9 be 91 3d
       0.12363062 0.02429057 -0.05936144 0.07116503
000260 0a 6f 52 3d 6f 2b 85 3d 8d 2b ae bd 34 9b 1a be
       0.051375426 0.06502425 -0.085044004 -0.15098268
000270 bb 66 a6 3c 6d f5 9a 3c 85 61 1d 3d bc 91 94 3d
       0.020312658 0.018915856 0.03842308 0.07254359
000280 cb 3d e4 bd 07 0e 18 3c ab ab 86 bd da 70 47 bd
       -0.111445986 0.009280688 -0.06575712 -0.048691608
000290 3f d1 87 bd 05 bb 18 bd 16 9b 0b 3e 25 25 ad 3d
       -0.066317074 -0.03728773 0.1363338 0.084543504
0002a0 f5 c1 10 3d c4 44 43 3d 24 23 68 3d 39 24 a2 bc
       0.03534122 0.047673002 0.056674138 -0.019792663
0002b0 34 d0 1a be d3 58 bc 3d f0 34 2c 3e 12 29 bd bc
       -0.15118486 0.091966294 0.16817069 -0.023090873
0002c0 53 8f 12 bd cb be c8 3c 25 8b 59 3d 6c 27 51 bd
       -0.035781216 0.02450504 0.053111214 -0.051062986
0002d0 cd 6d 91 bd 01 6b 13 3d 11 37 e7 bc f1 d1 a3 bc
       -0.07101021 0.03599072 -0.0282245 -0.019997569
0002e0 41 20 4c bd d3 62 2f bc f5 fe c3 3c 92 ab 10 bd
       -0.049835447 -0.010704714 0.023925284 -0.035319872
0002f0 b8 5d 2a bd 53 0e e8 bd d3 66 a9 bd 50 cf a4 bc
       -0.041593283 -0.11330857 -0.08271565 -0.020118386
000300 e1 9a 91 3d de 7e f1 3d fa f5 b7 bd c1 6d 83 bd
       0.07109619 0.11791776 -0.08982463 -0.06417418
000310 47 da f1 bb a5 2e 31 bd 58 e2 1a bc e7 73 a4 bd
       -0.007380757 -0.043257374 -0.009453379 -0.08029919
000320 b5 03 a7 bd 93 fa f2 bc 04 63 42 bc b1 96 d0 bd
       -0.08155004 -0.029660499 -0.0118644275 -0.10184992
000330 cd 89 df 3d 69 52 59 3d 56 6d 98 3d 34 22 33 bc
       0.10914955 0.053057108 0.07442729 -0.010933448
000340 c7 b1 24 3b 74 38 b5 bc af cf af bd 77 76 27 3e
       0.0025130378 -0.022121646 -0.085845344 0.16353785
000350 2f 65 ac 3d 56 55 80 bd bf b4 ba bd db 78 6d 3d
       0.08417737 -0.062662765 -0.09116506 0.057976585
000360 fd 03 88 bc b5 a2 86 3c 0a d8 e5 3d 18 03 fa 3c
       -0.016603464 0.016435007 0.11222847 0.030519053
000370 09 60 66 bd 90 48 cf 3c 17 24 74 3d ba d1 71 3d
       -0.05624393 0.025303155 0.05960473 0.0590379
000380 c0 35 e1 3d a1 0f 7b bd e3 71 91 3c 31 c7 8e bd
       0.1099658 -0.0612942 0.0177545 -0.069715865
000390 e3 e0 20 be 4c 7a 3c 3c 05 38 a7 bd 62 c0 57 3d
       -0.15710787 0.011503767 -0.08164982 0.052673705
0003a0 b5 42 ba 3d 41 6d 8b 3a 8e 3c 48 bd e5 01 0a 3e
       0.090947546 0.0010637419 -0.048885874 0.13477285
0003b0 7e a3 e2 3b f3 f1 8e 3d 5a 93 80 bd 49 87 75 bd
       0.0069164624 0.06979742 -0.06278105 -0.05994347
0003c0 a3 a6 d9 bd 3d 22 dc 3d 33 a5 bd 3a 45 4b 2d 3d
       -0.106274866 0.10748718 0.0014468789 0.04230811
0003d0 69 fe 87 bd e5 33 5c 3c 51 8e 20 bd 23 02 3e bb
       -0.06640322 0.013440107 -0.039198224 -0.0028992973
0003e0 37 3c 4a 3d 75 f0 32 bc f1 1b e9 3a e2 ce f8 3c
       0.04937383 -0.010921587 0.0017784816 0.030372087
0003f0 f2 86 8e 3d 7b 9b f5 3d 15 c5 f2 3d 17 78 8c bd
       0.069593325 0.11992546 0.11853997 -0.06858843

bias_hh f4 [512]
000000 6a de cb 3c 5f 58 32 3e f6 04 27 3d 3a 03 98 3e
       0.024886329 0.17416523 0.040776215 0.29689962
000010 da a1 56 3d 0d 4e 11 3e ae cb 0c 3c 05 8c 76 3d
       0.052400447 0.1418993 0.008593483 0.060192127
000020 38 d2 06 3e 5a 6b 58 3e fe c5 08 bc ca f2 93 3c
       0.1316613 0.21134701 -0.008347986 0.018060107
000030 7e b8 3a 3e a3 61 7c bd 12 fa c5 3d 75 e8 6d 3b
       0.1823444 -0.06161655 0.09666838 0.0036301885
000040 a3 62 5f 3c 35 12 55 3d fa f6 03 3e ea 1c 37 3e
       0.013634357 0.052019317 0.12887183 0.17882124
000050 98 24 b0 3d 32 38 c2 3e 1a 70 74 3e 9b fe 36 3e
       0.0860073 0.379335 0.23870888 0.17870562
000060 f8 95 06 bc 76 0d 56 3e 11 c4 58 3d 9a 07 72 3d
       -0.008214466 0.20903572 0.05292136 0.05908928
000070 c0 21 1d 3e e6 22 b0 3d 22 49 6a 3e 39 b2 de 3d
       0.15344906 0.08600406 0.2287946 0.10873837
000080 64 f5 fd 3d ab 0d 4f 3e 6c 70 01 3e 7b 79 22 3b
       0.1240032 0.20220058 0.12640542 0.0024791646
000090 85 c4 00 3e c6 14 58 3e fe 08 d6 3d f8 da 0c 3e
       0.12574966 0.21101674 0.10450934 0.13755405
0000a0 eb 2c 0e 3c 8c 23 41 3e de b9 e7 3c 63 d6 0c 3e
       0.0086777015 0.18861216 0.02828687 0.13753657
0000b0 a6 d8 12 3e 0a ab 4e 3c b7 e9 57 3d bb d0 85 3e
       0.14340457 0.012614021 0.052713122 0.2613581
0000c0 b1 6d 56 3e a1 f6 01 3e 0f aa ae b9 04 46 d9 3c
       0.20940281 0.12691738 -0.0003331457 0.026522644
0000d0 38 ec 61 bd 0b 49 f4 3d c5 a2 3e 3e a9 fe 97 3e
       -0.055156916 0.11927994 0.18616779 0.29686478
0000e0 60 e4 93 3d 99 57 02 3e 97 7e c7 3d c2 5c 34 3d
       0.072212934 0.12728728 0.09740942 0.044033773
0000f0 0c 43 1b 3d 73 7f 6e 3e 22 40 ba 3e 4b 95 bd 3d
       0.037905738 0.23290806 0.36377054 0.09256991
000100 25 c7 a1 3d 0b cf 85 3b ba bd 84 3d 64 13 70 bc
       0.07899312 0.0040835193 0.064815 -0.014653061
000110 66 0d 64 3e f9 f2 0c 3e 05 c6 f3 3c 39 23 73 bc
       0.22270736 0.13764562 0.029757509 -0.014839941
000120 34 0f f6 3d 0f 2b 1d 3d 9d 8f de 3d b7 a7 9f 3e
       0.120146185 0.038371142 0.10867236 0.31182644
000130 74 07 0a 3e 3c 65 d5 3d 70 d5 5c 3e 80 6f 38 3e
       0.13479406 0.104196995 0.21565795 0.18011284
000140 6d 49 48 3e a7 b4 f1 3d e6 5a 87 3e 46 f0 18 3d
       0.1955926 0.11802035 0.26436538 0.037338518
000150 89 7b 0b 3e 61 97 75 3d c5 14 03 3d b2 b4 89 3d
       0.13621344 0.05995882 0.03200223 0.06723918
000160 e4 1b 34 3e 86 ad 3c 3e 9b 49 50 3e 11 94 49 3e
       0.17588764 0.18425569 0.20340578 0.19685389
000170 4b dc 1a 3e 05 b9 f8 3c 55 9f 22 3e 1a 51 12 3e
       0.15123098 0.030361662 0.15881093 0.1428875
000180 6e 55 eb 3d 2a 61 72 3c c1 38 1f 3d 1c 2f 86 3e
       0.11490904 0.0147936735 0.038872484 0.26207817
000190 f1 65 65 3e a8 da 85 3e d9 49 a0 3d e2 01 1c 3e
       0.22402169 0.26143384 0.07826585 0.15235093
0001a0 9e d6 30 3e ac 69 01 3e 97 e4 aa 3d 1a c3 1b 3e
       0.1726937 0.12637967 0.08344381 0.15211144
0001b0 5b 42 67 3e 9b 59 eb 3d a8 23 67 3d 48 10 52 3e
       0.22583906 0.114917 0.05643049 0.20514023
0001c0 09 1b 7d 3d 2b ad 41 3d e8 3b 97 3c 12 ab 8a 3c
       0.06179336 0.047284286 0.018461183 0.016927276
0001d0 92 cd 31 3c 5b f4 b8 3d 60 fd f4 3d 72 b6 19 3e
       0.010852234 0.09030982 0.1196239 0.15011004
0001e0 95 cc 3b 3b 11 94 0a bc 2d 75 dd 3c 5a 35 d9 3d
       0.0028655876 -0.008458153 0.027033413 0.10605879
0001f0 b3 1d 28 3e f2 fe 4b 3d 0b 44 a3 3d 48 b8 06 bd
       0.1641758 0.04980368 0.079719625 -0.032890588
000200 89 c2 44 bd 2f 4f 27 3d d3 65 c1 bd 07 aa 91 3d
       -0.048037086 0.040847 -0.094432496 0.07112508
000210 4e 88 82 bd 95 d0 bf bc db 59 53 3d a7 5d 8b 3d
       -0.06373654 -0.02341489 0.051599365 0.06804972
000220 73 a4 d0 3b 03 23 b2 bd 89 1c 5f 3c 53 0e 3a bd
       0.00636726 -0.08698084 0.013617643 -0.045423817
000230 e7 4d 03 bd 15 fd 68 bd cd df 5a 3d 8d f6 8c bc
       -0.032056715 -0.056881983 0.05343609 -0.017207408
000240 a4 35 fa bb ee 5f 28 bd c8 04 51 bc 41 69 bf 3d
       -0.007635789 -0.04110711 -0.012757488 0.093462475
000250 95 cd 87 3d 2f ac 03 bd 91 86 93 bd a5 e9 22 bd
       0.066310085 -0.03214663 -0.07203401 -0.039773602
000260 35 d4 12 3e a5 36 eb 3c a7 95 8e 3d df f2 d3 bd
       0.14338763 0.02871258 0.06962138 -0.10349058
000270 47 0e 5c 3a f1 5b 0f bc 3e 3f ff bd 12 91 d0 bc
       0.00083944615 -0.008749948 -0.12463234 -0.0254598
000280 03 37 b1 3c 83 db 4a bc 80 13 5e be 01 08 a7 3d
       0.021632677 -0.012381437 -0.21687126 0.081558235
000290 ec 6a 4f 3d d9 cb a2 3c d6 0a fc 3d c8 9e a7 3b
       0.050639078 0.019872593 0.12306754 0.0051153637
0002a0 8c bb ea 3d 45 88 7a bd 2c 8f 5b 3d 76 18 a0 bd
       0.11461553 -0.061165113 0.053603336 -0.078171656
0002b0 05 2e 42 3c dc 74 75 bd e8 34 a5 3b fc c2 87 3d
       0.011851792 -0.0599259 0.0050417073 0.06628987
0002c0 a9 81 dc 3d 52 33 99 bd 9a 7a 9e 3d c0 97 1b bd
       0.10766918 -0.07480492 0.07738228 -0.037986517
0002d0 29 37 69 3d 9d 08 61 3d 45 a5 ac bd 4c 02 06 3d
       0.05693737 0.054939855 -0.0842996 0.032717034
0002e0 ec 14 cb 3d 24 de 1c 3d 77 ed 77 bd 1e df 94 3d
       0.099161 0.038297787 -0.0605292 0.07269119
0002f0 f4 e8 05 3d c1 7b 27 3b f1 58 65 bd 97 c3 bb 3d
       0.032692865 0.002555594 -0.055993024 0.09168165
000300 f5 60 06 3c 27 b4 fa 3c 36 8b f6 3b 58 ab 54 3d
       0.008201827 0.030603481 0.0075239195 0.05192122
000310 f7 ff b0 bd 3b e3 08 bd cd 79 e3 bd 5d a7 8d 3d
       -0.086425714 -0.03341983 -0.11107216 0.06916688
000320 81 b8 a0 3d 68 ad 43 3d 3c 5a c5 bd 68 4c 41 be
       0.07847691 0.047772795 -0.096363515 -0.18876803
000330 e3 20 cd 3d 9b 30 87 bc 85 79 1e 3d d1 8c 8b bd
       0.10016038 -0.01650267 0.03869011 -0.06813968
000340 2c 78 b8 bd 8e 41 ff bd a7 b8 03 be 6b da 0f 3e
       -0.09007296 -0.124636754 -0.12863408 0.14048164
000350 59 c9 87 3d 7a d7 67 bd 3d 96 98 3d c5 e8 34 39
       0.06630201 -0.05660198 0.07450531 0.00017252851
000360 7f 26 07 3d b6 a1 6e 3d cc 62 b1 3d 53 fa 9f 3c
       0.032995697 0.05825969 0.08661422 0.019528544
000370 4d 7e c0 bc f7 8e 0b bd 75 a4 0f 3d 96 8f 86 3b
       -0.023497725 -0.03407189 0.035068948 0.0041064722
000380 16 b5 e6 3d ea 6f 92 bd 27 a7 2b 3d 20 49 8b 3b
       0.11265008 -0.07150252 0.041907456 0.0042506605
000390 8e 94 b6 bd 71 b9 26 3d b9 7e 96 bd c1 88 a5 3d
       -0.08915053 0.040704194 -0.07348389 0.08082724
0003a0 0f 92 df 3d 2e 78 30 3d c4 03 8b bd d1 a8 25 bb
       0.1091653 0.043083362 -0.067878276 -0.0025277624
0003b0 76 d8 ab 3c 72 ec 0b 3e 5d f0 a8 bd c9 d7 cd bc
       0.02097724 0.13664415 -0.08248971 -0.025127308
0003c0 03 fb 01 be ea f8 f9 bc 91 32 21 bd ae de 99 bd
       -0.1269341 -0.0305142 -0.039354865 -0.07513176
0003d0 4c 58 1a bd 77 7e e3 bc de c2 7b 3b d6 4f 24 bd
       -0.037681863 -0.027770264 0.003841571 -0.0401152
0003e0 3b 13 1d 3d 55 ef f3 3b 37 d6 8f bd 0f 0e 8a bd
       0.038348418 0.007444302 -0.0702328 -0.06740963
0003f0 ae 08 f2 3d 55 f3 77 3d f7 c5 82 3d 32 62 21 3d
       0.11818062 0.060534794 0.06385415 0.039400287

weight_ih f4 [512, 128]
000000 6b ed 78 bd 8f 0c 87 bd d8 2a b9 bd 34 2b 62 bd
       -0.060773294 -0.06594192 -0.09041375 -0.055216983
000010 c9 4f da bd 2c d7 95 bd 5c ec a0 3c 43 5a 93 3d
       -0.10659749 -0.073164314 0.019643955 0.071949504
000020 e7 83 48 3e 7a ec 57 3d 90 8e 5c bd df 38 b6 bd
       0.19581567 0.052715756 -0.053846896 -0.08897566
000030 b4 cd 14 be e0 62 bb 3d 01 49 a0 3c dd ba 23 3e
       -0.14531595 0.09149718 0.019566061 0.15989251
000040 fc 0a 99 bc 99 84 a3 bb de d7 ae bd 28 ff 17 3c
       -0.018681996 -0.004990172 -0.08537267 0.009277143
000050 56 58 41 3d c8 a4 0b bc 50 f7 d4 bd b2 bc 26 3d
       0.047203384 -0.008523174 -0.103987336 0.040707298
000060 9c 9b 69 bc db 99 1d 3e ab 9f 06 3d ea 97 3b bd
       -0.014258292 0.15390722 0.032867115 -0.045799173
000070 b6 c2 aa bc 63 7b b4 3c c7 c3 df 3d 64 67 ba 3d
       -0.020844799 0.022031492 0.109260134 0.091017514
000080 ec bf 63 3d 0e 83 e6 bd a8 c2 e0 3d 60 01 b2 bc
       0.055602953 -0.112554654 0.10974628 -0.021729171
000090 c9 82 00 be 77 3b a1 bc f4 33 59 bc b0 0e 0a be
       -0.1254989 -0.019681675 -0.0132570155 -0.13482165
0000a0 23 47 48 3d 10 aa ce bd 20 27 3d bd 2f a2 14 3c
       0.048895966 -0.100910306 -0.04617989 0.009071871
0000b0 31 ef 52 3b b5 9a cc bd 8f a9 f4 bd b4 92 6b bd
       0.0032186026 -0.099904455 -0.11946403 -0.057512954
0000c0 90 32 6c 3e 7e 7c 8d bd 2a e2 a8 bd 0e 58 2e 3d
       0.23066163 -0.069085106 -0.08246262 0.042564444
0000d0 e1 e0 07 bd 66 82 4f bd c2 0c ee bc 21 77 1b be
       -0.033173446 -0.050661467 -0.029058818 -0.15182163
0000e0 da 36 19 bc dd 87 ba bd a6 a8 e7 bc 21 38 1f be
       -0.009351457 -0.09107945 -0.02827866 -0.15548755
0000f0 3c 51 94 3b 67 26 e6 bd 65 2d 06 3e ee f7 3f bd
       0.0045262855 -0.112377934 0.13103254 -0.046867304
000100 5d 08 05 be 0e c7 20 ba b7 21 3d bd 85 15 88 bd
       -0.12991472 -0.0006133177 -0.04617473 -0.066447295
000110 95 6c a3 bd b0 58 e9 bc 79 cd 3d 3e 34 a9 9b 3c
       -0.07979695 -0.028484672 0.18535413 0.01900158
000120 3e 26 8d bd c0 29 78 3d 47 39 2b bd bb f9 79 bd
       -0.0689206 0.06058669 -0.04180267 -0.061029177
000130 bf 7d b7 bd 7d 67 8f bd 45 68 1b bd f4 f1 0c 3e
       -0.08959531 -0.07002161 -0.037941236 0.13764173
000140 bb e6 81 bd 06 aa 84 3c 26 31 0b 3e 07 15 36 be
       -0.063428365 0.016194355 0.13592967 -0.17781459
000150 57 da 4b 3e e9 41 3a bd 6a 00 51 bd cd 02 e8 3d
       0.19907509 -0.045473013 -0.051025786 0.11328659
000160 71 ec 1b bd e2 a7 e1 3d fc 0c be bc 21 72 15 3d
       -0.038067285 0.11018349 -0.02319955 0.036485795
000170 df 75 d4 bd 46 6e d2 bd dd 62 95 bd c5 62 9d 3d
       -0.103740446 -0.10274939 -0.07294247 0.076848544
000180 8d aa 3a 3d e0 91 15 be 3c b9 55 3d 39 54 3d be
       0.045572806 -0.14606428 0.052178606 -0.1848916
000190 b9 90 f6 bd 3e 5a 38 be 9e 55 06 3e 37 d9 e6 bd
       -0.120393224 -0.18003175 0.13118598 -0.11271899
0001a0 8b fa c3 3d 0a b3 0f be 39 9c 9d 3d b4 b1 13 be
       0.09569272 -0.14033142 0.07695813 -0.14423257
0001b0 a2 49 15 bd d5 14 10 3e 3f 1b 2f be 6e 9f 12 be
       -0.036447175 0.14070447 -0.17100237 -0.1431863
0001c0 60 31 db bd 13 7b b1 bd da c8 b8 bc 9e 38 e2 bc
       -0.10702777 -0.08666053 -0.022556711 -0.027614888
0001d0 a9 c5 bd bc 60 bc 76 3d e0 e2 c3 bd 37 83 99 3c
       -0.02316554 0.060238242 -0.09564757 0.018739326
0001e0 30 32 12 bb 7e 0c 4c 3d 92 b1 5f 3d 95 07 47 bd
       -0.0022307746 0.0498166 0.054612704 -0.048591215
0001f0 61 93 2a bc fd eb 09 bd 1c a1 f8 bd c2 2d 3b bd
       -0.010411114 -0.03367232 -0.12140104 -0.045697935
000200 04 ed 02 3e 3c 32 94 3c d8 f1 21 bb 0b 13 0e 3d
       0.12785727 0.01809036 -0.00247108 0.03468613
000210 c9 be d7 bd f2 88 49 3e 74 3b e3 bb 41 f0 0b 3d
       -0.10534436 0.19681147 -0.0069345776 0.03416467
000220 d6 3a b3 bd 4e 81 dc bb eb 3c 72 3b 40 5c ba bd
       -0.087514564 -0.0067292815 0.003696258 -0.090996265
000230 e7 44 fd ba c4 11 97 bd a0 db 0c 3d 96 de d3 3d
       -0.0019322903 -0.073764354 0.03438914 0.10345189
000240 42 34 d2 3d 25 31 21 3d 11 e2 4c be cf ec ca bd
       0.10263874 0.03935351 -0.20008112 -0.09908449
000250 20 36 54 3d 2a ad 3b 3d ad 60 14 be 31 cd 03 3c
       0.05180943 0.04581944 -0.14490004 0.008044527
000260 61 86 05 be f3 52 e6 bd fa 64 20 3e 5e cb ea 3d
       -0.13039543 -0.1124629 0.1566352 0.114645705
000270 11 cb 46 3d 6c be 21 3d 08 25 ad 3d ca 5d c7 3d
       0.048533503 0.03948824 0.08454329 0.09734686
000280 40 cf 41 3d bf cc 1f be 07 ce 1a be d7 7a 2d bd
       0.04731679 -0.15605448 -0.15117656 -0.042353477
000290 f7 2b a2 bd 77 b3 2a be 40 18 0f 3d 2c 0c 3e 3d
       -0.07918542 -0.16670023 0.034935236 0.046398327
0002a0 18 16 1d be 80 97 58 3c bb 91 9d 3d b0 95 17 bd
       -0.1534046 0.013219714 0.076938115 -0.037007987
0002b0 47 8e a6 3d ae 0c 84 be c8 15 16 3e 21 1d 5c 3e
       0.08132606 -0.25790924 0.14656746 0.21495487
0002c0 0c ee a4 3d 46 bc d1 bd 43 f8 16 be 69 dc e5 3c
       0.08053216 -0.102409884 -0.14743142 0.028059201
0002d0 e3 c1 0e bc 54 91 77 bd 79 b9 0c be ca da d9 bb
       -0.008713218 -0.06044133 -0.13742627 -0.006648396
0002e0 7e 17 69 be 9d 61 cb bc 6e fb 81 bb 69 96 9d bd
       -0.22762868 -0.02482682 -0.0039667403 -0.07694704
0002f0 96 aa cd 3d 1a ac 92 3d 72 d6 3f bc 41 52 c8 bc
       0.10042302 0.07161732 -0.011708843 -0.024453284
000300 2d d8 02 bd 19 e9 81 3c 19 d2 f3 bc 49 38 da 3d
       -0.031944443 0.01585822 -0.029763268 0.10655267
000310 3b 8e 67 3d de 6a 27 3d e2 00 7a bd c8 1e 36 be
       0.056532126 0.0408734 -0.061036 -0.1778518
000320 cd 1f d7 bd e1 bb 88 bd 7c 01 e1 3c 59 12 f3 bd
       -0.105041124 -0.0667646 0.027466528 -0.11868734
000330 cd 82 a9 bc 6d b4 48 3c 9b b3 23 3d 6c 79 96 bc
       -0.020692253 0.012250048 0.039966207 -0.018368445
000340 5f d9 5b bd d7 ab d9 3c ec 13 b3 bc d6 13 a1 bd
       -0.053674098 0.026571197 -0.021860085 -0.078651115
000350 bc 16 27 3e cd 7d 14 be ea 46 d6 3d 9b 9e 99 bd
       0.16317266 -0.14501114 0.104627445 -0.07500955
000360 63 28 23 be c2 c4 2e 3e f7 00 2f 3d 0c 91 44 3b
       -0.15933375 0.17067245 0.04272553 0.0029993681
000370 d6 2e 88 3c a8 11 aa 3c 9f ba fc bb 93 c2 b7 3c
       0.016623896 0.020760372 -0.0077126767 0.022431647
000380 0c b4 37 bc 6b f3 86 bd 1e 54 f4 3c 87 54 1c bc
       -0.01121236 -0.06589397 0.029825266 -0.009541637
000390 47 23 0e be 44 c1 7e 3c cd 89 62 bd 3c 3e b9 bd
       -0.13880645 0.015549008 -0.0553072 -0.090450734
0003a0 5d 63 77 3c 40 31 2a 3e 98 39 6b bd c9 a4 7b bd
       0.015099374 0.1662035 -0.057427973 -0.06143645
0003b0 77 b8 16 3d a2 5f 8e 3d 50 a5 91 bd a9 92 c4 bd
       0.036797013 0.06951834 -0.07111609 -0.09598286
0003c0 ba 54 8d bb 76 18 db bb 52 91 0f be 98 7b b7 bd
       -0.0043130787 -0.0066862656 -0.14020279 -0.089591205
0003d0 de 80 16 be 8a 81 42 3d e9 24 fd bb e5 6a 55 bc
       -0.14697596 0.04748682 -0.0077253473 -0.013025974
0003e0 93 0f 7b bd 9d 89 13 be f6 6c 3d bb 6c 9e 03 3e
       -0.06129415 -0.14407964 -0.0028904057 0.12853402
0003f0 ec c2 9e bd 8b ed 1e bd bd af f3 3c a0 38 86 bd
       -0.07752022 -0.038800757 0.029746884 -0.06553769

weight_hh f4 [512, 128]
000000 a3 28 4f bd 3a 95 71 3d 26 06 16 3d 68 eb 5c be
       -0.050575864 0.058980204 0.036626957 -0.21574175
000010 d3 8d 1c bd ff 92 aa 3d f6 9b 32 bd 2a 91 18 be
       -0.03822119 0.083288185 -0.043605767 -0.14899126
000020 52 ae 7f 3d 07 42 b7 bb 8e ea de bb f1 1a 93 bd
       0.062422104 -0.005592588 -0.0068028634 -0.07182873
000030 07 2c 30 3d ec 68 c8 3d 1b 37 72 bb a8 10 b1 bd
       0.043010738 0.09785637 -0.0036959115 -0.08645755
000040 84 93 25 bd 09 42 c6 bd 50 b0 b7 3d e8 c2 ba bc
       -0.040423885 -0.09680564 0.08969176 -0.022798017
000050 38 7c e8 3b a5 bc 89 bd d7 3c fc bc 9b e4 d2 3c
       0.007094886 -0.06725434 -0.03079073 0.025743773
000060 85 21 69 bd be e3 00 3d bc 20 e5 3c 51 b6 25 be
       -0.056916732 0.031467192 0.02796971 -0.1618283
000070 96 bc b5 3d 51 94 35 3c 81 c7 9e ba 82 6f ca 3d
       0.088738605 0.011082725 -0.00121139 0.0988455
000080 46 49 a7 3a af 1d 8a bd f5 b7 ca 3d 76 96 41 3d
       0.0012762926 -0.06743943 0.09898368 0.04726263
000090 77 3c 97 bd 72 53 4f 3d 19 95 9d bd be 13 32 3e
       -0.0738458 0.05061669 -0.07694454 0.17390344
0000a0 91 c0 7d ba eb 7b 8c 3d 74 18 f1 3c d0 5d b2 3d
       -0.0009679879 0.06859573 0.029430605 0.087092996
0000b0 0a 74 a4 3d 97 c8 3e 3c 0a 92 05 be ec 70 32 3e
       0.08029945 0.011644504 -0.1304399 0.17425889
0000c0 dd 3b df 3d 48 83 22 3c 6b a0 d3 bd d3 f7 54 3d
       0.1090009 0.009918995 -0.10333332 0.051994156
0000d0 c7 25 95 bd 6d bc e8 bc 34 2a 03 bb d2 ba 56 bc
       -0.07282596 -0.02841016 -0.0020014169 -0.013106065
0000e0 5a 64 fd 3b 19 56 ba bd af ce 85 bd 67 fc ed 3c
       0.00773291 -0.09098453 -0.065335624 0.029051019
0000f0 e9 85 79 bd c7 1f eb 3d cb 29 1e 3e c5 76 ae 3d
       -0.060918722 0.114806704 0.1544563 0.08518747
000100 7a e5 0a be 71 81 20 be 89 df 04 be 88 7c 4c bd
       -0.13564101 -0.15674378 -0.12975897 -0.04992345
000110 5a aa cb bc 8a aa fb 3c b1 e5 9e bd ec e5 3a 3e
       -0.024861503 0.030720968 -0.07758654 0.1825177
000120 84 45 8b bb a0 7b 87 3d c1 41 5f 3d c6 a4 15 3d
       -0.0042502303 0.066153765 0.054506067 0.036534093
000130 8b e3 9a bc a6 96 69 bd ae ac 88 3d 6d 53 2f 3d
       -0.018907329 -0.057028435 0.06673561 0.04280417
000140 7f 4a 65 3d 0c 14 b0 bd f6 aa 86 3b b8 33 b7 bd
       0.055979248 -0.08597574 0.0041097356 -0.089454114
000150 76 44 c7 bb d0 27 90 3b 03 d3 94 bd 27 e3 ae bc
       -0.006081159 0.0043992773 -0.0726681 -0.021348549
000160 dd b2 9d bc bb 21 d2 3d 12 11 1e be 9d 2c 10 bd
       -0.019250328 0.1026034 -0.154362 -0.035198797
000170 3d 4f df bc a1 6c f9 bb 6c a4 91 bc d4 07 a3 bd
       -0.027259463 -0.0076118265 -0.017778598 -0.079604775
000180 35 c2 5e be d9 65 05 3d 58 18 40 3d 47 58 b0 3d
       -0.21753772 0.032567833 0.046898216 0.086105876
000190 c5 fe ed 3d 9c f8 e5 3d d8 f4 56 be 6f 43 d8 3d
       0.11620859 0.11229059 -0.20991838 0.10559737
0001a0 5d a3 13 bc 4d 33 a0 bd dd 4d 27 bd 14 60 a8 bc
       -0.009011117 -0.07822285 -0.04084574 -0.020553626
0001b0 98 1a 26 be bb 5a 4c 3c c3 71 69 bd ea 83 55 3d
       -0.16221082 0.012472804 -0.056993257 0.052127756
0001c0 75 3f e4 3d 08 d6 90 bd d6 93 19 3e 84 5d db 3d
       0.11144916 -0.07072073 0.14997801 0.10711196
0001d0 e6 65 02 3e 6f e6 18 3e 5d d9 6f 3c 1e 3f 12 3e
       0.12734184 0.14931653 0.014639226 0.1428189
0001e0 76 c3 0e bc 64 ee 5f 3d 60 09 c6 bd ed e4 be 3d
       -0.008713594 0.054670706 -0.09669757 0.09321008
0001f0 9c 57 9d bd 4b a8 63 3d 34 7f 07 3e 1f 8a 75 3d
       -0.07682726 0.05558042 0.13232118 0.059946176
000200 d3 d1 95 3d 2f 78 53 3b ec ab be 3d a8 f8 6b bd
       0.073154114 0.003226768 0.09310135 -0.057610184
000210 9d a2 17 bc 73 99 bd bd be 38 e2 bc 99 13 c1 bd
       -0.009255079 -0.09257784 -0.027614947 -0.09427566
000220 fd dc f1 ba 86 5e 9e bd 74 00 bb bb 1c 43 c4 bb
       -0.00184527 -0.07732873 -0.005706841 -0.0059894454
000230 48 ba 80 3d f2 fe 36 3c 1e 0e ed 3d bc 2a 6f 3d
       0.0628553 0.011169182 0.11574958 0.058390364
000240 9d 65 03 bb 43 12 b7 3d 18 8c 0b bc 9c c7 a3 3d
       -0.002004958 0.0893903 -0.008517288 0.07997057
000250 2d 45 1a bd fe df 0b 3e 59 45 89 3d 0a cd 25 be
       -0.037663627 0.13659665 0.0670268 -0.16191497
000260 51 a8 5e 3c 7a a4 1f be 1e 60 2c 3a 0a 70 64 3d
       0.013589934 -0.15590087 0.0006575602 0.05577091
000270 c4 46 a4 bd 59 dd 36 3e 6b 0a 04 3e 24 1e 03 3c
       -0.0802131 0.17857875 0.12894599 0.008002792
000280 88 88 09 bd 07 fb f3 bc 47 33 b1 3c 69 b6 73 bd
       -0.033577472 -0.029782785 0.021630896 -0.05950013
000290 17 12 a9 3d e3 b4 84 bd 48 b0 e1 bd 24 8f 11 3d
       0.082554035 -0.06479814 -0.11019951 0.0355369
0002a0 a4 b0 33 bd 87 03 4e 3c 7e e8 8a bd 3f bb 8e 3d
       -0.04386963 0.012574083 -0.067826256 0.06969308
0002b0 e9 26 98 3d 1b d0 5b bd c3 51 ba bc d5 ad 24 3d
       0.074292965 -0.05366526 -0.022744065 0.04020484
0002c0 1e a7 a5 bd ef 88 0b 3e 52 53 76 3d 37 e1 a5 3d
       -0.08088516 0.13626455 0.060138054 0.08099597
0002d0 ab 21 25 bd 8f 85 ef bc f9 55 2e 3d ab 9c b7 bd
       -0.04031531 -0.02923849 0.04256246 -0.08965429
0002e0 64 09 f7 3d 2b 48 db bd cd bd ab 3d fd 82 c9 bd
       0.12062338 -0.10707124 0.08385811 -0.09839437
0002f0 cc 91 96 3d 95 dd d2 bb 90 67 b1 3c 8e c5 e6 3d
       0.07352027 -0.006435106 0.021655828 0.11268149
000300 3e a2 ce 3d 87 ee d6 bc b2 a6 d1 3b 92 67 57 bd
       0.10089539 -0.026236786 0.0063980455 -0.052589007
000310 49 40 f7 bc 00 ee 70 3d 22 7a 99 bb e8 24 ad 3d
       -0.03018202 0.058820724 -0.004683749 0.08454305
000320 4b a7 25 bd df a6 1e bd 44 19 af bd 16 ea 5b bc
       -0.040442746 -0.03873336 -0.08549741 -0.01342251
000330 a5 2d 4d bc d9 ef ce bc 14 85 05 3e 18 69 4e bc
       -0.01252309 -0.025260853 0.13039047 -0.0125982985
000340 cc c8 fc 3c b4 0a bd 3c 01 d9 99 bc 67 66 f4 bd
       0.030857466 0.023076393 -0.018780233 -0.11933594
000350 c2 19 7b bd c3 c9 be bd fe f5 59 bd 28 5e b6 bd
       -0.06130386 -0.09315827 -0.053213112 -0.08904678
000360 1c 3c 45 bd a8 ac f5 3d 74 35 c0 bd 4c 50 02 3e
       -0.048153028 0.11995822 -0.093851954 0.12725943
000370 31 ac 11 3e 41 97 96 bd 95 a7 b6 3d 44 b0 6d bd
       0.14225842 -0.07353068 0.089186825 -0.058029428
000380 3a ba 57 bc 9b 90 9a 3d 64 71 79 bc 19 66 17 3d
       -0.0131669585 0.075471126 -0.015224788 0.036962602
000390 a4 23 b3 3d 84 31 ca 3d 69 06 24 3d 8c 2e 8b bc
       0.08747032 0.098727256 0.040045176 -0.016989969
0003a0 9a 1c 63 bc b3 4b ad bd 3e 15 9c 3d d4 1b 90 3d
       -0.0138618 -0.08461704 0.07621239 0.07036558
0003b0 bd d7 ce bb e1 bd 80 3d 84 0a b7 ba 3e 20 4c bc
       -0.006312339 0.062862165 -0.0013964926 -0.012458859
0003c0 60 b0 d5 3d 86 86 c1 bd 3d b5 ca 3d 0c 8c 9d 3a
       0.104340315 -0.094494864 0.0989785 0.0012019887
0003d0 e4 d9 2e be ca 36 dd 3d 3d 07 58 3d 5e fa 1f 3d
       -0.17075306 0.10801466 0.052741278 0.039057128
0003e0 50 5d b1 bb 40 f5 31 bd 68 56 95 3c ac e4 ec 3d
       -0.005412735 -0.04344678 0.018229678 0.11567053
0003f0 18 8e 9f bc 2e 8a e3 bd 5c ad e5 bb 78 6f 93 bd
       -0.019476935 -0.1111034 -0.0070091914 -0.07198995

bias_ih f4 [512]
000000 c5 ed b5 3d 83 76 44 3e 53 cd 2e 3e 17 c6 45 3e
       0.088832416 0.19185834 0.17070512 0.19313847
000010 a7 9d 31 3d 43 5b 0a 3e 70 f2 de 3d 0b a7 14 3e
       0.04336324 0.13511376 0.10886085 0.14516847
000020 6d 7f 01 3e fc 5b 81 3e a1 e2 11 3e 2e a2 3a 3e
       0.12646265 0.2526549 0.14246608 0.18225929
000030 2f a4 31 3d e9 b9 a5 3d 90 7e 9c 3e 4a f2 f9 3d
       0.04336947 0.080921 0.3056531 0.12204416
000040 28 74 e8 3d 64 a9 0c 3e 14 fb 71 3d 5d 8a 87 3e
       0.1135028 0.13736492 0.059077337 0.2647275
000050 03 a7 86 3e 40 36 51 3e 53 0d 17 3e a7 87 12 3e
       0.26299295 0.20430851 0.14751177 0.1430956
000060 0a 6d e8 3d 61 e8 20 3e c6 85 f6 3b e4 5e e7 3c
       0.113489226 0.15713646 0.0075232713 0.02824349
000070 04 8d 64 3d bf 32 2f 3e f2 49 f9 3d 7b ac 4f bb
       0.055798545 0.17109202 0.12172307 -0.00316885
000080 2e 6d 9d 3e c8 1c 4c 3e 1d 38 8d 3d a7 7b 33 3e
       0.3074736 0.19932854 0.068954684 0.17527638
000090 8c 5a 19 3d ef 1a 7a 3e 62 3d d1 3d 47 c9 4f 3e
       0.037439868 0.24424337 0.10216786 0.20291625
0000a0 98 27 c3 3e 6c 9a eb 3d e1 fb b3 3d aa 41 1b 3e
       0.38116145 0.11504063 0.087882765 0.15161768
0000b0 4e 48 f9 3d ee b3 ab 3e f4 f3 84 3e 5d a1 4b 3e
       0.12171994 0.33535713 0.2596737 0.19885774
0000c0 c4 5c 4f 3e 4a 88 ec 3d f6 9f e8 3d ec 8d 8b 3d
       0.20250231 0.115494326 0.11358635 0.06814179
0000d0 17 c0 37 3e 0d 19 20 3e 87 97 94 3c f9 13 a2 bd
       0.1794437 0.15634556 0.01813866 -0.07913966
0000e0 77 55 2a 3b 23 ad 4a 3e fa 31 36 3e 4a 6b cd 3d
       0.0025990882 0.19792609 0.17792502 0.100302294
0000f0 31 8d 4a 3e 6e f1 3d 3e ac ee 5d 3d 85 e3 99 3e
       0.19780423 0.1854913 0.054182693 0.30056396
000100 cd ad 83 3d c0 8b b5 3d 47 d4 f4 3d bf f2 6c 3e
       0.06429634 0.08864546 0.11954551 0.23139475
000110 a3 2f 02 3e 7b f1 c8 3e 3d de 06 3e 86 2e e0 3d
       0.12713484 0.39246735 0.13170715 0.10946374
000120 07 4d 7c 3d 1d db 9a 3e 6f 36 f8 3c 79 a6 d8 3d
       0.061596896 0.30245295 0.030299393 0.10578627
000130 fd 89 b0 3e d7 da 97 3d 0d a5 9f 3e 14 41 21 3e
       0.34480277 0.07414787 0.3118061 0.15747482
000140 cb 16 39 3e 2a 8b ac 3d 7a 23 01 3e ac 6c 45 3e
       0.18075101 0.08424981 0.1261119 0.19279736
000150 3e 77 d9 3d ff eb 06 3e e7 65 0b 3d 0a fa 36 3e
       0.10618447 0.13175963 0.03403273 0.1786882
000160 e8 2d 1f 3e e5 b3 7d 3e fe 0f cc 3d b6 ff fe 3d
       0.15544856 0.24775656 0.09963988 0.12451117
000170 2d 61 c9 3c 99 55 ac 3e 69 fb 31 3e 95 68 89 3e
       0.02458247 0.33659056 0.17381062 0.26837602
000180 6b 7b dd 3d 68 6b 82 3c dc 13 d5 3d 48 7c ff 3d
       0.10814556 0.015920356 0.104041785 0.12474877
000190 4a 28 a3 3e e6 d8 a0 3d 6c 31 ae 3d 31 be ad 3c
       0.31866676 0.0785387 0.0850552 0.021208854
0001a0 14 e2 82 3e 51 aa cd 3d 03 fa 80 3e e7 f4 53 3e
       0.2556311 0.10042251 0.25190744 0.20698892
0001b0 88 26 84 3e fc ab 39 3e 7e f1 a6 3d aa e8 6e 3e
       0.25810647 0.18132013 0.0815153 0.23330942
0001c0 bf 5e c2 3e d6 10 43 3e d7 cd 97 3d 9d d2 19 3e
       0.3796291 0.19049391 0.07412308 0.15021749
0001d0 4b bf 15 3e c7 03 6b 3e f4 83 3b 3e 4f 03 ba 3e
       0.14623754 0.2295066 0.18312055 0.3633065
0001e0 8c de 82 3e f7 2e 48 3d ce 4b a1 3d b7 41 55 3e
       0.25560415 0.048872914 0.07875787 0.2082585
0001f0 59 ef 38 3d 78 f9 3a 3e 72 cc 97 3d b6 69 9b 3d
       0.045150135 0.18259227 0.07412042 0.07588522
000200 2f 20 ab bc 69 b5 21 39 10 50 07 bc 90 86 e3 bc
       -0.02088937 0.00015421737 -0.0082588345 -0.027774125
000210 c5 29 23 bd 27 90 a8 bc 8c 9e 81 bd ea f5 d6 3d
       -0.039834756 -0.02057655 -0.063290685 0.10496123
000220 f7 77 87 bd a4 46 d0 bd 3a 80 e5 bc dc 9c 0c be
       -0.06614678 -0.10169724 -0.028015245 -0.13731712
000230 46 79 45 bd 2e 46 96 bd 50 b5 1a be cb 67 14 be
       -0.04821136 -0.073376045 -0.15108228 -0.14492719
000240 af 23 c8 3d 1b 72 86 bb a5 f3 11 bd cd 15 95 bc
       0.09772431 -0.004102958 -0.03563275 -0.018198872
000250 07 89 f1 bd 1f 04 d0 3d e4 9f eb bc 94 2f 0f be
       -0.11793714 0.10157036 -0.028762765 -0.13982993
000260 71 f7 f5 3c 78 a8 49 bd 63 9e fa 3c 5f 7f 0e bd
       0.030025216 -0.04923293 0.030593103 -0.03478944
000270 5f bd df bb 7d 90 0d bd 9c 3a 31 be a9 08 8a 3b
       -0.0068279947 -0.034561623 -0.17307514 0.004212458
000280 36 69 95 bd f8 4b 4f bd fe 48 4b bd ac f0 f4 bc
       -0.07295458 -0.05060956 -0.049630158 -0.029899918
000290 82 c0 e7 bc c2 3b ac bc 0d 98 4e bd 36 6e 1d be
       -0.028290037 -0.021024588 -0.050437976 -0.15374073
0002a0 41 21 d4 bd 7b 82 53 3a ff 09 30 bd 2e bd b2 3d
       -0.10357905 0.00080684543 -0.042978283 0.087274894
0002b0 90 e8 b9 bd b8 0c db bd 66 5e 23 bd e6 78 c4 bd
       -0.09077561 -0.10695785 -0.039884947 -0.09593372
0002c0 80 4a be ba cc 3a 3f be 8b 8c b2 bc e9 0e 9c bb
       -0.0014518052 -0.18674773 -0.021795532 -0.0047625196
0002d0 3e fb 36 bd 2d b9 8b bd 6c 0d 6d 3d 67 2c 8f bd
       -0.044673197 -0.06822429 0.05787413 -0.06990891
0002e0 cb 9a 9b 3a 5a 5b 8c bb a8 ae 5a bd 85 43 e3 3c
       0.0011871693 -0.004283351 -0.05338922 0.027742157
0002f0 47 2c 73 bc dc f6 d4 bd 8d fd a0 3c e5 9f c3 3c
       -0.0148420995 -0.10398647 0.019652152 0.023879955
000300 df a6 9f bd cb 07 f6 bb bc e1 fc bd 8e 8e 2b be
       -0.077955 -0.007508253 -0.12347743 -0.16753599
000310 c9 ed d2 3c 9d e4 0a be ee 54 1f bc 68 45 e8 3b
       0.02574815 -0.13563772 -0.009724839 0.007088352
000320 f2 bb 50 3d 8a 00 0f be 76 24 35 3d 67 70 10 bd
       0.05096049 -0.1396505 0.044224225 -0.035263445
000330 9f 56 90 bd 69 d5 08 3d cc 88 5f be c3 83 d9 bd
       -0.07047772 0.03340665 -0.21829528 -0.10620835
000340 06 9a 50 bd be 64 8f bd 82 43 b9 3d 08 62 40 be
       -0.05092814 -0.07001637 0.09046079 -0.18787396
000350 96 c2 7b bd 7d 31 bb 3a fe e2 81 bd 3a 59 43 bd
       -0.06146487 0.0014281716 -0.063421234 -0.047692515
000360 3d 72 80 bd 71 cd e8 bc c1 e1 cb bd c0 00 f2 bc
       -0.06271789 -0.028418275 -0.099551685 -0.029541373
000370 b7 d6 cf bc f0 4a ec bd c0 52 be bc e5 7c 3d bd
       -0.025370939 -0.11537731 -0.023232818 -0.046261687
000380 33 19 b5 bc b1 d7 27 3a d4 ee a9 3c 2a 4e 11 be
       -0.022106742 0.0006402685 0.020743765 -0.14189973
000390 b0 f0 e0 bc 8e e0 70 bd e0 e6 03 bd 74 d0 00 bd
       -0.027458519 -0.058807902 -0.0322026 -0.031448796
0003a0 ac ce 17 be 60 75 33 3d 69 5d 08 bc 61 08 aa bd
       -0.14824933 0.04381311 -0.008323052 -0.083023794
0003b0 88 03 07 be f3 09 df bd 75 99 48 bc 96 4c e1 bc
       -0.13184941 -0.108905695 -0.012243618 -0.02750234
0003c0 c7 67 de bd ae fa 21 3d 2e 8d 8f bd 92 cf ec bd
       -0.10859638 0.039545707 -0.0700935 -0.115630284
0003d0 db 68 8c bd f2 bd 15 3d 8a f7 76 bd f4 84 23 be
       -0.06855937 0.0365581 -0.060294665 -0.15968686
0003e0 35 7d 76 bd 20 dc 63 3d f3 01 cc bc ab 06 29 bd
       -0.060178 0.05562985 -0.024903273 -0.041266125
0003f0 7b 36 e5 bd d0 c2 96 3d 93 b8 98 bd 37 e8 a9 3d
       -0.11192032 0.07361376 -0.0745708 0.082962446
