logs/fgb_vary_rho/3/actor.pt (torch, 906162 bytes, 17 tensors)

weight_ih f4 [512, 48]
0	0x3c9511a6	0.018196892
1	0x3dfb1b85	0.12261108
2	0xbe064816	-0.13113436
3	0xbe0f1b95	-0.13975365
4	0xbd970af3	-0.07375135
5	0x3d6ce2ff	0.057833668
6	0x3cbcfccb	0.02306976
7	0x3c317d6c	0.010833126
8	0x3caa3576	0.020777445
9	0x3cf6e354	0.030137695
10	0xbd83328b	-0.06406125
11	0x3c031e96	0.008002898
12	0xbdfd5818	-0.12370318
13	0xbd515437	-0.051105704
14	0x3af9f52c	0.0019070259
15	0xbd21be63	-0.039488208
16	0x3bcb112e	0.0061971163
17	0x3e23d4bd	0.15999122
18	0xbdb49d5d	-0.08819077
19	0xbe4d6b9c	-0.20060581
20	0xbd110ff7	-0.035415616
21	0x3da580ce	0.08081208
22	0xbc17d6e0	-0.009267539
23	0x3c299f68	0.010352947
24	0x3b1800f0	0.0023193918
25	0x3d4877e1	0.04894245
26	0x3cfd0114	0.030884303
27	0xbd932089	-0.0718394
28	0xbde435e0	-0.11143088
29	0x3ba353d1	0.004984357
30	0xbb27e697	-0.002561962
31	0x3dd73ea4	0.105099946
32	0xbd819097	-0.063264064
33	0xbc7fa8a7	-0.015604175
34	0xbde3223b	-0.11090513
35	0xbe003870	-0.12521529
36	0xbd7fc8c0	-0.06244731
37	0x3d85f6be	0.06541203
38	0x3d0a9d8e	0.033841662
39	0x3d428d5b	0.04749809
40	0x3caf0b5a	0.021367718
41	0xbd25da66	-0.040491484
42	0x3cfcd2e7	0.030862285
43	0xbd2d75e8	-0.042348772
44	0xbd7062ef	-0.0586881
45	0xbd66e0dc	-0.056366786
46	0x3d6f25ae	0.058385544
47	0x3d71a626	0.058996342
48	0x3c6dbe1b	0.014510657
49	0x3dda310f	0.106538884
50	0x3e211638	0.15731132
51	0x3cb372b3	0.021905279
52	0x3da87bb5	0.0822672
53	0x3d2a389b	0.04155789
54	0x3e2d9288	0.16950428
55	0xbdd42d17	-0.10360163
56	0x3e32b7eb	0.17452972
57	0xbd8a0958	-0.067400634
58	0xbd90ba6d	-0.07066808
59	0xbdddbadc	-0.10826656
60	0x3d01f3d5	0.031726677
61	0x3dfd0f6b	0.12356456
62	0xbddfb48a	-0.10923107
63	0x3d87eb65	0.06636695
64	0xbde04e8e	-0.10952483
65	0xbd23f538	-0.04002878
66	0x3cfe68d2	0.031055842
67	0xbd5deccd	-0.05418091
68	0x3d9dc0f0	0.077028155
69	0x3d5b4e08	0.053541213
70	0xbcdbd5cd	-0.026835347
71	0xbd8cc63d	-0.068737485
72	0x3cf3ec44	0.029775746
73	0x3e64e64b	0.22353475
74	0x3dd182ff	0.10230064
75	0x3d702a0b	0.058633845
76	0x3daf3ef3	0.085569285
77	0xbdb48d8b	-0.0881606
78	0x3de306f7	0.11085313
79	0xbd90b8b3	-0.070664786
80	0xbdf88121	-0.121340044
81	0x3ded6023	0.11590602
82	0x3d91b383	0.07114317
83	0xbd241d31	-0.0400669
84	0x3d114f98	0.035476297
85	0xbcc03127	-0.023460938
86	0x390d371a	0.00013467335
87	0xbc85efa9	-0.01634963
88	0x3d728ca8	0.05921617
89	0xbcff237d	-0.031144852
90	0x3d2af21e	0.041734807
91	0x3d58a24f	0.052889165
92	0x3da225d3	0.07917371
93	0x3d9392ef	0.0720576
94	0xbcf8adc8	-0.030356303
95	0xbc688b53	-0.014193374
96	0x3d9f5cec	0.07781395
97	0x3dd0746a	0.10178454
98	0xbe39dade	-0.18149897
99	0xbe19fbed	-0.15037508
100	0xbb91d96d	-0.004450968
101	0x3e0c1a53	0.13681917
102	0xbc60379d	-0.013685134
103	0xbc85c715	-0.016330281
104	0xbd667480	-0.056263447
105	0xbcb2440e	-0.021760967
106	0xbe00ae02	-0.12566379
107	0xbe25023e	-0.16114137
108	0x3dec5df7	0.1154136
109	0x3e1a2bc8	0.15055764
110	0xbdb3e9f4	-0.087848574
111	0x3db4da46	0.08830695
112	0xbdf10980	-0.1176939
113	0x3e18f1a9	0.14935936
114	0x3d82f15d	0.06393693
115	0xbe274efb	-0.16338722
116	0xbd9e8e67	-0.07742005
117	0x3d723a30	0.059137523
118	0x3d34cb24	0.044139042
119	0xbd0afd58	-0.033933014
120	0xbd863015	-0.0655214
121	0x3d854c87	0.06508737
122	0xbd0279b5	-0.03185435
123	0x3b0d975b	0.0021605107
124	0xbdce6e69	-0.10079653
125	0xbcabb38f	-0.020959644
126	0x3d2e07a2	0.042487748
127	0xbc3ef7b5	-0.011655738
128	0xbd9fc1ec	-0.078006595
129	0xbdbea97a	-0.09309669
130	0x3c5901ac	0.0132450275
131	0xbabc9a06	-0.0014389164
132	0xbd29bc24	-0.04143919
133	0xbc0bbc09	-0.008528718
134	0x3d4e8072	0.050415464
135	0xbd29a284	-0.041414753
136	0x3c169cbb	0.009192641
137	0xbcf1e9b1	-0.029530378
138	0xbcdcaace	-0.026936915
139	0x3d92e69f	0.07172894
140	0x3e020ad4	0.12699443
141	0x3dbe941b	0.093055926
142	0x3d9bf626	0.076153085
143	0xbb46fc36	-0.0030362732
144	0xbd9e49f3	-0.077289484
145	0xbd288790	-0.041144907
146	0x3e220e8f	0.15825866
147	0xbe170193	-0.14746694
148	0xbeafd83d	-0.34344664
149	0xbd503442	-0.050831087
150	0xbd28c36c	-0.041201994
151	0xbe26ba99	-0.16282119
152	0xbd1358ed	-0.035973478
153	0x3cbae634	0.022814848
154	0xbd4b9ee3	-0.049712073
155	0xbdaa09da	-0.0830266
156	0x3d8954de	0.0670564
157	0xbdbdbd4c	-0.09264621
158	0xbd703a0f	-0.05864912
159	0xbd5222bb	-0.051302653
160	0xbe212199	-0.15735473
161	0x3cf8daed	0.03037783
162	0xbd9bd8a5	-0.07609681
163	0xbe100c8d	-0.14067288
164	0xbe0efdc6	-0.13963994
165	0x3c846dd5	0.016165653
166	0xbcdfb803	-0.027309423
167	0x3d2983ae	0.041385345
168	0xbd88c271	-0.06677712
169	0xbcb4c5b5	-0.02206693
170	0x3e0021c4	0.1251288
171	0xbc2472d2	-0.010037141
172	0x3e0290a8	0.12750494
173	0x3b7d3be5	0.0038640436
174	0xbd9bf89f	-0.0761578
175	0x3d80a041	0.06280566
176	0xbcbd887d	-0.023136372
177	0xbcb1f966	-0.021725368
178	0x3dab3993	0.08360591
179	0xbd840fb4	-0.06448308
180	0xba30c461	-0.000674313
181	0xbd60a664	-0.054846182
182	0x3d0d1d7a	0.03445194
183	0x395c4944	0.00021008129
184	0x3cfa6cdb	0.030569484
185	0x3c970c2b	0.01843842
186	0x3af2db07	0.001852841
187	0x3bcf898b	0.006333535
188	0xbd368def	-0.044568952
189	0x3dd82463	0.10553815
190	0x3e16dbeb	0.1473233
191	0x3e01cd85	0.12676056
192	0xbe38094a	-0.17972293
193	0x3e1b7f34	0.15185243
194	0xbddaa422	-0.10675837
195	0xbdc731fe	-0.09726332
196	0xbc216bd1	-0.009852366
197	0xbc0984b0	-0.008393452
198	0x3d55f201	0.052232746
199	0xbd7fa116	-0.062409483
200	0x3c0dc03a	0.008651787
201	0x3dedf672	0.11619271
202	0xbcec9fde	-0.028884824
203	0xbda7787e	-0.08177279
204	0x3dbd9f1d	0.09258864
205	0x3dc4faef	0.09618174
206	0x3d0219a7	0.031762745
207	0x3db760d5	0.08954016
208	0x3d5b73ab	0.053577106
209	0xbce516ff	-0.027965067
210	0xbcee41e8	-0.02908416
211	0xbd48252a	-0.048863567
212	0x3dee0b8d	0.11623297
213	0xbdae9344	-0.085241824
214	0x3c39aa62	0.011332126
215	0x3e189dba	0.14903918
216	0xbe256abf	-0.16154002
217	0xbd732531	-0.05936164
218	0xba040de4	-0.000503747
219	0xbdba8c7a	-0.09108825
220	0x3e241ea4	0.16027313
221	0x3d1999aa	0.03750006
222	0x3d8b8e49	0.06814248
223	0x3dab421c	0.08362219
224	0xbdb83b4d	-0.08995686
225	0xbd816b8e	-0.063193426
226	0xbd26a4d9	-0.040684555
227	0xbbdaaf28	-0.0066737123
228	0x3cd2916e	0.025704112
229	0x3d646237	0.055757727
230	0x3d13befc	0.03607081
231	0x3deac963	0.11464193
232	0xbca5a5f8	-0.020220742
233	0x3d8be2e7	0.068303876
234	0x3d507be5	0.050899405
235	0xbd851857	-0.06498783
236	0x3cafa6a4	0.021441765
237	0xbd28dab6	-0.041224204
238	0xbd3a310a	-0.045456924
239	0xb9b64de7	-0.00034771787
240	0x3e07c311	0.13258006
241	0x3d96f7f6	0.073715135
242	0xbe0660be	-0.13122842
243	0x3e13292b	0.14371173
244	0xbc9abd55	-0.018889109
245	0xbdcf2f26	-0.10116415
246	0xbc13a74c	-0.009012055
247	0xbbbc4770	-0.0057458207
248	0x3daeb5a8	0.08530742
249	0xbdb6f0ba	-0.08932634
250	0xbd5dac74	-0.054119542
251	0x3cc970c1	0.024589898
252	0x3da1116a	0.078646496
253	0x3daed506	0.08536725
254	0xbccf193c	-0.025280587
255	0xbd71c8cd	-0.05902939

weight_hh f4 [512, 128]
0	0xbd6ee1be	-0.058320753
1	0xbd797229	-0.060899887
2	0xbce3251d	-0.027727658
3	0x3d036029	0.032074127
4	0xbd64dced	-0.055874754
5	0xbc94ec2e	-0.018179026
6	0x3d0c7f33	0.034300994
7	0xbd5f516a	-0.054521002
8	0x3db1b58c	0.086772054
9	0x3db6ffb0	0.08935487
10	0x3a6fb740	0.0009144433
11	0x3d037f1f	0.032103654
12	0x3ce5b579	0.028040634
13	0x3d004eb0	0.031325042
14	0x3d4d18d7	0.050072517
15	0x3de85313	0.1134397
16	0x3d7b8324	0.061404362
17	0xbcc6444b	-0.024202487
18	0x3d85e216	0.06537263
19	0xbd8e41f5	-0.06946174
20	0xbb8dd6bd	-0.0043285773
21	0x3d608a03	0.05481912
22	0x3dbb1572	0.0913495
23	0x3d17c5ab	0.037053745
24	0x3b0885e8	0.0020831767
25	0xbd0d829e	-0.034548394
26	0xbd943f42	-0.07238628
27	0x3cf2446a	0.029573638
28	0xbd93c3ed	-0.07215104
29	0x3dceb323	0.10092761
30	0x3d16708e	0.036728434
31	0x3cdc41c5	0.02688683
32	0xbd85f10d	-0.065401174
33	0xbde57829	-0.11204559
34	0xbda049d5	-0.07826582
35	0xbdbf3475	-0.09336177
36	0x3c8ab544	0.016932137
37	0xbda52300	-0.08063316
38	0xbd91d815	-0.071212925
39	0xbd03dc7d	-0.032192696
40	0x3d9dbcb4	0.07702008
41	0xbcab0397	-0.020875735
42	0x3af9dc5f	0.0019062868
43	0xbc04ed87	-0.008113272
44	0x3dd437ea	0.10362227
45	0x3d2eaaf6	0.04264351
46	0x3d0fbe4d	0.035093594
47	0x3d8a12fe	0.06741904
48	0xbd23aa05	-0.039957065
49	0x3d9673d6	0.07346313
50	0x3d5b5b4f	0.053553876
51	0x3c654b67	0.013995028
52	0xbc64a4ab	-0.0139552755
53	0x3d709b2f	0.058741745
54	0xbd783283	-0.060595047
55	0x3d513fd7	0.051086273
56	0x3cf7069f	0.030154524
57	0x3bc93e2f	0.006141446
58	0x3c854773	0.016269421
59	0xbdc0a695	-0.09406773
60	0xbddba4be	-0.107247815
61	0x3c91c204	0.01779271
62	0xbd128e23	-0.035780083
63	0x3d0f5e35	0.035001952
64	0xbd4cb545	-0.04997756
65	0x3d1f211a	0.038849927
66	0x3c8e04cf	0.017336277
67	0x3db9e4f6	0.09076874
68	0xbd45a0d3	-0.048249077
69	0xbdafafc8	-0.085784495
70	0x3cd99367	0.026559545
71	0xbd4b9495	-0.049702246
72	0xbdf4cc01	-0.11952973
73	0xbd5355eb	-0.05159561
74	0xbc0e8cf9	-0.008700603
75	0x3b39d0ed	0.002835329
76	0xbd5ab16c	-0.05339186
77	0x3d0d8897	0.03455409
78	0xbd99d818	-0.0751192
79	0x3d8c62d4	0.068547875
80	0x3d92b596	0.07163541
81	0x3d32a2dd	0.04361235
82	0x3d8a944d	0.067665674
83	0x3cca4e9c	0.024695687
84	0xbcff3169	-0.03115149
85	0x3d9a1fc6	0.075255916
86	0xbdefa4ed	-0.11701379
87	0xbd80da17	-0.06291597
88	0x3d6be3b6	0.05759021
89	0x3e0799ec	0.1324231
90	0xba3f0cce	-0.000728798
91	0x3c96619b	0.018357089
92	0x3dd3c4a7	0.10340243
93	0xbda4361b	-0.08018132
94	0xbd1e6850	-0.0386737
95	0x3d47160f	0.04860502
96	0xbd97f9be	-0.074206814
97	0x3a0bb290	0.0005329037
98	0xbe03cdc8	-0.12871468
99	0xbcd75f60	-0.026290596
100	0x3de3a73f	0.11115884
101	0x3ac44aac	0.0014975867
102	0x3d9d5114	0.0768148
103	0x3c7804aa	0.015137831
104	0xbd66693d	-0.056252707
105	0xbd2fdfba	-0.04293797
106	0xbc0307f8	-0.007997505
107	0x3daadffb	0.08343502
108	0x3d0642ca	0.03277854
109	0xbda10b13	-0.0786344
110	0x39c65a76	0.00037832902
111	0xbb40f22e	-0.0029441225
112	0xbba5a253	-0.005054751
113	0x3d3881b1	0.04504556
114	0xbdfaf717	-0.1225416
115	0x3d4628dd	0.048378814
116	0xbd4c5006	-0.049881004
117	0xbd43d399	-0.047809217
118	0x3bbc8ee0	0.0057543367
119	0xbd0bfc24	-0.034176007
120	0xbd98423c	-0.07434508
121	0x3c8f4ed1	0.017493637
122	0x3c3bdd7b	0.011466379
123	0xbd8fd9a2	-0.07023932
124	0xbd6a7da2	-0.05724872
125	0x3d8b4bd6	0.06801574
126	0xbcd61816	-0.026134532
127	0x3da60f56	0.08108394
128	0xbda4ae11	-0.08041013
129	0x3d9f7399	0.077857204
130	0xbdd063ea	-0.10175307
131	0x3cfc2014	0.030777015
132	0x3c789f05	0.015174632
133	0x3c2120fd	0.009834525
134	0xba92a582	-0.0011188241
135	0xbbb84ea3	-0.0056246086
136	0x3df0ebe9	0.11763746
137	0x3d83b517	0.064310245
138	0xbc4a4950	-0.012346581
139	0x3dac26e0	0.08405852
140	0x3c70526d	0.014668089
141	0xbd439158	-0.047746032
142	0x3c633717	0.013868115
143	0x3dde108c	0.10843
144	0xbd82c34e	-0.06384908
145	0xbcb5bec2	-0.022185687
146	0x3d59e95f	0.053201076
147	0xbda03205	-0.078220405
148	0xbd67a080	-0.05654955
149	0xbcb6f277	-0.022332413
150	0xbdae71bc	-0.08517787
151	0xbdaf13ac	-0.08548674
152	0x3d69b8bd	0.057060946
153	0x3c123cd4	0.008925635
154	0x3c20e075	0.00981914
155	0xbd1cddcc	-0.03829746
156	0xbddf57d1	-0.109054215
157	0x3c2809de	0.010256259
158	0xbd8ce2e1	-0.06879211
159	0xbcf18eb8	-0.029486999
160	0x3b6d4d98	0.003620958
161	0xbd18e817	-0.037330713
162	0x3cffaf45	0.031211505
163	0xbe202257	-0.156381
164	0xbd67d5a3	-0.056600224
165	0x3b6bb29c	0.0035964614
166	0xbd0b4541	-0.034001593
167	0x3d893578	0.066996515
168	0xbd9cf09c	-0.0766308
169	0xbc1f556e	-0.009724958
170	0xbc22e4fe	-0.009942291
171	0xbcec8d51	-0.028875979
172	0x3d6a4a89	0.05719999
173	0xbd736a4b	-0.05942754
174	0x3c5da5ed	0.013528329
175	0x3d8d4df6	0.068996355
176	0xbd23b047	-0.039963033
177	0x3c55fdfd	0.013061044
178	0xbc839934	-0.016064264
179	0xbdf7c34e	-0.12097798
180	0xbd776c02	-0.06040574
181	0x3d70ae36	0.05875989
182	0xbc900607	-0.017580999
183	0x3d7214fc	0.059102044
184	0xbd077539	-0.033070777
185	0x3d44e3c5	0.04806878
186	0xbd119ea8	-0.035551697
187	0xbda775b6	-0.081767485
188	0xbd0ab762	-0.033866294
189	0xbe22e623	-0.15908103
190	0x3d8877fe	0.06663512
191	0x3ca9dc07	0.0207348
192	0x3da6a36d	0.0813664
193	0xbdc4d0bd	-0.09610126
194	0x3d4acde9	0.049512777
195	0xbd2db9b4	-0.04241343
196	0xbdfb708a	-0.122773245
197	0x3dc27e3a	0.09496732
198	0x3d891131	0.06692732
199	0xbd4ea483	-0.05044986
200	0x3ba3c6b2	0.0049980516
201	0x3c1bedbb	0.009517129
202	0x3de2c223	0.11072185
203	0xbc89e027	-0.016830517
204	0x3d8dd682	0.0692568
205	0x3dd38eca	0.10329969
206	0x3d8a4677	0.06751721
207	0x3da7cac5	0.08192972
208	0xbce24351	-0.02761999
209	0x3dbd14b2	0.09232463
210	0xbbd2b514	-0.0064302776
211	0xbcb4cee5	-0.022071311
212	0xbcaad28d	-0.020852352
213	0x3d53fc4a	0.051754273
214	0x3d6bf069	0.05760232
215	0x3ca4a9a2	0.020100418
216	0xbce51a12	-0.027966533
217	0x3dd37da2	0.10326697
218	0xbb6ce10a	-0.0036144876
219	0x3e0628bd	0.13101478
220	0x3d63b6ed	0.055594373
221	0x3bebfea0	0.0072019845
222	0xbad1c75e	-0.0016004851
223	0x3c76bef0	0.0150601715
224	0x3cf9b308	0.030480877
225	0xbc9947a0	-0.018710911
226	0xbd93b64c	-0.07212505
227	0x3c5554c4	0.013020698
228	0x3c4b74cc	0.012417983
229	0xbd9251ce	-0.07144509
230	0xbe20b3c4	-0.15693575
231	0xbe2301ea	-0.15918699
232	0xbc253afb	-0.010084863
233	0x3d2818b0	0.04103917
234	0x3be20ce4	0.0068985093
235	0xbda547ab	-0.0807031
236	0xbd326c1b	-0.04356013
237	0x3df8cbf7	0.12148278
238	0xbc4817d1	-0.0122127095
239	0x3c5a1166	0.013309812
240	0x3c601795	0.013677497
241	0x3cdf5eec	0.027266942
242	0xbdad70fb	-0.08468815
243	0xbd2069a6	-0.039163254
244	0x3d22477a	0.039618947
245	0xbe0e9ad5	-0.13926251
246	0xba641c99	-0.0008701771
247	0x3d9ce36b	0.07660564
248	0xbd0bcf34	-0.03413315
249	0x3da0c79b	0.07850572
250	0xbd5f460c	-0.05451016
251	0xbcb11751	-0.021617563
252	0xbc8b79d2	-0.017025862
253	0x3cf98147	0.030457152
254	0xbd8eba5e	-0.069691405
255	0x3c346f39	0.011012846

bias_ih f4 [512]
0	0x3dc44f53	0.095854424
1	0x3e333123	0.17499213
2	0x3d4ac1d3	0.04950125
3	0xbd37c4e7	-0.044865515
4	0x3e04e4b7	0.12977873
5	0x3d239bdb	0.039943557
6	0x3d89dfc2	0.067321315
7	0x3df3fc3a	0.11913343
8	0xbb3d4655	-0.0028881032
9	0x3d5f847e	0.054569714
10	0x3c99d9a0	0.01878053
11	0x3d1bdbbe	0.03805136
12	0x3e0471ce	0.12934038
13	0x3d856c17	0.06514757
14	0xbd3ca08a	-0.04605154
15	0x3df627f7	0.120193414
16	0x3d5cfaad	0.05395
17	0x3cd805eb	0.02637001
18	0x3dcdfea6	0.10058336
19	0xbce501e6	-0.027955007
20	0x3db30669	0.08741457
21	0x3dbb8875	0.091568865
22	0x3df46e32	0.119350806
23	0x3dbd34be	0.092385754
24	0xbcb46180	-0.022019148
25	0x3dd8a2a9	0.105779
26	0x3bebc128	0.007194657
27	0x3d53da3a	0.05172179
28	0x3e1fdb62	0.15611032
29	0x3dad62e7	0.0846613
30	0xbcb51e23	-0.022109097
31	0x3d14aa18	0.036295027
32	0xbcde9427	-0.027170254
33	0x3c815b9f	0.015790759
34	0x3d642dee	0.055707864
35	0x3c74a38f	0.0149315735
36	0x3dd99172	0.106234446
37	0x3e0bfb7a	0.1367015
38	0x3d5d032a	0.053958096
39	0x3db210c0	0.08694601
40	0x3db2b741	0.08726359
41	0xbd41cfc6	-0.04731729
42	0x39c1cf89	0.00036966454
43	0x3d2bd0a8	0.041947037
44	0x3df9d5c8	0.12198979
45	0x3e27b8f8	0.16379154
46	0x3d1adbde	0.037807338
47	0x3cf33efc	0.02969312
48	0xbb9c9faa	-0.0047797756
49	0x3e4214ef	0.18953298
50	0x3cecb136	0.028893095
51	0x3d87c57b	0.06629463
52	0x3d2092c9	0.039202485
53	0x3dbe687f	0.09297275
54	0x3c867d82	0.016417269
55	0x3e0bf39e	0.13667151
56	0x3da07dcc	0.07836494
57	0x3e3aeac6	0.18253621
58	0x3de98fdd	0.11404393
59	0x3e33e9d4	0.17569667
60	0x3e2dc86f	0.1697099
61	0x3d8cc463	0.06873395
62	0x3d978699	0.07398719
63	0x3d2641c5	0.040590066
64	0xbab6bfeb	-0.0013942694
65	0x3e599c4c	0.21251029
66	0x3dbf14f6	0.0933017
67	0x3d023aac	0.031794235
68	0x3e55834c	0.20850867
69	0x3d893192	0.06698908
70	0x3d1c8141	0.038209204
71	0x3e1d1f16	0.1534389
72	0x3e2a89b2	0.16654089
73	0x3dff5656	0.12467639
74	0x3deb9e27	0.115047745
75	0x3d68b381	0.056811813
76	0x3e2b75d1	0.16744162
77	0x3d8d2a1c	0.06892797
78	0x3c8ad51d	0.016947323
79	0x3cdd73f0	0.027032822
80	0x3cb9647a	0.022630919
81	0x3de4fec6	0.11181407
82	0x3c953f52	0.01821867
83	0xbd3c5df7	-0.04598805
84	0x3cad9113	0.02118734
85	0xbaf5cd5d	-0.001875322
86	0xbb91eb8a	-0.0044531273
87	0x3dc9cd2c	0.098535866
88	0x3d4009bc	0.046884283
89	0x3e2ba6c3	0.16762833
90	0x3d2051d5	0.03914054
91	0xbd07ea7b	-0.033182602
92	0x3d04b4ec	0.032399103
93	0x3c384b5f	0.011248439
94	0x3c8ee028	0.01744087
95	0x3dee5533	0.11637344
96	0xbc5a7aec	-0.013334971
97	0x3db2edb7	0.08736747
98	0x3dcbf150	0.09958136
99	0xbc43e8d5	-0.011957367
100	0x3ddb9c87	0.107232146
101	0xbd514c82	-0.051098354
102	0x3da4993a	0.08037038
103	0x3cb9c51c	0.022676997
104	0x3e2e08cf	0.16995548
105	0xbc61679f	-0.013757615
106	0x3df81052	0.12112488
107	0x3e0f633c	0.14002699
108	0xbd092a9c	-0.0334879
109	0xbcc87e6c	-0.024474345
110	0x3dd74be9	0.105125256
111	0x3db1a43e	0.08673905
112	0x3e351781	0.17684747
113	0x3d83c2ad	0.06433616
114	0x3e36886d	0.1782548
115	0x3d3efa4d	0.046625424
116	0x3e1843a4	0.14869553
117	0x3e0fd6a2	0.1404672
118	0x3d9c4b88	0.07631594
119	0x3c81142f	0.015756695
120	0x3e01933f	0.12653826
121	0x3dcb6d22	0.09932925
122	0xb9763652	-0.00023480624
123	0x3dbf21cb	0.09332617
124	0x3e05c55c	0.13063568
125	0x3d977b82	0.07396604
126	0x3d1c8f68	0.0382227
127	0x3d218151	0.039429966
128	0x3d918189	0.07104785
129	0x3da43fe5	0.080199994
130	0xbd9298b2	-0.071580306
131	0xbb5ee213	-0.0034009262
132	0xbbf5190d	-0.007479793
133	0x3cfe61f1	0.031052561
134	0xbda98188	-0.08276659
135	0x3d5be013	0.05368049
136	0x3d53eccd	0.051739503
137	0xbd9a508e	-0.07534896
138	0xbb1e175a	-0.0024122805
139	0x3d8cec53	0.06881013
140	0xbd146fe8	-0.036239535
141	0xbd8ced2b	-0.06881174
142	0x3d62abf0	0.055339754
143	0xbb5e9da7	-0.003396848
144	0xbd407288	-0.046984226
145	0xbd2d3588	-0.04228738
146	0xbc5dca26	-0.0135369655
147	0xba6b830f	-0.0008984068
148	0xbc016086	-0.007896548
149	0x3c4fcee9	0.012683609
150	0x3c0eb3a1	0.008709819
151	0x3d87e052	0.066345826
152	0xbd0a12f6	-0.03370949
153	0x3c22bdc4	0.009932939
154	0x3c8d82e7	0.017274333
155	0x3d14cfeb	0.0363311
156	0x3d498718	0.0492011
157	0xbc82fef1	-0.015990706
158	0xbd59a1de	-0.053132884
159	0x3d3eeb88	0.04661134
160	0xbd051efa	-0.032500245
161	0x3dff148b	0.1245509
162	0xbd006475	-0.031345803
163	0x3dda9cce	0.10674439
164	0xbc7432c4	-0.014904682
165	0xbd8df82c	-0.06932101
166	0x3b9c2d57	0.004766147
167	0xbc482fd4	-0.012218434
168	0x3d58943d	0.052875746
169	0xbd41b656	-0.04729303
170	0x3db2bfcf	0.08727991
171	0xbd02da88	-0.03194669
172	0xbd55d014	-0.052200392
173	0x3d69dfa5	0.05709805
174	0xbc7c2e64	-0.01539192
175	0xbcca9f21	-0.024734082
176	0x3bfa2afe	0.0076345196
177	0xbbbcadbb	-0.005758015
178	0x3d27f83d	0.041008223
179	0x3aa8504b	0.0012841312
180	0xbd1f2f13	-0.038863253
181	0x3da16ccb	0.07882079
182	0x3ce7bce1	0.028288307
183	0xbc9e7778	-0.019344077
184	0xbd8f9842	-0.07011463
185	0x3cb5703f	0.02214825
186	0xbd1a1d2d	-0.03762548
187	0xbbc50443	-0.006012471
188	0x3e01bf9d	0.12670751
189	0x3d720e61	0.059095744
190	0x3d5bca47	0.053659704
191	0xbd986e96	-0.074429676
192	0x3db38a40	0.087666035
193	0x3cc501bf	0.024048684
194	0xbc565677	-0.013082138
195	0x3e05546e	0.13020489
196	0xbd93a995	-0.072100796
197	0x3ca02c19	0.019552277
198	0xbdc299b5	-0.095019735
199	0x3d1f19fa	0.038843133
200	0xbd1f6bd6	-0.0389212
201	0xbcc87278	-0.024468645
202	0xbd922517	-0.071359806
203	0xbcaf7560	-0.021418273
204	0xbcbf2f62	-0.023338024
205	0xbbcfa33d	-0.006336598
206	0x3ce0995b	0.027416876
207	0x3ca8222b	0.020524105
208	0x3cee4d60	0.02908963
209	0xbc546e7e	-0.0129657965
210	0xbd3284ab	-0.043583553
211	0xbc8e97c1	-0.017406346
212	0x3d28ec4c	0.041240975
213	0x3a96e2ab	0.0011511644
214	0xbd55f180	-0.052232265
215	0x3da6a71d	0.08137343
216	0xbd6736cd	-0.056448746
217	0x3d1a75eb	0.03771011
218	0x3d810466	0.06299667
219	0x3d41c745	0.04730918
220	0xbaff2042	-0.001946457
221	0x3ca8aeb6	0.020591121
222	0xbd9542df	-0.07288145
223	0x3db8d64c	0.09025249
224	0xbdbcc5ef	-0.0921744
225	0xbd8d3620	-0.06895089
226	0xbc932b1f	-0.017964898
227	0x3c6eaf85	0.014568214
228	0xbcb98280	-0.022645235
229	0x3c5cff25	0.013488566
230	0x3d864e89	0.06557948
231	0x3bd7036e	0.006561688
232	0xbdac66dc	-0.08418056
233	0x3d9ee768	0.07758981
234	0x3c5c6c53	0.013453561
235	0xbc9b1747	-0.018931998
236	0x3cf39776	0.029735308
237	0x3baf93e5	0.0053582066
238	0xbd556a4c	-0.052103326
239	0x3c00cbf5	0.007861127
240	0x3d9dafb1	0.07699526
241	0xbc6fbfc7	-0.014633126
242	0x3b95ff13	0.0045775264
243	0xbdebdf25	-0.11517171
244	0x3c669132	0.014072703
245	0x3d6354e5	0.055500884
246	0xbbd4e1d0	-0.0064966455
247	0x3ca2cffb	0.019874563
248	0x3d8017d4	0.06254545
249	0xbd56ca81	-0.052439217
250	0xbd81f46b	-0.06345447
251	0xbd33c17a	-0.043885686
252	0x3d42501a	0.047439672
253	0xbc818d5a	-0.015814472
254	0xbda065dd	-0.07831929
255	0x3ced5e61	0.028975667

bias_hh f4 [512]
0	0x3cd255e6	0.025675725
1	0x3db08831	0.086197264
2	0x3e15d7ae	0.14633057
3	0xbc9778b2	-0.01849017
4	0x3de4399a	0.11143799
5	0x3cbcb3fb	0.02303504
6	0x3dbd1de0	0.09234214
7	0x3deb2b1a	0.1148283
8	0xbca5b4c4	-0.020227797
9	0x3ddf0f9c	0.10891649
10	0x3dd7788e	0.10521041
11	0x3dc869bc	0.09785792
12	0x3d5e521b	0.05427752
13	0x3b9018bb	0.0043974794
14	0x3d68faa8	0.05687967
15	0x3e0f06b7	0.13967405
16	0x3caf055a	0.021364857
17	0x3daaaee2	0.083341375
18	0xbcb14a13	-0.021641767
19	0x3dedb481	0.11606694
20	0x3de827b1	0.113356955
21	0x3e07f519	0.13277091
22	0x3dc6bbea	0.097038105
23	0x3dbcbf38	0.092161596
24	0x3c001c7e	0.007819293
25	0x3e2517e1	0.1612239
26	0xbb9a7075	-0.004713113
27	0x3b991a69	0.004672338
28	0x3dcaa1d8	0.098941505
29	0x3e3318d6	0.17489943
30	0x3cdfac71	0.027303906
31	0x3d62680a	0.055275
32	0x3dc1e96b	0.09468349
33	0x3d860148	0.06543213
34	0xbd52068c	-0.051275775
35	0x3d53178f	0.05153614
36	0xbd75df9e	-0.06002771
37	0x3daad913	0.08342185
38	0x3e020bc9	0.12699808
39	0xbd1ea9d3	-0.038736176
40	0x3e356ec6	0.17718038
41	0xbd97929b	-0.0740101
42	0x3dd5eb9b	0.10445329
43	0x3d28f78e	0.04125171
44	0x3da85756	0.08219783
45	0x3defb131	0.117037185
46	0x3da9fd84	0.083003074
47	0xbd90cd94	-0.07070461
48	0x3d843843	0.064560436
49	0x3e5fb029	0.21844544
50	0x3dd1a771	0.10237015
51	0xbcd85dd3	-0.026411926
52	0x3e00dadd	0.1258349
53	0x3c1aea74	0.009455312
54	0x3dbae9d1	0.09126628
55	0x3e37f188	0.1796323
56	0x3dfbcfe2	0.1229551
57	0x3dfbb618	0.12290591
58	0x3da6a471	0.081368335
59	0x3dd6180b	0.104538046
60	0x3e3448df	0.17605923
61	0x3dfcad48	0.12337738
62	0x3be9c793	0.007134387
63	0x3d9b4f8c	0.07583532
64	0x3ae6c93b	0.0017607579
65	0x3e062cb5	0.13102992
66	0x39c664ab	0.00037840506
67	0x3d6c7273	0.057726335
68	0x3e75bba8	0.23997366
69	0x3de9c1dc	0.11413929
70	0x3dd72a3e	0.10506104
71	0x3e271426	0.1631628
72	0x3ddbab32	0.10726012
73	0x3e089236	0.13337025
74	0x3d210446	0.039310716
75	0x3cd0259a	0.025408555
76	0x3e076e1b	0.13225596
77	0x3de08968	0.10963708
78	0x3e2d335f	0.16914128
79	0xba6212b4	-0.0008624003
80	0x3dd9e4b3	0.10639324
81	0x3d0c7113	0.034287523
82	0x3e02e3fb	0.1278228
83	0x3d84836c	0.06470379
84	0x3e0eb41a	0.13935891
85	0x3de5e77f	0.11225795
86	0x3c48d09a	0.012256766
87	0x3d2d1e44	0.04226519
88	0x3b9065f9	0.0044066873
89	0x3e0a0935	0.13480075
90	0x3dc21709	0.0947705
91	0x3db343e2	0.08753182
92	0x3d2642de	0.040591113
93	0x3c18bbc4	0.009322111
94	0x3d7e88f0	0.062142313
95	0x3d63733a	0.05552981
96	0x3dc1bb8e	0.09459601
97	0x3c0f3458	0.008740507
98	0x3e1b8bd0	0.15190053
99	0x3e0103b9	0.12599076
100	0x3d5d2d8a	0.053998508
101	0x3d2ff37e	0.04295682
102	0x3d44cdc1	0.048047785
103	0x3d8f3e22	0.06994273
104	0x3e61ef23	0.2206388
105	0x3c038c11	0.008029
106	0x3be2b98b	0.006919091
107	0xbc18032e	-0.009278102
108	0xbd8ecfcf	-0.0697323
109	0x3db25c6a	0.08709033
110	0x3dd55c2b	0.1041797
111	0x3c2ac403	0.010422709
112	0x3e04041b	0.12892191
113	0x3bd31cb4	0.0064426307
114	0x3d17be3d	0.03704666
115	0x3ddd843b	0.108162366
116	0xbc3ef658	-0.011655413
117	0x3dac6e59	0.08419485
118	0x3dfdcc14	0.123924404
119	0x3cc1fd9d	0.023680503
120	0x3dea59bb	0.11442896
121	0x3c344276	0.011002174
122	0x3e2373ae	0.15962097
123	0xbc1ece42	-0.00969273
124	0x3e312a26	0.17301235
125	0xbca228d4	-0.019794859
126	0x3dc2623c	0.09491393
127	0x3d51bf59	0.051207874
128	0xbda6ac53	-0.08138337
129	0xbc6269a8	-0.013819136
130	0xbcf7a610	-0.030230552
131	0xbd9c5ac0	-0.07634497
132	0x3c88d605	0.016703615
133	0x3d89d29d	0.067296244
134	0x3cab67c0	0.020923495
135	0x3d3489ab	0.044076603
136	0x3db112fd	0.086462
137	0xbd9698b0	-0.073533416
138	0xbb490b95	-0.003067707
139	0x3d52b7a6	0.051444672
140	0x3d3c196c	0.04592268
141	0x3c1ed709	0.009694823
142	0x3bd34097	0.0064469087
143	0xbbd63460	-0.0065370053
144	0x3d68021a	0.05664263
145	0x3c7e8783	0.015535238
146	0x3dd84dda	0.10561724
147	0x3dd20b79	0.102560945
148	0x3d53c0bf	0.05169749
149	0xbd0323b7	-0.032016482
150	0xbd56bb15	-0.05242451
151	0x3ba92cfc	0.0051628333
152	0x3dd3d460	0.10343242
153	0x3c508c14	0.01272871
154	0x3b2c3b8f	0.0026280617
155	0xbc898682	-0.016787771
156	0xbcdf2290	-0.02723816
157	0x3def3c6e	0.11681448
158	0xbd3405ee	-0.043950967
159	0x3c049a2b	0.008093397
160	0xbc1a6c26	-0.009425199
161	0x3decb359	0.11557645
162	0x3cf8666e	0.03032228
163	0x3ce13cc3	0.027494794
164	0x3be6ab3c	0.0070394557
165	0xbdba5918	-0.090990245
166	0xbcd8db1b	-0.026471665
167	0x3dc4eb47	0.09615188
168	0x3d873550	0.066019654
169	0x3da3b9fb	0.07994457
170	0xbd4ca8f4	-0.049965814
171	0x3d7a816d	0.061158586
172	0x3d1aa4b6	0.037754737
173	0xbd415f69	-0.04721013
174	0x3c93caf7	0.018041117
175	0x3c96f01f	0.018425046
176	0x3c2d8250	0.010590151
177	0xbbfd9d2a	-0.0077396827
178	0xbd89e75b	-0.06733581
179	0xbc493f70	-0.012283191
180	0xb7d3edf5	-2.5263967e-05
181	0x3d8030af	0.06259286
182	0xbd59d1d1	-0.053178612
183	0xbd0b2ecf	-0.033980187
184	0xbdb90576	-0.09034245
185	0x3d63db0b	0.055628818
186	0x3aeac89a	0.0017912567
187	0xbd38af26	-0.04508891
188	0x3db31f9c	0.087462634
189	0xbd2ae7ee	-0.04172509
190	0xbd0a7a87	-0.033808257
191	0x3cf3b3fb	0.029748907
192	0x3cda19e3	0.026623672
193	0x3d9e8acb	0.077413164
194	0xbceada97	-0.028668685
195	0x3df68df6	0.12038796
196	0xbd5a1884	-0.053246036
197	0x3db68d70	0.08913696
198	0xbdd2e411	-0.102974065
199	0x3d43ecfa	0.04783342
200	0xbd74a72c	-0.05972974
201	0xbd5f8f7b	-0.054580193
202	0xbdaafe21	-0.083492525
203	0xbc2219ea	-0.009893874
204	0x3bd0ca2f	0.0063717584
205	0x3da026a0	0.07819867
206	0xbda333b5	-0.07968847
207	0xbd3d2c91	-0.04618508
208	0xbd53a1bb	-0.05166791
209	0x3c013306	0.0078857
210	0x3da10073	0.07861414
211	0x3cb9284e	0.022602227
212	0x3d59bfb2	0.05316133
213	0x3cfea5f3	0.03108499
214	0xbd64d3ec	-0.055866167
215	0xbc02b457	-0.007977567
216	0xbca3d772	-0.020000193
217	0x3d529ec9	0.05142096
218	0x3cdc7f3a	0.026916135
219	0x3dbc57fd	0.0919647
220	0x3df6509e	0.12027095
221	0x3d5ce1d4	0.053926304
222	0x3db7934f	0.08963644
223	0x3d9288ba	0.07154985
224	0xbad6ecdd	-0.0016397495
225	0x3d304292	0.043032236
226	0xbd6109e4	-0.054941073
227	0x3dc8f679	0.09812636
228	0xbcacca14	-0.021092452
229	0xbade9abe	-0.0016983373
230	0x3d8df028	0.06930572
231	0xbad1064e	-0.0015947314
232	0x3bf10399	0.007355165
233	0x3d7c39ef	0.061578687
234	0x3de8c0f8	0.11364931
235	0xbd7db369	-0.061938677
236	0x3d47647d	0.048679817
237	0xbd9e3877	-0.077256136
238	0x3ba953fe	0.0051674834
239	0xbd0bcd55	-0.034131367
240	0xbd070b99	-0.032970045
241	0xbd1b9937	-0.037987914
242	0xbe08c566	-0.13356552
243	0x3b261667	0.0025342943
244	0x3dc50cc2	0.09621574
245	0x3c4fd955	0.012686093
246	0xbcd1ab17	-0.025594277
247	0x3c5e6c55	0.013575633
248	0x3d2148e7	0.039376166
249	0x3d8ccbe7	0.06874829
250	0xbd089679	-0.033346627
251	0xbd2e6f7c	-0.04258679
252	0x3c8aed84	0.01695896
253	0x3cf56102	0.029953483
254	0x3da7a44b	0.08185633
255	0xbd35b4c1	-0.044361833

weight_ih f4 [512, 128]
0	0xbd2ad792	-0.04170949
1	0xbd5dfc79	-0.054195855
2	0xbdd29b17	-0.10283487
3	0xbdaf4a94	-0.085591465
4	0xbcfe2ab2	-0.031026218
5	0xbb1302e4	-0.0022432143
6	0x3d31b6a7	0.04338708
7	0x3d0342d9	0.032046173
8	0x3d57e984	0.052712932
9	0xbc0f8ade	-0.008761136
10	0xbdefaf48	-0.11703354
11	0x3ca5b494	0.020227708
12	0x3dd9593a	0.10612722
13	0x3d277e7f	0.04089212
14	0xbbc02201	-0.0058634286
15	0x3dc07f35	0.09399263
16	0x3d63fe2b	0.055662315
17	0x3dbfc434	0.09363595
18	0x3cc8abe0	0.024496019
19	0xbdce603b	-0.10076948
20	0x3d32e6f9	0.043677304
21	0xbd317261	-0.04332197
22	0xbbf6049e	-0.0075078746
23	0x3ca15b87	0.019696964
24	0x3d72fb7f	0.059321877
25	0xbdc107b5	-0.09425298
26	0xbc251876	-0.010076633
27	0x3d74c976	0.05976244
28	0xbcd7e164	-0.026352592
29	0xbd0fd846	-0.035118364
30	0xbdbe465f	-0.09290766
31	0x3ae8cab2	0.0017760603
32	0x3c7babfb	0.015360828
33	0x3cc8eef5	0.024528006
34	0xbcbdba1b	-0.023160031
35	0x3cc3ddeb	0.02390953
36	0x3d36043d	0.044437636
37	0x3caa18f3	0.02076385
38	0x3d5a4505	0.05328848
39	0x3cd01d12	0.025404487
40	0x3a8524bf	0.0010158046
41	0x3de720e3	0.112855695
42	0x3d0c8a3a	0.03431151
43	0x3e262863	0.16226344
44	0x3e05b3d8	0.13056886
45	0x3d504948	0.050851136
46	0xbdd07690	-0.10178864
47	0x3dcf87f5	0.101333536
48	0xbd844c98	-0.064599216
49	0x3dfdc2a3	0.1239064
50	0x3d79b19a	0.06096039
51	0xbe11d620	-0.14241838
52	0xbd392bbf	-0.045207735
53	0xbd092cdb	-0.033490043
54	0x3c3231ec	0.01087616
55	0x3d008a0c	0.03138165
56	0x3c892ea5	0.016745875
57	0xbd1f17b6	-0.038840972
58	0x3c5a7380	0.013333201
59	0xbd096262	-0.03354109
60	0x3d1060e3	0.03524865
61	0xbd631712	-0.055441923
62	0xbda913b7	-0.082557134
63	0x3daafab6	0.083486006
64	0xbd1341bd	-0.035951365
65	0xbd9b21b8	-0.07574791
66	0xbd6fb179	-0.05851886
67	0x3d56786a	0.05236093
68	0xbcab09f5	-0.020878771
69	0x3b248c41	0.0025108012
70	0x3b758202	0.0037461524
71	0x3da9a13b	0.082827054
72	0x3d5e9842	0.054344423
73	0x3be1065f	0.0068672146
74	0x3d8b87be	0.06813
75	0x3d5d3ae7	0.05401125
76	0xbc575b87	-0.01314438
77	0x3bfce9d9	0.0077183065
78	0xbcf1d4a3	-0.029520338
79	0x3e0b600d	0.13610859
80	0xbdcd4cb6	-0.10024397
81	0x3db35e8c	0.08758268
82	0xbc9a4013	-0.018829381
83	0xbd885ba4	-0.06658104
84	0xbd93ef8b	-0.072234236
85	0x3db38ea6	0.087674424
86	0xbdb61ac7	-0.08891826
87	0xbd4a18ff	-0.049340244
88	0xbc3f575d	-0.011678544
89	0xbd185657	-0.037191715
90	0xbda192b7	-0.07889312
91	0x3e0e2e2c	0.138848
92	0x3dcb1643	0.099163555
93	0xbdf2b672	-0.11851205
94	0xbcfa145e	-0.03052729
95	0x3c902c45	0.017599234
96	0xbd2e23d8	-0.042514652
97	0xbd81a15b	-0.06329604
98	0x3d11974e	0.035544686
99	0xbd23cda5	-0.03999104
100	0x3d806c15	0.06270615
101	0xbba61e85	-0.005069556
102	0x3d1a44a8	0.037663132
103	0xbdae4765	-0.08509711
104	0x3d1af52b	0.037831467
105	0xbdcff352	-0.101538315
106	0x3bfd9a5e	0.0077393493
107	0x3d86e99e	0.06587528
108	0x3bf7cb87	0.007562104
109	0x3daf1b41	0.0855012
110	0xbd953fa4	-0.07287529
111	0xbc20a35d	-0.009804574
112	0xbd93a58d	-0.07209311
113	0xbd9703ea	-0.073737934
114	0xbb8aac00	-0.00423193
115	0x3df0c319	0.11755962
116	0x3e165588	0.14681065
117	0xbdf1e613	-0.11811461
118	0x3d10d6e9	0.035361204
119	0x3d2164dd	0.03940283
120	0xbd99154a	-0.07474764
121	0x3d00e3d0	0.03146726
122	0xbdf617b6	-0.12016241
123	0xbbbf446c	-0.005837014
124	0xbbef5c98	-0.007304739
125	0x3d984c3d	0.07436416
126	0xbb8b45c2	-0.004250259
127	0x3c331863	0.010931107
128	0x3e3afff9	0.18261708
129	0x3d8d33dd	0.06894658
130	0x3cd257e5	0.025676677
131	0xbd86e8dd	-0.06587384
132	0xbd34dcd7	-0.04415592
133	0x3d7fa53b	0.062413435
134	0x3cb652f7	0.022256358
135	0xbdc23a7e	-0.09483813
136	0x3db36c91	0.08760942
137	0x3cb3754d	0.02190652
138	0xbd4d2503	-0.050084125
139	0x3d7dd011	0.061966006
140	0x3c15a530	0.009133622
141	0xbc0b7437	-0.0085115945
142	0x3d2095c3	0.039205324
143	0xbd83deb5	-0.06438962
144	0xbc895a35	-0.016766647
145	0x3bc2d73c	0.005946068
146	0xbd88cf58	-0.06680173
147	0xbd308e04	-0.043104187
148	0x3d40e517	0.047093477
149	0xbd347ce2	-0.04406441
150	0x3a41107b	0.00073648215
151	0x3dfa0f0c	0.12209901
152	0xbddd7334	-0.10812989
153	0x3de7742c	0.11301455
154	0xbdc5a75f	-0.09651064
155	0xbdb7c078	-0.089722574
156	0xbaeec0fb	-0.0018215472
157	0xbd76cdfc	-0.060255036
158	0x3d401dcf	0.046903428
159	0x3ce51b29	0.027967053
160	0x3da6fa1c	0.08153173
161	0x3d834219	0.064090915
162	0x3d92a59c	0.07160494
163	0x3d3ea4b0	0.046543777
164	0xbda3b453	-0.079933785
165	0xbcd2be06	-0.025725376
166	0x3da9e867	0.0829628
167	0xbd45cb81	-0.04828978
168	0x3d1a20de	0.037629
169	0xbde0d664	-0.10978392
170	0x3de0182a	0.10942109
171	0xbd7d03f7	-0.06177136
172	0x3e415dcc	0.18883437
173	0x3b368f86	0.0027856543
174	0xbdb43e96	-0.08801
175	0xbd5c7a19	-0.05382738
176	0x3ded4c12	0.11586775
177	0x3c149c00	0.009070396
178	0xbcbd45a4	-0.023104496
179	0xbd559d3f	-0.052151915
180	0x3dea6e0d	0.11446772
181	0x3da14f18	0.07876414
182	0x3da74013	0.08166518
183	0xbd2e4a24	-0.042551175
184	0x3de632c5	0.11240152
185	0xbc82a0e0	-0.015945852
186	0x3c8eb5d6	0.01742069
187	0x3dafa08f	0.08575546
188	0xbd0ae818	-0.033912748
189	0xbdc4d22f	-0.09610402
190	0xbcb64c49	-0.022253172
191	0xbbee1d6b	-0.0072666905
192	0xbdf90926	-0.12159948
193	0x3dc52632	0.09626426
194	0xbd8a9ca5	-0.06768159
195	0x3d1b4aeb	0.037913244
196	0x3d0e3743	0.03472067
197	0xbbcdd446	-0.0062814085
198	0xbad88723	-0.0016519766
199	0xbcb502b6	-0.02209602
200	0xbd98e473	-0.07465448
201	0xbc58aa58	-0.013224207
202	0xbd9fe064	-0.07806471
203	0xbdd0274c	-0.10163745
204	0x3df1a0fc	0.117982835
205	0x3df822ac	0.12115988
206	0xbdfa360f	-0.12217342
207	0xbd4ba9d3	-0.049722504
208	0xbd24293a	-0.04007838
209	0x3c3b828b	0.011444698
210	0xbdd98d6d	-0.10622678
211	0x3db3f9bc	0.087878674
212	0xbd705712	-0.058676787
213	0x3d3178e4	0.04332818
214	0x3d88c9ec	0.066791385
215	0xbe08ce51	-0.13359953
216	0x3cecbadf	0.0288977
217	0xbd751f31	-0.0598442
218	0x3da76b52	0.081747666
219	0xbd99234c	-0.074774355
220	0x3d07f84e	0.033195786
221	0x3d931e0e	0.07183467
222	0xbd12b126	-0.035813473
223	0xbda1a02a	-0.07891877
224	0xbda5b55a	-0.08091231
225	0x3d424f5f	0.047438975
226	0xbb90f797	-0.0044240463
227	0xbdb74e1d	-0.08950446
228	0xbca2bab9	-0.019864427
229	0xbd90414d	-0.07043705
230	0x3de320b4	0.11090222
231	0xbd309a49	-0.043115888
232	0xbd5a61a8	-0.05331579
233	0xbdd20f29	-0.10256798
234	0x3dc6aa48	0.09700447
235	0xbdb1a1a1	-0.086734064
236	0x3d4767db	0.04868303
237	0xbd95e341	-0.07318736
238	0x3d5acf9b	0.053420644
239	0x3c4ac649	0.012376376
240	0x3daf33c0	0.085547924
241	0xbdf33dbe	-0.11877011
242	0x3c0a9f50	0.008460835
243	0x3df76884	0.12080482
244	0x3cb5c25b	0.022187402
245	0xbc4af263	-0.012386891
246	0x3da02fd2	0.07821621
247	0xbd61e61e	-0.055151097
248	0x3e1d6bc6	0.15373144
249	0xbe37248d	-0.17885037
250	0x3d820d97	0.06350248
251	0x3d9c212b	0.07623514
252	0xbd9dd85d	-0.07707284
253	0x3c58d878	0.013235204
254	0x3cf2ec35	0.029653648
255	0x3e288530	0.16457057

weight_hh f4 [512, 128]
0	0x3c1725b8	0.009225301
1	0xbdc4cbc0	-0.09609175
2	0xbd5a30d2	-0.053269215
3	0xbda1d1fa	-0.07901378
4	0x3d36f45c	0.044666633
5	0xbd3b0a64	-0.045664206
6	0x3d3c147c	0.045917973
7	0x3bcfbaa9	0.0063393903
8	0x3d50b25c	0.050951347
9	0x3c9004ba	0.017580379
10	0xbc18d3ca	-0.009327838
11	0x3c87995e	0.016552623
12	0xbd2302c0	-0.039797544
13	0xbdd58b69	-0.10426981
14	0xbc71d1e5	-0.014759515
15	0xbdf9e036	-0.12200968
16	0x3ca9952b	0.020701012
17	0x3dda5106	0.10659985
18	0xbdb5121a	-0.08841343
19	0xbc0c13d1	-0.0085496465
20	0xbd0365e2	-0.032079585
21	0xbc46baaf	-0.01212947
22	0x3d281495	0.041035254
23	0xbd280d1d	-0.04102813
24	0xbdab8a6b	-0.083760105
25	0x3e0f46a1	0.13991787
26	0x3d993ff8	0.07482904
27	0xbcf970e7	-0.030449344
28	0xbd94f92e	-0.0727409
29	0x3dc79168	0.09744531
30	0xbe052d2d	-0.13005514
31	0x3d5269a6	0.051370285
32	0x3c6ae197	0.014336011
33	0xbdd14cb6	-0.102197096
34	0x3b95547a	0.0045571895
35	0xbd2c858d	-0.04211955
36	0xbde165ee	-0.1100577
37	0xbbe23ef0	-0.0069044754
38	0xbd96e6ee	-0.07368265
39	0x3c3d3d1e	0.011550216
40	0xbde521e3	-0.11188104
41	0x3d6f4bc1	0.058421854
42	0x3d052839	0.032509062
43	0x3d3f8ff7	0.046768155
44	0xba8df2b5	-0.0010829779
45	0x3c52ca04	0.012865547
46	0x3d774e02	0.06037713
47	0x3d6702e0	0.056399226
48	0x3d98bdbd	0.07458065
49	0xbda980f8	-0.08276552
50	0xbcc997cb	-0.024608513
51	0xbd3461ea	-0.04403869
52	0x3ca9a663	0.020709222
53	0xb9d42b8e	-0.00040468242
54	0xbd04bbaf	-0.03240555
55	0x3d021844	0.031761423
56	0xbd8fcc26	-0.0702136
57	0xbd105655	-0.035238583
58	0x3ddc7576	0.107645914
59	0x3da52db9	0.080653615
60	0x3dcbf66a	0.09959109
61	0x3c7f7ec2	0.015594186
62	0x3d6cdfd9	0.057830665
63	0x3dc9d459	0.09854955
64	0x3d782f87	0.0605922
65	0xbe0571d2	-0.130317
66	0x3de9000d	0.11376963
67	0xbd946917	-0.07246607
68	0x3da6539c	0.08121416
69	0x3d1cb20b	0.038255733
70	0xbb215032	-0.002461445
71	0x3bbd309e	0.005773618
72	0x3df21842	0.11821033
73	0x3cb0973e	0.021556493
74	0x3d1cd9b4	0.038293555
75	0xbcda240e	-0.02662852
76	0xbdaf66b8	-0.08564514
77	0x3cb85e0d	0.022505784
78	0x3d955c05	0.07292942
79	0x3b0a5ae5	0.0021111306
80	0xbd577ed2	-0.05261118
81	0xbbba2233	-0.0056803464
82	0x3db32c33	0.08748665
83	0xbdd7ffae	-0.10546814
84	0x3d68c04e	0.05682402
85	0x3bcde188	0.006282989
86	0xbd4777d2	-0.048698254
87	0xbccc4c7a	-0.02493881
88	0x3d445dc7	0.047940996
89	0xbd9493f3	-0.072547816
90	0x3d90a3df	0.07062506
91	0xbc5a92e0	-0.013340682
92	0xbda92786	-0.082594916
93	0xbd86bc85	-0.06578926
94	0xbd3ac49e	-0.045597665
95	0xbdb210cc	-0.0869461
96	0x3ca7bedc	0.020476751
97	0x3d809ba9	0.0627969
98	0x3c952bf9	0.018209444
99	0x3de41d0a	0.11138351
100	0xbd3d5e3d	-0.04623245
101	0xbd11cb65	-0.035594363
102	0xbc79e6ae	-0.015252752
103	0xbd1feb4f	-0.039042767
104	0x3ca1fe82	0.01977468
105	0xbda643c8	-0.08118397
106	0x3d3f4815	0.046699602
107	0xbdb22b19	-0.086996265
108	0x3ddb1a1a	0.10698338
109	0x3d9a456b	0.07532772
110	0xbd5983f7	-0.053104367
111	0x3b8dae72	0.004323774
112	0x3d22e1f2	0.03976626
113	0x3b5c11c0	0.0033579916
114	0x3dd4f263	0.10397794
115	0x3c7d521a	0.015461469
116	0xbd875473	-0.06607904
117	0xbd9776aa	-0.0739568
118	0xbd53518a	-0.051591434
119	0x3d438966	0.047738455
120	0xbaf56e94	-0.0018724971
121	0xbd4638b5	-0.048393924
122	0xbcf00dc0	-0.029303432
123	0x3db5d3d3	0.08878293
124	0xbd09a5b8	-0.033605307
125	0x3aab8dd8	0.0013088537
126	0xbab764d2	-0.0013991839
127	0x3d51637b	0.051120263
128	0x3d841aa0	0.06450391
129	0x3d3a29b3	0.045449924
130	0xbde582c5	-0.11206583
131	0x3db0ef45	0.08639387
132	0x3d90915b	0.07058974
133	0x3dfb25ce	0.1226307
134	0xbb4c6a1a	-0.003119117
135	0x3d890e59	0.0669219
136	0xbd657dc2	-0.056028135
137	0xbda4d3be	-0.08048199
138	0x3d5f5246	0.05452182
139	0xbdbfe2cf	-0.09369432
140	0x3cc7f4f9	0.024408804
141	0x3d20428e	0.03912597
142	0xbc50e9df	-0.012751072
143	0x39e7d84a	0.000442209
144	0x3d872d37	0.06600421
145	0x3e017498	0.12642133
146	0x3dcfab70	0.10140121
147	0x3da507b0	0.08058107
148	0x3ded720a	0.11594017
149	0xbdd8875f	-0.10572695
150	0xbd7d4188	-0.061830074
151	0xbd1ef866	-0.03881111
152	0xbd8416ee	-0.06449686
153	0x3df0b2e0	0.11752868
154	0xbd3a070a	-0.04541687
155	0x3de9c7a1	0.11415029
156	0x3a36bf2a	0.00069712347
157	0x3d9299d4	0.07158247
158	0xbc25fd57	-0.010131202
159	0xbd0c4f69	-0.03425542
160	0xbcd42bf5	-0.025899867
161	0x3cf6bb47	0.030118598
162	0x3c86e800	0.016468048
163	0xbdbb80c7	-0.09155422
164	0xbcb40b1d	-0.021977955
165	0x3d32b622	0.043630727
166	0xbc675630	-0.01411967
167	0xbd37fc5e	-0.04491841
168	0xbcd346c4	-0.02579058
169	0x3d9711ad	0.07376418
170	0xbdbd4ec4	-0.09243539
171	0x3d6b8371	0.0574984
172	0x3ddf86b7	0.10914367
173	0xbdf94187	-0.121707015
174	0x3d9809c3	0.07423737
175	0xbd3e17d1	-0.04640943
176	0xbd25a93c	-0.040444598
177	0x3d0e818f	0.034791525
178	0xbc0d8675	-0.008638014
179	0xbd7cd684	-0.061728016
180	0x3c308a91	0.010775224
181	0xbdbf3591	-0.09336389
182	0xbd417a82	-0.047235973
183	0x3d569548	0.05238846
184	0x3df175fa	0.1179008
185	0xbc84bb54	-0.016202606
186	0xbd0fde2c	-0.03512399
187	0x3d06d3a7	0.03291669
188	0xbc9c7336	-0.019097906
189	0x3d935727	0.07194357
190	0x3db1fef3	0.08691206
191	0x3d1b06ba	0.03784821
192	0xbc9f70b7	-0.019462926
193	0x3b3bf36e	0.002867903
194	0x3de2d6cd	0.11076126
195	0xbc84bf2c	-0.01620444
196	0xbd27d0a0	-0.040970445
197	0x3d6e2cd4	0.05814822
198	0x3cb21355	0.021737734
199	0xbd7523f0	-0.059848726
200	0x3daeec00	0.08541107
201	0xbc2ac552	-0.010423021
202	0x3c4a0478	0.012330167
203	0x3d716ffe	0.058944695
204	0x3be136a8	0.0068729706
205	0xbdfde47e	-0.12397097
206	0xbdd2667e	-0.10273455
207	0x3b2475aa	0.0025094547
208	0x3c86a608	0.016436592
209	0xbd8eb1df	-0.0696752
210	0x3c981ca8	0.018568352
211	0x3bd1b416	0.0063996417
212	0x3db09508	0.086221755
213	0x3deada32	0.11467399
214	0x3d9b1a93	0.07573428
215	0xbdcceb1d	-0.10005782
216	0x3d873acc	0.066030115
217	0xbd01b83a	-0.031669833
218	0x3da21015	0.07913224
219	0x3cbd624a	0.023118157
220	0xbdd826fa	-0.10554309
221	0xbd9dbbb0	-0.07701814
222	0x3b338af9	0.0027396067
223	0xbcd27107	-0.025688661
224	0xbd8d9d5e	-0.06914781
225	0xbc23946a	-0.009984115
226	0x3daeb04f	0.08529722
227	0x3e0b048a	0.1357595
228	0xbd2ed955	-0.042687733
229	0x3bc9a87e	0.006154119
230	0x3cafed9d	0.021475608
231	0xbde60790	-0.11231911
232	0xbc895617	-0.016764684
233	0xbde57a39	-0.11204953
234	0xbcb839e7	-0.022488547
235	0xbdf6301f	-0.12020897
236	0x3c7b0a41	0.015322269
237	0x3c1704ea	0.00921748
238	0x3d8cc0cf	0.06872713
239	0xbd081221	-0.033220414
240	0x3dacb4d0	0.08432925
241	0x3dde8fdd	0.108672835
242	0xbbed1d05	-0.0072361254
243	0x3c355479	0.011067503
244	0xbc73d020	-0.014881164
245	0x3dc6c4d2	0.09705509
246	0x3e11b240	0.14228153
247	0x3d23d9eb	0.040002745
248	0xbd37853b	-0.044804793
249	0xbe2e1b0a	-0.17002502
250	0x3c6d79d4	0.014494378
251	0x3dea53a9	0.11441738
252	0x3e1b6f50	0.15179181
253	0xbd60bb67	-0.05486622
254	0x3cca1ef7	0.024672968
255	0x3dd407b7	0.10353034

bias_ih f4 [512]
0	0x3d6d48e2	0.057930835
1	0x3ddc1f1c	0.10748121
2	0x3dbd229a	0.09235115
3	0x3db1677e	0.08662318
4	0x3ca8f475	0.020624379
5	0x3d3f558a	0.046712436
6	0x3e12a25c	0.14319748
7	0x3df2e62c	0.11860308
8	0x3e825477	0.25455067
9	0x3df83ce0	0.12120986
10	0xbcc73160	-0.024315536
11	0x3e011928	0.12607253
12	0x3e2f483a	0.17117396
13	0x3dbea65a	0.09309073
14	0x3d19e777	0.037574258
15	0x3de8e0db	0.11371013
16	0xbcad5915	-0.021160642
17	0x3d44ac57	0.04801592
18	0x3e06d450	0.13166928
19	0x3dbd70fa	0.09250064
20	0x3e38b2cf	0.1803696
21	0xbc0fafce	-0.008769942
22	0x3d540e20	0.051771283
23	0x3df95b31	0.121755965
24	0x3c2835be	0.010266719
25	0x3c9cc3ad	0.019136274
26	0x3d490557	0.049077358
27	0x3dee4bea	0.11635573
28	0x3d42bc5c	0.047542915
29	0xbbf95cf0	-0.007609956
30	0x3e2ab16b	0.16669242
31	0x3dd135e1	0.10215355
32	0x3e95ebe9	0.29281548
33	0x3d1b10b3	0.037857722
34	0x3cd98b28	0.026555613
35	0x3d9c68c1	0.07637168
36	0x3e2fe527	0.17177258
37	0x3d9cff02	0.076658264
38	0x3d26e7e5	0.040748496
39	0x3dcd642f	0.10028874
40	0x3d9cf715	0.07664315
41	0x3de0d913	0.109789036
42	0x3e2d38be	0.16916177
43	0x3e318b8b	0.17338388
44	0x3de4afda	0.111663535
45	0x3b65e1b4	0.0035077156
46	0x3e12fab9	0.14353456
47	0x3e271e61	0.16320182
48	0x3e140edc	0.14458793
49	0x3c252fcf	0.010082199
50	0x3dc6b01e	0.097015604
51	0x3d3fdff8	0.046844453
52	0xbcac5557	-0.021036787
53	0x3ddb0c09	0.10695655
54	0x3cf9e6a2	0.030505482
55	0x3dd50467	0.1040123
56	0x3d127071	0.035751764
57	0x3d190acb	0.03736381
58	0x3d9906b3	0.07471981
59	0xbca46e7e	-0.020072218
60	0x3cd34049	0.02578749
61	0x3d10f001	0.035385136
62	0x3e00d211	0.12580134
63	0x3e0202f5	0.1269644
64	0x3d2810d3	0.04103167
65	0xbc66bf47	-0.01408369
66	0x3e0a8054	0.13525516
67	0x3c1707f5	0.009218206
68	0x3dad233f	0.08453988
69	0xbbb66e88	-0.0055673756
70	0x3cfb1b2d	0.030652607
71	0xbc6c80c6	-0.014434999
72	0xbcde8f28	-0.027167872
73	0xbca991ff	-0.0206995
74	0x3d886587	0.0665999
75	0x3e1ec0b7	0.15503202
76	0xbd2c5d91	-0.04208142
77	0x3da627f2	0.08113088
78	0x3c83eea3	0.016105002
79	0x3d4eb2ce	0.05046349
80	0x3b6760ea	0.0035305568
81	0x3e177841	0.14791967
82	0x3d8e94fd	0.06962011
83	0x3da236a7	0.0792058
84	0x3d6d5215	0.057939608
85	0x3d7c8367	0.061648753
86	0x3e0a9728	0.13534224
87	0x3df58970	0.11989105
88	0x3dc07031	0.09396399
89	0x3db93192	0.09042658
90	0x3e653ed8	0.22387254
91	0x3e0dab4e	0.13834879
92	0x3deee9d6	0.116656944
93	0x3ddfe88b	0.10933026
94	0x3df293ad	0.11844573
95	0x3e52fc7d	0.20604129
96	0x3e3ddae9	0.18540539
97	0x3d757126	0.05992236
98	0xbceda6b7	-0.02901016
99	0x3e08a6f2	0.13344935
100	0x3e29d76f	0.16586088
101	0xbd56deab	-0.052458446
102	0x3c81dcd5	0.015852371
103	0x3daf34f8	0.08555025
104	0x3ca314fe	0.01990747
105	0x3dd1c387	0.10242372
106	0xbc12de33	-0.008964109
107	0x3df6a768	0.12043649
108	0x3d4afd7b	0.049558144
109	0x3e50c96d	0.20389338
110	0x3dd45379	0.10367484
111	0x3d471c44	0.04861094
112	0x3d3b2490	0.045689166
113	0x3e27d166	0.16388473
114	0x3e400445	0.18751629
115	0x3ddcb4d8	0.10776681
116	0x3d6c63cf	0.057712372
117	0x3e011abb	0.12607853
118	0x3dc3dedc	0.095639914
119	0x3c5019a1	0.012701423
120	0x3c39ccbc	0.011340316
121	0x3bf58d76	0.00749367
122	0x3e2f923e	0.1714563
123	0x3ce8b438	0.028406247
124	0x3d7ac04c	0.061218545
125	0x3e110828	0.14163268
126	0x3e06024b	0.13086812
127	0x3e386d4a	0.1801044
128	0x3d2a5faf	0.041595157
129	0x3cefef1a	0.029288817
130	0x3cc9b556	0.0246226
131	0xbdb87cc4	-0.09008172
132	0xbcb08126	-0.021545958
133	0xbdb74aae	-0.08949791
134	0x3d360ca9	0.044445667
135	0xbc044127	-0.008072174
136	0x3c122f44	0.008922402
137	0xbd4845f0	-0.048894823
138	0x3cca2068	0.024673656
139	0x3ca17366	0.019708347
140	0x3e012f21	0.12615635
141	0x3c423e4e	0.011855675
142	0x3b65302d	0.0034971342
143	0xbd4f0384	-0.050540462
144	0x3d8bd602	0.06827928
145	0x3d1331ce	0.03593617
146	0xbd814c7e	-0.06313418
147	0xbda9d8b5	-0.08293287
148	0x3d486677	0.048925843
149	0xbdb479a0	-0.08812261
150	0xbaa0f9c1	-0.0012281464
151	0x3d04ba20	0.032404065
152	0x3baec13e	0.005333095
153	0xbdaa8db2	-0.083278075
154	0xbdb6f5b1	-0.08933581
155	0xbd939f3b	-0.07208105
156	0xbdc7e592	-0.09760584
157	0xbbd1646a	-0.006390144
158	0xbcdf46f4	-0.027255513
159	0xbda23e72	-0.07922067
160	0xbd38f5d4	-0.045156315
161	0x3c964f45	0.018348346
162	0xbbee2e79	-0.0072687236
163	0xbb5ca1b5	-0.003366572
164	0xbce6e8f7	-0.028187258
165	0xbd00f678	-0.03148505
166	0xbd6213a7	-0.055194523
167	0xbddd7f15	-0.108152546
168	0x3dba769a	0.09104653
169	0xbe0908a6	-0.13382205
170	0xbd9fcfeb	-0.07803329
171	0x3ca4f4ff	0.020136354
172	0xbdb217a1	-0.08695913
173	0xbdd742af	-0.10510766
174	0x3d35ed73	0.044415902
175	0xbd88110c	-0.066438764
176	0xbdc0a5e1	-0.09406639
177	0xbdba214f	-0.09088384
178	0x3d8bf92e	0.06834637
179	0x3d1dfa6e	0.038568906
180	0x3d858d70	0.06521118
181	0xbd63bbfb	-0.055599194
182	0x3ce13ad7	0.027493877
183	0x3d2888c6	0.041146062
184	0x3c0932cd	0.008373928
185	0xbdb60618	-0.08887881
186	0x3d566095	0.0523382
187	0xbddd1f75	-0.107970156
188	0xbd38f78f	-0.045157965
189	0xbc0369c8	-0.008020826
190	0xbd9a9c27	-0.07549315
191	0xbd20a710	-0.039221823
192	0x3d7772c0	0.06041217
193	0xbb9be329	-0.004757304
194	0xbd4c5ae3	-0.049891364
195	0xbd225ca9	-0.03963915
196	0x3ce47b4d	0.027890826
197	0xbdf1e381	-0.11810971
198	0x3c044c92	0.008074896
199	0xbcd0d439	-0.02549182
200	0xbccadd06	-0.024763595
201	0xbdc62576	-0.09675114
202	0xbc185ff9	-0.009300225
203	0xbd7dde0a	-0.06197933
204	0x3c50475b	0.012712325
205	0x3c20948c	0.009801041
206	0xbd6d6cea	-0.057965197
207	0x3d4dfea0	0.050291657
208	0x3d8971f5	0.06711189
209	0xbdc168e5	-0.09443835
210	0x3d99cae8	0.075094044
211	0x3ca40912	0.020023856
212	0xbd919910	-0.071092725
213	0x3d964f7a	0.07339378
214	0xbd0979ee	-0.033563547
215	0xbe02ff72	-0.12792757
216	0x3c112383	0.008858564
217	0xbd960b8d	-0.07326422
218	0xbd0affe6	-0.03393545
219	0x3daa508f	0.083161466
220	0x3c119f59	0.008888089
221	0xbd6c4d81	-0.0576911
222	0xbcb5dda9	-0.022200422
223	0xbcb3c151	-0.021942766
224	0xbd276001	-0.04086304
225	0x3d3460de	0.044037692
226	0xbc4a3af6	-0.012343159
227	0xbcf04083	-0.029327637
228	0xbdda5cdf	-0.10662245
229	0xbc99714c	-0.018730782
230	0x3cbdf731	0.02318916
231	0x3d629b3f	0.055323835
232	0xbddb02c7	-0.10693889
233	0xbc84b778	-0.016200766
234	0x3d2a8dec	0.041639253
235	0xbc0dc727	-0.008653439
236	0xbe039c89	-0.12852682
237	0xbdeb71e3	-0.114963315
238	0xbd83b709	-0.064313956
239	0x3db0cd85	0.0863295
240	0x3d6db35f	0.05803239
241	0xbc0ca353	-0.008583861
242	0xbdeef611	-0.11668027
243	0x3d84859e	0.06470798
244	0x3cbb089c	0.022831254
245	0x3d52be1a	0.051450826
246	0xbc187a67	-0.009306527
247	0x3bfbcab0	0.0076840743
248	0xbdc00c77	-0.093773775
249	0x3cf9e1e1	0.030503215
250	0xbd4da849	-0.050209317
251	0xbd14fbfa	-0.036373116
252	0x3d47f6d0	0.048819363
253	0xbdc10da3	-0.09426429
254	0x3d1b973c	0.037986025
255	0xbd90c51e	-0.07068847
