logs/fgb_vary_oracle/1/actor.pt (torch, 906162 bytes, 17 tensors)

weight_ih f4 [512, 48]
00000000: a9f2 d93d 4a89 823d 1502 2cbe 52fb e1bd
00000010: b48c 013e 6958 ba3c f14c 8abc e50d c23d
00000020: 53a0 b93d e4ae 61bd fbfa 0fbd 7aca 90bd
00000030: 1713 99bd 7496 aebc 61ac c1bd 92db 0cbd
00000040: e12b 353e c708 2c3e 51e6 a3bd c721 45bd
00000050: e8d4 233e 6dda c93d 6f9b eebc c4b7 cfbc
00000060: 3d87 55bd 2e09 a4bc de27 993d 2434 93bd
00000070: 4024 f2bd 1cdf 25bb 90d7 4fbe 2f84 743c
00000080: 1bdc 85bd 54e5 0dbc bd44 8cbd 730d d0bd
00000090: bc85 e5bc d9d2 793d ca59 c03c a69a aa3c
000000a0: 2f92 19bc 750c 45bd 688b 03bd ae98 0fbe
000000b0: 821a e1bd 3069 fdbd 494a fa3b 480a d43c
000000c0: 72b4 91bd e8ad 773d 18d4 793e 7f87 80be
000000d0: 6cb1 ab3d 29e7 593d cc21 453e 4ee2 9f3d
000000e0: 0d77 933d 60ce 2f3d 2c70 d73b 9335 f0bd
000000f0: 226b d33c 55d2 6ebd 22c1 073c af40 773d
00000100: 43ca b63d 4b8b d63d 60c3 163e ea6c 1ebe
00000110: 3752 b73c 4b5c 873e 508f 94bd 653e 3e3c
00000120: 7e52 a33d 7026 203e af94 473d 8ee4 cd3d
00000130: 83a7 73bc 1c16 52be 83d8 9c3e 51cb 39bd
00000140: 1aef 00be 666d cb3d 92cd a13d 3a8d 88bc
00000150: c3e3 303d b99b af3b ce6e 853c 2144 94bc
00000160: dac7 283d 879d 55bd 4bba c6bb 6fff 7d3c
00000170: 9634 343d 1127 eb3c 7484 833c b059 003d
00000180: 8dab db3d b2cc 403d be4d 45be 83f1 09be
00000190: 8816 b6bd 58dc 2bbd 927a 15be 2b0f 76be
000001a0: 09e8 453d a433 043d 1199 8cbd b207 8ebe
000001b0: 982a aabd 36ca 833d 6ab2 10be f223 27be
000001c0: e9fa 253e dc76 0abd 8ac6 d23c 9ff0 88be
000001d0: 1d56 0cbe 6d65 f2bc fe09 b4bd 340d 7e3d
000001e0: 0587 79bc c0e1 133e b62b c7bd 5132 5abe
000001f0: 129e d0bd d1ae e7bd 4a48 1f3e 7bac 1dbe
00000200: 6398 423d c46f d0bd 95db 47bc 086a 28bc
00000210: ffd8 ecbd 31e2 18bd b714 4e3d ac28 51bc
00000220: dbec 14bd c26d f03c 4105 5c3d 87b0 a33d
00000230: 565c a63d 7f2e 863d be35 043e cc22 193d
00000240: 3c0f dcbd 8160 893d fe9e a13b bcdb 10be
00000250: 3589 ea3b 8236 8dbd 8864 333d ddbe 08be
00000260: e6d5 8bbd da85 2c3c c072 3b3d 8a74 85bd
00000270: 05cc e93c e3b9 d3bd a08e a5bd 322e 86bd
00000280: 3246 00be eeee c33d fbc7 cdbb a2a6 44be
00000290: ba9e 023d 180d fc3d d5e3 da3d 8449 6e3c
000002a0: 8f24 c3bd 9b57 a2bd 467a e83b e029 d93c
000002b0: d7f2 de3d cbbe 88bd c931 74be 79fb b4b8
000002c0: 6c53 203c e731 a5bd 2e3b ae3d ed80 f4bd
000002d0: a571 b9bc 7518 63bd 3b0b 383d ec37 113d
000002e0: db52 813d 59d1 e23d ae08 85bc 0f8e b1bc
000002f0: 8b62 dfbd 9cd9 a63d b153 3f3e 2d69 7b3e
00000300: 422a bfbd bd4e b0be db64 81be 228c 23bf
00000310: 9ac3 77be 14f9 95bd b86f c9bd c53b 1abe
00000320: c2ba 633e baed 603e 3911 4cbd f240 a3bd
00000330: e307 cabd 7ca2 d43d a880 ca3d 4640 5a3e
00000340: cc47 59bd 7885 4abd 583e 28be c78a d6be
00000350: ab77 26bd ca9b 17be 52eb 193d c787 0cbd
00000360: 73ce 86bb 60b2 0a3e 53dc 673e 4f43 11be
00000370: 00af cfbd 6bd4 e83c 01f9 803e 834e 0d3d
00000380: 5304 66bd 3b3c 3fbd 9c25 aa3b 04fd 683b
00000390: bb72 053b ee31 6a3c abd0 7c3a 8fd3 6e3c
000003a0: 5552 823b c041 583d 96b5 083d 19e0 3fbd
000003b0: 823b d639 8a58 a1bd 17e2 05bd 0b4a a03d
000003c0: 1900 d43c f01f 9c3d eaa2 c6bc 9201 3ebe
000003d0: e6ce 413d 110f 69bd fba3 043e b316 043d
000003e0: 34b6 b03d 3d21 9abd 87d9 a7bd 2118 273e
000003f0: 6e36 a73c 5fe6 a5bd 2112 1cbe baa0 dbbd
0.10641987 0.06373842 -0.16797669 -0.11034264 0.1265133 0.022747235 -0.016882392 0.094753064
0.090637825 -0.05509843 -0.035151463 -0.07069869 -0.07474344 -0.021311976 -0.09456707 -0.034389086
0.1769252 0.16800223 -0.08002914 -0.048127916 0.15999186 0.098561145 -0.02912685 -0.025356181
-0.052130926 -0.020023908 0.07478307 -0.071876794 -0.118233204 -0.0025309986 -0.20297074 0.014924093
-0.065361224 -0.008660633 -0.06849048 -0.10158815 -0.028017871 0.060992096 0.023480315 0.020825695
-0.009373232 -0.048107583 -0.03211537 -0.14023086 -0.10991384 -0.123735785 0.00763825 0.025883809
-0.07114495 0.060468584 0.24397314 -0.25103375 0.0838345 0.053198967 0.19251174 0.07806836
0.072004415 0.042921424 0.006574651 -0.117289685 0.02580792 -0.058306057 0.008285793 0.06036442
0.08925297 0.10475787 0.14722967 -0.15471235 0.02237807 0.264376 -0.07253897 0.011611556
0.079747185 0.15639663 0.04872578 0.10053359 -0.014871481 -0.20516247 0.30633935 -0.045359913
-0.1259121 0.099329755 0.079005376 -0.016668905 0.04318596 0.0053591398 0.016288187 -0.018098893
0.04120622 -0.052152183 -0.0060646883 0.015502795 0.043995462 0.028705152 0.01605437 0.031335533
0.1072608 0.047070213 -0.19267938 -0.13471036 -0.08891016 -0.041958183 -0.14597538 -0.24029224
0.04831699 0.03227581 -0.068651326 -0.27740246 -0.08308905 0.06435053 -0.1413056 -0.16322306
0.16208996 -0.03380476 0.025729436 -0.2674608 -0.13704725 -0.02958938 -0.08790968 0.06202431
-0.015229945 0.14441586 -0.09725134 -0.21308257 -0.101863995 -0.113126405 0.1555492 -0.15397827
0.04750861 -0.101775676 -0.0121983485 -0.010279186 -0.11564826 -0.037325088 0.050312724 -0.012766045
-0.036358695 0.029349212 0.053715948 0.07992654 0.081230804 0.06551837 0.12911126 0.0373867
-0.10745093 0.0670786 0.0049322834 -0.14146322 0.0071574696 -0.06895162 0.043797046 -0.13354059
-0.06827907 0.01052996 0.04576373 -0.06516369 0.028539667 -0.103381895 -0.08083844 -0.0655178
-0.12526777 0.095670566 -0.006279943 -0.1920419 0.031889655 0.12307185 0.10687987 0.014543895
-0.095284574 -0.07926866 0.0070946543 0.026509225 0.10886162 -0.06677016 -0.23847117 -8.629909e-05
0.009785514 -0.08066159 0.085073814 -0.11938653 -0.022637198 -0.055443246 0.044932585 0.035453722
0.063146316 0.11075086 -0.01623949 -0.021674184 -0.109074675 0.081469744 0.1868427 0.2455184
-0.09334232 -0.34435073 -0.2527226 -0.638857 -0.2419571 -0.073228985 -0.09835762 -0.15061863
0.22239211 0.21965685 -0.049821112 -0.07971372 -0.098647855 0.10382554 0.098878205 0.21313581
-0.053046986 -0.049443692 -0.16430032 -0.41902754 -0.040641468 -0.14805523 0.037577935 -0.034309175
-0.004113966 0.13544607 0.22642641 -0.14185832 -0.101408005 0.028421601 0.25189975 0.034498703
-0.056156468 -0.0466883 0.0051924717 0.00355512 0.0020362574 0.014294131 0.0009644131 0.014576807
0.0039771 0.05279708 0.0333763 -0.046844576 0.00040861598 -0.078782156 -0.03268632 0.078266226
0.025878953 0.07623279 -0.024247605 -0.18555287 0.047316454 -0.056899134 0.12953179 0.03224821
0.086285025 -0.07525871 -0.08195787 0.16317798 0.020411696 -0.081005804 -0.1524129 -0.107240155

weight_hh f4 [512, 128]
00000000: 4336 85bd 9390 b4bd 5166 e6bc 9673 453b
00000010: 5791 dfbc 0cbb cfbd e062 ccbc a229 493d
00000020: 192f c83d 4d0a 7d3d a560 a2bd 3c20 893c
00000030: b5ad 9ebc 74b1 c03d 837e 9f3d e946 ec3d
00000040: 8eac e8bc 355c 3ebd a7c1 df3d 2e1e 91bc
00000050: 1ba3 403d 742e d93c 927a b43d 7452 403d
00000060: 17fe 503d 6da7 e83c 5bad 60bd e8e3 183d
00000070: 959d 85bd 6654 f33d 1f8a 09bd 5f05 94bc
00000080: 11c4 e3bb c882 b8bd 2f08 a6bd 808c b0bd
00000090: 1718 2e3b c385 e2bd 16a0 8dbd e727 4ebd
000000a0: ae79 843d 677e bebc 8025 603d d442 5d3c
000000b0: 9e78 653d 40ee b93d e792 753d 42bb 943d
000000c0: 507a 77bc 96f9 c63b f31b 783d 6d36 003c
000000d0: 8870 adbd 8f41 ebbc e79e 06bd 7c60 633d
000000e0: c3ed 35bb e721 ecbd 55d1 903c 0b90 8bbd
000000f0: c485 423b 0c83 da3c d158 9fbd 4b52 1b3b
00000100: 57f0 92bc 41d5 d33d 3c7b 883d e62e 443d
00000110: 1062 5fbd 5b0f 93bc 305b 283d ddd4 33bd
00000120: dead 8ebd cdea 64bd 7c2b f03c e6a9 4e3d
00000130: cdda 67bd 3142 adbb c236 64bd 865a 8e3d
00000140: 6b8d 433d f0b7 ee3c f873 bb3d e231 26bd
00000150: 11e6 163d ecaf 6f3d cdca 9dbd 4db8 a8bd
00000160: 976b b93c 032e d63d 2200 a8bd 9418 8e3d
00000170: cba9 f63c 5c29 b6bc feb2 64bd a491 843c
00000180: aec7 53bd cd5f c3bc 4450 f7bd d22a f2bd
00000190: dfa5 af3d af77 e33b 7c88 c83d ef25 b03c
000001a0: 9ad6 733c 1648 97bd 962c 3c3d 45f8 df3d
000001b0: c866 d13b fa4b 06bd 3ab1 90bd 4d7b d83c
000001c0: 8016 b8bc 7ea6 ca3d d9df 90bc 0553 083d
000001d0: bf01 f9bc 333d 23bd 5055 e43a a5d8 7abc
000001e0: a2a4 b4bd ce98 cebd 6870 133d 17f4 9dbd
000001f0: 0a04 a73c 837b 773c 3302 1abd d845 d33d
00000200: d261 84bd d16b 0dbb 92b9 35bd 9801 383d
00000210: 2c45 833d 521d d53c e9f1 fb3b 84b4 933d
00000220: 2c32 083e 730f d73b 69b5 b9bd fca7 673d
00000230: e188 543d ef6d 97bd 5e98 333d 061f 193d
00000240: 8363 c83b 0f08 2d3d 33d8 9d3d 2672 92bd
00000250: dae1 d0bd b41b d03c e57f 6abd 92e6 8dbd
00000260: 34ca 033e 04a8 a6bc c8fe c9bc 2164 bdbc
00000270: b6c2 5dbd 464e 8e3c 65cb a5bd 0597 a6bd
00000280: c911 a2bd 102b 35bb f4ba c83d e97f c5bd
00000290: f537 b6bc 522d 3e3c 7e61 d2bd 0543 a93d
000002a0: 1289 c8bd 307f d93d f9e1 7abc 696c 85bd
000002b0: bd71 5e3c 9070 e6bc f499 893c 726c cbbd
000002c0: 82c8 d6bc 98c6 47bb 11e1 00bd 3b7e 33be
000002d0: 4f3c 143d 64d5 773d 1907 cebb ad77 5a3d
000002e0: 2ea3 3cbd e488 ae3d 418c a63d 1c5e 07bd
000002f0: f987 cebd 4029 babd a774 3c3d a0db fc3a
00000300: 89b8 a63d e496 24be 76e1 5a3d cb6f 28bd
00000310: 8c45 a1bd 8370 863d e71e d43c 4950 88bc
00000320: 1d8b d7bd 8189 10bd 887e 273e b7cb 15bd
00000330: 4e28 c53d 87b1 243c 885d 15bc f3ac fa3d
00000340: 37cb 583d ad9f 6dbb 0712 563d 45ee 88bc
00000350: 3bb9 4cbd 620e bf3c 066f b13d 0c79 8d3d
00000360: d5e8 adbd 8b07 0d3d 9967 f1bc 4c01 a73d
00000370: 0a4a 853d 1d35 16bd 6c18 c53d adeb dbbb
00000380: 978b 4c3b bfad a73b b2ff 97bd e548 3f3d
00000390: 7118 95bc cc61 6ebd cb34 85bd 1397 f9bd
000003a0: ea64 c93c 42de 54bd 1a29 da3c 4ab1 abbd
000003b0: 1e43 48bd 747d d3bd c56e 1fbd 55ca 3c3c
000003c0: 661d ba3c 8194 513d 6f0d b0bd 6970 6bbd
000003d0: 3f47 1b3d 54c3 1bbe c10b 793d 5b02 973d
000003e0: f66e 92bd 172f 6a3d 8f03 bfbc f26f cebc
000003f0: 969f 7bbd 55d2 9d3d c6c4 90bd c4b6 9d3d
-0.0650449 -0.08816638 -0.02812496 0.003012871 -0.027290983 -0.10143098 -0.024949491 0.04911197
0.09774608 0.0617774 -0.0792859 0.016739003 -0.01936994 0.094088465 0.07787802 0.115369625
-0.028402593 -0.046474654 0.10925608 -0.017714586 0.04703055 0.026511408 0.08812441 0.046953633
0.05102357 0.028400147 -0.054852825 0.037326723 -0.06524197 0.11881332 -0.03357899 -0.018068967
-0.006950863 -0.090093195 -0.0810703 -0.08620548 0.0026564652 -0.11060669 -0.069152996 -0.050331023
0.06468521 -0.023253633 0.054723263 0.013504703 0.056023233 0.09078646 0.05995455 0.07262279
-0.015104845 0.0060722334 0.06057353 0.007825476 -0.08468729 -0.028717784 -0.032866385 0.055511937
-0.0027760125 -0.11529904 0.017677942 -0.068145834 0.0029681781 0.026673816 -0.07780612 0.0023700173
-0.017936869 0.10343409 0.0666413 0.04789629 -0.05453688 -0.017951658 0.04110259 -0.043904174
-0.06966756 -0.055887986 0.02931761 0.050454997 -0.05660515 -0.0052874316 -0.055716284 0.0695086
0.04774229 0.029140443 0.09152979 -0.040574916 0.036840502 0.05851738 -0.07704697 -0.082382776
0.02263431 0.10457995 -0.0820315 0.06938282 0.03011026 -0.022236519 -0.055834763 0.016182728
-0.0517041 -0.023849392 -0.12075856 -0.118245736 0.08576559 0.0069417576 0.09791657 0.021502463
0.014882708 -0.07386796 0.045940958 0.109360255 0.0063904263 -0.0327873 -0.07065053 0.026425982
-0.022471666 0.09895037 -0.017684864 0.0332823 -0.03039634 -0.039853286 0.0017420445 -0.015310441
-0.08820464 -0.10087739 0.03599587 -0.07712572 0.020387668 0.015105131 -0.037599754 0.10316056
-0.0646397 -0.0021579156 -0.044366427 0.044923395 0.06409678 0.026014958 0.00768875 0.07212165
0.13300389 0.006563121 -0.09067804 0.056556687 0.05188835 -0.07394015 0.04384648 0.037383102
0.0061153783 0.042244013 0.07707252 -0.07150678 -0.10199328 0.025403835 -0.057250876 -0.069287434
0.12870103 -0.020343788 -0.024657622 -0.023119034 -0.05414077 0.017371308 -0.08095435 -0.081342734
-0.079135485 -0.0027644075 0.098012835 -0.096435376 -0.02224348 0.011607485 -0.102725014 0.08264736
-0.09791769 0.10619962 -0.015312665 -0.06514818 0.013576922 -0.028129846 0.016797043 -0.09932794
-0.026218656 -0.0030483361 -0.03146464 -0.17528622 0.036190327 0.06050624 -0.006287467 0.053336788
-0.046054058 0.085222036 0.0813222 -0.033048734 -0.100845285 -0.09089899 0.046009686 0.0019291528
0.08140666 -0.16073185 0.053437673 -0.04112224 -0.07874593 0.06564429 0.025893642 -0.016639845
-0.10524581 -0.035287384 0.16356862 -0.03657123 0.09626828 0.010052091 -0.009116538 0.12240019
0.052928176 -0.0036258504 0.052263286 -0.016715178 -0.049981337 0.023322288 0.08663754 0.069078535
-0.08491675 0.03443102 -0.029468345 0.08154544 0.065082625 -0.036671747 0.09623799 -0.0067114444
0.0031211132 0.0051171477 -0.07421817 0.046700377 -0.018200131 -0.058198735 -0.0650421 -0.12187018
0.024584252 -0.051969774 0.026630927 -0.083834246 -0.048892133 -0.10326663 -0.038923997 0.011522849
0.022719096 0.051167015 -0.08596312 -0.05748025 0.037909742 -0.1521123 0.060802225 0.07373496
-0.0715007 0.057173815 -0.023317127 -0.025199864 -0.06143149 0.07706133 -0.070687816 0.077008754

bias_ih f4 [512]
00000000: 4363 d33d 42bd 543e c546 983d 2505 023d
00000010: 358f cf3d bf0c bc3d ac9f 1b3e 7e11 3a3e
00000020: 5c95 a93c 7bb7 fd3a 8bd7 983d 6bef 8f3d
00000030: 64c3 163e 492d d83d 5a25 463d 2b28 d13d
00000040: 9b92 0a3e d2f3 993d 1341 903d 6b0a 3cbc
00000050: 8455 173e 3003 973d 5d17 383e f008 3f3e
00000060: b07e 2a3d 9353 963d 6f3a 38bc 4652 663d
00000070: ce97 313e 529e 023e 8e7e de3c 8fa5 bc3d
00000080: e4ca 8cbb 0829 023c d16f 313e 542b a53d
00000090: 5810 df3d 7009 653e 3f5e 4b3d dd4e b13d
000000a0: 0272 a8bc 74ba 1c3d 2dbe 283d e2e9 4e3d
000000b0: 573c 213e 5363 113e 16a6 6c3d e78b d73d
000000c0: 8935 97bd 62b9 013e 9f6c cd3d 0bb8 d43d
000000d0: 04cb 9b3c 777f e53d 9874 0e3e e5a3 ba3d
000000e0: 1db5 343e 1ca8 2b3e 2635 fa3d 299e 793e
000000f0: be9e 833e 7367 ab3d 7e80 f23d 6864 3f3e
00000100: c214 10bc 3ef9 6d3e 57e4 a13d c064 cb3c
00000110: df76 683e a58d 1e3d d06d 3e3e bd91 543e
00000120: ae00 493e 5408 573e f264 e33d 9e2a f03d
00000130: d86a 143e 3872 163d d990 55bd d835 353c
00000140: f364 193d afbd 143e f50d 5f3d fd57 d2bc
00000150: 7665 3a3d b01d 4c3c a494 a93d 7822 893d
00000160: e7df 0f3e 7f85 0c3e dbb4 033e 1673 0b3c
00000170: e7b0 0e3d af20 913d d00e 0a3a 2c34 c23d
00000180: f606 dd3d 3167 d53d 7aa7 803d 4c66 74bc
00000190: 6c5b b23c 30d3 28bd f58e 4a3d 2a80 b73b
000001a0: 84b2 0f3e 0c31 123d 6c90 203e 320f 373e
000001b0: 9016 7a3d 3811 f2bc cc40 273d 49d7 c63d
000001c0: 98a2 ca3d 5ef2 b83d a5c0 123e 4650 f23b
000001d0: 8e4b 753e 2707 043e 3c63 343e d93c 953d
000001e0: fea9 ed3d 6a59 a43d 19c4 89bc f357 003e
000001f0: 603c 033e f5ed af3d 32a0 ab3d e587 c33d
00000200: c4d5 973d 397c 653d e555 8cbd 14c4 de3c
00000210: de06 9dbd 6ac0 133d 7998 08be f7e1 2abb
00000220: 8aa9 073d 5f85 4cbd 2476 8a3c 9a98 1e3d
00000230: 42e1 c4bd b5a3 a8bd 7f71 4ebd 22c9 41bd
00000240: ed56 bfbc 5f84 2cbd 17b9 38bc 2b31 95bc
00000250: cc5a 00bd 2c8f db3c 6c49 49bd f86c 1cbc
00000260: 8abc 81bd 34eb 2c3d e1be 89ba 57af 173d
00000270: d1c5 563d 2177 053c 7380 51bd 1b23 32bd
00000280: dc2b 9abd a7ea ea3d 85e8 5ebc e39e 8f3d
00000290: 7c02 9e3c 3eb4 2bbe 0563 ed3c 544c a1bc
000002a0: 9549 a9bb c3ac c6bd 7de1 663c d453 92bd
000002b0: b46a 4cbd e4bd 873c c768 40bc 73b6 8abc
000002c0: c370 4fbd 4bf6 4b3d c3e7 cf3d afe1 8c3c
000002d0: 252f 8cbd 9ddd 4d3d bcf5 94bc 9527 fabb
000002e0: da85 6fbd ecfe 94bc e443 c0bc 8c39 593c
000002f0: 40b4 a23d 88cf 6a3c c67f be3d 6e06 9bbd
00000300: 1bb6 be3d 0f3f ac38 1d8c 9ebc 744c 0c3e
00000310: babf eabd 49e0 013d 2f17 b6bc 32bc 62bc
00000320: b65c 52bd 5358 a3bd 50e8 babd 6f2d b0bc
00000330: a7ff 86bd ac43 b3bc 460a 513d eac6 3d3d
00000340: c28a ba3c b696 c5bb fb07 9dbd cfda 38bd
00000350: 7b13 fdbc bf16 823c 0440 5ebd e2b7 df3d
00000360: 1fda c6bd d303 f33c 130b 393d b78e 8a3d
00000370: 12e8 2dbc f3b4 a63a 12ce b6bd 8de8 4b3d
00000380: 1287 62bd e987 b1bc df23 593d 8f62 463b
00000390: 1222 95bc d8f7 bd3c b0f5 c73c 5e9a 0e3c
000003a0: fa7d 91bd 9832 e73d 3c12 1abd b2fe 813d
000003b0: 5b99 873c e2b4 6f3c f8ec 86bd 2520 c7bc
000003c0: 2d01 1e3d 46b2 083c 6727 923d 52db 83bd
000003d0: 96c8 a53c c98d 3f3d 8c90 4ebd 3296 d53b
000003e0: bc73 803d bc85 58bd 8120 c0bc 9473 11bd
000003f0: 02ad 3abd bcbf 42bd 45fc cfbd d9ab 10bd
0.10321667 0.20775321 0.07435373 0.031743187 0.101347364 0.091821186 0.15197629 0.18170735
0.020701103 0.001935705 0.074629866 0.07028087 0.14722973 0.105555125 0.048375465 0.102127396
0.13532488 0.07517208 0.07043662 -0.011477093 0.14778715 0.07373655 0.17977662 0.18655753
0.041624725 0.07340159 -0.0112444 0.056230806 0.17343065 0.12755707 0.027159955 0.09211265
-0.0042966474 0.007944353 0.17327811 0.08064905 0.10891789 0.22366881 0.049650427 0.0865762
-0.020562176 0.038263753 0.04119699 0.050516017 0.15745674 0.14198045 0.05777558 0.10524731
-0.07383258 0.12668374 0.100304835 0.10386666 0.019017704 0.112059526 0.13911664 0.09113292
0.17647214 0.16763347 0.122171685 0.2437674 0.25707048 0.08369341 0.11840914 0.18690646
-0.008794012 0.2323961 0.079048805 0.024828315 0.22701596 0.0387093 0.18596578 0.2075872
0.19629166 0.2099927 0.11103238 0.117268786 0.14493883 0.03673002 -0.05214009 0.011060201
0.03744979 0.14525484 0.05445667 -0.025676722 0.045506917 0.01245825 0.08280304 0.066960275
0.14050256 0.137228 0.1286196 0.008511325 0.034836676 0.07086312 0.00052664895 0.09482607
0.10792343 0.10420073 0.062819436 -0.014916968 0.021772109 -0.04121703 0.04945274 0.005599995
0.14032942 0.035691306 0.15680093 0.1787689 0.061056674 -0.029549226 0.04083328 0.09709031
0.098942935 0.09030603 0.143313 0.0073948232 0.23954603 0.12893353 0.1761598 0.072869964
0.11604689 0.08024867 -0.01681714 0.1253355 0.12816 0.085903086 0.08380164 0.09547404
0.074138194 0.05602667 -0.068523206 0.027193107 -0.076673254 0.036072172 -0.13339414 -0.0026074627
0.03312067 -0.04993188 0.016902037 0.03871975 -0.09613277 -0.0823435 -0.050401207 -0.047310956
-0.02335688 -0.042118426 -0.011274598 -0.018211922 -0.03133659 0.026801668 -0.049142286 -0.009547465
-0.06334789 0.042216495 -0.0010509157 0.03703245 0.052434746 0.008146078 -0.05114789 -0.04349051
-0.07527897 0.11470538 -0.013605242 0.07012727 0.019288294 -0.16767976 0.02897788 -0.019689716
-0.0051662424 -0.097009204 0.0140918465 -0.07144895 -0.049906448 0.01657004 -0.011743731 -0.016932702
-0.050644647 0.04979543 0.10151627 0.017197458 -0.068449296 0.050260175 -0.018183582 -0.007634113
-0.05847726 -0.018187962 -0.023469873 0.013258349 0.07944536 0.014331706 0.093017146 -0.07569586
0.093120776 8.213345e-05 -0.01935392 0.1370104 -0.1146235 0.031708036 -0.022227852 -0.013838815
-0.051357947 -0.07975831 -0.09126341 -0.02150604 -0.065917306 -0.021882854 0.05103519 0.046332277
0.022771243 -0.006029929 -0.07667538 -0.045130547 -0.030893078 0.015879987 -0.05426027 0.10923745
-0.09709572 0.02966491 0.045176577 0.06765502 -0.010614412 0.0012718722 -0.089260235 0.049782325
-0.055304594 -0.021671252 0.053012725 0.0030271148 -0.018204723 0.02318947 0.024409145 0.008703796
-0.07104106 0.11288947 -0.037615046 0.063474074 0.016552618 0.014630528 -0.06588167 -0.02430732
0.03857534 0.008343285 0.07136422 -0.064383164 0.020237248 0.046766076 -0.05043082 0.006518149
0.062720746 -0.052861914 -0.023453 -0.035510615 -0.04557515 -0.047546133 -0.101555385 -0.035320137

bias_hh f4 [512]
00000000: 3e52 073d 1e9e f33d be49 2f3e 800e 6e3d
00000010: 8dff a93d df6b 993d 443f 353e 04a9 353e
00000020: b442 5c3b d788 663d 9eec 243e 9735 053e
00000030: 3ecb 933d d786 373d eeef 1a3e cf0d f93d
00000040: 1b69 d23d 3a50 073e 5220 54bd 61ba 073e
00000050: aae5 313e 3065 eb3d 9f3e 213e 2ece 3e3e
00000060: a15a 923d c2f0 033e 74a9 bdbc 2d6d 163c
00000070: 8119 ee3d 0805 5f3e 51d2 9c3d 9b84 e33d
00000080: d9c0 f03d b9de 6b3d 75c6 873d 9223 f03d
00000090: 1ce3 6abd 3c79 2e3e 0344 fb3d 1f2e 20bd
000000a0: 0b0a 8e3d 2392 3d3c a0c4 143e 9210 4c3d
000000b0: 0dfb f03d 7706 c33d 71e2 d23d 10dc 9e3b
000000c0: 9438 93bb 8554 1f3e b0f3 313e 3bdc 363c
000000d0: f75f d83d 63ce e93c 9d19 5b3e f34f 093e
000000e0: 495e 623e 2230 dd3d f349 b73d d9c0 303e
000000f0: 16df 863e 04a9 0d3e 472c 533d e07b 633e
00000100: 4fc3 b8bb a489 1a3e 1c54 63bc daea 4f3d
00000110: 7957 843e 3dd7 af3d 6d71 813e b186 5e3e
00000120: 314b 0c3e 74ef 5f3e 0b91 103d 90d9 af3d
00000130: 51c4 e03d 2b98 9e3d 97ea cc3d 6be9 89bc
00000140: bc3d f83d 62b4 8a3d 84ff 273e b91c ae3d
00000150: a69b 273e 7ca1 013e 40cd cb3d 9225 2f3c
00000160: 2fc0 c83d 92cf d53d ceab 3c3e 2e54 043e
00000170: 153f 303d c52e 8d3d b641 393d 9f30 0b3d
00000180: 2008 5d3e bd7e d13c 25cd eb3d 0df7 fb3d
00000190: 03de 00bd 186d 583d 3254 8c3c 108a 583d
000001a0: b498 433e f26e 6b3d da77 2e3d f35a f13c
000001b0: 1e43 cb3c ddf7 a73d 4061 233d f82d aa3c
000001c0: 1bf6 503d 8bc3 043d dee0 093b 472c 8d3d
000001d0: 8530 a23d b4cf 943d c623 653e 5177 a53d
000001e0: 04dd d43d 7f5d 04bc 3479 123e 50d3 b63c
000001f0: 71a1 2e3e 3eb7 00bc c1dd 0f3e dba6 db3d
00000200: 5258 a0bd ff9d 1bbd 4c9d debc 3565 3bbd
00000210: 2cff 56bd 6b1a 943d bc56 f3bc b813 48bc
00000220: f7f1 8a3d 8f15 45bd fa17 853c e1ed ae3c
00000230: 57db 64bc 3067 7bbb 235b cbbd f8a5 4ebd
00000240: 9a64 a43d 35a6 803c 86ef dc3d 6894 ae3d
00000250: 527e e73c e49f 92bc 6dd7 e1bd 01db 90bd
00000260: 5721 973d 0e5f 383d 3697 80bc 89c7 83bc
00000270: 01a5 c4bc 3656 103e 57e4 2bbd d1f3 a7bd
00000280: aad3 55bd 0389 d83d 97dc 443d f277 15bc
00000290: 14e3 283d b0e4 41be a419 14bb 899e b53d
000002a0: 84b4 023c 299e f73c ad37 fcbd 066a b13c
000002b0: 320a 243d ebb0 b3bd bbae b13c 9fd8 d63c
000002c0: 3755 43bd 09d8 433d 0abb dfbb 0ced 6d3b
000002d0: 1795 f2bc 4466 0b3d d814 ccbd 2470 b6bc
000002e0: 6930 a1bd 688f 7a3c 34a3 823c 5d80 d3bc
000002f0: 37a6 243d b620 b1bd 26d4 b53b 174e e93c
00000300: ef64 033d e4ea 5a3d 6e1d 0fbd 313f 023e
00000310: d621 c4bd 3b73 cf3d 5d41 f7bc 59e3 9ebb
00000320: decc 93bd a503 e1bd 50c1 d3bd ed89 23bc
00000330: 5f4e 14bd 0750 803d daaa 65bd 6eed a6bc
00000340: f282 6dbd a3d5 723c a873 3a3d b5d8 a7bb
00000350: 606d 9bbc 1ba6 3b3d fc21 6dbd d6e6 a23c
00000360: cc69 78bd a7aa 313d 1802 153c bf03 e63d
00000370: 1d90 e43d ebc0 0d3d 7208 963d 4e9c fe3c
00000380: bc4e 103d f1f4 b83d cb5e 833c 0e54 b13d
00000390: e869 88bc 951e 033c fe7b e63c 7c75 0f3a
000003a0: 25e3 a73c 4c68 c63d 012b 803d cbac a73c
000003b0: 8064 113d af3b 8bbd ea14 0dbc 3ec8 87bd
000003c0: b534 92bd 6df3 75bc 6bc3 88bd 6b67 5a3d
000003d0: 55ad d13d f276 813b 2365 8ebd d9eb 6539
000003e0: 8100 223d 06ef 8b3d b415 da3b 9221 0cbd
000003f0: d4c2 9bbd 030f e9ba 9b1c 703d a487 debd
0.033037417 0.11895393 0.17117974 0.058119297 0.083006956 0.07491278 0.17699915 0.17740256
0.0033609094 0.056282844 0.16105887 0.13008724 0.072165 0.044806328 0.15130588 0.12160837
0.102739535 0.13214198 -0.051788636 0.13254692 0.17372766 0.11493909 0.15746544 0.18633339
0.07146192 0.1288481 -0.02315209 0.009181303 0.11625958 0.21779263 0.07657302 0.11109277
0.11755533 0.05758545 0.066296495 0.117255345 -0.057345495 0.17038435 0.122688316 -0.039106485
0.06935509 0.011570486 0.14528131 0.04982049 0.11766634 0.095227174 0.102970965 0.004848011
-0.0044928286 0.15559585 0.17378116 0.0111609055 0.10565179 0.028540796 0.2139649 0.13409404
0.2210628 0.10800196 0.089496516 0.17261066 0.26342076 0.13834006 0.051555898 0.22215223
-0.005638517 0.15091568 -0.013875034 0.05076108 0.25847986 0.08585975 0.2528185 0.21731068
0.13700558 0.21868688 0.035294574 0.08586419 0.109749444 0.077438675 0.10005682 -0.016834935
0.1212115 0.067726865 0.16406065 0.08501572 0.16367969 0.12659258 0.09951258 0.01069011
0.09802281 0.104399815 0.18424913 0.12922737 0.04302891 0.06893686 0.045228682 0.033981916
0.2158513 0.025573129 0.115137376 0.123029806 -0.031461727 0.052838415 0.017129991 0.05286604
0.1910122 0.057478853 0.042594768 0.029462313 0.024812277 0.08201573 0.039887667 0.020773873
0.051015954 0.032413047 0.0021038572 0.06893211 0.079194106 0.07266179 0.22376928 0.080793984
0.10393718 -0.008078932 0.14304048 0.022317559 0.17053773 -0.007856188 0.14049436 0.107251845
-0.07829346 -0.037992474 -0.027174614 -0.045750815 -0.052489445 0.07231601 -0.029704444 -0.012211733
0.067844324 -0.048116263 0.016246784 0.021353664 -0.01396831 -0.0038361065 -0.09929492 -0.05045125
0.08027001 0.015704254 0.10787873 0.085244 0.028258476 -0.017898507 -0.11027417 -0.07073022
0.07379406 0.045012526 -0.015697103 -0.016086357 -0.024004461 0.14095387 -0.04196581 -0.08200801
-0.05220381 0.10573008 0.048061933 -0.0091228355 0.041232184 -0.18934894 -0.002259829 0.08868129
0.007977609 0.030226784 -0.12315307 0.021657001 0.040048786 -0.08773979 0.021689763 0.02622634
-0.04768869 0.04781345 -0.0068277167 0.003630462 -0.029612107 0.034033075 -0.09964913 -0.02227027
-0.07870562 0.01529298 0.015946962 -0.025818044 0.040197577 -0.08648817 0.0055489717 0.028479619
0.03207868 0.053446665 -0.034940176 0.12719418 -0.09576766 0.101294 -0.030182535 -0.0048488793
-0.0721681 -0.10987023 -0.10339606 -0.009981615 -0.036207553 0.06265264 -0.05607114 -0.020376887
-0.057986207 0.014821443 0.045520455 -0.005122269 -0.018973053 0.045812707 -0.05789374 0.019885462
-0.06064777 0.043375637 0.0090947375 0.11231183 0.111603 0.03460781 0.073258296 0.031080391
0.035231337 0.09031094 0.016036412 0.0865861 -0.016652063 0.008002897 0.028135296 0.00054725236
0.020494053 0.09687862 0.06258202 0.020468136 0.035496235 -0.06798493 -0.008610943 -0.0662999
-0.07138959 -0.0150116505 -0.06677898 0.053321283 0.102381386 0.003950947 -0.06952884 0.00021927002
0.03955126 0.068326995 0.0066554192 -0.034211703 -0.0760552 -0.0017780963 0.05862103 -0.10865715

weight_ih f4 [512, 128]
00000000: 32f8 91bd 000a d3bd 26eb 15be 660a 1f3d
00000010: dabb ff3a 6e37 693d 9409 033e 9571 ff3c
00000020: 7322 bf3d ce00 a83d 8e4a 82bc 28bf c83d
00000030: d000 c73d ac1f c23c b16d 00bd 78af d83d
00000040: 53f5 e83d dd42 ac3d 4710 4839 3dad 4ebe
00000050: efbb 423e 4679 97bd 0226 4ebb 8070 1f3d
00000060: 2b8c 5b3d 8cf2 15be ffe1 5c3b 3035 833d
00000070: 4e32 4fbd 4df6 4db8 3ff0 3ebe 5a44 a13c
00000080: 11b8 c5bd 0918 753b 63d7 d3bd f273 01bd
00000090: 62ab 233e eb54 91bd 7283 d03d 4d55 573d
000000a0: a5b6 b2bd 3dc3 92ba 1798 dd3d c32e 3b3e
000000b0: 382f 233c eafc dd3d 738a 3dbe 0851 cd3c
000000c0: 8f7e 143d 51b3 513e b692 9abc fcdf cfbd
000000d0: 4882 783c 1551 2fbc c309 043a b042 0ebd
000000e0: 2906 ba3d 2f0d 86bd 6ddd c3bc ef51 38bd
000000f0: af8a 113c e997 0bbe 3fd0 52bc 7f4b d73d
00000100: a9e0 03bc 7397 d7bd d22e 00be 0c97 233d
00000110: a0a9 2fbe 1630 773d 6cd0 aa3d 00c4 453d
00000120: 14bd ddbd 5fe1 6cbd fc7b 163d 7ec8 66bd
00000130: 47e9 b03c 1e3b b93c 05f1 f0bd c0fc d93d
00000140: b9fa ffbc beff c1bb d36a 0d3a 8c98 d83c
00000150: 0484 cb3c 022f 1f3e 8a5d c3bd ada7 c9bd
00000160: 7980 45bc bbbe 06be c8cb e9bc c689 5f3d
00000170: 436d 2cbc 5748 10be 008d 883b d2ce 143d
00000180: 6737 35be f5a1 cbbd e451 29be 0d10 d03c
00000190: ea18 063d d78a 04bd 28d2 993d b84d e0bc
000001a0: 0329 2c3c 4620 9ebd 3712 9c3d 81ca 3d3d
000001b0: ee2a 03bd 05bb c1bc b5a9 a8b9 a6e6 48bd
000001c0: ca61 81bd 0126 ebbc 059c 9bbd 9570 0c3e
000001d0: 61bc f53d 3f9a 0ebe 869f ff3d fba3 653d
000001e0: 8b0d cd3c b02c c83d f406 09be f274 373d
000001f0: 6159 edbc 4a06 6f3d b68b 8e3a d5f8 123e
00000200: 09d8 da3d 7aec 513d 7500 b13d 3c60 8bbc
00000210: 8771 5d3d a949 883d 67fc 1a3d 0bc6 27bd
00000220: 3c7f 093e edf1 923d ba1a d9bd 95bb c53d
00000230: 70f4 32bd a752 353d 0ca1 40bd 6a6e cabd
00000240: 7017 803d ab00 66bd 275d 9fbd 4d96 7dbd
00000250: c68f 0e3e 9c98 403a 65db 44bd 5736 f43d
00000260: fcbc 07be b0f9 90bc d03e 2d3c 5857 633c
00000270: fa50 3fbd 0b77 40bd a422 b63d 6c2c be3d
00000280: ac44 5f3d 7186 a13d 9311 823d 0aa2 d3bc
00000290: 7ba6 47bd f47c d3bd 3b9e 2ebc 8e99 b5bd
000002a0: 5b6e 103e 8950 57bd 4684 a73d f35c 06bd
000002b0: 85ad af3d 8f70 b6bd 4d0d adbc 4f45 dc3c
000002c0: 382f 5c3c 26f0 b63d fabf 28bd 55a5 833c
000002d0: 5433 bc3d 79ec f03d 6a9c 08be be34 073a
000002e0: 3aa5 4e3d 9b19 1c3d 4486 0d3d 2847 cc3d
000002f0: 953f 1cbe 8666 aabd 8439 ee3d c21b b5bd
00000300: e907 96ba 9f63 0e3e 7216 01bd a8b8 5d3c
00000310: 13a1 ab3d 3b02 d33c cbd4 9dbc 861f 93bc
00000320: 1987 b8bd 6bc2 f2bc dd70 fbbd 96e8 85bd
00000330: e17d 113e dfb7 333d fa28 8cbd c821 56bd
00000340: b481 9ebc e805 87bd 1f69 cabd f6dd c03d
00000350: 2555 703c 7dab 013e 4062 ac3d e9b7 0bbd
00000360: 26b2 b83d a7f2 12bd 5ce1 b8bd 01e9 44bd
00000370: 8d57 983d ea17 013e 109b fc3b 3a16 c6bd
00000380: bf8b 74bd 2b51 773c 8f08 61bc 8c47 40bb
00000390: 2bcd 333c 2ee0 1fbe a55f 2f3e 0935 fcbb
000003a0: 32c7 23bd e927 b03c 6ab8 023d ff9f febd
000003b0: 6f41 723b 3178 88bd e69d 38bd f3d7 d83d
000003c0: d96a d13d 8207 26be f9a3 62bd 34b1 473d
000003d0: 14dc 9dbd c415 083d 3ada 0c3e c202 b4bd
000003e0: 54f2 603d ab93 3dbe fa7f 9a3d 7230 213e
000003f0: c53f 07be f3c5 0fbd 187c afb9 3fda fc3d
-0.071274176 -0.10304642 -0.14640483 0.038828276 0.001951094 0.056937627 0.12796623 0.03118209
0.093327425 0.082032785 -0.015904691 0.09802085 0.09716952 0.023696743 -0.03135461 0.10580343
0.11374917 0.08411191 0.0001907955 -0.20183273 0.19017003 -0.07396178 -0.003145576 0.038925648
0.05360047 -0.14643306 0.003370404 0.06406629 -0.050585084 -4.9105194e-05 -0.18646334 0.019685913
-0.096542485 0.003739836 -0.10343816 -0.031604715 0.15983346 -0.07096275 0.10181321 0.052571584
-0.08726243 -0.0011197102 0.108200245 0.18279557 0.009959988 0.10839255 -0.18509845 0.025063053
0.03625351 0.2047856 -0.018868785 -0.101501435 0.01516778 -0.010700484 0.0005036855 -0.034731567
0.09083206 -0.06545483 -0.023909295 -0.045000013 0.008883162 -0.13632168 -0.012867033 0.105124466
-0.008049169 -0.105269335 -0.1251786 0.03993897 -0.1715455 0.060348593 0.083405346 0.048282623
-0.108270794 -0.057832118 0.036739334 -0.056343548 0.02159561 0.022611197 -0.11764721 0.10643911
-0.031247484 -0.0059203794 0.0005394641 0.026439928 0.024843223 0.15545276 -0.095393255 -0.09846435
-0.012054556 -0.13158695 -0.028539553 0.05457475 -0.010524097 -0.14090095 0.004167199 0.03633005
-0.17696916 -0.09943 -0.16535145 0.025398279 0.032738604 -0.03235897 0.07510787 -0.02738081
0.010507825 -0.077209994 0.07620662 0.0463357 -0.032023363 -0.023648748 -0.000321699 -0.04904809
-0.0631748 -0.028704645 -0.07598118 0.13714822 0.11998821 -0.13926028 0.124815986 0.056064587
0.025030872 0.097741485 -0.13381559 0.044789262 -0.028973283 0.058355607 0.0010875377 0.14352734
0.10685737 0.051250912 0.08642665 -0.017013662 0.054063346 0.066546746 0.037838366 -0.040960353
0.13427442 0.0717505 -0.10600801 0.09654919 -0.043690145 0.044268277 -0.047028586 -0.09884341
0.0625447 -0.05615298 -0.07781439 -0.061910916 0.13922033 0.00073469593 -0.048060793 0.11924427
-0.13255686 -0.017697185 0.010574058 0.013875805 -0.046708085 -0.04698853 0.08893326 0.092858166
0.05450885 0.07886971 0.06351008 -0.025834102 -0.048742753 -0.10326567 -0.010657842 -0.08867179
0.14104597 -0.05256704 0.08179526 -0.032803487 0.08578018 -0.089081876 -0.021124506 0.026888518
0.013438992 0.089325234 -0.041198708 0.016070047 0.091894776 0.117638536 -0.13340917 0.00051577005
0.05045054 0.038110357 0.034551874 0.099745095 -0.1525863 -0.08320336 0.11632064 -0.08843185
-0.0011446449 0.1390519 -0.031515546 0.013532795 0.08380332 0.0257579 -0.019266507 -0.017959367
-0.09010143 -0.029633721 -0.12277386 -0.06538503 0.14208175 0.043876525 -0.06843753 -0.05227831
-0.019348957 -0.065929234 -0.098833315 0.09417336 0.014668738 0.12663074 0.08417177 -0.034110937
0.09018354 -0.035875943 -0.09027359 -0.048073772 0.07438574 0.12606779 0.0077089146 -0.09672208
-0.059703585 0.015095036 -0.013734951 -0.002933952 0.010974209 -0.15612862 0.17126329 -0.007696752
-0.03998489 0.021503406 0.031914152 -0.124328606 0.003696527 -0.0666355 -0.04507246 0.10588064
0.10225458 -0.16213802 -0.055332158 0.04875298 -0.07707992 0.033223882 0.13755122 -0.087895885
0.054918602 -0.18513362 0.07543941 0.15741137 -0.1320792 -0.03510089 -0.00033471058 0.12346315

weight_hh f4 [512, 128]
00000000: d986 563d 5e22 96bc b209 74bd c415 04be
00000010: 9584 cb3c 8cda 7ebd a9f5 123e c3ec 15bd
00000020: a684 5c3c f1a6 ab3d bf8a 90bd 4b76 843d
00000030: caf3 2dbc 8b45 60bd 69a6 e8ba 0dfb 23be
00000040: 4232 903d 22fc 103e a4e5 fbbb 433f 47be
00000050: ee50 94bd 262d 4ebd 27a6 9b3d b92c cdbd
00000060: 69aa 20be 8d80 123e e918 0c3d 23d8 41bd
00000070: 9227 1bbd 7236 0f3e 7fda f6bd 8be9 7d3d
00000080: 0fa2 303d 48c8 413a 361b cb3c 5ef9 15bd
00000090: 4d7f 1dbe 94c0 83bd e4b2 72bd 5fe7 93bd
000000a0: 93a4 01be 994d 9d3c a70e 9c3d e95a b23d
000000b0: bd5e e43d f0d1 c2bd a5ab e23d 9b8f 083e
000000c0: 752d d63d 1634 67bd 1853 95bd aa8b afbd
000000d0: 3851 083d 2aae a0bd 9618 253d 6f5f 203d
000000e0: f5da edbc ac57 4dbd 0375 1e3e c405 923d
000000f0: 4282 e23b fef3 833c 3d8c 65bd d5cb b53d
00000100: 6792 b03d 31ab 22be 2b03 103e 84ef c7bd
00000110: a7bc 9c3c 9a4e 42bc 5d6a a03c beb7 4fbd
00000120: 7fd2 ee3d 7642 6c3d af96 3b3d 295a 4cbd
00000130: e4b8 dfbc a9dc ac3c 9f86 fd3d 8127 4c3d
00000140: 3b83 afbc a534 e43d a290 3e3e 2365 b9bd
00000150: 6ddf fe3d 1719 3b3d 1ca5 ca3d 068c 3ebd
00000160: 4b0c f33d a129 f23b f549 083e cea6 9dbc
00000170: a2f3 35be 0c59 93bc 7abe 353b bc33 85bc
00000180: acda 8b3d f2ae 0f3e 299e aa3c be2f 413d
00000190: 1960 fbbc 761f 6ebd 9ea6 f8bc 8367 1d3d
000001a0: a59e 683d c91f febd 71a1 b7bc ce9b 2ebe
000001b0: 9b2e 0b3e 9816 943b dc2d a3bc 4d48 82bd
000001c0: 9e16 643d db42 983d 520b 623e 7f98 48bc
000001d0: 26fc e9bd 4ae6 073d f0f3 69bd 01d2 bd3d
000001e0: 27a9 82bc 5ed0 1ebe ae68 3fbc 8cba 003e
000001f0: 8214 40bd 3745 00bc 8350 82bd 1ce4 fa3c
00000200: e0cb 8a3d c69d 933d 3e17 16be 7972 a63b
00000210: c9db 533d dad0 293d c967 a5bc 5a38 3c3d
00000220: 5346 f8bd 843f f23c faba 1f3c e450 cabd
00000230: 4912 febd 7f87 fc3c a197 3bbd ea42 08bc
00000240: 473e 28bd 92c6 ce3d af89 fd3d 10c9 8a3d
00000250: 2d4c 6f3b 5306 33bd c3d7 98bd 902d 4fbd
00000260: 7f3d a0bc d295 1e3e a06e 9cbd 50da f83d
00000270: 2cf8 393c 2ffc 3d3d bcdd 353d b1d9 02be
00000280: 4001 0e3d 0085 b8bb 3b11 273c 7f47 d1bc
00000290: 332b 56bd f754 e73d 2cec babc 2361 03be
000002a0: a509 5dbc 3402 da3d 89e4 2abe de97 103d
000002b0: 2a63 a8bb 1c4a 86bd 1613 e73d d4d8 39bd
000002c0: e296 fe3c 5f4b 7f3d 10b3 a83c 3757 94bd
000002d0: ea3b 04bd f166 b1bd 912d ddbd cd04 8abd
000002e0: 455d 663d 5a03 7a3d e33c babd f8c6 61bd
000002f0: 85d9 ce3c a0ed ae3c f522 b83d bf03 993c
00000300: f767 77bd e84f 9b3d 5c80 19bd 5b40 f4bd
00000310: 34a9 50bd 298b d33c 365e 923d 06a8 1cbd
00000320: 0146 bcbc 8746 f53c 04b4 eebc 8f0b c5b9
00000330: e50b 05bd 1750 90bd 8185 2fbd ba75 21bd
00000340: 9c4a 4dbd ee3d ecbd 652d d63d 51c8 2b3d
00000350: 2991 dc3d 0da2 053e 6d11 fc3d 1208 a93b
00000360: b38c 33ba 3749 853b f6ba 673d bfd1 8bbc
00000370: ceb4 42bd ce87 61bd feb4 3a3d 1a2a 96bd
00000380: 745f c5bd b388 49bd 9499 c63c 9b4e 5bbc
00000390: 6630 d6bd 4459 53bd 1b17 603d 9e12 bebd
000003a0: d115 59bd 8d97 abbd f058 1cbe 0dab 5fbd
000003b0: 9627 33bd cd8b aabd a1df 933c b85e 21bd
000003c0: 1f0a 123e 5e7b 6fbc 0caf 89bd 8585 633c
000003d0: c1dc 723c dfeb 6e3c 0d68 013e d826 a03d
000003e0: e554 913b a7cd aebd 7420 aabc 2e96 073e
000003f0: ba64 a23d 25f3 f7bc f449 1bbc 78b4 bb3d
0.052374694 -0.018326934 -0.05957956 -0.12898928 0.024843493 -0.06222014 0.14351524 -0.036602747
0.01345936 0.08381451 -0.07057714 0.06467875 -0.010617206 -0.05475382 -0.0017749789 -0.16013737
0.07040836 0.14158681 -0.0076872874 -0.19457726 -0.072419986 -0.050336026 0.076000504 -0.10018296
-0.15690006 0.1430685 0.034203444 -0.047325265 -0.037879534 0.13985613 -0.120533936 0.061990302
0.0431233 0.000739221 0.024793249 -0.03661477 -0.15380593 -0.06433216 -0.059252635 -0.07221865
-0.12660436 0.01920204 0.07619982 0.08708746 0.111508824 -0.09512699 0.11067895 0.13336031
0.10457889 -0.056446157 -0.072912395 -0.08571561 0.03328058 -0.07845719 0.04030665 0.039153513
-0.02903507 -0.05013244 0.15474324 0.07130006 0.0069125006 0.016107555 -0.056041945 0.088767685
0.08621674 -0.15885617 0.14063708 -0.09762481 0.019132925 -0.01185956 0.019581968 -0.05071234
0.11661243 0.05768057 0.045798 -0.04989067 -0.027309842 0.021101313 0.123791926 0.04984236
-0.02142488 0.11142854 0.1860986 -0.090524934 0.12444959 0.045678224 0.09894773 -0.046520256
0.11867579 0.0073902165 0.13309462 -0.019244578 -0.1776872 -0.017986797 0.002773194 -0.01626002
0.06828818 0.1403158 0.02082737 0.04716467 -0.030685471 -0.058135472 -0.030352887 0.038428795
0.05679192 -0.12408406 -0.022415848 -0.17051622 0.13591997 0.004519295 -0.019919328 -0.063614465
0.055685632 0.07434627 0.22074631 -0.012243389 -0.114250466 0.033178605 -0.057117403 0.09268571
-0.015949799 -0.15509173 -0.011682672 0.12571162 -0.046894558 -0.007829002 -0.06363013 0.03062635
0.06777167 0.07207827 -0.14657304 0.005079564 0.051723275 0.041458942 -0.02019109 0.04595218
-0.12122788 0.029571302 0.0097491685 -0.0987871 -0.12405831 0.030826328 -0.0457989 -0.008316735
-0.041075017 0.10096468 0.12379777 0.06776631 0.003651391 -0.043707203 -0.07463028 -0.05058056
-0.019560574 0.1548684 -0.076382875 0.12151015 0.011350673 0.04638308 0.044400916 -0.12778355
0.03466916 -0.005631089 0.010196979 -0.025546787 -0.05228729 0.11295503 -0.022817694 -0.12830023
-0.013491069 0.106449515 -0.16688742 0.03530108 -0.0051387744 -0.06557104 0.11282937 -0.0453728
0.031077806 0.06232774 0.020593196 -0.072431974 -0.0322837 -0.08662213 -0.10799707 -0.06739197
0.056241293 0.061038353 -0.090936445 -0.055121392 0.025250206 0.021353543 0.089910425 0.018678544
-0.060401883 0.075836 -0.03747593 -0.11926337 -0.050942615 0.025823193 0.071468756 -0.038246177
-0.0229826 0.029940857 -0.029138573 -0.0003758338 -0.032482047 -0.07046526 -0.04285193 -0.039418913
-0.05011998 -0.1153525 0.10457877 0.041939083 0.107698746 0.13050099 0.12308011 0.0051584328
-0.0006849274 0.004067566 0.056574784 -0.017067788 -0.04753571 -0.055061154 0.045582764 -0.07332249
-0.09637347 -0.049202632 0.024243154 -0.01338544 -0.1045845 -0.051598802 0.054709535 -0.09280895
-0.05299932 -0.083785154 -0.15268302 -0.054606486 -0.043738924 -0.08327446 0.01805097 -0.03939697
0.14261673 -0.014616815 -0.06722841 0.013886814 0.01482314 0.014582603 0.12637348 0.07819909
0.004435169 -0.08535319 -0.020767428 0.13240883 0.07929368 -0.030267308 -0.009478081 0.09165281

bias_ih f4 [512]
00000000: ac27 e83d 76eb e33d a7ce d53c fcb9 5a3e
00000010: e4c7 e7bc 8548 573e 0470 5e3e 279d bc3e
00000020: 5bbb a33e f636 fb3d 9fb4 8c3d fad5 033e
00000030: 5d01 843d 6991 623e cb6b 553d 9858 2a3e
00000040: d8ba cc3d 3433 ca3d dee1 2a3e 849a f13d
00000050: 99ec 483e fedb e83c 4ef6 bd3d 2d95 b43d
00000060: 14f0 ae3c 27d8 c43c 73a7 ef3d 120e 503e
00000070: 6ad1 743d aebb 2d3d e890 ed3d 7235 e23d
00000080: 3a59 663e 9651 0f3e dd4a 8a3b 0f6c 093e
00000090: baa4 183e 54aa 943d a4f5 bf3d ff44 073e
000000a0: 2e64 173e 658b 433d e206 c73d 8cb1 7f3e
000000b0: da55 3f3e 68bc 9d3d 4abf 1e3e f501 2a3e
000000c0: 1f0c 263e 7b02 3c3e a926 cf3d cc53 5a3d
000000d0: 4d6b 373d ad7e ee3d f267 733d 4056 653e
000000e0: f735 263e 6601 dcbc ae12 763d b02d c03d
000000f0: ace6 9c3d e006 673d 4535 103e 373e b53d
00000100: 6cce d93d 23c1 df3b bc20 d93d b611 8f3d
00000110: 3817 ca3d c9d6 603c 821f af3d bbc6 af3c
00000120: ec93 8f3d 21df 9d3c c8b1 053e 662c 473e
00000130: 20c8 e03c dbae 163e 35b9 c53d 034c 063e
00000140: 29f9 60bd a75a 183e 6abf dd3d 9f98 d23d
00000150: b774 433e c8f5 f23c 24d1 893d dfdc 483e
00000160: 91fd 333e cf28 6d3d 1f9a a03e f8fa 343e
00000170: 3079 163e 472b 283e 8cf3 083e 89f5 883e
00000180: 585b 1b3e 8e7f 863d 122a 6a3c 8669 913e
00000190: 4776 1a3e d7dc 343b 8eec c43c 7ce5 d73d
000001a0: e649 583d b28f b03d fd71 dd3d 8186 143e
000001b0: 05c5 bb3d 97fa 793e 4c39 013e 2f24 98bb
000001c0: 7bb8 343d 75f4 0b3e 03c2 e53d c20b 0d3e
000001d0: c071 493d fe25 463e 8073 d43d cb41 2b3d
000001e0: b396 bc3d 8c1c d93d 5cc4 293e f08e 633d
000001f0: 89fa 473e 0c5e 243e 2346 303e c12d 8b3d
00000200: 3ff1 f43c b2f1 b33c d079 133d 9968 20be
00000210: ef89 443c f61d 0ebe 5b62 973b b790 a2bd
00000220: 4a09 b0bd a498 adbd d78c 87bc 65a7 2f3d
00000230: 1967 ee3d 7fe3 1ebd 8b97 f63b 56d2 67bd
00000240: 2266 0bbc 054d 333d 7b57 afbd e96d f4bd
00000250: b350 ae3c 0e15 debd f029 8cbc 991d 303c
00000260: 2069 63bc 2dad 0dbe 317d fabd 9907 09be
00000270: acb5 94bd fd37 b5bd 363f 993c 4e46 d4bc
00000280: 4c4c bcbd 55d8 daba 888b 92bc 544e 1cbc
00000290: 355b 35bd 9f7d a23b dad0 8ebd e186 97bd
000002a0: d730 833d 882c 0bbe a064 56bd ab92 7bbc
000002b0: 1e71 24be f71d 19be 0226 02bd 197b c9bd
000002c0: efab 07be c20c 52be 5e89 ca3c 9109 2f3d
000002d0: 0122 913d c0db f4bd 059e 9f3c 4f6e ea3a
000002e0: 96b4 2dbd aca7 85bd 4f19 b5bc 50b2 24be
000002f0: b464 07be 1eed 92bc f700 5dbe 9a17 11bd
00000300: 5eff a2bb d387 a4bd 80c1 03bd 5642 14be
00000310: 853e ff3b 9d69 04be 2074 e8bc c16e bcbd
00000320: db8e cbbc 46de 0dbe 3375 19bd efcf 9cbd
00000330: 5dff 94bc 4498 3f3c d335 41bd c7a9 993c
00000340: a976 783d 3af6 f9bd e8c6 bf3d a41f f73b
00000350: 8a5b aabd e8df 773d 7a59 013d 0db7 cabd
00000360: fdaf 2abd ccc3 bcbc 1d21 b4bd 7d2e 033d
00000370: a3a7 8abb 952e afbd fead 0dbd 3db4 18bd
00000380: 011f 13bc d814 943d 47f2 a6ba d614 1dbe
00000390: 5c34 7ebd dd13 b2bc 6b56 8a3c 2b99 1d3d
000003a0: 2259 ebbd c4de e5bc ce9d d2bb 261f 03bd
000003b0: 81a4 c3bd 618c 0dbe ef56 debd 10b8 e93d
000003c0: c61d 023d 161f 4bbc e96c e0bd ad7a 193a
000003d0: d6fc 1b3d cc61 ac3c 9f0a 21bc 3daf 5ebd
000003e0: ccb3 c0bd b0ba 4ebd 8241 94bd be64 19bd
000003f0: 3cc0 48bc 14db e8bd 0829 1b3d 6d28 0ebd
0.11335692 0.11128895 0.026099516 0.2136001 -0.028293557 0.21023758 0.21722418 0.36838648
0.31978878 0.12266342 0.06870388 0.12874594 0.064455725 0.22125782 0.052104753 0.16635358
0.09996575 0.098730475 0.16687724 0.1179705 0.19621505 0.028425213 0.092754945 0.088175155
0.021354713 0.02402885 0.1170186 0.20317867 0.059770025 0.042415313 0.11599904 0.1104535
0.22494975 0.13995966 0.00422035 0.13420127 0.14906588 0.0725905 0.09373024 0.13209914
0.1478431 0.04774036 0.0971811 0.24970073 0.18685094 0.07701951 0.15502658 0.16602309
0.16215561 0.18360321 0.10114796 0.05330257 0.044780064 0.11645255 0.0594253 0.22396183
0.16231523 -0.026856136 0.060076408 0.09383714 0.07661185 0.05640304 0.1408282 0.08849757
0.10635075 0.0068284436 0.10601947 0.069858 0.0986771 0.013723084 0.085509315 0.021457067
0.07010636 0.019271435 0.130561 0.1945053 0.027439177 0.1471514 0.09654466 0.13114934
-0.054925118 0.14878331 0.10827525 0.102830164 0.19087492 0.029658213 0.067293435 0.19615506
0.17577197 0.057900246 0.31367585 0.17673862 0.14694667 0.16422759 0.13374156 0.26749828
0.15171564 0.06567298 0.014292257 0.2840082 0.15084182 0.002759745 0.02403858 0.105418175
0.05280485 0.08621158 0.10812757 0.14504434 0.09168438 0.24411999 0.12619513 -0.0046429853
0.044121247 0.13667472 0.112186454 0.13774016 0.049180746 0.1935043 0.103735924 0.041810792
0.09208431 0.10601148 0.16578811 0.055556238 0.19529165 0.16051501 0.17214255 0.06795836
0.029900191 0.021965835 0.03600484 -0.15664901 0.011995777 -0.13878617 0.004619879 -0.079377584
-0.08595522 -0.084763795 -0.01654665 0.04288425 0.11640758 -0.038791176 0.0075253895 -0.056597076
-0.008508237 0.043774623 -0.085616075 -0.11935026 0.021278715 -0.108438596 -0.017109841 0.010749244
-0.013880044 -0.13835593 -0.122309096 -0.13381805 -0.07261214 -0.088485695 0.0187069 -0.02591243
-0.0919424 -0.0016696552 -0.0178888 -0.009540159 -0.044276435 0.004958823 -0.06973429 -0.07398773
0.064058 -0.13591206 -0.052342057 -0.015354793 -0.16058776 -0.14952837 -0.03177453 -0.09837932
-0.13249181 -0.20512679 0.024723705 0.042733733 0.07086564 -0.119559765 0.01948453 0.0017885658
-0.04240855 -0.065261215 -0.022106795 -0.16083646 -0.13222009 -0.017935332 -0.215824 -0.0354229
-0.00497429 -0.08033719 -0.032166958 -0.1447843 0.0077894353 -0.12930913 -0.028375685 -0.09200812
-0.024848392 -0.13854322 -0.037465286 -0.07656848 -0.018188173 0.011694018 -0.04717047 0.018757714
0.06066004 -0.12205167 0.0936411 0.0075416137 -0.08318241 0.060516268 0.031579472 -0.098981954
-0.04167174 -0.023042582 -0.08795378 0.032026757 -0.0042314096 -0.08553807 -0.03458976 -0.037281264
-0.00897956 0.07230538 -0.0012736999 -0.1533998 -0.062061653 -0.021737987 0.01688691 0.03847615
-0.1149161 -0.028060324 -0.006427503 -0.032012127 -0.09552861 -0.13823082 -0.10856425 0.1141206
0.031766675 -0.012397548 -0.10958273 0.0005854767 0.03808292 0.021042727 -0.009829192 -0.05436634
-0.094092935 -0.050471008 -0.07239057 -0.03744959 -0.0122528635 -0.11369911 0.037880927 -0.03470652

bias_hh f4 [512]
00000000: ea5f 4c3e a89e e43d 782e e53d 2492 9e3e
00000010: 7728 583d 08c4 943e 84cb 4c3e db5d 8c3e
00000020: 79ff a03e b134 ce3d 3544 2c3e d3a2 2b3d
00000030: 70ac e2bc 83b2 1c3e a4b6 1a3c a6a0 193e
00000040: e4aa d53d 7453 d83d ff44 a23d d821 583e
00000050: d1fb 0c3e cb8c 203e 0227 ea3d 04e8 1fbd
00000060: 80d8 903d 420f 343e 22de 293e 9009 313e
00000070: f009 db3d 227f 8f3d 94f1 3a3e 38fa 263e
00000080: 867d 393e 70d3 3c3e 20d8 07bd 6405 863e
00000090: f1f2 a13d f468 e23d 96cb 633d af5e 4c3e
000000a0: f6b2 c33d bb73 7c3a 8413 b63d 7bbd 5f3e
000000b0: 34bf 113e 5a51 1c3e 34d7 193e 690f 093e
000000c0: f02e 9a3d d15e 543e 9f4c 973d ca4b 49bc
000000d0: 51e3 0a3c 9f95 173e 5139 9d3c ee7f 143e
000000e0: 668a fd3d 2794 3ebd ac9e 293d ea2c 7d3e
000000f0: e3ae 243e 8cb2 943d 0b56 4c3e 3f96 4f3d
00000100: af6e 5f3e 779d bf3d 0a14 32bd 6011 2d3e
00000110: 4e93 863d 0f5e 7f3d b399 0f3e 0f40 953d
00000120: 08ce f23d 2471 b83d 16b9 cd3d d281 ba3d
00000130: 9b5c 3c3d 6f65 e73d 9b05 303e e334 083e
00000140: b185 173d e185 493e 5c4b 283c 1b61 ce3d
00000150: af89 7c3e 737e 003e f237 2c3e ff5d 193e
00000160: 25e4 9f3d f92c cf3d 3eec 3b3e f663 0f3e
00000170: 3d7f 2b3a 0de1 5e3e 7cbb 7c3d fbed 843e
00000180: f86b e03d a1af 903d a166 663d e247 933e
00000190: f906 053d 290f 263e 1d09 be3d cc33 ba3d
000001a0: fc7e 323e e638 963d 5a7f 2b3e 0b48 323e
000001b0: 7066 6e3e 39f5 773e ae81 223e bf5b 6c3d
000001c0: d7f5 463e b09e e43d 4701 4b3e 6422 e73d
000001d0: de96 043e af8d e13d 5ae5 243d b690 de3c
000001e0: f3ee 1b3e 3208 773e e637 233e 35fd 603e
000001f0: cd74 2d3e 3412 323e 086c 853d 3a31 a13d
00000200: ba06 8fbc f8f1 9ebd 8451 1f3d 004b 9dbc
00000210: 49f1 a1bc 764e edbd e867 fdbd 35da e5bd
00000220: dbef fdbd 76a7 00bb 3617 e2bd 1773 ddbc
00000230: 0228 dd3c 7c75 c8bd cf60 443d fe6f 80bc
00000240: 3a9a cebd 0ad4 90bc 842e c4bc 25a4 c1bd
00000250: 6fdd aebc dd25 0bbc 2b42 97bd 0061 333d
00000260: e9c4 8fbc db03 1ebe be3b 6e39 eb83 03be
00000270: 16c0 e23b 5e73 07be d036 0bbc 04ef a23d
00000280: 21e4 5c3c 6b9a bdbd 5ed6 a33a 5969 79bd
00000290: fdbe 36bd 55ae c23d 224a a6bd d03f 543d
000002a0: ef03 8a3d ec89 11be ac72 843d e98d bfbd
000002b0: aa70 27be 319d 08be 5d9f 0cbe 9bb1 91bd
000002c0: 0506 bfbd fa60 1dbe 8cd4 dabd 8259 aebd
000002d0: 5c70 833d ccf6 3e3c 916a 20bd 15b3 61bd
000002e0: 3693 d6bd 0c26 883d 31e4 0ebd 788f 19bd
000002f0: 5bce 8fbd aa0b e2bc f527 cebd 08d6 b1bc
00000300: a920 a6bc 294f 00bc 208e 62bd 1cff d6bd
00000310: 3e9c afbd 7f80 45bd d356 023d 4f77 a1bc
00000320: 77e0 97bc b10c bbbd 73e5 7cbd f382 9dbd
00000330: 11a0 bfbd 6308 d0bd da49 5d3a 16aa abbd
00000340: 032d 973c 6139 09be e7a7 f33c 3699 b9bd
00000350: a5da 15bd 6331 fe3c 22c6 803d 2524 dfbd
00000360: cc42 c8bd e020 87bd 8041 633c 87cf 83bd
00000370: 26c0 163d bf2c e5bd eec2 3d3c e338 113d
00000380: 6767 0f3d 2b13 403d 4f7e 803d c6c4 38be
00000390: 5feb 9d3d 8342 9dbc 9f0b 4bbd 09dc c2bd
000003a0: 4049 febd d471 13bd 2742 4abd fd79 caba
000003b0: 12f7 ad3c 5257 bcbc dac8 1e3d 8d9a a9bc
000003c0: 55c2 813d 0705 c4bd e1b6 073d 9b46 7c3b
000003d0: 35ca 5a3c b658 913c ae47 ce3c 7bb5 c1bd
000003e0: cdf3 6abd 164e 91bd 4dce 00bd acc2 16bc
000003f0: 1384 fdbd 5b7a 26be 18f4 5f3d 1a0e 93bd
0.19958463 0.11163074 0.11190504 0.3097087 0.052772965 0.2905581 0.1999951 0.27415356
0.3144491 0.10068644 0.16822894 0.04190333 -0.027670115 0.15302472 0.009442959 0.15002689
0.104329854 0.105627924 0.07923316 0.2110666 0.13767935 0.15678708 0.114332214 -0.039039627
0.07072544 0.17583945 0.16588643 0.17288804 0.10695255 0.070066705 0.18256217 0.16306388
0.1811429 0.18440032 -0.033165097 0.26175988 0.079076655 0.110551745 0.055614077 0.19957994
0.095556185 0.00096302823 0.08890441 0.21849625 0.14233094 0.15265408 0.150235 0.13384785
0.07528484 0.20739295 0.07387661 -0.012286136 0.008477048 0.1480317 0.01919237 0.14501926
0.12379913 -0.046528008 0.041411087 0.24724165 0.16082339 0.072606176 0.19954698 0.050680395
0.21819566 0.09356206 -0.043476142 0.1690116 0.06571065 0.06234556 0.14023475 0.07287609
0.118557036 0.09005955 0.10045068 0.091067925 0.045986753 0.11298644 0.17189638 0.13301425
0.036992732 0.19679977 0.010271873 0.10077115 0.24661897 0.12548237 0.16818216 0.14977263
0.07807187 0.10116 0.18351838 0.14002976 0.00065420923 0.21765538 0.061702237 0.25962815
0.109580934 0.070647486 0.05625022 0.2876578 0.032477353 0.1621672 0.09279082 0.09091911
0.17431253 0.07335071 0.167478 0.17410295 0.23281264 0.24214639 0.15869781 0.057704683
0.19429718 0.1116308 0.19824706 0.11285856 0.12948176 0.11013352 0.04025779 0.027168613
0.1522787 0.2412422 0.15939292 0.21971591 0.16939087 0.17389756 0.06514746 0.07870717
-0.017459262 -0.077609956 0.0388961 -0.019200802 -0.019768374 -0.11587231 -0.12373334 -0.1122326
-0.123992644 -0.0019631064 -0.110395834 -0.027032418 0.026996616 -0.09788033 0.047943886 -0.015678402
-0.1008801 -0.017679233 -0.023947962 -0.09455136 -0.021345822 -0.008492914 -0.073856674 0.04379368
-0.017549949 -0.15431158 0.00022719704 -0.12843291 0.006919871 -0.13227603 -0.008496955 0.07955745
0.013482125 -0.092579685 0.00124998 -0.060891483 -0.044615734 0.095059074 -0.081196085 0.05181867
0.067390315 -0.1421277 0.064671844 -0.09353239 -0.16351572 -0.13341214 -0.13732667 -0.07113954
-0.0932732 -0.15369025 -0.10685071 -0.08513166 0.06417915 0.011655521 -0.03916413 -0.055102427
-0.10477297 0.06647882 -0.03488559 -0.037490338 -0.07021781 -0.027593452 -0.10066215 -0.021708503
-0.020279245 -0.007831373 -0.055311322 -0.10497877 -0.08574723 -0.048218247 0.031821083 -0.019710211
-0.01853965 -0.0913328 -0.061742257 -0.07690992 -0.09356702 -0.1015785 0.00084414857 -0.08382051
0.01845408 -0.13400795 0.029743148 -0.09062426 -0.03658547 0.031029409 0.06287791 -0.10895566
-0.097783655 -0.06598067 0.013870597 -0.06436067 0.03680434 -0.11190175 0.011582119 0.035454642
0.03501072 0.04689328 0.062740915 -0.18043813 0.07710909 -0.019196754 -0.04957163 -0.095146246
-0.12416315 -0.035997227 -0.049379494 -0.0015447732 0.021235976 -0.022990856 0.038765766 -0.020703578
0.06335894 -0.095712714 0.03313339 0.0038494233 0.013353874 0.017742496 0.025180664 -0.09458443
-0.057361413 -0.07094972 -0.031446744 -0.009201687 -0.12378707 -0.16257612 0.054676145 -0.07180424
