logs/fgb_vary_horizon/0/actor.pt (torch, 906162 bytes, 17 tensors)

weight_ih f4 [512, 48]
00000000: 8a7b 0d3d 212e af3d b202 f23d fe6a 3dbd
00000010: 55d7 183d ff28 583d 175d 853d 4531 763c
00000020: 1bba e93d 2d1b 023e 7d2e ae3d 736c fbbb
00000030: 987b 4fbe caca 0bbd 624b dc3b 633c 6c3c
00000040: 7782 c13d 4a80 b43d 8384 e3bc 365f 06be
00000050: 08c2 76bd 3bf8 8c3d a3ec 683d 7fca c83d
00000060: e5da 6c3d 093d 703d 8f04 5f3d 079f 97bd
00000070: c1b9 39bd 5365 91bd 28de 343d a1a9 993d
00000080: 507b 58bd 7b8c e9bd f0dd a3bd e4e1 a2bd
00000090: d745 33bd d7ff ab3d 1a3d c63c 9343 823c
000000a0: e696 0abd 0eb5 cabd 3247 d33c 5e92 5ebc
000000b0: 96d9 bc3c 5b2e 4abc 7769 4c3d a14a aa3c
000000c0: 5705 16bc 633b b93d 246c c03d e827 103d
000000d0: 39a0 233e 6d43 463e 7ece d03d 6929 01bd
000000e0: 95fb eb3d ab07 95bd 9d07 0fbd 381b 25bd
000000f0: f353 683c 899f 0b3e 955a 1dbc 55fb 8a3d
00000100: c404 d13b 1a44 51bd db84 7c3d 8c61 8a3d
00000110: fdbe 223d a079 543e 3984 98bd 04a6 c23c
00000120: f619 913c 5bbb 203e 00f8 cb3d 0629 4d3c
00000130: c0d2 5a3b d182 57bd ced0 dd3c 1993 d7bd
00000140: f776 d3bd 090f 2c3e 63ee 2e3e f05c 7abd
00000150: ff91 573c d051 f23c d5c9 68bc a8a9 6dbd
00000160: 79f9 0d3d 35ec 7cbd 02c0 223d 29bb 5c3d
00000170: 1a57 823d 3406 bf3c a8b5 52bd 6051 8a3c
00000180: 4678 b7bc 7624 cd3d e9c9 cfbd c73a 13be
00000190: 1f26 183e 8cef 413e cd95 393d 78f1 acbc
000001a0: b4bf e6bd c1e2 d13b 0a01 993d 8381 8bbe
000001b0: e43f bf3d d5d6 b9bb d05a 8b3c de7c 183e
000001c0: 07db d03d 22da 1d3e fd5f 213e 9637 0a3d
000001d0: 64f4 3e3d 0e67 953c 54a6 6a3d 7e6a 92bc
000001e0: a0db 8d3d f44c 983d be93 7c3d 582b 11be
000001f0: 04fc 2dbe 9aa0 8fbd 9faa e5bb 0076 a13c
00000200: 4d0b 21bd b9e4 78bd 28e0 ee3c bd33 7c3d
00000210: affb 7fbd 9d7f 64bd 6ecc 503d 558d 903c
00000220: b40a 7d3c 9866 1cbd 854a 63bd 0c6c f33c
00000230: bd94 b53d b64d 2c3d 229d b13c b7da 0d3d
00000240: c40e 14be c1c1 6b3c 93ef c93d 68e2 2ebb
00000250: cc84 43be 2d9e 07bd 5675 12bd e613 33be
00000260: cbdb b03c c5c6 043e f505 c83c 89b8 05be
00000270: 0b35 e43c 80ce 30bd af22 a0bd 2676 0dbd
00000280: 9384 18be 6cc8 24bd 5fcf afbd 74b9 3ebe
00000290: e6c4 bdbd 95d4 d5bc ae5e b9bd 8880 413d
000002a0: 4ed9 24bd 27b8 ed3d fbb9 cf3d 97e4 61bd
000002b0: 779c a63c 2b53 f73d 5b56 98bc ed2c 373d
000002c0: e447 6fbd 855b 9cbd cdb1 d23d eb9f e3bd
000002d0: 25fb f9bb 9e0b 90bd 7388 bb3c 8c2f 4c3a
000002e0: 8cf6 d83c fe28 923c 1aa2 8a3a c81c e23c
000002f0: e7bf e13b 0098 e13d 4488 eb3d b1b0 1c3e
00000300: 12cf 13be 27c6 4d3d c5a6 60be 818f 8fbe
00000310: b758 433d 95c2 5e3d 53c7 a83d 564b f6bd
00000320: 1eec 2e3c bbc3 113e 96de 33bb c698 c5bd
00000330: 1937 3d3d 6653 5e3d e578 6abc 3e71 a93d
00000340: 8eca 013e d471 0e3e 0a29 14be 6af1 74be
00000350: 5102 b43d 037e 1b3d 20db 413d 8cc5 183e
00000360: 484f e9bd ebda d03c cc01 973d a7fa f4bd
00000370: 2920 2b3e 9be3 cf3c 132b e53c 092d cb3d
00000380: f907 59bd ce3c 0c3b 25d0 d7bb b3f1 1b3b
00000390: 0a2a d4bc a839 0e3b adda 863d 10a8 bd3d
000003a0: 949a 4abd ec06 943d 3192 313d 435f 5ebd
000003b0: 89ca ec3c dfed 2ebd 6807 27bc 72d6 c73d
000003c0: 470b 1fbc 1db2 063e 056d efb9 4a6c 94bd
000003d0: 1c92 b83d d97b f0bd ee9b 973d 1590 0cbe
000003e0: 19c9 033d 6a3e ab3d 5e71 bf3b b3b2 e33c
000003f0: ca33 943c 3bcd 4cbc 4e30 d93c 050f 89bd
0.034541644 0.0855372 0.1181692 -0.046244614 0.03731473 0.052773472 0.06511896 0.015026395
0.1141245 0.12705679 0.08504961 -0.0076728403 -0.20261991 -0.03412894 0.0067228535 0.014418694
0.09448712 0.08813532 -0.027773147 -0.13122258 -0.060243636 0.06883284 0.0568663 0.09804248
0.05782594 0.058651958 0.054447707 -0.07403379 -0.045343164 -0.07099404 0.044157177 0.07503057
-0.052851975 -0.11403748 -0.080013156 -0.079532415 -0.043767776 0.08398407 0.024199057 0.015901363
-0.033835314 -0.09897815 0.025790785 -0.013584701 0.023052972 -0.012340154 0.049905267 0.020787539
-0.009156547 0.0904453 0.09395626 0.035194308 0.15979089 0.19361658 0.10195635 -0.031533632
0.11522595 -0.07276853 -0.03491937 -0.04030916 0.014180171 0.13635077 -0.009604116 0.06786219
0.006378742 -0.051090337 0.06165014 0.06756887 0.039732922 0.20749521 -0.074470945 0.023760803
0.017712574 0.1569647 0.099594116 0.012521988 0.0033389777 -0.05261499 0.027077105 -0.105261035
-0.10325425 0.1680261 0.17083125 -0.06112379 0.013157367 0.029580027 -0.014208277 -0.058023125
0.034661744 -0.061748702 0.039733894 0.053889427 0.063642696 0.023318388 -0.051442772 0.016884506
-0.022396218 0.1001672 -0.10145933 -0.1437789 0.14858292 0.18939036 0.045308877 -0.021111235
-0.11267033 0.006405205 0.07470901 -0.27247247 0.09338358 -0.005671362 0.017011076 0.14891383
0.10198026 0.15415242 0.15759273 0.033744417 0.046619788 0.018237617 0.05728753 -0.017873045
0.06926656 0.07436553 0.061664335 -0.1417669 -0.16990668 -0.07013054 -0.007008865 0.019709587
-0.039317418 -0.060765002 0.02915962 0.06157278 -0.062495884 -0.055785764 0.05097621 0.017645517
0.015444446 -0.03818378 -0.05549099 0.029714607 0.0886626 0.0420663 0.021681372 0.03463241
-0.14458758 0.014389456 0.09860148 -0.0026685242 -0.19093627 -0.033109833 -0.03575643 -0.1748806
0.02158918 0.1296645 0.024416903 -0.13058676 0.027857324 -0.043165684 -0.07819115 -0.034536503
-0.14894323 -0.0402302 -0.08584475 -0.18625432 -0.09266071 -0.026102344 -0.09051262 0.047241718
-0.0402463 0.1160739 0.10142895 -0.05514964 0.02033828 0.1207641 -0.018595865 0.04472058
-0.05841817 -0.076346435 0.10287819 -0.11114486 -0.0076288157 -0.07033466 0.022892212 0.00077890675
0.02648475 0.017841812 0.0010576874 0.027601615 0.0068893316 0.1101532 0.115006 0.15301777
-0.1443446 0.0502378 -0.21938618 -0.28039172 0.047692027 0.054384787 0.08241143 -0.12026088
0.010676412 0.14234821 -0.0027445904 -0.0964828 0.046195123 0.054278754 -0.01431105 0.08273552
0.12674925 0.1391061 -0.1446878 -0.23920217 0.08789504 0.03796197 0.047328115 0.14919108
-0.11392075 0.025495013 0.073733896 -0.11961871 0.16711487 0.025377085 0.027974641 0.09920699
-0.05298612 0.0021398547 -0.006586092 0.0023795187 -0.025898952 0.0021701846 0.06584678 0.09260571
-0.049463823 0.07227883 0.04335231 -0.054290067 0.02890517 -0.04270732 -0.010194637 0.09757699
-0.009707279 0.13153882 -0.00045666858 -0.07247217 0.09012243 -0.11742372 0.07402788 -0.13726838
0.032174204 0.08361514 0.005842372 0.027795171 0.018091101 -0.012500103 0.026512291 -0.06692318

weight_hh f4 [512, 128]
00000000: 44bc b0bd 4e64 9ebd c277 01bc c78d 353d
00000010: 6252 f6bd 4c13 1ebd cdbc a83d 7e05 3abd
00000020: 06ad 093e bb0e 893d 8dc1 ccbc 7682 613c
00000030: 84c9 343d 2bb2 0d3d 7e24 0a3d c75e e43d
00000040: b602 6b3d 8e72 593b 1fd4 83bc 8cb2 72bd
00000050: 1aa8 1c3d 5640 fdbb b9cc d93d 0261 9b3d
00000060: c5f3 7a3b 1108 e83b 3b7b cf3b d98c a2bc
00000070: f972 76bd 70d2 fb3d fcd9 793d 85d8 3d3d
00000080: 1cbb 4dbd 224f 12be 02f7 aabd 2da4 10be
00000090: 2a27 973c 94a5 cfbc 8df6 71bd ae6c 4dbc
000000a0: 7637 023e 4e15 d03b 859d 423c 501c 203c
000000b0: b931 913d 598f dc3c 22c4 a43c c18d 1d3d
000000c0: 0610 7bbc 11fd 183d 9f15 0f3d 7db2 f43c
000000d0: 5656 d9bc c530 c03c 3363 4bbd eb95 783d
000000e0: 5ce7 423c b8d9 3abd ff23 a03c b2ed 13be
000000f0: fa68 91bd bbed c53b 6228 1abd ca10 59bd
00000100: f373 70bd e4cc df3d 354f 903d 1420 bc3d
00000110: d9bb 353c 5770 b7bc 9e2e 5abc f390 75bd
00000120: cbcb dbbd b0b9 a0bc 18a7 b43b 2ea4 e2bc
00000130: a957 19bc 15f0 1f3d 37fb 4fbd 45bd 5c3d
00000140: dae6 cc3d d1bb 9b3d f7fa ce3d a507 4e3d
00000150: 0bd2 fb3c 5585 e83d 1e0f c7bd cfc4 96bd
00000160: b56b c33d 126a 0d3e daa3 98bd 1d34 963d
00000170: adef ed3d 2a54 a9bb 4828 20bc 8617 f337
00000180: e750 6bbd 067a 68bd b9d8 e7bd 1fce 82bd
00000190: 1319 053d 5b6e 063d f6c2 843d 54d3 c2bc
000001a0: a92b 99bc ddb3 0a3c e5d0 cd3c 0b63 0c3d
000001b0: 9fd4 143e 3b0b 95ba aded 94bd 73b4 3fbd
000001c0: 894d 783c 4315 453d 13a5 42bc 3f89 2c3d
000001d0: 5e0c 2c3c 6073 90bd 7efb 213d b73f 153b
000001e0: d7fd 17bd 45f9 893c e9d0 1abc 9bba 88bd
000001f0: fcde 2dbd eb83 1c3d dca1 9ebd b033 ea3d
00000200: dfa3 dfbc 1bee 1bbc 19e3 b1bd c240 cf3d
00000210: cf77 9d3c 4f95 583c 8e29 37bd c569 0dbc
00000220: 13f6 573e 1951 543d 0047 efbd 245d 513d
00000230: f4ec 443b dc38 9bbd 912d 463d 3a07 a73d
00000240: 5bc0 55bd f848 f53c 1246 623d 7321 a3bd
00000250: 1272 49bd 8224 3ebd 53f3 4bbd ba96 64bb
00000260: 7386 403d cf77 153d 5de5 e73c 063f 44bd
00000270: e8ed c2bd ae56 183d 973b cfbd 1f7e f9bd
00000280: e2a6 d8bd 647e 40bc d297 153d c4cf babd
00000290: 23ca 1fbd 4c92 85bb 367c 62bd 9224 a93d
000002a0: 8de4 ecbb 1df4 a5bc 134e f5bb 27b8 66bd
000002b0: 047a f43c 88fd 1dbd 777e 8c3d 11b5 a73d
000002c0: 1238 1d38 d2e9 403d db2d 51bd d2cf f1bd
000002d0: c724 1d3c 16f2 a53d 8fac 2c3c 5686 c4bc
000002e0: e202 dabd d8f1 553d dd9f e9bb fd12 f7bd
000002f0: f987 7fbd 28b6 8fbd 6a84 9b3d fd6f 4c3a
00000300: 8bbf 663d 3d96 7abd ec79 053b 7497 5abc
00000310: afd1 bcbb ea21 c03d f4bc 313d f500 e1bb
00000320: 54e0 9f3c 9a46 03bc 43b9 803d 7a2e 3fbd
00000330: 72a5 923d 390a f53c 674e 243d a6c2 243e
00000340: caec ddbc c7cb 843d f97a 903d 88d9 77bc
00000350: 3d28 f23c ce29 c43c 37ca 543d 57d1 3b3c
00000360: 126c 93bd 4d66 9f3b 10a4 a7bd ac5f ae3d
00000370: 55ed 7b3d 8f92 03bd 4608 793d 822c ccbb
00000380: e09e 22bc c11c ca3c a23f 0dbe 43f2 cd3d
00000390: 91b6 54bd 8bfe 08bd 6f1a c93c a972 06be
000003a0: e47e 2f3d 5dd9 ce3c 8bc9 36bd 1b1f a0bd
000003b0: 5816 823c 28b8 af3d 08d3 d5bc ee9f bfbd
000003c0: 3246 3e3b af9b b13d dece 12bd 76c8 c63c
000003d0: a454 513d a3e0 03be 2054 2d3d 9e91 a03d
000003e0: b302 5c38 656e d53d 0306 bbbd 4a91 adbc
000003f0: 737f 7ebc bfe4 213d 44d0 a9bd 729f 603b
-0.08629659 -0.07733975 -0.007902088 0.044324663 -0.12027432 -0.03859262 0.08239136 -0.045415394
0.1344491 0.06692263 -0.024994636 0.0137640145 0.044137493 0.034593742 0.033726208 0.1115089
0.057375632 0.0033179852 -0.016092358 -0.059252307 0.03824625 -0.0077286167 0.10634751 0.07586862
0.003829227 0.0070810397 0.006331829 -0.019842552 -0.06016824 0.12295997 0.0609989 0.046349067
-0.05022727 -0.14288 -0.08347894 -0.14125128 0.018451292 -0.025347508 -0.05907302 -0.012538118
0.12716469 0.006350196 0.011878376 0.009772375 0.07089562 0.026923822 0.020113055 0.038465265
-0.0153236445 0.037350718 0.03493273 0.029870266 -0.026530426 0.023460755 -0.04965515 0.060689848
0.011895981 -0.04561779 0.019548414 -0.14446142 -0.07100101 0.0060403026 -0.03763617 -0.052994527
-0.058704328 0.10927752 0.070463575 0.09185806 0.01109215 -0.022392435 -0.0133167785 -0.059952687
-0.1073223 -0.019619793 0.005513083 -0.027666178 -0.009359279 0.03904732 -0.050776687 0.05389144
0.10004969 0.076041825 0.101064615 0.05030026 0.030739805 0.11353556 -0.0971968 -0.07361757
0.09542028 0.13809994 -0.07453127 0.073341586 0.1161798 -0.005167504 -0.009775229 2.8978811e-05
-0.0574502 -0.056756996 -0.113206334 -0.06386971 0.032494616 0.032820087 0.06482498 -0.02378241
-0.018697577 0.008465734 0.025124023 0.034274142 0.14534234 -0.0011371145 -0.072718956 -0.04680295
0.015155205 0.04811598 -0.011880177 0.042123076 0.010500995 -0.07053256 0.039546482 0.0022773573
-0.037107315 0.016842494 -0.009449222 -0.06676217 -0.042448983 0.038211744 -0.07745716 0.1143564
-0.02729982 -0.009517218 -0.086858936 0.101197734 0.019222168 0.013219192 -0.044717364 -0.008631174
0.21089964 0.051835153 -0.11683464 0.051114216 0.0030048462 -0.075792044 0.0483833 0.08155675
-0.052185398 0.02994202 0.055242606 -0.07965364 -0.04918105 -0.046421535 -0.0497926 -0.003487988
0.04700322 0.03649121 0.028307611 -0.047911666 -0.09518033 0.03719204 -0.10118788 -0.12182259
-0.10578705 -0.011748884 0.03652174 -0.091216594 -0.039011132 -0.004076278 -0.055294238 0.08258928
-0.007229394 -0.020258004 -0.007486114 -0.056327965 0.029843338 -0.038571864 0.06860059 0.081888326
3.7483936e-05 0.04709799 -0.05106912 -0.11807217 0.009591288 0.08102815 0.010539188 -0.023989838
-0.10645081 0.052232593 -0.007129653 -0.120641686 -0.062385533 -0.070171654 0.07593615 0.000779867
0.056335013 -0.061178435 0.002036686 -0.013341773 -0.005762301 0.093814686 0.04339309 -0.006866569
0.019516148 -0.008012438 0.06285336 -0.046675183 0.071604624 0.029912101 0.040113833 0.16089877
-0.027090449 0.0648418 0.07054705 -0.015127547 0.029560203 0.023945715 0.05195066 0.011463485
-0.07198347 0.00486449 -0.08185589 0.08514342 0.061505634 -0.03212219 0.060798906 -0.0062308917
-0.009925574 0.024671914 -0.13793805 0.100559734 -0.05193192 -0.033445876 0.024548737 -0.13129677
0.04284562 0.025250131 -0.0446258 -0.07818433 0.015879795 0.08580047 -0.026101604 -0.09356676
0.002903354 0.086722724 -0.035841815 0.02426551 0.05110611 -0.12878661 0.042316556 0.07840274
5.24546e-05 0.10421447 -0.09132006 -0.021187443 -0.015533316 0.03952479 -0.08291677 0.0034274724

bias_ih f4 [512]
00000000: 37f6 e43d 84d2 423e 091d b63d b29e 5bbc
00000010: 6008 063e a36b 9a3d 3f94 943d e5c3 003e
00000020: 1f7d 313c 2b9f 4e3d a5b9 8b3b 88cc a23d
00000030: f666 dc3d b888 b33d d7ac 97bc f1b1 013e
00000040: 7fc0 913d 5c39 5c3d 0aed 9c3d 99ef 173c
00000050: 2507 ca3d 90d1 df3d 62c6 d63d c9b3 b33d
00000060: a88d c6ba 0c0d 9d3d e15c 223c 5c19 6f3d
00000070: 0644 0c3e ec17 e83d f5ab d93c ee1f 993c
00000080: 17f3 14bd 12be 3a3d eaf4 d43d fd39 b53b
00000090: b628 3e3e 2099 403e ea7f 823d eb91 8a3d
000000a0: 85a1 833d 9b5b 68bc b022 d1bb 452c 8a3d
000000b0: fc7e c13d d9ee 233e b961 233d e815 5d3d
000000c0: eae2 24bd 070d 333e 9817 663c c3bc 9b3d
000000d0: da82 e63c 9617 903d b8a6 923c 851e 053e
000000e0: af6d 883d df22 ed3d 6af0 eb3d 479a 253e
000000f0: 858d 3f3e c37e c13d da0a 493d 69b3 b63d
00000100: b7eb 9ebc 475e 2b3e 84a2 5f3d 5aed acbb
00000110: 802b 3c3e 2002 9f3c fcd1 583d 71e8 ee3d
00000120: fa17 1b3e 91bd 273e 5ef8 db3d a940 f03d
00000130: 8d9b 1e3e 8607 b33c 81ab 5b3d e8f9 aa3d
00000140: 7654 f8ba 581a 593d 63c6 423d c96c c73a
00000150: 5f56 513d db98 4abc ee91 343c 9844 9e3d
00000160: 20c1 913d fa11 2b3e acaf 1e3d b537 893c
00000170: 52d6 81b9 c796 4a3c ed38 0dbc 7965 ab3d
00000180: 4a97 a7bc 5f82 da3d b101 d13d 6ef2 86bc
00000190: 7b0c bd3d f9f3 6abc 161c 4d3d 69d6 313d
000001a0: 732d 4f3e c7e6 fc38 56a2 313e f3c7 243e
000001b0: 8da5 07bc 4043 72bc 2460 383d 63f9 9d3d
000001c0: 4c29 043e 22d4 2a3d 4d8c 3e3e 874d a83d
000001d0: 120e 083e da2a 273e 50ef 993d 6104 9fbc
000001e0: 0a4c 0b3e 92c2 d73d dbd6 023c 4244 303e
000001f0: 5aa6 c73d 5327 a03d d6b6 d73c ceda 8b3d
00000200: a67f 833d bdff 893d 81b2 92bc 40c0 4336
00000210: 9937 57bc 634d 3e3d cc59 e9bd 5880 b83d
00000220: cbc4 1e3c 6e52 9ebd 1995 303d 2d0d a53d
00000230: 068d 93bd 8e1c 93bd c7ef 1ebc 8e76 1cbc
00000240: 11ca 9bbc 0926 c1bb e6d4 14bd ef4b 02bc
00000250: 32b8 ddbb b9de 313d 5eaf bc3c 6c76 193d
00000260: fcc4 dfbc e359 1ebc faa9 233c 3fbd 463d
00000270: 0e8c 2a3d 919f 0dbd 4576 0cbd a6e2 543d
00000280: 21ed 72bc f44e f03d 9b9f 3abd a2ad d43d
00000290: 1e5c 08bd acab b8bd 2936 5ebc dcd5 b2bc
000002a0: a13d d3bb 8073 9dbc 39b7 513d b1d1 61bc
000002b0: 7de0 7ebd 33a2 a43d 1292 fdbc cb12 47bc
000002c0: 985e 48bd 61a8 393b 6773 393d 046c b03c
000002d0: 919d 97bd 07f2 be3a d541 7a3c 06cc cabc
000002e0: 5af7 10bb 0e0c 153d c070 9bbc f99b 923c
000002f0: 6b7e e53d 9732 2c3d ac04 be3d ac08 a2bd
00000300: 1d62 b13d a638 223b 29e6 04bd 7d78 033e
00000310: 01a1 92bd 26f5 a6bc 8345 88bd 9dea 913c
00000320: 4bf6 72bd 0733 5ebc 9e4f abbd 8781 30bd
00000330: a33e 83bc 08c6 7d3c 3a7f 07bb e9a4 303d
00000340: b057 463d 4028 a63c 53f8 5fbd 6489 27bd
00000350: bd71 21bd 90bd 013d d00a 6dbd e18c 3f3d
00000360: 5358 83bd 115c 5f3d 5022 2d3d 6200 013d
00000370: 3871 34bd bf7d 493d c802 6cbd c4a6 423d
00000380: 4fdd 87bd 83fa b9bd ab44 adbc 6980 8dbc
00000390: f78c 05bd 143d 363d 66f1 493d 3634 4c3d
000003a0: bff5 9abd 9bfd af3d be78 debc fe66 dfbc
000003b0: f7a0 9a3c 5906 893c 6783 84bd 3b0b 82bc
000003c0: 1549 773d 2bf7 b3ba c64a 733c 0d3e c8bd
000003d0: 54e8 9e3c 1aa3 6e3d e9c2 a33c c092 863c
000003e0: 016e 793d 53b6 74bd f265 b6bb 3b35 bdbc
000003f0: 0f05 c0bb 709a 07bd c21d 88bd 04ed 543c
0.11179774 0.19025618 0.08892257 -0.013404535 0.13089132 0.07540061 0.07254838 0.12574728
0.010833054 0.050444763 0.004264074 0.079491675 0.10761826 0.087663114 -0.018515034 0.12665536
0.07116794 0.05376564 0.07662399 0.009273433 0.09864644 0.10928643 0.10487057 0.08774526
-0.0015148418 0.07668504 0.009909839 0.058373794 0.13697824 0.11332688 0.026571253 0.018691983
-0.03636464 0.04559142 0.10398276 0.0055305944 0.18570217 0.18808413 0.06372054 0.06766113
0.06427292 -0.014181997 -0.006382309 0.06746725 0.094480485 0.16009082 0.039888117 0.05397597
-0.040255465 0.17485438 0.014043711 0.07604363 0.028138567 0.07035749 0.017901763 0.12999924
0.066615455 0.11578917 0.11520465 0.16172133 0.18706329 0.09448006 0.049082614 0.089209385
-0.019399507 0.16735183 0.054598346 -0.005277318 0.18375969 0.019410193 0.05293463 0.116654284
0.15145865 0.16380908 0.10740732 0.11731083 0.15489025 0.021854173 0.053630356 0.08348447
-0.001894607 0.05300364 0.047552478 0.0015214916 0.05110776 -0.012365545 0.0110211205 0.07727927
0.07116914 0.16706076 0.038741753 0.016750196 -0.00024764478 0.01236505 -0.008619529 0.08368964
-0.020457882 0.106693976 0.10205401 -0.016473021 0.09230896 -0.014340394 0.050075613 0.043417368
0.20232181 0.00012059282 0.17347082 0.160919 -0.0082792165 -0.014786541 0.04501356 0.07713582
0.12906379 0.041706212 0.18608208 0.08217912 0.13286617 0.1632494 0.07516348 -0.019411268
0.13603225 0.10535158 0.007985796 0.17213538 0.09748526 0.078200005 0.0263323 0.06828843
0.064208314 0.06738231 -0.017907383 2.9169169e-06 -0.013135814 0.04646052 -0.113940805 0.09008855
0.009690474 -0.07730566 0.04311094 0.08059154 -0.072046325 -0.07183181 -0.009700722 -0.00954975
-0.019017251 -0.0058944267 -0.03633585 -0.007952674 -0.0067663426 0.043425296 0.02303284 0.03746645
-0.02731561 -0.009664985 0.009989256 0.048520323 0.041637473 -0.034576003 -0.034292478 0.05197396
-0.014827044 0.11733809 -0.045562368 0.1038468 -0.033290975 -0.09017119 -0.0135627175 -0.021830492
-0.0064465557 -0.019220114 0.051200125 -0.0137829045 -0.062225807 0.080387495 -0.03095344 -0.012150477
-0.048918337 0.0028329121 0.045276072 0.02153588 -0.074031 0.0014567979 0.015274485 -0.02475549
-0.002212009 0.03638845 -0.018974662 0.01789664 0.11205753 0.042040434 0.09278235 -0.0791181
0.08661292 0.0024753003 -0.03244606 0.12838931 -0.07159615 -0.020380568 -0.06653883 0.017812068
-0.059316915 -0.013561971 -0.08364795 -0.043092277 -0.016021078 0.015489109 -0.0020675198 0.04312602
0.04842347 0.020282865 -0.05468018 -0.04090251 -0.03941511 0.03167492 -0.05787164 0.046765212
-0.06413331 0.05453116 0.04226905 0.031494506 -0.044053286 0.049192186 -0.05761984 0.04752232
-0.06634008 -0.090809844 -0.021150908 -0.017273145 -0.032605138 0.044491842 0.04930248 0.04985448
-0.075664036 0.08593293 -0.027157184 -0.02727079 0.018875582 0.01672666 -0.064703755 -0.015874496
0.06037243 -0.0013730278 0.01484937 -0.0977746 0.019397892 0.058261015 0.019990401 0.016427398
0.060895924 -0.05974419 -0.005566352 -0.023096671 -0.005859978 -0.033106267 -0.06646301 0.012995962

bias_hh f4 [512]
00000000: 1479 2a3d 7cca cf3d 1f35 3e3e b083 543c
00000010: bb80 e63d d494 6f3d 3fd2 c73d b1b6 f83d
00000020: f438 d5bb ca9c d63d 93bd b93d 3aa4 0e3e
00000030: 1057 053d ab77 dc3c 42e2 ac3d d1a4 153e
00000040: 3709 1e3d cbc9 e23d 91ca 3abd f9f9 1c3e
00000050: 6c27 ff3d ce19 1a3e 9214 a93d 453e b33d
00000060: 7107 e83c c64c 073e 68e8 02bb 248a 393c
00000070: 0073 a33d 4c73 503e 8e9d 9b3d a24d 1a3d
00000080: bb15 af3d 9109 c33d b3a1 44bb 4696 2c3d
00000090: 4641 9f3c 9809 0a3e 0d0b 0c3e 48a7 6dbd
000000a0: 49e4 1d3e 7d6c 27bd fd17 c83d 9abf 883d
000000b0: 9d00 603d 191c e83d e840 ae3d 7225 3ebd
000000c0: 0846 ee3c 5ba8 503e 523e b33d eb80 88bc
000000d0: 590d eb3d b9a2 57bc 73f4 bd3d 921c 313e
000000e0: adbf e33d 8904 663d fc05 a93d 4679 b93d
000000f0: c10d 463e c5b3 183e 1b94 91bc b4e2 fe3d
00000100: 5d13 85bc 2cdd af3d fef9 1cbd 7835 a93c
00000110: ce63 5c3e 9f51 883d bd51 f53d 0f69 013e
00000120: fec5 bc3d c7a4 303e eeb7 013d 6ff0 af3d
00000130: ec25 f53d 4c21 803d a1c3 523e 99b1 633d
00000140: a7a9 a73d c3e6 c8bc 1eee 203e 63d0 e53d
00000150: e358 2d3e a36a d03d e82b e33c 211b ac3c
00000160: 6f08 eb3c a474 093e b145 c13d 6fc3 0c3e
00000170: d929 023c 0e07 2b3c 69cb 133d ae29 bb3c
00000180: af24 b33d 2bee e53c 4113 1e3e 3fc8 f83d
00000190: d50b 203d 2041 a33d d16f 913c 34b7 b93d
000001a0: 9d89 813e 9b76 b33c b8bf 723d 7245 3e3c
000001b0: df5d 36bd 0f34 c63d 9c80 343d 2fe7 563a
000001c0: 1e2a a63d be9a 84bc 8ecd 373d d329 133e
000001d0: 152a e1bc 8a16 db3d 3e6f fb3d c135 3cbc
000001e0: 05cb fd3d bc75 8b3c 1ddf 2b3e cf8c 8d3d
000001f0: 3837 0f3e 6ff0 7ebc 2a08 aa3d 00fa a33d
00000200: 7fae b4bd 6b35 dabc 7b0a c03c 8062 95bd
00000210: 7901 353c f360 a93d dcf0 27bc f2d4 a43d
00000220: 9bea 353d 969a 9abd f9e5 2d3d 997c 813d
00000230: 90b6 253c f1bd da3b a000 70bd b4e8 4fbc
00000240: 1648 ad3d e9b2 543d f39c a93d 4798 c33d
00000250: 3e63 583d 621e a7ba 740f 1cbd 6a46 c2bc
00000260: ebec e03d f914 e1bb e396 98bb 9eb4 96bb
00000270: 8c8c 0ebd 352d c93d 9bb3 cdbc e275 5c3c
00000280: b521 073c 40ee dd3d 36f0 833c 1d81 c93c
00000290: d2e8 39bc 380c e5bd 9380 37bd 8c3b b13d
000002a0: 8f75 db3b 8637 dd3d 0539 b0bd d173 a23d
000002b0: e728 e33c 0cf4 c3bc ee81 223b c604 fe3c
000002c0: 4c43 3cbd 461f 5f3a 702a 81bd eb8e 023c
000002d0: 0327 10bd cbff 71bc 4290 87bd ed58 21bd
000002e0: 7ad4 b7bc 6f18 8f3d d776 a73c 8981 adbc
000002f0: b51d 953d 8fc3 70bd cb34 ae3b a449 cd3c
00000300: 0f7b d13c 09b9 643d edbc 44bd 48d5 f23d
00000310: 0407 58bd 7c8a 493d f78f 98bd d190 db3c
00000320: 7518 a4bd 52e3 32bd 6228 c4bd 624d 01bd
00000330: e746 603c 75d9 cc3d a697 dfbd 1631 c1bc
00000340: e470 04bd 1b7c 283d 0046 8a3d f32b 6aba
00000350: 9e3c e1bc 6058 7c3d 3dec 7bbd 4b6d 2ebd
00000360: e8cb e2bc f4c2 8b3d edbf ca3b eff4 9b3d
00000370: a414 a03d c603 a93d dad4 d63d 9017 ec3c
00000380: dc35 c63c d973 ad3c 7417 6ebd f0c0 873d
00000390: 9c61 febc 7011 f03c 7234 593d 90cb 2a3d
000003a0: 3203 823c 1f33 8f3d 8995 953d 9bed 8fbd
000003b0: 7ce9 1a3d 2ef0 86bd 1c90 f3bb 3006 6dbd
000003c0: d623 4bbd c391 cabc 9081 fcbd 6343 a33c
000003d0: b5f4 cf3d c011 7d3c 5a05 6a3a 7ff1 253c
000003e0: 6887 1a3d 99ab 7b3d 5508 c93c 0991 b2bc
000003f0: ced9 14bd 0574 4f3c 84ec bf3d 8829 77bd
0.041619375 0.10146043 0.18574952 0.01297085 0.11255022 0.058491543 0.09756898 0.121442206
-0.0065070335 0.10479124 0.090693615 0.13929835 0.032553732 0.02691253 0.08441593 0.14613654
0.038583007 0.11073645 -0.04560334 0.15329732 0.12458691 0.15048906 0.082558766 0.08752111
0.02832386 0.1321288 -0.001997495 0.011324439 0.07980919 0.20356482 0.075984105 0.037671693
0.08549067 0.09523309 -0.0030003607 0.0421355 0.019440304 0.13480222 0.1367609 -0.05802086
0.15419115 -0.040874947 0.097702004 0.0667717 0.054688085 0.11333484 0.08508474 -0.04642243
0.029086128 0.20376723 0.08752121 -0.016663035 0.11477155 -0.013161355 0.092751406 0.17296055
0.11120544 0.05615667 0.082530946 0.09056334 0.19341184 0.14912327 -0.017770818 0.12445584
-0.016244585 0.08587107 -0.03832435 0.020655379 0.21522447 0.06656193 0.11978481 0.12637733
0.092174515 0.17250358 0.03166955 0.08590781 0.11970124 0.06256351 0.20582439 0.055589292
0.081866555 -0.024524098 0.15715834 0.11221387 0.16928439 0.10176589 0.027730897 0.02100903
0.028690545 0.13423401 0.09437121 0.13746427 0.007944548 0.010438694 0.03608266 0.022847023
0.08747231 0.028067669 0.15437032 0.12147569 0.039073784 0.07971406 0.017753514 0.09068146
0.25300303 0.021907141 0.05926487 0.011613237 -0.044523116 0.09677898 0.044067964 0.0008197901
0.08113502 -0.016187068 0.044873767 0.14371423 -0.027485887 0.10697658 0.12277077 -0.011487425
0.123922385 0.017023914 0.1678433 0.06911623 0.13985908 -0.0155602535 0.083023384 0.08006668
-0.08822345 -0.0266368 0.023442497 -0.07294178 0.011047714 0.08270445 -0.010250296 0.080484286
0.04441319 -0.07549016 0.042455647 0.06322593 0.010114327 0.006675475 -0.058594346 -0.012689758
0.08461015 0.051928435 0.08281889 0.09550529 0.05282902 -0.0012750144 -0.038100675 -0.023715217
0.109826885 -0.006868955 -0.004656659 -0.004599168 -0.034802005 0.09823076 -0.025110057 0.01345584
0.0082477825 0.10836458 0.016105752 0.024597699 -0.011347013 -0.11183971 -0.044800352 0.08653936
0.0066973637 0.10801606 -0.086046256 0.079322465 0.027729465 -0.023920082 0.0024796682 0.031008136
-0.045962617 0.0008511435 -0.063069224 0.007968645 -0.035193454 -0.014770458 -0.06619312 -0.039391447
-0.022440184 0.06987082 0.02044241 -0.021179931 0.07281057 -0.05878025 0.005316352 0.025059529
0.025571374 0.055840526 -0.048031736 0.118570864 -0.052741066 0.049204335 -0.07449334 0.026802452
-0.08012477 -0.04367382 -0.09578015 -0.03156794 0.013688779 0.10002414 -0.109175965 -0.023582976
-0.032334223 0.04113398 0.06751633 -0.00089329405 -0.027494725 0.06160772 -0.06150459 -0.0425847
-0.02768512 0.06824294 0.00618743 0.07615077 0.07816437 0.08252673 0.10489817 0.02881983
0.024195604 0.021173405 -0.058127835 0.06628597 -0.031052403 0.02930519 0.05302853 0.04169804
0.015870664 0.069921724 0.07303912 -0.070277415 0.037820324 -0.065887794 -0.0074329507 -0.05786723
-0.049594723 -0.024727708 -0.123293996 0.019929593 0.10154096 0.015446126 0.0008927189 0.010128378
0.03772679 0.061442945 0.024540106 -0.021797674 -0.036340527 0.012661939 0.09371284 -0.06034234

weight_ih f4 [512, 128]
00000000: 1be8 9b3d 6eb1 81bd 93fb 00be 77fc 09be
00000010: 0f78 33bc 8797 cb3c 1bf6 a93d 6a95 1fbd
00000020: 3d94 3a3c 1f72 b5bb 0d05 1ebd 6440 69bd
00000030: 6d04 ab3d 7f3e 823d b6ae 5e3c 7cbe 6d3d
00000040: 71cc 703d 61d7 763d 16a5 763d b25f 2bbe
00000050: 3be3 c73c 2c8f 09be c7c4 18bd 82f3 603c
00000060: bdfe 1e3c 68a3 c4bc abd4 46bd a709 aabc
00000070: 7ca8 01bd 7672 08bd bfa0 f8bd ea63 123d
00000080: a0ae 58bd 9cd5 073e e79a 83bd f7ba 44bc
00000090: 971d f13a 18d2 85bc 10b7 053e 11a0 89bd
000000a0: 10a6 e8bd 75c0 c63d 0b97 113e fd37 893d
000000b0: f566 333d d3de 90bc c298 51be c0c8 173d
000000c0: 0061 01bd 0f41 e43d c169 cf3c 07d6 abbd
000000d0: 1d02 e2bc 2afc ac3d 8a4d 513c aee8 dd3b
000000e0: 51a3 d3bd 0cfa debc 4344 5abb 559e c73c
000000f0: 4f20 883d c4da dbbd 238a 01bd 922c f73c
00000100: b7ab 00bd a1bf 8ebd ff88 b4bd 1d81 1e3d
00000110: f712 14be bd7e 1c3c cc84 b33c 976c d53d
00000120: 8d91 2d3d 7101 8a3c e74d a23c 0586 e53d
00000130: a4e7 7a3c 0eee c8bd d901 58bd 894c 8f3d
00000140: fe44 93bd e85a 6f3c 94de c5bd be1c c43c
00000150: d700 bfbd fc18 4a3d ecf3 61bc a105 90bd
00000160: 0a57 86bc 46d0 6ebd e48e 21be bcd3 993c
00000170: 7bba 353d a380 f7bd 0144 813b 6685 0d3d
00000180: 99be 8bbd 4a2f 01be ee42 ddbc a85a 26bd
00000190: 5b4f 4a3d 956f a83b 2919 003e 5898 f6bd
000001a0: 860e 633d 4855 39be 4c5c 943c d358 8d3d
000001b0: 8c23 c8bc c6f7 783d 8d0d c1bd 7df7 123d
000001c0: 75ad 8fbd 5bd7 8ebd ed8b 01bd 5337 8d3d
000001d0: 737c ee3d 7327 90bd 622c f33c b301 3a3c
000001e0: f9bb ebbc aabf 113d 25d8 50be 511f 26bc
000001f0: df2a 16bd a0a2 913d 1428 94bd c165 fb3c
00000200: 4d5f d93d 694c 483d 139b f4bc b05b 31bd
00000210: e08b cb3c 889f 6d3d 7519 b33c 1bbe 54bd
00000220: be14 1c3e 081f 1dbc c01d b8bd 0f7b 703d
00000230: 23c4 7d3d c2c0 0b3e 1611 0ebd 9cf7 32bd
00000240: c886 853c f8aa 9ebc 824e e6bc 8142 dc3c
00000250: e6f1 e3bc 59c1 c7bd 394b 9abc 965f 9a3d
00000260: c933 3cbe 5579 1e3d b57b 9ebc 070f 8fbd
00000270: e31d 753d 35b2 3a3d 22a5 083c de17 abbc
00000280: 8d6b fb3c 18c6 173e 1980 b83d 4c7c 95bc
00000290: 24e4 ddbd 17ab 8cbd f99b 9ebc aee7 50bc
000002a0: 6dce afbb 2e18 5bbc c8dd 2b3d 06de d63d
000002b0: 0efe b03d e99f 37bb 5ccc a4bd 0c4b cabd
000002c0: 77c3 843c 7a55 643c 987d b7bd 3512 08bd
000002d0: 858e 0a3e 2999 743c b81a 9e3d 1572 043e
000002e0: cc87 af3c ce54 373d ee5a c13d 0fc5 b83c
000002f0: d79a 76bc 7c61 b1bd 7933 b8bc 1c01 85bd
00000300: 7ed0 63bd 6746 c43d 5da0 92bd c35a 1b3d
00000310: 8748 953d c771 78bd ac7c 3c3d 08f2 d4bb
00000320: c4e7 5dbd f857 8ebd 4017 98bd 37da 0d3e
00000330: 540e 343d 4a20 0b3e b10d 0cbe 0625 74bb
00000340: 68c4 5dbd 41f1 123e 0ada 02be 428d dd3d
00000350: 4c0d 92bd 48a0 263e fabe 6f3d 185b 3ebe
00000360: f5cb c13c 08d1 dabc 6d42 96bc debb d7bc
00000370: ab84 b13d 712f 133d 9263 073e f81f 7cbd
00000380: 20df d2bd d526 9dba c48e 043d fc01 4dbc
00000390: 1538 b0bc 09d1 babd f27e 103e dd26 7abc
000003a0: 9689 9b3c 3e59 b1bd 2dd4 663e 0dd4 f3bd
000003b0: 1825 a93d 6d39 933c f198 d3bd 0916 983a
000003c0: b4a4 f03d 4236 e0bd 0b1b cd3d f9d6 953d
000003d0: b2c4 fc3d 6165 5fbd 1a63 543d 4fb6 1dbd
000003e0: c992 b33d bed8 04be 779f 743c b345 fd3d
000003f0: 9509 77bd ed7a d23b 23e3 bcbb 9df6 173e
0.0761263 -0.0633267 -0.12595968 -0.13475214 -0.010953917 0.024852527 0.08298894 -0.03896085
0.011387882 -0.005537286 -0.038579036 -0.056946173 0.083504535 0.063595764 0.013591459 0.05804299
0.05878872 0.060263995 0.060216032 -0.16735724 0.024400344 -0.13433522 -0.037297036 0.013729932
0.009704289 -0.0240037 -0.04854266 -0.020756556 -0.03165482 -0.033312283 -0.12140035 0.035739817
-0.05290091 0.1326508 -0.0642603 -0.0120074665 0.0018395659 -0.016335532 0.13058114 -0.06719983
-0.11359799 0.09704677 0.14217775 0.06700132 0.04379936 -0.017684376 -0.20468429 0.037056684
-0.031586647 0.111452214 0.025318982 -0.08390432 -0.027588898 0.08446534 0.012774834 0.0067721223
-0.103338845 -0.027218841 -0.0033304847 0.02436749 0.066467874 -0.107350856 -0.031625878 0.03017262
-0.03141376 -0.06970144 -0.088151924 0.03869735 -0.1446036 0.009551701 0.021913908 0.104211025
0.042375136 0.01684639 0.019812537 0.11207203 0.0153140165 -0.0981103 -0.052736137 0.0699702
-0.071908936 0.014609076 -0.09661594 0.023939487 -0.09326332 0.049340233 -0.013791066 -0.07032324
-0.016398925 -0.058304094 -0.15777165 0.01877772 0.044367295 -0.120850824 0.0039448743 0.034551047
-0.06823463 -0.12615696 -0.027009454 -0.0406138 0.049392086 0.0051402547 0.12509598 -0.12040776
0.055433773 -0.18098938 0.018110417 0.069017075 -0.024431013 0.06078317 -0.09426413 0.035880554
-0.07015506 -0.069746695 -0.031627584 0.06895318 0.116448306 -0.07038774 0.02968425 0.011352944
-0.028776156 0.035583176 -0.20394953 -0.010139302 -0.03666198 0.071110964 -0.07234207 0.030688168
0.1061388 0.048900995 -0.029859101 -0.04330033 0.024846971 0.05801347 0.021862725 -0.05193911
0.15242288 -0.009589918 -0.08990049 0.058711108 0.06195463 0.1364775 -0.034684263 -0.04369317
0.01629962 -0.019368634 -0.028113607 0.02688718 -0.027825307 -0.09753675 -0.018834697 0.07537763
-0.1837913 0.03868993 -0.019346097 -0.06985288 0.059842955 0.045580108 0.008340152 -0.020885404
0.030690933 0.1482166 0.09008808 -0.018247746 -0.1083453 -0.0686857 -0.019361483 -0.012750549
-0.005365184 -0.013372464 0.041959554 0.10491566 0.08642207 -0.0028018898 -0.08046791 -0.09877595
0.016206486 0.013936395 -0.08959502 -0.03322049 0.1353093 0.014929094 0.0771994 0.12934144
0.021427058 0.04475861 0.094411716 0.022554902 -0.015051565 -0.08661172 -0.022485482 -0.06494352
-0.055618756 0.09583741 -0.07159493 0.037928354 0.07289224 -0.06065538 0.046017334 -0.006498579
-0.054176107 -0.069503725 -0.074263096 0.13852774 0.043958977 0.13586536 -0.13677098 -0.0037253513
-0.054142386 0.14349844 -0.12778488 0.108179584 -0.071314424 0.1627208 0.05853174 -0.18589437
0.023656825 -0.026711002 -0.018342221 -0.0263347 0.086678825 0.035933916 0.13221577 -0.061553925
-0.10296464 -0.0011989722 0.032362714 -0.01251268 -0.021511117 -0.091219015 0.14110926 -0.015268055
0.018986505 -0.086596 0.22541876 -0.1190568 0.08259028 0.017971719 -0.10331906 0.0011603247
0.11750165 -0.10947849 0.10014924 0.073163934 0.12342204 -0.05454004 0.051852323 -0.03850394
0.087682314 -0.12973306 0.0149305975 0.1236681 -0.060311873 0.0064233453 -0.0057643815 0.14840169

weight_hh f4 [512, 128]
00000000: 541c 14bd 3d57 c3bd 030b c0bc 1852 c4bb
00000010: 83dc 4f3d 2f7a 87bd 7064 0e3d 4094 57bc
00000020: 9de4 7cbc af08 4c3c 8af5 1bbd 3343 6f3c
00000030: 6a7d c9bd 42e9 88bd fb12 f23c f81a 12be
00000040: 28dc 063c 3843 c93d eb2d 83bd 8bb9 b8bd
00000050: 68ee 4fbc c389 3ebd 1b77 9a3d 832e 84bd
00000060: 58a1 06be 94d3 1c3d 6e63 6cbc dbf6 523c
00000070: ccb9 99bd 28b5 563d 86a8 9fbc a439 743d
00000080: 81c2 b83d af9f abbd 0b6e 5ebd 3004 c4bd
00000090: e2c3 86bd 569f 063d 4308 acbd 7ac9 8b3c
000000a0: 403b a9bd 66e0 2d3d 56cf b73d 3289 233d
000000b0: 2804 3d3b d64b 503d 9547 d2ba 4ea7 7c3c
000000c0: 5109 bb3d dbb0 c3bd c926 53bd 2066 8abd
000000d0: e415 e0ba 9a8c fdbc 1bf4 3bbd 41db cf3d
000000e0: eb8d 1bbd b2e6 9ebd c96c 883d 4820 2c3d
000000f0: d052 1e3d 3769 9fbc 415c 953d d93b b33c
00000100: 7df1 823d 4409 23be 870a 9b3d 6e38 b5bd
00000110: 1410 a23d 6ca5 683d 3ce0 21bb 61e9 773a
00000120: f23f ea3d 8716 d23c 3fd1 193d fb08 e8bc
00000130: 5aed 2cbd 3c6c 063d 0c36 f23c de67 e13d
00000140: 5e95 63bd e4e9 ca3c 8f81 fa3d 1857 bdbc
00000150: 0373 a63d a769 843b fed8 3c3a 8f7e 7cbc
00000160: 4d4b 183e 1a06 0c3d bc63 213d 468f b13c
00000170: 4251 1cbd 0dba 78bd 0974 4ebd cbac adbd
00000180: 8efc f33c 85d0 983d 88c0 ed3d 5e7d 503d
00000190: e7a5 96bd 82a2 83bd 1718 19bd 0dfe 57bd
000001a0: c0c5 053d 3a2f a3bd 95cf 733c c9c0 00be
000001b0: 0ad6 ad3c 6422 9a3d 70de 9ebd 3238 bfbc
000001c0: 2386 bb3d 4547 503d 50a0 813d 5f0b 30bc
000001d0: cf01 a0bd 0377 64bd 356c d1bb 7c94 743d
000001e0: 745e 02bc 7c3c 6ebc efb0 d43a 82d0 103e
000001f0: 3080 de3b 661c 003c fd2b 28bd 6704 9c3d
00000200: c074 673d 1375 2b3d dc50 28be 835d 193d
00000210: d43a da3d 8af5 043e 40a2 ccbb 6837 523c
00000220: e9a5 c0bd 298a 06be de4a 9f3d 1fab 0fbe
00000230: 3909 e2ba 11e1 d33d 1b21 6bbd 0aa6 c7bc
00000240: 80cd f53d 4cbd 143e 2110 c33a 73a0 c13d
00000250: 198f 193e 09cb d6bd 12b6 f2bd 1c26 7ebd
00000260: bcef 9abd 012d d83d e246 f53c a365 223e
00000270: 9ee4 693d bf27 153e 65ce 0e3d aa64 c53b
00000280: 6c22 dc3c 9dc7 e53c fd41 a33d ddf0 02be
00000290: 12f6 09bc ca0a f23d 959e cebc 08c1 46bd
000002a0: a3ed 4dbd 4b0b 333e ba48 d8bd 440d 093d
000002b0: 0117 243e 7992 bcbd f0bf babc 8df2 eabc
000002c0: 7cb0 b7bd fd9f 0d3c 704a 093b 6a63 bbbd
000002d0: e593 67bd c393 d2bb f95f 20be bfea 293c
000002e0: f824 223e 10c4 5fbd bd78 0bbd c38b d43c
000002f0: d400 4fbd b234 953c 9ba2 e83d 8ac6 4c3d
00000300: e83b ed3c fb2f 6b3c 6ee9 163e e5a4 0cbe
00000310: 2483 de3c 1727 d73d 903b 853d 2f2b d4bd
00000320: 29fa 683d 2410 6b3b 8ecf 98bd bef9 563d
00000330: d438 093d e1d0 02be 3586 9bbd f01f 84bd
00000340: 9ca2 79bd 3935 48bd 917a 373d 3c8c f13a
00000350: 24cf cd3d f768 3a3e 860a f33d 42c4 22be
00000360: 18fb 813d 2e09 c43b a762 b33d 9d8a 60bc
00000370: bb68 ddbd 373a 7ebd a42b 97bd 496d a4bd
00000380: e328 8dbd 9f9f e63c a202 863d 3a7d e13d
00000390: 5103 a9bd f92b a93a 7b38 5a3d 0a3b efbd
000003a0: 06f0 8ebc 6213 f3bd 1c6b fdbd da0e eabd
000003b0: cff7 bcbb 2b5e b4bd 5301 4d3d 8179 94bd
000003c0: 5488 1a3e da09 823d 9c64 c5bd 9a17 3abd
000003d0: db8e 76bb e455 943d 21e9 0d3e 7bdb 4a3d
000003e0: 1066 8dbd 23f6 40be 2f44 2a3d cc6d e43d
000003f0: 53c2 283e 47e4 b0bc 527c 693c 7b9c 433d
-0.03615983 -0.09538124 -0.02344275 -0.0059912317 0.050747406 -0.066151015 0.034763753 -0.013157904
-0.015435365 0.012453242 -0.03807596 0.014603424 -0.09838374 -0.066851154 0.029550066 -0.142681
0.0082312 0.09827274 -0.064052425 -0.090197645 -0.012691118 -0.0465181 0.07542249 -0.06454184
-0.13147485 0.038287714 -0.014428003 0.012876238 -0.07506141 0.052418858 -0.019489538 0.059625283
0.09021474 -0.083800666 -0.054304164 -0.09571111 -0.065803304 0.0328668 -0.08400013 0.017063845
-0.08263254 0.04245033 0.08975093 0.03992576 0.0028841589 0.050853573 -0.0016043062 0.015420748
0.09132636 -0.09555217 -0.05155066 -0.0675776 -0.0017096368 -0.030950833 -0.045887094 0.10149241
-0.03797714 -0.077588454 0.06661374 0.042022973 0.038653195 -0.01945935 0.07292987 0.021879124
0.063937165 -0.15921503 0.07570367 -0.08848654 0.07913223 0.056798384 -0.0024700304 0.00094570784
0.11437978 0.025645507 0.03755307 -0.028324595 -0.042218544 0.032818064 0.029566787 0.11006139
-0.05556237 0.02476973 0.122317426 -0.023112819 0.081274055 0.004040915 0.0007203965 -0.015411033
0.14872475 0.034185506 0.039401755 0.021674763 -0.03816343 -0.060724307 -0.05040363 -0.08480223
0.029783513 0.07461647 0.11608988 0.05090081 -0.07355862 -0.0642748 -0.03737649 -0.052732516
0.032659292 -0.07967992 0.014881034 -0.12573542 0.021220226 0.07526091 -0.0775727 -0.023342226
0.09156444 0.050849218 0.06329405 -0.010744899 -0.07812845 -0.05577756 -0.006391073 0.05971192
-0.00795709 -0.014540788 0.0016227047 0.1414204 0.0067901835 0.007819271 -0.041057575 0.07618027
0.056507826 0.041859698 -0.16437095 0.037442695 0.10655752 0.1298429 -0.0062449276 0.012830593
-0.09406645 -0.13138641 0.07777952 -0.14030121 -0.001724518 0.103456624 -0.05740462 -0.024371166
0.12002087 0.14525336 0.0014882126 0.094544314 0.14995994 -0.10487945 -0.118511334 -0.062048063
-0.07565257 0.10555459 0.029941026 0.15859084 0.057102792 0.14565943 0.034864802 0.006023963
0.026871882 0.028049285 0.07971571 -0.12787195 -0.008420484 0.11818464 -0.025222102 -0.048523933
-0.050275456 0.17484777 -0.105607465 0.033459917 0.160244 -0.09207625 -0.022796601 -0.02868011
-0.089692086 0.008644101 0.002094891 -0.09149821 -0.056537528 -0.006426306 -0.1566161 0.010370909
0.15834415 -0.05463034 -0.034050692 0.02594555 -0.0505379 0.018213604 0.113591395 0.04999403
0.02895923 0.014354701 0.14737484 -0.13734777 0.027162142 0.10505503 0.06505501 -0.10359799
0.056879196 0.0035867775 -0.07461463 0.052484266 0.03350146 -0.12774993 -0.07593957 -0.06451404
-0.060946092 -0.048878882 0.044794623 0.0018428634 0.100492746 0.18204103 0.118672416 -0.15895179
0.063467205 0.0059825396 0.08759051 -0.013704923 -0.108109914 -0.062067237 -0.07381371 -0.08028657
-0.06892564 0.028152285 0.06543471 0.11010213 -0.08252586 0.0012906782 0.05327652 -0.11681183
-0.017448436 -0.11868931 -0.12373945 -0.11428614 -0.005766846 -0.088070236 0.05005009 -0.072497375
0.15091068 0.06349535 -0.0963833 -0.045432664 -0.003762177 0.07242945 0.13858463 0.04952572
-0.069042325 -0.18843894 0.04156893 0.111537546 0.16480379 -0.021593226 0.014250832 0.047756653

bias_ih f4 [512]
00000000: 930b aa3d 679f 2c3e 7b31 a73d 9f66 223e
00000010: c76d 053d 52c8 223d aa0a 0d3e ef57 d13d
00000020: 5b18 753e ee76 df3d cc1a ee3b b3f8 1c3e
00000030: d8c8 153e 85dd fd3d 04ef a23d 57ff f73d
00000040: e617 4f3d 0611 a63d 57da 1a3e d231 fa3d
00000050: 556f 103e b152 31bb 520a dd3d 89bf 933d
00000060: 108d 0d3d f7c2 6fbd 4a81 733d 89f5 303e
00000070: 7675 973d 0f6b ec3c ba6c 663e 6114 ba3d
00000080: 857d 3c3e bff4 983d 5ea3 f23c dc9b bd3d
00000090: 7ff5 113e 4ad1 d13d 355e 823c 887f ab3d
000000a0: 3b16 a03d ff3c f53d 4b68 183e e8e0 383e
000000b0: f5ab c03d 9f89 4cba 797f 013e b086 313e
000000c0: 3657 cd3d eb28 023d b682 cd3d abfb 033d
000000d0: cb80 df3c ced8 2f3e b17e a73c febb ee3d
000000e0: 3b6c 493d 5fcc d43c 946e 933d ddcc 443b
000000f0: f2f2 af3d c1aa 133d fa08 cf3d 2534 0d3e
00000100: 5b57 403c 22c7 563c 693a 2a3e 00eb c83b
00000110: 232c b73d c129 433b 439c 113d 8af9 40bd
00000120: 5420 eb3b 3a78 313c 010f 2d3d 08a9 793e
00000130: 15bd 03bd cf08 b93d bf1a 503c 8080 ac3d
00000140: 7969 193c 74f4 173e cd26 8c3d 8e77 053d
00000150: 99df 753d 4e32 5a3d 5334 e93d 4c95 ee3d
00000160: 36fc 283e d434 073e fb37 6c3e 5f18 373e
00000170: 8d69 163e f91f a63d def4 163e 012e 3e3e
00000180: 4fd2 d23d 4dda 5a3d 314b 863c f0dd 153e
00000190: 0765 833e d379 aebc ca16 9a3c a3cf 293e
000001a0: a58c b53c f111 d73d 616d f73b 5b4d 0f3e
000001b0: a27a b83d 0fd9 6d3e dda5 963d dadb 2f3d
000001c0: 9c27 45bc 65ab 473e 6dd6 413e f4e6 cf3d
000001d0: 8b8c 8c3d d97b 063e d803 143e 5f47 62bc
000001e0: 3da8 743c e33e 8f3d e604 153e b2f0 a13d
000001f0: 3b7d 6c3d 2c8c 033e 71e1 0a3e 2edf 2b3e
00000200: 945c 8d3d b65f b8bc 37fc 313d 173d 06be
00000210: 0102 f7bc 785e 1bbd 96db 5d3a 3eb8 6ebc
00000220: 8fef debb eb33 99bd 52db 8c3c 8489 963c
00000230: 7b27 d83d 7eef 53bb c875 c4bb 884c 80bc
00000240: 50c6 1a3d 58f5 313c edb5 93bd 5406 febd
00000250: 1379 783d 63b8 82bd 8c8f b3bb c088 af3c
00000260: 08df 42bb 0bfa 80bd 5144 81bd 05d1 bebd
00000270: 77e4 b6bd 875e 30bd fa76 83bc c713 c7bd
00000280: bb9c 9ebd 8de9 95bc d947 79bc f0f4 7abc
00000290: 53a4 64bd 2270 6fbd e885 74bd fe29 c0bd
000002a0: e3de c43d 566c 45be 4834 0ebe a103 ab3c
000002b0: 6e76 b4bd 65a2 8ebd 01c5 773d aaa4 95bd
000002c0: 6ec7 08be 18c5 debd c4c1 af3c a4fa 0b3d
000002d0: ceaf 5c3d 03ed a7bd 6f62 a83b cf34 d03c
000002e0: 3af7 42bd 447b e3bd 918e 243c fc1c d6bd
000002f0: b540 90bd e262 02bd b78b 01be 2064 91bd
00000300: 66f3 423d f40d 633b 4be0 91bd bab0 89bd
00000310: e677 5a3c 8a0d dabd 36c6 373d d2f6 9abc
00000320: beb1 fcbc 018a 1bbe d526 b7bc f71c 76bd
00000330: c208 49bc 5af3 2a3d f839 4abd cf10 983d
00000340: 5e3c 363d 9643 05be 33f6 893d b549 993c
00000350: dc4e 8ebd c608 7b3d 196f 9fbb 4c0f debd
00000360: 5403 a53c 132e 68bd 45e2 65bd 0287 323d
00000370: d47a 103d 1ff5 54bd c123 31bd f48d c3bc
00000380: 2827 99bc 3a38 813d 7ab4 dbbc 25f2 dbbc
00000390: d81e fcbd 4685 d2bc 932a 613c 37b4 613d
000003a0: 8e76 dabd a650 35bd 3d93 873c b42e 49bc
000003b0: fb16 1cbe abe5 02be 47d6 9cbd e11a 853d
000003c0: c5a8 093d 466b 85bc 94d5 e1bd c183 963d
000003d0: f6a8 b13c a9f6 923c 422d 44bd add5 82bc
000003e0: 291b c4bd e54a 18bc 7b0c 57bd fbd6 e1bc
000003f0: 45ca ad3d 0d53 cfbc f40b 593d 5f35 a5bd
0.08302989 0.16857682 0.081637345 0.1585946 0.032575395 0.03974182 0.137736 0.1022185
0.23935072 0.10911356 0.007266378 0.15329246 0.14627397 0.12395767 0.07955745 0.12109249
0.0505599 0.08108716 0.15122353 0.12216534 0.1410497 -0.0027057345 0.10792984 0.07214267
0.034558356 -0.058535542 0.05944947 0.17281164 0.07395451 0.028859643 0.22502413 0.09085918
0.18407257 0.074685566 0.029618915 0.092582434 0.14253806 0.10244997 0.015914062 0.08373934
0.0781674 0.11974525 0.14883535 0.18054545 0.09407798 -0.00078024896 0.12646283 0.17336535
0.100264 0.031777304 0.10034697 0.03222243 0.027283093 0.17172548 0.020446153 0.116569504
0.049175482 0.025976358 0.071988255 0.0030029335 0.0859126 0.036051515 0.10109134 0.13789423
0.011739577 0.013109 0.16623844 0.00613153 0.08943965 0.0029779526 0.035549413 -0.04711298
0.0071754847 0.010831887 0.042250637 0.24380887 -0.032162745 0.09034883 0.012701689 0.08422947
0.009363526 0.14839345 0.06843338 0.03258472 0.060027692 0.05327063 0.11386933 0.1164957
0.16502461 0.13203746 0.2306823 0.1788039 0.14688702 0.08111567 0.14741847 0.18572237
0.102940194 0.053430844 0.016393276 0.14635444 0.25663015 -0.021298325 0.018809695 0.16583113
0.022161791 0.10501469 0.007550881 0.13994353 0.09007765 0.23227333 0.07355855 0.042934276
-0.012033369 0.19498976 0.18929453 0.10151473 0.06862744 0.13133182 0.14454591 -0.0138109615
0.014932689 0.069944166 0.1455265 0.07907237 0.057736617 0.1284644 0.13562562 0.16784355
0.069024235 -0.022506576 0.04345342 -0.13109241 -0.030152323 -0.03793189 0.0008463202 -0.014570294
-0.00680346 -0.07480606 0.017194424 0.01837612 0.10554405 -0.0032338793 -0.005995486 -0.015661493
0.03778678 0.010861717 -0.07212434 -0.12403551 0.06066234 -0.06382825 -0.0054797586 0.021427512
-0.0029734988 -0.06297692 -0.063118584 -0.09317211 -0.08930295 -0.0430589 -0.016047943 -0.09720569
-0.07744738 -0.018299842 -0.015214884 -0.015317187 -0.055820774 -0.058456548 -0.059698015 -0.093830094
0.09612825 -0.19279608 -0.13887131 0.020875754 -0.08811651 -0.06964568 0.060490612 -0.07306798
-0.13357326 -0.108774364 0.0214547 0.034174576 0.053878598 -0.08199503 0.0051386873 0.025415806
-0.047599055 -0.111074954 0.010043756 -0.10454747 -0.07043592 -0.031832583 -0.12650953 -0.070991755
0.047595404 0.0034645768 -0.071228586 -0.06723161 0.01333425 -0.106471136 0.044866763 -0.018916521
-0.030846473 -0.15189363 -0.022357384 -0.060086217 -0.012270154 0.041735984 -0.04937169 0.07425081
0.044491164 -0.13014063 0.06736412 0.018711904 -0.06948635 0.061287664 -0.004865539 -0.108427614
0.020143189 -0.056684565 -0.05612399 0.043585785 0.035273388 -0.05199158 -0.04324699 -0.0238714
-0.018695429 0.063095525 -0.026819456 -0.026848862 -0.123105705 -0.025698315 0.013743061 0.055103507
-0.10667144 -0.044266365 0.0165497 -0.012279201 -0.15243141 -0.12782924 -0.07658058 0.06499267
0.033608217 -0.016286504 -0.11027065 0.07349349 0.021687012 0.017939882 -0.047894724 -0.01597103
-0.09575493 -0.0092952 -0.052502137 -0.027568331 0.084858455 -0.025308156 0.052989915 -0.0806682

bias_hh f4 [512]
00000000: 4c51 2d3e 05f9 2c3e 5c76 2b3e d867 823e
00000010: d8bc e83d b2e0 f53d f3cc f63d c0da 023c
00000020: 99a0 6f3e 7275 b23d 5bb5 da3d 7916 883d
00000030: 4bc8 5d3d 0e3f 643d 5a1f 173d 318f d63d
00000040: c8f7 603d fe30 b43d 9b35 823d 6e6e 5c3e
00000050: e7fd a83d 97ab 003e e69d 043e e193 61bd
00000060: f7e3 ab3d 2708 bf3d b8d4 dd3d 53f1 113e
00000070: 7e16 f83d f277 673d ad4b 953e 86e9 123e
00000080: 1fa2 0f3e 15f8 f33d df85 febb 076d 613e
00000090: 2196 943d fcc7 0f3e 71e1 b5bc 50d9 1a3e
000000a0: 02ff d33c 7970 953d 3fee 0f3e ccec 183e
000000b0: c1fe 4a3d 334d 993d 9e2e f93d 1e95 103e
000000c0: ce6a 5b3c ec99 633d 8aa8 953d 2dab 08bd
000000d0: 40c9 13bc 362f 503e 231a a2bc 6123 1a3d
000000e0: b2ac 2e3c 4897 ce3b 3769 5a3d 3728 203e
000000f0: 6434 2e3e c508 563d 6ca5 233e faf4 cc3d
00000100: 2c1a fd3d a17a cc3d 7225 893c 329f d73d
00000110: 2450 673d 605b 533d 41e3 b83d 9a14 8d3b
00000120: 08d8 633d 6228 a73d 3beb 463c 18bd 0f3e
00000130: 9415 5fbc d01f 663d 4354 b43d c052 b03d
00000140: ad6c cf3d 7e1f 493e e53b f2bc 5e10 fa3c
00000150: 0a1b ed3d 49ac 183e 35ea 5b3e ca97 8f3d
00000160: 01e0 893d 1a81 333e 54e0 cd3d 2f82 113e
00000170: 6c8a 1b3a bec5 093e 975f 9a3d 251f 363e
00000180: a20f 793d 7b3a 6f3d 2a02 6f3d d49a 193e
00000190: 4195 0d3e cf6c 0d3e 5b53 b33d c5f6 1a3e
000001a0: 001f 133e dfba bc3d f703 893d 0f0f 2d3e
000001b0: d9c1 6c3e bbd3 6b3e b936 d93d 499e d73d
000001c0: 3a75 0d3e b905 2e3e d5fa 8c3e 6ef2 9c3d
000001d0: 6b81 183e 986f 443d f805 a63d b715 e9bc
000001e0: ccdc 993d 2c19 523e a478 0e3e 4211 793e
000001f0: ad66 023d 7840 113e 1985 ea3c d0e0 363e
00000200: 777b b13c 0806 fabd fbd3 3d3d 3c4e d03b
00000210: 3f9b 7dbd a008 76bc 3391 02be 4041 42bd
00000220: f6a9 37bd 77fb 023c c9fd 9cbd 4d1c 53bd
00000230: 7828 843c e845 7fbd 2dff 0c3d 0ee9 ce3c
00000240: 3c93 5fbd 7439 4fbd 884d 2bbc 043d cbbd
00000250: e6c1 933c dbf0 133d c8e0 7ebd 051f 5f3d
00000260: 04b0 d9bb 00a7 a1bd 455e 733d 5dc8 b3bd
00000270: e510 20bc 26de b1bd 4d28 31bd 5267 073c
00000280: b730 e53c 55a9 dfbd 8392 803b 1889 88bd
00000290: 1908 66bd 3a9c 013d cbbc 91bd 0af8 023d
000002a0: 01b2 cb3d a0c9 4bbe f113 b3bc 5ab8 6abd
000002b0: 4c75 babd 0744 5bbd 3993 38bd afb4 3bbd
000002c0: 693b c1bd bbdb 6abd 7287 e1bd 86e0 bfbd
000002d0: 184c 413d 4e9b 493d e32c 5bbd 64ed 00bd
000002e0: 3035 e1bd 2448 a93c af3b 33bb 78fb 993c
000002f0: f731 0abc 69f2 29bd 35ec 39bc 7c9b 6abd
00000300: 5242 043d e996 9b3d 4d47 c1bd e9ae e0bc
00000310: 0841 a4bd c2eb cfbc f22b d73d 7ba6 5a3d
00000320: d102 c9bc 4364 d6bd f002 3fbd 2083 77bd
00000330: 2881 b3bd 3082 92bd 27e4 b1ba b30e e8bc
00000340: 8bdb 153b 4281 11be a233 633b 9fb8 a2bd
00000350: be7f bbbc 9040 023d c088 d83c ce7b f2bd
00000360: 0c55 13bd 7a05 ccbd f930 3b3d c246 58bd
00000370: c946 9c3d 6f79 a0bd 90a9 3f3b 7526 483d
00000380: dc35 cf3c 945a 1a3d e358 183d d8b9 5cbd
00000390: 909a 833c 3cb4 bdbc 5feb 57bd 02ce a0bd
000003a0: b466 edbd 5cd3 55bd 614a d8bc 37ff 943c
000003b0: 7d19 12bd a445 4ebc c1e4 903d 9a03 8fbd
000003c0: 5787 853d 57fc cbbd 44e5 043d 2b33 9d3d
000003d0: c965 47bb 8dda 6f3c 561a 53bc 1d26 66bd
000003e0: e1c1 71bd f8e7 f3bc 9260 3dbc f82b 323a
000003f0: 558c dabc adec 97bd d9ea 8e3d 992e f1bd
0.16925544 0.16891868 0.1674437 0.25469851 0.11364144 0.12005748 0.1205081 0.007986724
0.23401107 0.08713807 0.10679122 0.06644911 0.054146092 0.055724196 0.036895134 0.1047653
0.054923803 0.08798407 0.06357881 0.215265 0.08251553 0.12565456 0.12950858 -0.05507267
0.0839309 0.09327727 0.108315885 0.14252214 0.12113665 0.056510873 0.291593 0.14346895
0.14026688 0.11912552 -0.0077674235 0.22014247 0.07255197 0.14041132 -0.022202225 0.1512196
0.025878433 0.07296843 0.14055727 0.14934081 0.04955936 0.07485428 0.12167095 0.14119384
0.013392163 0.055566713 0.07307537 -0.03336637 -0.00902015 0.2033051 -0.019787854 0.037631396
0.010661291 0.006304655 0.053322997 0.15640341 0.17012173 0.052254457 0.15981072 0.10007663
0.123585075 0.09984327 0.016741488 0.10528411 0.056472912 0.051600814 0.0902772 0.0043054344
0.055625945 0.08161999 0.012141044 0.14036977 -0.0136159845 0.056182683 0.08805134 0.08609533
0.1012815 0.1964092 -0.029569576 0.030525383 0.11577423 0.14909472 0.21476062 0.07011373
0.067321785 0.17529717 0.10052553 0.14209817 0.0005933407 0.13454339 0.075377636 0.17785318
0.060805924 0.05840538 0.058351673 0.15000468 0.13826467 0.13811038 0.08756133 0.15133198
0.14367294 0.0921533 0.06690209 0.16900276 0.23120822 0.23029988 0.10606141 0.105282374
0.1381425 0.1699437 0.2753512 0.07663427 0.14893119 0.047957987 0.08106607 -0.028452737
0.07512817 0.20517415 0.13913208 0.2432299 0.0318362 0.14184749 0.028627919 0.17859197
0.021665318 -0.122081816 0.04634474 0.0063569825 -0.061915632 -0.015016705 -0.12750702 -0.04742551
-0.04483982 0.007994524 -0.07665593 -0.05154066 0.016132578 -0.062322527 0.034423042 0.025257614
-0.054583773 -0.0505919 -0.010455497 -0.09923747 0.018036794 0.03611837 -0.062226087 0.054472942
-0.006643297 -0.07893181 0.059416074 -0.08778451 -0.009769653 -0.086849496 -0.043251324 0.00826438
0.02797733 -0.109209694 0.0039237156 -0.066667736 -0.056160066 0.03164313 -0.071160875 0.03197483
0.09946061 -0.19901133 -0.021860095 -0.057304718 -0.09104404 -0.053531673 -0.045062277 -0.04582661
-0.0943516 -0.057338458 -0.11012162 -0.09368996 0.04719171 0.049220376 -0.053509604 -0.031476393
-0.10996473 0.020664282 -0.0027348807 0.018796667 -0.008434764 -0.041490946 -0.01134782 -0.057277188
0.03228981 0.07597143 -0.09437428 -0.027427154 -0.08020216 -0.025380973 0.10506429 0.053381424
-0.024537476 -0.10468342 -0.04663366 -0.060427785 -0.08764869 -0.071537375 -0.0013572023 -0.028327322
0.0022866454 -0.14209464 0.0034668227 -0.0794537 -0.02288806 0.031799853 0.026432395 -0.1184002
-0.03596978 -0.09961982 0.045701 -0.052801855 0.07630689 -0.078356616 0.0029245354 0.0488648
0.025294237 0.03768404 0.037194144 -0.053888172 0.016064912 -0.023157232 -0.0527147 -0.07851793
-0.11591855 -0.05220352 -0.026402654 0.018188102 -0.03566884 -0.012589846 0.07074881 -0.06983109
0.06519955 -0.099602394 0.032445207 0.07675775 -0.003042566 0.014639509 -0.012884697 -0.05618869
-0.059022788 -0.029773697 -0.011558669 0.0006796713 -0.026678244 -0.07418189 0.069783874 -0.11776466
