logs/fgb_vary_oracle/8/actor.pt (torch, 906162 bytes, 17 tensors)

weight_ih f4 [512, 48]
0.0305312 0.14102133 -0.021810282 -0.0741464 -0.051906176 0.002509214 0.039360218 0.04766399
0.0030216067 -0.012914936 -0.03962535 0.0056202835 -0.063746326 -0.07069988 -0.10812134 0.018149056
0.09088857 0.17020561 -0.17684892 -0.12000411 0.005221648 0.11084383 -0.030061845 -0.06127634
0.0361931 0.057530407 0.06451039 -0.103458025 -0.14222917 -0.00064376264 0.020074932 0.1237963
-0.1194511 -0.03621868 -0.12300728 -0.103673734 -0.096465796 0.030237501 -0.0025007383 0.02609964
0.008053421 -0.019706752 0.07414341 -0.026538812 0.0048234514 0.033024617 0.08678599 0.100822404
-0.0053246734 0.03227495 0.15923017 0.1236622 0.008500876 -0.05211684 0.06375171 0.013463777
0.14241521 -0.08918914 -0.08227032 -0.0025892928 0.0485649 0.1222922 -0.15327008 0.01830044
-0.2562718 0.009462605 0.17887871 0.0040353346 0.067881726 0.12277379 -0.13415328 -0.053048678
0.019304287 0.094365895 0.09952609 -0.012129063 0.08736151 -0.13378693 -0.025296172 -0.08818741
-0.12252917 0.060243808 0.10884231 -0.086393 0.027418222 -0.011600236 0.050188307 -0.0346725
0.030351615 -0.053738747 0.041670423 0.07778915 0.07720614 0.08520498 -0.061839335 -0.045091093
0.08025087 0.12290111 -0.08844682 -0.08436151 0.037766732 0.027705409 -0.050793167 -0.048089195
0.004908258 0.004677603 -0.04003595 -0.095656134 -0.025816727 0.09368574 -0.018817538 0.016921028
-0.19035007 0.15826733 0.09535754 -0.07043712 -0.090450674 0.023397889 0.029740404 -0.044016197
0.024215946 0.004930905 -0.0008800458 0.008193482 -0.14021441 -0.06964929 -0.05896178 -0.13233863
0.042265087 -0.19201434 0.04265617 0.010124793 -0.009770799 0.051495004 0.123053454 0.01651557
0.023822498 0.012931934 0.03910497 0.09137101 0.07907135 0.081494644 0.18467748 0.08365914
-0.1181749 -0.042839695 0.10587314 -0.09165973 0.0416115 -0.117605425 -0.04552225 -0.06840417
0.009944574 0.014746674 0.08357395 -0.11933323 0.062180907 -0.0871119 0.01559169 -0.034715768
-0.015104351 -0.05104533 -0.0728085 -0.07706159 -0.0687325 0.033230763 -0.008666552 0.12315837
-0.031154795 -0.027877258 0.07018506 -0.018744845 0.14158218 0.04820618 -0.15305808 0.056679543
-0.031729087 -0.020672299 0.09318492 -0.08031202 -0.0074897516 -0.06847807 0.02973755 0.015237841
0.03330621 -0.0059528723 -0.04431423 0.007227007 -0.020146605 0.11370474 0.15565018 0.1475586
-0.20336755 0.015760943 0.052274 -0.41970062 0.07861432 0.053972274 0.027680885 -0.25556478
-0.031014105 0.29105604 0.092227474 -0.07145885 -0.13654803 0.014266334 0.026627947 0.08702835
0.18794712 0.080426425 -0.041480172 -0.22793657 -0.021974906 -0.0004228544 0.100313984 0.14973256
-0.11579762 0.039522123 0.042357314 -0.08244434 0.086518936 -0.069558024 0.05548823 0.09590993
-0.08727904 -0.036393967 0.018199334 -0.018102122 -0.016291605 -0.004073613 -0.0052497354 0.005677969
0.002459954 0.068047725 0.03772794 -0.07369927 0.0013682474 -0.075382695 0.01177784 0.020646388
0.0564294 0.07839928 -0.015884025 -0.11667766 0.05592754 -0.061783623 0.09090821 -0.07064908
0.105824865 -0.07458729 0.026459511 0.04970706 0.046515297 0.10465682 -0.068249196 -0.016573705
00000000: 911c fa3c e567 103e 7aab b2bc 11da 97bd
00000010: 929b 54bd a071 243b 2e38 213d 513b 433d
00000020: 2606 463b 2b99 53bc 314e 22bd 5b2a b83b
00000030: 6f8d 82bd 19cb 90bd b96e ddbd 54ad 943c
00000040: c923 ba3d 614a 2e3e e217 35be b7c4 f5bd
00000050: 5c1a ab3b 1702 e33d 4244 f6bc e6fc 7abd
00000060: 373f 143d 01a5 6b3d 061e 843d cde1 d3bd
00000070: 86a4 11be 2ec2 28ba 2f74 a43c ea88 fd3d
00000080: c7a2 f4bd 0a5a 14bd 3eeb fbbd e552 d4bd
00000090: dc8f c5bd a3b4 f73c 6de3 23bb eace d53c
000000a0: 7ff2 033c 0e70 a1bc 80d8 973d ec67 d9bc
000000b0: 0b0e 9e3b d244 073d dabc b13d fa7b ce3d
000000c0: 997a aebb bd32 043d 3c0d 233e 9c42 fd3d
000000d0: 4247 0b3c 7878 55bd 4290 823d 2c97 5c3c
000000e0: 4bd5 113e cca8 b6bd 577d a8bd 20b1 29bb
000000f0: fdeb 463d 5574 fa3d d5f2 1cbe ceea 953c
00000100: 0f36 83be 0b09 1b3c fb2b 373e d73a 843b
00000110: 9305 8b3d d370 fb3d 7a5f 09be 9249 59bd
00000120: 0624 9e3c e842 c13d 56d4 cb3d fab8 46bc
00000130: 97ea b23d 71ff 08be eb39 cfbc 9a9b b4bd
00000140: 93f0 fabd 36c2 763d b8e8 de3d d0ee b0bd
00000150: 2e9c e03c eb0e 3ebc 4192 4d3d c004 0ebd
00000160: f3a3 f83c 291d 5cbd 9bae 2a3d eb4f 9f3d
00000170: 411e 9e3d f37f ae3d 3e4b 7dbd 70b1 38bd
00000180: 915a a43d 94b3 fb3d 9b23 b5bd bac5 acbd
00000190: 4ab1 1a3d 74f6 e23c 7f0c 50bd 2df9 44bd
000001a0: 74d5 a03b 9446 993b bcfc 23bd 5de7 c3bd
000001b0: 9a7d d3bc 4fde bf3d 3d27 9abc f89d 8a3c
000001c0: 21eb 42be d510 223e d04a c33d 5641 90bd
000001d0: 343e b9bd eeac bf3c 26a2 f33c 544a 34bd
000001e0: 8560 c63c 6e93 a13b e0b2 66ba f43d 063c
000001f0: 5e94 0fbe 49a4 8ebd e881 71bd c783 07be
00000200: 281e 2d3d 689f 44be 3cb8 2e3d 76e2 253c
00000210: b415 20bc 6dec 523d 7303 fc3d a94b 873c
00000220: 6627 c33c 76e0 533c 882c 203d b920 bb3d
00000230: 29f0 a13d aae6 a63d 181c 3d3e 7c55 ab3d
00000240: af05 f2bd ad78 2fbd 04d4 d83d 19b8 bbbd
00000250: d270 2a3d 1ddb f0bd 8a75 3abd 7c17 8cbd
00000260: 91ee 223c 099c 713c d228 ab3d fb64 f4bd
00000270: 68b1 7e3d b967 b2bd 4a74 7f3c 1f32 0ebd
00000280: 3d78 77bc e814 51bd 9f1c 95bd 78d2 9dbd
00000290: a0c3 8cbd fb1c 083d 27fe 0dbc 753a fc3d
000002a0: 5738 ffbc d95e e4bc 2fbd 8f3d ca8e 99bc
000002b0: ebfa 103e d873 453d 42bb 1cbe cf28 683d
000002c0: 5cf6 01bd f458 a9bc bcd7 be3d a17a a4bd
000002d0: 976c f5bb 3b3e 8cbd 2a9c f33c 23a8 793c
000002e0: 186c 083d 5010 c3bb d782 35bd 87d0 ec3b
000002f0: 7e0a a5bc 08de e83d c362 1f3e 9a19 173e
00000300: 953f 50be 181d 813c 431d 563d 00e3 d6be
00000310: 8b00 a13d 0812 5d3d 06c3 e23c 63d9 82be
00000320: 4b11 febc 4c05 953e c2e1 bc3d 0459 92bd
00000330: 3fd3 0bbe 57bd 693c da22 da3c eb3b b23d
00000340: 3675 403e 9cb6 a43d 1de7 29bd 3468 69be
00000350: b804 b4bc 8fb2 ddb9 6b71 cd3d 7e53 193e
00000360: 4d27 edbd f3e1 213d dd7e 2d3d 94d8 a8bd
00000370: d730 b13d 7074 8ebd a047 633d 6d6c c43d
00000380: 5abf b2bd d711 15bd c516 953c e74a 94bc
00000390: f975 85bc f17b 85bb f905 acbb 420e ba3b
000003a0: 2e37 213b 9b5c 8b3d 9d88 1a3d a5ef 96bd
000003b0: c456 b33a 3e62 9abd d7f7 403c 9d22 a93c
000003c0: 8422 673d cd8f a03d 371f 82bc b2f4 eebd
000003d0: 4714 653d d310 7dbd 152e ba3d 77b0 90bd
000003e0: b5ba d83d 39c1 98bd 9ec1 d83c a199 4b3d
000003f0: d386 3e3d 5156 d63d 3cc6 8bbd 94c5 87bc

weight_hh f4 [512, 128]
-0.08495799 -0.042205896 -0.054038595 0.0008756873 -0.06683778 -0.06852586 -0.033536687 -0.017336354
0.06720034 0.06889271 -0.0150679415 -0.03389985 0.056544103 -0.031313222 -0.06566619 0.09767015
0.07092856 0.022725463 0.044658266 -0.040825605 -0.027595785 0.07442347 0.11900714 0.041371994
0.08292893 -0.0005558622 -0.049901433 -0.010051926 -0.027027052 0.031493522 0.04486932 0.04389304
-0.06471981 -0.09339757 -0.0029833529 -0.087600246 0.054718368 -0.038435545 -0.025758661 0.0034480388
0.037943147 0.019851718 0.023277221 -0.00019940236 0.10840158 0.030926509 -0.015410721 0.10170191
-0.06505847 0.095312074 0.01866365 -0.015268236 -0.02860663 0.047430843 -0.09279053 0.031603877
0.02506382 -0.045652177 0.04171096 -0.04629397 -0.060608286 0.023799209 -0.11703259 0.03829406
-0.03816947 0.12227058 0.0068607857 0.053959582 -0.059970435 -0.09844489 -0.013616482 -0.016086599
-0.20022795 -0.032745298 0.019736348 0.01630684 -0.032120623 -0.06599671 -0.104050875 -0.0048842668
0.060060512 0.048981447 0.066340804 0.081808895 -0.005462225 0.17076546 -0.13082461 -0.08097114
0.043971565 0.17896488 -0.050521854 0.048225604 0.059549473 -0.064723134 -0.05917973 0.036744487
-0.054681674 -0.07681593 -0.070761636 -0.07753049 0.15714188 0.042298462 0.11015395 -0.03721759
-0.020901363 -0.037549414 0.05172773 0.09909261 0.080692984 -0.121272124 -0.022953324 0.058304526
-0.05212445 0.08384678 -0.06354096 0.029814016 -0.045593787 -0.0780532 0.04643669 -0.0048729386
-0.10065944 -0.011495034 0.0038203872 -0.0695332 -0.030740496 0.1026675 -0.087601446 0.13723639
-0.061087087 -0.014614213 -0.07221141 0.07589408 0.01402027 0.015625773 -0.019872412 0.057541315
0.12601455 -0.0014046625 -0.04540592 0.08223169 0.035000127 -0.11783617 -0.01921363 0.038452473
-0.052172627 0.03218488 0.049467932 -0.06269066 -0.05604295 -0.0052310657 -0.053082015 -0.09715489
0.080642596 0.012406638 0.03151162 -0.023127232 -0.086691014 0.027043346 -0.07893217 -0.021927437
-0.08856729 -0.042580638 0.048992056 -0.085648395 -0.024300644 0.056210633 -0.049870264 0.09380253
0.0016558535 -0.015297143 -0.012138236 -0.010626876 0.029536698 -0.04183421 0.028527759 0.0837245
-0.02491599 0.066644736 -0.0017835039 -0.11425588 0.041468155 0.118119426 -0.025430532 0.011828998
-0.010153046 0.04127965 -0.04373528 -0.074583516 -0.07801572 -0.08927774 0.05621741 -0.008645405
0.05154855 -0.10844185 0.028672207 -0.054460958 -0.1125416 0.10823616 -0.022586789 0.01791669
0.00018825641 0.025008975 0.05739016 -0.041626465 0.05356778 -0.005455321 0.076951414 0.06925468
-0.028186468 0.022631535 0.051687643 -0.07269457 -0.025048912 0.09151479 0.05057497 0.10925143
-0.041064676 0.117793374 -0.049981758 0.09652953 0.07952978 -0.023620248 0.05410856 -0.022053774
0.02719268 -0.034933183 -0.11867427 0.052136037 0.031204356 -0.039037872 -0.08680014 -0.13506183
0.022610644 0.058911093 -0.007611937 0.0017324409 0.033368666 -0.003783956 -0.0043163346 -0.051626053
-0.026396874 0.052939042 -0.11838996 0.005033465 0.014929278 -0.10962627 -0.028435426 0.06860019
-0.042719133 0.117446035 -0.07961072 -0.032797914 -0.032248538 0.03450532 -0.07581647 -0.011780522
00000000: 74fe adbd 17e0 2cbd 9357 5dbd 618e 653a
00000010: 3fe2 88bd 4957 8cbd c45d 09bd f804 8ebc
00000020: 55a0 893d 9f17 8d3d 87df 76bc 92da 0abd
00000030: ca9a 673d 4b42 00bd ff7b 86bd 4a07 c83d
00000040: fe42 913d c02a ba3c 96eb 363d c038 27bd
00000050: 8e10 e2bc 556b 983d 04ba f33d ae75 293d
00000060: a5d6 a93d 48b7 11ba 7265 4cbd d5b0 24bc
00000070: d667 ddbc 5aff 003d e4c8 373d 30c9 333d
00000080: d28b 84bd 3a47 bfbd 5b84 43bb c267 b3bd
00000090: 5e20 603d 976e 1dbd d403 d3bc 7ef8 613b
000000a0: 466a 1b3d 12a0 a23c dfaf be3c aa16 51b9
000000b0: a601 de3d 9759 fd3c 407d 7cbc 1749 d03d
000000c0: 603d 85bd fa32 c33d 83e4 983c a027 7abc
000000d0: 7458 eabc d846 423d f608 bebd 1173 013d
000000e0: a452 cd3c c7fd 3abd 1dd9 2a3d bf9e 3dbd
000000f0: 6540 78bd 8ff6 c23c c8ae efbd 3bda 1c3d
00000100: 9757 1cbd ff68 fa3d 71d0 e03b b904 5d3d
00000110: 8fa3 75bd 799d c9bd aa17 5fbc 0bc8 83bc
00000120: 8e08 4dbe ef1f 06bd 1fae a13c ec95 853c
00000130: ea90 03bd 4829 87bd a018 d5bd 330c a0bb
00000140: 0302 763d c5a0 483d b0dd 873d 6c8b a73d
00000150: 77fc b2bb 24dd 2e3e e3f6 05be 32d4 a5bd
00000160: 871b 343d 9242 373e 01f0 4ebd 3688 453d
00000170: 26ea 733d 908d 84bd 7266 72bd 6381 163d
00000180: e4f9 5fbd ac51 9dbd 7aeb 90bd 4ec8 9ebd
00000190: cde9 203e 2741 2d3d 6598 e13d 7971 18bd
000001a0: 5639 abbc 6acd 19bd 75e0 533d 11f1 ca3d
000001b0: 5d42 a53d 855d f8bd 9c08 bcbc bad0 6e3d
000001c0: 7380 55bd dcb7 ab3d c321 82bd 863c f43c
000001d0: 8dc0 3abd 5bda 9fbd 6634 3e3d 2cad 9fbb
000001e0: 8926 cebd ab55 3cbc 765f 7a3b 6c67 8ebd
000001f0: 7ed3 fbbc 5743 d23d 6368 b3bd b287 0c3e
00000200: 7436 7abd 7470 6fbc 93e3 93bd 5b6e 9b3d
00000210: 46b5 653c 9f01 803c 78cb a2bc 71b0 6b3d
00000220: f509 013e a71c b8ba 8ffb 39bd 1769 a83d
00000230: 4b5c 0f3d 1754 f1bd e765 9dbc 5780 1d3d
00000240: f7b2 55bd 4bd4 033d e39e 4a3d f663 80bd
00000250: 4b8d 65bd 5c69 abbb 876c 59bd 25f9 c6bd
00000260: f227 a53d 3645 4b3c 5412 013d 5275 bdbc
00000270: 0f8b b1bd 028a dd3c 31a7 a1bd 2ba1 b3bc
00000280: c462 b5bd 0969 2ebd e5ab 483d 6d68 afbd
00000290: 2512 c7bc 1f3d 663d c344 4cbd 8a1b c03d
000002a0: 3909 d93a dea0 7abc 74df 46bc 591c 2ebc
000002b0: f2f6 f13c 595a 2bbd 0cb3 e93c c077 ab3d
000002c0: 9e1c ccbc 097d 883d 76c4 e9ba fdfe e9bd
000002d0: 83da 293d 99e8 f13d b153 d0bc 6ace 413c
000002e0: f658 26bc da14 293d c423 33bd 3ebf 98bd
000002f0: b5c6 9fbd 3fd7 b6bd 3a44 663d 75a5 0dbc
00000300: 9324 533d c316 debd fae1 ea3c 7412 5fbd
00000310: 367c e6bd ebaa dd3d ee07 b9bc 06c6 923c
00000320: b266 4539 9fdf cc3c f211 6b3d 8380 2abd
00000330: e369 5b3d 8dc2 b2bb b498 9d3d 66d5 8d3d
00000340: 4fe7 e6bc c565 b93c 6cb6 533d e4e0 94bd
00000350: 6033 cdbc 1b6c bb3d b327 4f3d 37bf df3d
00000360: 6f33 28bd a73d f13d acb9 4cbd 46b1 c53d
00000370: 82e0 a23d 407f c1bc f0a0 5d3d 1eaa b4bc
00000380: 2fc3 de3c 1916 0fbd 7f0b f3bd 998c 553d
00000390: 47a0 ff3c 2de6 1fbd 46c4 b1bd a64d 0abe
000003a0: f539 b93c c24c 713d 8e6d f9bb 1213 e33a
000003b0: 95ad 083d 3ffc 77bb 0a70 8dbb d775 53bd
000003c0: 423e d8bc 9cd6 583d 6f76 f2bd c4ef a43b
000003d0: ee99 743c bd83 e0bd 69f1 e8bc 427e 8c3d
000003e0: 42fa 2ebd 8c87 f03d f20a a3bd 1b57 06bd
000003f0: 0b17 04bd 7355 0d3d aa45 9bbd 1703 41bc

bias_ih f4 [512]
0.1288959 0.12645338 0.042547558 -0.026816465 0.119228944 0.09193174 0.058702234 0.14706452
0.05874808 0.06920655 0.041877717 0.07110595 0.13871354 0.06284128 -0.01810846 0.055782918
0.022582518 0.025225842 0.07352938 0.015018159 0.104303196 0.04414837 0.121437564 0.10088412
0.0037386394 0.088599175 0.019918116 0.09457116 0.12888628 0.09089125 0.015054396 0.059507873
-0.013730963 -0.027558465 0.08968296 0.03847202 0.14811862 0.08618138 0.07141937 0.062432267
0.07954831 0.018581405 0.0073291757 0.07179403 0.12746677 0.14578913 0.02011598 0.0783761
-0.033791926 0.14666857 0.07128227 0.07297215 0.03700506 0.07792307 0.08565855 0.1537346
0.07299557 0.22258943 0.12829235 0.13334292 0.18472925 0.089979745 0.11324796 0.08483047
-0.0012944628 0.15580457 0.064478934 0.037436534 0.13149095 0.041730233 0.069996044 0.14800777
0.14030872 0.16148378 0.13566688 0.092028335 0.19935943 0.08629022 0.021316487 0.061524343
0.052488334 0.079182215 0.07214707 -0.020719383 0.04194338 0.011698813 -0.020193098 0.104648165
0.065484926 0.15700628 0.0657938 0.008948363 -0.0003539816 0.051963076 0.010351906 0.06002924
-0.029363526 0.09189019 0.120439366 -0.014277849 0.07653072 0.0019482416 0.0668964 0.03219703
0.23527554 -0.0012136154 0.11433859 0.1069858 0.008986024 -0.020719191 0.03151087 0.07757473
0.15446582 0.051069774 0.13906899 0.0686363 0.11898949 0.15520956 0.12864842 0.006958987
0.13400912 0.10054212 -0.01867008 0.12516122 0.12819934 0.103934996 0.039262407 0.039613698
0.11798025 0.08567347 -0.043189824 -0.000672198 -0.008728593 0.056501262 -0.08245145 0.12057332
0.00083181926 -0.08447287 0.058922756 0.06450601 -0.11061789 -0.08922121 0.02919589 -0.010106509
-0.05294069 -0.019247111 -0.05756112 -6.9467314e-05 -0.018205907 0.019603455 -0.03811705 0.06350266
-0.0055576214 -0.0010766623 0.03655148 0.054854028 0.044556614 -0.015256294 -0.04299723 0.059518576
-0.0353944 0.10642655 -0.025442367 0.08237843 0.0023263532 -0.054394532 0.016211096 -0.024825523
0.033995345 -0.033514734 0.06686861 0.00015255087 -0.057408467 0.03379646 -0.0052821916 -0.007384014
-0.033906188 0.029164635 0.02480972 -0.0007199341 -0.089466915 0.07522102 -0.015563451 0.012035205
-0.07307014 0.019204127 -0.030978052 -0.0242632 0.10733629 0.04186005 0.12084918 -0.075683445
0.15333492 -0.007406918 -0.04938039 0.13639224 -0.04725688 -0.011831887 -0.031266496 0.017755087
-0.053097326 -0.029903574 -0.06747761 -0.032393638 -0.026609235 -0.04354753 0.04478615 0.04200562
0.032136288 -0.012471401 -0.06416351 -0.04812109 0.021884967 0.01587222 -0.02192198 0.075080045
-0.058691744 0.022611463 0.065804735 0.0591702 -0.010743317 0.027297484 -0.04489004 0.058520794
-0.1057159 -0.075470865 0.036791746 0.024484562 -0.03069662 0.0022245105 0.07420715 -0.003167261
-0.054186363 0.059072826 0.004369718 0.029294476 0.040505644 0.039127406 -0.07389648 -0.011422098
0.05549076 0.0010850248 0.011511562 -0.096436575 -0.014656934 0.033036757 -0.034215663 0.012134065
0.06581714 -0.09149117 -0.03164714 -0.045549233 0.010069787 -0.03435409 -0.057196964 -0.037019894
00000000: 49fd 033e ff7c 013e 5946 2e3d 34ae dbbc
00000010: 4e2e f43d b546 bc3d c171 703d 1598 163e
00000020: d4a1 703d 2abc 8d3d f887 2b3d ff9f 913d
00000030: ec0a 0e3e eeb2 803d 3158 94bc a17c 643d
00000040: f9fe b83c 6da6 ce3c 9296 963d b90e 763c
00000050: ea9c d53d ecd4 343d 42b4 f83d 559c ce3d
00000060: f603 753b 7c73 b53d 512b a33c 86ae c13d
00000070: c4fa 033e 3125 ba3d b7a6 763c 87be 733d
00000080: d5f7 60bc 4ac2 e1bc b3ab b73d d694 1d3d
00000090: 68ac 173e dd7f b03d 5244 923d fab8 7f3d
000000a0: 39ea a23d 0838 983c 9529 f03b c008 933d
000000b0: a686 023e bf49 153e 45ca a43c a683 a03d
000000c0: 6769 0abd 4930 163e 70fc 913d 6c72 953d
000000d0: 9e92 173d 2196 9f3d c06d af3d 9a6c 1d3e
000000e0: b47e 953d 7cee 633e 125f 033e 0c8b 083e
000000f0: aa29 3d3e 4d47 b83d 8cee e73d 99bb ad3d
00000100: f7aa a9ba 3c8b 1f3e 880d 843d 0d57 193d
00000110: 90a5 063e 52ed 2a3d 165a 8f3d 598f 173e
00000120: 17ad 0f3e 015c 253e 42ec 0a3e 5a79 bc3d
00000130: e124 4c3e edb8 b03d ea9f ae3c f300 7c3d
00000140: 02fe 563d 492a a23d d8c1 933d b2bb a9bc
00000150: d2cc 2b3d 61ac 3f3c ff6b a5bc c751 d63d
00000160: f61c 863d 41c6 203e e6be 863d 289c 123c
00000170: 9b96 b9b9 3cd7 543d 0a9b 293c 38e1 753d
00000180: c78b f0bc ed30 bc3d eaa8 f63d a4ed 69bc
00000190: 23bc 9c3d 245c ff3a fb00 893d 08e1 033d
000001a0: 12ec 703e 2d12 9fba 5a2a ea3d 5f1b db3d
000001b0: 1e3a 133c 4bbb a9bc 8b11 013d 80df 9e3d
000001c0: 4a2c 1e3e 8a2e 513d 1a68 0e3e 3091 8c3d
000001d0: c3b0 f33d 41ef 1e3e 69bc 033e 3708 e43b
000001e0: b039 093e 07e9 cd3d fff1 98bc 432a 003e
000001f0: b046 033e dfdb d43d 9ed1 203d f941 223d
00000200: a19f f13d 9275 af3d d0e7 30bd 7236 30ba
00000210: 5f02 0fbc de6d 673d 4edc a8bd 25ef f63d
00000220: 720e 5a3a 1d00 adbd fd58 713d ba1b 843d
00000230: a28b e2bd 9cb9 b6bd 382c ef3c c595 25bc
00000240: 56d8 58bd 1eac 9dbc 35c5 6bbd fbae 91b8
00000250: 8e24 95bc 6d97 a03c a020 1cbd af0d 823d
00000260: b51c b6bb cb1e 8dba 01b7 153d 9eae 603d
00000270: ff80 363d 89f5 79bc dd1d 30bd c0c9 733d
00000280: b8f9 10bd 2af6 d93d 836c d0bc 06b6 a83d
00000290: bb75 183b cdcc 5ebd 22cd 843c e55e cbbc
000002a0: b43e 0b3d bf46 09bd 69f2 883d 10f6 1f39
000002b0: 2425 6bbd 286e 0a3d 3c16 adbb 99f5 f1bb
000002c0: 37e1 0abd acea ee3c c13d cb3c f6b9 3cba
000002d0: 6e3a b7bd 7a0d 9a3d d8fd 7ebc 4f2f 453c
000002e0: cca5 95bd f951 9d3c afc5 fdbc 9ec3 c6bc
000002f0: 21d3 db3d 7275 2b3d c67f f73d ecff 9abd
00000300: d403 1d3e bbb5 f2bb 1843 4abd 68aa 0b3e
00000310: 6e90 41bd 88da 41bc 4c11 00bd 1e73 913c
00000320: 957c 59bd 57f8 f4bc b431 8abd 31af 04bd
00000330: 9cfb d9bc e55e 32bd af71 373d 160e 2c3d
00000340: 57a1 033d d954 4cbc 2968 83bd 9f1a 45bd
00000350: 1a48 b33c 7506 823c b995 b3bc 91c3 993d
00000360: c166 70bd ad3b b93c a2c4 863d 745c 723d
00000370: bd04 30bc f99e df3c 9ede 37bd 80b3 6f3d
00000380: 9481 d8bd 7890 9abd f1b2 163d d993 c83c
00000390: 7a77 fbbc 18c9 113b ebf9 973d d291 4fbb
000003a0: 85f2 5dbd 59f6 713d da2f 8f3b f8fa ef3c
000003b0: 3fe9 253d 0f44 203d 0a57 97bd c023 3bbc
000003c0: 474a 633d 6437 8e3a fe9a 3c3c 8a80 c5bd
000003d0: a323 70bc 8d51 073d b925 0cbd f5cd 463c
000003e0: 23cb 863d b95f bbbd 6ea0 01bd d591 3abd
000003f0: bffb 243c e0b6 0cbd 5d47 6abd 2ca2 17bd

bias_hh f4 [512]
0.05872001 0.03765519 0.13937585 -0.00044052376 0.100887656 0.07502269 0.08372288 0.14275996
0.041408025 0.12355502 0.12830524 0.13091236 0.063650735 0.0020920888 0.08482387 0.0752639
-0.010002419 0.082197264 -0.04869637 0.1590411 0.13024466 0.08535121 0.09912539 0.10066
0.03357721 0.1440436 0.008010657 0.047521364 0.07171754 0.18112825 0.06446781 0.07848785
0.10812366 0.02208291 -0.01729986 0.07507788 -0.018142436 0.03289886 0.14445658 -0.06325088
0.16946757 -0.008112057 0.11141272 0.0710984 0.08767282 0.099035844 0.065312654 -0.022021774
0.035549358 0.1755815 0.14475855 -0.019734308 0.12363857 -0.0055955807 0.1605093 0.19669467
0.11758411 0.1629602 0.09561745 0.062186435 0.19107822 0.144622 0.04639396 0.12007699
0.0018605421 0.07432501 -0.02844386 0.06336874 0.16295674 0.08888145 0.13684863 0.15773107
0.08102472 0.1701776 0.059928384 0.060624827 0.1641718 0.12699945 0.17351186 0.03362957
0.13625123 0.0016541056 0.18175346 0.08997301 0.16011567 0.12583145 -0.0034838172 0.048377488
0.023006123 0.12417529 0.12142247 0.12966181 0.007838116 0.05003666 0.055053283 -0.0008134642
0.078567386 0.013262353 0.17275655 0.12367134 0.023296602 0.09600323 0.03457391 0.07946195
0.28595933 0.020572918 0.00013180153 -0.04232069 -0.027257869 0.09084618 0.030565288 0.0012581369
0.10653582 -0.0068230126 -0.002140421 0.13017456 -0.041364316 0.098936506 0.17625675 0.014882785
0.12189906 0.012215238 0.14118503 0.02214449 0.17057872 0.010175405 0.09595379 0.051391903
-0.034451537 -0.008345454 -0.0018404216 -0.07361771 0.015454988 0.09274504 0.02123721 0.11096917
0.03555469 -0.082657374 0.058267478 0.04713968 -0.028455922 -0.010714611 -0.019697808 -0.013246612
0.050686225 0.038575117 0.061593264 0.103388734 0.041388977 -0.025096698 -0.09924998 0.0023195727
0.13158293 0.0017194039 0.021905802 0.0017340693 -0.0318827 0.11755057 -0.033815194 0.02100122
-0.012319541 0.097451076 0.03622609 0.0031294348 0.024269793 -0.07606249 -0.015026518 0.08354454
0.04713929 0.09372158 -0.07037761 0.093259394 0.032546654 -0.07051288 0.028151505 0.035774633
-0.03095027 0.027182817 -0.08353653 -0.014287258 -0.050629534 0.058993228 -0.09703092 -0.0026010028
-0.09329866 0.052686073 0.0084389085 -0.06334027 0.0680894 -0.058960624 0.033381395 0.028492946
0.09229067 0.045958877 -0.064965725 0.12657501 -0.028401757 0.05775319 -0.039220694 0.02674573
-0.07390616 -0.060015388 -0.07961044 -0.020868853 0.0031007573 0.04098733 -0.06232178 -0.024703233
-0.048621308 0.008380243 0.058034603 -0.008111869 0.03380484 0.04580513 -0.025555076 -0.014271188
-0.022242434 0.03632232 0.0297236 0.103826806 0.111472905 0.06063286 0.11762637 0.039819438
-0.015180825 0.0365122 -0.00018485692 0.10804234 -0.029143965 -0.012962619 0.077933274 -0.011323669
0.03734867 0.043061245 0.10456627 -0.013711725 0.059450265 -0.04348718 -0.016626261 -0.05341404
-0.054473113 -0.022269286 -0.12663244 0.021268994 0.067485675 -0.009778078 -0.053313453 0.0058351057
0.042648867 0.029696228 -0.0015388177 -0.04425038 -0.020410545 0.011414706 0.10297903 -0.11035553
00000000: 6584 703d 543c 1a3d 8bb8 0e3e 19f6 e6b9
00000010: 309e ce3d 7fa5 993d e776 ab3d ab2f 123e
00000020: 769b 293d 6a0a fd3d 7362 033e e40d 063e
00000030: 515b 823d 6d1b 093b 23b8 ad3d f623 9a3d
00000040: 30e1 23bc 0a57 a83d d875 47bd acdb 223e
00000050: db5e 053e 9dcc ae3d 4102 cb3d d526 ce3d
00000060: 4288 093d 2a80 133e 213f 033c c3a5 423d
00000070: a5e0 923d af79 393e b307 843d 3dbe a03d
00000080: f06f dd3d 38e7 b43c 70b8 8dbc 6ec2 993d
00000090: 729f 94bc f4c0 063d 6dec 133e ad89 81bd
000000a0: e888 2d3e 6fe8 04bc 5a2c e43d 0a9c 913d
000000b0: cf8d b33d 4ed3 ca3d a4c2 853d 0267 b4bc
000000c0: 349c 113d a3cb 333e 963b 143e d8a9 a1bc
000000d0: 3836 fd3d 225b b7bb 8d5c 243e 546a 493e
000000e0: f0cf f03d 0adf 263e 15d3 c33d 34b7 7e3d
000000f0: 02aa 433e ca17 143e 9807 3e3d edea f53d
00000100: 6fdd f33a b637 983d 1903 e9bc 78c7 813d
00000110: 22de 263e 7a07 b63d 0c22 0c3e 4184 213e
00000120: 4af0 a53d 0943 2e3e 7777 753d bd51 783d
00000130: a71c 283e 250c 023e 18ad 313e 29bf 093d
00000140: 7185 0b3e 93ce d83a 941d 3a3e c543 b83d
00000150: 5df5 233e f6d9 003e c150 64bb 7927 463d
00000160: 5677 bc3c 9d4f fe3d 58ac f83d 11c6 043e
00000170: 716b 003c 3ef3 4c3d 8d7f 613d a93e 55ba
00000180: f0e7 a03d 574a 593c 18e7 303e 6647 fd3d
00000190: 84d8 be3c 579d c43d 5f9d 0d3d f2bc a23d
000001a0: 4369 923e 8988 a83c 3434 0a39 7658 2dbd
000001b0: e54b dfbc 900d ba3d 0e64 fa3c 12e8 a43a
000001c0: 742f da3d 9493 dfbb 4e46 0cbb 7b4c 053e
000001d0: a16d 29bd 399f ca3d a67c 343e edd6 733c
000001e0: 37a6 f93d 6c22 483c cf92 103e 5d68 b53c
000001f0: 30ac 2e3e beb6 263c 6c83 c43d 5180 523d
00000200: 0e1d 0dbd 5fbb 08bc 4d3a f1ba e2c4 96bd
00000210: eb36 7d3c 1df1 bd3d a8f9 ad3c ce43 e33d
00000220: cba1 113d 4548 a9bd e1a9 6e3d 8915 413d
00000230: 651c e9bc 568c 2fbc 4c5d a1bc 5108 59bc
00000240: 5c9c 4f3d f100 1e3d 3849 7c3d 79bd d33d
00000250: 7d87 293d 9797 cdbc 9343 cbbd f903 183b
00000260: adbd 063e 9f5d e13a cc73 b33c b649 e33a
00000270: 6f97 02bd 5abe f03d cd81 0abd c00a ac3c
00000280: e6d7 49bc 6e94 c73d cf61 143d 3417 4d3b
00000290: 72d1 c63c a7c6 9bbd c931 76bc 6619 ab3d
000002a0: 2115 413d 1af1 bf3d 2322 90bd c8fe be3d
000002b0: a44f 053d 0f69 90bd fc9d e63c 6c88 123d
000002c0: 6c8b fdbc 80ae de3c 3315 abbd 1a15 6abc
000002d0: ea60 4fbd e2a2 713d 26b8 c6bd 9675 2abb
000002e0: 5e13 bfbd 5acd 573d 5943 0a3c 8bb8 81bd
000002f0: 7572 8b3d b280 71bd eeba 083d 0a6a e93c
00000300: e402 bd3d 603f 3c3d c00c 85bd e19c 013e
00000310: cdaa e8bc 9c8e 6c3d e1a5 20bd dc19 db3c
00000320: 1d5c 97bd b2d2 75bd cc0a a3bd 28f5 aabc
00000330: 1336 4b3b 55e2 273d 1f45 7fbd 6f5e cabc
00000340: 2327 47bd 494d 093c b1b5 6d3d a5e7 04bc
00000350: f276 0a3d 299e 3b3d e158 d1bc b3d1 69bc
00000360: c435 b6bc b7c6 143d e87e f33c 26a3 d43d
00000370: e84b e43d 295a 783d 18e6 f03d b519 233d
00000380: ffb8 78bc d18d 153d 27d6 41b9 4d45 dd3d
00000390: 53bf eebc 2a61 54bc 7b9b 9f3d e986 39bc
000003a0: ebfa 183d fd60 303d d726 d63d 25a7 60bc
000003b0: 1f82 733d 9d1f 32bd cc33 88bc aec8 5abd
000003c0: 331f 5fbd 146e b6bc efab 01be 503c ae3c
000003d0: ee35 8a3d 3b34 20bc 355f 5abd 6a34 bf3b
000003e0: 94b0 2e3d 8145 f33c 27b2 c9ba e33f 35bd
000003f0: 0434 a7bc bf04 3b3c abe6 d23d 1502 e2bd

weight_ih f4 [512, 128]
-0.05502176 -0.046847753 -0.0372051 -0.050631728 0.0120993275 0.06746907 0.018883267 0.026866646
-0.010908125 -0.031259462 -0.046241246 0.01837561 0.092783175 0.03275983 -0.021833427 0.092421025
-0.011376504 0.11820561 0.009567725 -0.07392831 0.05900978 -0.060368624 -0.022465313 0.05662733
0.01053618 -0.12090994 -0.026141351 0.059474315 -0.063378036 0.005433618 -0.06998807 0.043203805
-0.018964212 0.060584556 -0.024377536 -0.0002956273 0.05614884 0.039746188 0.055668678 0.02128958
-0.04429899 0.049297154 0.05940158 0.10210586 0.0112262005 0.06587018 -0.0970302 0.08607088
-0.008333705 0.10758496 0.030551054 -0.10632947 -0.057531513 0.00078492035 0.005120283 -0.019655718
0.07034855 -0.068266094 -0.03210173 -0.012025071 0.05409099 -0.051153187 -0.028936699 0.06934584
-0.026325814 -0.08771304 -0.116371125 0.03963142 -0.054652825 0.03672326 0.020490611 0.08063529
0.102666624 0.047470257 0.014092575 0.06730829 0.029211976 0.0026921409 -0.0025670647 0.10922332
-0.07244186 0.06416271 -0.023420822 -0.035579056 -0.042704962 0.111008234 -0.06479625 -0.00547516
-0.01112088 -0.0879645 -0.09663811 0.040018685 0.025869798 -0.119088076 -0.00030580212 -0.04131382
-0.027685266 -0.07333303 -0.052802585 -0.024886357 0.060879633 -0.02697807 0.042507544 -0.034866754
0.05368659 -0.050826438 -0.029904567 0.069289505 0.04356168 0.064924106 -0.05860832 0.01409678
-0.09228798 -0.015344647 -0.07797336 0.10482901 0.09136457 -0.056325607 0.00605005 0.032432463
-0.078732945 0.09367708 -0.12677197 0.025236467 -0.045713075 0.012342055 -0.00248698 -0.001516875
0.10342082 0.14980705 -0.022995286 0.0033311006 -0.04842342 0.09985217 0.031823725 -0.04907614
0.06795823 0.03181046 -0.079906225 0.10223868 0.028530564 0.06790744 -0.053088937 -0.055646762
-0.0013529197 -0.02551894 -0.071422726 -0.007902105 0.07839968 0.005331487 -0.008624456 0.058433536
-0.12687428 0.031659283 0.013437398 -0.061502002 0.020458216 0.034787938 0.08975664 0.028903097
0.02437971 0.0047306186 0.1680217 0.070019335 -0.057748396 -0.0806284 -0.0015372194 -0.03704656
0.044792492 -0.06421934 0.06672795 0.096648075 0.13324538 -0.022743449 -0.021119695 -0.041906256
0.010746229 0.03852876 -0.026857154 -0.029967649 0.05740845 0.07575945 -0.009701578 -0.021369584
0.10147834 -0.0068160566 0.032317363 -0.0025725188 -0.030525256 -0.21726075 0.03068575 0.026490023
-0.120344415 0.14383224 -0.08562519 0.0076431744 0.063778065 0.0024762063 0.055143114 0.032496292
-0.049645565 0.007842126 -0.040468886 0.09972757 0.1358794 0.01652445 -0.11208898 -0.066498056
-0.046479546 0.022830518 -0.13659367 0.12353322 -0.11564081 0.09765989 0.02665851 -0.19990936
-0.013076917 0.03755394 0.08816956 -0.06669355 0.08166865 0.036989264 0.15358217 -0.086427785
-0.07910416 -0.035066392 -0.008227037 -0.08889482 0.04734328 -0.119018994 0.18282808 -0.0042941715
-0.02027489 -0.05862846 0.111019775 -0.09507896 0.033238146 -0.0397238 0.0020805805 0.030537706
0.07184895 -0.09444083 -0.0067918818 0.09887353 0.07691902 0.0014889677 0.06500853 -0.10786852
0.11772928 -0.21320362 0.014910674 0.17429322 -0.04913032 -0.022006903 -0.0044345153 0.030285727
00000000: 7f5e 61bd 6ee3 3fbd 6064 18bd 3763 4fbd
00000010: 423c 463c 392d 8a3d 15b1 9a3c 7117 dc3c
00000020: feb7 32bc ec09 00bd 7667 3dbd 7288 963c
00000030: 1b05 be3d 2c2f 063d 04dc b2bc 3c47 bd3d
00000040: 8464 3abc c815 f23d f2c1 1c3c ba67 97bd
00000050: 3db4 713d 1745 77bd 2d09 b8bc 0ff2 673d
00000060: f19f 2c3c a19f f7bd 6326 d6bc 579b 733d
00000070: 58cc 81bd 7e0c b23b e855 8fbd 79f6 303d
00000080: d65a 9bbc 8327 783d 66b3 c7bc 6dfe 9ab9
00000090: 53fc 653d e6cc 223d d704 643d 7c67 ae3c
000000a0: dc72 35bd d0eb 493d 124f 733d e11c d13d
000000b0: 19ee 373c f2e6 863d c5b7 c6bd ee45 b03d
000000c0: 188a 08bc 8155 dc3d 3446 fa3c 44c3 d9bd
000000d0: 2aa6 6bbd 1dc3 4d3a 0cc8 a73b 0705 a1bc
000000e0: e712 903d 18cf 8bbd 1b7d 03bd ce04 45bc
000000f0: 848e 5d3d 0186 51bd a80c edbc 3105 8e3d
00000100: 3ca9 d7bc e5a2 b3bd fc53 eebd 8e54 223d
00000110: a4db 5fbd 216b 163d eddb a73c 1d24 a53d
00000120: e142 d23d 2c70 423d 8be4 663c eed8 893d
00000130: f44d ef3c a16e 303b 333c 28bb 7ab0 df3d
00000140: 665c 94bd bd67 833d 06dd bfbc 58bb 11bd
00000150: 66eb 2ebd 4958 e33d e5b3 84bd f968 b3bb
00000160: 5a34 36bc bb26 b4bd 34ea c5bd a2ea 233d
00000170: e6ec d33c 73e4 f3bd 1154 a0b9 ae38 29bd
00000180: 36cc e2bc a12f 96bd 8647 58bd 79de cbbc
00000190: ec5c 793d 1d01 ddbc 641c 2e3d 71d0 0ebd
000001a0: 78e6 5b3d 622f 50bd 6cfa f4bc a8e7 8d3d
000001b0: bb6d 323d eef6 843d 470f 70bd 2ef6 663c
000001c0: 7b01 bdbd 1d68 7bbc 7fb0 9fbd 98b0 d63d
000001d0: 591d bb3d aeb5 66bd 7f3f c63b e7d7 043d
000001e0: bd3e a1bd c5d9 bf3d 83d0 01be b5bc ce3c
000001f0: a23d 3bbd 5536 4a3c 9afc 22bb e1d1 c6ba
00000200: 4bce d33d 0567 193e 9c60 bcbc 984e 5a3b
00000210: a357 46bd 4b7f cc3d 9859 023d 1004 49bd
00000220: af2d 8b3d af4b 023d e0a5 a3bd 8362 d13d
00000230: eeb8 e93c 0e13 8b3d c973 59bd dced 63bd
00000240: 7454 b1ba 190d d1bc 1446 92bd d577 01bc
00000250: 0390 a03d c1b3 ae3b 974d 0dbc 0158 6f3d
00000260: 55eb 01be 2aad 013d 8828 5c3c 86e9 7bbd
00000270: fd97 a73c cc7d 0e3d 54d2 b73d 30c6 ec3c
00000280: f5b7 c73c 4e03 9b3b e10d 2c3e 4c66 8f3d
00000290: 9589 6cbd 8120 a5bd 867c c9ba 22be 17bd
000002a0: 5578 373d 6e85 83bd aaa8 883d 6def c53d
000002b0: 7a71 083e 7850 babc 3603 adbc e5a5 2bbd
000002c0: f410 303c 55d0 1d3d 8903 dcbc b77e f5bc
000002d0: 1f25 6b3d c527 9b3d 5ef3 1ebc 440f afbc
000002e0: e0d3 cf3d 3a59 dfbb 365f 043d b497 28bb
000002f0: 1a10 fabc 9a79 5ebe af60 fb3c 9b01 d93c
00000300: 2277 f6bd c248 133e 425c afbd 9873 fa3b
00000310: 139e 823d d947 223b bfdd 613d d51a 053d
00000320: 2659 4bbd 437c 003c b4c2 25bd f83d cc3d
00000330: f823 0b3e 495e 873c e88e e5bd 2230 88bd
00000340: 5661 3ebd 1107 bb3c 36df 0bbe fcfe fc3d
00000350: 17d5 ecbd e901 c83d f362 da3c 0ab5 4cbe
00000360: 9140 56bc 29d2 193d 3e92 b43d a196 88bd
00000370: e541 a73d 0e82 173d a544 1d3e 0d01 b1bd
00000380: 5d01 a2bd c7a1 0fbd b2ca 06bc 7d0e b6bd
00000390: 07eb 413d 3bc0 f3bd 4937 3b3e 1fb6 8cbb
000003a0: 8717 a6bc 6524 70bd 565e e33d c2b8 c2bd
000003b0: b924 083d 6cb5 22bd 595a 083b 362a fa3c
000003c0: 8b25 933d 326a c1bd 6f8e debb 357e ca3d
000003d0: b887 9d3d 7729 c33a 3123 853d 2cea dcbd
000003e0: 0c1c f13d 0d52 5abe e64b 743c ec79 323e
000003f0: e03c 49bd d247 b4bc 694f 91bb c619 f83c

weight_hh f4 [512, 128]
-0.014172332 -0.11459245 0.012600415 -0.0892242 -0.0021626505 -0.10769806 0.04888827 0.0023259355
0.030092182 0.08077964 -0.041311506 0.036023263 -0.09350218 -0.06186349 0.0616175 -0.10138272
-0.03886639 0.10846408 -0.11158983 -0.041623246 -0.12279195 -0.020385128 0.063281976 -0.034139622
-0.039590348 0.118055634 0.060515873 -0.035281766 -0.036718175 0.047984276 -0.05644119 0.0762438
0.070770696 -0.08831394 0.002440478 -0.052541003 -0.09055149 -0.0024279724 -0.039394777 0.019475166
-0.06690562 0.055370647 0.054608192 -0.023151621 0.0019122028 0.029061887 0.063566275 -0.011542614
0.08667358 -0.09147555 -0.0028181358 -0.029464036 0.089300945 -0.06700863 -0.03048237 0.039909117
-0.08297697 -0.042305328 0.07710311 0.06255619 0.10940309 -0.0359118 0.06438358 0.035419874
0.099951975 -0.07523655 0.037897605 -0.023912707 0.043341305 0.03956433 -0.039092027 0.0023497168
0.08352425 0.027939884 0.02709839 -0.06644702 -0.09595425 0.07559798 0.078678235 0.08108043
-0.059746098 -0.070921205 0.09697186 -0.068070956 0.04347834 -0.01237797 -0.023776313 -0.019817514
0.11219439 -0.019844502 0.0016618135 0.032351892 -0.033866663 -0.023762353 -0.026315572 -0.100922294
0.015009724 0.069717355 0.038293242 0.07867111 -0.023376117 -0.027181342 -0.024291296 -0.042769957
0.053650733 -0.034456976 0.091758184 -0.11179551 0.03602265 0.086329006 -0.060408503 0.08596875
0.07473882 0.008531896 0.045256708 0.011508522 -0.035204805 -0.049000416 -0.060256787 0.05582533
0.020152446 0.016116561 -0.019939143 0.054262046 -0.035925906 -0.010951778 0.0052197287 0.02028702
0.13993533 -0.023612756 -0.1631145 0.05974615 0.13878499 0.14560358 0.003282982 0.04063621
-0.12871039 -0.09778871 0.03515815 -0.1322615 -0.03720858 0.102367684 -0.05888335 0.023500506
0.07289447 0.14471637 0.04455322 0.10213238 0.14994915 -0.07995867 -0.07701345 -0.07023708
-0.08671623 0.11826173 0.02808365 0.1500005 0.123512626 0.06956463 -0.008871857 0.11456837
-0.023046598 0.019219184 0.0032173533 -0.09366858 -0.00029003763 0.07804695 -0.049858578 -0.05257565
-0.04463321 0.18721946 -0.13527684 -0.0122957975 0.14302598 -0.121491686 -0.09323655 -0.058434833
-0.050783508 0.026542002 -0.027854303 -0.002465353 -0.022725344 -0.06922215 -0.14805621 0.002934708
0.12967281 -0.027400479 -0.06943496 -0.025522482 -0.054545306 0.07008364 0.07198588 0.07963153
-0.0073060226 0.035224706 0.084370986 -0.104117595 -0.033402685 0.13202898 0.039589692 -0.073392145
0.055104643 0.0099805845 -0.032975607 0.053190503 0.0124268355 -0.15306918 -0.10652578 -0.027686223
0.046218846 -0.105576664 0.013570774 0.008514973 0.08860948 0.12688956 0.12533282 -0.10482215
0.023508659 -0.030609772 0.12619747 -0.015484568 -0.08074416 -0.11049698 -0.04148009 -0.15406673
-0.119901754 -0.030051092 0.11845961 0.09795183 -0.04793274 -0.00146831 0.120245874 -0.119550034
0.012091823 -0.10617611 -0.11098095 -0.11471286 0.031074857 -0.06711657 0.09135903 -0.07198815
0.12593096 0.010863128 -0.11495967 -0.005751798 0.020998256 0.13854049 0.20143557 0.048207153
0.0068851546 -0.16396327 0.025128972 0.0870259 0.1791046 -0.03530048 0.011304145 0.12345077
00000000: 1233 68bc 72af eabd f971 4e3c 2dbb b6bd
00000010: 41bb 0dbb cd90 dcbd 113f 483d b96e 183b
00000020: e183 f63c cc6f a53d 4136 29bd 218d 133d
00000030: 127e bfbd 9264 7dbd a262 7c3d bea1 cfbd
00000040: 5d32 1fbd 6a22 de3d 3589 e4bd 237d 2abd
00000050: 597a fbbd b6fe a6bc fb99 813d fdd5 0bbd
00000060: 7d29 22bd 27c7 f13d 7edf 773d 9d83 10bd
00000070: cc65 16bd 298b 443d e12e 67bd b625 9c3d
00000080: 3af0 903d f0dd b4bd 6df0 1f3b 3c35 57bd
00000090: 0f73 b9bd 9e1e 1fbb 6b5c 21bd 628a 9f3c
000000a0: d005 89bd 55cc 623d d7ac 5f3d 78a8 bdbc
000000b0: e1a2 fa3a 3213 ee3c 092f 823d 3b1d 3dbc
000000c0: eb81 b13d 8857 bbbd 79b0 38bb 905e f1bc
000000d0: 6ae3 b63d d23b 89bd 2ab6 f9bc be77 233d
000000e0: d4ef a9bd 5a48 2dbd 3ce8 9d3d 761d 803d
000000f0: ba0e e03d 4018 13bd 8adb 833d 6e14 113d
00000100: 9fb3 cc3d 9f15 9abd 853a 1b3d 95e4 c3bc
00000110: a786 313d 350e 223d f61e 20bd b5fd 193b
00000120: c30e ab3d 2fe2 e43c 71fd dd3c 6015 88bd
00000130: a983 c4bd 1dd3 9a3d 0e22 a13d 7f0d a63d
00000140: 53b8 74bd 233f 91bd 2f99 c63d c968 8bbd
00000150: 5816 323d f8cc 4abc 8bc6 c2bc 5758 a2bc
00000160: 2cc6 e53d f090 a2bc 35d1 d93a 6b83 043d
00000170: c5b7 0abd 44a9 c2bc c193 d7bc 59b0 cebd
00000180: 58eb 753c f9c7 8e3d 60d9 1c3d 521e a13d
00000190: 457f bfbc 68ab debc 8afe c6bc 8d2f 2fbd
000001a0: dfc0 5b3d c222 0dbd b7eb bb3d 0bf5 e4bd
000001b0: 7c8c 133d 43cd b03d e86e 77bd 6210 b03d
000001c0: ab10 993d 5ec9 0b3c 195f 393d 3d8e 3c3c
000001d0: ea32 10bd a9b4 48bd d2cf 76bd 1aa9 643d
000001e0: be16 a53c e106 843c 6a57 a3bc e141 5e3d
000001f0: 0b27 13bd 166f 33bc 420a ab3b f730 a63c
00000200: 354b 0f3e 8a6f c1bc 7d07 27be 61b8 743d
00000210: a71d 0e3e 1b19 153e 4c27 573b 2872 263d
00000220: a8cc 03be 7245 c8bd fe01 103d 8f6f 07be
00000230: 0668 18bd 26a6 d13d ab2f 71bd 2284 c03c
00000240: b249 953d 8730 143e 707d 363d c82a d13d
00000250: 458c 193e 5fc1 a3bd 3ab9 9dbd 75d8 8fbd
00000260: 4798 b1bd 3533 f23d af0f e63c bb99 193e
00000270: 30f4 fc3d e777 8e3d 445b 11bc d2a2 ea3d
00000280: 38cc bcbc 8d71 9d3c 3bda 523b 50d5 bfbd
00000290: 3110 98b9 14d7 9f3d 8238 4cbd 9159 57bd
000002a0: 50d1 36bd 75b6 3f3e 0386 0abe 5074 49bc
000002b0: 6775 123e a2d0 f8bd cef2 bebd 5d59 6fbd
000002c0: 5e02 50bd 9d6e d93c b52e e4bc c391 21bb
000002d0: 802a babc 58c4 8dbd 0c9c 17be 3b54 403b
000002e0: f3c8 043e f876 e0bc eb33 8ebd 8614 d1bc
000002f0: e66a 5fbd 0388 8f3d 556d 933d db15 a33d
00000300: 5c67 efbb c847 103d b2ca ac3d 9b3b d5bd
00000310: 41d1 08bd 9b32 073e cd28 223d 9f4e 96bd
00000320: 68b5 613d 9b85 233c 6e11 07bd 49de 593d
00000330: ed99 4b3c 2bbe 1cbe 302a dabd 38ce e2bc
00000340: f94f 3d3d 9438 d8bd f457 5e3c 6382 0b3c
00000350: e378 b53d 56ef 013e 3f57 003e ffac d6bd
00000360: 3b95 c03c 58c1 fabc e939 013e fcb2 7dbc
00000370: 325d a5bd 3e4c e2bd 07e7 29bd abc3 1dbe
00000380: 0d8f f5bd b52d f6bc f49a f23d f89a c83d
00000390: 1f55 44bd 4f74 c0ba 7843 f63d a6d6 f4bd
000003a0: c81c 463c dc72 d9bd fb49 e3bd 93ee eabd
000003b0: b390 fe3c 6a74 89bd 711a bb3d 866e 93bd
000003c0: 0cf4 003e 43fb 313c fa6f ebbd 9479 bcbb
000003d0: 8904 ac3c 8fdd 0d3e 2045 4e3e dd74 453d
000003e0: dd9c e13b fde5 27be 46db cd3c a33a b23d
000003f0: 3267 373e 3c97 10bd 0535 393c c2d3 fc3d

bias_ih f4 [512]
0.008167926 0.15008774 0.06838792 0.15399219 0.015632462 0.006375027 0.15789106 0.10129071
0.22831401 0.09856696 -0.010430271 0.11546566 0.15534574 0.14433281 0.06781579 0.13068075
0.008310596 0.056182187 0.13654204 0.100624256 0.13391419 -0.046460308 0.06712763 0.10266537
-0.0058470564 -0.032526672 0.046846304 0.11618788 0.039379865 0.012643451 0.14209414 0.106417805
0.18899457 0.06482486 0.0032156566 0.052607186 0.13931525 0.107469104 0.06491241 0.10592859
0.07869655 0.080291584 0.18295257 0.16228816 0.09173104 0.009774202 0.14569147 0.21270384
0.09441486 0.07295857 0.06427675 0.07376721 0.030361557 0.06945586 0.02134317 0.13513985
0.07264433 0.03702938 0.031525906 -0.028813614 0.035999645 0.014818391 0.11981527 0.12736721
-0.01056952 -0.027975775 0.1504777 -0.015809886 0.09727836 0.056814365 0.01016123 -0.076359846
-0.0049014087 0.0003985461 0.04727085 0.16012867 0.009297847 0.0920404 0.028161105 0.042958606
0.0155817 0.11840232 0.07894351 0.076649554 0.09185074 0.0382339 0.10229074 0.12747097
0.12238857 0.1534826 0.21012765 0.22922212 0.12619986 0.08935505 0.1368419 0.20888962
0.095227025 0.032893006 -0.03126403 0.11784934 0.22481433 -0.045631517 0.0097526265 0.07713515
0.039635852 0.074579395 -0.00055113994 0.10301727 0.05834399 0.3011981 0.11141271 0.03475553
-0.012610458 0.18284559 0.14331236 0.08318616 0.062077183 0.11374538 0.10064833 0.009558042
-0.007173182 0.058777574 0.20298703 0.06775244 0.073159054 0.13467553 0.15848698 0.1597629
0.050819818 -0.0065757586 0.034280676 -0.11409221 -0.06030286 -0.05214049 0.023708303 -0.025117824
-0.0124226045 -0.062229358 -0.0029139319 -0.00077654695 0.07538343 0.0409969 -0.015199849 -0.044335824
0.033987742 0.01978695 -0.083153196 -0.10486079 0.008976307 -0.0871363 0.028963303 0.001181718
0.009480076 -0.06979302 -0.055701293 -0.09936048 -0.049177296 -0.05604759 -0.013953585 -0.058667626
-0.073354214 -0.032027096 -0.0029349998 -0.0038360797 -0.041336723 -0.0572685 -0.07952904 -0.09245567
0.07503867 -0.13080928 -0.13117023 0.03821504 -0.08860442 -0.10571144 0.03318109 -0.07341032
-0.12288268 -0.11076427 0.059702195 0.02165893 0.088952854 -0.08964532 0.019414451 0.0670112
0.012256357 -0.06728857 0.0021573408 -0.11449337 -0.066656396 -0.041097704 -0.10640066 -0.07777386
0.030044844 -0.004102315 -0.0749118 -0.070274346 0.035958786 -0.08908373 0.02264452 -0.036670618
-0.03396913 -0.13125592 -0.010032182 -0.043707103 0.013500043 -0.01791438 -0.08531002 0.050261308
0.07807395 -0.078079484 0.110024035 0.008490452 -0.068685435 0.036843088 -0.0059427377 -0.09584552
-0.051896963 -0.089252405 -0.04745662 0.023248741 0.009842912 -0.039845504 -0.030754672 -0.027040135
-0.013961114 0.07565829 -0.031554375 -0.014812144 -0.12409408 -0.02084024 0.023897901 0.056969743
-0.08773951 -0.02671147 0.035273395 -7.2480994e-05 -0.16895162 -0.17270273 -0.092391685 0.08085179
0.016002718 -0.019045016 -0.13532561 0.07616922 0.036968756 0.032704715 -0.0288798 -0.010556686
-0.07561253 0.030055467 -0.036399454 -0.04232169 0.062541015 -0.04421373 0.057158604 -0.099672854
00000000: c4d2 053c 9ab0 193e f70e 8c3d 21b0 1d3e
00000010: a60f 803c 9ae5 d03b 32ae 213e 8171 cf3d
00000020: 26cb 693e 79dd c93d bae3 2abc 4379 ec3d
00000030: f412 1f3e fbcb 133e 01e3 8a3d 2dd1 053e
00000040: 2b29 083c 4b1f 663d add1 0b3e 1714 ce3d
00000050: cd20 093e 2a4d 3ebd 367a 893d 3942 d23d
00000060: aa98 bfbb b03a 05bd e9e1 3f3d e9f3 ed3d
00000070: c84c 213d 7a26 4f3c 2081 113e 94f1 d93d
00000080: cb87 413e e5c2 843d c4bd 523b a27a 573d
00000090: a8a8 0e3e c318 dc3d ccf0 843d 17f1 d83d
000000a0: a82b a13d ea6f a43d eb57 3b3e de2e 263e
000000b0: 7cdd bb3d f923 203c 2530 153e 09cf 593e
000000c0: 945c c13d 4e6b 953d 87a3 833d 4313 973d
000000d0: cdb8 f83c e03e 8e3d dfd7 ae3c 1a62 0a3e
000000e0: 8dc6 943d 1fac 173d 4f21 013d 870a ecbc
000000f0: 5d74 133d d6c8 723c b561 f53d 8d6c 023e
00000100: c82b 2dbc 742d e5bc d416 1a3e bc83 81bc
00000110: e039 c73d 2eb6 683d 4a7b 263c 8d62 9cbd
00000120: ff9b a0bb f4f3 d039 149f 413d c5f8 233e
00000130: ff55 183c ad7f bc3d 1eb2 e63c 5df5 2f3d
00000140: 634a 7f3c ea7c f23d 23ad a13d 71fa 9c3d
00000150: 3e1c bc3d 269b 1c3d cf7d d13d c087 023e
00000160: dca6 fa3d 8b2a 1d3e b42b 573e 34b9 6a3e
00000170: 893a 013e c8ff b63d 4820 0c3e 29e7 553e
00000180: 6306 c33d d1ba 063d b60e 00bd ff5a f13d
00000190: ba35 663e 1de8 3abd 7bc9 1f3c 09f9 9d3d
000001a0: 3459 223d 15bd 983d 607a 10ba b8fa d23d
000001b0: 1cfa 6e3d a336 9a3e 592c e43d d15b 0e3d
000001c0: 189c 4ebc e03b 3b3e 7ac0 123e 815d aa3d
000001d0: a544 7e3d 56f3 e83d b620 ce3d 5599 1c3c
000001e0: 030d ebbb c1c0 703d d5db 4f3e cbc1 8a3d
000001f0: 6ad4 953d 62e8 093e 694a 223e e398 233e
00000200: 7128 503d 7679 d7bb e569 0c3d 2da9 e9bd
00000210: 2200 77bd 4491 55bd ea37 c23c e5c3 cdbc
00000220: 2e88 4bbc 36e4 7ebd aaf7 3ebb 2f91 4bba
00000230: a162 9a3d 5eec 273d ca08 79bc 7b99 35bd
00000240: bb36 0b3d 3e18 a23c 394c aabd 41c1 d6bd
00000250: 5c11 133c 8474 b2bd 7344 ed3c e0e3 9a3a
00000260: 5252 1b3c a5ef 8ebd 0a27 64bd 827d cbbd
00000270: 226e 49bd 2892 65bd 949d 64bc 774d 70bd
00000280: bc3a 96bd d82e 03bd 2059 40bb bd66 7bbb
00000290: b250 29bd 6092 6abd 1fe0 a2bd 6659 bdbd
000002a0: e0ad 993d def2 05be 7d51 06be 6087 1c3d
000002b0: 3c76 b5bd 3d7f d8bd e5e8 073d 2658 96bd
000002c0: eaa9 fbbd 61d8 e2bd 4a8a 743d 126e b13c
000002d0: ea2c b63d f797 b7bd 0e0b 9f3c 2b3d 893d
000002e0: e3ce 483c 97ce 89bd 2c62 0d3b 807b eabd
000002f0: 2683 88bd 1156 28bd 97e8 d9bd e747 9fbd
00000300: 9b20 f63c b66c 86bb 5c6b 99bd ffeb 8fbd
00000310: 8549 133d 8871 b6bd 0081 b93c ee33 16bd
00000320: 3723 0bbd f467 06be 055e 24bc 3806 33bd
00000330: 492f 5d3c 2ec1 92bc 05b7 aebd cdde 4d3d
00000340: 3ce5 9f3d 23e8 9fbd 4854 e13d 891b 0b3c
00000350: f3aa 8cbd c7e8 163d 4cbb c2bb a84a c4bd
00000360: e991 54bd f7c9 b6bd df61 42bd 2574 be3c
00000370: 2a44 213c 0a35 23bd 39f1 fbbc 4683 ddbc
00000380: 28bd 64bc bcf2 9a3d 293f 01bd a3ae 72bc
00000390: 0925 febd 27b9 aabc 88c5 c33c 1b59 693d
000003a0: c6b0 b3bd 03d2 dabc d67a 103d f000 98b8
000003b0: a701 2dbe fcd8 30be da37 bdbd a095 a53d
000003c0: 2218 833c 4b04 9cbc cc92 0abe 9cfe 9b3d
000003d0: 8d6c 173d 61f5 053d 5595 ecbc f3f5 2cbc
000003e0: beda 9abd e236 f63c 9817 15bd 8259 2dbd
000003f0: 8115 803d 7519 35bd 241f 6a3d 4821 ccbd
